model/DQN/_Player_dqnAgent_model_epoch_4500.pth (torch_old, 489705 bytes, 10 tensors)

fc1.weight f4 [256, 57]
000000 63 0b 4d bf 7a 43 5c 3e 73 3d 86 bf 39 10 b2 3d
       -0.800955 0.21510115 -1.0487503 0.086945005
000010 46 08 07 be 0c 97 28 bb b6 4c 41 be c0 e0 0e bf
       -0.1318675 -0.0025724797 -0.18876919 -0.5581169
000020 e4 e2 23 3f 2a e6 db be e8 4d 12 3f 74 ca 1b bf
       0.6401808 -0.4294904 0.57150126 -0.60855794
000030 7f 78 af 3d 8f 4a ce be 2a 98 03 bf 26 e6 9f 3d
       0.08567905 -0.4029126 -0.5140406 0.07807569
000040 1f ce 10 bf bc 1a 0d be d1 6a a6 3e c3 f1 26 bd
       -0.56564516 -0.1377973 0.3250337 -0.040757906
000050 57 a6 b2 be b5 f7 d0 bd 69 ca 16 c0 7f fa 9d c0
       -0.34892532 -0.10203496 -2.3561041 -4.936828
000060 40 54 71 c0 55 5f bc 3e f7 64 b8 be 82 78 db be
       -3.7707672 0.36791483 -0.3601453 -0.42865378
000070 68 c5 aa bd 60 ee e5 bf 42 7a 53 bd d5 97 44 3d
       -0.083384335 -1.7963371 -0.051630266 0.04799636
000080 10 21 2d bf db 3c 17 bf 72 87 f1 be 3e e8 36 bf
       -0.67628574 -0.59077233 -0.4717365 -0.71448123
000090 c3 6b 1b bf a5 da 87 be 10 16 72 3d 99 3c 93 3f
       -0.60711306 -0.26534 0.05910307 1.1502868
0000a0 60 42 e4 3b b7 71 d0 3e f9 1b 7c 3e 03 f7 2f bf
       0.0069659203 0.40711758 0.24620046 -0.68736285
0000b0 6c 58 1a c0 25 55 7a 3f 8f d3 f5 be 03 aa 00 40
       -2.4116468 0.9778617 -0.4801297 2.0103767
0000c0 6c 1e 29 bf 3c 87 11 bf b9 25 5d be 10 b4 bd 3e
       -0.66062045 -0.56846976 -0.21596421 0.3705144
0000d0 5f d9 02 bf b0 9a ea 3f 21 de d7 3e 54 45 24 bf
       -0.5111293 1.8328457 0.42161658 -0.64168286
0000e0 c5 fd 52 3d 8d 1a ee 3f d7 50 55 3f e9 75 58 be
       0.051511545 1.8601853 0.83326477 -0.21138729
0000f0 08 7d fb bf ab 26 9e 3e 05 e2 60 c0 6f fb 4e 3f
       -1.9647532 0.30888876 -3.5137951 0.8085241
000100 97 4c a9 bf 52 6e 06 40 e7 71 0a bf 1b d2 ea 3f
       -1.3226498 2.1004834 -0.5408005 1.8345369
000110 84 69 57 bf 4c d0 7c 3f 3c d2 56 bf ab f1 d2 3f
       -0.8414538 0.98755336 -0.8391454 1.6480001
000120 54 ec 5e 3f db 2c e6 3e d5 c3 a9 bf d5 0d c0 3e
       0.8707936 0.44956097 -1.3262888 0.37510553
000130 e2 60 2f c0 83 91 00 bf 92 45 13 3e e4 fa 54 c0
       -2.7402883 -0.50222033 0.14382008 -3.3278131
000140 e2 ef 85 bf 64 83 5a c0 b1 8e cc bd d5 74 e3 bf
       -1.0463831 -3.4142694 -0.09988154 -1.7770029
000150 b0 04 ee bd e8 c9 b6 bc e3 e7 01 c0 9c 58 78 bd
       -0.11621988 -0.022313073 -2.0297782 -0.06063138
000160 e6 8e 1d 40 04 7d bb 3e 7d f2 cc bf 4f d0 b9 3e
       2.4618468 0.36618817 -1.6011502 0.3629174
000170 d1 19 0a 3f b5 d2 cc bf af ca 28 3e e0 f7 af bd
       0.5394564 -1.6001803 0.16483568 -0.085922
000180 8e c9 58 bf 98 1a e3 3c b8 6b b1 bf af 87 20 be
       -0.8468255 0.027722642 -1.3860998 -0.15676759
000190 7a 38 c1 bf 18 28 e8 be 3e 84 09 3f 60 6f d5 bf
       -1.509536 -0.4534309 0.5371741 -1.6674614
0001a0 fd 69 9a bf f9 ec fb 3e 9a ef dd bf f8 8a 47 3e
       -1.2063595 0.49204233 -1.7338746 0.19486606
0001b0 a9 a3 fa bf bc 9f ce bf 68 11 b8 bf 57 ef 9b 3e
       -1.9581195 -1.6142497 -1.4380312 0.3045604
0001c0 1c 7c db bf cf bb 9e 3f 31 52 f5 3f ec b0 2b bf
       -1.714725 1.2401065 1.9165708 -0.67066836
0001d0 1d f1 fb 3e e1 04 11 bf 47 1e bd 3f f4 5e bc bd
       0.49207392 -0.5664807 1.4774865 -0.09197798
0001e0 b4 10 0c 40 7d d3 c9 bd 3c 2e 77 3f 3b 3d 9c bf
       2.1885195 -0.09854791 0.96554923 -1.2206186
0001f0 33 99 4d 3f 11 80 24 c0 4c c6 26 3f 4c 2b 8a bf
       0.8031189 -2.5703166 0.65146327 -1.0794463
000200 44 c1 da 3e c1 5d eb bf e1 a0 35 3e 6d 41 98 bf
       0.42725575 -1.8387986 0.17737152 -1.1894966
000210 5f 65 01 40 a6 7d 75 bf a3 c2 02 bf 47 dd 0d c0
       2.0218122 -0.9589485 -0.5107824 -2.2166307
000220 62 8e 21 bf f8 88 90 c0 01 b2 d4 bf ea 2c 20 bf
       -0.63107884 -4.51672 -1.6616822 -0.62568533
000230 ab 9f 10 bf ef 53 84 3f 5e c5 00 3e c6 96 92 3f
       -0.56493634 1.0338115 0.1257529 1.1452262
000240 b7 ae f3 bd 0f 8b b5 bf 45 df 26 bf 06 ae 2d bf
       -0.118985586 -1.4183062 -0.6518443 -0.67843664
000250 d1 4e 52 3e 63 f2 57 bf 02 30 4d bf 19 41 23 3e
       0.20537879 -0.8435423 -0.8015138 0.15942802
000260 e4 16 dc bc 50 6e 91 bf 16 a8 92 3d e9 ab 64 bf
       -0.026866384 -1.136179 0.07160966 -0.89324814
000270 4a fd 12 40 5a a0 4d bf c8 aa 0d bf 3f b1 d0 bf
       2.2967095 -0.803228 -0.55338717 -1.6304091
000280 d4 9f 39 bf f1 68 3c bf ec ec 09 bd 1d 5f 50 bf
       -0.72509503 -0.7359763 -0.033673212 -0.8139513
000290 2d 8d e9 3f ad 56 45 3d f1 7e 42 bf 4a d1 12 bf
       1.8246208 0.048178364 -0.7597495 -0.573506
0002a0 0b 98 99 bf 85 61 35 bf fe 6e de bd 88 75 a1 bf
       -1.1999525 -0.7085193 -0.10861014 -1.2613993
0002b0 4c d0 9f 3e 3e a3 59 bf b1 27 ea 3e bb 7c 75 be
       0.31213605 -0.8501471 0.45733407 -0.23973362
0002c0 be 13 24 3f 20 f6 de bf 34 87 fe 3e 64 51 98 c0
       0.64092624 -1.7418861 0.49712527 -4.7599354
0002d0 20 e5 2b 3f 95 25 34 c0 25 4b 41 3f 9c 24 fa be
       0.6714649 -2.8147938 0.75505286 -0.48856056
0002e0 ee fc 23 3e c4 14 95 3e 07 2d 8f bd 23 68 7f 3f
       0.16014454 0.29117405 -0.0699101 0.99768275
0002f0 3b 5c 3d 3e bf b7 ed 3d ae 6b b2 3c 95 34 8a 3d
       0.18492214 0.116073124 0.021779861 0.067483105
000300 9e fa 88 bf 1f 19 e9 be 79 95 a9 c0 b4 d2 98 c0
       -1.0701482 -0.45526978 -5.299496 -4.7757206
000310 8e 51 db bd d5 66 0b c0 c8 d3 ef bf 00 62 3d bb
       -0.10708915 -2.1781514 -1.8736506 -0.0028897524
000320 c6 e9 cb 3f f8 dc ae 3d 8f 15 ca be 5b 52 f8 3e
       1.5930717 0.0853824 -0.39469573 0.48500332
000330 3f 5a 21 c0 f5 d9 be be 96 3f 07 3f 81 47 15 c0
       -2.5211332 -0.37275663 0.528314 -2.3324893
000340 f9 cb d5 be 80 65 89 3c 99 af 0c bf e8 7e d6 bc
       -0.4175718 0.016772032 -0.5495544 -0.02618356
000350 d7 7f 07 3e 37 ec 34 bf d2 5b 19 c0 12 ee fc 3e
       0.13232361 -0.70672935 -2.3962293 0.49400383
000360 4e b7 72 3e 0c be 1d c0 58 db 38 bf 1a 5a d2 3e
       0.23702738 -2.4647245 -0.7220969 0.41084367
000370 6d e8 19 c0 ee 0c 54 3e f9 e8 f7 3e 1d 0f 19 c0
       -2.4048111 0.20708057 0.48419932 -2.3915474
000380 4b 1c 79 3f 42 ed b2 be 74 56 1f c0 28 70 fc 3c
       0.97308797 -0.34946638 -2.4896517 0.030815199
000390 c1 0a 8b 3f d6 ad 76 3e 0f 52 81 3f e3 4d 4e bf
       1.0862657 0.2408975 1.0103167 -0.80587596
0003a0 34 1a 8f b9 bd 71 92 be 14 0a 56 bf 5c 85 70 bf
       -0.00027294608 -0.286024 -0.8360913 -0.9395349
0003b0 36 f4 10 3d 7d eb 3c be 32 36 bd 3e 40 99 a8 be
       0.035389148 -0.18449207 0.3695541 -0.3292942
0003c0 6c 78 ae 3e ef 31 ba be 23 21 22 3e 0e 80 a1 be
       0.3407625 -0.3636622 0.15832953 -0.3154301
0003d0 10 08 97 3f cd e1 1b bf 1c 56 d3 be 3b 85 73 be
       1.1799335 -0.6089142 -0.41276634 -0.23781292
0003e0 f2 59 a6 3f 8b 49 20 be 9e a8 4c bf be 41 82 40
       1.2996199 -0.15653054 -0.7994479 4.070525
0003f0 29 f8 ac bf 35 a9 10 be 15 97 cc be 7f 51 c7 bf
       -1.3513232 -0.14127047 -0.39959016 -1.5571746

fc1.bias f4 [256]
000000 8b fd 13 bf a8 61 c6 bf 50 02 2b bf 43 be 1f c0
       -0.5780875 -1.5498552 -0.66800404 -2.4959877
000010 8f db 8a be c6 68 a2 be 7e 7b 36 3e f0 f0 5c 3f
       -0.27120635 -0.3172056 0.17820546 0.8630514
000020 88 be 57 3f 08 8d 7b 3f f6 57 b4 3e ad a7 61 bf
       0.842751 0.9826207 0.3522336 -0.8814648
000030 fc 89 50 bf 72 39 67 be 27 2d cb be c6 86 90 be
       -0.8146055 -0.22580507 -0.39682886 -0.28227824
000040 0d 2d 19 bf f7 d4 69 3f 14 62 13 bf 32 75 9b bf
       -0.5983437 0.91340584 -0.5757153 -1.214514
000050 7b ec fa bf d7 74 eb be 74 33 83 bf fb f7 18 bf
       -1.9603418 -0.4598758 -1.0250077 -0.5975339
000060 77 83 71 3e 5e 13 79 be bb 51 4d bf 4b 68 64 bf
       0.23585306 -0.24323794 -0.80202836 -0.8922164
000070 ea 00 2f bf 4f 53 f4 be 71 e7 91 be 9d c9 d1 be
       -0.6836077 -0.4771981 -0.28496888 -0.4097413
000080 28 fe dc bf 77 27 8e bf 3f 22 af 3e 77 a9 19 bf
       -1.7265062 -1.1105794 0.34205815 -0.6002421
000090 07 44 ac 3f 9a fe 8e bf 61 39 84 bf 00 91 99 bf
       1.345826 -1.1171448 -1.0330011 -1.1997375
0000a0 71 16 91 bd 93 d4 bb be 37 98 c4 3e 27 61 8a 3e
       -0.070843585 -0.3668562 0.3839738 0.27027246
0000b0 96 d2 69 be 99 08 f4 bf 51 9b 87 be e7 1d 60 bf
       -0.22834238 -1.9065124 -0.26485685 -0.8754563
0000c0 60 f8 06 be 95 20 89 bd f4 21 13 bf cb 9e 7d be
       -0.13180685 -0.06695668 -0.57473683 -0.24767606
0000d0 a0 f1 0b be a3 25 92 bf 80 06 33 bf 65 72 dc be
       -0.13666391 -1.1417736 -0.69931793 -0.43056026
0000e0 04 64 d7 3f 69 15 6e bf 5b 82 c6 bf 82 b4 ae bf
       1.6827397 -0.9300142 -1.5508531 -1.3648837
0000f0 57 bb 89 bf 2f 66 9a bf 83 11 3b 3f b5 b7 58 bf
       -1.0760297 -1.2062434 0.73073596 -0.84655315
000100 3c d5 1c 40 94 09 2e bf 07 db 66 be 4c 5f 56 3f
       2.4505148 -0.67983365 -0.2254449 0.8373916
000110 47 60 f9 bd 68 73 8a be 72 5f d9 bf 66 c8 b8 be
       -0.121765666 -0.27041173 -1.6982253 -0.36090392
000120 d1 7d 66 bf 1a 8b 18 be 7f b7 e5 bf 79 e5 3a bf
       -0.9003573 -0.14896813 -1.7946624 -0.730064
000130 3a d9 8f be 1a bb c6 3e 9c 97 b3 bf 2a 50 8a bf
       -0.28095418 0.38814622 -1.4030643 -1.0805714
000140 39 b3 55 bc 8b 67 28 bf cc 25 30 40 86 93 30 3e
       -0.013043218 -0.65782994 2.752307 0.17243776
000150 2f 96 99 bf ae 06 1d c0 1d 56 af bf 3b 35 64 bf
       -1.1998957 -2.4535327 -1.3698155 -0.89143723
000160 c5 e9 49 bf eb 26 72 bf 7e 37 a4 bf d3 4a 91 bf
       -0.7887233 -0.94590634 -1.2829435 -1.135096
000170 bf b3 17 3f fe 56 69 bf 4e 2c a8 bf 75 50 69 3f
       0.59258646 -0.91148365 -1.3138521 0.9113839
000180 16 27 44 bf 4f 94 e7 3e 40 e6 0c bf 3d 0d 43 bf
       -0.7662214 0.45230338 -0.55038834 -0.76192075
000190 52 26 fc bf fe 68 e5 be 9c 76 80 bf 9c a7 59 bf
       -1.9699194 -0.44806665 -1.0036197 -0.85021377
0001a0 f8 de b2 bf 24 7f 83 be 71 4a 29 bf ff 4b 60 bf
       -1.3974295 -0.25682938 -0.66129214 -0.8761596
0001b0 1a 01 46 bf a6 87 09 bd cc ef 66 3e 9a a0 7f bf
       -0.7734543 -0.03357663 0.22552413 -0.99854434
0001c0 1e c9 60 bf 49 f2 e1 be c1 c5 d9 bf 95 16 9a bf
       -0.8780688 -0.4413016 -1.7013475 -1.2038141
0001d0 4e 1e 8e bf 10 a6 1e be 28 68 ab bf 29 17 9a be
       -1.1102998 -0.15493035 -1.3391161 -0.30095795
0001e0 79 84 8a 3e 0e 8e b3 be 66 9b cd be 1e 28 74 be
       0.27054194 -0.35069317 -0.40157622 -0.23843428
0001f0 5a c2 09 bf 84 96 51 bf 74 27 6a bf ed 97 dd bf
       -0.5381218 -0.81870294 -0.9146645 -1.7311989
000200 25 97 d8 be 1b 9f 39 bf fa 8b 64 be bb c3 a4 3e
       -0.42302814 -0.725084 -0.22319022 0.3218058
000210 d5 3b d3 3d 32 6d 31 bf 6e 8e 55 3f 22 23 ee 3e
       0.103141464 -0.69307244 0.83420455 0.4651118
000220 8c bc b3 bf ba 19 b9 bf 99 2d 98 bf 88 87 93 bf
       -1.4041915 -1.4460976 -1.1888915 -1.1525736
000230 a8 d2 1b 3e a5 4d 65 40 4c ff 1b c0 af 8d d4 bf
       0.15217078 3.582864 -2.437457 -1.6605738
000240 ff e0 6c 40 aa bc c6 bf b9 ff dc bf 9f 8b 6e bf
       3.7012327 -1.5526326 -1.726554 -0.93181795
000250 48 17 12 3e ff f3 75 bf 3e 5d 04 bf 71 79 04 c0
       0.14266694 -0.96075433 -0.51704776 -2.0699122
000260 87 b9 95 bd 49 ef 37 40 2d 0b 0d bf 56 29 d0 bf
       -0.07310777 2.8739798 -0.5509518 -1.6262615
000270 ad c1 1c bf a7 07 cb bf da 74 8a bf 25 d4 62 be
       -0.61233026 -1.586171 -1.081691 -0.22151239
000280 e0 db 12 3f 6c 7d 43 bf 3e 0c d2 bf 5f 8c 64 bf
       0.5736675 -0.76363254 -1.6409986 -0.8927669
000290 a0 43 0b be 20 34 68 bf 38 b0 e0 be ea 4c 7e bf
       -0.13600016 -0.90704536 -0.43884444 -0.9933611
0002a0 88 67 cc bf 1f 4a af bf a6 1f 8e 3e bd 55 fa bf
       -1.5969095 -1.3694495 0.2775852 -1.9557415
0002b0 b3 80 0b 3f 56 63 47 bf 17 e9 c4 3e d5 91 9e be
       0.54493254 -0.7788595 0.38459083 -0.30970636
0002c0 ae f7 48 3f 2d 09 57 3e 89 8b 9b bf bf 1d 0d c0
       0.7850293 0.20999594 -1.2151958 -2.2049406
0002d0 a1 63 69 3f bf 12 a7 bf 76 de 8e bf dd c8 95 bf
       0.91167647 -1.3052596 -1.116164 -1.1701924
0002e0 36 76 df 3f fc b1 b1 be 60 33 49 be f5 20 14 c0
       1.745795 -0.34706104 -0.19648504 -2.3145115
0002f0 5a 79 a2 3e 25 32 86 3e 9a 0a 82 40 6d fc 15 bf
       0.3173321 0.26210132 4.063794 -0.58588296
000300 72 71 94 bf 8e a7 71 bf 60 d8 75 bf f8 46 ac 3e
       -1.1597121 -0.94396293 -0.9603329 0.33647895
000310 09 1b 0a bf 21 d7 8f 3f da ac c0 bf 86 1d a2 bf
       -0.539475 1.1237527 -1.505275 -1.266526
000320 93 a7 25 bf a1 c9 d9 bf 54 92 91 bf 11 2a 04 3f
       -0.6470882 -1.7014657 -1.1372781 0.5162669
000330 6d 5e 05 40 e9 58 a9 bf 0e 49 16 c0 70 b5 00 bf
       2.0838883 -1.3230258 -2.348209 -0.5027685
000340 3f 83 e5 bf 37 1f 6f bf 52 12 a2 bf ca 19 83 bf
       -1.7930678 -0.93407005 -1.2661841 -1.0242245
000350 75 62 96 bf 11 63 9c bf 92 cc 29 bf 63 64 ac bf
       -1.1748797 -1.2217733 -0.66327775 -1.3468136
000360 0d 96 de bf bc 2f 9d bf 1f 6f ad bf 32 6a cd 3e
       -1.7389542 -1.2280192 -1.3549536 0.40120083
000370 96 5a 71 bf 78 49 c8 bf 44 71 2e bf 2f 15 7d bf
       -0.9427885 -1.5647421 -0.6814158 -0.9886045
000380 49 4e 00 3f 9b b4 f5 be 44 58 39 bf 62 65 be be
       0.50119454 -0.47989354 -0.7240031 -0.37186724
000390 43 9e 2f be 4d 2e 5d bf 51 d0 86 3d 5c 07 de 3f
       -0.17150216 -0.86398774 0.06582702 1.7345996
0003a0 ae 40 d3 be 8a 7f ac bf 7e 04 d1 3f 6b 99 81 bf
       -0.41260284 -1.3476422 1.6329496 -1.0124944
0003b0 95 96 fc be 42 47 81 be 19 3d 88 bf 73 31 61 3d
       -0.49333635 -0.25249678 -1.0643646 0.0549788
0003c0 73 03 9d 40 4d 55 1d be 44 bf a4 3e 07 f8 a9 bd
       4.906671 -0.15364571 0.32177174 -0.082992606
0003d0 bc 7b 07 3e 78 b4 fc bf fc fd fa 3f 4a 86 97 be
       0.13230795 -1.9742575 1.960876 -0.29594642
0003e0 b8 d8 61 3e 82 27 c4 bf 0e d5 fd be 50 da 27 3e
       0.22055328 -1.5324557 -0.4957661 0.16391873
0003f0 02 64 9e bf 66 95 93 bf 69 48 51 3f 21 ae 2c bf
       -1.237427 -1.1529968 0.81751114 -0.674532

fc2.weight f4 [256, 256]
000000 ca 2c ba bd d7 05 f7 bd 63 c2 ce 3c 96 9d 57 bd
       -0.09090574 -0.12061661 0.025239175 -0.05264052
000010 cc 14 33 3d 37 59 ae bc 38 b1 25 bd 98 63 6a bc
       0.043721005 -0.021282775 -0.040452212 -0.014305972
000020 15 39 04 3d bd 86 22 be 3d 63 4d bd 84 73 6b bd
       0.032281 -0.15871711 -0.05014347 -0.05748321
000030 e9 6e 51 bc f7 03 af bc d8 2f 18 3c c1 b9 20 3d
       -0.012782791 -0.021364195 0.009288751 0.03923965
000040 cc 29 80 bd c5 c6 b7 3b cf b2 08 bc d0 cf a8 bd
       -0.06257972 0.005608412 -0.008343413 -0.08242762
000050 c3 20 a6 bd a4 90 67 bd 58 62 9d bd 91 60 bb bc
       -0.081117176 -0.056534424 -0.07684773 -0.022873195
000060 48 11 fb bd 92 d0 26 bd 34 77 d6 3c ca 1d 3f bc
       -0.122591555 -0.040726252 0.026179887 -0.011664817
000070 f3 9c 10 3d 65 9e 6b 3c 8d d2 83 bd 8b 67 ec bc
       0.03530593 0.014381026 -0.06436644 -0.028857967
000080 1e 02 c5 bc bb b2 d2 3c 1c e6 5e 3d 50 43 3f 3c
       -0.024048861 0.025719991 0.05441867 0.011673763
000090 20 73 38 3c 7e b9 2e b9 92 63 bc bc 1d f2 d6 bc
       0.011257917 -0.00016663034 -0.022996698 -0.026238495
0000a0 2a b0 99 3b 31 e8 9e bd d9 49 0d 3c b8 03 a2 ba
       0.00469019 -0.07759131 0.008623564 -0.0012360727
0000b0 01 eb 00 be b8 2f 88 bd 18 c7 27 bd 06 9f 56 bd
       -0.12589647 -0.06649727 -0.040961355 -0.05239775
0000c0 f5 14 15 3d 13 1d a8 bd f7 6f f0 3c 75 16 15 3d
       0.03639694 -0.082086705 0.029350264 0.03639837
0000d0 1e a7 19 3c 09 67 6d bd 01 52 5e 3d ef 0a fd bd
       0.009378223 -0.05795959 0.054277424 -0.12355601
0000e0 cc 36 64 3d c5 3c b7 3d 15 77 3e be 62 88 44 bc
       0.05571632 0.08947138 -0.18600114 -0.011995407
0000f0 82 2f b6 39 2b c0 0c 3c 3a 3b 94 bc c0 ec 25 bd
       0.0003474914 0.008590738 -0.018094648 -0.040508986
000100 6d 60 6b bc 08 29 2a 3c 9f 07 c5 3b 51 f3 ab bd
       -0.014366251 0.010385759 0.0060128714 -0.08396018
000110 ea db 87 bd ed 8c 7a bc 0a a8 12 bc 60 01 7c 3d
       -0.06633742 -0.015292388 -0.008951196 0.06152475
000120 9f a2 6e bd 30 e1 c8 bc e8 a1 f6 bd 08 d2 0f 3c
       -0.058260556 -0.02452144 -0.120426 0.008778103
000130 9e fe 33 bd 1a da 70 bc 2e d1 d6 3c 65 78 24 3d
       -0.043943994 -0.014700437 0.026222792 0.04015388
000140 b6 a3 0c bd cd 0b 8a bc 2c 1d f3 bc 87 40 db bd
       -0.034335814 -0.01685133 -0.029676996 -0.10705667
000150 a0 89 90 3d eb 63 2c 3d 9e ef 60 bd 8b 21 be bd
       0.070575 0.042087477 -0.054916017 -0.092837416
000160 54 d1 a0 bc e8 b8 7b bd b8 14 ce 3c 80 10 ab bd
       -0.019631065 -0.061455637 0.025156364 -0.083527565
000170 5d 0c c9 bb 75 7a ec bc 4c d7 87 bd 93 e4 95 bd
       -0.006135507 -0.028866986 -0.066328615 -0.07318988
000180 fb a9 8a bd 38 da 4a 3c 7d 91 97 bd 4b 12 bb bd
       -0.067707025 0.012381129 -0.074007966 -0.091343485
000190 88 bc 49 bc 01 49 44 bc 46 57 f8 bd fe 7a 3e 3d
       -0.012313016 -0.011980296 -0.12126021 0.046504013
0001a0 f6 fc 10 3b 6f d0 96 bd 1b db 9b 3b bb 77 3a 3c
       0.0022123433 -0.07363974 0.004756344 0.011381085
0001b0 ce e6 48 bd 2a 5d fe 3c 41 34 28 bc bc 8f 89 bd
       -0.049048238 0.031050283 -0.010266365 -0.06716868
0001c0 16 7f 34 bb bd 3c 01 3d 9d c6 b5 bc ed 46 1d bd
       -0.002754157 0.031552065 -0.022189433 -0.03839772
0001d0 4c 07 ac 3c 27 ad bb bc 5b cf a9 bd a7 3b 33 bd
       0.020999573 -0.022909714 -0.08291503 -0.04375806
0001e0 ca de 22 3c 43 51 96 bd 38 42 d4 bd 64 f8 2a bd
       0.009940812 -0.07339718 -0.10364193 -0.04174079
0001f0 7a 2f 3f 3d c6 78 ab 3c 66 71 2c bd 33 8f c0 3c
       0.046676137 0.020931613 -0.042100333 0.023505783
000200 d5 cb d5 bd 33 a8 83 3d a3 e7 46 bd 75 ed 99 bc
       -0.104392685 0.06428566 -0.04856075 -0.018789986
000210 2b ab 86 bd 26 21 57 bd b2 a3 1a bd e8 d9 88 bc
       -0.065756164 -0.052521847 -0.03775377 -0.016705468
000220 b2 16 40 3d 22 60 3a bd 45 95 1c 3a 43 be 94 bd
       0.046896644 -0.045501836 0.00059731706 -0.07262852
000230 92 8c 8e bc f3 60 99 bd 95 eb 2e bd de 52 e0 bc
       -0.017401014 -0.07489195 -0.042705137 -0.027383264
000240 dc 68 13 be c8 4d 5f bd e7 eb 40 bd 67 af ee bc
       -0.1439547 -0.054517537 -0.047099974 -0.029136373
000250 91 0d 7d bd 96 6b 49 3c 31 3f 18 bd 09 84 f0 3c
       -0.061780516 0.012293717 -0.03716964 0.029359834
000260 c0 d6 dc bc 65 71 3d bd 51 e6 12 3d 06 7b a0 bd
       -0.02695787 -0.04625072 0.035864178 -0.07835965
000270 28 cf 4a bd 9c 62 89 bd bd 10 43 bd a2 4e a2 bc
       -0.049513966 -0.06708261 -0.047623385 -0.019812886
000280 5a 69 18 bd 15 27 fe bb 68 ea 6c bd b0 57 a3 bc
       -0.037209846 -0.007756124 -0.057840735 -0.019939274
000290 fb c3 0f be 39 e5 0f be e0 a4 7c 3d b5 f8 9d bb
       -0.14039604 -0.14052285 0.061680675 -0.004820908
0002a0 b3 66 59 bd 6b de c6 3c 81 44 3f bd 22 74 8d bd
       -0.053076457 0.024275979 -0.04669619 -0.06906916
0002b0 5a 80 5f 3c 09 57 d8 3c 78 e5 d1 bc 2f 63 7d ba
       0.013641441 0.02640869 -0.025622115 -0.00096659636
0002c0 4e db bc bd a6 cb 61 bd 9b e4 c5 bc 08 62 0a 3d
       -0.092215165 -0.055125855 -0.02415686 0.033784896
0002d0 e4 87 d9 bd ce a8 91 bc 07 de 72 3c ff a7 e3 bb
       -0.10621622 -0.017780688 0.014823443 -0.006947517
0002e0 c6 ce 69 3d 20 e9 00 bc ae d6 7a bd 9e 05 8a bc
       0.05708196 -0.007868081 -0.06123989 -0.016848382
0002f0 66 3b 0e bd d6 be c0 3c 36 a5 01 be 24 6a 22 3d
       -0.034724616 0.023528498 -0.12660679 0.039652005
000300 7a 65 24 bc d3 ac 1f be 62 c4 03 3d bd 89 2b 3d
       -0.0100339595 -0.15593271 0.032169707 0.041879404
000310 67 67 62 bd 60 60 18 3c 8e c9 e1 bd a8 82 a1 bd
       -0.055274393 0.009300321 -0.11024772 -0.07886249
000320 ee c6 ad 3b 89 f6 44 bd 91 d5 83 bd 50 ee a2 bc
       0.0053032553 -0.048086677 -0.06437219 -0.019889027
000330 79 3b 75 bb 56 27 32 3d fa 2b 72 3d 7c 29 5b 3c
       -0.0037419482 0.043494545 0.05912397 0.01337659
000340 ac e3 51 bd 98 eb 32 3d 65 7a 85 bd ad 90 59 bd
       -0.051242515 0.04368171 -0.065174855 -0.05311649
000350 bd 0b fe 3c 93 86 82 bd f4 e3 db bb 1f 6a 7a bd
       0.031011457 -0.06373324 -0.0067105237 -0.06113636
000360 79 9c 34 bd ef b4 8a bc 70 d3 9a bc df e5 58 3d
       -0.044094536 -0.016931979 -0.01889965 0.052953597
000370 79 89 96 3d e0 43 fa 3b 30 bc c2 3b 2a 80 46 3d
       0.073504396 0.007637486 0.005942844 0.04846207
000380 73 69 9d 38 9a 4a 7b bc b3 76 00 bd 3a eb 01 bd
       7.505985e-05 -0.015337611 -0.0313632 -0.03171847
000390 3e 0a 0d bd c1 98 79 bc d7 e9 07 be 60 0b ae bc
       -0.034433596 -0.015234173 -0.13272797 -0.021245658
0003a0 f4 98 6f 3c 07 b2 7e bd 75 76 93 bd cd b5 1b bd
       0.014623869 -0.0621815 -0.07200328 -0.038015176
0003b0 75 c6 72 bd 39 8d a7 3c 58 ac 0e 3d 69 74 62 bd
       -0.059271295 0.020453082 0.03483233 -0.0552868
0003c0 22 a2 fe bc 06 4d 56 bd 50 16 33 bd 32 02 74 bd
       -0.03108317 -0.05231955 -0.04372245 -0.059572406
0003d0 7d 34 bc bc d4 ba 47 bd 84 97 c7 3c 78 a4 b7 bc
       -0.022974247 -0.048762158 0.02436424 -0.022417292
0003e0 b1 70 42 bd c7 62 3b bd 72 a1 bb 3c 6c ca 86 bd
       -0.047470752 -0.0457485 0.022904132 -0.06581578
0003f0 d0 06 3f bc b4 e8 61 3c 90 b7 cb bd 55 f4 ac bc
       -0.011659339 0.013788391 -0.09947121 -0.0211126

fc2.bias f4 [256]
000000 38 66 21 bc ea 09 ae ba 6d 2c 80 3d c1 0e ac bd
       -0.009851031 -0.0013278101 0.062584735 -0.084012516
000010 6f 2a 88 bd 0c 5e 4e bd 06 d1 cc 3d 5f a7 f3 bd
       -0.066487186 -0.05038266 0.100008056 -0.11897158
000020 6e f1 1e bd 17 13 40 bf 9e 1c a9 bd 73 58 17 3e
       -0.038804464 -0.7502913 -0.082574114 0.14779834
000030 6e f0 34 bd b9 30 b8 bd cb 64 95 bd 54 1d 21 bf
       -0.044174604 -0.08993668 -0.07294615 -0.62935376
000040 f7 7d b6 bf e7 4f 6f 3e 32 d2 d4 3e ce d8 02 c0
       -1.4257191 0.23370324 0.41566616 -2.0444827
000050 1a bd 22 3e 3c 54 a6 bd 10 5e ad bd 0f 6b fe 3e
       0.15892449 -0.08121535 -0.084652066 0.49691054
000060 9d 30 c2 bd 2a 2a cb 3d f7 16 d3 bd 8b a8 12 3f
       -0.094819285 0.099201515 -0.103071146 0.57288426
000070 0e a4 14 bd f8 49 7c bf 4a 5e 5e bd a3 c2 1d bb
       -0.036289267 -0.9855037 -0.05428914 -0.0024072311
000080 6b 39 ae bd c7 0b 88 bd fd c3 00 3d bc 4c fa bd
       -0.08507045 -0.06642871 0.03143691 -0.12221667
000090 34 26 ed 3e a3 66 20 bd 80 6e 9a 3f 2c 9a 7d 3d
       0.4631821 -0.039160382 1.2064972 0.061914608
0000a0 cd 41 82 bd d9 4b bf 3e 2a b5 fa bd 39 da b9 bd
       -0.06360207 0.37362555 -0.122415856 -0.09074826
0000b0 7b 51 4c 3f ed 04 06 be c1 39 b4 bd 13 6c a4 bf
       0.7981183 -0.13087817 -0.08800078 -1.2845482
0000c0 ad ee 9b bd ff 8a ad bc e0 f5 a7 bd 51 a1 40 ba
       -0.07613883 -0.021184443 -0.08201194 -0.0007348257
0000d0 f3 30 2e bd 79 bd 54 bc 88 67 3d 3f c9 28 89 bf
       -0.04252715 -0.012984627 0.739861 -1.0715572
0000e0 ee 4d 87 3d ff 46 1a 40 3c 24 06 bf 9c 15 88 bd
       0.06606661 2.4105833 -0.5239904 -0.06644747
0000f0 09 6a 00 be a2 a6 de bd 84 cb 4b bb 83 78 c1 bd
       -0.12540449 -0.108716264 -0.0031096647 -0.09446814
000100 7d 1b a8 3d 68 53 53 40 e1 8c 93 3c 03 16 51 be
       0.08208368 3.3019657 0.018011512 -0.20418553
000110 7b f9 49 3d cc 24 74 bd 7f 62 20 3f 3f 15 08 be
       0.04931019 -0.059605405 0.62650293 -0.13289355
000120 b0 f4 6b bd 42 ce 33 be 34 3f 80 3d 27 33 a9 3d
       -0.0576064 -0.1755915 0.06262055 0.0826171
000130 54 47 cf bc 99 f2 02 40 46 3e 97 bd 85 c6 c9 be
       -0.025302567 2.046057 -0.073849246 -0.3940927
000140 b3 07 b3 3f ef c7 55 bd b3 31 45 bd 0b cc c7 be
       1.3986725 -0.052192625 -0.0481431 -0.3902286
000150 a0 24 f4 3e f9 d6 09 bc 59 1d 84 bd ca c5 2f be
       0.47684193 -0.00841307 -0.0645091 -0.17165294
000160 63 d0 dc bd 96 4a 8d 40 a4 70 7a c0 9c 61 8d bd
       -0.10781934 4.4153547 -3.913125 -0.06903383
000170 9b bd a0 bd 8e 07 69 be f3 ce 1d bd e2 68 75 bd
       -0.078486644 -0.22756788 -0.03852744 -0.059914477
000180 81 f7 14 3f dc f6 31 bd d0 27 fa 3c 2e 39 c4 bc
       0.5819016 -0.043448314 0.030536562 -0.023953047
000190 7d 91 02 bd 2b ec 00 3f be 41 a9 bd 7d cb a0 bd
       -0.03187703 0.50360364 -0.082644925 -0.07851312
0001a0 2b af 21 be 03 38 88 3e d6 ad 91 bf ca c9 b2 3e
       -0.15789478 0.26605234 -1.1381176 0.34919578
0001b0 d9 6c 9e bd 48 09 6f bd 5d d8 22 40 f2 5a 5c 3d
       -0.07735605 -0.05835846 2.5444558 0.05379767
0001c0 9d d3 32 3e 30 ea ed bd 8b 74 e2 bd 9a 95 1c be
       0.17463537 -0.11616933 -0.11057385 -0.15291443
0001d0 6e e8 19 bf 98 73 08 bb 3f 30 ad bd 35 ec 2c 3f
       -0.60120285 -0.0020820852 -0.08456468 0.67547923
0001e0 aa 09 18 bd 80 68 a6 bd 7b 20 03 c0 4b a8 be be
       -0.03711859 -0.081254005 -2.0488575 -0.37237772
0001f0 5f af 27 3f d9 13 01 c0 9c e9 89 3f eb d2 d3 bd
       0.6550197 -2.0168364 1.0774417 -0.10342964
000200 f9 7c 19 bf 21 73 b9 bd 80 5b 1e be 38 61 17 bf
       -0.5995632 -0.09055162 -0.15464592 -0.5913272
000210 d0 b3 ec bd 76 45 a5 3e 59 44 43 bc 4d a4 60 c0
       -0.11557734 0.32279557 -0.011918151 -3.5100281
000220 88 33 c8 bd 7f 96 50 bf c4 3d 1c be 55 97 13 be
       -0.09775454 -0.8147964 -0.15257937 -0.14413197
000230 97 67 20 bf 67 a5 97 bd 30 39 ca bc d2 ea 0e be
       -0.62658066 -0.07404595 -0.024685472 -0.13956764
000240 1c 5b f0 bd f6 6f e5 be f0 36 2f bd 23 ed 6f bd
       -0.11736128 -0.44811982 -0.042777 -0.05857576
000250 29 44 b7 3f 3e c6 23 bd 56 f8 bb bd 5a 34 c6 bd
       1.4317676 -0.03998398 -0.09178226 -0.09677954
000260 b9 02 f3 bd 9b 1e df bd 37 fa 53 be 4a 23 f5 bb
       -0.11865754 -0.108945094 -0.20700918 -0.0074810134
000270 be fc b5 bf 55 68 a8 bd ce 14 ba 3b 19 fc 2c be
       -1.4217756 -0.08223025 0.0056787496 -0.16893043
000280 b8 42 a3 bd 65 33 28 40 5b d0 ec bd 5a ba 8c bb
       -0.0797171 2.6281369 -0.11563178 -0.004294676
000290 f8 a6 8d bc f3 8f 59 bd 75 74 0e c0 61 cd 03 be
       -0.017291531 -0.053115796 -2.225858 -0.12871315
0002a0 8b b2 af 3f d3 95 5d be 5b 4f 50 bd 56 f9 2d bf
       1.3726362 -0.21639185 -0.05085693 -0.6795858
0002b0 f8 37 89 bd c3 dc 43 be 25 b5 de bb 52 78 e9 be
       -0.06700128 -0.19127183 -0.0067964965 -0.4559961
0002c0 d8 74 36 bf 70 cb 31 be 5e b3 b0 3c f4 ad 96 be
       -0.7127204 -0.17362761 0.021569904 -0.2942959
0002d0 97 3b ff bd 1a 33 9b bb 4e dd 03 be 9a 32 a3 bd
       -0.12462538 -0.0047363164 -0.1287739 -0.07968636
0002e0 71 24 7b 3f e5 b5 b6 bd 6e b2 6f 3c 05 fa a4 bd
       0.9810248 -0.089214124 0.014629943 -0.080555
0002f0 26 3e 2b 40 2b 51 10 3c c4 d5 28 bf fe 60 08 be
       2.6756682 0.008808414 -0.6595118 -0.1331825
000300 7e 40 12 3b 96 a1 61 bc f2 5b 25 3d 1e 1f 06 be
       0.0022316272 -0.013771435 0.04037089 -0.13097808
000310 4f 36 01 be 49 f1 38 3f 65 ac 07 40 09 69 83 bd
       -0.12618373 0.7224317 2.1198971 -0.06416518
000320 ab 3d c4 3e 37 7d 8c bc 8f 37 2a bd 5b 66 63 c0
       0.383283 -0.01714955 -0.04155689 -3.5531223
000330 c0 9b de bd 16 d8 be 3e 74 3b 55 be cc b2 03 be
       -0.10869551 0.37274235 -0.20823461 -0.12861174
000340 c8 6c 96 3e 97 37 9f bd 06 70 35 be 90 31 32 3c
       0.29379869 -0.07774275 -0.17718515 0.010876074
000350 35 45 b8 bd c1 c3 dd bd 50 64 0c 3e fc 2e c9 3f
       -0.08997575 -0.10828353 0.13710141 1.5717463
000360 19 a4 9a 3e 1c e1 fe bd 66 db 33 bc ec 4f fd bd
       0.30203322 -0.1244528 -0.010977602 -0.123687595
000370 a0 16 49 3f 99 d2 39 be c7 66 2b be d1 9f 86 bd
       0.7855015 -0.18146743 -0.16738425 -0.06573451
000380 45 b2 65 bc 08 ff 9c bf c0 7f a1 bd 97 02 f7 3f
       -0.014019554 -1.2265329 -0.078856945 1.9297665
000390 f3 d3 aa 3d 8c 11 8f 3d f7 f8 b6 3e 92 42 a9 bd
       0.08341207 0.06985769 0.3573682 -0.082646504
0003a0 f3 22 9c bd db 6c 3c bd 34 e4 df bd 83 7c 81 bd
       -0.076238535 -0.04600225 -0.10932198 -0.06322577
0003b0 a4 82 48 3e 24 8d a0 bd 8e 4d 81 3e 96 05 09 c0
       0.19581085 -0.078394204 0.25254482 -2.140966
0003c0 fc d5 9f bf 00 27 93 bf 8c 96 d5 3e 59 64 a6 bd
       -1.2487178 -1.1496277 0.4171642 -0.081246085
0003d0 56 b1 c8 bf db 14 8b 3e fd cc d3 bc 38 26 29 bd
       -1.5679119 0.2716435 -0.025854582 -0.041296214
0003e0 63 28 e9 bc d9 78 2f 3e 3f 49 d8 bd 0a f9 d5 bc
       -0.02846164 0.17135943 -0.105608456 -0.026119728
0003f0 43 bc 1e bd de 70 aa bd 37 87 f7 3f 99 c2 bc bd
       -0.03875376 -0.08322309 1.9338139 -0.09216804

fc3.weight f4 [128, 256]
000000 78 36 46 3d 36 04 a4 3b 40 aa ae bd 00 ba 1f bd
       0.04839179 0.005005385 -0.08528566 -0.038995743
000010 39 00 95 3d 15 64 bd bc 0f 24 20 bf 19 8e 3c 3d
       0.07275433 -0.023119012 -0.6255502 0.046033952
000020 78 36 b7 3d 87 c1 83 bf ce e1 95 bd f3 db 29 bd
       0.08945936 -1.0293435 -0.073184595 -0.041469526
000030 9c d1 28 3b 0d 94 06 39 fc 3d 85 3c af 75 8f 3e
       0.0025759703 0.00012834389 0.016264908 0.28019473
000040 d6 18 3b be 60 79 39 bf 63 94 ff be 40 32 5f bf
       -0.18271193 -0.7245083 -0.49917898 -0.8718605
000050 20 2b 5a 3e 96 2a 9c 3c e7 84 57 3b 2a 56 c0 3e
       0.21305513 0.019063275 0.0032885612 0.37565738
000060 7a e6 99 bb 25 e9 7f be a3 c5 0b 3d 76 6f 29 be
       -0.0046966644 -0.24991281 0.034124028 -0.16546425
000070 49 c1 44 3d 05 5a b8 3d 7a 08 b3 be fe 15 40 3f
       0.048035894 0.09001545 -0.34967405 0.7503356
000080 13 e7 d6 3c 80 6f 16 3b b7 af 8a bd 7f bc 23 3c
       0.026233232 0.0022954643 -0.06771796 0.009993671
000090 54 35 7c bf ae dc c8 3c 6e e7 9a bd 51 d2 60 3d
       -0.9851887 0.02451929 -0.07563673 0.054888073
0000a0 c4 8b ae 3c ce e5 4d 3d 19 8c 5c 3c f9 12 97 3c
       0.02130688 0.050267987 0.013461136 0.018441664
0000b0 5c ab 45 bf 56 c0 15 bd 1f 3d 9f 3e 6f 63 be bf
       -0.772146 -0.03656038 0.3110132 -1.4874095
0000c0 57 c8 7e 3d fd 4f 85 bd 54 b9 8c 3e 2a e1 2f bd
       0.062202778 -0.06509397 0.27485144 -0.042939343
0000d0 90 a1 91 3b b3 f9 08 3d d7 a4 8e be 42 67 5b be
       0.0044443086 0.033441257 -0.27860138 -0.21426108
0000e0 43 19 89 be 7f 62 fb bd ab 7f db 3e a0 d9 9f bc
       -0.26777086 -0.12274646 0.4287084 -0.019512951
0000f0 98 5b 23 bc 3b 02 12 be 07 3d b9 bd 04 e3 c3 bc
       -0.009970568 -0.14258663 -0.09044843 -0.02391196
000100 a3 dc 7c 3e 5e ef 25 bf 68 a4 48 3d f7 c5 09 bb
       0.24693541 -0.6481837 0.048984915 -0.0021022537
000110 f5 b2 69 3e c7 d6 78 bb e0 b3 c0 bf 50 ea 2c 3c
       0.22822173 -0.0037969814 -1.5054893 0.010553911
000120 12 d3 67 be c4 0e 82 3c 61 15 bf bc 8d 5a 1c bf
       -0.2263911 0.015876181 -0.023325624 -0.6107567
000130 42 80 ad 3c ae 3c dd 3d 2a ef 1a 3d 5d 68 4f 3f
       0.021179322 0.10802589 0.03782574 0.8101862
000140 f1 51 32 bf 60 8b 07 be a9 ae 21 3b 45 4e 01 bf
       -0.6965628 -0.13236761 0.0024670756 -0.50510055
000150 23 fa b1 bf c6 95 c2 bb a0 14 55 3c 0c ed 2e 3e
       -1.3904461 -0.0059382645 0.013005406 0.17082614
000160 ab be 21 bd 11 f6 65 bd 04 fd b8 bf 24 b2 86 bc
       -0.039488476 -0.05614287 -1.4452214 -0.016442366
000170 d2 78 2b 3d 85 d3 1d 3e 26 9f 3a bd 13 15 1d bd
       0.04186327 0.1541272 -0.045561932 -0.038350176
000180 c8 2b 46 bf 98 27 2d bc 1f fe 99 bf bf bd 74 bd
       -0.77410555 -0.010568522 -1.2030677 -0.05975127
000190 68 13 cc 3d 32 1c fd 3d 8d 14 1a bf 24 97 ba 3c
       0.09964639 0.123588935 -0.6018761 0.022777148
0001a0 83 22 88 bd fb e8 12 bf ca df e9 bf d6 4d 02 3f
       -0.066472076 -0.5738675 -1.827142 0.5090002
0001b0 82 47 1d be 62 47 9c bc db 70 b7 3e b2 f6 e3 3c
       -0.1535931 -0.019077007 0.3582829 0.027827594
0001c0 8a 47 28 be 47 f3 be bd 85 0a 65 3b 28 f6 13 bc
       -0.1643354 -0.09323745 0.0034948897 -0.009030856
0001d0 57 70 10 be f4 14 e2 bc 12 3f 4c bd 6f 3e 1d bf
       -0.14105354 -0.027597882 -0.049864836 -0.6142339
0001e0 24 3b 2e bd 6a bb 2b bd 2e a6 26 c0 07 7f 12 3f
       -0.04253687 -0.04192678 -2.6038928 0.5722508
0001f0 ee ac df 3e 4a 52 c3 3c af 04 31 3f cb e0 30 3d
       0.43686622 0.02384295 0.6914777 0.04318313
000200 04 2c 6c bf 4e b0 63 bd 58 3b 7d 3d 8d d9 4a bf
       -0.9225466 -0.05558806 0.061824173 -0.79238206
000210 72 26 81 ba 34 84 91 bf b8 e7 3a bc b1 aa 50 bf
       -0.0009853377 -1.136847 -0.011407785 -0.81510454
000220 1c 88 88 bc 8d 09 69 bf 80 29 ab 3a 20 fd e6 bb
       -0.016666465 -0.910302 0.0013058633 -0.007049218
000230 62 60 2b bf 17 df 5c 3f a2 4b 1e 3c fc 2b 13 bd
       -0.66943944 0.8627791 0.009661587 -0.03593062
000240 e8 a8 79 3d 8b ee dc be c2 3a 83 bd 25 a0 31 3d
       0.060952097 -0.43150744 -0.064076915 0.043365616
000250 d5 7b 91 bf 10 ed 4b bc ee 87 0d 3e 47 8e 8e bc
       -1.1365916 -0.012446657 0.13821384 -0.017401827
000260 21 1e dc bc 43 e3 cf 3e 8e 85 e2 bf d8 b8 34 3d
       -0.026869835 0.40603074 -1.7697008 0.044121593
000270 24 ed 1b bf c2 a1 21 bd b3 66 63 3d be 35 94 bf
       -0.6090872 -0.039460905 0.055517863 -1.1578901
000280 8e 95 59 bd ad 71 ed be eb 58 74 3d f9 c2 da 3c
       -0.053121142 -0.4637579 0.05965511 0.026704298
000290 d4 40 8e be 1f db 34 bd 7e be 32 bf 4c 28 0f be
       -0.27783835 -0.044154283 -0.6982192 -0.13980216
0002a0 7c c9 33 bf 36 ae 80 be 48 c2 d4 3c 22 b2 50 bf
       -0.70229316 -0.25132912 0.025971547 -0.8152181
0002b0 f8 cc 7a 3c 9f cc c8 be c2 43 03 be 22 d4 c3 3f
       0.015307657 -0.39218614 -0.12818816 1.5299113
0002c0 0b 5e cb be 5d 70 b2 bf ef fa 76 3e 3e 82 55 be
       -0.39720187 -1.394054 0.24119161 -0.20850465
0002d0 01 66 bd bd 51 56 59 bc 59 31 4d bd c7 30 1c 3d
       -0.09247971 -0.013265208 -0.05009589 0.038132455
0002e0 a5 5d 5e bf 10 51 b3 3a 91 48 93 bd 16 11 9d 3b
       -0.8686164 0.0013680775 -0.07191575 0.0047932966
0002f0 59 e1 d2 bf bf ac 60 bd 27 1a 25 bf 32 fe b0 3d
       -1.6475021 -0.054852244 -0.6449303 0.08642234
000300 fc b1 15 3d 06 aa 2d 3c db cb bd 3e fd 23 3a bc
       0.036546692 0.010599619 0.37069592 -0.011361119
000310 56 ed b5 bc 79 6a d9 3f e7 f4 33 bf 87 69 06 3b
       -0.022207897 1.6985618 -0.70295566 0.0020509677
000320 8b a6 85 bf d7 2b 10 3d e1 b2 da 3e ef fc 55 bf
       -1.044145 0.03519806 0.427146 -0.8358907
000330 96 68 10 bd e1 c4 cb 3e 33 af 96 bb f0 1f ef ba
       -0.03525599 0.39798644 -0.004598522 -0.0018243771
000340 1e 80 85 bf 7c 77 fa bc 2c 0c ca 3e bd 07 c4 bb
       -1.0429723 -0.030574553 0.3946241 -0.005982368
000350 9e ff 49 3d 68 97 8a 3e 83 b7 26 3d f1 25 13 bf
       0.04931604 0.2706864 0.040702354 -0.5747977
000360 11 17 85 3e fa 59 76 be 2c fa 29 3d da 13 33 bd
       0.2599416 -0.24057761 0.041498348 -0.043720104
000370 e9 a1 8d 3d d4 4c 95 be e3 38 ca 3a 0b ac 3c 3d
       0.069156475 -0.29160178 0.001542833 0.04606251
000380 d5 5c 23 3d ff 00 83 bf 5f 6a b2 3b a0 95 b1 be
       0.039883453 -1.0234679 0.0054448093 -0.34684467
000390 68 19 00 bf 21 44 36 bc b3 46 b4 3e 7b a7 64 be
       -0.50038767 -0.011124642 0.3521019 -0.22329514
0003a0 1e ec fb 3c 8c e3 26 bc d0 2e 7d bc 86 a9 65 3d
       0.030752238 -0.010186087 -0.0154530555 0.056069873
0003b0 61 02 c1 3e f1 ac 7a bb 89 f8 db bf 39 c9 0b 3d
       0.37697127 -0.0038250054 -1.7185222 0.034127448
0003c0 e3 cd 9a bf 65 f6 74 be 55 21 2d be 1e 0a 0d bd
       -1.2094082 -0.23922117 -0.16907246 -0.034433477
0003d0 00 64 00 be c0 cc bb 3d f7 9d 54 3b 3b d9 55 3d
       -0.12538147 0.09169912 0.0032442787 0.05220912
0003e0 c7 7a 85 3d 3d c7 04 bf e4 13 6b 3d d7 b3 93 3d
       0.065175585 -0.51866513 0.057392016 0.07212036
0003f0 7c 70 8b 3e 14 80 eb bc 9d 29 0c 3f dd fd 83 bd
       0.27234256 -0.028747596 0.54750997 -0.06444905

fc3.bias f4 [128]
000000 ce 19 cc 3e 96 bd 20 be 0e eb 7a 3f bf 49 84 bc
       0.39863437 -0.15697321 0.98014915 -0.016148446
000010 79 fd 34 bf 71 c4 de 3d bd e7 84 bd 2b 8b 40 bf
       -0.7069927 0.10877312 -0.06489513 -0.75212353
000020 8e 33 13 bf e9 0b 42 be f4 bb 22 be 7c 0f cc bf
       -0.5750054 -0.18949856 -0.15892011 -1.5942225
000030 af 42 d7 3e ab 39 4e be ae 69 bc 40 f3 b4 45 bd
       0.42043063 -0.20139186 5.8879004 -0.04826827
000040 fc ac 74 3e 46 87 ad 40 06 b0 b5 be e0 e8 8b bf
       0.23894113 5.422763 -0.35485858 -1.0930443
000050 95 64 19 3f 56 02 55 be 36 80 97 3c e3 e5 53 bf
       0.599191 -0.20801672 0.018493753 -0.82772654
000060 eb f3 aa bf 64 c4 f9 3e a8 ac 77 3f 59 88 29 be
       -1.3355688 0.48782647 0.9674783 -0.16555919
000070 7d b5 bf bf 6e 72 03 c0 b5 16 1a c0 e7 1b b6 be
       -1.4977261 -2.0538592 -2.407636 -0.35568163
000080 6a 9c 15 c0 9d ea 43 bf ff 13 e8 3f 72 2a 49 3e
       -2.3376718 -0.76529866 1.8131102 0.19645098
000090 3e 9b 32 be 11 eb b4 bd 0d 52 3b bf 1d d0 6b bd
       -0.17442033 -0.08833898 -0.73172075 -0.05757152
0000a0 90 07 6f 3f 6a 1d 53 3f 44 78 0c be ce 1d 1d 40
       0.93370914 0.8246676 -0.13717753 2.4549441
0000b0 a0 47 be bd 5d e0 9f 3e 83 cb 8a 3f 78 3c e7 3f
       -0.09291005 0.31225863 1.0843357 1.8065329
0000c0 6b 14 91 be 05 ff a7 3e 1b a3 8f bd d1 30 1f 3e
       -0.2833589 0.32811752 -0.07013532 0.15545966
0000d0 42 64 f7 bf bb 49 fe bd ff df 7c c0 c1 e8 8e bd
       -1.9327471 -0.12416407 -3.9511716 -0.06977988
0000e0 d2 89 31 bf d5 1b f0 3e d1 41 fd bd 84 aa fa bd
       -0.6935092 0.46896234 -0.12366069 -0.122395545
0000f0 e3 84 3d be c4 df ad 40 5d c4 84 bf de 30 6f 3e
       -0.18507724 5.433565 -1.0372425 0.23358485
000100 00 6a 80 be 3e 65 80 bf 14 e8 d8 bf de e9 8f bd
       -0.25080872 -1.0030897 -1.6945825 -0.070270285
000110 90 fe 7a be 03 47 86 be 22 1f e9 3e c1 b9 c4 bd
       -0.2451117 -0.26226053 0.45531565 -0.09605742
000120 19 e8 82 be 03 d3 a2 be d0 e0 86 bf e0 68 04 be
       -0.255677 -0.31801614 -1.0537357 -0.12930632
000130 5a 38 25 bf 61 68 b5 bd 7b e4 c1 bd 46 ed 62 be
       -0.6453911 -0.08857799 -0.09467407 -0.22160825
000140 eb 01 0b be 65 63 42 bd 5c 12 6d bd 55 f1 b2 be
       -0.1357495 -0.04745807 -0.057878837 -0.34949747
000150 62 f5 04 3f 79 28 e6 3d 70 f4 88 bf ce ce 1b bb
       0.51936924 0.11238188 -1.0699596 -0.0023774388
000160 e2 9a 0e be bf 06 58 bd ca ac b6 be fe 92 05 bf
       -0.1392627 -0.05274081 -0.35678703 -0.5217742
000170 1f 68 79 3e 6f 83 eb bf 5a be 9f 3f c7 85 ab 3e
       0.24356125 -1.8399485 1.2479966 0.33500502
000180 da 98 74 3f 71 9f 16 be b5 5e bd be 38 ef a8 bd
       0.9554573 -0.1470926 -0.36986318 -0.08248752
000190 06 6d 26 be 80 45 1f bd 64 c5 38 be 53 26 f7 be
       -0.16252527 -0.03888464 -0.18044049 -0.48271427
0001a0 7d 53 f3 bd 80 5a 32 be b5 8d a6 c0 f5 ad 02 3f
       -0.118811585 -0.17417336 -5.204798 0.5104669
0001b0 6e 83 33 be e5 de 85 bd 8a 18 71 3f 76 5f 88 bd
       -0.17530605 -0.065366544 0.9417807 -0.06658833
0001c0 36 4b 48 be a1 ff 7a 3e 3a b6 25 be ff 28 03 bf
       -0.1955994 0.24511577 -0.16182795 -0.5123443
0001d0 c3 49 28 be 96 ed 5a 40 0f ac f1 bf ff dd 44 bd
       -0.16434388 3.420751 -1.8880633 -0.048063274
0001e0 00 72 ae bd 92 5b 3d 3f b1 74 48 3f 99 35 5f bf
       -0.085178375 0.7396785 0.78303057 -0.8719116
0001f0 ba 6f e3 bf b8 dd 99 3f f4 a0 6a 3c 23 c0 3e 40
       -1.7768471 1.2020788 0.014320601 2.980477

fc4.weight f4 [64, 128]
000000 a4 93 9c be cc c3 02 3d 19 89 91 3e 55 b7 13 be
       -0.3058139 0.031925008 0.2842491 -0.14425404
000010 c5 1e a9 be e9 b6 d7 be 7c 5b 5a bd 15 8b 97 3e
       -0.33031288 -0.42131737 -0.053309903 0.295983
000020 72 78 83 be 8c d4 29 be 76 de 57 3d d9 2b 22 bf
       -0.2567783 -0.16584986 0.05270239 -0.63348156
000030 ba 5a c5 3d 5b 92 93 bd ed b5 a9 3d be cf 8b be
       0.09636445 -0.072056495 0.08286653 -0.27306932
000040 6d a2 a5 be d7 88 80 bf 98 be ba 3c c5 fe 7f bf
       -0.32350484 -1.004176 0.02279596 -0.9999812
000050 dd 42 01 bf 6b 82 f9 bd 60 ea a6 bc 84 15 97 be
       -0.5049265 -0.121830784 -0.02037543 -0.29508603
000060 e4 8a eb bd fc 3e 84 be cc a8 f9 be 1b ea 95 bd
       -0.11501101 -0.25829303 -0.48761594 -0.07320043
000070 63 3e d7 3e a8 ef de 3c e0 b7 9e bf bd 12 31 be
       0.42039785 0.027213886 -1.2399864 -0.17292304
000080 b7 58 13 bf 69 d8 f5 3c 8f d1 33 be e5 1b d3 bd
       -0.57557243 0.030010419 -0.17560409 -0.10308055
000090 3d 12 83 be 20 da c9 b7 38 ac dd be 2a 35 0f be
       -0.25599852 -2.406264e-05 -0.43295455 -0.13985124
0000a0 80 4c 4a be 2a 7e 4b 3e 2d 78 71 bd b1 f1 0b bf
       -0.19755745 0.19872347 -0.0589525 -0.54665667
0000b0 99 fa 02 3b 06 1b 9b bc 4c 00 00 be d3 b1 38 be
       0.0019985794 -0.018933784 -0.12500113 -0.18036585
0000c0 34 3d bb bd 78 4b 28 bd aa eb 4d be cf 32 ae bd
       -0.09142533 -0.041087598 -0.2010943 -0.08505785
0000d0 25 37 37 bf bb 80 87 bd 90 d4 76 bf 5b 6d 22 3e
       -0.7156852 -0.0661635 -0.96418095 0.15862028
0000e0 bb 48 ad 3d 90 a6 8d ba 94 43 21 3d 1e 9a 17 bc
       0.08461138 -0.0010807086 0.03937109 -0.009253053
0000f0 8a 40 8a 3e e2 9f 23 bf e0 fe 8f bf 63 ed 74 be
       0.27002364 -0.63915837 -1.1249657 -0.23918681
000100 c3 8a 13 bd fd b7 90 3e b0 81 69 3e 6f c9 10 3d
       -0.036021005 0.28265372 0.22803378 0.035348352
000110 79 b7 28 bc 9c e9 bf 3e 0a 30 2f be 2d eb ff bc
       -0.01029765 0.37482917 -0.17108169 -0.03124007
000120 d4 9c 74 bd e7 68 e0 3d d8 20 57 be 99 c4 ad 3c
       -0.059719875 0.109575085 -0.21008623 0.02121191
000130 41 9a 78 3d 1a 0b 2a 3c 9a 51 88 3d 0d 98 b0 be
       0.060693983 0.010378623 0.06656189 -0.34491006
000140 d0 d4 8a bd 05 52 6a 3d ad 10 0f bf 6d 18 92 3e
       -0.06778872 0.057207126 -0.5588482 0.2853426
000150 1a b5 c1 3d b9 26 2e 3e b6 94 50 bf 9a 92 0a 3f
       0.094583705 0.17006959 -0.81476915 0.54129946
000160 a2 cd 25 be a0 77 10 be 89 ba 09 3f f8 89 37 bf
       -0.16191724 -0.14108133 0.53800255 -0.716949
000170 d7 21 a7 3e e3 85 a7 bd 33 9b 0c bf e3 92 dc be
       0.32643005 -0.08179834 -0.54924315 -0.43080816
000180 e1 76 8c be 9c 09 ff bd d7 83 cf 3d 42 6e 43 be
       -0.27434447 -0.12453005 0.10132568 -0.19085029
000190 c3 b8 26 3c 46 c7 08 be 38 05 a6 bb 13 1c 31 3d
       0.010175887 -0.13357267 -0.00506654 0.043239664
0001a0 a8 72 9c bd a0 40 2c 3b a4 64 5a bf 26 6b 02 3d
       -0.076390564 0.0026283637 -0.85309815 0.031840466
0001b0 45 24 66 bd bb 04 2d 3e 46 a3 1a bf d4 ea d6 3b
       -0.056186933 0.16896336 -0.60405385 0.0065587554
0001c0 e9 f3 ba 3c d1 ac 8c be f9 1b 8f bd e9 7c 33 be
       0.022821384 -0.27475598 -0.06987757 -0.17528118
0001d0 3a b9 fa be 64 83 bd bc 72 5e b2 be 49 c7 83 3d
       -0.48969442 -0.023133941 -0.3483768 0.06434495
0001e0 3b a1 40 bd 7a aa b7 3d 24 59 1e 3e 38 93 24 bf
       -0.04702876 0.08968063 0.15463692 -0.6428714
0001f0 7a 41 73 bf 39 5d f5 be cc 38 73 3e 1e c3 6f bf
       -0.95021784 -0.47922686 0.23752135 -0.936571
000200 c0 eb 1f be ef 1f be be c9 07 0e be 8f 91 0c bd
       -0.15617275 -0.37133738 -0.13870157 -0.034318503
000210 9d 0b e2 bc 68 1b e5 be 74 70 c1 bd 22 a6 30 be
       -0.027593428 -0.44747472 -0.09445277 -0.17250875
000220 00 89 10 3d e0 9a 1e be 70 ca 43 3d c8 d3 32 bf
       0.035286903 -0.15488768 0.04780048 -0.698544
000230 e6 9b 9a bd 6d 39 d2 bd 07 39 aa 3d cb 8c 6c bc
       -0.075492665 -0.10264859 0.08311658 -0.014437865
000240 5f 5c 49 be 24 76 54 bf 0f 98 01 3e 1e 33 a0 bf
       -0.19664143 -0.8299277 0.12655662 -1.25156
000250 8f 4f bb be fc f0 3b bc 76 19 00 bd bc af 2a be
       -0.36584136 -0.011471029 -0.03127428 -0.166686
000260 fc 76 f3 be ef 79 a8 3d 05 af dc be db 80 1b bc
       -0.47551715 0.08226382 -0.4310228 -0.009491171
000270 26 c7 44 be 84 6c db bc 18 a0 9a be 87 df 03 be
       -0.19216594 -0.026785143 -0.30200267 -0.12878238
000280 ec 72 d7 be 89 bc b1 3d 0a 10 05 bf 3f c8 48 3d
       -0.42079866 0.08678538 -0.519776 0.049019095
000290 a5 09 15 3d f3 e5 ae 3c 04 f6 c2 be 06 a4 52 3d
       0.03638615 0.021349883 -0.3807832 0.051425956
0002a0 a2 34 fe bc 62 31 51 bd a9 08 99 3b 5d ff c5 3d
       -0.031030957 -0.051072486 0.004670222 0.09667847
0002b0 b7 8f b5 bd 9a a7 30 3d 74 c1 11 bd b2 91 b4 be
       -0.08865302 0.043128587 -0.035584882 -0.35267407
0002c0 be b6 97 bd d4 fd 8f bc 3d 11 41 be d1 dc b1 3d
       -0.07407902 -0.01757709 -0.18854232 0.086846955
0002d0 4d c4 26 be 78 bc 2f be 87 1b 9a bf 5b c3 dc 3b
       -0.1628582 -0.17161739 -1.2039651 0.0067371554
0002e0 ad 81 2d be 92 ea 28 be 71 46 1d 3c 4a 38 39 3a
       -0.16943999 -0.16495731 0.009599314 0.00070655777
0002f0 b8 b2 ef bc d9 0a 88 bf cd 5b 55 3d 4e 22 64 3d
       -0.029260024 -1.062831 0.0520895 0.055696778
000300 1f 95 04 3d c2 f7 11 3f 0a 65 b0 3a 00 5c 31 bc
       0.032368775 0.57018673 0.0013457846 -0.010825157
000310 ef 1c ff bd 1b ba e1 bc 61 0a b1 bd 78 a5 8f 3d
       -0.124566905 -0.027554562 -0.08644558 0.070139825
000320 02 3a a3 be 17 25 09 3c 31 69 a2 bc 03 bd 25 bd
       -0.31880194 0.008370659 -0.01982555 -0.04046346
000330 0c 31 c0 be 0c a6 57 bc 69 05 08 bc 8a 57 65 be
       -0.3753742 -0.013162147 -0.008302071 -0.22396675
000340 3d aa d3 bd 6c 2a 4a 3d cd 08 90 be e4 ae c9 bd
       -0.10335205 0.049356863 -0.28131714 -0.09847811
000350 62 64 e4 be a5 20 d2 bd a2 3a f6 3c e6 80 1b 3d
       -0.44607836 -0.10260133 0.030057255 0.037964724
000360 33 9e 09 bc d8 c0 79 3c 38 09 0f bc ae eb 8a 3d
       -0.008399534 0.015243731 -0.008730225 0.067832336
000370 85 52 33 bd 11 01 59 be 43 c1 8e be 32 aa 5f 3c
       -0.04377987 -0.21191813 -0.27881822 0.013651418
000380 2e 17 7f 3d 53 1e ad 3d be 6e 47 3d b2 75 01 3f
       0.062277965 0.084530495 0.048689596 0.50570214
000390 10 cb 1e be 8d 9b 17 be 81 5b 39 bd 9f c2 f2 bd
       -0.1550715 -0.14805432 -0.04525328 -0.11853527
0003a0 7e 78 bb bd 93 d3 26 bd c0 46 32 be 9c bd b7 bd
       -0.091538414 -0.040729117 -0.17409801 -0.08971712
0003b0 d6 02 ce 3d 87 f1 46 bd 8c bc e6 3c 15 08 ee bd
       0.10059135 -0.048570182 0.028166078 -0.11622635
0003c0 2e 4f 7b be bd 72 f4 bd 6b 83 9a bd 31 c5 1c be
       -0.24541923 -0.11935947 -0.07544597 -0.15309598
0003d0 f5 72 9e be c4 59 3d 3e 85 55 48 bf 7f 6c 0a be
       -0.3094708 0.18491274 -0.7825549 -0.1351795
0003e0 00 7b 94 bd 7d 7a 84 be 62 8b 09 be 87 48 9c bd
       -0.07250023 -0.258747 -0.13432077 -0.07631021
0003f0 09 a6 68 be 65 59 cc be 44 05 c3 bb ee 25 45 bd
       -0.22719587 -0.39911953 -0.0059515554 -0.048131876

fc4.bias f4 [64]
000000 1f bb 2d bf 0e 10 fc 3d 77 58 f1 be 9e 94 75 be
       -0.6786365 0.1230775 -0.47137806 -0.23982474
000010 5e 2e 10 3f 78 ab 80 be 69 0f d2 bf 78 21 0a 3f
       0.5632075 -0.2513082 -1.6410953 0.5395732
000020 0f ee 0d bf 98 cb 32 be 2d f0 db 3e 4b ac 1e 41
       -0.55441374 -0.17460477 0.42956677 9.917064
000030 ee 6c a5 3d 8b d8 89 be d5 70 ba be 6f 9f 60 be
       0.08077417 -0.26923022 -0.3641421 -0.21935819
000040 cf f7 b5 be a5 3c 55 40 ff 44 d2 be 20 f5 1f be
       -0.35540625 3.3318264 -0.41068265 -0.15620852
000050 97 1e 9c bd 86 10 6a be 4c 43 01 3e ce 99 45 bf
       -0.07623022 -0.22857866 0.12623328 -0.7718781
000060 20 b7 a9 be 97 8e ab 3e c2 51 ac be 8c ee ac be
       -0.33147526 0.33507225 -0.33656126 -0.33775747
000070 f1 bc 0f 3f ff 8c 95 be d2 0f c0 3f d8 e7 4d 3e
       0.56147677 -0.29209134 1.5004828 0.20107973
000080 87 d5 d6 3f 88 08 95 be c1 c7 28 be 10 18 d3 bd
       1.6783913 -0.2910807 -0.1648245 -0.10307324
000090 86 97 18 bf 85 77 c4 3e c5 f8 46 be 45 7d 70 be
       -0.59606206 0.38372436 -0.19430836 -0.23485287
0000a0 6b 64 db be 25 86 f2 be f9 9d 6f be 18 76 f1 be
       -0.4285005 -0.4736797 -0.23400106 -0.4716041
0000b0 c4 b2 69 3e 44 f1 b8 3e 5e 96 92 bf ea e9 f6 3f
       0.228221 0.3612157 -1.1452138 1.9290135
0000c0 05 43 62 be b4 b6 bf 3e 31 9d 08 bc c7 93 60 be
       -0.22095878 0.3744408 -0.008338259 -0.21931373
0000d0 06 7e 0b bd 6a 82 b5 bd c6 e2 7b bc e3 ac 76 be
       -0.034055732 -0.08862765 -0.015373891 -0.24089389
0000e0 87 b3 66 3e 57 40 9d 3e 47 10 79 be 2a 5c b9 be
       0.22529422 0.3071315 -0.24322616 -0.36203128
0000f0 c5 9d 9a be da 8f c5 be d0 69 07 bf 83 9f 96 bd
       -0.30198494 -0.38586313 -0.5289583 -0.07354643
