model/DQN/_Player_dqnAgent_model_epoch_5000.pth (torch_old, 489705 bytes, 10 tensors)

fc1.weight f4 [256, 57]
0	0xbcc61169	-0.024178224
1	0xbec89df7	-0.39183018
2	0xbf9fc7c7	-1.2482842
3	0xc0347683	-2.8197334
4	0xbd58d3a4	-0.05293621
5	0xbe21c066	-0.1579605
6	0x3f14932f	0.58037084
7	0xbe394949	-0.18094362
8	0x3f91a1d8	1.1377516
9	0x3e1e9dfe	0.15489957
10	0x3f773c19	0.96576077
11	0xbe546b2d	-0.2074401
12	0x3e94366e	0.28947777
13	0xbe5c8a1c	-0.2153706
14	0xbfb1707d	-1.3862454
15	0xbfc8e83c	-1.5695872
16	0x3d1fe768	0.039039046
17	0x3db178cb	0.086656176
18	0xbf0c8d78	-0.54903364
19	0xbec15838	-0.37762618
20	0x3eec3301	0.46132663
21	0xbe965499	-0.29361418
22	0xbff801be	-1.9375532
23	0xbfc35e2a	-1.5263112
24	0xbe4a041b	-0.19728129
25	0x3eaa2574	0.332317
26	0x3f3a5bad	0.72796136
27	0x3f877ca6	1.0584915
28	0xbdaac568	-0.083384335
29	0xbf37491b	-0.71595925
30	0xbd537a42	-0.051630266
31	0xbf7dfabd	-0.9921072
32	0x3e9746c5	0.2954618
33	0x3f0d2ddc	0.551481
34	0x3f6e28c2	0.9303094
35	0x3e83b840	0.2572651
36	0x3f08fea6	0.5351356
37	0x3f917f58	1.1366987
38	0x3d721610	0.05910307
39	0xbfa1701b	-1.2612337
40	0x3be44260	0.0069659203
41	0xbe257d2b	-0.16161029
42	0x3f04583b	0.5169713
43	0x3ef8e41a	0.48611528
44	0x3f8a631a	1.0811493
45	0x3f1ece84	0.6203387
46	0x3f317ef3	0.69334334
47	0x3fb5a58d	1.4191147
48	0x3db1b65a	0.08677359
49	0x3f1ae168	0.6050019
50	0xbe8529b6	-0.26008385
51	0x3ed56c00	0.4168396
52	0x3f298fc4	0.66234994
53	0xbe78f197	-0.24310909
54	0x3e9de6e9	0.30840233
55	0x3f0823c5	0.5317958
56	0x3defd50a	0.11710556
57	0x3e2f9ff8	0.17150867
58	0x3e92dbd2	0.28683335
59	0xbf57053e	-0.83992374
60	0xbe9f5b44	-0.31124318
61	0xbf2b4bca	-0.6691252
62	0xbeb7a6d6	-0.35869473
63	0xbf9156e8	-1.1354647
64	0xbed34de9	-0.41270378
65	0xbf317e2c	-0.6933315
66	0x3e8d10d0	0.2755189
67	0xbcc6612d	-0.024216259
68	0x3f19964c	0.5999496
69	0xbfa84269	-1.3145267
70	0xbf5534da	-0.8328377
71	0x3e2b31c7	0.16718207
72	0x3eb86dbb	0.36021218
73	0x3f2bfdd2	0.67184174
74	0x3eb25aaa	0.34834796
75	0x3f18769c	0.59555984
76	0xbc44e76d	-0.012018067
77	0xbf658500	-0.89656067
78	0x3e18e964	0.14932781
79	0xbf3ac16b	-0.7295138
80	0xbf6e8d42	-0.9318429
81	0x3f08a506	0.53376806
82	0x3f812c24	1.0091596
83	0xbe8b9f7f	-0.27270123
84	0xbef3fe36	-0.47654885
85	0xbcb6c9e8	-0.022313073
86	0xbf368bfb	-0.71307343
87	0xbd78589c	-0.06063138
88	0xbe35f1b2	-0.1776798
89	0xbd1f6ab7	-0.03892013
90	0xbcf91c12	-0.030408893
91	0xbe1ae9a7	-0.15128194
92	0x3e09948d	0.13435574
93	0xbcf12a4c	-0.029439114
94	0xbeb2df3f	-0.34935948
95	0xbdaff7e0	-0.085922
96	0xbf7f5177	-0.9973368
97	0x3ce31a98	0.027722642
98	0x3de6f1fc	0.112766236
99	0xc0098fae	-2.1493945
100	0x3d5a6d4c	0.05332689
101	0xbef115b0	-0.4708686
102	0xbe093136	-0.13397679
103	0xbdd63f97	-0.104613476
104	0xbf2a0320	-0.6641102
105	0xbf6c3d88	-0.9228139
106	0xbe2f2085	-0.17102249
107	0xbf3179a6	-0.69326246
108	0xbf9fe61f	-1.2492102
109	0xbd527f9b	-0.051391225
110	0x3e094cda	0.13408223
111	0xbf117db4	-0.5683243
112	0xbe1b870f	-0.1518824
113	0x3dcd17d2	0.10014309
114	0x3f9d4bf4	1.2288804
115	0x3d402bb1	0.046916667
116	0xbb76cbcf	-0.00376581
117	0xbdfe0610	-0.124035
118	0xbf2c783e	-0.67370975
119	0xbf671a23	-0.90274256
120	0xbf19d7c8	-0.6009488
121	0xbed85d04	-0.42258465
122	0xbf103b04	-0.5634005
123	0x3f755687	0.95835155
124	0xbf965577	-1.1744832
125	0xbdb9dc02	-0.09075166
126	0xbe84b9e6	-0.2592308
127	0xbf34ea83	-0.70670336
128	0x3e1519b1	0.14560582
129	0xbe862e58	-0.26207232
130	0x3f98d7f8	1.1940908
131	0x3f409927	0.7523369
132	0x3f9860d1	1.1904546
133	0x3ecf7882	0.40521628
134	0x3e9a8933	0.301828
135	0x3f33dd9c	0.70260024
136	0xbee16dda	-0.44029123
137	0x3f1037fb	0.5633542
138	0x3e8d0e51	0.27549985
139	0x3f889ee3	1.0673488
140	0xbd1278a7	-0.035759594
141	0x3e24ccd8	0.16093767
142	0x3e00c55e	0.1257529
143	0x3ca09007	0.019599928
144	0xbdf3aeb7	-0.118985586
145	0x3f1b8b5a	0.6075951
146	0x3ebced4c	0.36899793
147	0xbe1c247c	-0.15248293
148	0x3e6c834b	0.2309696
149	0x3e35911a	0.17731133
150	0xbe8d18c3	-0.27557954
151	0x3e3d73fb	0.18501274
152	0xbcdc16e4	-0.026866384
153	0xbfac59c1	-1.3464891
154	0x3d92a816	0.07160966
155	0x3f93940b	1.1529554
156	0x3e83f24f	0.25770804
157	0xbe81af5b	-0.25329098
158	0xbe5899cd	-0.2115242
159	0xbd9e58f3	-0.077318095
160	0xbe335c15	-0.17515595
161	0xbf7cdc2d	-0.9877346
162	0x3d43da5f	0.047815677
163	0xbe872c87	-0.2640116
164	0xbe6392bf	-0.22223948
165	0x3f801088	1.0005045
166	0xbe56da31	-0.20981671
167	0x3f1cbb42	0.6122323
168	0xbeed0c85	-0.46298614
169	0xbe22633f	-0.15858172
170	0x3d9d6303	0.076849006
171	0xbf46745e	-0.7752131
172	0x3e826a4f	0.25471732
173	0xbf003369	-0.50078446
174	0xbecfc2b0	-0.40578222
175	0x3e8c3e30	0.27391195
176	0xbe0f7a8d	-0.14011593
177	0x3e52c03f	0.20581149
178	0x3e0635bf	0.1310644
179	0xbc54cb5e	-0.01298794
180	0xbf0dfc58	-0.5546317
181	0x3f837985	1.027146
182	0x3d824227	0.06360274
183	0x3fc80b52	1.5628455
184	0x3debadd6	0.11507766
185	0x3fda0ae4	1.7034574
186	0xbe88f3ab	-0.26748404
187	0x40129f1e	2.2909617
188	0xbe677274	-0.22602254
189	0x3ff74fcf	1.9321231
190	0xbce3bf71	-0.027801247
191	0xbe35caf9	-0.17753209
192	0xbc191508	-0.009343393
193	0xbf91dd31	-1.1395627
194	0x3fcdf54c	1.6090484
195	0x4046d793	3.1069076
196	0x3f1171f2	0.5681449
197	0xbebcbcdd	-0.3686284
198	0xbe1f8b60	-0.15580511
199	0xbb3d6200	-0.0028897524
200	0x3e1f8148	0.1557666
201	0x3daedcf8	0.0853824
202	0x3ec0eba3	0.37679777
203	0x3e30c46c	0.17262429
204	0xbf04b8d7	-0.51844543
205	0x3ef40bc8	0.47665238
206	0x3e5d2026	0.21594295
207	0xbea8de53	-0.3298212
208	0x3edd1a22	0.43184
209	0x3c896580	0.016772032
210	0xbf7ddcc8	-0.9916501
211	0xbcd67ee8	-0.02618356
212	0x3eb9221c	0.36158836
213	0xbf4fee29	-0.8122278
214	0xbedfc5c5	-0.43705574
215	0xbefc9619	-0.49333265
216	0xbf797f40	-0.97459793
217	0xbf016b6b	-0.5055453
218	0xbdeb8b7f	-0.11501216
219	0xbf0a6439	-0.5405918
220	0xbee42a65	-0.44563594
221	0xbd830e0e	-0.06399165
222	0xbed45cf3	-0.41477165
223	0xbedd6053	-0.43237552
224	0x3f05286b	0.520148
225	0x3e0f847d	0.14015384
226	0xbf07ccb7	-0.53046745
227	0xbe0c0f05	-0.13677604
228	0xbf404ec0	-0.7512016
229	0xbf3437f1	-0.7039786
230	0xbd969dd8	-0.07354325
231	0x3d3a5a8f	0.04549652
232	0xbf2d4330	-0.67680645
233	0xbf3bd917	-0.7337813
234	0x3e9a58e3	0.3014594
235	0x3d51daa2	0.051233895
236	0xbf22dc17	-0.6361708
237	0xbf75cb87	-0.96013683
238	0xbe0a1fea	-0.13488737
239	0xbd8fd559	-0.07023115
240	0x3f010b60	0.5040798
241	0x3efe9509	0.4972308
242	0xbf13a4b9	-0.5767322
243	0xbefe3b95	-0.49654832
244	0xbe545646	-0.20736036
245	0xbe7b747a	-0.24556151
246	0xbe3052a4	-0.17219025
247	0xbd9d598b	-0.076830946
248	0xbef1846c	-0.47171342
249	0x3d965568	0.07340509
250	0xbf6a6897	-0.9156584
251	0x3f598a49	0.8497663
252	0x3eeaa2a1	0.458272
253	0xbf585bf4	-0.8451531
254	0xbea13304	-0.31484234
255	0x3e329ec6	0.1744338

fc1.bias f4 [256]
0	0x3f186428	0.59527826
1	0x3c54339b	0.012951757
2	0xbdefdb9d	-0.1171181
3	0xbf096be6	-0.53680265
4	0xbeaed661	-0.34147933
5	0xbe47bf71	-0.19506623
6	0xbf0323be	-0.51226413
7	0xbeddd3bd	-0.43325606
8	0xbed8252a	-0.42215854
9	0x3e1007c4	0.14065462
10	0xbdb603e9	-0.088874646
11	0xbda5f947	-0.081041865
12	0xbecc309a	-0.3988083
13	0x3dc2dcea	0.09514792
14	0xbec8a308	-0.39186883
15	0xbdd083d1	-0.10181392
16	0x3ea3b570	0.31974363
17	0xbf606a3f	-0.8766212
18	0xbe6b4c7f	-0.229784
19	0xbe44da5a	-0.1922392
20	0x3e1b80b9	0.15185823
21	0xbc92d63e	-0.017924424
22	0xbeab3d62	-0.3344527
23	0x3ec64967	0.38727877
24	0xbee0e06d	-0.43921223
25	0xbf037a9a	-0.5135895
26	0xbef36075	-0.47534528
27	0xbad3e43d	-0.0016166043
28	0xbeb57728	-0.35442472
29	0x3f4d7467	0.8025574
30	0xbf1d11a9	-0.6135507
31	0xbf56f563	-0.8396818
32	0xbe3baaa4	-0.18326813
33	0xbe0062f0	-0.12537742
34	0xbe5c0371	-0.21485688
35	0xbd867097	-0.065644436
36	0xbe97ab66	-0.29622954
37	0x3e2d2684	0.16909224
38	0xbe28b2cf	-0.1647446
39	0xbeb8cd47	-0.36094114
40	0x3d58997d	0.052880753
41	0xbd2392ed	-0.03993504
42	0xbec50a32	-0.3848434
43	0xbe966884	-0.29376614
44	0xbe03baf8	-0.12864292
45	0x3bff8741	0.007798106
46	0x3ea1ce41	0.31602672
47	0xbcc9781d	-0.024593407
48	0xbec52b73	-0.38509712
49	0xbeaecdbe	-0.34141344
50	0xbf00ea2e	-0.5035733
51	0xbc13e213	-0.009026068
52	0xbf124fd7	-0.57153076
53	0xbf6c9cfb	-0.92427033
54	0xbeaab111	-0.33338216
55	0x3f0ac263	0.5420286
56	0x3ea5314d	0.32264176
57	0xbde4d10c	-0.11172685
58	0xbeb93a92	-0.36177498
59	0xbf6d9eec	-0.9282062
60	0xbed82ba4	-0.42220795
61	0xbef94250	-0.48683405
62	0xbf25fe66	-0.64841306
63	0xbe988243	-0.29786882
64	0xbede8096	-0.43457478
65	0xbec15306	-0.37758654
66	0xbeac310a	-0.33631164
67	0xbee64d37	-0.44980785
68	0x3d8cf18b	0.06882008
69	0x3f4cf6dc	0.8006418
70	0xbe780c76	-0.24223503
71	0xbee21779	-0.44158533
72	0x3d8fc450	0.070198655
73	0xbdca8060	-0.09887767
74	0xbe2f9e6b	-0.17150275
75	0xbe981a24	-0.29707444
76	0xbec07b9b	-0.37594303
77	0x3d81dbbb	0.063407384
78	0xbf08ff20	-0.5351429
79	0x3e2ea8f6	0.17056641
80	0x3de80f98	0.11331099
81	0xbec537c0	-0.38519096
82	0x3ebc4ab6	0.3677575
83	0xbf1394dd	-0.5764902
84	0xbec5e743	-0.38653
85	0xbeaa8ab6	-0.33308953
86	0xbef3492b	-0.4751676
87	0xbdd6dffc	-0.104919404
88	0x3df15cd3	0.11785283
89	0xbf3169de	-0.69302166
90	0x3de0164d	0.109417535
91	0xbefd163d	-0.4943103
92	0xbf3a0077	-0.7265696
93	0xbea162d7	-0.3152072
94	0xbdcb86b7	-0.09937804
95	0xbee7147b	-0.45132813
96	0xbeb832b9	-0.35976198
97	0x3bf63497	0.0075135934
98	0x3d2efabf	0.0427196
99	0xbd3c26e6	-0.045935534
100	0xbe3355a3	-0.17513137
101	0x3e6be42d	0.23036261
102	0xbed4e47c	-0.4158057
103	0xbe86ae27	-0.26304743
104	0xbea5985a	-0.32342798
105	0xbe5ffc81	-0.21873666
106	0xbec4b336	-0.38417977
107	0xbee3c869	-0.44488838
108	0xbca6c479	-0.020357357
109	0xbed3f0f8	-0.41394782
110	0x3e84d4ee	0.25943702
111	0x3e82475c	0.25445068
112	0x3ecd9763	0.4015456
113	0xbf52d586	-0.8235706
114	0xb772b20b	-1.4465778e-05
115	0x3e966d1a	0.29380113
116	0xbf142770	-0.57872677
117	0xbe145f87	-0.14489566
118	0x3cf648fa	0.030064095
119	0x3d80c72b	0.06287988
120	0xbe1e7049	-0.15472521
121	0xbdf01bbb	-0.11724039
122	0xbe3a3622	-0.18184713
123	0xbd53869a	-0.051642038
124	0xbef8ce3a	-0.48594838
125	0xbeea19e3	-0.45722875
126	0xbea925f1	-0.3303676
127	0xbf1e0ba4	-0.6173651
128	0xbed4e00e	-0.4157719
129	0xbedbde1a	-0.42942888
130	0xbd68a287	-0.056795623
131	0xbf16fb99	-0.5897766
132	0xbe9d1750	-0.3068185
133	0xbeffa993	-0.49934062
134	0xbf03090b	-0.51185673
135	0x3e7bd833	0.24594192
136	0xbe40dddc	-0.18834633
137	0xbef060bd	-0.46948805
138	0xbf0d5243	-0.55203646
139	0xbe431911	-0.19052531
140	0xbeb52743	-0.35381517
141	0xbe839d5a	-0.25705987
142	0xbe64ae70	-0.22332168
143	0xbf3eaceb	-0.744826
144	0x3de87daf	0.11352097
145	0xbea8b6ec	-0.32952058
146	0xbf2a5308	-0.66532946
147	0x3e135642	0.14388373
148	0x3ed86942	0.42267805
149	0xbf05741e	-0.52130306
150	0x3ec11e83	0.3771859
151	0xbededfbf	-0.4353008
152	0x3ec06c74	0.37582743
153	0xbeca0883	-0.3945962
154	0xbee8d304	-0.45473492
155	0x3ddc4fa5	0.107573785
156	0x3f1049fc	0.5636289
157	0xbe313f04	-0.17309195
158	0xbec10fd6	-0.37707394
159	0xbf18aef2	-0.59641945
160	0xbebc0d14	-0.36728728
161	0x3ce68a4d	0.028142119
162	0xbd2a9ae3	-0.041651618
163	0xbf487c9e	-0.7831515
164	0xbf39d14b	-0.7258498
165	0xbf0b1c32	-0.543399
166	0xbe40a872	-0.18814257
167	0x3e200c44	0.15629679
168	0xbf0eefd6	-0.5583471
169	0xbe957e2f	-0.29197833
170	0x3e48e03d	0.1961679
171	0xbea88bce	-0.32919163
172	0xbe6291c0	-0.22125912
173	0x3e264d1b	0.16240351
174	0x3d6ae319	0.057345483
175	0xbeb4e25b	-0.35328946
176	0xbd988887	-0.074479155
177	0x3e6c08e5	0.23050268
178	0xbe6c876c	-0.23098534
179	0xbe826415	-0.25466982
180	0xbdc277f4	-0.094955355
181	0xbedc6e7c	-0.43053043
182	0x3ca9bdc6	0.020720374
183	0xbed6fd33	-0.4199005
184	0xbe36e44a	-0.17860523
185	0xbeca3592	-0.39493996
186	0xbdf436e9	-0.11924536
187	0x3c5732f1	0.013134704
188	0x3d5e83d6	0.054324947
189	0x3dcdda26	0.10051374
190	0xbf18aeee	-0.5964192
191	0x3d9d35a9	0.076762505
192	0xbeeea920	-0.46613407
193	0xbee08f53	-0.43859348
194	0xbe56ce01	-0.20977022
195	0xbcce9496	-0.025217336
196	0x3e294878	0.16531551
197	0xbea06318	-0.31325603
198	0x3e0bbd30	0.13646388
199	0xbeea0ac9	-0.45711353
200	0xbef8ea90	-0.48616457
201	0xbf20a4ec	-0.6275165
202	0xbe795760	-0.24349737
203	0x3bbaaabb	0.005696622
204	0x3e0472cf	0.12934421
205	0x3e7fbcea	0.24974409
206	0xbefc0d26	-0.4922878
207	0x3f81bb11	1.0135213
208	0xbec14426	-0.37747306
209	0x3e45a48a	0.19301048
210	0xbee910bf	-0.4552059
211	0xbf5f86e7	-0.8731522
212	0xbe7f9048	-0.24957383
213	0x3e16b263	0.14716487
214	0xbec050e3	-0.37561712
215	0xbf43e3f2	-0.7651969
216	0x3e10e06d	0.14148112
217	0x3e0c8d09	0.13725676
218	0xbe9d74a4	-0.30753052
219	0x3e03eace	0.1288254
220	0xbd8c2190	-0.06842339
221	0xbc71d742	-0.014760794
222	0xbf0956f6	-0.53648317
223	0xbf1aea17	-0.6051344
224	0xbdc05166	-0.093905255
225	0xbe86fe63	-0.26365957
226	0xbe07cabc	-0.13260931
227	0xbd81c38f	-0.06336128
228	0x3e4a68da	0.1976656
229	0xbeb77956	-0.3583476
230	0x3eb4ae0a	0.3528903
231	0x3f06885d	0.52551824
232	0xbefe94fe	-0.49723047
233	0x3bc97ca5	0.006148892
234	0x3e0f7e6c	0.1401307
235	0xbe3af3e7	-0.18257104
236	0xbe92de9b	-0.2868546
237	0xbec0d52f	-0.37662646
238	0xbe34b045	-0.17645366
239	0xbda3d5f3	-0.07999792
240	0xbf13e09a	-0.5776459
241	0xbea64f3c	-0.32482326
242	0xbe0d7ef5	-0.13817962
243	0xbe9d7c1c	-0.3075875
244	0xbe24fbce	-0.16111681
245	0xbeaf832a	-0.34279758
246	0x3e61506c	0.22003335
247	0xbe6866c5	-0.22695453
248	0x3e2d598e	0.16928694
249	0xbeb52fd3	-0.3538805
250	0xbe27cbd7	-0.16386352
251	0xbf0664b7	-0.5249743
252	0x3d9d1fb6	0.07672064
253	0x3e806c8f	0.25082824
254	0xbea82981	-0.32844165
255	0xbeca8539	-0.39554766

fc2.weight f4 [256, 256]
0	0x3d63ea68	0.05564347
1	0xbdb65081	-0.08902074
2	0xbc06ecfd	-0.008235213
3	0xbd0f11b7	-0.034929004
4	0x3d34d129	0.044144783
5	0x3d164389	0.0366855
6	0xbda878ae	-0.08226143
7	0xbd1ec6c4	-0.038763776
8	0x3cfd1d9b	0.030897906
9	0xbdbf2217	-0.09332674
10	0x3ca83df6	0.020537358
11	0xbdab8a68	-0.08376008
12	0xbc328f0a	-0.010898361
13	0xbcf7023d	-0.030152434
14	0xbde833c3	-0.11337998
15	0xbc9b58e8	-0.018963292
16	0x3cf40672	0.02978823
17	0xbdc2cfa2	-0.09512259
18	0xbd0d812e	-0.034547023
19	0xbe21dea7	-0.15807591
20	0xbdb3ca03	-0.08778765
21	0xbda714bc	-0.08158252
22	0xbddf790e	-0.10911761
23	0xbd74e61c	-0.059789762
24	0xbd5671df	-0.05235469
25	0xbe6d8a77	-0.23197351
26	0xbe139207	-0.14411174
27	0x3c754709	0.014970549
28	0x3cf65ec9	0.030074494
29	0x3ce32d79	0.027731644
30	0x3ceccb02	0.028905395
31	0xbc8dbcbf	-0.017301915
32	0x3a1b2f0b	0.0005919791
33	0x3c6ca4aa	0.014443556
34	0xbdb2546a	-0.08707507
35	0x3c3f4350	0.011673763
36	0xbd26cb13	-0.04072101
37	0xbd588693	-0.052862715
38	0xbe1a6f83	-0.15081601
39	0x3d422203	0.047395717
40	0x3e095caf	0.13414262
41	0xbd076115	-0.03305157
42	0xbb7081c0	-0.003669843
43	0xbd60518b	-0.054765265
44	0xbcd30e81	-0.025763752
45	0x3d36d499	0.044636343
46	0x3ce199ad	0.027539099
47	0x3c8da4a1	0.017290415
48	0x3c21bca8	0.009871639
49	0xbaed2ea8	-0.001809557
50	0x3cd4893f	0.02594435
51	0x3dc80118	0.097658336
52	0x3d8714e9	0.06595785
53	0x3bdf3bdd	0.006812556
54	0xbd623ec7	-0.05523565
55	0x3db86888	0.09004313
56	0x3d072861	0.032997493
57	0x3d03870d	0.032111216
58	0xbda62938	-0.081133306
59	0xbd8056d6	-0.06266563
60	0xbde49c95	-0.11162678
61	0x3c36f93f	0.011167823
62	0x3ddd4434	0.10804024
63	0xbc999914	-0.018749751
64	0x3d067b61	0.032832507
65	0xbde7d36e	-0.11319624
66	0xbdbbe0a3	-0.091737054
67	0xbe66c910	-0.22537637
68	0x3cc1ce31	0.02365789
69	0x3e051b90	0.12998796
70	0xbd3eaefc	-0.046553597
71	0x3dc978a7	0.09837466
72	0xbd2e621e	-0.04257404
73	0xbd589b92	-0.05288274
74	0xbda0d382	-0.07852842
75	0xbcb09cef	-0.021559207
76	0xbc6ada9f	-0.01433435
77	0x3c98e0a1	0.018661799
78	0xbc7c2dd1	-0.015391783
79	0x3da9759f	0.082743876
80	0xbe429772	-0.19003084
81	0xbd41df4c	-0.047332093
82	0xbd25bdbd	-0.04046415
83	0xbe08c4ba	-0.13356295
84	0xbd092774	-0.03348489
85	0xbe212174	-0.15735418
86	0xbd60ef9e	-0.054916017
87	0xbdca5db6	-0.09881155
88	0xbd13d44e	-0.03609114
89	0xbe076644	-0.13222605
90	0x3c1e66b9	0.009668046
91	0xbe12b5ef	-0.14327215
92	0xbcf6d77d	-0.03013205
93	0xbd8eab98	-0.06966323
94	0xbe0b2cd0	-0.13591313
95	0xbdb23174	-0.08700839
96	0xbca200ee	-0.019775834
97	0xbc68eef9	-0.014217132
98	0xbd42694a	-0.047463693
99	0xbdf636cd	-0.12022171
100	0xbc836ae6	-0.016042184
101	0xbccf8a23	-0.025334423
102	0xbda842be	-0.08215855
103	0x3dd5cafe	0.10439108
104	0xbc56ae48	-0.013103075
105	0x3d15c59a	0.0365654
106	0xbdfa89b1	-0.12233294
107	0x3cd6a1ed	0.02620026
108	0x3b2892fe	0.002572238
109	0xbcaa9a77	-0.020825608
110	0xbe3f0c64	-0.1865707
111	0xbd9dc026	-0.07702665
112	0x3cd48470	0.025942057
113	0xbdf44128	-0.1192649
114	0xbd7553e6	-0.059894465
115	0x3cbbcd63	0.022925084
116	0x3d77d983	0.06051017
117	0xbde5af2c	-0.11215052
118	0xbd879f8a	-0.066222265
119	0x3c0131a7	0.007885373
120	0x3d3f105c	0.04664646
121	0xbce62caf	-0.028097479
122	0x3d610d7f	0.05494451
123	0xbcd6cb74	-0.02622006
124	0xbd6f22a7	-0.058382656
125	0xbdb57f51	-0.08862174
126	0xbd5979c8	-0.053094655
127	0x3d65d305	0.056109447
128	0x3d715e1a	0.058927633
129	0xbdb674ad	-0.08908973
130	0xbe187da0	-0.14891672
131	0xbcfd209a	-0.030899335
132	0xbbcdc7ba	-0.006279913
133	0xbda0c8db	-0.0785081
134	0x3d902748	0.07038742
135	0xbd95cf04	-0.07314876
136	0x3c1857eb	0.009298305
137	0xb9edf967	-0.00045389982
138	0xbd8ced0c	-0.068811506
139	0xbe1dc754	-0.15408069
140	0x3df73c08	0.12071997
141	0xbcf3ffb0	-0.029785007
142	0xbe186079	-0.14880551
143	0xbdbca163	-0.092104696
144	0xbaa3487b	-0.0012457514
145	0xbe13ca4f	-0.14432643
146	0xbbe00950	-0.0068370476
147	0xbdb421b9	-0.087954946
148	0xbd871713	-0.06596198
149	0x3ca3f7fc	0.02001571
150	0xbd1bf429	-0.038074646
151	0xbb61bb55	-0.0034443934
152	0xbdb72706	-0.0894299
153	0xbd0def5f	-0.03465211
154	0xbc6e7fbb	-0.0145568205
155	0xbdc9837f	-0.09839534
156	0xbdd320d1	-0.103089936
157	0xbdaa3987	-0.08311754
158	0xbdbc7ccc	-0.092034906
159	0xbd5bd732	-0.053672023
160	0x3d57635c	0.05258499
161	0xbd09229b	-0.033480268
162	0xbdcacd58	-0.099024475
163	0xbc28d4c9	-0.010304638
164	0xbd7b5130	-0.061356723
165	0x3c9133f5	0.01772497
166	0x3d8822c5	0.06647257
167	0xbdd3b843	-0.103378795
168	0x3ce14610	0.027499229
169	0xbd93bed6	-0.072141334
170	0xbbafd9b2	-0.0053665275
171	0xbc171803	-0.009222033
172	0x3dbc66c8	0.091992915
173	0x3d2d23e3	0.042270552
174	0x3cc01630	0.02344808
175	0xbdaff645	-0.08591894
176	0xbe0ed4c7	-0.13948356
177	0xbd89417f	-0.067019455
178	0x3bf2c200	0.0074083805
179	0x3e128fc3	0.14312653
180	0x3bc768e5	0.0060855024
181	0xbd8c6eb9	-0.06857056
182	0xbce4cb8c	-0.02792909
183	0xbcdd052d	-0.026980007
184	0xbd34bc6c	-0.044125006
185	0xbd822a10	-0.06355679
186	0xbdd19300	-0.10233116
187	0xbddf5a52	-0.10905899
188	0xbe188c04	-0.14897162
189	0xbd508789	-0.050910506
190	0xbdf14bda	-0.11782046
191	0xbdb7c8f5	-0.089738764
192	0xbd07f7cb	-0.0331953
193	0xbe35ba00	-0.17746735
194	0xbd1e987e	-0.038719647
195	0xbd0836a2	-0.033255227
196	0xbe0afa64	-0.13572079
197	0xbe0ab024	-0.13543755
198	0x3ccb9733	0.02485237
199	0xbc1b27ef	-0.00946997
200	0xbdb13f30	-0.0865463
201	0xbe11b1cc	-0.1422798
202	0xbdec8328	-0.115484536
203	0xbda5a556	-0.08088176
204	0x3d4688e6	0.0484704
205	0xbd477c60	-0.048702598
206	0x3d6f9f09	0.058501277
207	0xbbf36bc8	-0.00742862
208	0xbd72e0d5	-0.059296448
209	0x3c3e673c	0.011621293
210	0xbdc51040	-0.0962224
211	0xbd3ff0cb	-0.046860497
212	0xbcbaeb58	-0.022817299
213	0x3c8bfd60	0.017088592
214	0xbe0b3d2f	-0.13597558
215	0xbe4e3c13	-0.20140104
216	0xbe2bf1db	-0.1679148
217	0xbd49eb44	-0.049296632
218	0xbb35bd1d	-0.0027731129
219	0xbe07359c	-0.13204044
220	0x3c816243	0.015793925
221	0x3afcd3b7	0.001928917
222	0xbc8e4de2	-0.017371122
223	0xbd8538df	-0.06504988
224	0xbd130dc0	-0.035901785
225	0x3d2404e8	0.04004374
226	0xbd8ec109	-0.06970412
227	0xbdf6e577	-0.12055486
228	0xbdf14d2c	-0.117822975
229	0xbdef5d2c	-0.11687693
230	0xbe14ad4a	-0.1451923
231	0xbddaf047	-0.106903605
232	0xbbed73e2	-0.0072464803
233	0xbd3cd4bd	-0.04610132
234	0xbddfdd43	-0.10930874
235	0xbd3139a2	-0.043267854
236	0xbd8640be	-0.06555317
237	0x3bc0e09b	0.00588615
238	0xbd5291be	-0.05140852
239	0xbaf6241f	-0.0018779075
240	0x3d0eaf54	0.034835175
241	0xbcb71f1b	-0.0223537
242	0xbd46b494	-0.048512056
243	0xbd439907	-0.04775336
244	0xbcb67fbf	-0.022277711
245	0xbe0ffe7b	-0.1406192
246	0x3c0204a4	0.007935677
247	0xbe094c9b	-0.13408129
248	0xbdaceb04	-0.08443263
249	0xbe0c55e0	-0.13704634
250	0xbdbcbf23	-0.09216144
251	0x3c55a392	0.0130394865
252	0x3d15df65	0.03659
253	0xbd128273	-0.035768937
254	0xbd80e6fc	-0.06294057
255	0xbcfc605d	-0.030807668

fc2.bias f4 [256]
0	0xbdffd683	-0.12492087
1	0xbd6cc6ca	-0.057806768
2	0xbd86c759	-0.06580991
3	0x3d4c2dc8	0.049848348
4	0xbd803672	-0.062603846
5	0xbdbfb534	-0.09360734
6	0xbd75696d	-0.059914995
7	0xbdbbf28a	-0.0917712
8	0xb95f326e	-0.00021285724
9	0x3cabff3b	0.020995727
10	0x3a4ee142	0.00078918424
11	0xbdd377ed	-0.103256084
12	0xbf0789e8	-0.52944803
13	0xbd6fafe0	-0.058517337
14	0xbe1e303e	-0.1544809
15	0xbd0fe3dd	-0.035129417
16	0xbdb8351b	-0.08994504
17	0x3c70908b	0.014682899
18	0xbed65168	-0.41858983
19	0xbdfc8785	-0.12330536
20	0xbdabf66e	-0.08396612
21	0xbddcceb3	-0.10781612
22	0xbdb2cb4b	-0.08730181
23	0x3eb07834	0.34466708
24	0xbe1cecc3	-0.15324692
25	0xbde6f6aa	-0.11277516
26	0xbd9216c8	-0.071332514
27	0x3ec32f85	0.38122192
28	0xbd1d4358	-0.038394302
29	0x3e4a9751	0.19784285
30	0xbe8788d3	-0.26471576
31	0xbccf8cb9	-0.025335656
32	0xbebf7b72	-0.3739887
33	0xbbe8f6f9	-0.0071095196
34	0x3eddd45a	0.43326074
35	0x3eb04b4b	0.34432444
36	0xbd6695d4	-0.05629523
37	0x3e03e260	0.12879324
38	0xbd4ef137	-0.05052301
39	0xbe3994f5	-0.18123229
40	0xbdb024a8	-0.086007416
41	0xbe05a75d	-0.13052125
42	0xbe6571dc	-0.22406715
43	0xbe22c31b	-0.1589474
44	0x3e2aab4c	0.16666907
45	0xbd9806de	-0.07423185
46	0xbcdeb6e5	-0.02718682
47	0xbd78f287	-0.060778167
48	0xbe165313	-0.14680128
49	0xbdc9f1bd	-0.09860561
50	0xbd74952c	-0.059712574
51	0x3bff3bd1	0.007789113
52	0xbe619746	-0.22030362
53	0xbd2c3699	-0.042044256
54	0x3e9727c2	0.2952252
55	0xbdcfd931	-0.10148848
56	0xbd600946	-0.054696344
57	0xbd965be0	-0.073417425
58	0xbdec923d	-0.1155133
59	0xbcd65cb3	-0.02616725
60	0xbdc8207e	-0.097718224
61	0x3efd16ae	0.49431366
62	0xbd43dba3	-0.047816884
63	0xbdc8adfb	-0.09798809
64	0xbdb6946c	-0.08915028
65	0xbc8c82f3	-0.017152285
66	0xbd782d75	-0.060590226
67	0xbe8b843e	-0.2724933
68	0x3ce27b3b	0.027646651
69	0xbd862633	-0.06550255
70	0xbde20316	-0.11035745
71	0xbea1cddc	-0.3160237
72	0xbcda28d1	-0.02663079
73	0xbdb0ca70	-0.08632362
74	0xbd206ec7	-0.039168146
75	0xbd15958b	-0.03651957
76	0xbf39e83d	-0.7261999
77	0xbd64710e	-0.05577188
78	0xbe0c4cc4	-0.13701159
79	0xbdc22467	-0.094795994
80	0xbdc9d73c	-0.09855506
81	0xbdb25b2d	-0.08708797
82	0xbe76a3a5	-0.24085863
83	0xbd300242	-0.042970903
84	0xbdcaaffa	-0.09896846
85	0xbd4c92c5	-0.049944658
86	0xbdaabb80	-0.08336544
87	0xbdec3656	-0.11533801
88	0xbde0c0d2	-0.109742776
89	0xbd825c1a	-0.06365223
90	0xbdaabb6f	-0.08336531
91	0xbd137e71	-0.036009256
92	0xbd8a87cb	-0.06764182
93	0xbdd256b8	-0.102704465
94	0xbd96e011	-0.07366956
95	0xbd5a7e16	-0.0533429
96	0xbd38af8b	-0.045089286
97	0xbca17102	-0.019707207
98	0xbee4c746	-0.44683284
99	0xbd15ee08	-0.036603957
100	0xbe2d641c	-0.1693272
101	0x3eecce34	0.4625107
102	0xbbe88663	-0.0070960983
103	0x3e280b1a	0.16410485
104	0xbd45aa0d	-0.048257876
105	0xbc941b32	-0.018079374
106	0xbdd52ddc	-0.104091376
107	0x3e365314	0.1780513
108	0xbe0e9789	-0.13924994
109	0xbdf43fa9	-0.11926205
110	0x3d394d14	0.045239523
111	0xbcc12f40	-0.0235821
112	0xbcf177de	-0.029476102
113	0xbe0912b9	-0.13386048
114	0xbe0a580e	-0.13510153
115	0xbdea15b7	-0.11429923
116	0xbe6be72d	-0.23037405
117	0x3e9d9965	0.30781093
118	0xbdc29b2b	-0.09502252
119	0x3dc22df7	0.09481423
120	0xbd3e6a83	-0.046488296
121	0x3d56bc97	0.052425947
122	0xbea7a568	-0.32743382
123	0xbf3fc2e5	-0.7490676
124	0xbe970b45	-0.29500785
125	0xbde6e9ae	-0.112750396
126	0xbc85c8e1	-0.016331138
127	0xbe9eb9b5	-0.31001058
128	0x3d83dccd	0.06438599
129	0xbda78e64	-0.08181456
130	0xbe3e636d	-0.18592615
131	0xbd960f95	-0.07327191
132	0xbd55768e	-0.052115016
133	0xbea29ad5	-0.31758752
134	0x3c26e232	0.010185765
135	0x3dcfc50b	0.10145005
136	0xbde47466	-0.11155014
137	0xbd139e77	-0.036039796
138	0xbdbf932b	-0.09354242
139	0x3eade21e	0.33961576
140	0xbd56461b	-0.05231295
141	0xbcab152c	-0.020884119
142	0xbc339c42	-0.010962548
143	0x3f38f234	0.7224457
144	0xbdccb8e4	-0.099962026
145	0xbe0f400f	-0.1398928
146	0xbd752449	-0.059849057
147	0xbd3bd1d9	-0.045854423
148	0xbdd46db6	-0.10372488
149	0xbd7c362d	-0.061575104
150	0x3e832bb7	0.2561929
151	0xbda6d534	-0.08146134
152	0xbe04b747	-0.1296054
153	0xbe1ad0b4	-0.15118676
154	0x3e500b29	0.20316757
155	0xbd7fca68	-0.06244889
156	0xbe2a3488	-0.16621602
157	0xbc07d17b	-0.00828969
158	0x3cd639b9	0.026150571
159	0xbdcd3798	-0.10020369
160	0x3eac6d22	0.33677012
161	0xbe969ffa	-0.29418927
162	0xbdd2f0ae	-0.10299812
163	0xbd1b1dcf	-0.037870225
164	0xbd663d68	-0.056210905
165	0x3e9d4a69	0.30720833
166	0xbdbd3828	-0.092392266
167	0xbbf73c52	-0.0075450325
168	0xbd337891	-0.043816153
169	0xbe042f49	-0.12908663
170	0xbe285118	-0.16437185
171	0xbdd2d7a2	-0.10295035
172	0xbe37c470	-0.17946029
173	0xbe627c57	-0.22117744
174	0xbd5ac0bb	-0.05340646
175	0x3d11ca67	0.035593417
176	0xbdffdec4	-0.12493661
177	0xbbf44aa6	-0.007455188
178	0xbe00f602	-0.12593845
179	0xbd9951ed	-0.07486329
180	0xbf0e6364	-0.5562041
181	0xbd145456	-0.03621324
182	0xbe4ce7cf	-0.20010303
183	0xbd587dc3	-0.05285431
184	0x3ee18eaa	0.44054157
185	0xbd678ce6	-0.056530856
186	0xbf08c36f	-0.5342321
187	0xbd849985	-0.06474594
188	0xbd405009	-0.046951327
189	0x3bb9eee4	0.00567423
190	0xbf314206	-0.6924137
191	0xbda13347	-0.078711085
192	0xbe412ae2	-0.18864015
193	0xbe11f569	-0.14253773
194	0xbda189e4	-0.07887629
195	0xbe017ebb	-0.12646
196	0xbe172234	-0.14759141
197	0xbd7e7e00	-0.06213188
198	0xbcb1a3eb	-0.021684607
199	0xbdc5d43d	-0.09659622
200	0x3bfbd520	0.0076853186
201	0xbe879316	-0.26479405
202	0xbdc0eb2b	-0.09419855
203	0xbd9cfcd3	-0.0766541
204	0xbdbb1c6f	-0.09136283
205	0xbcdac81d	-0.02670675
206	0xbdab2ee4	-0.08358553
207	0xbdbb137c	-0.09134576
208	0xbe92ac3b	-0.28647026
209	0x3d11a296	0.035555445
210	0xbe04f216	-0.12982973
211	0xbce7c1e3	-0.028290695
212	0xbed4d5d1	-0.4156938
213	0xbc639058	-0.013889395
214	0x3e3845f3	0.17995434
215	0x3e3fe22a	0.18738618
216	0xbdacb708	-0.08433348
217	0xbd24c68c	-0.04022841
218	0xbba5ac9e	-0.005055978
219	0x3e98cb2c	0.29842508
220	0xbd9793fa	-0.07401271
221	0xbdcaf526	-0.099100396
222	0xbe0ed7b2	-0.13949469
223	0xbc92a692	-0.017901693
224	0x3cae6ed8	0.021293089
225	0x3c96e073	0.018417573
226	0xbea119dd	-0.31465045
227	0xbce0a289	-0.027421253
228	0xbcd7b574	-0.02633164
229	0xbdc75b40	-0.097342014
230	0xbe8935b1	-0.26798776
231	0x3df8a6eb	0.12141212
232	0xbe1170c9	-0.1420318
233	0x3b3eb18e	0.002909753
234	0x3dc18c47	0.09450584
235	0xbf11eb5f	-0.5699977
236	0xbda0e3a2	-0.078559175
237	0xbdfc3895	-0.1231548
238	0xbd2fd138	-0.042924136
239	0xbe5cad7e	-0.21550557
240	0xbdab87a9	-0.083754845
241	0xbeb76111	-0.35816243
242	0xbe78f2cd	-0.24311371
243	0xbe5dcbc1	-0.21659757
244	0xbd7dfb78	-0.062007397
245	0xbdac3760	-0.084089994
246	0xbcd3702b	-0.025810322
247	0xbd5ce8c9	-0.05393294
248	0xbd209e85	-0.039213676
249	0xbd3b8585	-0.04578163
250	0x3cb21d39	0.02174245
251	0xbe26dcb1	-0.16295125
252	0xbc793756	-0.015210947
253	0xbdca5d4f	-0.098810785
254	0xbeaa3c75	-0.3324925
255	0xbd78e042	-0.060760744

fc3.weight f4 [128, 256]
0	0x3ceea026	0.0291291
1	0xbcdc6f98	-0.02690868
2	0xbd6e0be8	-0.058116823
3	0xbd1fba00	-0.038995743
4	0x3d46e31c	0.048556432
5	0xbd79889e	-0.060921304
6	0xbda455f9	-0.080242105
7	0x3d109b14	0.035304144
8	0x3d1b24b0	0.037876785
9	0x3cf80b63	0.030278867
10	0xbd216b5a	-0.03940902
11	0x3c571885	0.0131284045
12	0xbd7784cc	-0.06042938
13	0x3d60fe80	0.05493021
14	0xbc7df2e7	-0.015499807
15	0x3ca5e198	0.020249173
16	0x3c6b498b	0.014360796
17	0xbd145d98	-0.03622207
18	0xbd7f95ee	-0.062398843
19	0x3c24e1c0	0.010063589
20	0x3d671d8a	0.056424655
21	0x3ccd5a70	0.025067538
22	0xbd5821f6	-0.052766763
23	0xbd6560a0	-0.056000352
24	0xbca0c113	-0.019623315
25	0x3d41dea6	0.047331475
26	0x3d62358e	0.055226855
27	0xbdedfbc6	-0.116202876
28	0x3c5dc75f	0.013536303
29	0xbc5e2035	-0.013557483
30	0xbdc0fed7	-0.09423607
31	0x3b48d4a0	0.0030644313
32	0x3c1832f7	0.009289495
33	0x3b166f80	0.0022954643
34	0xbcc1d92c	-0.023663126
35	0x3c6bdc82	0.014395835
36	0xbc979dd8	-0.018507883
37	0x3dace98c	0.08442983
38	0x3d05647c	0.032566532
39	0x3ccf094b	0.025272986
40	0xbd0073cb	-0.03136043
41	0x3d5203ce	0.05127316
42	0xbda70b3e	-0.08156441
43	0x3cc8403c	0.024444692
44	0x3c620d2a	0.013797084
45	0xbdd3a31c	-0.10333845
46	0xbc912dfb	-0.01772212
47	0xbcee682c	-0.029102407
48	0xbe252e19	-0.16130866
49	0xbe0e1d10	-0.13878274
50	0xbd2c018b	-0.04199366
51	0xbd1b11d0	-0.037858784
52	0x3d01c5ae	0.031682663
53	0x3ce5121b	0.027962735
54	0x3dbb935f	0.09158968
55	0xbca440bc	-0.020050399
56	0xbd26190a	-0.040551223
57	0x3d4e3246	0.050340913
58	0xbd8c0e0f	-0.06838619
59	0xbc9fd9a0	-0.019512951
60	0xbd01f52f	-0.031727966
61	0x3c73543d	0.014851627
62	0x3cd29d03	0.025709635
63	0xbcc3e304	-0.02391196
64	0x3d5694e0	0.052388072
65	0xbd23f432	-0.040027805
66	0xbd001ad9	-0.031275604
67	0xbc923277	-0.01784633
68	0xbcdd1fe4	-0.026992746
69	0xbd06e0a3	-0.032929074
70	0x3c86150e	0.016367462
71	0xbcadc2e3	-0.021211093
72	0x3bd3b066	0.0064602373
73	0xbc441200	-0.011967182
74	0xbc8c1f88	-0.017104879
75	0xbd5a82f0	-0.053347528
76	0xbd97a573	-0.07404604
77	0xbcaa41bc	-0.020783298
78	0x3d1aef2a	0.03782574
79	0xbd443c38	-0.04790899
80	0xbb11f620	-0.0022271946
81	0xbd12313c	-0.035691485
82	0x3d3eba2d	0.04656427
83	0x3d25a05a	0.040436126
84	0xbd70bf5e	-0.058776252
85	0xbb8bd112	-0.0042668665
86	0x39c36a63	0.00037272563
87	0x3d65eb85	0.056132812
88	0xbb95efd0	-0.004575707
89	0xbb3c4a00	-0.002873063
90	0x3c6e1adf	0.014532774
91	0xbc86b224	-0.016442366
92	0xbd794f50	-0.060866654
93	0xbddd1283	-0.107945465
94	0xbce0a515	-0.027422467
95	0xbd454ba2	-0.048167832
96	0xbb357be7	-0.002769226
97	0xbdabc347	-0.083868556
98	0xbdaa4eeb	-0.08315834
99	0xbd47f658	-0.048818916
100	0x3d6a24d8	0.057164043
101	0x3cf563b8	0.029954776
102	0x3c94fecb	0.018187901
103	0xbd4d1f0e	-0.050078444
104	0xbdb98de0	-0.09060264
105	0x3c365d74	0.011130679
106	0x3c99e08c	0.01878383
107	0xbd8a8b6e	-0.06764875
108	0xbd66b73d	-0.056327093
109	0xbdaa6345	-0.083197154
110	0x3ccd561a	0.02506547
111	0xbca899f4	-0.020581223
112	0xbd42f754	-0.04759915
113	0xbd87ac56	-0.06624667
114	0x3c1ba2f8	0.009499304
115	0x3ccf46dd	0.025302345
116	0xbd0cf507	-0.034413364
117	0xbc42d07a	-0.011890525
118	0xbd4c4dae	-0.04987877
119	0xbd116e99	-0.035505865
120	0xbd15af28	-0.036543995
121	0xbd933659	-0.071881
122	0xbd7f8614	-0.062383726
123	0xbe4c46ba	-0.19948855
124	0x3cea7505	0.028620252
125	0x3d73ebca	0.059551038
126	0x3ce3e90f	0.027821092
127	0xbd89ea15	-0.06734101
128	0x3ccba19c	0.024857335
129	0xbd66e3e2	-0.05636967
130	0x3d6a2982	0.05716849
131	0xbd5a0ebe	-0.053236715
132	0x3d0d0abe	0.034434073
133	0xbdbdd82f	-0.092697494
134	0xbc3ae7b8	-0.011407785
135	0xbe133abd	-0.14377876
136	0xbc88881c	-0.016666465
137	0xbd16911f	-0.036759492
138	0x3aab2980	0.0013058633
139	0xbc3f3121	-0.011669428
140	0x3d0fe88a	0.035133876
141	0x3cb7ae14	0.022421874
142	0x3c805474	0.01566527
143	0xbdc0c14b	-0.09411868
144	0x3d3a223c	0.045442805
145	0x3d389763	0.04506625
146	0xbd81c013	-0.063354634
147	0xbc9b1b86	-0.018934023
148	0xbd78930b	-0.060687106
149	0xbc86540c	-0.016397499
150	0xbc3e5508	-0.011616953
151	0xbc3acc10	-0.011401191
152	0xbbf72710	-0.0075424984
153	0xbd9e6872	-0.07734765
154	0xbd308325	-0.04309382
155	0x3d34b8d8	0.044121593
156	0x3d5c90ee	0.053849153
157	0xbd9d9441	-0.07694293
158	0x3c84fba9	0.016233282
159	0xbd2e266e	-0.04251712
160	0xbd8fa15f	-0.07013201
161	0xbe03944f	-0.12849544
162	0x3d1066f4	0.035254434
163	0x3d05e290	0.03268677
164	0xbd9e843b	-0.07740065
165	0xbd1c6542	-0.038182504
166	0xbc741b20	-0.014899045
167	0xbd38d7b8	-0.0451276
168	0xbbf84941	-0.007577092
169	0x3d18b631	0.037283126
170	0xbd44f9d2	-0.04808981
171	0x3ad4f14b	0.0016246227
172	0x3ce1c242	0.02755845
173	0x3c3c094a	0.011476824
174	0x3d51913e	0.051163904
175	0xbd99b6ab	-0.07505544
176	0x3d90ef6a	0.070769146
177	0xbd9207ae	-0.07130371
178	0x3c23f450	0.010006979
179	0x3d156280	0.03647089
180	0xbe0a8fa6	-0.1353136
181	0xbd405088	-0.0469518
182	0xbd2cf5fe	-0.042226784
183	0x3d1c7b4c	0.038203523
184	0x3d236fe5	0.039901633
185	0xbcb2af3a	-0.02181207
186	0xbcc6b12e	-0.024254408
187	0xbcc30f84	-0.02381111
188	0xbc6e4d9d	-0.014544872
189	0x3d16ae26	0.036787175
190	0xbd48e4fc	-0.0490465
191	0x3dc79b81	0.09746457
192	0x3c2e2822	0.010629686
193	0xbc7a238a	-0.015267262
194	0xbcbd63b5	-0.023118833
195	0xbcd26e1b	-0.025687268
196	0xbc853a7c	-0.01626324
197	0x3afb12db	0.00191554
198	0x3b900e51	0.004396238
199	0xbce0b13c	-0.027428262
200	0xbd80b9f4	-0.06285468
201	0x3b65d843	0.003507153
202	0x3d682422	0.056675084
203	0xbd51f4c6	-0.051258825
204	0xbba4f150	-0.0050336495
205	0x3d0f88bc	0.03504251
206	0xbd9cf29a	-0.0766346
207	0xbce96ea4	-0.02849514
208	0x3cf71fc6	0.030166518
209	0xbcc94898	-0.024570748
210	0x3d5e011a	0.05420027
211	0xbd18d5b1	-0.037313167
212	0x3d62899a	0.05530701
213	0x3ce19a44	0.02753938
214	0xbd8de8d6	-0.069291756
215	0xbd9519eb	-0.07280334
216	0x3d4b0bd4	0.049571827
217	0xbd98d213	-0.074619435
218	0x3d4291a2	0.047502168
219	0xbde4984a	-0.11161859
220	0x3c7e7f40	0.015533268
221	0xbd209a3e	-0.039209597
222	0x3ca965a8	0.020678356
223	0x3cc57508	0.024103656
224	0x3d034066	0.032043837
225	0xbd77079b	-0.060309988
226	0x3ca5b5d0	0.020228297
227	0xbd0c82ae	-0.034304313
228	0xbd8a3b76	-0.067496225
229	0x3d3a7dae	0.045530014
230	0x3d1f34b0	0.038868606
231	0xbb2fa731	-0.0026802535
232	0xbd0d48f4	-0.0344934
233	0xbd10eed4	-0.035384014
234	0xbcc2d3d5	-0.02378265
235	0x3d1b550b	0.0379229
236	0x3d034c3e	0.032055132
237	0xbc27e701	-0.010247947
238	0x3c8f48e4	0.017490812
239	0x3d2525f6	0.040319405
240	0xbd42c8d0	-0.04755479
241	0xbe193858	-0.149629
242	0x3cc99274	0.024605967
243	0xbdf36c4c	-0.1188589
244	0x3d6db840	0.058037043
245	0x3ca90c3e	0.02063572
246	0x3bce8a8a	0.0063031362
247	0x3d6e1ca2	0.058132775
248	0x3c99eac8	0.01878871
249	0xbc68ed27	-0.014216698
250	0x3d3d9902	0.046288498
251	0xbdc0c2d6	-0.09412162
252	0xbbc524d7	-0.0060163545
253	0xbceb8014	-0.028747596
254	0xbd9110d6	-0.07083289
255	0xbd6f6574	-0.058446363

fc3.bias f4 [128]
0	0xbdf0dc2d	-0.11760745
1	0xbf1154c4	-0.5676997
2	0x3db8e1b4	0.090274245
3	0xbe435eec	-0.19079179
4	0xbe108002	-0.14111331
5	0xbe201b39	-0.15635385
6	0x3ec5127c	0.38490665
7	0xbf65fb48	-0.8983655
8	0xbdc6f050	-0.09713805
9	0x3f812166	1.0088317
10	0x3ea38fa7	0.31945536
11	0x3e13caf2	0.14432886
12	0x3f859de2	1.0438807
13	0xbe7fae50	-0.24968839
14	0xbce488ad	-0.027897203
15	0xbd8bd12e	-0.06827007
16	0xbdd16210	-0.10223782
17	0xbe4e6aa7	-0.20157872
18	0xbea9daf8	-0.33174872
19	0xbebbdbb0	-0.36691046
20	0xbd433fe1	-0.04766834
21	0x3ea96001	0.33081058
22	0xbdf3d0d7	-0.119050674
23	0xbed97b14	-0.42476714
24	0xbf1d44f6	-0.6143335
25	0x3f1df2fb	0.61698884
26	0xbe6e09b8	-0.23245895
27	0xbc54a012	-0.012977617
28	0xbe2697aa	-0.16268793
29	0x3d0ebfc2	0.034850843
30	0x3da31f80	0.079649925
31	0xbf45957f	-0.7718124
32	0xbdd4a5a1	-0.10383154
33	0xbde7175d	-0.11283753
34	0xbf07a59b	-0.5298707
35	0x3ea146ca	0.3149932
36	0xbdf44370	-0.11926925
37	0xbd95b256	-0.073094055
38	0x3ecbb354	0.39785254
39	0x3f9ef8ad	1.241964
40	0xbdd303ad	-0.103034355
41	0x3c3ffee3	0.011718485
42	0x3e58ddb0	0.21178317
43	0x3f4383a7	0.7637276
44	0xbd16f6ab	-0.036856335
45	0xbe570d03	-0.21001057
46	0xbd28a841	-0.041176084
47	0xbd3006f7	-0.042975392
48	0xbe80cccb	-0.25156245
49	0x3e9c49f1	0.30525163
50	0xbe3ca99f	-0.1842408
51	0xbe1c357f	-0.15254782
52	0xbf49d317	-0.7883772
53	0xbd85f1f8	-0.065402925
54	0x3c55ace4	0.013041709
55	0xbdbd5e87	-0.09246545
56	0x3f141c76	0.5785593
57	0x3efeb60e	0.49748272
58	0xbdd95c88	-0.10613352
59	0xbea6bc13	-0.32565364
60	0xbede2508	-0.43387628
61	0xbe1e54d7	-0.15462051
62	0xbe748761	-0.23879768
63	0x3f89aad3	1.0755256
64	0x3e9caaaa	0.30598956
65	0xbeb8650d	-0.36014596
66	0xbedc0699	-0.42973784
67	0x3d30e5a9	0.04318777
68	0xbf1157b8	-0.56774473
69	0xbe36abf8	-0.17839038
70	0xbe17067f	-0.14748572
71	0xbddd0ec8	-0.10793835
72	0xbddda03e	-0.108215794
73	0xbf79a54c	-0.9751785
74	0x3bd8a880	0.0066118836
75	0xbe1a2cda	-0.15056172
76	0xbf1dda6c	-0.6166141
77	0xbe7511a3	-0.23932509
78	0x3ad65187	0.0016351201
79	0xbd74c6c9	-0.05975989
80	0x3f5a2cd8	0.85224676
81	0xbe1b8ce7	-0.15190469
82	0xbdb04d14	-0.086084515
83	0x3f3d902c	0.74048114
84	0xbecd01ec	-0.4004053
85	0x3e13dc94	0.14439613
86	0x3ec85b79	0.39132288
87	0xbe221d77	-0.15831552
88	0xbef07cb2	-0.46970135
89	0xbdfec608	-0.12440115
90	0xbe7564d9	-0.23964252
91	0x3dddec08	0.10836035
92	0xbe0fb273	-0.14032917
93	0xbe9dbea1	-0.308095
94	0xbdf9356a	-0.12168391
95	0xbdf15e62	-0.1178558
96	0xbe14eb96	-0.14542994
97	0xbe111715	-0.14168961
98	0xbdd27ead	-0.10278068
99	0xbd7b0fcf	-0.061294373
100	0xbedf1bf7	-0.43576023
101	0x3f213b8e	0.629815
102	0xbdcb09d7	-0.09913986
103	0x3f2d6b02	0.67741406
104	0xbeb7853a	-0.3584383
105	0xbf2ed182	-0.68288434
106	0xbe6176a1	-0.2201791
107	0x3d15bc86	0.036556743
108	0xbd54300d	-0.051803637
109	0xbe9e3256	-0.30897778
110	0xbe8c0c86	-0.27353305
111	0x3f057474	0.5213082
112	0x3f34c13e	0.70607364
113	0xbda1631c	-0.07880232
114	0xbd456d84	-0.048200145
115	0xbcccf859	-0.025020765
116	0xbe28c61b	-0.16481821
117	0x3f220d29	0.6330133
118	0xbdd1e65e	-0.10249017
119	0x3f975c12	1.1824973
120	0xbe011fef	-0.12609838
121	0x3f2341e5	0.6377242
122	0xbd9ff985	-0.07811264
123	0xbebbf21c	-0.36708152
124	0x3fb7a949	1.4348537
125	0xbf4b2f6b	-0.7936923
126	0xbe11e122	-0.14246038
127	0xbe5956f1	-0.21224572

fc4.weight f4 [64, 128]
0	0xbc6280b1	-0.013824628
1	0xbf3f1d5d	-0.7465418
2	0xbd37107b	-0.04469345
3	0xbdbcbcc1	-0.092156895
4	0x3da30639	0.07960171
5	0xbdb08299	-0.086186595
6	0x3e94618c	0.28980672
7	0xbe865a67	-0.26240847
8	0x3cd951a7	0.026528193
9	0xbe691cc9	-0.22764887
10	0x3eca07cd	0.39459077
11	0xbe0f1c62	-0.13975671
12	0xbf33708a	-0.70093596
13	0xbed786b1	-0.4209495
14	0xbdc3d0fe	-0.095613465
15	0xbcf94e67	-0.030432893
16	0x3d7208e7	0.05909052
17	0xbc580470	-0.013184652
18	0xbd38b37c	-0.045093045
19	0xbebd6713	-0.36992702
20	0x3dae3ea2	0.0850804
21	0xbd6c1d50	-0.057645142
22	0xbdbcefaa	-0.092254
23	0x3ea49830	0.3214736
24	0x3e21ca59	0.15799846
25	0x3f077f41	0.5292855
26	0x3d5ce053	0.05392487
27	0xbb8935e2	-0.0041873315
28	0xbcafbe40	-0.021453023
29	0xbdeafd83	-0.11474135
30	0x3dafb048	0.08578545
31	0x3ec46bcb	0.3836349
32	0xbf1c0d72	-0.60958016
33	0xbe8eef63	-0.27917013
34	0x3d2cdcd1	0.042202774
35	0xbd9a1c77	-0.075249605
36	0x3cfc4686	0.030795347
37	0xbf13daf0	-0.5775595
38	0xbd10c698	-0.035345644
39	0xbea15516	-0.31510228
40	0x3e13aa26	0.14420375
41	0xbe5f225e	-0.21790454
42	0xbf2f1983	-0.683983
43	0xbe8c12b5	-0.27358022
44	0xbcaf97c2	-0.021434668
45	0x3d4d6d76	0.05015322
46	0x3c0fb1c6	0.008770412
47	0xbd4c2dc2	-0.049848326
48	0xbe4c8c51	-0.19975401
49	0xbf5347d2	-0.82531464
50	0xbc8cb4e8	-0.017176107
51	0xbe16b90d	-0.14719029
52	0xbf088bc5	-0.5333827
53	0x3d4bb65a	0.04973445
54	0xbdada847	-0.08479362
55	0x3d3510bd	0.044205416
56	0xbf532f2a	-0.8249384
57	0xbebccb6c	-0.3687395
58	0x3d45bcae	0.048275642
59	0xbbcc4b2b	-0.0062345467
60	0xbf160c5d	-0.58612615
61	0xbce45cf0	-0.027876347
62	0xbce95fef	-0.028488128
63	0xbe0e4999	-0.13895263
64	0x3d9071a7	0.070529275
65	0x3d95ed0b	0.07320603
66	0xbec46fd3	-0.38366565
67	0x3e3e5602	0.18587497
68	0xbdbb1daf	-0.09136521
69	0xbe305ccf	-0.17222904
70	0x3e54142f	0.20710824
71	0xbd813088	-0.06308085
72	0xbf30d89a	-0.6908051
73	0xbeb7a5af	-0.35868594
74	0xbf855e75	-1.0419451
75	0x3d2be73c	0.04196857
76	0x3c8369c5	0.016041646
77	0xbecd66ae	-0.401174
78	0xbde52362	-0.11188389
79	0x3d6b93d7	0.057514038
80	0x3dc4d6bb	0.09611269
81	0xbce9c32b	-0.028535446
82	0xbdb492d5	-0.088170685
83	0xbe1d2eac	-0.15349835
84	0x3d9773b1	0.07395113
85	0xbd529daf	-0.05141991
86	0x3b925d4f	0.0044666897
87	0x3d4d8d19	0.05018339
88	0xbd368ff9	-0.044570897
89	0xbd92d9d8	-0.07170457
90	0xbc03bc74	-0.008040536
91	0xbed8fe88	-0.42381692
92	0xbd873de7	-0.06603604
93	0xbe07d615	-0.1326526
94	0x3d5013a2	0.050799973
95	0xbc6a1ecb	-0.014289568
96	0x3ee3e442	0.44510084
97	0x3d441520	0.04787171
98	0x3c8e95dd	0.017405445
99	0x3b862bc3	0.0040945723
100	0xbeb1fe44	-0.34764302
101	0xbec8adb9	-0.3919504
102	0x3cbdd409	0.023172395
103	0x3e982e03	0.29722604
104	0xbead5ce4	-0.33859932
105	0xbe3768d2	-0.1791108
106	0x3d8ba1e2	0.06817986
107	0xbd6d692b	-0.057961624
108	0xbdd54560	-0.10413623
109	0x3e5a9564	0.2134605
110	0xbd7dba1a	-0.06194506
111	0xbe74d6ba	-0.23910037
112	0xbee3de8b	-0.44505724
113	0x3be65234	0.0070288423
114	0x3def4eb0	0.1168493
115	0xbd9ca77e	-0.07649134
116	0x3c334a6f	0.010943039
117	0x3eb90c43	0.36142167
118	0x3caeb495	0.021326343
119	0xbd77168e	-0.060324244
120	0xbda15f04	-0.07879451
121	0xbeb9f75b	-0.3632153
122	0x3e765a29	0.24057831
123	0xbd994fe2	-0.074859396
124	0xbe0659a0	-0.13120127
125	0xbdaa0137	-0.08301013
126	0xbda99244	-0.08279851
127	0xbeb8cc1d	-0.36093226
128	0xbd21a117	-0.039460268
129	0xbddcc5cf	-0.107799165
130	0x3bccb3bf	0.0062470133
131	0xbcf51cbf	-0.029920934
132	0x3d4b6d37	0.049664702
133	0xbda8ed71	-0.08248413
134	0xbdd8baf3	-0.10582533
135	0xbdbf2cc2	-0.09334709
136	0x3cdb21fa	0.0267496
137	0xbd236008	-0.039886504
138	0xbcf18a36	-0.02948485
139	0xbdcb5c91	-0.09929765
140	0xbdcd462e	-0.10023151
141	0xbd4002b5	-0.04687758
142	0xbd0191f1	-0.03163332
143	0x3d7fd761	0.06246126
144	0xbd06c0ee	-0.032898836
145	0xbd5f270d	-0.0544806
146	0xbc2041e7	-0.009781337
147	0xbd1f67a1	-0.038917188
148	0xbd0fb65a	-0.035086013
149	0x3c889724	0.016673632
150	0xbce011e1	-0.027352275
151	0x3d0b9ee5	0.03408708
152	0xbd040d72	-0.032239385
153	0x3d074473	0.033024263
154	0x38af5caf	8.361914e-05
155	0xbd545516	-0.051838957
156	0x3d3031c7	0.04301622
157	0xbcbbad18	-0.022909686
158	0xbe00fc89	-0.12596335
159	0x3c8fdbdf	0.017560897
160	0x3c43f9f0	0.011961445
161	0x3d255bb2	0.04037065
162	0x3bc957a9	0.006144483
163	0x3d6d6592	0.057958193
164	0x3d96d1c7	0.073642306
165	0x3c9aee97	0.018912597
166	0xbc49d803	-0.012319568
167	0x3bf85968	0.0075790174
168	0x3d4379fd	0.04772376
169	0x3d92c30c	0.071661085
170	0xbd0efa1a	-0.034906484
171	0xbc613920	-0.01374653
172	0xbcf260f1	-0.02958724
173	0x3db44d4d	0.088038065
174	0x3c1c718e	0.009548558
175	0xbd8daa0d	-0.069172
176	0x3b33391a	0.0027347268
177	0xbd43c23c	-0.04779266
178	0xbd1ff11b	-0.039048295
179	0x3d05b173	0.032639932
180	0xbd288f8b	-0.04115252
181	0x3d2b1eeb	0.041777533
182	0xbd84c603	-0.0648308
183	0x3c5f4621	0.01362756
184	0xbdcb579c	-0.099288195
185	0xbd22bc03	-0.039730083
186	0x3d72e4c8	0.059300214
187	0x3d8a4cf7	0.06752961
188	0x3d2259c0	0.039636374
189	0xbd429b9e	-0.04751169
190	0x3d2ab5e3	0.041677367
191	0xbcacf63a	-0.021113504
192	0xbcaa74a3	-0.02080757
193	0xbc5770de	-0.013149468
194	0xbd417812	-0.04723365
195	0xbd17e8d8	-0.03708729
196	0xbc354ff1	-0.011066423
197	0xbdc32b40	-0.09529734
198	0xbd0a91a3	-0.033830296
199	0x3b9eb66e	0.0048435247
200	0x3ca7d9cd	0.020489598
201	0xbc83ede3	-0.016104644
202	0xbd1e591e	-0.038659208
203	0xbd8e579d	-0.06950305
204	0xbe026b95	-0.12736352
205	0x3d7414f3	0.05959029
206	0xbc600027	-0.013671911
207	0xbdaca57a	-0.0843
208	0xbdbbb9ad	-0.09166274
209	0x3b6ecbfd	0.0036437504
210	0xbc14b78c	-0.009076964
211	0xbd29ccee	-0.0414552
212	0xbdc2543e	-0.09488724
213	0xbb70462d	-0.0036662922
214	0x3d37ee45	0.044904966
215	0xbb3ea3e0	-0.0029089376
216	0xbde2cab4	-0.11073819
217	0xbcf316fc	-0.029674046
218	0x3c8ee0b3	0.01744113
219	0x3c91d9fc	0.017804138
220	0x3d4fe08b	0.05075125
221	0xbdc75a7e	-0.09734057
222	0x3d532250	0.051546395
223	0xbc72e32c	-0.01482467
224	0xbd562464	-0.0522808
225	0x3d37ab40	0.04484105
226	0x3d040af0	0.032236993
227	0xbcc26ade	-0.023732599
228	0xbd53fce3	-0.051754843
229	0x3a368fd5	0.00069641817
230	0xbd395b81	-0.04525328
231	0xbd9befeb	-0.0761412
232	0xbda9e305	-0.08295254
233	0xbd1496d7	-0.036276665
234	0x3d1a67e0	0.03769672
235	0xba2f36ad	-0.00066838675
236	0x3db2e54e	0.08735143
237	0xbd6a1737	-0.057151046
238	0xbd832c19	-0.06404895
239	0xbe00bc19	-0.12571754
240	0xbdb7762e	-0.08958088
241	0xbce1e245	-0.027573714
242	0xbdd7fb76	-0.10546009
243	0xbd00e9b0	-0.03147286
244	0x3c1de1d0	0.009636357
245	0x3ce4d361	0.027932825
246	0xbd29d7d8	-0.04146561
247	0xbdfa6a31	-0.12227286
248	0xbdb9f36b	-0.090796314
249	0xbd800e3e	-0.062527165
250	0x3c84753f	0.016169189
251	0xbd14700d	-0.036239672
252	0x3c9a1440	0.018808484
253	0xbda7178d	-0.08158789
254	0xbca53734	-0.020167924
255	0xbcaed312	-0.02134088

fc4.bias f4 [64]
0	0xbe4a6412	-0.19764736
1	0xbe6ea80d	-0.23306294
2	0xbe67abe7	-0.2262417
3	0xbe11cbeb	-0.14237945
4	0xbed0e90c	-0.408028
5	0x3ee0f8a4	0.43939698
6	0xbe2c8b9e	-0.16850135
7	0xbe70cf15	-0.23516496
8	0xbe52ade8	-0.20574152
9	0xbdf124b2	-0.11774577
10	0xbf07acbb	-0.5299794
11	0xbf085ab4	-0.532634
12	0xbf0e2580	-0.5552597
13	0x3f23ff5b	0.64061517
14	0xbe5b2f97	-0.21404873
15	0xbe1b0ae8	-0.15140879
16	0xbe63bf9b	-0.2224106
17	0xbe1df639	-0.15425958
18	0xbdaf57b2	-0.085616484
19	0xbe7a13d1	-0.24421622
20	0xbc72b91d	-0.014814642
21	0xbd684719	-0.05670843
22	0x3df3faff	0.11913108
23	0xbe12be8a	-0.14330497
24	0xbe210b64	-0.15727001
25	0xbd317060	-0.04332006
26	0xbe0403a1	-0.1289201
27	0x3ea974be	0.3309688
28	0xbefca607	-0.4934542
29	0xbe21aef1	-0.15789391
30	0xbdacb982	-0.0843382
31	0xbe0790ae	-0.13238785
32	0xbd7695ba	-0.060201384
33	0x3eb2a796	0.34893483
34	0xbdf33170	-0.11874664
35	0x3fb11f65	1.3837706
36	0xbd0d2050	-0.034454644
37	0xbcb6605a	-0.02226274
38	0xbe801795	-0.25017992
39	0xbddd4726	-0.10804586
40	0xbe3424f2	-0.17592219
41	0x3fc0cf24	1.5063214
42	0xbe925bf0	-0.28585768
43	0x3eb88733	0.3604065
44	0xbdedafb4	-0.11605778
45	0x3e416f8c	0.18890208
46	0xbbd0c2a3	-0.0063708588
47	0xbe35752d	-0.1772048
48	0xbe005841	-0.12533666
49	0xbdc2ab11	-0.095052846
50	0x3f7ef338	0.9958987
51	0x3e657f70	0.22411895
52	0xbda753b8	-0.08170265
53	0x3f12287d	0.5709303
54	0xbe97b318	-0.29628825
55	0x3dacb82f	0.08433568
56	0xbd72f35d	-0.05931412
57	0x3f3073cb	0.68926686
58	0xbe12a2c0	-0.14319897
59	0xbe0529bc	-0.13004202
60	0xbdc81de6	-0.09771328
61	0xbe64ec1f	-0.22355698
62	0xbe2f3a76	-0.17112145
63	0xbe1dca99	-0.15409316
