model/DQN/_Player_dqnAgent_model_epoch_4000.pth (torch_old, 489705 bytes, 10 tensors)

fc1.weight f4 [256, 57]
000000 8d b2 d5 be 74 59 c6 bc 9e 6f 1e bf 2f 3e d4 bd
       -0.41737786 -0.024212576 -0.61889064 -0.10363423
000010 4f 63 2b 3d b6 fb c8 3c 1b a0 c0 bd 26 17 06 be
       0.041842755 0.024534088 -0.09405538 -0.13094768
000020 22 54 61 3f bd ce 84 be ef ab 99 3f 39 f9 93 be
       0.88019 -0.2593898 1.2005595 -0.2890108
000030 27 45 58 3e ab 5f 19 bf dd 25 92 3e f9 3f be 3e
       0.2112013 -0.599116 0.28544512 0.37158182
000040 d9 97 30 be 71 d0 59 bd 3f 19 43 3f ee 16 76 3e
       -0.17245425 -0.0531773 0.762104 0.24032184
000050 e5 39 f8 be e8 22 c2 be 8c 7a b2 bf 42 99 93 c0
       -0.4848167 -0.37917256 -1.3943648 -4.612458
000060 a7 9b 5f c0 79 85 46 3e 91 0e 9f be 5f 18 46 bf
       -3.4938753 0.19386853 -0.310658 -0.7738094
000070 68 c5 aa bd eb 27 f4 bf 42 7a 53 bd 68 3b 85 3e
       -0.083384335 -1.9074682 -0.051630266 0.26021886
000080 d1 6a da bd be 9c 0c bf 0f 0c 8a bf e8 51 14 be
       -0.10664905 -0.5492667 -1.078493 -0.1448437
000090 a6 cb 10 bf 94 41 5f bf 10 16 72 3d e8 68 d3 3f
       -0.5656074 -0.8720944 0.05910307 1.651639
0000a0 60 42 e4 3b 42 68 80 3f 29 fe 0b 3e 99 84 23 bf
       0.0069659203 1.0031817 0.13671173 -0.638742
0000b0 b2 5a 08 c0 46 7b 68 3d 4c ef dc be 6c 33 10 40
       -2.1305356 0.056758188 -0.4315132 2.2531385
0000c0 aa 3f 5e bf d4 14 05 bf d8 24 23 be c5 e2 d6 3e
       -0.86815894 -0.51984906 -0.15932024 0.41969886
0000d0 6c ce ec be b6 c6 00 40 bb d4 87 3e ea d2 17 bf
       -0.46251237 2.0121284 0.26529488 -0.59306204
0000e0 73 67 9d 3e 20 70 73 3f 7e 22 86 3e be f7 73 bf
       0.30742988 0.95092964 0.2619819 -0.952999
0000f0 44 2e 32 c0 c8 2d 42 be 49 c3 35 c0 46 fb 05 3f
       -2.7840738 -0.18962777 -2.8400443 0.5233654
000100 38 15 37 bf 64 da ef 3f 83 7c 47 be fe 72 ea 3f
       -0.7151675 1.8738523 -0.19481091 1.8316343
000110 76 62 c6 be 61 6f 87 3f c8 50 a6 be c6 39 cc 3e
       -0.38746995 1.0580865 -0.32483506 0.39887828
000120 5f 10 f8 be 8b 6f 8b 3e b4 6e 26 bf f2 e4 29 3d
       -0.4844999 0.27233538 -0.6501267 0.041478105
000130 c1 35 c2 bf af a1 ad be 85 d9 69 bd ec a4 07 c0
       -1.5172654 -0.33912417 -0.05709221 -2.119441
000140 7f 1f 5b bf 14 7f a9 bf 7c 6d c5 3e 06 e6 b2 bf
       -0.85594934 -1.3241906 0.38560092 -1.3976448
000150 09 ac 27 be e8 c9 b6 bc c8 cd e8 bf 9c 58 78 bd
       -0.1637422 -0.022313073 -1.81878 -0.06063138
000160 ed 07 1d 40 b4 0d 0b 3f c7 e7 9a bf 41 a3 4f 3e
       2.4536088 0.54317784 -1.2101983 0.2027712
000170 ec 68 37 3f ff c7 9a bf b5 b3 99 3b e0 f7 af bd
       0.71644473 -1.2092284 0.004690612 -0.085922
000180 19 6c 94 bf 98 1a e3 3c cc 27 39 bf 67 ed 76 bf
       -1.1595489 0.027722642 -0.7232635 -0.96456
000190 ca a9 90 bf 16 ac 26 bf 5f b1 1b 3d b0 e0 a4 bf
       -1.1301816 -0.6510633 0.03801095 -1.2881069
0001a0 48 ba af bf 5a f3 a2 3f ea 60 ad bf d1 0c 41 be
       -1.3728724 1.2730515 -1.3545201 -0.18852545
0001b0 f7 1a ac bf 0c 11 9e bf b3 d4 16 c0 95 77 32 3e
       -1.3445729 -1.2348952 -2.3567321 0.1742843
0001c0 6c ed aa bf 6c d9 bf 3f 94 9e 2e 40 c4 6c dd be
       -1.3353705 1.4988227 2.7284288 -0.43247044
0001d0 40 74 8c 3f fe 28 bb be c2 60 8d 3f 60 c6 9d be
       1.0972977 -0.36554712 1.1045153 -0.3081541
0001e0 be 53 da 3f 03 27 2a bf 1a ec 12 3f 94 7c f6 bf
       1.7056806 -0.6646578 0.5739151 -1.9256768
0001f0 0c 66 6b 3f 2d d8 0c c0 ee dd 7d 3f 0d 5d 95 bf
       0.91952586 -2.2006943 0.9916676 -1.1669022
000200 f7 5e 2c 3f 5e 5e bb bf b8 8e bf 3e 58 00 dc bf
       0.67332405 -1.4638174 0.37413573 -1.7187605
000210 b0 fc ca 3f e4 a2 e9 bf da 24 54 bf 4d f5 04 c0
       1.5858364 -1.8252835 -0.8286873 -2.077472
000220 a0 ff 84 bd 2a 72 94 c0 fd 20 e7 bf d8 4c 33 bf
       -0.06494069 -4.638936 -1.8056942 -0.7003913
000230 54 7a 48 bf a1 9b 92 3f 5e c5 00 3e 1b 4c 94 3f
       -0.7831166 1.1453744 0.1257529 1.1585726
000240 b7 ae f3 bd 67 1a 02 c0 e6 a5 5c bd 16 4f 6c bf
       -0.118985586 -2.0328615 -0.05386915 -0.92308176
000250 bc 1e 44 3e 43 76 7b be 87 e8 85 bf ec 10 15 3e
       0.19152349 -0.24556832 -1.0461587 0.14557236
000260 e4 16 dc bc 6e fb 5d bf 16 a8 92 3d 3e 29 e8 be
       -0.026866384 -0.86711776 0.07160966 -0.45343965
000270 71 ac fd 3f ba 7f 85 bf 3e 59 0c bf c8 49 f8 bf
       1.981825 -1.0429604 -0.5482367 -1.9397516
000280 f1 fe 76 bf fb bc e7 be a6 e2 9c 3e 1a df 86 bf
       -0.9648276 -0.45261368 0.3064167 -1.0536835
000290 00 dc 96 3f 99 28 1e 3f 0d de 7f bf 33 e0 d1 bd
       1.1785889 0.617807 -0.999482 -0.10247841
0002a0 9a 56 be bf a1 c0 72 bf 9e db 30 be e2 76 84 bf
       -1.4870179 -0.9482518 -0.17271277 -1.034878
0002b0 6b 18 40 3f 4b e3 1d bf 60 27 58 3f c3 3c 0f bf
       0.7503726 -0.61674947 0.8443508 -0.5595209
0002c0 c1 6c 3b 3f 4e 1b f4 bf c6 ae 5d 3f a8 60 90 c0
       0.7321282 -1.9070833 0.8659481 -4.511799
0002d0 c1 b9 8d 3f 00 2a 51 c0 5d 75 35 3f d7 88 99 bf
       1.1072313 -3.2681885 0.7088221 -1.1994885
0002e0 3d 83 0c 3e 2f 7e 5b be 1b 8b 90 bd 47 02 ab 3d
       0.13721938 -0.21434854 -0.07057782 0.08350044
0002f0 f8 df 06 3e d1 7c e4 be 94 24 34 3d 53 fe 24 be
       0.13171375 -0.44626477 0.043980196 -0.16112642
000300 d3 8c 71 bf c8 ef 78 bd 14 24 a4 c0 f4 ec 75 c0
       -0.94355506 -0.06077555 -5.129404 -3.8425875
000310 20 55 19 be e4 07 c5 bf d6 d6 e9 bf 00 62 3d bb
       -0.14973879 -1.5393033 -1.8268688 -0.0028897524
000320 73 19 df 3f f8 dc ae 3d f9 5e 11 3f bb db 2c 3e
       1.7429641 0.0853824 0.5678554 0.16880696
000330 70 33 ee bf 72 49 41 bf 6d 35 59 3e f0 0d d6 bf
       -1.8609447 -0.75502694 0.21211787 -1.6723003
000340 30 c2 4c bf 80 65 89 3c 09 00 da be e8 7e d6 bc
       -0.79983807 0.016772032 -0.42578152 -0.02618356
000350 1e a1 0c 3f db 99 47 bf 31 8d df bf 48 8a 30 3e
       0.54933345 -0.7796914 -1.7464963 0.1724025
000360 38 5d 52 3e db 51 e8 bf 2b b8 cd be 70 6a 96 3e
       0.20543373 -1.814998 -0.40179572 0.2937808
000370 69 a6 e0 bf de d3 92 3e 7d a3 de 3e d7 f3 de bf
       -1.7550784 0.28677267 0.43484107 -1.7418164
000380 7c fd 3f 3f cd 2c 97 be 8d 82 eb bf 90 9a bd 3e
       0.7499616 -0.29526368 -1.8399216 0.37031984
000390 ee 9a 2a 3f 9a ba 05 bf 92 8f 35 3f c2 e2 96 bf
       0.66642654 -0.52237856 0.70922196 -1.1787951
0003a0 5f 06 55 be d9 52 11 bf 1f f7 5a bf 46 87 6b bf
       -0.20803212 -0.5676704 -0.85533327 -0.92003286
0003b0 33 42 42 3f 70 08 08 3c 54 a9 18 3f 6e 61 f4 3b
       0.7588226 0.008302793 0.59633374 0.0074579036
0003c0 d0 2b 32 3f 18 47 53 3d 91 9b eb 3e e9 c3 0f 3e
       0.695981 0.051581472 0.46017125 0.14039578
0003d0 4a 08 b0 3f cc 36 c9 be 32 3e 9d be 85 d2 a0 3d
       1.375253 -0.3929962 -0.30711514 0.078526534
0003e0 dd 90 9a 3f 46 e1 95 bd d7 04 60 bf f3 a4 79 40
       1.2075459 -0.07318358 -0.87507385 3.9006927
0003f0 76 32 a6 bf 4b d8 44 3e c4 d7 a2 be 94 a1 ee bf
       -1.298415 0.19223134 -0.3180524 -1.864306

fc1.bias f4 [256]
000000 1b 8b 07 bf fb d2 95 bf 7a 61 68 bf 3a 52 ec bf
       -0.52946633 -1.1705011 -0.9077374 -1.8462594
000010 3e 52 39 be 1b e3 87 be 28 38 c5 3e 31 72 11 3f
       -0.18097779 -0.26540455 0.38519406 0.5681487
000020 db 1a 31 3f 52 89 23 3f e6 06 34 3d fb 18 61 bf
       0.69181603 0.6388141 0.04395189 -0.8792874
000030 93 86 22 bf d2 1a 0b 3e 38 a3 04 bf 99 60 af be
       -0.63486594 0.1358445 -0.5181155 -0.34253386
000040 6c 28 0e bf af 18 fc 3e 4b 5f 1a bf 94 e7 a6 bf
       -0.5553043 0.49237582 -0.60301656 -1.3039422
000050 55 32 d8 bf 17 57 4b bf bb ad 80 bf dd c9 3c bf
       -1.689036 -0.79429764 -1.0053018 -0.7374552
000060 b3 21 8e 3e b4 eb 62 bf a5 39 20 bf 2f 97 82 bf
       0.27760085 -0.88640904 -0.6258796 -1.0202388
000070 ad 83 5a bf a5 a8 08 bf 22 b6 84 bd a8 8b 65 be
       -0.8535717 -0.5338233 -0.064800516 -0.22416556
000080 47 bf d3 bf 82 d3 94 bf 92 75 4c 3e 4c ff c3 bd
       -1.6542748 -1.1627047 0.19966725 -0.095701784
000090 2d 50 48 3f 11 46 32 bf b7 6d 73 bf 56 d3 9f bf
       0.7824734 -0.6963816 -0.95089287 -1.248637
0000a0 a4 02 93 3e 58 1f 08 bf be 20 09 3f 95 59 c6 3e
       0.28712952 -0.53172827 0.53565586 0.3874022
0000b0 6c 1f 18 be 6d ff f3 bf c6 d2 55 bf 50 c3 12 bf
       -0.14855736 -1.9062325 -0.8352474 -0.57329273
0000c0 70 94 a0 be 93 24 8c be 30 e1 64 bf 5a 78 14 bf
       -0.3136325 -0.27371654 -0.8940611 -0.5799614
0000d0 20 72 2e bf 7a 2b 50 bf 16 9c 70 bf 79 90 28 be
       -0.6814289 -0.8131634 -0.9398817 -0.16461362
0000e0 39 97 b7 3f 8c 72 3d bf 02 71 c0 bf 70 b4 c1 bf
       1.4343024 -0.7400291 -1.5034487 -1.513319
0000f0 1d cd 62 bf c8 87 9f bf 5e b4 8c 3e 91 fc 88 bf
       -0.8859423 -1.2463312 0.2748136 -1.0702077
000100 31 d0 0b 40 d2 72 23 bf fd 96 65 be 9e 02 be 3e
       2.184582 -0.63847077 -0.22420879 0.37111372
000110 28 ba bf be ba 3a 92 be 84 2f da bf 91 00 8e be
       -0.37446713 -0.2856043 -1.7045751 -0.27734807
000120 43 0d 5f bf 1a 8b 18 be 33 7e cc bf 44 93 48 bf
       -0.8712961 -0.14896813 -1.5976013 -0.7834971
000130 6e bb 92 be 0b 30 ec 3e 2c b0 c8 bf 30 f4 a2 bf
       -0.28658623 0.46130404 -1.5678763 -1.273077
000140 56 a5 9e 3e 59 ea 0f bf b0 5b 0b 40 67 7f c9 3d
       0.30985516 -0.5621696 2.1774712 0.09838753
000150 cc 71 87 bf 9b 7f 0c c0 fb 58 55 bf cf c0 3a bf
       -1.0581603 -2.1952884 -0.833389 -0.7295045
000160 98 8b 78 3a c3 24 90 bf 51 34 57 bf 4b f3 8e bf
       0.00094812503 -1.1261219 -0.84064204 -1.1167997
000170 f9 d4 c4 3e f5 87 0e bf 97 ac a8 bf 06 40 05 3f
       0.38443735 -0.55676204 -1.317767 0.52050817
000180 f2 8c 58 bf 17 9f a6 3e 73 94 85 be 07 89 40 bf
       -0.84590065 0.3254325 -0.2608982 -0.7520909
000190 ae 63 de bf fd 73 f3 be ee e7 a0 bf 11 61 10 bf
       -1.737417 -0.4754943 -1.2570779 -0.5639811
0001a0 09 98 aa bf ce 22 b7 be 47 da b8 be 66 f6 a8 bf
       -1.3327647 -0.3576874 -0.36104032 -1.3200195
0001b0 e7 6c 30 bf 5d a4 72 be d3 85 b5 3e 87 22 1f bf
       -0.6891617 -0.23695512 0.35453662 -0.6216206
0001c0 66 da 89 bf 26 e9 a5 be ec 7b d1 bf 4f fb a8 bf
       -1.0769775 -0.3240444 -1.6365943 -1.3201693
0001d0 59 ea 80 bf b4 9c 34 be 5a 43 89 bf 85 f0 fd be
       -1.0071517 -0.17637902 -1.0723679 -0.49597564
0001e0 32 c6 31 bd 51 6d 15 bf f7 47 da be dc 49 81 be
       -0.043401904 -0.5836993 -0.4263303 -0.25251663
0001f0 7c 44 5e bf a6 e0 e4 be 2f f3 83 bf 21 ff ba bf
       -0.8682325 -0.44702643 -1.0308589 -1.4609109
000200 6b ea 1a bf 1c 89 59 be e8 45 e1 be 62 a5 f4 3e
       -0.60513943 -0.2124371 -0.43998647 0.47782427
000210 a9 03 9a 3c 00 7e 68 bf 71 38 07 3f 89 15 7d 3e
       0.018800573 -0.9081726 0.528205 0.24715246
000220 c2 4f 83 bf f6 c1 9b bf ea 68 85 bf ff aa 68 bf
       -1.0258715 -1.2168567 -1.0422642 -0.9088592
000230 e0 8e 38 bd b5 62 4f 40 fe e2 fc bf ba 5f f1 bf
       -0.04505813 3.2403996 -1.9756773 -1.8857338
000240 6a a0 56 40 bb 58 d8 bf 2d 93 d3 bf bc 0c 64 bf
       3.353541 -1.6902078 -1.652929 -0.8908193
000250 9f cf 95 3e b4 12 77 bf 0e 3e 22 bf 25 eb 11 c0
       0.29259965 -0.96512914 -0.6337594 -2.279977
000260 38 5d ac bd 1d af 1c 40 4a 79 67 be 51 2f 9c bf
       -0.084162176 2.448188 -0.22604862 -1.220194
000270 b1 43 43 bf 3e 18 e5 bf 92 df 96 bf 2b 48 6d be
       -0.76275164 -1.7898023 -1.1786978 -0.23172061
000280 fc 3e 97 3e 45 4b 4d bf 2c 8c bc bf b8 cc 14 bf
       0.2954024 -0.8019298 -1.4730277 -0.58124876
000290 5d b2 3d bd 66 10 02 bf 3c d4 17 bf 55 56 9b bf
       -0.04631268 -0.5080627 -0.5930822 -1.2135721
0002a0 27 d4 d0 bf 0c b4 b0 bf 95 85 0c 3f c0 e4 fa bf
       -1.6314744 -1.3804946 0.5489133 -1.9601059
0002b0 71 1a e0 3e a8 d1 55 bf c6 08 3f 3e d5 91 9e be
       0.43770173 -0.83523035 0.1865569 -0.30970636
0002c0 f5 62 40 3f 2c c4 2e 3e 7d 59 89 bf 1f b3 1b c0
       0.75150996 0.17067021 -1.0730435 -2.4328077
0002d0 5b e9 84 3f 4d e8 98 bf 9f fc 57 bf be 06 ab bf
       1.0383714 -1.1945893 -0.84369844 -1.3361433
0002e0 00 e1 93 3f c3 1d ad be e8 60 1e be d2 d6 fb bf
       1.155304 -0.3381177 -0.15466654 -1.9674933
0002f0 e6 dc 4d 3e 76 30 6d be 14 18 67 40 d8 a9 7d bf
       0.20103797 -0.23163018 3.6108446 -0.99087286
000300 11 fb 97 bf 05 af 63 bf 30 5c 98 bf 89 83 af 3e
       -1.1873494 -0.88938934 -1.1903133 0.3428004
000310 c2 50 ac be 6e e2 af 3f 88 5d ed bf 47 a6 5c bf
       -0.33655363 1.3740976 -1.8544168 -0.8619122
000320 12 d0 0b bf 5d db c4 bf c0 fb 5f bf bc 57 a6 3e
       -0.54614365 -1.5379444 -0.87493515 0.3248881
000330 1b 2b e6 3f f3 b2 ac bf 32 74 f3 bf 4a 94 1c bf
       1.7981905 -1.3492111 -1.9019835 -0.6116377
000340 6d ee df bf d7 58 92 bf 05 f0 a2 bf 23 48 b4 bf
       -1.7494637 -1.1433362 -1.2729498 -1.4084514
000350 db 6c a6 bf 99 82 b7 bf ac e2 12 bf bf 51 c4 bf
       -1.300197 -1.433673 -0.57377124 -1.5337447
000360 73 ca d9 bf f8 31 77 bf 40 a3 9b bf 4a 65 6f 3e
       -1.7014908 -0.9656062 -1.2159195 0.23378482
000370 9f 80 35 bf 75 a0 a6 bf 4b 5f 21 bf 16 ad 3d bf
       -0.70899385 -1.3017718 -0.6303603 -0.74092233
000380 e5 6f 36 3e 09 8c 0b bf 7d b6 47 bf 5b 50 36 3e
       0.17816122 -0.5451055 -0.7801283 0.1780409
000390 a4 c2 8e 3e c9 11 10 bf da b5 ca 3d 7c e8 ae 3f
       0.27882874 -0.5627714 0.09897967 1.3664699
0003a0 42 32 90 be 63 cb d9 bf 45 1b 78 3f 9c 14 5b bf
       -0.28163344 -1.7015194 0.9691661 -0.8557832
0003b0 3c cb 64 bf 77 66 b8 be 19 1c 91 bf bb 85 84 bd
       -0.8937261 -0.36015674 -1.13367 -0.064708196
0003c0 69 0d 8e 40 cd 32 26 bb b5 14 21 be 01 5a d3 be
       4.439137 -0.002535987 -0.15730555 -0.41279605
0003d0 fa 3a 85 bd 90 1b f8 bf 31 37 d2 3f 97 0f b1 be
       -0.065053895 -1.9383411 1.6423093 -0.34582207
0003e0 12 0f c5 3e 9b 7e c0 bf f1 0f 73 bf c0 2d d4 3d
       0.3848806 -1.5038637 -0.949462 0.103602886
0003f0 fc 03 85 bf 6c 61 b2 bf 29 7d 47 3f 24 88 5e bf
       -1.0391841 -1.3935981 0.77925354 -0.86926484

fc2.weight f4 [256, 256]
000000 ca 2c ba bd d7 05 f7 bd 63 c2 ce 3c 96 9d 57 bd
       -0.09090574 -0.12061661 0.025239175 -0.05264052
000010 cc 14 33 3d 37 59 ae bc 38 b1 25 bd 98 63 6a bc
       0.043721005 -0.021282775 -0.040452212 -0.014305972
000020 15 39 04 3d bd 86 22 be 3d 63 4d bd 84 73 6b bd
       0.032281 -0.15871711 -0.05014347 -0.05748321
000030 e9 6e 51 bc f7 03 af bc d8 2f 18 3c c1 b9 20 3d
       -0.012782791 -0.021364195 0.009288751 0.03923965
000040 cc 29 80 bd c5 c6 b7 3b cf b2 08 bc d0 cf a8 bd
       -0.06257972 0.005608412 -0.008343413 -0.08242762
000050 c3 20 a6 bd a4 90 67 bd 58 62 9d bd 91 60 bb bc
       -0.081117176 -0.056534424 -0.07684773 -0.022873195
000060 48 11 fb bd 92 d0 26 bd 34 77 d6 3c ca 1d 3f bc
       -0.122591555 -0.040726252 0.026179887 -0.011664817
000070 f3 9c 10 3d 65 9e 6b 3c 8d d2 83 bd 8b 67 ec bc
       0.03530593 0.014381026 -0.06436644 -0.028857967
000080 1e 02 c5 bc bb b2 d2 3c 1c e6 5e 3d 50 43 3f 3c
       -0.024048861 0.025719991 0.05441867 0.011673763
000090 20 73 38 3c 7e b9 2e b9 92 63 bc bc 1d f2 d6 bc
       0.011257917 -0.00016663034 -0.022996698 -0.026238495
0000a0 2a b0 99 3b 31 e8 9e bd d9 49 0d 3c b8 03 a2 ba
       0.00469019 -0.07759131 0.008623564 -0.0012360727
0000b0 01 eb 00 be b8 2f 88 bd 18 c7 27 bd 06 9f 56 bd
       -0.12589647 -0.06649727 -0.040961355 -0.05239775
0000c0 f5 14 15 3d 13 1d a8 bd f7 6f f0 3c 75 16 15 3d
       0.03639694 -0.082086705 0.029350264 0.03639837
0000d0 1e a7 19 3c 09 67 6d bd 01 52 5e 3d ef 0a fd bd
       0.009378223 -0.05795959 0.054277424 -0.12355601
0000e0 cc 36 64 3d c5 3c b7 3d 15 77 3e be 62 88 44 bc
       0.05571632 0.08947138 -0.18600114 -0.011995407
0000f0 82 2f b6 39 2b c0 0c 3c 3a 3b 94 bc c0 ec 25 bd
       0.0003474914 0.008590738 -0.018094648 -0.040508986
000100 6d 60 6b bc 08 29 2a 3c 9f 07 c5 3b 51 f3 ab bd
       -0.014366251 0.010385759 0.0060128714 -0.08396018
000110 ea db 87 bd ed 8c 7a bc 0a a8 12 bc 60 01 7c 3d
       -0.06633742 -0.015292388 -0.008951196 0.06152475
000120 9f a2 6e bd 30 e1 c8 bc e8 a1 f6 bd 08 d2 0f 3c
       -0.058260556 -0.02452144 -0.120426 0.008778103
000130 9e fe 33 bd 1a da 70 bc 2e d1 d6 3c 65 78 24 3d
       -0.043943994 -0.014700437 0.026222792 0.04015388
000140 b6 a3 0c bd cd 0b 8a bc 2c 1d f3 bc 87 40 db bd
       -0.034335814 -0.01685133 -0.029676996 -0.10705667
000150 a0 89 90 3d eb 63 2c 3d 9e ef 60 bd 8b 21 be bd
       0.070575 0.042087477 -0.054916017 -0.092837416
000160 54 d1 a0 bc e8 b8 7b bd b8 14 ce 3c 80 10 ab bd
       -0.019631065 -0.061455637 0.025156364 -0.083527565
000170 5d 0c c9 bb 75 7a ec bc 4c d7 87 bd 93 e4 95 bd
       -0.006135507 -0.028866986 -0.066328615 -0.07318988
000180 fb a9 8a bd 38 da 4a 3c 7d 91 97 bd 4b 12 bb bd
       -0.067707025 0.012381129 -0.074007966 -0.091343485
000190 88 bc 49 bc 01 49 44 bc 46 57 f8 bd fe 7a 3e 3d
       -0.012313016 -0.011980296 -0.12126021 0.046504013
0001a0 f6 fc 10 3b 6f d0 96 bd 1b db 9b 3b bb 77 3a 3c
       0.0022123433 -0.07363974 0.004756344 0.011381085
0001b0 ce e6 48 bd 2a 5d fe 3c 41 34 28 bc bc 8f 89 bd
       -0.049048238 0.031050283 -0.010266365 -0.06716868
0001c0 16 7f 34 bb bd 3c 01 3d 9d c6 b5 bc ed 46 1d bd
       -0.002754157 0.031552065 -0.022189433 -0.03839772
0001d0 4c 07 ac 3c 27 ad bb bc 5b cf a9 bd a7 3b 33 bd
       0.020999573 -0.022909714 -0.08291503 -0.04375806
0001e0 ca de 22 3c 43 51 96 bd 38 42 d4 bd 64 f8 2a bd
       0.009940812 -0.07339718 -0.10364193 -0.04174079
0001f0 7a 2f 3f 3d c6 78 ab 3c 66 71 2c bd 33 8f c0 3c
       0.046676137 0.020931613 -0.042100333 0.023505783
000200 d5 cb d5 bd 33 a8 83 3d a3 e7 46 bd 75 ed 99 bc
       -0.104392685 0.06428566 -0.04856075 -0.018789986
000210 2b ab 86 bd 26 21 57 bd b2 a3 1a bd e8 d9 88 bc
       -0.065756164 -0.052521847 -0.03775377 -0.016705468
000220 b2 16 40 3d 22 60 3a bd 45 95 1c 3a 43 be 94 bd
       0.046896644 -0.045501836 0.00059731706 -0.07262852
000230 92 8c 8e bc f3 60 99 bd 95 eb 2e bd de 52 e0 bc
       -0.017401014 -0.07489195 -0.042705137 -0.027383264
000240 dc 68 13 be c8 4d 5f bd e7 eb 40 bd 67 af ee bc
       -0.1439547 -0.054517537 -0.047099974 -0.029136373
000250 91 0d 7d bd 96 6b 49 3c 31 3f 18 bd 09 84 f0 3c
       -0.061780516 0.012293717 -0.03716964 0.029359834
000260 c0 d6 dc bc 65 71 3d bd 51 e6 12 3d 06 7b a0 bd
       -0.02695787 -0.04625072 0.035864178 -0.07835965
000270 28 cf 4a bd 9c 62 89 bd bd 10 43 bd a2 4e a2 bc
       -0.049513966 -0.06708261 -0.047623385 -0.019812886
000280 5a 69 18 bd 15 27 fe bb 68 ea 6c bd b0 57 a3 bc
       -0.037209846 -0.007756124 -0.057840735 -0.019939274
000290 fb c3 0f be 39 e5 0f be e0 a4 7c 3d b5 f8 9d bb
       -0.14039604 -0.14052285 0.061680675 -0.004820908
0002a0 b3 66 59 bd 6b de c6 3c 81 44 3f bd 22 74 8d bd
       -0.053076457 0.024275979 -0.04669619 -0.06906916
0002b0 5a 80 5f 3c 09 57 d8 3c 78 e5 d1 bc 2f 63 7d ba
       0.013641441 0.02640869 -0.025622115 -0.00096659636
0002c0 4e db bc bd a6 cb 61 bd 9b e4 c5 bc 08 62 0a 3d
       -0.092215165 -0.055125855 -0.02415686 0.033784896
0002d0 e4 87 d9 bd ce a8 91 bc 07 de 72 3c ff a7 e3 bb
       -0.10621622 -0.017780688 0.014823443 -0.006947517
0002e0 c6 ce 69 3d 20 e9 00 bc ae d6 7a bd 9e 05 8a bc
       0.05708196 -0.007868081 -0.06123989 -0.016848382
0002f0 66 3b 0e bd d6 be c0 3c 36 a5 01 be 24 6a 22 3d
       -0.034724616 0.023528498 -0.12660679 0.039652005
000300 7a 65 24 bc d3 ac 1f be 62 c4 03 3d bd 89 2b 3d
       -0.0100339595 -0.15593271 0.032169707 0.041879404
000310 67 67 62 bd 60 60 18 3c 8e c9 e1 bd a8 82 a1 bd
       -0.055274393 0.009300321 -0.11024772 -0.07886249
000320 ee c6 ad 3b 89 f6 44 bd 91 d5 83 bd 50 ee a2 bc
       0.0053032553 -0.048086677 -0.06437219 -0.019889027
000330 79 3b 75 bb 56 27 32 3d fa 2b 72 3d 7c 29 5b 3c
       -0.0037419482 0.043494545 0.05912397 0.01337659
000340 ac e3 51 bd 98 eb 32 3d 65 7a 85 bd ad 90 59 bd
       -0.051242515 0.04368171 -0.065174855 -0.05311649
000350 bd 0b fe 3c 93 86 82 bd f4 e3 db bb 1f 6a 7a bd
       0.031011457 -0.06373324 -0.0067105237 -0.06113636
000360 79 9c 34 bd ef b4 8a bc 70 d3 9a bc df e5 58 3d
       -0.044094536 -0.016931979 -0.01889965 0.052953597
000370 79 89 96 3d e0 43 fa 3b 30 bc c2 3b 2a 80 46 3d
       0.073504396 0.007637486 0.005942844 0.04846207
000380 73 69 9d 38 9a 4a 7b bc b3 76 00 bd 3a eb 01 bd
       7.505985e-05 -0.015337611 -0.0313632 -0.03171847
000390 3e 0a 0d bd c1 98 79 bc d7 e9 07 be 60 0b ae bc
       -0.034433596 -0.015234173 -0.13272797 -0.021245658
0003a0 f4 98 6f 3c 07 b2 7e bd 75 76 93 bd cd b5 1b bd
       0.014623869 -0.0621815 -0.07200328 -0.038015176
0003b0 75 c6 72 bd 39 8d a7 3c 58 ac 0e 3d 69 74 62 bd
       -0.059271295 0.020453082 0.03483233 -0.0552868
0003c0 22 a2 fe bc 06 4d 56 bd 50 16 33 bd 32 02 74 bd
       -0.03108317 -0.05231955 -0.04372245 -0.059572406
0003d0 7d 34 bc bc d4 ba 47 bd 84 97 c7 3c 78 a4 b7 bc
       -0.022974247 -0.048762158 0.02436424 -0.022417292
0003e0 b1 70 42 bd c7 62 3b bd 72 a1 bb 3c 6c ca 86 bd
       -0.047470752 -0.0457485 0.022904132 -0.06581578
0003f0 d0 06 3f bc b4 e8 61 3c 90 b7 cb bd 55 f4 ac bc
       -0.011659339 0.013788391 -0.09947121 -0.0211126

fc2.bias f4 [256]
000000 38 66 21 bc ea 09 ae ba 6d 2c 80 3d c1 0e ac bd
       -0.009851031 -0.0013278101 0.062584735 -0.084012516
000010 6f 2a 88 bd 0c 5e 4e bd 06 d1 cc 3d 5f a7 f3 bd
       -0.066487186 -0.05038266 0.100008056 -0.11897158
000020 6e f1 1e bd 47 5b 2f bf 9e 1c a9 bd 71 ca 97 3e
       -0.038804464 -0.68498653 -0.082574114 0.29646638
000030 6e f0 34 bd b9 30 b8 bd cb 64 95 bd 7a 2e 03 bf
       -0.044174604 -0.08993668 -0.07294615 -0.5124279
000040 13 65 a4 bf 0c 2f 98 3e 81 46 02 3f e9 f5 e7 bf
       -1.2843345 0.29723394 0.5088883 -1.8121921
000050 1a bd 22 3e 3c 54 a6 bd 10 5e ad bd 0f 6b fe 3e
       0.15892449 -0.08121535 -0.084652066 0.49691054
000060 9d 30 c2 bd 2a 2a cb 3d f7 16 d3 bd de 85 c2 3e
       -0.094819285 0.099201515 -0.103071146 0.37992758
000070 0e a4 14 bd 1d d2 72 bf 4a 5e 5e bd a3 c2 1d bb
       -0.036289267 -0.9485186 -0.05428914 -0.0024072311
000080 6b 39 ae bd c7 0b 88 bd fd c3 00 3d bc 4c fa bd
       -0.08507045 -0.06642871 0.03143691 -0.12221667
000090 1c c1 1f 3f a3 66 20 bd 71 89 a9 3f 2c 9a 7d 3d
       0.62404037 -0.039160382 1.3245069 0.061914608
0000a0 cd 41 82 bd d9 4b bf 3e 2a b5 fa bd 39 da b9 bd
       -0.06360207 0.37362555 -0.122415856 -0.09074826
0000b0 7b 51 4c 3f ed 04 06 be c1 39 b4 bd 68 23 8d bf
       0.7981183 -0.13087817 -0.08800078 -1.102643
0000c0 ad ee 9b bd ff 8a ad bc e0 f5 a7 bd 51 a1 40 ba
       -0.07613883 -0.021184443 -0.08201194 -0.0007348257
0000d0 f3 30 2e bd 79 bd 54 bc 88 67 3d 3f 0d 24 25 bf
       -0.04252715 -0.012984627 0.739861 -0.64508134
0000e0 ee 4d 87 3d 50 80 18 40 3c 24 06 bf 9c 15 88 bd
       0.06606661 2.3828316 -0.5239904 -0.06644747
0000f0 09 6a 00 be a2 a6 de bd 84 cb 4b bb 83 78 c1 bd
       -0.12540449 -0.108716264 -0.0031096647 -0.09446814
000100 7d 1b a8 3d d5 06 36 40 e1 8c 93 3c 03 16 51 be
       0.08208368 2.844167 0.018011512 -0.20418553
000110 7b f9 49 3d cc 24 74 bd a3 10 13 3f 3f 15 08 be
       0.04931019 -0.059605405 0.5744726 -0.13289355
000120 b0 f4 6b bd 42 ce 33 be 34 3f 80 3d 27 33 a9 3d
       -0.0576064 -0.1755915 0.06262055 0.0826171
000130 54 47 cf bc a1 71 dd 3f 46 3e 97 bd 85 c6 c9 be
       -0.025302567 1.7300302 -0.073849246 -0.3940927
000140 fb 86 9f 3f ef c7 55 bd b3 31 45 bd 0b cc c7 be
       1.2463068 -0.052192625 -0.0481431 -0.3902286
000150 a0 24 f4 3e f9 d6 09 bc 59 1d 84 bd ca c5 2f be
       0.47684193 -0.00841307 -0.0645091 -0.17165294
000160 63 d0 dc bd e5 a0 7a 40 d4 fd 6f c0 de 42 19 bd
       -0.10781934 3.9160702 -3.7498674 -0.037417285
000170 9b bd a0 bd 8e 07 69 be 0c f3 dd bb e2 68 75 bd
       -0.078486644 -0.22756788 -0.006773358 -0.059914477
000180 75 9d fb 3d dc f6 31 bd 7a 86 9e 3d 2e 39 c4 bc
       0.12285892 -0.043448314 0.07740493 -0.023953047
000190 7d 91 02 bd bb 2f 11 3f 8b ce e4 be 7d cb a0 bd
       -0.03187703 0.56713456 -0.4468883 -0.07851312
0001a0 2b af 21 be c9 2a 75 3e a8 ed 8b bf ca c9 b2 3e
       -0.15789478 0.23942102 -1.0931902 0.34919578
0001b0 d9 6c 9e bd cc da 25 bd d3 4a 1b 40 f2 5a 5c 3d
       -0.07735605 -0.040491864 2.426442 0.05379767
0001c0 d6 5a 53 3e 30 ea ed bd 8b 74 e2 bd 9a 95 1c be
       0.2064012 -0.11616933 -0.11057385 -0.15291443
0001d0 c2 a3 eb be 98 73 08 bb 3f 30 ad bd 5f 4c 52 3f
       -0.46023375 -0.0020820852 -0.08456468 0.82147783
0001e0 aa 09 18 bd 80 68 a6 bd 25 e2 f9 bf dc e6 88 be
       -0.03711859 -0.081254005 -1.9522139 -0.26738632
0001f0 6d ff 2a 3f 0b ec cc bf ba 65 05 3f eb d2 d3 bd
       0.66796 -1.6009535 0.5210835 -0.10342964
000200 cd ad e7 be 21 73 b9 bd 80 5b 1e be d3 44 0f bf
       -0.45249787 -0.09055162 -0.15464592 -0.5596439
000210 d0 b3 ec bd 76 45 a5 3e 59 44 43 bc 1a e2 48 c0
       -0.11557734 0.32279557 -0.011918151 -3.1388001
000220 88 33 c8 bd 3c 99 55 bf c4 3d 1c be 55 97 13 be
       -0.09775454 -0.8343694 -0.15257937 -0.14413197
000230 df d6 45 bf 67 a5 97 bd 30 39 ca bc d2 ea 0e be
       -0.7728099 -0.07404595 -0.024685472 -0.13956764
000240 1c 5b f0 bd 13 fe 13 bf f0 36 2f bd 23 ed 6f bd
       -0.11736128 -0.5780956 -0.042777 -0.05857576
000250 f2 99 ac 3f 3e c6 23 bd be d9 58 be 5a 34 c6 bd
       1.348448 -0.03998398 -0.21176812 -0.09677954
000260 b9 02 f3 bd 9b 1e df bd 37 fa 53 be 4a 23 f5 bb
       -0.11865754 -0.108945094 -0.20700918 -0.0074810134
000270 f1 00 c1 bf 55 68 a8 bd ce 14 ba 3b 44 8d 6d be
       -1.5078412 -0.08223025 0.0056787496 -0.2319842
000280 b8 42 a3 bd 51 8e 14 40 5b d0 ec bd 5a ba 8c bb
       -0.0797171 2.3211863 -0.11563178 -0.004294676
000290 f8 a6 8d bc f3 8f 59 bd 4f c9 11 c0 61 cd 03 be
       -0.017291531 -0.053115796 -2.277912 -0.12871315
0002a0 69 89 8e 3f d3 95 5d be 5b 4f 50 bd 6f 13 ea be
       1.1135684 -0.21639185 -0.05085693 -0.45717952
0002b0 f8 37 89 bd c3 dc 43 be 25 b5 de bb 52 78 e9 be
       -0.06700128 -0.19127183 -0.0067964965 -0.4559961
0002c0 43 77 45 bf a4 20 f0 bd 5e b3 b0 3c f4 ad 96 be
       -0.77135104 -0.11724976 0.021569904 -0.2942959
0002d0 97 3b ff bd 1a 33 9b bb 4e dd 03 be 9a 32 a3 bd
       -0.12462538 -0.0047363164 -0.1287739 -0.07968636
0002e0 1e 3c 6b 3f e5 b5 b6 bd 6e b2 6f 3c 05 fa a4 bd
       0.91888607 -0.089214124 0.014629943 -0.080555
0002f0 5e 66 12 40 2b 51 10 3c 7f d2 26 bf a9 43 ed bd
       2.287498 0.008808414 -0.6516494 -0.11585171
000300 7e 40 12 3b 96 a1 61 bc f2 5b 25 3d 1e 1f 06 be
       0.0022316272 -0.013771435 0.04037089 -0.13097808
000310 4f 36 01 be 49 f1 38 3f bb 6d bf 3f 09 69 83 bd
       -0.12618373 0.7224317 1.4955362 -0.06416518
000320 ab a2 e7 3e 37 7d 8c bc 4d 02 2f be ba 23 57 c0
       0.45241293 -0.01714955 -0.17090721 -3.3615556
000330 c0 9b de bd 53 1f 97 3e 74 3b 55 be cc b2 03 be
       -0.10869551 0.29516086 -0.20823461 -0.12861174
000340 c8 79 f1 3e 97 37 9f bd 06 70 35 be 90 31 32 3c
       0.47163224 -0.07774275 -0.17718515 0.010876074
000350 35 45 b8 bd c1 c3 dd bd 50 64 0c 3e ac f9 c8 3f
       -0.08997575 -0.10828353 0.13710141 1.5701194
000360 52 b1 65 3e 1c e1 fe bd 66 db 33 bc ec 4f fd bd
       0.22430924 -0.1244528 -0.010977602 -0.123687595
000370 b3 3d 1d 3f 99 d2 39 be c7 66 2b be d1 9f 86 bd
       0.6142227 -0.18146743 -0.16738425 -0.06573451
000380 45 b2 65 bc 85 55 93 bf c0 7f a1 bd a8 50 db 3f
       -0.014019554 -1.1510473 -0.078856945 1.7133989
000390 f3 d3 aa 3d 8c 11 8f 3d f7 f8 b6 3e 92 42 a9 bd
       0.08341207 0.06985769 0.3573682 -0.082646504
0003a0 f3 22 9c bd db 6c 3c bd 34 e4 df bd 83 7c 81 bd
       -0.076238535 -0.04600225 -0.10932198 -0.06322577
0003b0 72 96 cb 3d 24 8d a0 bd 8e 4d 81 3e f8 56 1b c0
       0.099408045 -0.078394204 0.25254482 -2.4271832
0003c0 29 65 7c bf 56 a5 8f bf 8c 96 d5 3e 59 64 a6 bd
       -0.9859186 -1.1222332 0.4171642 -0.081246085
0003d0 0c a0 a9 bf 23 2f 92 3e fd cc d3 bc 38 26 29 bd
       -1.3251967 0.28551587 -0.025854582 -0.041296214
0003e0 63 28 e9 bc 3b 49 aa 3d 3f 49 d8 bd 0a f9 d5 bc
       -0.02846164 0.08314749 -0.105608456 -0.026119728
0003f0 43 bc 1e bd de 70 aa bd 86 d6 00 40 99 c2 bc bd
       -0.03875376 -0.08322309 2.0130935 -0.09216804

fc3.weight f4 [128, 256]
000000 78 36 46 3d 36 04 a4 3b 40 aa ae bd 00 ba 1f bd
       0.04839179 0.005005385 -0.08528566 -0.038995743
000010 39 00 95 3d 15 64 bd bc 0f 24 20 bf 19 8e 3c 3d
       0.07275433 -0.023119012 -0.6255502 0.046033952
000020 78 36 b7 3d 87 c1 83 bf ce e1 95 bd f3 db 29 bd
       0.08945936 -1.0293435 -0.073184595 -0.041469526
000030 9c d1 28 3b 0d 94 06 39 fc 3d 85 3c af 75 8f 3e
       0.0025759703 0.00012834389 0.016264908 0.28019473
000040 d6 18 3b be 60 79 39 bf 63 94 ff be 40 32 5f bf
       -0.18271193 -0.7245083 -0.49917898 -0.8718605
000050 20 2b 5a 3e 96 2a 9c 3c e7 84 57 3b 2a 56 c0 3e
       0.21305513 0.019063275 0.0032885612 0.37565738
000060 7a e6 99 bb 25 e9 7f be a3 c5 0b 3d 76 6f 29 be
       -0.0046966644 -0.24991281 0.034124028 -0.16546425
000070 49 c1 44 3d 05 5a b8 3d 7a 08 b3 be fe 15 40 3f
       0.048035894 0.09001545 -0.34967405 0.7503356
000080 13 e7 d6 3c 80 6f 16 3b b7 af 8a bd 7f bc 23 3c
       0.026233232 0.0022954643 -0.06771796 0.009993671
000090 54 35 7c bf ae dc c8 3c 6e e7 9a bd 51 d2 60 3d
       -0.9851887 0.02451929 -0.07563673 0.054888073
0000a0 c4 8b ae 3c ce e5 4d 3d 19 8c 5c 3c f9 12 97 3c
       0.02130688 0.050267987 0.013461136 0.018441664
0000b0 5c ab 45 bf 56 c0 15 bd 1f 3d 9f 3e 6f 63 be bf
       -0.772146 -0.03656038 0.3110132 -1.4874095
0000c0 57 c8 7e 3d fd 4f 85 bd 54 b9 8c 3e 2a e1 2f bd
       0.062202778 -0.06509397 0.27485144 -0.042939343
0000d0 90 a1 91 3b b3 f9 08 3d d7 a4 8e be 42 67 5b be
       0.0044443086 0.033441257 -0.27860138 -0.21426108
0000e0 43 19 89 be 7f 62 fb bd ab 7f db 3e a0 d9 9f bc
       -0.26777086 -0.12274646 0.4287084 -0.019512951
0000f0 98 5b 23 bc 3b 02 12 be 07 3d b9 bd 04 e3 c3 bc
       -0.009970568 -0.14258663 -0.09044843 -0.02391196
000100 a3 dc 7c 3e 5e ef 25 bf 68 a4 48 3d f7 c5 09 bb
       0.24693541 -0.6481837 0.048984915 -0.0021022537
000110 f5 b2 69 3e c7 d6 78 bb e0 b3 c0 bf 50 ea 2c 3c
       0.22822173 -0.0037969814 -1.5054893 0.010553911
000120 12 d3 67 be c4 0e 82 3c 61 15 bf bc 8d 5a 1c bf
       -0.2263911 0.015876181 -0.023325624 -0.6107567
000130 42 80 ad 3c ae 3c dd 3d 2a ef 1a 3d 5d 68 4f 3f
       0.021179322 0.10802589 0.03782574 0.8101862
000140 f1 51 32 bf 60 8b 07 be a9 ae 21 3b 45 4e 01 bf
       -0.6965628 -0.13236761 0.0024670756 -0.50510055
000150 23 fa b1 bf c6 95 c2 bb a0 14 55 3c 0c ed 2e 3e
       -1.3904461 -0.0059382645 0.013005406 0.17082614
000160 ab be 21 bd 11 f6 65 bd 04 fd b8 bf 24 b2 86 bc
       -0.039488476 -0.05614287 -1.4452214 -0.016442366
000170 d2 78 2b 3d 85 d3 1d 3e 26 9f 3a bd 13 15 1d bd
       0.04186327 0.1541272 -0.045561932 -0.038350176
000180 c8 2b 46 bf 98 27 2d bc 1f fe 99 bf bf bd 74 bd
       -0.77410555 -0.010568522 -1.2030677 -0.05975127
000190 68 13 cc 3d 32 1c fd 3d 8d 14 1a bf 24 97 ba 3c
       0.09964639 0.123588935 -0.6018761 0.022777148
0001a0 83 22 88 bd fb e8 12 bf ca df e9 bf d6 4d 02 3f
       -0.066472076 -0.5738675 -1.827142 0.5090002
0001b0 82 47 1d be 62 47 9c bc db 70 b7 3e b2 f6 e3 3c
       -0.1535931 -0.019077007 0.3582829 0.027827594
0001c0 8a 47 28 be 47 f3 be bd 85 0a 65 3b 28 f6 13 bc
       -0.1643354 -0.09323745 0.0034948897 -0.009030856
0001d0 57 70 10 be f4 14 e2 bc 12 3f 4c bd 6f 3e 1d bf
       -0.14105354 -0.027597882 -0.049864836 -0.6142339
0001e0 24 3b 2e bd 6a bb 2b bd 2e a6 26 c0 07 7f 12 3f
       -0.04253687 -0.04192678 -2.6038928 0.5722508
0001f0 ee ac df 3e 4a 52 c3 3c af 04 31 3f cb e0 30 3d
       0.43686622 0.02384295 0.6914777 0.04318313
000200 04 2c 6c bf 4e b0 63 bd 58 3b 7d 3d 8d d9 4a bf
       -0.9225466 -0.05558806 0.061824173 -0.79238206
000210 72 26 81 ba 34 84 91 bf b8 e7 3a bc b1 aa 50 bf
       -0.0009853377 -1.136847 -0.011407785 -0.81510454
000220 1c 88 88 bc 8d 09 69 bf 80 29 ab 3a 20 fd e6 bb
       -0.016666465 -0.910302 0.0013058633 -0.007049218
000230 62 60 2b bf 17 df 5c 3f a2 4b 1e 3c fc 2b 13 bd
       -0.66943944 0.8627791 0.009661587 -0.03593062
000240 e8 a8 79 3d 8b ee dc be c2 3a 83 bd 25 a0 31 3d
       0.060952097 -0.43150744 -0.064076915 0.043365616
000250 d5 7b 91 bf 10 ed 4b bc ee 87 0d 3e 47 8e 8e bc
       -1.1365916 -0.012446657 0.13821384 -0.017401827
000260 21 1e dc bc 43 e3 cf 3e 8e 85 e2 bf d8 b8 34 3d
       -0.026869835 0.40603074 -1.7697008 0.044121593
000270 24 ed 1b bf c2 a1 21 bd b3 66 63 3d be 35 94 bf
       -0.6090872 -0.039460905 0.055517863 -1.1578901
000280 8e 95 59 bd ad 71 ed be eb 58 74 3d f9 c2 da 3c
       -0.053121142 -0.4637579 0.05965511 0.026704298
000290 d4 40 8e be 1f db 34 bd 7e be 32 bf 4c 28 0f be
       -0.27783835 -0.044154283 -0.6982192 -0.13980216
0002a0 7c c9 33 bf 36 ae 80 be 48 c2 d4 3c 22 b2 50 bf
       -0.70229316 -0.25132912 0.025971547 -0.8152181
0002b0 f8 cc 7a 3c 9f cc c8 be c2 43 03 be 22 d4 c3 3f
       0.015307657 -0.39218614 -0.12818816 1.5299113
0002c0 0b 5e cb be 5d 70 b2 bf ef fa 76 3e 3e 82 55 be
       -0.39720187 -1.394054 0.24119161 -0.20850465
0002d0 01 66 bd bd 51 56 59 bc 59 31 4d bd c7 30 1c 3d
       -0.09247971 -0.013265208 -0.05009589 0.038132455
0002e0 a5 5d 5e bf 10 51 b3 3a 91 48 93 bd 16 11 9d 3b
       -0.8686164 0.0013680775 -0.07191575 0.0047932966
0002f0 59 e1 d2 bf bf ac 60 bd 27 1a 25 bf 32 fe b0 3d
       -1.6475021 -0.054852244 -0.6449303 0.08642234
000300 fc b1 15 3d 06 aa 2d 3c db cb bd 3e fd 23 3a bc
       0.036546692 0.010599619 0.37069592 -0.011361119
000310 56 ed b5 bc 79 6a d9 3f e7 f4 33 bf 87 69 06 3b
       -0.022207897 1.6985618 -0.70295566 0.0020509677
000320 8b a6 85 bf d7 2b 10 3d e1 b2 da 3e ef fc 55 bf
       -1.044145 0.03519806 0.427146 -0.8358907
000330 96 68 10 bd e1 c4 cb 3e 33 af 96 bb f0 1f ef ba
       -0.03525599 0.39798644 -0.004598522 -0.0018243771
000340 1e 80 85 bf 7c 77 fa bc 2c 0c ca 3e bd 07 c4 bb
       -1.0429723 -0.030574553 0.3946241 -0.005982368
000350 9e ff 49 3d 68 97 8a 3e 83 b7 26 3d f1 25 13 bf
       0.04931604 0.2706864 0.040702354 -0.5747977
000360 11 17 85 3e fa 59 76 be 2c fa 29 3d da 13 33 bd
       0.2599416 -0.24057761 0.041498348 -0.043720104
000370 e9 a1 8d 3d d4 4c 95 be e3 38 ca 3a 0b ac 3c 3d
       0.069156475 -0.29160178 0.001542833 0.04606251
000380 d5 5c 23 3d ff 00 83 bf 5f 6a b2 3b a0 95 b1 be
       0.039883453 -1.0234679 0.0054448093 -0.34684467
000390 68 19 00 bf 21 44 36 bc b3 46 b4 3e 7b a7 64 be
       -0.50038767 -0.011124642 0.3521019 -0.22329514
0003a0 1e ec fb 3c 8c e3 26 bc d0 2e 7d bc 86 a9 65 3d
       0.030752238 -0.010186087 -0.0154530555 0.056069873
0003b0 61 02 c1 3e f1 ac 7a bb 89 f8 db bf 39 c9 0b 3d
       0.37697127 -0.0038250054 -1.7185222 0.034127448
0003c0 e3 cd 9a bf 65 f6 74 be 55 21 2d be 1e 0a 0d bd
       -1.2094082 -0.23922117 -0.16907246 -0.034433477
0003d0 00 64 00 be c0 cc bb 3d f7 9d 54 3b 3b d9 55 3d
       -0.12538147 0.09169912 0.0032442787 0.05220912
0003e0 c7 7a 85 3d 3d c7 04 bf e4 13 6b 3d d7 b3 93 3d
       0.065175585 -0.51866513 0.057392016 0.07212036
0003f0 7c 70 8b 3e 14 80 eb bc 9d 29 0c 3f dd fd 83 bd
       0.27234256 -0.028747596 0.54750997 -0.06444905

fc3.bias f4 [128]
000000 ce 19 cc 3e 81 95 08 be 0e eb 7a 3f bf 49 84 bc
       0.39863437 -0.13338281 0.98014915 -0.016148446
000010 bc 04 25 bf 71 c4 de 3d bd e7 84 bd 66 69 38 bf
       -0.6446035 0.10877312 -0.06489513 -0.72035825
000020 8e 33 13 bf e9 0b 42 be f4 bb 22 be f2 fd eb bf
       -0.5750054 -0.18949856 -0.15892011 -1.8436873
000030 af 42 d7 3e 9a b2 2d be 1b b3 ab 40 f3 b4 45 bd
       0.42043063 -0.16962662 5.3656135 -0.04826827
000040 fc ac 74 3e 6f 14 92 40 8c 4b 9d be 12 5a 4c bf
       0.23894113 4.5649943 -0.307217 -0.79824936
000050 95 64 19 3f 56 02 55 be 36 80 97 3c 39 0f 6e bf
       0.599191 -0.20801672 0.018493753 -0.9299198
000060 eb f3 aa bf 64 c4 f9 3e aa 17 a5 3d 59 88 29 be
       -1.3355688 0.48782647 0.08061154 -0.16555919
000070 94 42 c6 bf b1 f1 06 c0 5a 65 0d c0 9b 64 02 bf
       -1.5489068 -2.1085017 -2.209311 -0.5093476
000080 6a 9c 15 c0 e3 c8 3b bf ec ac ea 3f 72 2a 49 3e
       -2.3376718 -0.73353404 1.8334022 0.19645098
000090 3e 9b 32 be 11 eb b4 bd fe d5 24 bf 1d d0 6b bd
       -0.17442033 -0.08833898 -0.64389026 -0.05757152
0000a0 99 49 6f 3f 6a 1d 53 3f 44 78 0c be a1 75 41 40
       0.93471676 0.8246676 -0.13717753 3.0228045
0000b0 a0 47 be bd 7c 67 c0 3e 83 cb 8a 3f 2a b6 e3 3f
       -0.09291005 0.37578952 1.0843357 1.7789967
0000c0 6b 14 91 be 8b 67 1f 3d 1b a3 8f bd 89 32 52 3e
       -0.2833589 0.038917106 -0.07013532 0.2052709
0000d0 42 64 f7 bf bb 49 fe bd 18 89 66 c0 c1 e8 8e bd
       -1.9327471 -0.12416407 -3.6021175 -0.06977988
0000e0 d2 89 31 bf f7 50 08 3f d1 41 fd bd 84 aa fa bd
       -0.6935092 0.5324854 -0.12366069 -0.122395545
0000f0 0e fb fa be b1 9f 90 40 5d c4 84 bf 93 3a 60 3e
       -0.49019665 4.5194936 -1.0372425 0.21897344
000100 00 6a 80 be 90 c5 83 bf b2 f2 bd bf b2 bb 1d bd
       -0.25080872 -1.0294666 -1.483969 -0.03850908
000110 90 fe 7a be 03 47 86 be b9 24 df 3e c1 b9 c4 bd
       -0.2451117 -0.26226053 0.43582705 -0.09605742
000120 19 e8 82 be 03 d3 a2 be d0 e0 86 bf e0 68 04 be
       -0.255677 -0.31801614 -1.0537357 -0.12930632
000130 5a 38 25 bf 61 68 b5 bd 7b e4 c1 bd 46 ed 62 be
       -0.6453911 -0.08857799 -0.09467407 -0.22160825
000140 eb 01 0b be 65 63 42 bd bb 71 e0 be 55 f1 b2 be
       -0.1357495 -0.04745807 -0.4383677 -0.34949747
000150 f1 e0 14 3f b7 1c 0c be 70 f4 88 bf ce ce 1b bb
       0.58155733 -0.13682829 -1.0699596 -0.0023774388
000160 19 2b dc bd bf 06 58 bd ca ac b6 be fe 92 05 bf
       -0.10750408 -0.05274081 -0.35678703 -0.5217742
000170 f1 66 35 3e 91 00 f0 bf 27 5f 5b 3f c7 85 ab 3e
       0.1771505 -1.8750173 0.85692066 0.33500502
000180 da 98 74 3f 71 9f 16 be b5 5e bd be 25 84 44 3e
       0.9554573 -0.1470926 -0.36986318 0.19191034
000190 06 6d 26 be 88 b6 a9 be 64 c5 38 be 53 26 f7 be
       -0.16252527 -0.33147073 -0.18044049 -0.48271427
0001a0 7d 53 f3 bd 80 5a 32 be 18 6c 99 c0 f5 ad 02 3f
       -0.118811585 -0.17417336 -4.794445 0.5104669
0001b0 6e 83 33 be e5 de 85 bd 8a 18 71 3f 76 5f 88 bd
       -0.17530605 -0.065366544 0.9417807 -0.06658833
0001c0 36 4b 48 be 3c 2c 95 3e 3a b6 25 be d8 0f f3 be
       -0.1955994 0.2913531 -0.16182795 -0.47473025
0001d0 79 e3 18 3c 1c a5 49 40 ae bc 08 c0 ff dd 44 bd
       0.009331577 3.1507025 -2.136516 -0.048063274
0001e0 00 72 ae bd 92 5b 3d 3f b1 74 48 3f bb eb 88 bf
       -0.085178375 0.7396785 0.78303057 -1.0696939
0001f0 06 3c c2 bf 1f bf 57 3f f4 a0 6a 3c e9 83 2d 40
       -1.5174568 0.84276 0.014320601 2.7111762

fc4.weight f4 [64, 128]
000000 a4 93 9c be cc c3 02 3d 19 89 91 3e 55 b7 13 be
       -0.3058139 0.031925008 0.2842491 -0.14425404
000010 c5 1e a9 be e9 b6 d7 be 7c 5b 5a bd 15 8b 97 3e
       -0.33031288 -0.42131737 -0.053309903 0.295983
000020 72 78 83 be 8c d4 29 be 76 de 57 3d d9 2b 22 bf
       -0.2567783 -0.16584986 0.05270239 -0.63348156
000030 ba 5a c5 3d 5b 92 93 bd ed b5 a9 3d be cf 8b be
       0.09636445 -0.072056495 0.08286653 -0.27306932
000040 6d a2 a5 be d7 88 80 bf 98 be ba 3c c5 fe 7f bf
       -0.32350484 -1.004176 0.02279596 -0.9999812
000050 dd 42 01 bf 6b 82 f9 bd 60 ea a6 bc 84 15 97 be
       -0.5049265 -0.121830784 -0.02037543 -0.29508603
000060 e4 8a eb bd fc 3e 84 be cc a8 f9 be 1b ea 95 bd
       -0.11501101 -0.25829303 -0.48761594 -0.07320043
000070 63 3e d7 3e a8 ef de 3c e0 b7 9e bf bd 12 31 be
       0.42039785 0.027213886 -1.2399864 -0.17292304
000080 b7 58 13 bf 69 d8 f5 3c 8f d1 33 be e5 1b d3 bd
       -0.57557243 0.030010419 -0.17560409 -0.10308055
000090 3d 12 83 be 20 da c9 b7 38 ac dd be 2a 35 0f be
       -0.25599852 -2.406264e-05 -0.43295455 -0.13985124
0000a0 80 4c 4a be 2a 7e 4b 3e 2d 78 71 bd b1 f1 0b bf
       -0.19755745 0.19872347 -0.0589525 -0.54665667
0000b0 99 fa 02 3b 06 1b 9b bc 4c 00 00 be d3 b1 38 be
       0.0019985794 -0.018933784 -0.12500113 -0.18036585
0000c0 34 3d bb bd 78 4b 28 bd aa eb 4d be cf 32 ae bd
       -0.09142533 -0.041087598 -0.2010943 -0.08505785
0000d0 25 37 37 bf bb 80 87 bd 90 d4 76 bf 5b 6d 22 3e
       -0.7156852 -0.0661635 -0.96418095 0.15862028
0000e0 bb 48 ad 3d 90 a6 8d ba 94 43 21 3d 1e 9a 17 bc
       0.08461138 -0.0010807086 0.03937109 -0.009253053
0000f0 8a 40 8a 3e e2 9f 23 bf e0 fe 8f bf 63 ed 74 be
       0.27002364 -0.63915837 -1.1249657 -0.23918681
000100 c3 8a 13 bd fd b7 90 3e b0 81 69 3e 6f c9 10 3d
       -0.036021005 0.28265372 0.22803378 0.035348352
000110 79 b7 28 bc 9c e9 bf 3e 0a 30 2f be 2d eb ff bc
       -0.01029765 0.37482917 -0.17108169 -0.03124007
000120 d4 9c 74 bd e7 68 e0 3d d8 20 57 be 99 c4 ad 3c
       -0.059719875 0.109575085 -0.21008623 0.02121191
000130 41 9a 78 3d 1a 0b 2a 3c 9a 51 88 3d 0d 98 b0 be
       0.060693983 0.010378623 0.06656189 -0.34491006
000140 d0 d4 8a bd 05 52 6a 3d ad 10 0f bf 6d 18 92 3e
       -0.06778872 0.057207126 -0.5588482 0.2853426
000150 1a b5 c1 3d b9 26 2e 3e b6 94 50 bf 9a 92 0a 3f
       0.094583705 0.17006959 -0.81476915 0.54129946
000160 a2 cd 25 be a0 77 10 be 89 ba 09 3f f8 89 37 bf
       -0.16191724 -0.14108133 0.53800255 -0.716949
000170 d7 21 a7 3e e3 85 a7 bd 33 9b 0c bf e3 92 dc be
       0.32643005 -0.08179834 -0.54924315 -0.43080816
000180 e1 76 8c be 9c 09 ff bd d7 83 cf 3d 42 6e 43 be
       -0.27434447 -0.12453005 0.10132568 -0.19085029
000190 c3 b8 26 3c 46 c7 08 be 38 05 a6 bb 13 1c 31 3d
       0.010175887 -0.13357267 -0.00506654 0.043239664
0001a0 a8 72 9c bd a0 40 2c 3b a4 64 5a bf 26 6b 02 3d
       -0.076390564 0.0026283637 -0.85309815 0.031840466
0001b0 45 24 66 bd bb 04 2d 3e 46 a3 1a bf d4 ea d6 3b
       -0.056186933 0.16896336 -0.60405385 0.0065587554
0001c0 e9 f3 ba 3c d1 ac 8c be f9 1b 8f bd e9 7c 33 be
       0.022821384 -0.27475598 -0.06987757 -0.17528118
0001d0 3a b9 fa be 64 83 bd bc 72 5e b2 be 49 c7 83 3d
       -0.48969442 -0.023133941 -0.3483768 0.06434495
0001e0 3b a1 40 bd 7a aa b7 3d 24 59 1e 3e 38 93 24 bf
       -0.04702876 0.08968063 0.15463692 -0.6428714
0001f0 7a 41 73 bf 39 5d f5 be cc 38 73 3e 1e c3 6f bf
       -0.95021784 -0.47922686 0.23752135 -0.936571
000200 c0 eb 1f be ef 1f be be c9 07 0e be 8f 91 0c bd
       -0.15617275 -0.37133738 -0.13870157 -0.034318503
000210 9d 0b e2 bc 68 1b e5 be 74 70 c1 bd 22 a6 30 be
       -0.027593428 -0.44747472 -0.09445277 -0.17250875
000220 00 89 10 3d e0 9a 1e be 70 ca 43 3d c8 d3 32 bf
       0.035286903 -0.15488768 0.04780048 -0.698544
000230 e6 9b 9a bd 6d 39 d2 bd 07 39 aa 3d cb 8c 6c bc
       -0.075492665 -0.10264859 0.08311658 -0.014437865
000240 5f 5c 49 be 24 76 54 bf 0f 98 01 3e 1e 33 a0 bf
       -0.19664143 -0.8299277 0.12655662 -1.25156
000250 8f 4f bb be fc f0 3b bc 76 19 00 bd bc af 2a be
       -0.36584136 -0.011471029 -0.03127428 -0.166686
000260 fc 76 f3 be ef 79 a8 3d 05 af dc be db 80 1b bc
       -0.47551715 0.08226382 -0.4310228 -0.009491171
000270 26 c7 44 be 84 6c db bc 18 a0 9a be 87 df 03 be
       -0.19216594 -0.026785143 -0.30200267 -0.12878238
000280 ec 72 d7 be 89 bc b1 3d 0a 10 05 bf 3f c8 48 3d
       -0.42079866 0.08678538 -0.519776 0.049019095
000290 a5 09 15 3d f3 e5 ae 3c 04 f6 c2 be 06 a4 52 3d
       0.03638615 0.021349883 -0.3807832 0.051425956
0002a0 a2 34 fe bc 62 31 51 bd a9 08 99 3b 5d ff c5 3d
       -0.031030957 -0.051072486 0.004670222 0.09667847
0002b0 b7 8f b5 bd 9a a7 30 3d 74 c1 11 bd b2 91 b4 be
       -0.08865302 0.043128587 -0.035584882 -0.35267407
0002c0 be b6 97 bd d4 fd 8f bc 3d 11 41 be d1 dc b1 3d
       -0.07407902 -0.01757709 -0.18854232 0.086846955
0002d0 4d c4 26 be 78 bc 2f be 87 1b 9a bf 5b c3 dc 3b
       -0.1628582 -0.17161739 -1.2039651 0.0067371554
0002e0 ad 81 2d be 92 ea 28 be 71 46 1d 3c 4a 38 39 3a
       -0.16943999 -0.16495731 0.009599314 0.00070655777
0002f0 b8 b2 ef bc d9 0a 88 bf cd 5b 55 3d 4e 22 64 3d
       -0.029260024 -1.062831 0.0520895 0.055696778
000300 1f 95 04 3d c2 f7 11 3f 0a 65 b0 3a 00 5c 31 bc
       0.032368775 0.57018673 0.0013457846 -0.010825157
000310 ef 1c ff bd 1b ba e1 bc 61 0a b1 bd 78 a5 8f 3d
       -0.124566905 -0.027554562 -0.08644558 0.070139825
000320 02 3a a3 be 17 25 09 3c 31 69 a2 bc 03 bd 25 bd
       -0.31880194 0.008370659 -0.01982555 -0.04046346
000330 0c 31 c0 be 0c a6 57 bc 69 05 08 bc 8a 57 65 be
       -0.3753742 -0.013162147 -0.008302071 -0.22396675
000340 3d aa d3 bd 6c 2a 4a 3d cd 08 90 be e4 ae c9 bd
       -0.10335205 0.049356863 -0.28131714 -0.09847811
000350 62 64 e4 be a5 20 d2 bd a2 3a f6 3c e6 80 1b 3d
       -0.44607836 -0.10260133 0.030057255 0.037964724
000360 33 9e 09 bc d8 c0 79 3c 38 09 0f bc ae eb 8a 3d
       -0.008399534 0.015243731 -0.008730225 0.067832336
000370 85 52 33 bd 11 01 59 be 43 c1 8e be 32 aa 5f 3c
       -0.04377987 -0.21191813 -0.27881822 0.013651418
000380 2e 17 7f 3d 53 1e ad 3d be 6e 47 3d b2 75 01 3f
       0.062277965 0.084530495 0.048689596 0.50570214
000390 10 cb 1e be 8d 9b 17 be 81 5b 39 bd 9f c2 f2 bd
       -0.1550715 -0.14805432 -0.04525328 -0.11853527
0003a0 7e 78 bb bd 93 d3 26 bd c0 46 32 be 9c bd b7 bd
       -0.091538414 -0.040729117 -0.17409801 -0.08971712
0003b0 d6 02 ce 3d 87 f1 46 bd 8c bc e6 3c 15 08 ee bd
       0.10059135 -0.048570182 0.028166078 -0.11622635
0003c0 2e 4f 7b be bd 72 f4 bd 6b 83 9a bd 31 c5 1c be
       -0.24541923 -0.11935947 -0.07544597 -0.15309598
0003d0 f5 72 9e be c4 59 3d 3e 85 55 48 bf 7f 6c 0a be
       -0.3094708 0.18491274 -0.7825549 -0.1351795
0003e0 00 7b 94 bd 7d 7a 84 be 62 8b 09 be 87 48 9c bd
       -0.07250023 -0.258747 -0.13432077 -0.07631021
0003f0 09 a6 68 be 65 59 cc be 44 05 c3 bb ee 25 45 bd
       -0.22719587 -0.39911953 -0.0059515554 -0.048131876

fc4.bias f4 [64]
000000 1f bb 2d bf 0e 10 fc 3d e0 14 e1 be 9e 94 75 be
       -0.6786365 0.1230775 -0.4396124 -0.23982474
000010 5e 2e 10 3f 78 ab 80 be 78 1d ce bf a3 d4 e7 3d
       0.5632075 -0.2513082 -1.6102743 0.11319854
000020 0f ee 0d bf 98 cb 32 be 2d f0 db 3e 0c 49 11 41
       -0.55441374 -0.17460477 0.42956677 9.080334
000030 8a 24 0a bc 8b d8 89 be d5 70 ba be 6f 9f 60 be
       -0.008431563 -0.26923022 -0.3641421 -0.21935819
000040 cf f7 b5 be 84 b4 50 40 ff 44 d2 be 20 f5 1f be
       -0.35540625 3.2610178 -0.41068265 -0.15620852
000050 97 1e 9c bd 86 10 6a be 4c 43 01 3e ce 99 45 bf
       -0.07623022 -0.22857866 0.12623328 -0.7718781
000060 20 b7 a9 be 21 d2 bb 3e 05 64 7d be b8 54 e2 bd
       -0.33147526 0.36683753 -0.24745186 -0.11051315
000070 f5 38 02 3f ff 8c 95 be 51 0f d0 3f bb a9 f5 3e
       0.5086816 -0.29209134 1.6254674 0.47981057
000080 4a 0d 9e 3f 88 08 95 be b1 57 91 bc 10 18 d3 bd
       1.2347806 -0.2910807 -0.01774201 -0.10307324
000090 27 a3 a7 be 55 d1 42 3f c5 f8 46 be 45 7d 70 be
       -0.32741663 0.76100665 -0.19430836 -0.23485287
0000a0 6b 64 db be 25 86 f2 be f9 9d 6f be 18 76 f1 be
       -0.4285005 -0.4736797 -0.23400106 -0.4716041
0000b0 2b e2 e2 3e 7a c0 1e 3f 69 a8 a5 bf 0f 71 03 40
       0.44313177 0.62012446 -1.294202 2.0537755
0000c0 05 43 62 be 8d 59 3f 3c 31 9d 08 bc c7 93 60 be
       -0.22095878 0.011679065 -0.008338259 -0.21931373
0000d0 06 7e 0b bd 6a 82 b5 bd c6 e2 7b bc e3 ac 76 be
       -0.034055732 -0.08862765 -0.015373891 -0.24089389
0000e0 ed a9 de 3d 3c 7f 2f 3e 47 10 79 be 2a 5c b9 be
       0.108722545 0.1713838 -0.24322616 -0.36203128
0000f0 c5 9d 9a be 00 36 12 be 38 90 fe be 83 9f 96 bd
       -0.30198494 -0.14278412 -0.49719405 -0.07354643
