model/DQN/_Player_dqnAgent_model_epoch_2500.pth (torch_old, 489705 bytes, 10 tensors)

fc1.weight f4 [256, 57]
00000000: d33f 013e 6120 103e b630 5b3d 37b2 ecbd
00000010: ec98 c0be 17b2 c6be f84f 90bf d70e eebf
00000020: db0a 823f 3082 fcbe 78ac 883f d6cc 93be
00000030: 0e70 813f e88e 29be aa9b d63d 5de8 e63d
00000040: 1cbb 6abf 3f9c 2dbf 6489 f6be ce5c 95be
00000050: 9256 c4bc 00d5 fcbe 9d36 55bf 74f4 59c0
00000060: c814 07c0 01e8 513f 223e a2be 2a3d d23e
00000070: 68c5 aabd 4f1d 85bf 427a 53bd 4c9c 523f
00000080: ecce 753e 76bd 0ebf de4c 10bf 55b2 4e3e
00000090: caec 12bf 77ed b6be 1016 723d 4173 1d3f
000000a0: 6042 e43b 08b2 88bc 449d 5d3f 2407 23bf
000000b0: 540e f1be 737d 42bd 18f4 dbbe 79ee 0640
000000c0: 3ca5 e33d b097 04bf 742c adbf 9247 183f
000000d0: ebd3 ebbe 3e79 cc3f 8377 f03d 9655 17bf
000000e0: 6795 363f 76a7 01bf 4d47 1ebf 7c9f 81bf
000000f0: 2ec6 a5bf abf9 1dbf fa9c b3bf 4da0 cd3e
00000100: 77a4 a4bc 5e96 ba3e e94f b33e ec23 7f3f
00000110: 51b0 093f 8258 1abe fc5e 88bd 6118 dabe
00000120: 1b23 263d d253 51bd 5fc4 913b 62f7 c83e
00000130: 2aef 6fbd 0a43 4bbf efe6 2d3f 825e e1bf
00000140: 9680 c23c b843 803f 52b8 733b c92e 74bf
00000150: 51ca 183f e8c9 b6bc c2e9 1fbf 9c58 78bd
00000160: 9333 30be 191e b53e dfc2 4bbf 03b1 cbbe
00000170: 97ea 063f 5983 4bbf ce8d 18bf e0f7 afbd
00000180: ddc2 28bf 981a e33c c890 20bf 293c e7bf
00000190: e2f2 38bf 3ca1 1a3f 0363 a63e e161 61bf
000001a0: 595b 15bf de7c 5b3f 1262 72bf 839b 51bf
000001b0: a1ae cc3e b0c1 53bf 300e e6bf ccb3 7d3d
000001c0: 1e7b 6dbf 0e9a 903e eeb1 a33f dd13 76bf
000001d0: c3e9 d63d f582 f2be 2331 2b3e 922d 3dbe
000001e0: c0d2 c43f 0278 8a3e e286 a83e db0c 8abf
000001f0: c59f 943f d6bd 3fbf 5846 cb3f f1c4 9dbe
00000200: 03b8 b13e 4eea c4bf 472b 4d3f 9d86 c5be
00000210: ede6 d03f 73f0 b9be d3f1 59bf af38 a1bf
00000220: caf8 8cbd b189 82c0 81e9 b6be 00f5 debb
00000230: e730 05bf f3ea 093f 5ec5 003e 1223 6a3e
00000240: b7ae f3bd 0370 a9bf 8a66 9abe 1f2f 26bf
00000250: 54bf 4e3f e28c fcbe f0b0 45bf a8fb 423f
00000260: e416 dcbc 8b93 a1be 16a8 923d 71a3 1cbe
00000270: ed6f 913f f132 42bf a7c1 103f 0af4 8dbf
00000280: b532 2ebf 0bc2 34bf 64dd 9c3f 71f1 44bf
00000290: 0d27 fe3d cf73 0b3f d511 37bf ac11 313f
000002a0: ba06 45bf 1df4 29bf 8874 78be a74d adbf
000002b0: 408d 1c3e 7eed dfbe 39eb 873e 2974 85bf
000002c0: d379 a63e fdec f8bf 361d 953e deaf 61c0
000002d0: 6ab1 023f d63d 18c0 b821 663f 906e b1bf
000002e0: f22f 6abd 1ac7 85bf e3f7 6dbd 08ce 3bbf
000002f0: ab5a e3bd 636f f2be eadb 8abd fe55 22bc
00000300: 3d5e 23bf 4025 bebe a721 82c0 464e 1fc0
00000310: 954e 50bf 917f 6bbf d095 f9bf 0062 3dbb
00000320: fecb e43f f8dc ae3d f227 63bf 1d3e 153f
00000330: 1c99 94bf 83c4 acbe 2555 203f 58e7 78bf
00000340: 89b5 c3be 8065 893c f334 05bf e87e d6bc
00000350: 8af5 cc3e b08e 4bbf 278b 88bf 08fa cdbe
00000360: 316c 9cbe d14f 91bf 4880 b33e a755 3cbd
00000370: 57a4 89bf 8a52 a5be 1521 df3d c5f1 87bf
00000380: 7cc0 0f3d 8e64 b33e 7b80 94bf e19b 3dbf
00000390: d66f 2c3f 1a18 cb3c 3165 483f a00c 0fbf
000003a0: 9add 373f bc56 9dbe 6e75 48be b5b0 61bf
000003b0: 7bce 213f 5b73 d6be 803a 19bf f800 9dbf
000003c0: 2fed 813f 40a0 893e 2b48 d03e 9591 bb3d
000003d0: 7e6b 3f3f dc9c 0dbf b83b 72be f2f8 d83d
000003e0: 0e94 9a3f 8a6c 7fbf 7a01 91bf 102f 3d40
000003f0: 8d0a a0bf 5cc0 adbd 5677 2abf 9824 bcbf
0.12622003 0.14074852 0.05351325 -0.11557429 -0.3761667 -0.38807747 -1.1274405 -1.8598279
1.0159563 -0.49318075 1.0677633 -0.28867215 1.0112321 -0.1655842 0.10478909 0.112747885
-0.91691756 -0.6781654 -0.48151696 -0.29172367 -0.023967061 -0.49381256 -0.8328646 -3.4055452
-2.1106434 0.81994635 -0.3168803 0.4106229 -0.083384335 -1.0399569 -0.051630266 0.8226974
0.24004716 -0.55757844 -0.5636729 0.20185216 -0.5739256 -0.35728046 0.05910307 0.6150399
0.0069659203 -0.016686454 0.86568093 -0.6368277 -0.47081244 -0.04748292 -0.42959666 2.1083052
0.111155 -0.51793957 -1.3529191 0.5948421 -0.46060118 1.59745 0.11741545 -0.5911497
0.7132172 -0.5064615 -0.61827546 -1.0126796 -1.2951105 -0.6170909 -1.403228 0.40161362
-0.020097954 0.36442846 0.35021904 0.9966419 0.5378466 -0.15072826 -0.06658742 -0.42596725
0.040560823 -0.051105328 0.004448458 0.39251238 -0.058577694 -0.7939917 0.679305 -1.7606966
0.023742955 1.0020666 0.003718872 -0.9538389 0.5968371 -0.022313073 -0.6246606 -0.06063138
-0.17207174 0.35374525 -0.79594225 -0.39783487 0.52701706 -0.79497296 -0.59591377 -0.085922
-0.6592234 0.027722642 -0.6272092 -1.8065234 -0.7224561 0.60402274 0.32497415 -0.88039976
-0.5834251 0.8573741 -0.94680893 -0.8187792 0.3997698 -0.8271742 -1.797308 0.061939046
-0.92765987 0.28242534 1.2788675 -0.9612406 0.10493805 -0.47365537 0.16717963 -0.18474415
1.5376816 0.27044684 0.32915407 -1.0785173 1.1611258 -0.7489904 1.5880842 -0.30814317
0.34710702 -1.5384004 0.8014416 -0.38579264 1.6320473 -0.3631626 -0.8513462 -1.2595423
-0.0688339 -4.079308 -0.35725024 -0.0068041086 -0.52027744 0.5387413 0.1257529 0.22864941
-0.118985586 -1.3237308 -0.30156356 -0.6491565 0.80760694 -0.49326235 -0.7722311 0.76165247
-0.026866384 -0.3155788 0.07160966 -0.15296723 1.1362282 -0.7585898 0.5654549 -1.10901
-0.6804612 -0.70608586 1.2255063 -0.7693091 0.12409792 0.54473585 -0.71511585 0.6916759
-0.7696339 -0.6638811 -0.24263203 -1.3539323 0.15288258 -0.4373588 0.26546648 -1.0426074
0.3251482 -1.9447323 0.2912385 -3.526359 0.5105196 -2.3787742 0.898952 -1.3861866
-0.05717463 -1.0451386 -0.05809773 -0.73361254 -0.11101278 -0.47350606 -0.067802265 -0.009908197
-0.6381567 -0.37137794 -4.066608 -2.4891524 -0.81369907 -0.91991526 -1.9498844 -0.0028897524
1.7874753 0.0853824 -0.88732827 0.582979 -1.1609225 -0.33743677 0.6262992 -0.97228
-0.38224438 0.016772032 -0.5203392 -0.02618356 0.4003108 -0.795146 -1.0667466 -0.4022982
-0.30551293 -1.1352483 0.35058808 -0.045980122 -1.0753278 -0.32289535 0.10894982 -1.0620657
0.035095677 0.35037655 -1.1601709 -0.7406598 0.6735815 0.024791766 0.78279406 -0.5587864
0.7182251 -0.30730236 -0.19576046 -0.8816026 0.6320569 -0.41884884 -0.5985489 -1.2265921
1.0150508 0.26880074 0.4068006 0.09158627 0.74773395 -0.55317473 -0.23655593 0.105943576
1.2076433 -0.9977499 -1.1328576 2.9559975 -1.250322 -0.08483955 -0.6658834 -1.4698668

fc1.bias f4 [256]
00000000: 030e 07bf 7c45 43bf 3995 1fbf 0e50 95bf
00000010: b016 f3be 8160 91bd e5a1 153c c509 0d3f
00000020: 8258 a23e 4117 013f 4682 a33e 3038 06bf
00000030: 69eb 0fbe cdbf 0fbe 7f42 4cbf 84f6 ccbe
00000040: 7da8 a7be 0837 3bbe 65f7 cebe b085 61bf
00000050: b9b3 5cbf 2310 a73d 7f65 96bf 1379 12bf
00000060: b54b e83e 3566 1abf 0110 0abf da8e 3a3e
00000070: d00f 38bf 898c 6cbe 123a c63d 6db4 11bf
00000080: 9b55 a8bf 062a 84bf 3395 aabe 4524 69be
00000090: cb3c 4f3f 8aab 13bf d4a4 99bf 9569 53bf
000000a0: 489a 433f 4af9 00bf 4b82 443f 6f0d da3e
000000b0: 1b0d 83be 63ee 7abf 4310 03bf d1b9 d8be
000000c0: b530 01bd 20b9 af3e c40f 05bf 0f46 ecbe
000000d0: f18a 01bf 4f76 4fbf f26c 813e 8d5b 63be
000000e0: f81a 673f 128c 48bf 851d 66bf a88a 5ebf
000000f0: cc3f 1cbf acef 8abf eefb ab3e 0410 12bf
00000100: 0533 c13f f4a8 11bf 67e3 0ebe 36de aebb
00000110: cba8 14bf c7ca 69be 0970 8dbf b207 a8be
00000120: eb76 6dbf 1a8b 18be 6421 a1bf f1dd 5fbf
00000130: dfac 96be c0f5 263e e144 6abf 6181 c6be
00000140: 1060 ea3e c172 01bf 0ae6 5f3f 50f9 4a3f
00000150: 02d0 32bf f049 cabf 32a3 66bf 32bc 57be
00000160: f0ce b83e f421 2dbf f97a 0bbf 306f 31bf
00000170: a47e 4c3e 2211 83bf 1e11 a5bf 98cf 673e
00000180: 0eda 62bf 8ba4 3cbe c6de 5fbe cf26 14bf
00000190: ff0d c6bf 04d8 513e e4be 21bf b7e3 f2be
000001a0: 5245 36bf 9d40 83be 5547 813e 1b17 3cbf
000001b0: 4317 92be 1cec 4fbf 172c f13d 7d7e cabe
000001c0: f595 e9be f7e9 31bf 6392 63bf a630 9fbf
000001d0: 6a5d 27bf 9b77 dbbc 4fb5 0fbf 2437 47bf
000001e0: fc02 cdbc ff86 02bf 3523 a0be e81e 48be
000001f0: be41 07bf b9d3 1dbf b4e0 abbe afca 42bf
00000200: 4b1b babe 2077 963b 6d5c 7bbe abdb a03e
00000210: 7103 5a3e 9d07 16bf f928 46be 9c26 cd3c
00000220: 1967 2ebf 396a 47bf 5c55 90be e584 20bf
00000230: 0256 b73d 237a e23f b7d7 c4bf 99db 4dbf
00000240: f8e2 1140 4f67 45bf 704f 6abf 3eec 1abf
00000250: 312e 293c 68e0 25bf ee02 34bf b15c abbf
00000260: 0b83 22be 73cc ff3f 9657 f7be e42e 01bf
00000270: c135 93bf 4bb5 a6bf 881e 7dbf 2848 ca3d
00000280: 5005 853e dc6b 34bf 1a03 3cbf 09b6 0dbf
00000290: f2a2 96bc aa55 c0be 4535 cbbe 088c 99bf
000002a0: 221d e4be 6cac 59bf e166 92be 59a9 74bf
000002b0: 6dca 933d 5a42 7bbc d23e babe d591 9ebe
000002c0: efb6 2c3e afc3 b73e 2129 63bf 9d08 8cbf
000002d0: 8ac1 523f 6fd8 24bf 8e98 d9be 4451 94bf
000002e0: 115c 2e3f 1d9f 06bf 975d 38bd 6741 a4bf
000002f0: 2377 4d3c 8b57 bb3d ef9e 1e40 f41d 2ebf
00000300: 1b35 30bf bdf2 f6be bb64 1dbf b2dd 81bd
00000310: fbf4 95be d437 8a3f f57f 91bf faf8 1fbf
00000320: 1e1c d8be fd40 89bf 48b7 33bf 2812 9cbe
00000330: b1a4 543f 7754 5fbf eb29 cdbf f87f a03d
00000340: be5e bdbf e0fe 80bf 108c 7ebf dcd9 f6bf
00000350: e330 bbbf e2c3 79bf 47cd 76bf bfbb 07bf
00000360: 4833 b8bf 3263 81be dc91 91bf e176 14be
00000370: 2d03 30bf 5e22 f2be 8b69 e5be 3fe1 3ebf
00000380: 2752 5e3e a917 18bf caf4 30bf 8cdd 0ebe
00000390: 23a3 a3be 302a 62bf 0312 a33e 9d68 993f
000003a0: e096 c43a 4b1e 92bf 8ddd cc3e cd46 3abf
000003b0: 5b26 19bf 9334 6cbb 3428 3bbf 2b49 163d
000003c0: 4ddb 4d40 c79f 63bd a353 563d 79c8 53bf
000003d0: 9116 09be dc3e 8dbf f775 ad3f 7093 1b3e
000003e0: 39cc 36be 509d a7bf 5e9b 20bf bd73 19bc
000003f0: a4cb 4cbf a901 21bf fed9 463f 4716 31bf
-0.52755755 -0.762779 -0.6233707 -1.1665056 -0.47478247 -0.07098485 0.009132837 0.5509303
0.3170815 0.5042611 0.31935328 -0.52429485 -0.14054646 -0.1403801 -0.79788965 -0.40031826
-0.32745734 -0.18282712 -0.40423122 -0.88094616 -0.86211735 0.08157375 -1.1749724 -0.57215995
0.4537026 -0.60312206 -0.5393067 0.18218556 -0.7189913 -0.23100485 0.09679045 -0.5691593
-1.3151125 -1.0325325 -0.33316955 -0.22767742 0.8095214 -0.5768362 -1.2003427 -0.8258298
0.7640729 -0.50380385 0.7676131 0.42588374 -0.25595936 -0.9802 -0.5119669 -0.42329267
-0.03154059 0.34320927 -0.5197718 -0.461472 -0.5060263 -0.810399 0.2527843 -0.22202893
0.90275526 -0.7833873 -0.89888793 -0.8693032 -0.61034846 -1.0854392 0.33590645 -0.5705569
1.5093695 -0.56898427 -0.13953935 -0.005336548 -0.5807006 -0.2283126 -1.1049815 -0.3281837
-0.9275958 -0.14896813 -1.2588315 -0.8744803 -0.29428765 0.16304684 -0.9151135 -0.38770583
0.45776415 -0.50565726 0.87460387 0.7928667 -0.69848645 -1.5803814 -0.90092766 -0.21067885
0.3609538 -0.67629933 -0.54484516 -0.69310284 0.19970185 -1.0239604 -1.2895849 0.22637784
-0.88613975 -0.18422143 -0.21862325 -0.5787172 -1.5473021 0.2049256 -0.631819 -0.47439358
-0.71199524 -0.25635234 0.25249735 -0.73472756 -0.28533372 -0.8121965 0.117759876 -0.39549628
-0.4562222 -0.6949763 -0.88895243 -1.2436721 -0.65376914 -0.02679043 -0.5613603 -0.7781851
-0.025025837 -0.5098724 -0.3127686 -0.1954304 -0.5283469 -0.6165119 -0.33569872 -0.7609052
-0.36348948 0.0045918375 -0.24546976 0.31417593 0.21290375 -0.58605367 -0.19351567 0.025042824
-0.68126065 -0.7789646 -0.28190124 -0.6270278 0.089519516 1.7693523 -1.5378331 -0.80413204
2.279478 -0.7711076 -0.9152746 -0.60516727 0.010325954 -0.6479554 -0.7031697 -1.3387662
-0.15870301 1.9984268 -0.4830901 -0.50462174 -1.1500779 -1.3024076 -0.9887471 0.09877044
0.25980616 -0.7047708 -0.7344223 -0.5535589 -0.018388245 -0.37565356 -0.3968908 -1.1995859
-0.44553477 -0.8502872 -0.28594115 -0.95570904 0.07216344 -0.015335644 -0.36376053 -0.30970636
0.16866659 0.35891482 -0.8873463 -1.0940129 0.8232657 -0.6439275 -0.42499202 -1.15873
0.6810923 -0.5258654 -0.04501113 -1.2832459 0.012540611 0.09147557 2.4784505 -0.68014455
-0.6883103 -0.4823207 -0.6148183 -0.06341113 -0.29288468 1.0798287 -1.1367174 -0.62489283
-0.42208952 -1.0722958 -0.7020154 -0.30482602 0.830638 -0.8723826 -1.6028417 0.07836908
-1.4794538 -1.0077782 -0.9943247 -1.9285235 -1.4624294 -0.9756452 -0.9640698 -0.5302085
-1.439065 -0.25270993 -1.1372638 -0.14498474 -0.68754846 -0.47291845 -0.44807085 -0.7456245
0.21711026 -0.594111 -0.6912352 -0.13951701 -0.319604 -0.88345623 0.3184968 1.198505
0.0014998578 -1.1415495 0.4001278 -0.72764283 -0.5982415 -0.003604208 -0.7310822 0.036690872
3.21651 -0.055572297 0.052325856 -0.8272777 -0.13387515 -1.1034808 1.3551625 0.15192962
-0.17851342 -1.3094883 -0.6273707 -0.009365973 -0.7999823 -0.6289316 0.7767638 -0.6917462

fc2.weight f4 [256, 256]
00000000: ca2c babd d705 f7bd 63c2 ce3c 969d 57bd
00000010: cc14 333d 3759 aebc 38b1 25bd 9863 6abc
00000020: 1539 043d bd86 22be 3d63 4dbd 8473 6bbd
00000030: e96e 51bc f703 afbc d82f 183c c1b9 203d
00000040: cc29 80bd c5c6 b73b cfb2 08bc d0cf a8bd
00000050: c320 a6bd a490 67bd 5862 9dbd 9160 bbbc
00000060: 4811 fbbd 92d0 26bd 3477 d63c ca1d 3fbc
00000070: f39c 103d 659e 6b3c 8dd2 83bd 8b67 ecbc
00000080: 1e02 c5bc bbb2 d23c 1ce6 5e3d 5043 3f3c
00000090: 2073 383c 7eb9 2eb9 9263 bcbc 1df2 d6bc
000000a0: 2ab0 993b 31e8 9ebd d949 0d3c b803 a2ba
000000b0: 01eb 00be b82f 88bd 18c7 27bd 069f 56bd
000000c0: f514 153d 131d a8bd f76f f03c 7516 153d
000000d0: 1ea7 193c 0967 6dbd 0152 5e3d ef0a fdbd
000000e0: cc36 643d c53c b73d 1577 3ebe 6288 44bc
000000f0: 822f b639 2bc0 0c3c 3a3b 94bc c0ec 25bd
00000100: 6d60 6bbc 0829 2a3c 9f07 c53b 51f3 abbd
00000110: eadb 87bd ed8c 7abc 0aa8 12bc 6001 7c3d
00000120: 9fa2 6ebd 30e1 c8bc e8a1 f6bd 08d2 0f3c
00000130: 9efe 33bd 1ada 70bc 2ed1 d63c 6578 243d
00000140: b6a3 0cbd cd0b 8abc 2c1d f3bc 8740 dbbd
00000150: a089 903d eb63 2c3d 9eef 60bd 8b21 bebd
00000160: 54d1 a0bc e8b8 7bbd b814 ce3c 8010 abbd
00000170: 5d0c c9bb 757a ecbc 4cd7 87bd 93e4 95bd
00000180: fba9 8abd 38da 4a3c 7d91 97bd 4b12 bbbd
00000190: 88bc 49bc 0149 44bc 4657 f8bd fe7a 3e3d
000001a0: f6fc 103b 6fd0 96bd 1bdb 9b3b bb77 3a3c
000001b0: cee6 48bd 2a5d fe3c 4134 28bc bc8f 89bd
000001c0: 167f 34bb bd3c 013d 9dc6 b5bc ed46 1dbd
000001d0: 4c07 ac3c 27ad bbbc 5bcf a9bd a73b 33bd
000001e0: cade 223c 4351 96bd 3842 d4bd 64f8 2abd
000001f0: 7a2f 3f3d c678 ab3c 6671 2cbd 338f c03c
00000200: d5cb d5bd 33a8 833d a3e7 46bd 75ed 99bc
00000210: 2bab 86bd 2621 57bd b2a3 1abd e8d9 88bc
00000220: b216 403d 2260 3abd 4595 1c3a 43be 94bd
00000230: 928c 8ebc f360 99bd 95eb 2ebd de52 e0bc
00000240: dc68 13be c84d 5fbd e7eb 40bd 67af eebc
00000250: 910d 7dbd 966b 493c 313f 18bd 0984 f03c
00000260: c0d6 dcbc 6571 3dbd 51e6 123d 067b a0bd
00000270: 28cf 4abd 9c62 89bd bd10 43bd a24e a2bc
00000280: 5a69 18bd 1527 febb 68ea 6cbd b057 a3bc
00000290: fbc3 0fbe 39e5 0fbe e0a4 7c3d b5f8 9dbb
000002a0: b366 59bd 6bde c63c 8144 3fbd 2274 8dbd
000002b0: 5a80 5f3c 0957 d83c 78e5 d1bc 2f63 7dba
000002c0: 4edb bcbd a6cb 61bd 9be4 c5bc 0862 0a3d
000002d0: e487 d9bd cea8 91bc 07de 723c ffa7 e3bb
000002e0: c6ce 693d 20e9 00bc aed6 7abd 9e05 8abc
000002f0: 663b 0ebd d6be c03c 36a5 01be 246a 223d
00000300: 7a65 24bc d3ac 1fbe 62c4 033d bd89 2b3d
00000310: 6767 62bd 6060 183c 8ec9 e1bd a882 a1bd
00000320: eec6 ad3b 89f6 44bd 91d5 83bd 50ee a2bc
00000330: 793b 75bb 5627 323d fa2b 723d 7c29 5b3c
00000340: ace3 51bd 98eb 323d 657a 85bd ad90 59bd
00000350: bd0b fe3c 9386 82bd f4e3 dbbb 1f6a 7abd
00000360: 799c 34bd efb4 8abc 70d3 9abc dfe5 583d
00000370: 7989 963d e043 fa3b 30bc c23b 2a80 463d
00000380: 7369 9d38 9a4a 7bbc b376 00bd 3aeb 01bd
00000390: 3e0a 0dbd c198 79bc d7e9 07be 600b aebc
000003a0: f498 6f3c 07b2 7ebd 7576 93bd cdb5 1bbd
000003b0: 75c6 72bd 398d a73c 58ac 0e3d 6974 62bd
000003c0: 22a2 febc 064d 56bd 5016 33bd 3202 74bd
000003d0: 7d34 bcbc d4ba 47bd 8497 c73c 78a4 b7bc
000003e0: b170 42bd c762 3bbd 72a1 bb3c 6cca 86bd
000003f0: d006 3fbc b4e8 613c 90b7 cbbd 55f4 acbc
-0.09090574 -0.12061661 0.025239175 -0.05264052 0.043721005 -0.021282775 -0.040452212 -0.014305972
0.032281 -0.15871711 -0.05014347 -0.05748321 -0.012782791 -0.021364195 0.009288751 0.03923965
-0.06257972 0.005608412 -0.008343413 -0.08242762 -0.081117176 -0.056534424 -0.07684773 -0.022873195
-0.122591555 -0.040726252 0.026179887 -0.011664817 0.03530593 0.014381026 -0.06436644 -0.028857967
-0.024048861 0.025719991 0.05441867 0.011673763 0.011257917 -0.00016663034 -0.022996698 -0.026238495
0.00469019 -0.07759131 0.008623564 -0.0012360727 -0.12589647 -0.06649727 -0.040961355 -0.05239775
0.03639694 -0.082086705 0.029350264 0.03639837 0.009378223 -0.05795959 0.054277424 -0.12355601
0.05571632 0.08947138 -0.18600114 -0.011995407 0.0003474914 0.008590738 -0.018094648 -0.040508986
-0.014366251 0.010385759 0.0060128714 -0.08396018 -0.06633742 -0.015292388 -0.008951196 0.06152475
-0.058260556 -0.02452144 -0.120426 0.008778103 -0.043943994 -0.014700437 0.026222792 0.04015388
-0.034335814 -0.01685133 -0.029676996 -0.10705667 0.070575 0.042087477 -0.054916017 -0.092837416
-0.019631065 -0.061455637 0.025156364 -0.083527565 -0.006135507 -0.028866986 -0.066328615 -0.07318988
-0.067707025 0.012381129 -0.074007966 -0.091343485 -0.012313016 -0.011980296 -0.12126021 0.046504013
0.0022123433 -0.07363974 0.004756344 0.011381085 -0.049048238 0.031050283 -0.010266365 -0.06716868
-0.002754157 0.031552065 -0.022189433 -0.03839772 0.020999573 -0.022909714 -0.08291503 -0.04375806
0.009940812 -0.07339718 -0.10364193 -0.04174079 0.046676137 0.020931613 -0.042100333 0.023505783
-0.104392685 0.06428566 -0.04856075 -0.018789986 -0.065756164 -0.052521847 -0.03775377 -0.016705468
0.046896644 -0.045501836 0.00059731706 -0.07262852 -0.017401014 -0.07489195 -0.042705137 -0.027383264
-0.1439547 -0.054517537 -0.047099974 -0.029136373 -0.061780516 0.012293717 -0.03716964 0.029359834
-0.02695787 -0.04625072 0.035864178 -0.07835965 -0.049513966 -0.06708261 -0.047623385 -0.019812886
-0.037209846 -0.007756124 -0.057840735 -0.019939274 -0.14039604 -0.14052285 0.061680675 -0.004820908
-0.053076457 0.024275979 -0.04669619 -0.06906916 0.013641441 0.02640869 -0.025622115 -0.00096659636
-0.092215165 -0.055125855 -0.02415686 0.033784896 -0.10621622 -0.017780688 0.014823443 -0.006947517
0.05708196 -0.007868081 -0.06123989 -0.016848382 -0.034724616 0.023528498 -0.12660679 0.039652005
-0.0100339595 -0.15593271 0.032169707 0.041879404 -0.055274393 0.009300321 -0.11024772 -0.07886249
0.0053032553 -0.048086677 -0.06437219 -0.019889027 -0.0037419482 0.043494545 0.05912397 0.01337659
-0.051242515 0.04368171 -0.065174855 -0.05311649 0.031011457 -0.06373324 -0.0067105237 -0.06113636
-0.044094536 -0.016931979 -0.01889965 0.052953597 0.073504396 0.007637486 0.005942844 0.04846207
7.505985e-05 -0.015337611 -0.0313632 -0.03171847 -0.034433596 -0.015234173 -0.13272797 -0.021245658
0.014623869 -0.0621815 -0.07200328 -0.038015176 -0.059271295 0.020453082 0.03483233 -0.0552868
-0.03108317 -0.05231955 -0.04372245 -0.059572406 -0.022974247 -0.048762158 0.02436424 -0.022417292
-0.047470752 -0.0457485 0.022904132 -0.06581578 -0.011659339 0.013788391 -0.09947121 -0.0211126

fc2.bias f4 [256]
00000000: 3866 21bc ea09 aeba 6d2c 803d c10e acbd
00000010: 6f2a 88bd 0c5e 4ebd ea41 e23d 5fa7 f3bd
00000020: 6ef1 1ebd f01d 0bbf 9e1c a9bd 1a52 ffbd
00000030: 6ef0 34bd b930 b8bd cb64 95bd 8965 0cbe
00000040: db85 5fbf c59e 2e3f 7b4a 0b3f 7f49 b3bf
00000050: 2f44 433e 3c54 a6bd 105e adbd 00cb b53e
00000060: 9d30 c2bd 2a2a cb3d f716 d3bd e2f3 c93d
00000070: 0ea4 14bd 4b8e 29bf 4a5e 5ebd a3c2 1dbb
00000080: 6b39 aebd c70b 88bd fdc3 003d bc4c fabd
00000090: ca93 193f a366 20bd 9fd1 2b3f 2c9a 7d3d
000000a0: cd41 82bd d94b bf3e 2ab5 fabd 39da b9bd
000000b0: f263 833f ed04 06be c139 b4bd ab66 68bf
000000c0: adee 9bbd ff8a adbc e0f5 a7bd 51a1 40ba
000000d0: f330 2ebd 79bd 54bc 0fac 733f 041f 013d
000000e0: ee4d 873d 0587 d53f b012 39be 9c15 88bd
000000f0: 096a 00be a2a6 debd 84cb 4bbb 8378 c1bd
00000100: 7d1b a83d 0240 0340 e18c 933c 0316 51be
00000110: 7bf9 493d cc24 74bd 5300 813e 3f15 08be
00000120: b0f4 6bbd 42ce 33be 343f 803d 7a41 ea3d
00000130: 5447 cfbc bb56 cf3f 463e 97bd c22a afbe
00000140: 79cf fc3e efc7 55bd b331 45bd fdab 88bd
00000150: 0547 183f f9d6 09bc 591d 84bd cac5 2fbe
00000160: df1a a2bd b733 2340 84cd 43c0 de42 19bd
00000170: 9bbd a0bd 5495 48be 0cf3 ddbb e268 75bd
00000180: 70fb d5be dcf6 31bd 7cf9 63be 2e39 c4bc
00000190: 7d91 02bd 2cf1 0d3f ce6c 79be 7dcb a0bd
000001a0: 2baf 21be 0d1b 133e dede 32bf cac9 b23e
000001b0: d96c 9ebd ccda 25bd 8fa8 b13f c522 b03d
000001c0: d65a 533e 30ea edbd 8b74 e2bd 9a95 1cbe
000001d0: 749a 433d 9873 08bb 3f30 adbd dea5 0a3f
000001e0: aa09 18bd 8068 a6bd ab05 c8bf 4e4f 7cbe
000001f0: 5c73 373f 2e20 84bf 70a1 1a3f ebd2 d3bd
00000200: 1b9d bfbe 2173 b9bd 805b 1ebe 54bc 8c3d
00000210: d0b3 ecbd 9ea9 073f 5944 43bc f1bc 23c0
00000220: 8833 c8bd b9e7 83bf c43d 1cbe 5597 13be
00000230: 2b9c 92be 628d 193e 3039 cabc d2ea 0ebe
00000240: 1c5b f0bd efc8 c93c f036 2fbd 23ed 6fbd
00000250: 31af a43f 3ec6 23bd 5efc 03be 5a34 c6bd
00000260: b902 f3bd 9b1e dfbd 1a5c c33d 4a23 f5bb
00000270: e8c1 ddbe 5568 a8bd ce14 ba3b 7344 a23d
00000280: b842 a3bd e8a5 f53f 5bd0 ecbd 5aba 8cbb
00000290: f8a6 8dbc f38f 59bd 9a37 c5bf 61cd 03be
000002a0: 9de4 e53e d395 5dbe 5b4f 50bd b3ad 0cbf
000002b0: f837 89bd c3dc 43be 25b5 debb f4a5 80be
000002c0: f850 043f 461c 623d 5eb3 b03c f4ad 96be
000002d0: 973b ffbd 1a33 9bbb 4edd 03be 9a32 a3bd
000002e0: 6181 073f e5b5 b6bd 6eb2 6f3c 05fa a4bd
000002f0: 2545 e93f 2b51 103c 54c7 ebbe a943 edbd
00000300: 7e40 123b 96a1 61bc b8ca d43d 1e1f 06be
00000310: 4f36 01be 49f1 383f 199f b93e 0969 83bd
00000320: cbfd 7a3e 377d 8cbc c949 c23e 5774 01c0
00000330: c09b debd 8d1d 083f 743b 55be 08b9 e9bd
00000340: c443 78bd 9737 9fbd 0670 35be 9031 323c
00000350: 3545 b8bd c1c3 ddbd 5064 0c3e cdb1 973f
00000360: b56d 1f3f 1ce1 febd 66db 33bc ec4f fdbd
00000370: dc41 233f 99d2 39be c766 2bbe d19f 86bd
00000380: 45b2 65bc 355e 17bf c07f a1bd 7257 b83f
00000390: f3d3 aa3d 8c11 8f3d fcc3 773e 9242 a9bd
000003a0: f322 9cbd db6c 3cbd 34e4 dfbd 837c 81bd
000003b0: 7296 cb3d 248d a0bd 9a7c d63e 9f5b 0dc0
000003c0: 0196 6ebf 057b 9ebf 23da e53e 5964 a6bd
000003d0: d07f 4ebf 88c6 40bc fdcc d3bc 3826 29bd
000003e0: eb81 023b 8771 523d 3f49 d8bd 0af9 d5bc
000003f0: ccfe e4bb de70 aabd eac5 d53f 99c2 bcbd
-0.009851031 -0.0013278101 0.062584735 -0.084012516 -0.066487186 -0.05038266 0.11047728 -0.11897158
-0.038804464 -0.54342556 -0.082574114 -0.124668315 -0.044174604 -0.08993668 -0.07294615 -0.13710608
-0.8731362 0.68211013 0.54410523 -1.4006804 0.19068979 -0.08121535 -0.084652066 0.3550644
-0.094819285 0.099201515 -0.103071146 0.0986097 -0.036289267 -0.66232747 -0.05428914 -0.0024072311
-0.08507045 -0.06642871 0.03143691 -0.12221667 0.59991133 -0.039160382 0.6711673 0.061914608
-0.06360207 0.37362555 -0.122415856 -0.09074826 1.0264876 -0.13087817 -0.08800078 -0.9078166
-0.07613883 -0.021184443 -0.08201194 -0.0007348257 -0.04252715 -0.012984627 0.95184416 0.03152372
0.06606661 1.668183 -0.18073535 -0.06644747 -0.12540449 -0.108716264 -0.0031096647 -0.09446814
0.08208368 2.0507817 0.018011512 -0.20418553 0.04931019 -0.059605405 0.2519556 -0.13289355
-0.0576064 -0.1755915 0.06262055 0.1143827 -0.025302567 1.6198343 -0.073849246 -0.3421231
0.4937704 -0.052192625 -0.0481431 -0.06673429 0.5948337 -0.00841307 -0.0645091 -0.17165294
-0.079152815 2.5500314 -3.0594187 -0.037417285 -0.078486644 -0.19588214 -0.006773358 -0.059914477
-0.41793394 -0.043448314 -0.2226314 -0.023953047 -0.03187703 0.55446124 -0.24357912 -0.07851312
-0.15789478 0.14365788 -0.6987132 0.34919578 -0.07735605 -0.040491864 1.3879565 0.08600382
0.2064012 -0.11616933 -0.11057385 -0.15291443 0.04775472 -0.0020820852 -0.08456468 0.54159343
-0.03711859 -0.081254005 -1.562673 -0.24639627 0.716604 -1.032232 0.60402584 -0.10342964
-0.3742455 -0.09055162 -0.15464592 0.06871858 -0.11557734 0.5299319 -0.011918151 -2.558407
-0.09775454 -1.0305091 -0.15257937 -0.14413197 -0.28634772 0.1499534 -0.024685472 -0.13956764
-0.11736128 0.024631945 -0.042777 -0.05857576 1.2865964 -0.03998398 -0.12889239 -0.09677954
-0.11865754 -0.108945094 0.09539051 -0.0074810134 -0.43312 -0.08223025 0.0056787496 0.07923212
-0.0797171 1.9191256 -0.11563178 -0.004294676 -0.017291531 -0.053115796 -1.5407593 -0.12871315
0.4490098 -0.21639185 -0.05085693 -0.54952544 -0.06700128 -0.19127183 -0.0067964965 -0.25126612
0.5168605 0.055202745 0.021569904 -0.2942959 -0.12462538 -0.0047363164 -0.1287739 -0.07968636
0.5293179 -0.089214124 0.014629943 -0.080555 1.8224226 0.008808414 -0.46050513 -0.11585171
0.0022316272 -0.013771435 0.10390228 -0.13097808 -0.12618373 0.7224317 0.36254194 -0.06416518
0.24510877 -0.01714955 0.3794692 -2.0227258 -0.10869551 0.5317009 -0.20823461 -0.11412245
-0.0606115 -0.07774275 -0.17718515 0.010876074 -0.08997575 -0.10828353 0.13710141 1.1851135
0.62276775 -0.1244528 -0.010977602 -0.123687595 0.6377237 -0.18146743 -0.16738425 -0.06573451
-0.014019554 -0.59128124 -0.078856945 1.4401686 0.08341207 0.06985769 0.24195856 -0.082646504
-0.076238535 -0.04600225 -0.10932198 -0.06322577 0.099408045 -0.078394204 0.41891938 -2.208717
-0.9319764 -1.2381293 0.44892988 -0.081246085 -0.80663776 -0.011766084 -0.025854582 -0.041296214
0.0019913863 0.0513778 -0.105608456 -0.026119728 -0.006988382 -0.08322309 1.6701024 -0.09216804

fc3.weight f4 [128, 256]
00000000: 7836 463d 3604 a43b 40aa aebd 00ba 1fbd
00000010: 3900 953d 1564 bdbc 0f24 20bf 198e 3c3d
00000020: 7836 b73d 87c1 83bf cee1 95bd f3db 29bd
00000030: 9cd1 283b 0d94 0639 fc3d 853c af75 8f3e
00000040: d618 3bbe 6079 39bf 6394 ffbe 4032 5fbf
00000050: 202b 5a3e 962a 9c3c e784 573b 2a56 c03e
00000060: 7ae6 99bb 25e9 7fbe a3c5 0b3d 766f 29be
00000070: 49c1 443d 055a b83d 7a08 b3be fe15 403f
00000080: 13e7 d63c 806f 163b b7af 8abd 7fbc 233c
00000090: 5435 7cbf aedc c83c 6ee7 9abd 51d2 603d
000000a0: c48b ae3c cee5 4d3d 198c 5c3c f912 973c
000000b0: 5cab 45bf 56c0 15bd 1f3d 9f3e 8d52 babf
000000c0: 57c8 7e3d fd4f 85bd 54b9 8c3e 2ae1 2fbd
000000d0: 90a1 913b b3f9 083d d7a4 8ebe 08e0 3abe
000000e0: 4319 89be 7f62 fbbd ab7f db3e a0d9 9fbc
000000f0: 985b 23bc 3b02 12be 073d b9bd 04e3 c3bc
00000100: a3dc 7c3e 5eef 25bf 68a4 483d f7c5 09bb
00000110: f5b2 693e c7d6 78bb e0b3 c0bf 50ea 2c3c
00000120: 12d3 67be c40e 823c 6115 bfbc 8d5a 1cbf
00000130: 4280 ad3c ae3c dd3d 2aef 1a3d 5d68 4f3f
00000140: f151 32bf 608b 07be a9ae 213b 454e 01bf
00000150: 23fa b1bf c695 c2bb a014 553c 0ced 2e3e
00000160: abbe 21bd 69b2 c7bc 04fd b8bf 24b2 86bc
00000170: d278 2b3d 85d3 1d3e 269f 3abd 1315 1dbd
00000180: c82b 46bf 9827 2dbc 1ffe 99bf bfbd 74bd
00000190: 6813 cc3d 321c fd3d 8d14 1abf 2497 ba3c
000001a0: 8322 88bd fbe8 12bf cadf e9bf d64d 023f
000001b0: 8247 1dbe 6247 9cbc db70 b73e b2f6 e33c
000001c0: 8a47 28be 47f3 bebd 850a 653b 28f6 13bc
000001d0: 5770 10be f414 e2bc 123f 4cbd 6f3e 1dbf
000001e0: 243b 2ebd 6abb 2bbd 2ea6 26c0 d0a0 1a3f
000001f0: eeac df3e 06c6 633d af04 313f cbe0 303d
00000200: 3e0a 64bf 4eb0 63bd 583b 7d3d 8dd9 4abf
00000210: 7226 81ba 3484 91bf b8e7 3abc b1aa 50bf
00000220: 1c88 88bc 8d09 69bf 8029 ab3a 20fd e6bb
00000230: 993e 23bf 17df 5c3f a24b 1e3c fc2b 13bd
00000240: e8a8 793d 8bee dcbe c23a 83bd 25a0 313d
00000250: d57b 91bf 10ed 4bbc ee87 0d3e 478e 8ebc
00000260: 211e dcbc 43e3 cf3e 8e85 e2bf d8b8 343d
00000270: 24ed 1bbf c2a1 21bd b366 633d be35 94bf
00000280: 8e95 59bd 162e ddbe eb58 743d f9c2 da3c
00000290: d440 8ebe 1fdb 34bd 7ebe 32bf 4c28 0fbe
000002a0: 7cc9 33bf 36ae 80be 48c2 d43c 22b2 50bf
000002b0: f8cc 7a3c 9fcc c8be c243 03be 22d4 c33f
000002c0: 0b5e cbbe 5d70 b2bf effa 763e 3e82 55be
000002d0: 0166 bdbd 5156 59bc 5931 4dbd c730 1c3d
000002e0: a55d 5ebf 1051 b33a 9148 93bd 1611 9d3b
000002f0: 59e1 d2bf bfac 60bd 271a 25bf 32fe b03d
00000300: fcb1 153d 06aa 2d3c dbcb bd3e fd23 3abc
00000310: 56ed b5bc 796a d93f e7f4 33bf 8769 063b
00000320: 8ba6 85bf d72b 103d e1b2 da3e effc 55bf
00000330: 9668 10bd e1c4 cb3e 33af 96bb f01f efba
00000340: 1e80 85bf 7c77 fabc 2c0c ca3e bd07 c4bb
00000350: 9eff 493d 6897 8a3e 83b7 263d f125 13bf
00000360: 1117 853e fa59 76be 2cfa 293d da13 33bd
00000370: e9a1 8d3d d44c 95be e338 ca3a 0bac 3c3d
00000380: d55c 233d ff00 83bf 5f6a b23b a095 b1be
00000390: 6819 00bf 2144 36bc b346 b43e 7ba7 64be
000003a0: 1eec fb3c 8ce3 26bc d02e 7dbc 86a9 653d
000003b0: 6102 c13e f1ac 7abb 89f8 dbbf 0bf3 863d
000003c0: e3cd 9abf 65f6 74be 5521 2dbe 1e0a 0dbd
000003d0: 0064 00be c0cc bb3d f79d 543b 3bd9 553d
000003e0: c77a 853d 3dc7 04bf e413 6b3d d7b3 933d
000003f0: 7c70 8b3e 1480 ebbc 664b 143f ddfd 83bd
0.04839179 0.005005385 -0.08528566 -0.038995743 0.07275433 -0.023119012 -0.6255502 0.046033952
0.08945936 -1.0293435 -0.073184595 -0.041469526 0.0025759703 0.00012834389 0.016264908 0.28019473
-0.18271193 -0.7245083 -0.49917898 -0.8718605 0.21305513 0.019063275 0.0032885612 0.37565738
-0.0046966644 -0.24991281 0.034124028 -0.16546425 0.048035894 0.09001545 -0.34967405 0.7503356
0.026233232 0.0022954643 -0.06771796 0.009993671 -0.9851887 0.02451929 -0.07563673 0.054888073
0.02130688 0.050267987 0.013461136 0.018441664 -0.772146 -0.03656038 0.3110132 -1.4556442
0.062202778 -0.06509397 0.27485144 -0.042939343 0.0044443086 0.033441257 -0.27860138 -0.18249524
-0.26777086 -0.12274646 0.4287084 -0.019512951 -0.009970568 -0.14258663 -0.09044843 -0.02391196
0.24693541 -0.6481837 0.048984915 -0.0021022537 0.22822173 -0.0037969814 -1.5054893 0.010553911
-0.2263911 0.015876181 -0.023325624 -0.6107567 0.021179322 0.10802589 0.03782574 0.8101862
-0.6965628 -0.13236761 0.0024670756 -0.50510055 -1.3904461 -0.0059382645 0.013005406 0.17082614
-0.039488476 -0.024377065 -1.4452214 -0.016442366 0.04186327 0.1541272 -0.045561932 -0.038350176
-0.77410555 -0.010568522 -1.2030677 -0.05975127 0.09964639 0.123588935 -0.6018761 0.022777148
-0.066472076 -0.5738675 -1.827142 0.5090002 -0.1535931 -0.019077007 0.3582829 0.027827594
-0.1643354 -0.09323745 0.0034948897 -0.009030856 -0.14105354 -0.027597882 -0.049864836 -0.6142339
-0.04253687 -0.04192678 -2.6038928 0.6040163 0.43686622 0.05560877 0.6914777 0.04318313
-0.8907813 -0.05558806 0.061824173 -0.79238206 -0.0009853377 -1.136847 -0.011407785 -0.81510454
-0.016666465 -0.910302 0.0013058633 -0.007049218 -0.6376739 0.8627791 0.009661587 -0.03593062
0.060952097 -0.43150744 -0.064076915 0.043365616 -1.1365916 -0.012446657 0.13821384 -0.017401827
-0.026869835 0.40603074 -1.7697008 0.044121593 -0.6090872 -0.039460905 0.055517863 -1.1578901
-0.053121142 -0.43199223 0.05965511 0.026704298 -0.27783835 -0.044154283 -0.6982192 -0.13980216
-0.70229316 -0.25132912 0.025971547 -0.8152181 0.015307657 -0.39218614 -0.12818816 1.5299113
-0.39720187 -1.394054 0.24119161 -0.20850465 -0.09247971 -0.013265208 -0.05009589 0.038132455
-0.8686164 0.0013680775 -0.07191575 0.0047932966 -1.6475021 -0.054852244 -0.6449303 0.08642234
0.036546692 0.010599619 0.37069592 -0.011361119 -0.022207897 1.6985618 -0.70295566 0.0020509677
-1.044145 0.03519806 0.427146 -0.8358907 -0.03525599 0.39798644 -0.004598522 -0.0018243771
-1.0429723 -0.030574553 0.3946241 -0.005982368 0.04931604 0.2706864 0.040702354 -0.5747977
0.2599416 -0.24057761 0.041498348 -0.043720104 0.069156475 -0.29160178 0.001542833 0.04606251
0.039883453 -1.0234679 0.0054448093 -0.34684467 -0.50038767 -0.011124642 0.3521019 -0.22329514
0.030752238 -0.010186087 -0.0154530555 0.056069873 0.37697127 -0.0038250054 -1.7185222 0.065893255
-1.2094082 -0.23922117 -0.16907246 -0.034433477 -0.12538147 0.09169912 0.0032442787 0.05220912
0.065175585 -0.51866513 0.057392016 0.07212036 0.27234256 -0.028747596 0.5792755 -0.06444905

fc3.bias f4 [128]
00000000: 635d dc3e a8cd ca3c 30cd 973f bddf 7f3c
00000010: d5de 41bf 5c81 833f d5a8 08bd 95ab e8be
00000020: 8e33 13bf e90b 42be c834 02be a248 00c0
00000030: af42 d73e 6b2b 0dbe eefe 2a40 d738 87bc
00000040: fcac 743e 8390 2140 dbd1 50be a08f 3dbf
00000050: 821e 203f 5602 55be 3680 973c bc11 23bf
00000060: 0ae3 a6bf 64c4 f93e 5a7c 31bf 5988 29be
00000070: a53a 2fbf eec2 24c0 d4aa c4bf a811 f5be
00000080: 4a9d 09c0 a7b5 b8be f685 be3f 722a 493e
00000090: 3e9b 32be 11eb b4bd b3f3 62be 1dd0 6bbd
000000a0: 4d55 3c3f 067f 5d3f 4478 0cbe 1070 1a40
000000b0: 4ae3 a2bd 7c67 c03e 62dc 8e3f f7ee e83f
000000c0: 6b14 91be 88f0 ed3b 1ba3 8fbd 8932 523e
000000d0: 1ecf d3bf bb49 febd 997b 02c0 c1e8 8ebd
000000e0: d289 31bf 4102 353f d141 fdbd 84aa fabd
000000f0: fa99 fb3b c2bf 803f 7eb3 80bf 7fa1 573e
00000100: 006a 80be 7b73 5bbf 24dd babf b2bb 1dbd
00000110: 2a32 81be 0347 86be b924 df3e c1b9 c4bd
00000120: 5bd0 afbd 03d3 a2be 5e5d 5cbf e068 04be
00000130: 51a0 f7be 6168 b5bd 7be4 c1bd 46ed 62be
00000140: eb01 0bbe 6563 42bd 2921 01bf cd74 b3be
00000150: d8e1 db3e b8bf 06be 567d 65bf 2b16 c23d
00000160: 192b dcbd 147c 303c 6d8b b0bd 7ae2 fabe
00000170: 6415 a63d fa84 aabf c5f4 983f c785 ab3e
00000180: a41e a13f 719f 16be 3428 adbe f96d 903e
00000190: 066d 26be cb3c 8d3e 64c5 38be 5326 f7be
000001a0: 7d53 f3bd 805a 32be 1947 37c0 3f13 1b3f
000001b0: d74b f7bd e5de 85bd 8a18 713f 765f 88bd
000001c0: 364b 48be 3c2c 953e 3ab6 25be 5488 09be
000001d0: 814a 563e 8e1a 5940 69ef 0bc0 ffdd 44bd
000001e0: 0072 aebd 2830 543f 7696 503f 7605 ccbf
000001f0: d424 2fbf fb89 a43e 7640 cd3d 0aca 2540
0.43039998 0.024756268 1.1859493 0.015617308 -0.7573064 1.0273852 -0.033364136 -0.45443407
-0.5750054 -0.18949856 -0.12715447 -2.0044332 0.42043063 -0.13786094 2.6718097 -0.016506596
0.23894113 2.5244453 -0.20392554 -0.7404728 0.6254655 -0.20801672 0.018493753 -0.63698936
-1.3038037 0.48782647 -0.6933037 -0.16555919 -0.6844886 -2.5743976 -1.5364633 -0.47865033
-2.1502252 -0.3607609 1.4884632 0.19645098 -0.17442033 -0.08833898 -0.22163276 -0.05757152
0.7356766 0.8652195 -0.13717753 2.4130898 -0.07953508 0.37578952 1.1161005 1.8197926
-0.2833589 0.0072613396 -0.07013532 0.2052709 -1.6547582 -0.12416407 -2.0387938 -0.06977988
-0.6935092 0.70706564 -0.12366069 -0.122395545 0.0076782675 1.005852 -1.0054777 0.210577
-0.25080872 -0.85723084 -1.4598737 -0.03850908 -0.25233585 -0.26226053 0.43582705 -0.09605742
-0.085846625 -0.31801614 -0.8607997 -0.12930632 -0.483645 -0.08857799 -0.09467407 -0.22160825
-0.1357495 -0.04745807 -0.50441223 -0.3505005 0.42945743 -0.13159072 -0.8964437 0.094768845
-0.10750408 0.01077177 -0.08620343 -0.49000913 0.08109549 -1.3321831 1.1949698 0.33500502
1.2587476 -0.1470926 -0.33819735 0.28208902 -0.16252527 0.27585444 -0.18044049 -0.48271427
-0.118811585 -0.17417336 -2.8637145 0.6057624 -0.12075012 -0.065366544 0.9417807 -0.06658833
-0.1955994 0.2913531 -0.16182795 -0.13430911 0.20926858 3.3922458 -2.1864874 -0.048063274
-0.085178375 0.8288598 0.81479585 -1.5939167 -0.6841557 0.3213652 0.100220606 2.5904565

fc4.weight f4 [64, 128]
00000000: a493 9cbe ccc3 023d 1989 913e 55b7 13be
00000010: c51e a9be e9b6 d7be 7c5b 5abd 158b 973e
00000020: 7278 83be 8cd4 29be 76de 573d d92b 22bf
00000030: ba5a c53d 5b92 93bd b5d1 aa3e becf 8bbe
00000040: 6da2 a5be 75eb 7bbf 98be ba3c c5fe 7fbf
00000050: dd42 01bf 6b82 f9bd 60ea a6bc 8415 97be
00000060: e48a ebbd fc3e 84be cca8 f9be 1bea 95bd
00000070: ed1d 073f a8ef de3c e0b7 9ebf bd12 31be
00000080: b758 13bf 69d8 f53c 8fd1 33be e51b d3bd
00000090: 3d12 83be 20da c9b7 38ac ddbe 2a35 0fbe
000000a0: 804c 4abe 2a7e 4b3e 2d78 71bd d096 e6be
000000b0: 99fa 023b 061b 9bbc 4c00 00be d3b1 38be
000000c0: 343d bbbd 784b 28bd aaeb 4dbe cf32 aebd
000000d0: 2537 37bf bb80 87bd 90d4 76bf 5b6d 223e
000000e0: bb48 ad3d 90a6 8dba 9443 213d 1e9a 17bc
000000f0: 8a40 8a3e 76fa e7be e0fe 8fbf 63ed 74be
00000100: c38a 13bd fdb7 903e b081 693e 6fc9 103d
00000110: 79b7 28bc 9ce9 bf3e 0a30 2fbe 2deb ffbc
00000120: d49c 74bd e768 e03d d820 57be 99c4 ad3c
00000130: 419a 783d 1a0b 2a3c 9a51 883d 0d98 b0be
00000140: d0d4 8abd 0552 6a3d ad10 0fbf 6d18 923e
00000150: 1ab5 c13d b926 2e3e b694 50bf 9a92 0a3f
00000160: a2cd 25be a077 10be 89ba 093f f889 37bf
00000170: d721 a73e e385 a7bd 339b 0cbf e392 dcbe
00000180: e176 8cbe 9c09 ffbd d783 cf3d 426e 43be
00000190: c3b8 263c 46c7 08be 3805 a6bb 131c 313d
000001a0: a872 9cbd a040 2c3b a999 4fbf 266b 023d
000001b0: 4524 66bd bb04 2d3e 46a3 1abf d4ea d63b
000001c0: e9f3 ba3c d1ac 8cbe f91b 8fbd e97c 33be
000001d0: 3ab9 fabe b76c 0d3c 6419 3fbe 49c7 833d
000001e0: 3ba1 40bd 7aaa b73d 2459 1e3e 6f5b 14bf
000001f0: 7a41 73bf 0f8a dcbe cc38 733e 1ec3 6fbf
00000200: c0eb 1fbe ef1f bebe c907 0ebe 8f91 0cbd
00000210: 9d0b e2bc 681b e5be 7470 c1bd 22a6 30be
00000220: 0089 103d e09a 1ebe 70ca 433d 4f39 28bf
00000230: e69b 9abd 6d39 d2bd 09e4 2b3e cb8c 6cbc
00000240: 5f5c 49be b381 2bbf 0f98 013e 3f22 9cbf
00000250: 8f4f bbbe fcf0 3bbc 7619 00bd bcaf 2abe
00000260: fc76 f3be ef79 a83d 05af dcbe db80 1bbc
00000270: 26c7 44be 292b 00bd 18a0 9abe 87df 03be
00000280: ec72 d7be 89bc b13d 0a10 05bf 3fc8 483d
00000290: a509 153d f3e5 ae3c 04f6 c2be 06a4 523d
000002a0: a234 febc 6231 51bd a908 993b 5c75 713c
000002b0: b78f b5bd 9aa7 303d 74c1 11bd b75f dbbe
000002c0: beb6 97bd d4fd 8fbc 3d11 41be d1dc b13d
000002d0: 4dc4 26be 78bc 2fbe 871b 9abf 5bc3 dc3b
000002e0: ad81 2dbe 92ea 28be 7146 1d3c 4a38 393a
000002f0: d050 babc 2b8f 7dbf cd5b 553d 4e22 643d
00000300: 1f95 043d efcd 1c3f 0a65 b03a 005c 31bc
00000310: ef1c ffbd 1bba e1bc 610a b1bd 78a5 8f3d
00000320: 023a a3be 1725 093c 3169 a2bc 03bd 25bd
00000330: 0c31 c0be 0ca6 57bc 6905 08bc 8a57 65be
00000340: 3daa d3bd 6c2a 4a3d e8ac acbe e4ae c9bd
00000350: 8cf7 e8be a520 d2bd a23a f63c e680 1b3d
00000360: 339e 09bc d8c0 793c 3809 0fbc aeeb 8a3d
00000370: a605 6fbd 1101 59be 43c1 8ebe 32aa 5f3c
00000380: 2e17 7f3d 531e ad3d be6e 473d b275 013f
00000390: 10cb 1ebe 8d9b 17be 815b 39bd 9fc2 f2bd
000003a0: 7e78 bbbd 93d3 26bd 7365 98bc 9cbd b7bd
000003b0: d602 ce3d 87f1 46bd 8cbc e63c 1508 eebd
000003c0: 2e4f 7bbe bd72 f4bd 6b83 9abd 31c5 1cbe
000003d0: f572 9ebe 1232 383e d076 58bf 7f6c 0abe
000003e0: 007b 94bd 7d7a 84be 628b 09be 57c2 d23b
000003f0: 1a67 3dbe 6559 ccbe 4405 c3bb f125 45bd
-0.3058139 0.031925008 0.2842491 -0.14425404 -0.33031288 -0.42131737 -0.053309903 0.295983
-0.2567783 -0.16584986 0.05270239 -0.63348156 0.09636445 -0.072056495 0.3336312 -0.27306932
-0.32350484 -0.98406154 0.02279596 -0.9999812 -0.5049265 -0.121830784 -0.02037543 -0.29508603
-0.11501101 -0.25829303 -0.48761594 -0.07320043 0.5278004 0.027213886 -1.2399864 -0.17292304
-0.57557243 0.030010419 -0.17560409 -0.10308055 -0.25599852 -2.406264e-05 -0.43295455 -0.13985124
-0.19755745 0.19872347 -0.0589525 -0.45036936 0.0019985794 -0.018933784 -0.12500113 -0.18036585
-0.09142533 -0.041087598 -0.2010943 -0.08505785 -0.7156852 -0.0661635 -0.96418095 0.15862028
0.08461138 -0.0010807086 0.03937109 -0.009253053 0.27002364 -0.45308274 -1.1249657 -0.23918681
-0.036021005 0.28265372 0.22803378 0.035348352 -0.01029765 0.37482917 -0.17108169 -0.03124007
-0.059719875 0.109575085 -0.21008623 0.02121191 0.060693983 0.010378623 0.06656189 -0.34491006
-0.06778872 0.057207126 -0.5588482 0.2853426 0.094583705 0.17006959 -0.81476915 0.54129946
-0.16191724 -0.14108133 0.53800255 -0.716949 0.32643005 -0.08179834 -0.54924315 -0.43080816
-0.27434447 -0.12453005 0.10132568 -0.19085029 0.010175887 -0.13357267 -0.00506654 0.043239664
-0.076390564 0.0026283637 -0.8109384 0.031840466 -0.056186933 0.16896336 -0.60405385 0.0065587554
0.022821384 -0.27475598 -0.06987757 -0.17528118 -0.48969442 0.008631877 -0.1866203 0.06434495
-0.04702876 0.08968063 0.15463692 -0.57952017 -0.95021784 -0.4307408 0.23752135 -0.936571
-0.15617275 -0.37133738 -0.13870157 -0.034318503 -0.027593428 -0.44747472 -0.09445277 -0.17250875
0.035286903 -0.15488768 0.04780048 -0.65712446 -0.075492665 -0.10264859 0.16786207 -0.014437865
-0.19664143 -0.6699478 0.12655662 -1.2197951 -0.36584136 -0.011471029 -0.03127428 -0.166686
-0.47551715 0.08226382 -0.4310228 -0.009491171 -0.19216594 -0.03129116 -0.30200267 -0.12878238
-0.42079866 0.08678538 -0.519776 0.049019095 0.03638615 0.021349883 -0.3807832 0.051425956
-0.031030957 -0.051072486 0.004670222 0.014737453 -0.08865302 0.043128587 -0.035584882 -0.42846462
-0.07407902 -0.01757709 -0.18854232 0.086846955 -0.1628582 -0.17161739 -1.2039651 0.0067371554
-0.16943999 -0.16495731 0.009599314 0.00070655777 -0.022743613 -0.9904658 0.0520895 0.055696778
0.032368775 0.6125173 0.0013457846 -0.010825157 -0.124566905 -0.027554562 -0.08644558 0.070139825
-0.31880194 0.008370659 -0.01982555 -0.04046346 -0.3753742 -0.013162147 -0.008302071 -0.22396675
-0.10335205 0.049356863 -0.33725667 -0.09847811 -0.45501363 -0.10260133 0.030057255 0.037964724
-0.008399534 0.015243731 -0.008730225 0.067832336 -0.058354996 -0.21191813 -0.27881822 0.013651418
0.062277965 0.084530495 0.048689596 0.50570214 -0.1550715 -0.14805432 -0.04525328 -0.11853527
-0.091538414 -0.040729117 -0.018603062 -0.08971712 0.10059135 -0.048570182 0.028166078 -0.11622635
-0.24541923 -0.11935947 -0.07544597 -0.15309598 -0.3094708 0.1798785 -0.84556293 -0.1351795
-0.07250023 -0.258747 -0.13432077 0.0064318585 -0.18496361 -0.39911953 -0.0059515554 -0.048131887

fc4.bias f4 [64]
00000000: aefd dbbe 48ea de3d d1fa 3cbe adb5 30be
00000010: 8bc9 313f 2fd1 87bd d458 c6bf c0f0 753b
00000020: b1b3 08bf 71e3 1abc ad7e 133f bdb3 e140
00000030: 3db3 cf3e 2b02 62be fab6 06be 943d 45be
00000040: 95b4 a5be 5456 4140 3558 95be 2abb 5cbe
00000050: 971e 9cbd ddfb 64bd 0623 263e e640 f2be
00000060: 5d75 99be 76de 023f 223a 74be fd32 88be
00000070: 6707 253f 721e 2bbe b900 ae3f ef17 713e
00000080: ae00 713f fec4 84be bb24 f23e d244 1dbe
00000090: 4747 94ba 42c5 373f 2d95 553e f255 c2bd
000000a0: 4e21 cbbe 8bbb c1be e416 4fbe 1538 0fbd
000000b0: c950 71bd ab12 4dbc 4505 8ebf f827 1240
000000c0: 64d9 1e3e 6c8a 4d3f 71bd c33e 040b 04be
000000d0: a8d4 0bbc c4e1 bbbd d018 1d3e ee56 d5bd
000000e0: 98e6 c33e 77ea 0f3e 9213 38be 26b6 a4be
000000f0: c59d 9abe 2eed 82be 980c b5be b4d4 ac3d
-0.4296698 0.10884529 -0.18455054 -0.17256804 0.69448155 -0.066316955 -1.5495858 0.0037527531
-0.5339919 -0.00945364 0.57615167 7.0531907 0.40566435 -0.2207114 -0.13155738 -0.19261771
-0.32364336 3.020894 -0.2916886 -0.21555772 -0.07623022 -0.055904258 0.16224298 -0.4731514
-0.29972354 0.511207 -0.23850301 -0.266014 0.6446442 -0.16710833 1.359397 0.23544286
0.9414166 -0.25931543 0.47293648 -0.15358284 -0.0011312746 0.71785367 0.20857687 -0.09489049
-0.39673847 -0.37838396 -0.20223576 -0.034965593 -0.058914933 -0.012516658 -1.1095358 2.2836895
0.15512615 0.8028934 0.3823047 -0.12894827 -0.008534588 -0.09173921 0.15341496 -0.10416971
0.38261867 0.14054285 -0.17976215 -0.32170218 -0.30198494 -0.2557158 -0.3536117 0.084390074

fc5.weight f4 [4, 64]
00000000: a6ef 703e 6892 1e3f 4612 143d 356a 0cbe
00000010: 26e6 103e 6b5d 193f afe9 d33e 6d63 ea3e
00000020: 9b62 093e 431e 893e 674b c33c 14c8 9a3e
00000030: c7ad 49bd 15c3 5cbc abea bc3e e805 ce3e
00000040: 746c 6dbd d32e 7dbe 8933 f7bc b425 e03b
00000050: c558 1fbd c325 903e 7377 a73e 03d7 c63d
00000060: a147 0b3c 7229 753e 9ee4 5f3e 84a8 d03e
00000070: 2cd1 453d 7953 643e 37fa 1e3e 891e 2c3e
00000080: c16a d33d 5b05 253e 51a2 113f ab1c 343d
00000090: f31f 77bd 0bef b03e 16ae 693e 72d2 97bc
000000a0: 103a 02bd 4e65 623e 4aa6 3b3c 6891 8d3e
000000b0: fcfc 41bc d719 923e a021 183f fe67 3cbe
000000c0: ef75 a4be 0585 c93e 2b90 e03e 53f4 fe3e
000000d0: c50c 5cbe eab7 4d3e 0db0 6c3e e87e 063f
000000e0: 98f8 fe3e a964 393e 53bc b0bc 467f 943d
000000f0: 3919 4b3d a6be 2b3c 96b3 ca3e 033f 163f
00000100: aca1 7e3e 94ed 133f b704 f73b 5964 963d
00000110: 6946 1e3e 72ec c73e e1c4 a33e 4b3f 883e
00000120: 0e30 033c 3f4c ba3d 7dc7 e13d 435a 9e3e
00000130: c8f6 48be 7319 583c fe0b 8e3e 95a4 a13e
00000140: a479 c6bd b343 84be e4bb 15bd d427 9fbc
00000150: 0952 d23c 6bdf f43e 1625 803e c77f 573d
00000160: 877c 1d3c 53a4 d83d ba57 40bd 0b6c ee3e
00000170: 8930 9a3e d3cb c13e 4fae 8d3e a3a8 3d3e
00000180: 5430 ac3e b834 45be 5046 413f da4d ffbd
00000190: 7a6a 713d ed93 b83e eb85 6b3e 047e d53b
000001a0: bb4d 943d d65f 323f 07a8 8abb 83a3 113f
000001b0: d0e9 e03c 93c8 ac3e a2fc 133f c92c fdbc
000001c0: b100 6a3e d973 bc3e e095 e73e 7de5 a63e
000001d0: a496 1bbb a04f 013e fedb 5c3e 7dcd 033f
000001e0: fb90 f23e e273 eb3c fb31 043d fad0 23bb
000001f0: 9427 c5bd e47a c6bb 7ed7 4d3e 23a0 083f
00000200: 2ee4 aa3e 793e 083f e511 4e3d 543d b13d
00000210: 9376 463e 1a4a 0e3f c085 e63e 2332 023f
00000220: ad85 323d 8cba 5c3e c155 ce3e 1b6d 983e
00000230: f32c 2139 8bbd e83c 3f28 f63e c053 c53e
00000240: 592b e3bb 44dd 84be 34fd e83d 7097 f7bb
00000250: 4af5 a33c 7512 863e 0176 ce3e 9c8c 3c3e
00000260: fe28 a4bb 9b31 913e 2b59 7dbb d12e bf3e
00000270: 4ae5 5f3e 3ee9 ee3d 8d57 6e3e 856d e2bc
00000280: 8094 9fbe 2be6 2f3c 8164 e43e 3622 32bc
00000290: 6518 ad3d f27c b03e 106a 5d3e 8bd7 e83d
000002a0: 63d1 f43d c8b0 2f3c 211d 41bc 3c34 113f
000002b0: 032f 57be e457 bd3e db0f b13e dcb1 95be
000002c0: ad6a 613e ceec 043f 82c1 f23e 1d9a 163e
000002d0: 0aa3 83bc b65b c13e 2338 a13e 6d65 d93e
000002e0: 6597 b93e fd8b 873d 3b13 b23c 6ea0 723e
000002f0: 5ddf b53d 70a4 8b3c 4616 af3e 59fb 0d3f
00000300: 477e 1e3e 554b 1f3f 26c1 233d 104f 13be
00000310: 4f8e db3d e2cc d63e 974d ab3e 4791 4a3e
00000320: 89a0 c9bd 212f 813e 2690 2e3e 3827 9b3e
00000330: 7555 03bf 1ca5 2c3d 0c4d 213f 2352 8e3e
00000340: ae2c 253d 20b9 90be 9eab f53c 494e c8bb
00000350: b16f 78bc a052 003f 14bb d33e 6969 2f3e
00000360: 5d3b 91bc b6a1 e13c 36d1 2dbd 956a da3e
00000370: 9e46 eb3e a2cb 1ebe c1f9 55bd 8ae4 1f3e
00000380: bd46 e43d 5375 a63d af97 2b3f 009f c2bd
00000390: 9f1f d93c 1cb5 b83e 79e6 373e 0ea2 d2bc
000003a0: 1bb8 80be 1b75 37bd d428 fd3c cfc6 333e
000003b0: f840 e23d 6dbe 033e 2914 c43e 71f5 36be
000003c0: 8ed9 f33c d81c d43e a364 cf3e d23d 69be
000003d0: 576e 9bbc 225b 9e3d 5bb3 703e 44e7 0b3f
000003e0: fa08 013f ab1e 443e 2936 253c d624 a7bc
000003f0: 9794 b33d 03cc b93b c375 2b3e caaa a93e
0.23528919 0.6194215 0.03615024 -0.1371239 0.14150295 0.5990817 0.41389224 0.4577898
0.13416521 0.267809 0.023839666 0.30230772 -0.049237993 -0.013474246 0.36897787 0.4023888
-0.057964757 -0.24724893 -0.030175941 0.006840432 -0.038903017 0.2815381 0.3270832 0.09708979
0.008500964 0.23941591 0.21864554 0.40753567 0.048295185 0.22297467 0.15525137 0.16808523
0.10323096 0.16115324 0.568883 0.043972652 -0.060333204 0.34557375 0.22820315 -0.018532965
-0.031793654 0.22108957 0.011453221 0.2765 -0.011840101 0.2853534 0.5942631 -0.18399045
-0.32121226 0.39359298 0.4385999 0.4979578 -0.21489246 0.20089689 0.23114033 0.52537394
0.49799037 0.18104805 -0.021574175 0.07250838 0.0495846 0.010482466 0.39590138 0.586899
0.2486636 0.5778439 0.007538404 0.073433585 0.15456547 0.3904758 0.31986144 0.2661079
0.008007063 0.09096574 0.110243775 0.3092824 -0.1962539 0.013189661 0.27743524 0.3157088
-0.0969117 -0.258329 -0.03655614 -0.019428171 0.025673883 0.47826704 0.25028294 0.052612092
0.009612209 0.10578217 -0.046958663 0.46566805 0.30115154 0.37850818 0.2767205 0.18521361
0.3363062 -0.19258392 0.75497913 -0.12466021 0.058939435 0.36050358 0.23000304 0.0065152664
0.072413884 0.69677484 -0.004231456 0.56890124 0.02745524 0.33746776 0.5780736 -0.030905144
0.22851826 0.36807135 0.45231533 0.3259696 -0.0023740912 0.12628031 0.21568295 0.51485425
0.47376236 0.02874178 0.032274228 -0.0024996386 -0.096266896 -0.00605713 0.20101735 0.5336935
0.33377212 0.53220326 0.050310034 0.086542755 0.1938117 0.5558182 0.45023918 0.5085775
0.043584514 0.21555537 0.402998 0.2977074 0.00015370901 0.028410694 0.4807758 0.3854046
-0.0069326577 -0.25950062 0.1137642 -0.0075558946 0.020014424 0.26185957 0.40324405 0.18413013
-0.0050097695 0.28358158 -0.0038657885 0.37340406 0.2186481 0.11665581 0.23275585 -0.027640114
-0.31167984 0.010736029 0.44607928 -0.010872414 0.084519185 0.34470326 0.21622491 0.113692366
0.11954 0.0107233 -0.01178673 0.5672033 -0.21014027 0.36981118 0.3458241 -0.29237258
0.2201335 0.51923835 0.4741326 0.14707227 -0.016068954 0.37765282 0.3148814 0.42460194
0.36248317 0.066184975 0.021737685 0.23694012 0.08880494 0.017046183 0.3419668 0.5546165
0.15477858 0.6222432 0.039979123 -0.14385629 0.107205026 0.41953188 0.33457634 0.19781981
-0.09845073 0.2523127 0.17047176 0.3030336 -0.5130227 0.042149648 0.6300819 0.2779704
0.040325813 -0.2826624 0.02998906 -0.006112848 -0.015163348 0.50126076 0.41353667 0.17130055
-0.017728502 0.02754293 -0.042435847 0.4265944 0.45952314 -0.15507367 -0.052240137 0.15614524
0.11146305 0.081278466 0.67028326 -0.09502983 0.026504336 0.36075675 0.17959012 -0.02571204
-0.2514046 -0.044789415 0.030903257 0.17556308 0.11047548 0.1286561 0.3829663 -0.17867066
0.029766824 0.41428256 0.40506467 -0.22777489 -0.018973513 0.07732226 0.23505919 0.5464976
0.5040432 0.19152324 0.010083714 -0.020403307 0.08768576 0.005670072 0.16744141 0.33138114

fc5.bias f4 [4]
00000000: 5199 dbc1 4a2b e5c1 3dd7 d7c1 bce5 d9c1
-27.449862 -28.646137 -26.980097 -27.237175
