model/DQN/_Player_dqnAgent_model_epoch_1000.pth (torch_old, 489705 bytes, 10 tensors)

fc1.weight f4 [256, 57]
00000000: 4b81 3c3f 60e1 7b3a 7ee1 223e 8015 f93e
00000010: 0fb0 5d3e 58a8 abbc e426 e53e 577b c0be
00000020: b2ed 8a3f 5b31 55bd 82ab 9a3f d37b 413e
00000030: 1aa4 473e 4311 c0be 6112 65be 0b76 063e
00000040: 7af6 b7be b6f6 573e 518d 85bf afec 21bf
00000050: 6660 9ebe 1df1 40be c5a5 fcbd 2005 1cc0
00000060: c306 e5be a828 cc3d f4de cebe 9935 e8bc
00000070: 68c5 aabd e9d8 04bf 427a 53bd 35ed 24be
00000080: 6a90 0fbe 0ab2 22bf 59bf c1bd 36ad 36be
00000090: 56e1 26bf 0dee e43d 1016 723d 4b2c 8f3f
000000a0: 6042 e43b 9296 8bbe e1c6 783e 4a46 35bf
000000b0: 002d 54bf 36df 9fbe 1e39 00bf c2b2 463f
000000c0: bc96 89be fbd6 16bf f209 92bd c186 8c3f
000000d0: e128 08bf 7dc0 1f3e aacf 90bc b194 29bf
000000e0: d8f8 c63d 20b2 d6be 6eaa c63e c061 9cbe
000000f0: 10db 833e 975c 833e 3805 01be f3f1 db3e
00000100: 187d c43c c477 e53e f555 173e f4de 4abe
00000110: 45e8 06be 90c4 69bf e4b8 e7be 141e eebe
00000120: 6d38 e7bd a8b4 1abe 5f43 8e3a 1ce3 ae3e
00000130: 810c 723a a420 a1bd 73b1 e93d 1d14 38bf
00000140: 7d44 753e 94dd a23f f86e 303e 9ae9 1dbf
00000150: fa93 693e e8c9 b6bc efaf 20bf 9c58 78bd
00000160: ef42 423e 5f4d a6bc 64b1 e6be b5ee acbe
00000170: 63a6 1c3e 5e32 e6be c52c 09bf e0f7 afbd
00000180: f591 823e 981a e33c aaaf 3ebf 28f3 b3bf
00000190: 6fe7 bbbe 3b51 4dbd 211c 00bf c762 06bf
000001a0: ecbc afbf 0782 383f ed62 17bf 620c 88bf
000001b0: edb0 183e 5a85 f1be a747 30bf f5dd dabe
000001c0: 3b7c 12bf d7e5 ad3d ba05 943d 9f6b 9ebf
000001d0: 232e 89be 9c40 12bf d142 893e c067 233f
000001e0: d07e 383f 0013 0f3e c869 30bd 3ba6 b7be
000001f0: 840b 853f 8f34 8f3d 0907 bd3e 095a 0dbf
00000200: 4169 ac3e e4ff 103e eade ba3e af98 37be
00000210: e40f 8e3e 994e e5be 90f7 6fbe 9195 19bf
00000220: d27d 4abf 3712 2cc0 f617 3abf 2579 b9bd
00000230: 0635 40be 7a6f 25bd 5ec5 003e 2912 2fbd
00000240: b7ae f3bd 85b2 aebf f445 d13d abfd afbe
00000250: a4c2 753e 8e4e b7bd 9f03 efbe 0ab4 463e
00000260: e416 dcbc 7015 54be 16a8 923d c7fc ccbe
00000270: 5992 643f a151 e6be 0591 42bd da0e 51be
00000280: f14f bebe 6b57 393f 9bb2 3c3f a9ce ebbe
00000290: 827e c1be 6033 833f c90e d0be 97cf 5c3f
000002a0: 5fb1 413e 37d3 b5be b969 e2be 7b81 aabf
000002b0: bca5 6bbe a92a 7dbd 5ae6 043e bc2f 14bf
000002c0: 134d 10bd 0921 98bf e71b 003e 3f02 dabf
000002d0: 5972 3dbe 01b8 7cbf da15 d33e 7a57 54bf
000002e0: 0ec2 e6bc 3907 04bf 60a0 bfbc 7164 67be
000002f0: ef14 99bc 1ec6 fe3c 8bca 913e ae66 b4be
00000300: e280 26bf 4698 03bf 8549 d2bf 39aa 98bf
00000310: 1638 56bf 01ad c8be aefd eebf 0062 3dbb
00000320: c054 9e3f f8dc ae3d 6aca 843d 01d7 1a3e
00000330: 0214 0cbf e920 623e 3b33 473e 5294 b7be
00000340: 8f3d 343e 8065 893c 47c5 1cbf e87e d6bc
00000350: cc81 c33e 6a1f a83d 57ba f0be 4ad3 a7be
00000360: c30c 8d3e 46e6 09bf 0e43 2b3e 4ec6 6cbe
00000370: 331f f5be 08df 483d 957e f03d b754 eebe
00000380: 2c98 49be fa73 053d ec47 10bf 9d21 013f
00000390: 3fce 5d3e c986 fbbe 3d87 853f 5f54 16bf
000003a0: 1b50 3b3f d161 1fbf 6210 ca3e 3c73 02bf
000003b0: 8243 6e3f b57d b9be 1941 a7bc e350 50bf
000003c0: 849e f53e d70d 42bf 65f3 463e 8dc9 5bbe
000003d0: f2e2 203f 2c13 a5be 31d2 c3bc b3b8 26bf
000003e0: 4bfb 3b3e 6c84 c5be 0243 81bf 3d60 1540
000003f0: 7758 80bf e7fe aabd fb08 09bf 1f75 37bf
0.73634785 0.00096084736 0.15906331 0.48649216 0.21649192 -0.020954296 0.44756234 -0.375941
1.0853789 -0.052049022 1.208359 0.18894891 0.19496194 -0.3751317 -0.22370292 0.13130967
-0.35930234 0.21090207 -1.0433751 -0.63251776 -0.3093292 -0.18841977 -0.123363055 -2.4378128
-0.4473172 0.09968692 -0.40404475 -0.02834587 -0.083384335 -0.5189348 -0.051630266 -0.16106112
-0.14019933 -0.63552916 -0.09460325 -0.17839512 -0.65187585 0.11178217 0.05910307 1.1185392
0.0069659203 -0.27263314 0.24294616 -0.7081038 -0.82881165 -0.31224984 -0.50087154 0.7761651
-0.26872814 -0.58921784 -0.07130803 1.0978624 -0.53187376 0.15600772 -0.017677147 -0.6624251
0.09715432 -0.41932774 0.38801903 -0.30543327 0.2575307 0.25656578 -0.12599647 0.4295803
0.02398543 0.44817936 0.14778884 -0.19811612 -0.13174541 -0.91315556 -0.45258248 -0.46507323
-0.11290059 -0.15107977 0.0010853818 0.34157646 0.00092334306 -0.07867554 0.11410799 -0.7190569
0.23951907 1.272387 0.17229831 -0.6168457 0.22810355 -0.022313073 -0.62768453 -0.06063138
0.18970846 -0.020300565 -0.45057213 -0.3377587 0.15297846 -0.44960302 -0.5358394 -0.085922
0.2550198 0.027722642 -0.7448679 -1.405858 -0.36700007 -0.050126296 -0.5004292 -0.5249447
-1.3729529 0.72073406 -0.59135324 -1.0628779 0.14911242 -0.47172052 -0.6885933 -0.42747465
-0.5722081 0.08491104 0.07227655 -1.2376593 -0.26793012 -0.57129836 0.2680879 0.63830185
0.720685 0.13972092 -0.04306963 -0.3586901 1.0394139 0.06992447 0.3691943 -0.5521551
0.33674052 0.14160115 0.36498195 -0.17929338 0.277465 -0.44786528 -0.23434281 -0.59993845
-0.79098237 -2.6886117 -0.7269281 -0.090563096 -0.18770227 -0.040389515 0.1257529 -0.04274193
-0.118985586 -1.364823 0.102184206 -0.3437322 0.24000031 -0.0895053 -0.4668245 0.19404617
-0.026866384 -0.20711303 0.07160966 -0.40036604 0.8928581 -0.44984153 -0.047501583 -0.20415822
-0.37170365 0.72399014 0.7371003 -0.46056107 -0.3779183 1.0250053 -0.4063628 0.86254257
0.18915318 -0.35512707 -0.44221285 -1.3320764 -0.23012441 -0.061808262 0.12978497 -0.57885337
-0.035229754 -1.1885082 0.12510644 -1.7031935 -0.18500651 -0.9871827 0.4122761 -0.8294598
-0.028168704 -0.5157352 -0.023391902 -0.22596909 -0.01868674 0.031100329 0.2847484 -0.35234588
-0.6504041 -0.51404226 -1.6428686 -1.1926948 -0.8367933 -0.39194492 -1.8671167 -0.0028897524
1.2369614 0.0853824 0.0648392 0.1512108 -0.5471803 0.22082867 0.19453137 -0.35855347
0.17601608 0.016772032 -0.6123852 -0.02618356 0.38184965 0.08209117 -0.47017166 -0.32778388
0.275488 -0.53866994 0.16724798 -0.23122522 -0.47875366 0.049040824 0.117428936 -0.46549007
-0.19686955 0.032581307 -0.56359744 0.50441915 0.21660708 -0.4912627 1.0431896 -0.5872249
0.73169106 -0.6225863 0.39465624 -0.50957084 0.9307176 -0.3622872 -0.020416783 -0.81373423
0.479725 -0.7580237 0.19428785 -0.21463604 0.6284629 -0.3224119 -0.023903938 -0.6512558
0.1835758 -0.38577592 -1.0098574 2.333999 -1.0026997 -0.083494 -0.5352933 -0.7166309

fc1.bias f4 [256]
00000000: 334d 19bf 548c d0be 4316 a1be 26e7 11bf
00000010: 62d0 dbbe dc8e 043e 4881 ac3d ad86 9f3e
00000020: 0110 913d ea00 eabc a197 a33d 372b 2abd
00000030: 9a75 89bd 1a5e d53c 9e39 5b3e 9104 6a3d
00000040: c013 8dbc cc33 e2bb 5755 bcbe 0621 d4be
00000050: 896b 1dbf 59f7 84be f015 0abf 7b54 6c3b
00000060: ef27 e73c c102 78be c4f3 37be 99aa 933e
00000070: 5cca 9abe b4c3 cfbe 0571 343d 6e2a 01bf
00000080: 7054 63bf 831c b2be 0098 35be 8334 0b3e
00000090: b4b0 033e 8444 e9be 551f 13bf 6a47 9abe
000000a0: cecb b1bc bab2 febe 52e1 9e3e cbcf 593e
000000b0: a886 1e3e f85a a1be b10d 43bf 8fa7 3cbd
000000c0: fa4e 023e 768f e3be 0476 87be ecb1 e7be
000000d0: bf67 8dbe 1aa7 e1be 9d00 fbbd 128a 863d
000000e0: 9a2b 983e 7a14 be3c baab e3be d386 e8be
000000f0: 822c 58be e851 08bf 0c0d f33d b554 9bbe
00000100: 3147 e83e 4574 d6be 3d38 60be 8452 353e
00000110: dfb7 563c 4255 ed3d 6737 13be aa31 10bf
00000120: 39c3 01bf 1a8b 18be 1435 77bf f8db 79be
00000130: d120 ffbd 266f 873e f50c b1be 72c3 53bd
00000140: f327 6fbe 466c cebe eebc 6bba ea7d 9b3e
00000150: 98f1 eebe a786 60bf 6e6e 2cbf 3e2a ccbd
00000160: db5b 18be 3714 babe 5c99 48be 5b23 9cbe
00000170: 46fc 583e 5993 05bf 508a 33bf be04 17bd
00000180: df4b f8be 818b 1f3e 9f90 063e b57d 33be
00000190: bfd9 04bf b7ce 263d 6d6d c4be 50f5 a53d
000001a0: 6a13 febe 7b67 3cbd 40d1 a73e ade5 4dbe
000001b0: 5948 a3be a169 b5bd 8cfe 36be 78ce 2ebe
000001c0: 555d 05bd 1cea a8bd cb2c 10bf 9952 34bf
000001d0: f126 19bf aa2e 04be 9347 8abe 2115 5ebf
000001e0: e89c 1dbb acb3 78be 0a41 333d 82d3 733d
000001f0: 284b 44be ff2b 81be d8ec 90be b092 34bf
00000200: ccb5 73bd a524 81be 2aad 0ebe c1bd 643e
00000210: 90b3 cb3d 2476 13bf 0368 67be 5c64 e43d
00000220: 1f62 d1be 77f2 a4be 015a 63bd 737d 0ebe
00000230: 7077 9b3e b012 643f 23bc 0bbf 07a1 febe
00000240: 89b0 493f 8912 c8be 3c5e efbe 489c dfbe
00000250: 9c18 223d d5a5 71be 200a 4bbe 7d10 12bf
00000260: 1748 0d3d 645b 4a3f 2ef6 8dbe 01c1 36bf
00000270: 57be cbbe 701a 72bf 65c7 3fbf cb78 f7bc
00000280: cfa0 35bd 5d20 01be 9679 2a3e 9911 a4be
00000290: c596 a7bd cf84 a0be 70a2 c0be de41 25bf
000002a0: 2b6c 8fbe dc8d 59bf 200c 523d 173b bdbe
000002b0: c3b4 5c3d 3e8e 9a3b 52ee debe d591 9ebe
000002c0: 6f3e 0bbe afb8 763e c961 43be a1d2 dfbe
000002d0: 9f9b db3e 7ed5 aebe 58cb 95be 5456 65be
000002e0: 45b3 8b3e efaa 753c 4dc8 683e 4349 99be
000002f0: 018a 13be 4bcc e83d db71 483f c88f aabe
00000300: a8d7 cbbe e9cd 91be 4b27 d6be cd9c e2bd
00000310: 63f8 05be de41 3f3f 1fa8 f9be 7e52 00bf
00000320: cb19 c63c ffe4 9fbe 0fb1 a1be 2bf2 b2bd
00000330: a32e 36be b913 95be 5633 44bf 0a1a 133d
00000340: d804 2bbf 4e04 3abf 1628 aebe 4f6b 28bf
00000350: 1a2a 42bf fcfb 26be 835b 05bf 5993 dbbe
00000360: 7767 39bf 667b 9ebe 4e05 89be 3ea2 a0bd
00000370: 18d7 88be 8991 00bf 38b4 e1be 080e a2be
00000380: 3a81 b43e a075 f6be 2744 40bf 6919 04be
00000390: f054 e4ba eeee 34bf 7c01 2c3e 7f58 df3e
000003a0: 5454 5b3e d66b 0abf 99ab c03e a97c d0bc
000003b0: 91f4 04bf 7aa8 cebe 1530 92be 3123 3fbe
000003c0: 9bf6 823f 24b7 003e 25cd 8a3e ea14 c1be
000003d0: 2621 fa3c 6833 0cbf 2998 883e 167c c1ba
000003e0: 3a24 3d3e 6cf5 04bf 7737 c4be 864f 313e
000003f0: 03c7 adbe d54a fa3d 973e b13c 82a5 adbe
-0.5988342 -0.40732062 -0.31462297 -0.5699333 -0.4293242 0.12945122 0.08423096 0.31157437
0.07083131 -0.028564889 0.07987905 -0.04154512 -0.06711884 0.026045848 0.21408698 0.05713326
-0.017221332 -0.0069031473 -0.3678386 -0.41431445 -0.6149221 -0.2596996 -0.53939724 0.0036061096
0.028217284 -0.242198 -0.17964083 0.28841093 -0.30232513 -0.40578997 0.044053096 -0.5045537
-0.88800716 -0.34787378 -0.17733765 0.1359425 0.12860376 -0.45560086 -0.57469684 -0.3013261
-0.021703627 -0.49745733 0.3103128 0.21270673 0.15481055 -0.31514716 -0.76192766 -0.046058234
0.1272544 -0.4444539 -0.26457226 -0.4525293 -0.27618214 -0.440728 -0.12255976 0.065693036
0.29720765 0.023203123 -0.44466954 -0.45415363 -0.21110728 -0.5324998 0.11867723 -0.30338064
0.45366815 -0.41885582 -0.21896453 0.17707258 0.013105362 0.11588527 -0.14376603 -0.5632578
-0.5068851 -0.14896813 -0.96565366 -0.24400318 -0.12457431 0.26451987 -0.34580198 -0.051700063
-0.23355083 -0.4031698 -0.00089926913 0.30369502 -0.46668696 -0.87705463 -0.67356 -0.099689946
-0.1487879 -0.36343548 -0.19589752 -0.30495724 0.21189985 -0.5217796 -0.70132923 -0.036869757
-0.48495385 0.1558056 0.13141106 -0.17528422 -0.51894754 0.040724482 -0.38364735 0.0810343
-0.49624187 -0.045997124 0.32776833 -0.20107146 -0.31891134 -0.08858038 -0.1787054 -0.17070949
-0.03255971 -0.08247778 -0.5631835 -0.70438534 -0.59825045 -0.12908426 -0.27007732 -0.8675099
-0.0024049822 -0.2428729 0.043763198 0.05952788 -0.19169295 -0.2522888 -0.28305697 -0.7053633
-0.059499547 -0.2522327 -0.13933244 0.2233801 0.09946358 -0.57602143 -0.22598271 0.111519545
-0.40895173 -0.32216236 -0.055505756 -0.13915043 0.3036456 0.89091015 -0.5458395 -0.4973223
0.78784996 -0.3907664 -0.46751583 -0.4367392 0.03957425 -0.23598416 -0.19828081 -0.5705641
0.03449258 0.790457 -0.27726883 -0.7138825 -0.39793655 -0.9457159 -0.74913627 -0.030208966
-0.044342812 -0.12610002 0.16647944 -0.32044676 -0.08183054 -0.31351325 -0.3762393 -0.6455363
-0.28012213 -0.84982085 0.051281095 -0.36959144 0.053883325 0.0047166636 -0.435412 -0.30970636
-0.13598035 0.24093889 -0.19080271 -0.43715385 0.42892167 -0.34147257 -0.292567 -0.22396213
0.2728521 0.014994367 0.22732659 -0.29938707 -0.14408113 0.11367091 0.7829873 -0.3331282
-0.3981297 -0.2847741 -0.41826853 -0.110650636 -0.13083033 0.7470988 -0.4876108 -0.50125873
0.02418222 -0.31229398 -0.31580397 -0.08737596 -0.17791228 -0.2911661 -0.7664083 0.035913505
-0.66804266 -0.7266282 -0.34014958 -0.6578874 -0.7584549 -0.16307062 -0.5209276 -0.42885855
-0.724235 -0.3095352 -0.2676186 -0.07843445 -0.26726604 -0.5022207 -0.44082808 -0.3165133
0.35254842 -0.48136616 -0.7510399 -0.12900318 -0.0017420333 -0.7067708 0.16797441 0.43622205
0.21418887 -0.54070795 0.3763092 -0.025450068 -0.5193568 -0.40362912 -0.2855231 -0.18665768
1.0231508 0.12569863 0.27109638 -0.3771127 0.030533385 -0.5476594 0.2667859 -0.0014761712
0.1847085 -0.51936984 -0.38323566 0.17315492 -0.33940896 0.12221304 0.02163629 -0.33915335

fc2.weight f4 [256, 256]
00000000: ca2c babd d705 f7bd 63c2 ce3c 969d 57bd
00000010: cc14 333d 3759 aebc 38b1 25bd 9863 6abc
00000020: 1539 043d bd86 22be 3d63 4dbd 8473 6bbd
00000030: e96e 51bc f703 afbc d82f 183c c1b9 203d
00000040: cc29 80bd c5c6 b73b cfb2 08bc d0cf a8bd
00000050: c320 a6bd a490 67bd 5862 9dbd 9160 bbbc
00000060: 4811 fbbd 92d0 26bd 3477 d63c ca1d 3fbc
00000070: f39c 103d 659e 6b3c 8dd2 83bd 8b67 ecbc
00000080: 1e02 c5bc bbb2 d23c 1ce6 5e3d 5043 3f3c
00000090: 2073 383c 7eb9 2eb9 9263 bcbc 1df2 d6bc
000000a0: 2ab0 993b 31e8 9ebd d949 0d3c b803 a2ba
000000b0: 01eb 00be b82f 88bd 18c7 27bd 069f 56bd
000000c0: f514 153d 131d a8bd f76f f03c 7516 153d
000000d0: 1ea7 193c 0967 6dbd 0152 5e3d ef0a fdbd
000000e0: cc36 643d c53c b73d 1577 3ebe 6288 44bc
000000f0: 822f b639 2bc0 0c3c 3a3b 94bc c0ec 25bd
00000100: 6d60 6bbc 0829 2a3c 9f07 c53b 51f3 abbd
00000110: eadb 87bd ed8c 7abc 0aa8 12bc 6001 7c3d
00000120: 9fa2 6ebd 30e1 c8bc e8a1 f6bd 08d2 0f3c
00000130: 9efe 33bd 1ada 70bc 2ed1 d63c 6578 243d
00000140: b6a3 0cbd cd0b 8abc 2c1d f3bc 8740 dbbd
00000150: a089 903d eb63 2c3d 9eef 60bd 8b21 bebd
00000160: 54d1 a0bc e8b8 7bbd b814 ce3c 8010 abbd
00000170: 5d0c c9bb 757a ecbc 4cd7 87bd 93e4 95bd
00000180: fba9 8abd 38da 4a3c 7d91 97bd 4b12 bbbd
00000190: 88bc 49bc 0149 44bc 4657 f8bd fe7a 3e3d
000001a0: f6fc 103b 6fd0 96bd 1bdb 9b3b bb77 3a3c
000001b0: cee6 48bd 2a5d fe3c 4134 28bc bc8f 89bd
000001c0: 167f 34bb bd3c 013d 9dc6 b5bc ed46 1dbd
000001d0: 4c07 ac3c 27ad bbbc 5bcf a9bd a73b 33bd
000001e0: cade 223c 4351 96bd 3842 d4bd 64f8 2abd
000001f0: 7a2f 3f3d c678 ab3c 6671 2cbd 338f c03c
00000200: d5cb d5bd 33a8 833d a3e7 46bd 75ed 99bc
00000210: 2bab 86bd 2621 57bd b2a3 1abd e8d9 88bc
00000220: b216 403d 2260 3abd 4595 1c3a 43be 94bd
00000230: 928c 8ebc f360 99bd 95eb 2ebd de52 e0bc
00000240: dc68 13be c84d 5fbd e7eb 40bd 67af eebc
00000250: 910d 7dbd 966b 493c 313f 18bd 0984 f03c
00000260: c0d6 dcbc 6571 3dbd 51e6 123d 067b a0bd
00000270: 28cf 4abd 9c62 89bd bd10 43bd a24e a2bc
00000280: 5a69 18bd 1527 febb 68ea 6cbd b057 a3bc
00000290: fbc3 0fbe 39e5 0fbe e0a4 7c3d b5f8 9dbb
000002a0: b366 59bd 6bde c63c 8144 3fbd 2274 8dbd
000002b0: 5a80 5f3c 0957 d83c 78e5 d1bc 2f63 7dba
000002c0: 4edb bcbd a6cb 61bd 9be4 c5bc 0862 0a3d
000002d0: e487 d9bd cea8 91bc 07de 723c ffa7 e3bb
000002e0: c6ce 693d 20e9 00bc aed6 7abd 9e05 8abc
000002f0: 663b 0ebd d6be c03c 36a5 01be 246a 223d
00000300: 7a65 24bc d3ac 1fbe 62c4 033d bd89 2b3d
00000310: 6767 62bd 6060 183c 8ec9 e1bd a882 a1bd
00000320: eec6 ad3b 89f6 44bd 91d5 83bd 50ee a2bc
00000330: 793b 75bb 5627 323d fa2b 723d 7c29 5b3c
00000340: ace3 51bd 98eb 323d 657a 85bd ad90 59bd
00000350: bd0b fe3c 9386 82bd f4e3 dbbb 1f6a 7abd
00000360: 799c 34bd efb4 8abc 70d3 9abc dfe5 583d
00000370: 7989 963d e043 fa3b 30bc c23b 2a80 463d
00000380: 7369 9d38 9a4a 7bbc b376 00bd 3aeb 01bd
00000390: 3e0a 0dbd c198 79bc d7e9 07be 600b aebc
000003a0: f498 6f3c 07b2 7ebd 7576 93bd cdb5 1bbd
000003b0: 75c6 72bd 398d a73c 58ac 0e3d 6974 62bd
000003c0: 22a2 febc 064d 56bd 5016 33bd 3202 74bd
000003d0: 7d34 bcbc d4ba 47bd 8497 c73c 78a4 b7bc
000003e0: b170 42bd c762 3bbd 72a1 bb3c 6cca 86bd
000003f0: d006 3fbc b4e8 613c 90b7 cbbd 55f4 acbc
-0.09090574 -0.12061661 0.025239175 -0.05264052 0.043721005 -0.021282775 -0.040452212 -0.014305972
0.032281 -0.15871711 -0.05014347 -0.05748321 -0.012782791 -0.021364195 0.009288751 0.03923965
-0.06257972 0.005608412 -0.008343413 -0.08242762 -0.081117176 -0.056534424 -0.07684773 -0.022873195
-0.122591555 -0.040726252 0.026179887 -0.011664817 0.03530593 0.014381026 -0.06436644 -0.028857967
-0.024048861 0.025719991 0.05441867 0.011673763 0.011257917 -0.00016663034 -0.022996698 -0.026238495
0.00469019 -0.07759131 0.008623564 -0.0012360727 -0.12589647 -0.06649727 -0.040961355 -0.05239775
0.03639694 -0.082086705 0.029350264 0.03639837 0.009378223 -0.05795959 0.054277424 -0.12355601
0.05571632 0.08947138 -0.18600114 -0.011995407 0.0003474914 0.008590738 -0.018094648 -0.040508986
-0.014366251 0.010385759 0.0060128714 -0.08396018 -0.06633742 -0.015292388 -0.008951196 0.06152475
-0.058260556 -0.02452144 -0.120426 0.008778103 -0.043943994 -0.014700437 0.026222792 0.04015388
-0.034335814 -0.01685133 -0.029676996 -0.10705667 0.070575 0.042087477 -0.054916017 -0.092837416
-0.019631065 -0.061455637 0.025156364 -0.083527565 -0.006135507 -0.028866986 -0.066328615 -0.07318988
-0.067707025 0.012381129 -0.074007966 -0.091343485 -0.012313016 -0.011980296 -0.12126021 0.046504013
0.0022123433 -0.07363974 0.004756344 0.011381085 -0.049048238 0.031050283 -0.010266365 -0.06716868
-0.002754157 0.031552065 -0.022189433 -0.03839772 0.020999573 -0.022909714 -0.08291503 -0.04375806
0.009940812 -0.07339718 -0.10364193 -0.04174079 0.046676137 0.020931613 -0.042100333 0.023505783
-0.104392685 0.06428566 -0.04856075 -0.018789986 -0.065756164 -0.052521847 -0.03775377 -0.016705468
0.046896644 -0.045501836 0.00059731706 -0.07262852 -0.017401014 -0.07489195 -0.042705137 -0.027383264
-0.1439547 -0.054517537 -0.047099974 -0.029136373 -0.061780516 0.012293717 -0.03716964 0.029359834
-0.02695787 -0.04625072 0.035864178 -0.07835965 -0.049513966 -0.06708261 -0.047623385 -0.019812886
-0.037209846 -0.007756124 -0.057840735 -0.019939274 -0.14039604 -0.14052285 0.061680675 -0.004820908
-0.053076457 0.024275979 -0.04669619 -0.06906916 0.013641441 0.02640869 -0.025622115 -0.00096659636
-0.092215165 -0.055125855 -0.02415686 0.033784896 -0.10621622 -0.017780688 0.014823443 -0.006947517
0.05708196 -0.007868081 -0.06123989 -0.016848382 -0.034724616 0.023528498 -0.12660679 0.039652005
-0.0100339595 -0.15593271 0.032169707 0.041879404 -0.055274393 0.009300321 -0.11024772 -0.07886249
0.0053032553 -0.048086677 -0.06437219 -0.019889027 -0.0037419482 0.043494545 0.05912397 0.01337659
-0.051242515 0.04368171 -0.065174855 -0.05311649 0.031011457 -0.06373324 -0.0067105237 -0.06113636
-0.044094536 -0.016931979 -0.01889965 0.052953597 0.073504396 0.007637486 0.005942844 0.04846207
7.505985e-05 -0.015337611 -0.0313632 -0.03171847 -0.034433596 -0.015234173 -0.13272797 -0.021245658
0.014623869 -0.0621815 -0.07200328 -0.038015176 -0.059271295 0.020453082 0.03483233 -0.0552868
-0.03108317 -0.05231955 -0.04372245 -0.059572406 -0.022974247 -0.048762158 0.02436424 -0.022417292
-0.047470752 -0.0457485 0.022904132 -0.06581578 -0.011659339 0.013788391 -0.09947121 -0.0211126

fc2.bias f4 [256]
00000000: 3866 21bc ea09 aeba a5fc b43d c903 56bd
00000010: 6f2a 88bd 0c5e 4ebd 0419 973e 5fa7 f3bd
00000020: 6ef1 1ebd 9d63 5ebe 9e1c a9bd 1a52 ffbd
00000030: 6ef0 34bd b930 b8bd cb64 95bd ecb9 593e
00000040: 37e1 923e d9a3 b93d 790e dcbb 99e0 1abf
00000050: 0a29 823e 3c54 a6bd c8b4 58bd de99 d43e
00000060: 9d30 c2bd 2a2a cb3d 47e3 b4bd 9728 873e
00000070: 0ea4 14bd 2a03 b1be 5380 0dbd 5b81 f03c
00000080: 6b39 aebd c70b 88bd fdc3 003d 1473 bebd
00000090: 4eee 3d3f a366 20bd 40f2 30be 2c9a 7d3d
000000a0: cd41 82bd 6758 b03e 2ab5 fabd 39da b9bd
000000b0: 709e bd3e ed04 06be af56 66bd 977b 27bf
000000c0: adee 9bbd 735d 2d3c 1ad8 4dbd 51a1 40ba
000000d0: f330 2ebd 79bd 54bc efd7 0d3f d055 a3bd
000000e0: 1f4d a73e d911 0c3f 9df2 1fbe 9c15 88bd
000000f0: 096a 00be a2a6 debd 84cb 4bbb 8378 c1bd
00000100: bbbb b93e 6d23 343f e18c 933c 0316 51be
00000110: 7bf9 493d cc24 74bd 7ffb e3be 3f15 08be
00000120: b0f4 6bbd 42ce 33be 343f 803d 70e7 f03d
00000130: 5447 cfbc 7d63 433f 463e 97bd 5741 b4be
00000140: 2c68 ab3e efc7 55bd b331 45bd f81f 213e
00000150: 817d 413f f9d6 09bc 591d 84bd cac5 2fbe
00000160: df1a a2bd 5857 823f b9cd c3bf de42 19bd
00000170: 9bbd a0bd cf0e 28be 0cf3 ddbb e268 75bd
00000180: 8b6a 85be dcf6 31bd c081 743e 2e39 c4bc
00000190: 7d91 02bd 0844 73bc b800 c1bd 7dcb a0bd
000001a0: 2baf 21be 4297 c4bc 4e83 b43c e75a ad3d
000001b0: d96c 9ebd ccda 25bd f0a1 863d d9b4 233d
000001c0: 8b0b 633e 30ea edbd 8b74 e2bd 9a95 1cbe
000001d0: 2ea2 2dbe 9873 08bb 3f30 adbd 611c 373e
000001e0: aa09 18bd 8068 a6bd 12df 0cbf 9b4c 0d3f
000001f0: 9e7d 113e 76f9 e9be 6828 b73e ebd2 d3bd
00000200: 59b3 d7be 2173 b9bd 805b 1ebe d167 043e
00000210: d0b3 ecbd 5808 3dbe 5944 43bc 46fc 58bf
00000220: 47a5 b0bd 5ef6 59bf c43d 1cbe 5597 13be
00000230: ab2f 02bd da70 f0bd 3039 cabc d2ea 0ebe
00000240: 1c5b f0bd 088e 87be f036 2fbd 23ed 6fbd
00000250: 0c59 f83e 3ec6 23bd adf1 2abe 5a34 c6bd
00000260: b902 f3bd c831 9ebd 6c1f 81be 4a23 f5bb
00000270: 16ce 03bf 5568 a8bd ce14 ba3b ad4e e13e
00000280: cd68 44bd d642 db3e 5bd0 ecbd 5aba 8cbb
00000290: f8a6 8dbc f38f 59bd de13 7abe 61cd 03be
000002a0: ef2b 46bf d395 5dbe 5b4f 50bd 6bc8 8b3e
000002b0: f837 89bd cb44 bfbd 836c 563d 4bd7 4cbe
000002c0: c91f 8e3e 9bcd 693e ed61 ad3d f4ad 96be
000002d0: 973b ffbd 1a33 9bbb 4edd 03be 9a32 a3bd
000002e0: 9eaa 3d3d e5b5 b6bd 6eb2 6f3c 3d8f 97bd
000002f0: a76d 913d 2b51 103c ea42 c6be a943 edbd
00000300: 7e40 123b 96a1 61bc f361 863e 1e1f 06be
00000310: 4f36 01be 3516 ff3e aaf8 8e3e 0969 83bd
00000320: 45c3 7dbe 377d 8cbc 8452 323e a202 debe
00000330: c09b debd f021 f33e 743b 55be 08b9 e9bd
00000340: 0bd3 f8be 9737 9fbd 0670 35be 9031 323c
00000350: 3545 b8bd c1c3 ddbd 5064 0c3e e2ca 0c3e
00000360: 5bfb 843f 1ce1 febd 66db 33bc ec4f fdbd
00000370: 9e83 e8bd 99d2 39be c766 2bbe d19f 86bd
00000380: 45b2 65bc 0bc4 843c c07f a1bd a4ad c83e
00000390: 8cf0 6a3e 18bc ab3e 568e a03d 9242 a9bd
000003a0: f322 9cbd db6c 3cbd 34e4 dfbd c6f2 00bd
000003b0: ac9f 443e 248d a0bd 30d4 163f 8c11 8fbf
000003c0: 7cf1 93be 1aaa d5be 9730 0a3f 5964 a6bd
000003d0: 5833 debc 40d9 123e fdcc d3bc 3826 29bd
000003e0: eb81 023b 09e4 433e 3f49 d8bd 0af9 d5bc
000003f0: a29d 783e de70 aabd 6648 953f 99c2 bcbd
-0.009851031 -0.0013278101 0.088372506 -0.052249704 -0.066487186 -0.05038266 0.29511273 -0.11897158
-0.038804464 -0.21717687 -0.082574114 -0.124668315 -0.044174604 -0.08993668 -0.07294615 0.2126233
0.2868745 0.090644546 -0.0067155925 -0.6049896 0.25421935 -0.08121535 -0.05290678 0.4152364
-0.094819285 0.099201515 -0.08832412 0.26398155 -0.036289267 -0.34572726 -0.034546208 0.029358556
-0.08507045 -0.06642871 0.03143691 -0.09299293 0.7419175 -0.039160382 -0.17279911 0.061914608
-0.06360207 0.34442446 -0.122415856 -0.09074826 0.3703494 -0.13087817 -0.05623501 -0.6542296
-0.07613883 0.010581362 -0.05025492 -0.0007348257 -0.04252715 -0.012984627 0.55407614 -0.07975352
0.32676026 0.54714733 -0.15619893 -0.06644747 -0.12540449 -0.108716264 -0.0031096647 -0.09446814
0.3627604 0.70366555 0.018011512 -0.20418553 0.04931019 -0.059605405 -0.44527814 -0.13289355
-0.0576064 -0.1755915 0.06262055 0.11762893 -0.025302567 0.7632368 -0.073849246 -0.352061
0.33477914 -0.052192625 -0.0481431 0.15734851 0.7558213 -0.00841307 -0.0645091 -0.17165294
-0.079152815 1.0182905 -1.5297157 -0.037417285 -0.078486644 -0.16411899 -0.006773358 -0.059914477
-0.26057848 -0.043448314 0.2387762 -0.023953047 -0.03187703 -0.014847763 -0.09423965 -0.07851312
-0.15789478 -0.023997907 0.022035267 0.08464604 -0.07735605 -0.040491864 0.06573856 0.03996739
0.22172372 -0.11616933 -0.11057385 -0.15291443 -0.16956398 -0.0020820852 -0.08456468 0.1788192
-0.03711859 -0.081254005 -0.5502788 0.55195016 0.14208075 -0.45698136 0.35773015 -0.10342964
-0.4212902 -0.09055162 -0.15464592 0.12930228 -0.11557734 -0.18460214 -0.011918151 -0.8475994
-0.08625274 -0.8514155 -0.15257937 -0.14413197 -0.03178374 -0.11740275 -0.024685472 -0.13956764
-0.11736128 -0.2647555 -0.042777 -0.05857576 0.48505437 -0.03998398 -0.16693754 -0.09677954
-0.11865754 -0.07724339 -0.25219285 -0.0074810134 -0.5148634 -0.08223025 0.0056787496 0.44005337
-0.04795151 0.4282443 -0.11563178 -0.004294676 -0.017291531 -0.053115796 -0.24421641 -0.12871315
-0.7741079 -0.21639185 -0.05085693 0.27301344 -0.06700128 -0.09339293 0.05234958 -0.20004003
0.27758625 0.22832339 0.084659435 -0.2942959 -0.12462538 -0.0047363164 -0.1287739 -0.07968636
0.04630529 -0.089214124 0.014629943 -0.074003674 0.07100993 0.008808414 -0.38722926 -0.11585171
0.0022316272 -0.013771435 0.26246604 -0.13097808 -0.12618373 0.4982163 0.2792409 -0.06416518
-0.2478152 -0.01714955 0.1741429 -0.43361384 -0.10869551 0.4748683 -0.20823461 -0.11412245
-0.48598513 -0.07774275 -0.17718515 0.010876074 -0.08997575 -0.10828353 0.13710141 0.13749269
1.0389208 -0.1244528 -0.010977602 -0.123687595 -0.11353229 -0.18146743 -0.16738425 -0.06573451
-0.014019554 0.016206762 -0.078856945 0.39194977 0.22943324 0.33541942 0.078396484 -0.082646504
-0.076238535 -0.04600225 -0.10932198 -0.031481527 0.19201535 -0.078394204 0.5891752 -1.117723
-0.28895175 -0.4173134 0.5398039 -0.081246085 -0.027124092 0.14340687 -0.025854582 -0.041296214
0.0019913863 0.19129957 -0.105608456 -0.026119728 0.24278882 -0.08322309 1.1662719 -0.09216804

fc3.weight f4 [128, 256]
00000000: 7836 463d 3604 a43b 40aa aebd 00ba 1fbd
00000010: 3900 953d 1564 bdbc a24e e2be 198e 3c3d
00000020: 7836 b73d 5701 3dbf cee1 95bd f3db 29bd
00000030: 9cd1 283b 0d94 0639 fc3d 853c 88da b8bd
00000040: c65d 9bbe 688a 263e e08f d13e 5f0f 4dbf
00000050: 202b 5a3e 962a 9c3c e784 573b 6251 083f
00000060: 7ae6 99bb 25e9 7fbe a3c5 0b3d 766f 29be
00000070: 49c1 443d 5d7f e5be 7a08 b3be fe15 403f
00000080: 13e7 d63c 806f 163b b7af 8abd 7fbc 233c
00000090: 70f0 71bf aedc c83c 0cf6 ae3d 51d2 603d
000000a0: c48b ae3c fa20 41be 198c 5c3c f912 973c
000000b0: 0f09 dbbe 56c0 15bd 1f3d 9f3e eeb2 1fbf
000000c0: 57c8 7e3d fd4f 85bd 54b9 8c3e 2ae1 2fbd
000000d0: 90a1 913b b3f9 083d 1de5 6abe edb6 35be
000000e0: 7caa 95be 87fc 2fbf d122 d2bd a0d9 9fbc
000000f0: 985b 23bc 3b02 12be 073d b9bd 04e3 c3bc
00000100: 566d a23e 0ce6 02bf 68a4 483d f7c5 09bb
00000110: f5b2 693e c7d6 78bb d6c2 93bf 50ea 2c3c
00000120: 12d3 67be c40e 823c 6115 bfbc c209 06bf
00000130: 4280 ad3c e0f7 cc3e 2aef 1a3d 3c79 f23c
00000140: ad73 72be 608b 07be a9ae 213b 217e 80be
00000150: ae59 0ebf c695 c2bb a014 553c 0ced 2e3e
00000160: abbe 21bd c5a1 39be d322 49bf 24b2 86bc
00000170: d278 2b3d 85d3 1d3e 269f 3abd 1315 1dbd
00000180: 685d f33c 9827 2dbc c23b 46be bfbd 74bd
00000190: 6813 cc3d 492c 0c3e e96e f0be 2497 ba3c
000001a0: 8322 88bd 14f2 ae3e eea5 803e 5039 003f
000001b0: 8247 1dbe 6247 9cbc fece 463e 6b06 e13d
000001c0: 8a47 28be 47f3 bebd 850a 653b 28f6 13bc
000001d0: 9aea 02bf f414 e2bc 123f 4cbd ae6f c53e
000001e0: 243b 2ebd 6abb 2bbd 874b 19c0 170d f73e
000001f0: 1fed f03d 53b5 06bd dd2a 6e3e cbe0 303d
00000200: 3667 153e 4eb0 63bd 583b 7d3d 4536 42be
00000210: 7226 81ba 04f6 30bf b8e7 3abc 33ad 25bf
00000220: 1c88 88bc 51ba 08be 8029 ab3a 20fd e6bb
00000230: 7a82 2fbf 6fc1 9e3d a24b 1e3c fc2b 13bd
00000240: e8a8 793d 6ff9 e23e c23a 83bd 25a0 313d
00000250: 4bca 833e 10ed 4bbc da57 31bc 478e 8ebc
00000260: 211e dcbc 43e3 cf3e 97ba 70bf d8b8 343d
00000270: 8c45 61bf c2a1 21bd b366 633d 4aca 32bf
00000280: 8e95 59bd 2a5e d03c eb58 743d f9c2 da3c
00000290: d440 8ebe 1fdb 34bd f736 13bf 4c28 0fbe
000002a0: b443 f93c 36ae 80be 48c2 d43c 34d6 973e
000002b0: f8cc 7a3c 8b62 dabe c243 03be ed90 653f
000002c0: ad12 fc3e 6871 92be effa 763e 3e82 55be
000002d0: 0166 bdbd 5156 59bc 5931 4dbd c730 1c3d
000002e0: dfb3 803e 1051 b33a 9148 93bd 1611 9d3b
000002f0: 54ba 4abf bfac 60bd 385a 323e 32fe b03d
00000300: fcb1 153d 06aa 2d3c 7485 af3e fd23 3abc
00000310: 56ed b5bc 39a0 b23f 2081 573d 8769 063b
00000320: 0046 dbbe d72b 103d e1b2 da3e 9bdf ff3e
00000330: 9668 10bd 89af e83e 33af 96bb f01f efba
00000340: 794d 07bf 7c77 fabc 2c0c ca3e bd07 c4bb
00000350: 9eff 493d 6897 8a3e 83b7 263d 48cd 5ebf
00000360: 6c24 393e fa59 76be 2cfa 293d da13 33bd
00000370: 2b9f 3e3e d44c 95be e338 ca3a 0bac 3c3d
00000380: d55c 233d f05f 1cbf 5f6a b23b a0d8 0ebf
00000390: cbb4 9abd 380f 49be cdde 9c3e 7ba7 64be
000003a0: 1eec fb3c 8ce3 26bc d02e 7dbc 86a9 653d
000003b0: f3ad 1d3f f1ac 7abb 3b49 43bf 1a1d cbbe
000003c0: b9a5 e0be fa55 553e 7091 c7bd 1e0a 0dbd
000003d0: bd28 e8be 19ff fb3e f79d 543b 3bd9 553d
000003e0: c77a 853d d05b 09bf e413 6b3d d7b3 933d
000003f0: 445c 693e 1480 ebbc c8ea ae3e ddfd 83bd
0.04839179 0.005005385 -0.08528566 -0.038995743 0.07275433 -0.023119012 -0.44200617 0.046033952
0.08945936 -0.7383017 -0.073184595 -0.041469526 0.0025759703 0.00012834389 0.016264908 -0.090260565
-0.3034498 0.16263735 0.4093008 -0.8010158 0.21305513 0.019063275 0.0032885612 0.5324918
-0.0046966644 -0.24991281 0.034124028 -0.16546425 0.048035894 -0.44823733 -0.34967405 0.7503356
0.026233232 0.0022954643 -0.06771796 0.009993671 -0.94507504 0.02451929 0.085430235 0.054888073
0.02130688 -0.18860236 0.013461136 0.018441664 -0.4278035 -0.03656038 0.3110132 -0.623824
0.062202778 -0.06509397 0.27485144 -0.042939343 0.0044443086 0.033441257 -0.22938962 -0.17745562
-0.29231632 -0.687447 -0.10260547 -0.019512951 -0.009970568 -0.14258663 -0.09044843 -0.02391196
0.31724042 -0.51132274 0.048984915 -0.0021022537 0.22822173 -0.0037969814 -1.1543834 0.010553911
-0.2263911 0.015876181 -0.023325624 -0.5235864 0.021179322 0.40032864 0.03782574 0.029598825
-0.2367694 -0.13236761 0.0024670756 -0.2509623 -0.5560559 -0.0059382645 0.013005406 0.17082614
-0.039488476 -0.18128116 -0.7856876 -0.016442366 0.04186327 0.1541272 -0.045561932 -0.038350176
0.029707626 -0.010568522 -0.19358733 -0.05975127 0.09964639 0.13688768 -0.46959618 0.022777148
-0.066472076 0.34169066 0.25126594 0.5008745 -0.1535931 -0.019077007 0.19414899 0.10987552
-0.1643354 -0.09323745 0.0034948897 -0.009030856 -0.51139224 -0.027597882 -0.049864836 0.38561767
-0.04253687 -0.04192678 -2.3952348 0.48252174 0.11763977 -0.032887768 0.23258539 0.04318313
0.14590153 -0.05558806 0.061824173 -0.18966015 -0.0009853377 -0.6912539 -0.011407785 -0.64717406
-0.016666465 -0.13352324 0.0013058633 -0.007049218 -0.68558466 0.07751738 0.009661587 -0.03593062
0.060952097 0.44330928 -0.064076915 0.043365616 0.25740275 -0.012446657 -0.010824168 -0.017401827
-0.026869835 0.40603074 -0.94034714 0.044121593 -0.87996745 -0.039460905 0.055517863 -0.6983992
-0.053121142 0.025435526 0.05965511 0.026704298 -0.27783835 -0.044154283 -0.57505745 -0.13980216
0.030427791 -0.25132912 0.025971547 0.29655612 0.015307657 -0.42653307 -0.12818816 0.89674264
0.49232998 -0.28602147 0.24119161 -0.20850465 -0.09247971 -0.013265208 -0.05009589 0.038132455
0.2513723 0.0013680775 -0.07191575 0.0047932966 -0.79190564 -0.054852244 0.17417228 0.08642234
0.036546692 0.010599619 0.34281504 -0.011361119 -0.022207897 1.3955146 0.052613378 0.0020509677
-0.42826843 0.03519806 0.427146 0.49975285 -0.03525599 0.45446423 -0.004598522 -0.0018243771
-0.5285259 -0.030574553 0.3946241 -0.005982368 0.04931604 0.2706864 0.040702354 -0.87031984
0.180803 -0.24057761 0.041498348 -0.043720104 0.18615405 -0.29160178 0.001542833 0.04606251
0.039883453 -0.6108389 0.0054448093 -0.55799294 -0.07554015 -0.19634712 0.30638734 -0.22329514
0.030752238 -0.010186087 -0.0154530555 0.056069873 0.6159355 -0.0038250054 -0.76283616 -0.3967064
-0.43876436 0.20833579 -0.09744537 -0.034433477 -0.4534358 0.49218062 0.0032442787 0.05220912
0.065175585 -0.5365572 0.057392016 0.07212036 0.22789103 -0.028747596 0.341635 -0.06444905

fc3.bias f4 [128]
00000000: 5f74 3a3e 01bf 1fbe d7f0 953f cc14 423d
00000010: d25c 933d b215 4d3f d5a8 08bd 3036 64be
00000020: eb31 353c e90b 42be 5686 c3bd b9e1 4cbf
00000030: 18e5 fb3e 74b3 b6bd df4d c23e caa6 e23d
00000040: fcac 743e 3f07 063f b52a 7bbd 38c1 17bf
00000050: 821e 203f 5602 55be 3680 973c 4596 f5be
00000060: 3484 97be 13b1 073f 3bdc 3fbf 9b02 09be
00000070: b814 e8bd a512 14bf d9c4 59bf 9444 acbd
00000080: a5b8 30bf 37a5 cfbe ce7d a93e 722a 493e
00000090: 1714 12be 11eb b4bd d812 c33e 1dd0 6bbd
000000a0: 1ae9 4b3f c688 b43f 4478 0cbe 9996 813f
000000b0: 4ae3 a2bd 6623 e43e 3378 a73f 32c2 1b3f
000000c0: 6b14 91be d13d 50bd 1ba3 8fbd 1f9d 4f3e
000000d0: 5412 82bf bb49 febd ed96 8abe c1e8 8ebd
000000e0: 3522 f6be 66e8 403f dee1 e0bd 04cc b9bd
000000f0: b7ad bebd 75a7 053f 592e 10bf 7113 cc3e
00000100: 006a 80be b086 b2be 0ab9 7abf b2bb 1dbd
00000110: 4de2 61be 2380 4bbe c04d 283f c1b9 c4bd
00000120: 6ed3 813e 03d3 a2be 1e5f 20bf 18b5 86bd
00000130: e5f7 b7bd 6168 b5bd 7be4 c1bd 676c 6bbe
00000140: eb01 0bbe 34f8 80bc cbf8 aabe 1285 b3bd
00000150: 76aa e83e b8bf 06be fe5c 8fbd 5f82 ab3e
00000160: ed20 9bbd 147c 303c 596e 033f db0e 94be
00000170: 99e1 94be 1f07 d8be 08ba 683f c785 ab3e
00000180: 65c8 a13f 719f 16be 3428 adbe 7d59 bbbe
00000190: 32e6 05be 22d1 8ebc a2e0 30be 10ff 2dbe
000001a0: 7d53 f3bd 805a 32be 2f07 29bf 6c2a 353f
000001b0: d74b f7bd e5de 85bd 8975 943f 765f 88bd
000001c0: 06c4 27be 2c1e ab3e a072 febd 74f8 903e
000001d0: 4d06 963e cc3e c43f f14d 9cbf ffdd 44bd
000001e0: 0072 aebd 39ce 153f f914 563f a347 5ebf
000001f0: 562e 19be 5639 f93e 2526 f93e 9779 bc3f
0.18208455 -0.15600206 1.1714123 0.047383115 0.071954384 0.8011123 -0.033364136 -0.22286296
0.011059265 -0.18949856 -0.09547107 -0.80031925 0.49198222 -0.08920947 0.37950036 0.11066969
0.23894113 0.52354807 -0.061320025 -0.59279203 0.6254655 -0.20801672 0.018493753 -0.4796621
-0.2959305 0.5300457 -0.7494542 -0.133799 -0.11332077 -0.5784095 -0.8506599 -0.08411518
-0.69031745 -0.40555736 0.33103794 0.19645098 -0.14265476 -0.08833898 0.38100314 -0.05757152
0.7965256 1.410424 -0.13717753 1.0124084 -0.07953508 0.44558257 1.3083557 0.60843194
-0.2833589 -0.050840203 -0.07013532 0.2027478 -1.0161843 -0.12416407 -0.27068272 -0.06977988
-0.48072973 0.7535461 -0.10980581 -0.09072116 -0.09310477 0.52208644 -0.5632072 0.39858583
-0.25080872 -0.34868383 -0.979386 -0.03850908 -0.22058983 -0.19873099 0.6574364 -0.09605742
0.2535662 -0.31801614 -0.6264514 -0.0657751 -0.08982829 -0.08857799 -0.09467407 -0.22990571
-0.1357495 -0.015743352 -0.3339294 -0.087656155 0.4544255 -0.13159072 -0.07000159 0.33497903
-0.075746395 0.01077177 0.5134025 -0.28917584 -0.29078367 -0.42192933 0.9090886 0.33500502
1.263928 -0.1470926 -0.33819735 -0.36591712 -0.13076094 -0.017433707 -0.1727319 -0.1699183
-0.118811585 -0.17417336 -0.66026586 0.70767856 -0.12075012 -0.065366544 1.1598369 -0.06658833
-0.16383371 0.33421457 -0.12424207 0.28314555 0.29301682 1.5331664 -1.2211286 -0.048063274
-0.085178375 0.58517796 0.8362575 -0.8682806 -0.14959082 0.48676556 0.48661914 1.4724606

fc4.weight f4 [64, 128]
00000000: f1d6 acbe ccc3 023d 1989 913e 55b7 13be
00000010: ee3e 83be 4c41 1abf 7c5b 5abd adce a73e
00000020: 7278 83be 8cd4 29be 76de 573d 41a2 acbe
00000030: ba5a c53d 5b92 93bd 03d3 333f becf 8bbe
00000040: 6da2 a5be d05d 9ebe 84fe 2e3d 2a8e d4be
00000050: dd42 01bf 6b82 f9bd 60ea a6bc 93b6 8ebe
00000060: e48a ebbd fc3e 84be 5dd9 06bf 1bea 95bd
00000070: 3f3a 213f afd0 19bd c2c8 a2bf c895 6ebe
00000080: 84fe 1fbf 9192 bc3d 092c 32be e51b d3bd
00000090: 3d12 83be 20da c9b7 c13d 1fbf 2a35 0fbe
000000a0: 804c 4abe 2a7e 4b3e 2d78 71bd 3905 12bf
000000b0: 99fa 023b 061b 9bbc 4c00 00be 5a01 7f3d
000000c0: 343d bbbd 784b 28bd aaeb 4dbe cf32 aebd
000000d0: 0f3b 24bf bb80 87bd c75c 32bf 5b6d 223e
000000e0: e374 583d 90a6 8dba 9443 213d 1e9a 17bc
000000f0: 7325 dfbd 105c 0abe e0fe 8fbf dfcb 88be
00000100: c38a 13bd 8224 613e cd1b b43e 6fc9 103d
00000110: 79b7 28bc 9ce9 bf3e 0a30 2fbe 2deb ffbc
00000120: b51b 363b e768 e03d a103 51be 99c4 ad3c
00000130: 30a5 643c 1a0b 2a3c 9a51 883d 0d98 b0be
00000140: d0d4 8abd 0552 6a3d 753a adbe b2cf 733e
00000150: 62fd 44be b926 2e3e 0273 48bf 9a92 0a3f
00000160: a2cd 25be a077 10be 5c00 083f f889 37bf
00000170: 24a8 b93e e385 a7bd 7fea bcbe e392 dcbe
00000180: e176 8cbe 9c09 ffbd d783 cf3d 5541 d3bd
00000190: c3b8 263c 8ccc 103d 3805 a6bb 131c 313d
000001a0: a872 9cbd a040 2c3b a13c c2bc 266b 023d
000001b0: 4524 66bd bb04 2d3e 46a3 1abf d4ea d63b
000001c0: e9f3 ba3c d1ac 8cbe f91b 8fbd b9f5 12be
000001d0: 0c32 dabe bf56 ad3e 4922 8a3d 49c7 833d
000001e0: 3ba1 40bd 6468 b93d 2459 1e3e ab2c e2be
000001f0: 81e7 b5be 0f8a dcbe dd11 723e 1c14 c2be
00000200: c0eb 1fbe c207 aabe c907 0ebe 8f91 0cbd
00000210: 9d0b e2bc d1d7 d4be 7470 c1bd 2c86 36be
00000220: 0089 103d e09a 1ebe 70ca 433d 174f 95bd
00000230: e69b 9abd 6d39 d2bd 0340 f83b cb8c 6cbc
00000240: 5f5c 49be f38e e3bd 891d 5bbe 9ac5 70be
00000250: 8f4f bbbe fcf0 3bbc 7619 00bd 090a 42be
00000260: 3142 89be ef79 a83d b812 823d db80 1bbc
00000270: 26c7 44be c06e 773b ab5d 16bd 87df 03be
00000280: 6085 653d 89bc b13d a5a9 24be 3fc8 483d
00000290: a509 153d f3e5 ae3c 08cb 5dbe 06a4 523d
000002a0: a234 febc 6231 51bd a908 993b 49d9 28bd
000002b0: b78f b5bd 1a2b 3a3c 74c1 11bd b1cb a9be
000002c0: beb6 97bd d4fd 8fbc 3d11 41be d1dc b13d
000002d0: d170 f3bd 78bc 2fbe 71ef 2abe 5bc3 dc3b
000002e0: ad81 2dbe 92ea 28be 7146 1d3c 4a38 393a
000002f0: d050 babc 9e9b 42bd cd5b 553d 4e22 643d
00000300: 1f95 043d 0680 243d 0a65 b03a 005c 31bc
00000310: ef1c ffbd 1bba e1bc 610a b1bd 78a5 8f3d
00000320: 023a a3be 1725 093c 3169 a2bc 03bd 25bd
00000330: c8c8 09bc 0ca6 57bc 6905 08bc 8a57 65be
00000340: 3daa d3bd 6c2a 4a3d 2be8 eabb e4ae c9bd
00000350: 9e05 b4bd a520 d2bd a23a f63c e680 1b3d
00000360: 339e 09bc d8c0 793c 3809 0fbc aeeb 8a3d
00000370: b062 9abe 8001 eebd 4ae3 dabd 32aa 5f3c
00000380: 2e17 7f3d 531e ad3d be6e 473d fdce d1bd
00000390: 10cb 1ebe 617f cf3c 815b 39bd 9fc2 f2bd
000003a0: 7e78 bbbd 93d3 26bd 5197 5b3d 9cbd b7bd
000003b0: d602 ce3d 87f1 46bd 8cbc e63c 1508 eebd
000003c0: 2e4f 7bbe bd72 f4bd 6b83 9abd 31c5 1cbe
000003d0: 52df 25be a27c 56bc 4a1a e3bd 7f6c 0abe
000003e0: 007b 94bd 7d7a 84be 628b 09be 6ed2 babd
000003f0: 6b3b a93d a2db a5be 4405 c3bb efd6 07be
-0.33757737 0.031925008 0.2842491 -0.14425404 -0.2563395 -0.60255885 -0.053309903 0.3277487
-0.2567783 -0.16584986 0.05270239 -0.3371754 0.09636445 -0.072056495 0.70243853 -0.27306932
-0.32350484 -0.30930948 0.042723194 -0.41514713 -0.5049265 -0.121830784 -0.02037543 -0.27873668
-0.11501101 -0.25829303 -0.5267542 -0.07320043 0.629795 -0.03755253 -1.2717516 -0.23299325
-0.62497735 0.09207643 -0.1739961 -0.10308055 -0.25599852 -2.406264e-05 -0.62203604 -0.13985124
-0.19755745 0.19872347 -0.0589525 -0.5703922 0.0019985794 -0.018933784 -0.12500113 0.06225715
-0.09142533 -0.041087598 -0.2010943 -0.08505785 -0.64152616 -0.0661635 -0.69672817 0.15862028
0.052845847 -0.0010807086 0.03937109 -0.009253053 -0.10895815 -0.13511682 -1.1249657 -0.2671804
-0.036021005 0.21986583 0.3517746 0.035348352 -0.01029765 0.37482917 -0.17108169 -0.03124007
0.002778751 0.109575085 -0.2041154 0.02121191 0.013955399 0.010378623 0.06656189 -0.34491006
-0.06778872 0.057207126 -0.33833662 0.23809698 -0.19237283 0.17006959 -0.7830049 0.54129946
-0.16191724 -0.14108133 0.5312555 -0.716949 0.36261094 -0.08179834 -0.36897656 -0.43080816
-0.27434447 -0.12453005 0.10132568 -0.103151955 0.010175887 0.03535132 -0.00506654 0.043239664
-0.076390564 0.0026283637 -0.02371055 0.031840466 -0.056186933 0.16896336 -0.60405385 0.0065587554
0.022821384 -0.27475598 -0.06987757 -0.14351548 -0.42616308 0.33855245 0.067448206 0.06434495
-0.04702876 0.09053114 0.15463692 -0.44174704 -0.35528186 -0.4307408 0.23639627 -0.37905967
-0.15617275 -0.33209044 -0.13870157 -0.034318503 -0.027593428 -0.41570905 -0.09445277 -0.1782462
0.035286903 -0.15488768 0.04780048 -0.07290476 -0.075492665 -0.10264859 0.00757599 -0.014437865
-0.19664143 -0.1111125 -0.21397986 -0.23512879 -0.36584136 -0.011471029 -0.03127428 -0.1894914
-0.26808313 0.08226382 0.063512266 -0.009491171 -0.19216594 0.003775522 -0.036710422 -0.12878238
0.0560354 0.08678538 -0.16080339 0.049019095 0.03638615 0.021349883 -0.21659482 0.051425956
-0.031030957 -0.051072486 0.004670222 -0.041222844 -0.08865302 0.011362815 -0.035584882 -0.33163217
-0.07407902 -0.01757709 -0.18854232 0.086846955 -0.118867524 -0.17161739 -0.16692902 0.0067371554
-0.16943999 -0.16495731 0.009599314 0.00070655777 -0.022743613 -0.04751169 0.0520895 0.055696778
0.032368775 0.040161155 0.0013457846 -0.010825157 -0.124566905 -0.027554562 -0.08644558 0.070139825
-0.31880194 0.008370659 -0.01982555 -0.04046346 -0.008409686 -0.013162147 -0.008302071 -0.22396675
-0.10335205 0.049356863 -0.00716879 -0.09847811 -0.08790134 -0.10260133 0.030057255 0.037964724
-0.008399534 0.015243731 -0.008730225 0.067832336 -0.30153418 -0.1162138 -0.10687883 0.013651418
0.062277965 0.084530495 0.048689596 -0.10244558 -0.1550715 0.025329294 -0.04525328 -0.11853527
-0.091538414 -0.040729117 0.053611103 -0.08971712 0.10059135 -0.048570182 0.028166078 -0.11622635
-0.24541923 -0.11935947 -0.07544597 -0.15309598 -0.16198471 -0.013091238 -0.110889986 -0.1351795
-0.07250023 -0.258747 -0.13432077 -0.091221675 0.08263286 -0.3239413 -0.0059515554 -0.13265584

fc4.bias f4 [64]
00000000: ca7b 64be 34c9 61be bfe5 1bbe e5f9 13be
00000010: 1550 483f d907 633e 0068 59bf a995 aa3e
00000020: 70bc a2be a16b e4bd f310 0d3f a18f 4940
00000030: c05d 84bd f3de 02be 4aa0 003e b6f0 093d
00000040: ede9 69be 0d14 dc3f 77a3 17be ce86 09be
00000050: 9721 36bd 3717 873e d586 f53d 6d7d bc3d
00000060: ced7 30be 6de6 133f 7444 1dbd fa82 5abe
00000070: 849f 0e3f 0ec1 5ebd d10f c33f 9818 2b3f
00000080: 2f1f 5f3f 7b09 05be 2fa5 023e 299e 09be
00000090: 698d 7f3d 6fc2 433f 452e a1bd 538f 733e
000000a0: 5b51 4fbe 757f 40be 70e1 ecbd 4946 d9bd
000000b0: f8f9 2b3d 448c 783e 7bb8 4fbf f625 943f
000000c0: cd72 b63d 7205 133e 4b14 19bd 3141 97bb
000000d0: 5c65 6cbc ac51 fdbc 0764 b33d e285 f6b7
000000e0: f249 31bc 1710 b03e c794 c2bd 9cc9 e0bd
000000f0: b3ba 73be 5a04 0cbe a23c d6bd 4da6 2f3f
-0.22312847 -0.22049409 -0.1522436 -0.14450796 0.78247195 0.22170962 -0.84924316 0.33317307
-0.3178439 -0.11153341 0.5510399 3.1493914 -0.06463194 -0.12780361 0.12561145 0.033676825
-0.22843142 1.7193619 -0.1480845 -0.1343033 -0.044465628 0.263849 0.11988608 0.092036106
-0.17269823 0.57773477 -0.03839536 -0.21339026 0.5571215 -0.05438333 1.5239202 0.668344
0.8715696 -0.12991898 0.12758325 -0.1343924 0.06239072 0.7646856 -0.07870153 0.23785143
-0.20245878 -0.18798621 -0.11566436 -0.10609109 0.041986436 0.24272257 -0.8114087 1.1574085
0.08908615 0.14357546 -0.03737287 -0.0046159257 -0.014428463 -0.030922733 0.08759313 -2.938783e-05
-0.010820853 0.34387276 -0.09501033 -0.10975954 -0.23801689 -0.13673535 -0.104607835 0.6861313

fc5.weight f4 [4, 64]
00000000: c723 8f3e 5fd6 6f3d 4612 143d 2b78 8cbd
00000010: 703c fc3d aeff 203f d18b 243f 2208 153f
00000020: 0979 223e b3a0 94bc 3fd2 d93d 1018 813e
00000030: bb01 91bd 15c3 5cbc 39d1 cb3e 02af 093f
00000040: 746c 6dbd d094 3fbf c5c5 f4b7 d693 f63c
00000050: c558 1fbd 5886 123f b2ad 153f aac0 733e
00000060: c2ee 243d b0ab c13c f80a 983e 567b 1b3e
00000070: a360 2c3e 7a89 a73e 1d2d 883e ffe0 773e
00000080: f64e d03d 5b05 253e cd62 7e3d 2d08 423d
00000090: 39ac fdbd 62b1 2b3e a2e6 0a3d 3b17 beba
000000a0: cbee dd3d 3776 813e 06ad f53b d2ee c23c
000000b0: 9ee3 6fbc 5a19 003e 2d9f 373f b7b6 f2be
000000c0: 466f f1be 5b16 b73e 21e0 47bc 53f4 fe3e
000000d0: 5e7c 02be dfff a6bd f7c4 ca3e fcb1 fb3e
000000e0: e629 843c e2eb 593e 3189 fcbd cfb8 f23d
000000f0: 84df a63d 7402 183d eeff ac3d 8149 3c3f
00000100: f3f4 973e e7d3 ce3d 2a08 f73b 6206 dbbc
00000110: 6946 1e3e dba8 b73e 1d8b 413f 113f 8f3e
00000120: 6aa2 c8bc 4976 443d 278c 95be b7cd 823e
00000130: 6cb5 043d ff2c 98bc e785 923e ae6d d23e
00000140: ecc3 03be a766 45bf 5dad dcbd cb23 4a3c
00000150: 0952 d23c 59f6 133f d4de 093f 1c10 723e
00000160: 877c 1d3c b40f ac3e 67ee 21bc 674e 4dbe
00000170: 376e de3e 5308 d03e a46f 783e c517 613e
00000180: 549b 79be b834 45be b2b3 fc3c da4d ffbd
00000190: 7a6a 713d ae17 473e dba5 913d 8b5c 173d
000001a0: 6aeb 463d d65f 323f 49b9 a73c fd43 95bd
000001b0: e794 59bd 125a dc3d 6e92 1d3f d48f a4be
000001c0: 2e8f 31bd 4c8a c73e 1ec5 a4bb 7de5 a63e
000001d0: 9afe e639 bc21 ba3d 76d9 b43d a307 c63e
000001e0: 6b98 5abd 4a4e 88bd 70c5 56bd 128a ccbd
000001f0: 9427 c5bd 079b d23c e923 a53d ecc8 283f
00000200: 00cc 833e f742 fb3b a5ea 973c c1f0 97bd
00000210: 56c2 833e e36b 163f 68c1 4d3f 0f96 e33e
00000220: 9940 673e dde0 073d 7274 a73d 0225 803e
00000230: b3e6 38bb bedf 5bbb 3cce f23e 6384 cb3e
00000240: df6e cb3c d25d 37bf 1551 8c3d 48c1 88bc
00000250: 6217 543d b641 c83e 0a07 dd3e ff75 a83e
00000260: 552f db3c 955d 8d3e 49e9 563b dda0 a33d
00000270: 3c1a c13e 6e2b c03d 4b08 6e3e 279b 783e
00000280: 9cfa 0abf 7851 263d c86b 123f a328 ab3c
00000290: 6518 ad3d 3e76 253e a6d8 a73c 0c78 bbbc
000002a0: 8f03 2c3d a79d 083e 662d 123d 352f f5bc
000002b0: 5a07 debc 912f a2be 32ec 113f a81c 80be
000002c0: 1db3 ef3d 1391 4a3e adbf 26bd 4b94 4c3e
000002d0: e37a 04be 3cdd 803e 9374 db3e f626 943e
000002e0: fa8b 2e3d 3ac5 4a3e 240f 3c3b b263 6b3e
000002f0: c2ed f63d 83a3 8b3c 716a b2b8 5192 2e3f
00000300: 0e9d 7a3e e593 8a3d 00ef 923d 756d 29be
00000310: 157a 2d3e 09cb 313f 29be 3b3f 62f2 ce3e
00000320: 82a0 c9bd 4cab 7aba ccb6 a33e a1b8 823e
00000330: a0d4 9f3d a03b 953d 8101 523f e772 b33e
00000340: a7a2 933d 6962 3bbf f0da 1fbd 9f17 a6bc
00000350: b16f 78bc 9051 083f c8f5 ef3e 7089 883e
00000360: 4f9b 3b3d f3fa 5b3e 4a46 edbd e307 993e
00000370: f383 c13e 7ae8 37be aef3 773e 3013 773e
00000380: 0247 ccbd 87e0 143e ae5e 913e aad6 01be
00000390: 9f1f d93c cf3a 4c3e ad5a 1ebd 1cb6 d83d
000003a0: 2e46 a0bc f3c8 9cbd c856 9bbc d944 5ebc
000003b0: 2960 9f3c c1aa de3e e89b e63e c387 a6be
000003c0: bfc1 6bbd 0e91 c93e 113a 5d3c 6a7e b9be
000003d0: 2e10 01bd 417d 37bd 87c6 483d 8b97 6fbe
000003e0: e3e9 273c ab1e 443e 23b6 9b3c a131 2b3e
000003f0: 9794 b33d 2b70 a1bd 434a b6bc 827b 153f
0.27956983 0.05855405 0.03615024 -0.06858858 0.12316215 0.62890136 0.6427584 0.58215535
0.15866484 -0.018143034 0.106358044 0.2521367 -0.07080408 -0.013474246 0.39808062 0.53782666
-0.057964757 -0.74836445 -2.917916e-05 0.03009979 -0.038903017 0.5723624 0.58468163 0.23803964
0.04026676 0.023641437 0.29695868 0.15183768 0.16833739 0.32722074 0.2659692 0.24206923
0.101713106 0.16115324 0.062105943 0.04737108 -0.123863645 0.16766885 0.033911355 -0.0014502773
0.10836562 0.25285503 0.0074974326 0.023795519 -0.0146416705 0.12509671 0.7172726 -0.47405025
-0.47155207 0.35759243 -0.012199433 0.4979578 -0.12742755 -0.08154272 0.39603397 0.4915923
0.01613326 0.21281388 -0.12330855 0.11851656 0.08148101 0.037111714 0.08447252 0.7354966
0.2967907 0.10099011 0.007538815 -0.026736442 0.15456547 0.35871014 0.75602895 0.27977803
-0.024491508 0.047964368 -0.2920849 0.25547573 0.03239958 -0.018576143 0.28617784 0.41099304
-0.12867707 -0.7710976 -0.10775254 0.012337635 0.025673883 0.5779777 0.53855634 0.23638958
0.009612209 0.3360573 -0.0098835 -0.2004944 0.43443462 0.4063135 0.24261338 0.21981724
-0.24375659 -0.19258392 0.030847404 -0.12466021 0.058939435 0.19442627 0.071117125 0.03695349
0.048564352 0.69677484 0.020474093 -0.07288358 -0.05312052 0.10759367 0.6155156 -0.32140982
-0.043349437 0.389727 -0.005028381 0.3259696 0.00044058712 0.090884656 0.0883054 0.386777
-0.053368013 -0.066555575 -0.052434385 -0.09987272 -0.096266896 0.025708688 0.0806349 0.6593158
0.25741577 0.007667895 0.018544504 -0.07418967 0.25734204 0.5875837 0.8037324 0.44450423
0.22583236 0.03317343 0.08176507 0.25028235 -0.002821368 -0.0033550109 0.4742297 0.3974944
0.02483314 -0.71627533 0.06851403 -0.016693726 0.051780112 0.39112633 0.43169433 0.32902524
0.026755968 0.2761046 0.0032792857 0.079896666 0.37715328 0.093832836 0.23245351 0.24277936
-0.5428865 0.04060504 0.5719571 0.0208934 0.084519185 0.16158387 0.020489048 -0.022884391
0.04199558 0.1334139 0.035687827 -0.029929737 -0.027103115 -0.31676915 0.5700103 -0.25021863
0.11704085 0.19781904 -0.04071014 0.19978444 -0.12937503 0.25168788 0.42862377 0.28935975
0.04261396 0.19801798 0.0028695548 0.2298725 0.120570675 0.017045742 -8.507528e-05 0.6819201
0.24473974 0.0676649 0.07174492 -0.16545661 0.16941102 0.6945043 0.73337036 0.40419298
-0.098450676 -0.00095622684 0.319754 0.25531486 0.07804227 0.07286763 0.82033545 0.350486
0.07208758 -0.73197037 -0.039027154 -0.020274935 -0.015163348 0.53249454 0.46867204 0.26667356
0.04580241 0.21482448 -0.11585672 0.2988883 0.37795982 -0.17959777 0.2421405 0.24128413
-0.09974481 0.14538775 0.28392547 -0.12679544 0.026504336 0.19944309 -0.038660694 0.105816096
-0.019564714 -0.076555155 -0.018962279 -0.013566219 0.019455032 0.4348965 0.45040822 -0.32525453
-0.057557818 0.3936848 0.013502614 -0.3622926 -0.03150957 -0.044797186 0.049017455 -0.23397653
0.010248634 0.19152324 0.019007748 0.1671815 0.08768576 -0.078827225 -0.022252208 0.5839158

fc5.bias f4 [4]
00000000: af06 c9c0 87ab eec0 379c c9c0 146e d9c0
-6.282066 -7.4584384 -6.300319 -6.7946873
