model/DQN/_Player_dqnAgent_model_epoch_2000.pth (torch_old, 489705 bytes, 10 tensors)

fc1.weight f4 [256, 57]
0	0x3d12a469	0.035801325
1	0xbea2a509	-0.31766537
2	0xbdf2d17e	-0.11856364
3	0xbe10f819	-0.14157142
4	0xbf1ee44f	-0.6206712
5	0xbf18fcbd	-0.5976065
6	0xbeaeb2b1	-0.34120706
7	0xbf8ef8cf	-1.116968
8	0x3f327c71	0.6972113
9	0xbee0a5d1	-0.43876508
10	0x3f93a50e	1.1534746
11	0x3eb74702	0.35796362
12	0x3f017a1a	0.5057694
13	0xbe0bca84	-0.13651472
14	0xbc485422	-0.01222709
15	0x3ecdd84b	0.4020408
16	0xbf526668	-0.8218751
17	0xbe178724	-0.14797646
18	0xbf9b72f2	-1.2144454
19	0xbf70205f	-0.93799394
20	0xbed747bd	-0.4204692
21	0xbf34af02	-0.7057954
22	0xbf82ac19	-1.020877
23	0xc05c31eb	-3.4405468
24	0xbf9b2b13	-1.212252
25	0x3f95249d	1.1651798
26	0xbe5024ec	-0.20326585
27	0x3f0f2bf8	0.55926466
28	0xbdaac568	-0.083384335
29	0xbf816e80	-1.0111847
30	0xbd537a42	-0.051630266
31	0x3f738471	0.95123965
32	0x3eb18ef9	0.34679392
33	0xbee18ee6	-0.44054335
34	0xbea19af1	-0.31563523
35	0x3e9e00bb	0.30859932
36	0xbee9ed8a	-0.4568904
37	0xbddfc068	-0.109253705
38	0x3d721610	0.05910307
39	0x3f13b3c1	0.5769616
40	0x3be44260	0.0069659203
41	0xbf1cd22f	-0.61258215
42	0x3f18ce72	0.5969001
43	0xbf0633ff	-0.5242309
44	0xbe0b5ff3	-0.1361082
45	0x3e332659	0.17495097
46	0xbea24e86	-0.31700534
47	0x3fc3af47	1.5287865
48	0x3eab5d3a	0.33469564
49	0xbecf896c	-0.40534532
50	0xbf11fa05	-0.57022125
51	0x3f98df08	1.1943064
52	0xbeb22e00	-0.3480072
53	0x3f3b773f	0.7322883
54	0x3cff09f3	0.031132674
55	0xbef504d1	-0.47855237
56	0x3ed9b8c0	0.42523766
57	0xbf1cc213	-0.61233634
58	0xbebd63e4	-0.36990273
59	0xbf682fa2	-0.9069768
60	0xbf7f69df	-0.9977092
61	0xbf050254	-0.5195668
62	0xbf99bee6	-1.2011383
63	0x3ec95914	0.39325774
64	0x3d828c36	0.06374399
65	0x3f4d3b0b	0.8016822
66	0x3f1b1498	0.605783
67	0x3f80a6d3	1.0050911
68	0x3f3226b6	0.6959032
69	0xbf440327	-0.7656731
70	0xbf08071d	-0.53135854
71	0xbf2dc5e9	-0.6788011
72	0xbd8c758b	-0.06858357
73	0xbe781453	-0.24226503
74	0x3dad71ce	0.08468972
75	0xbd5d2913	-0.05399425
76	0x3e300df9	0.1719283
77	0xbf0a7970	-0.5409155
78	0x3ec24142	0.37940413
79	0xbff00d77	-1.8754109
80	0xbd457475	-0.048206765
81	0x3fc9836c	1.5743232
82	0x3d89845d	0.067146994
83	0xbf6b8212	-0.91995347
84	0x3e46a7f8	0.19400012
85	0xbcb6c9e8	-0.022313073
86	0xbe9312cf	-0.28725287
87	0xbd78589c	-0.06063138
88	0x3e4c5370	0.19953704
89	0x3eb0188c	0.34393728
90	0xbf3f7115	-0.74781924
91	0xbebfbaae	-0.37447113
92	0x3f04681f	0.51721376
93	0xbf3f318f	-0.74684995
94	0xbf1292c6	-0.5725521
95	0xbdaff7e0	-0.085922
96	0xbf33631a	-0.7007309
97	0x3ce31a98	0.027722642
98	0xbf4e31e8	-0.805449
99	0xbfa72484	-1.3058019
100	0xbf2d3b21	-0.6766835
101	0xbcaedf53	-0.021346724
102	0xbd7ca12d	-0.061677147
103	0xbf55a9f9	-0.8346248
104	0xbf70d44f	-0.9407396
105	0x3edaef85	0.42760864
106	0xbf66aa17	-0.90103287
107	0xbf905837	-1.1276921
108	0x3f582bd7	0.84441894
109	0xbf4809eb	-0.78140134
110	0xbf9387da	-1.1525834
111	0x392a907a	0.00016266285
112	0xbf61c365	-0.88188773
113	0xbe1361a2	-0.14392713
114	0x3f601a5b	0.87540215
115	0xbf810c80	-1.008194
116	0x3e0ce97c	0.13760942
117	0xbe21dd84	-0.15807158
118	0x3eb32833	0.34991607
119	0x3ed69a41	0.4191456
120	0x3fd26148	1.6435938
121	0x3f286b22	0.6578847
122	0x3e93107f	0.28723523
123	0xbf93a09a	-1.1533387
124	0x3f9db7a8	1.2321672
125	0xbeb43b4d	-0.35201493
126	0x3efb3e83	0.4907113
127	0xbf0ab1df	-0.5417766
128	0xbdaa7e22	-0.08324839
129	0xbf5a629e	-0.8530673
130	0x3eb74467	0.35794374
131	0xbe927332	-0.28603512
132	0x3f07ea12	0.5309154
133	0xbefe5892	-0.4967695
134	0xbed706ac	-0.41997278
135	0xbf9b9d82	-1.2157443
136	0x3d54cf78	0.05195567
137	0xc0404699	-3.004309
138	0xbefc0d97	-0.49229118
139	0xbb16c305	-0.0023004424
140	0xbded97cc	-0.116012186
141	0x3f47184a	0.7777144
142	0x3e00c55e	0.1257529
143	0x3f2b75da	0.669767
144	0xbdf3aeb7	-0.118985586
145	0xbfeb7b0b	-1.8396925
146	0x3de9d3f7	0.11417382
147	0xbe70a6f1	-0.23501183
148	0x3ea1a04c	0.3156761
149	0xbd9ec6ab	-0.07752737
150	0xbeb75772	-0.35808903
151	0x3e8a1914	0.26972258
152	0xbcdc16e4	-0.026866384
153	0xbf29d09f	-0.66333956
154	0x3d92a816	0.07160966
155	0xbee0d2bd	-0.4391078
156	0x3fb5c4db	1.42007
157	0xbeb008a8	-0.34381604
158	0x3f051df8	0.51998854
159	0xbf372766	-0.7154449
160	0xbe880833	-0.26568756
161	0xbf05583f	-0.5208778
162	0x3fe17dff	1.7616576
163	0xbeb585a5	-0.35453525
164	0xbd0e9318	-0.03480825
165	0x3f805ff2	1.002928
166	0xbe99c693	-0.30034313
167	0x3f61b944	0.8817332
168	0xbeebfedd	-0.46092883
169	0xbe7f16cb	-0.24911039
170	0xbe6306af	-0.22170518
171	0xbfcc9956	-1.5984294
172	0x3e0c807e	0.13720891
173	0xbe247d14	-0.16063339
174	0x3ec2a90e	0.38019603
175	0xbec52c3f	-0.3851032
176	0x3f0121d2	0.5044223
177	0xbf8c63f1	-1.0968
178	0x3f04c1ef	0.5185842
179	0xc029ee7b	-2.6551807
180	0x3f116fab	0.56811017
181	0xbfff745a	-1.9957383
182	0x3f113b72	0.5673133
183	0xbf9dd335	-1.233008
184	0xbdd6e502	-0.104928985
185	0xbf456f8a	-0.7712332
186	0x3d86cd47	0.06582122
187	0xbeca5a1b	-0.3952187
188	0x3e34ad4c	0.17644233
189	0xbebb3ec2	-0.36571318
190	0x3d145a2e	0.036218815
191	0x3d375d55	0.044766743
192	0xbf3b2e8a	-0.7311789
193	0xbf25478f	-0.64562315
194	0xc0327e77	-2.7889688
195	0xbfe3e381	-1.7803804
196	0xbf69e473	-0.9136421
197	0xbf30c30a	-0.69047606
198	0xc00fa805	-2.24463
199	0xbb3d6200	-0.0028897524
200	0x400652fd	2.0988152
201	0x3daedcf8	0.0853824
202	0xbf3372c8	-0.7009702
203	0x3e92ddea	0.28684932
204	0xbf659b38	-0.8968997
205	0xbe4042d9	-0.187755
206	0x3ea90bfe	0.33016962
207	0xbf355084	-0.7082598
208	0xbe6e24e5	-0.23256262
209	0x3c896580	0.016772032
210	0xbf25a668	-0.6470704
211	0xbcd67ee8	-0.02618356
212	0x3f8356f0	1.0260906
213	0xbf21e28f	-0.63236326
214	0xbf4fa731	-0.8111449
215	0xbe9719da	-0.2951191
216	0xbdb64c8e	-0.089013204
217	0xbf61306b	-0.87964505
218	0x3f01f757	0.50768036
219	0xbe9f9a42	-0.31172377
220	0xbf51d995	-0.8197263
221	0xbe7f00f0	-0.24902701
222	0x3eb9b1c6	0.36268443
223	0xbf4e745b	-0.80646294
224	0x3e137019	0.1439823
225	0x3e0fbfe7	0.14038049
226	0xbf679207	-0.90457195
227	0xbc99c5d1	-0.018771084
228	0x3e2437bc	0.16036886
229	0xbe84597d	-0.25849524
230	0x3f345cfa	0.7045437
231	0xbf0da37a	-0.5532757
232	0x3f0e4791	0.5557795
233	0xbe944c59	-0.289645
234	0x3d897b42	0.06712963
235	0xbeb5607e	-0.3542518
236	0x3e120d29	0.14262833
237	0xbf07d75e	-0.53063
238	0xbf77a80b	-0.9674079
239	0xbfb1e943	-1.3899311
240	0x3f344703	0.70420855
241	0x3dd2bcde	0.1028993
242	0x3d8bb203	0.068210624
243	0xbdd30931	-0.103044875
244	0x3eb682ec	0.3564676
245	0xbead62f2	-0.33864552
246	0xbf2f3764	-0.68443894
247	0xbe1c3177	-0.15253244
248	0x3f53b9a8	0.82705164
249	0xbfa81084	-1.313004
250	0xbf1a632d	-0.6030758
251	0x40277e6e	2.6170917
252	0xbebaeb8f	-0.36507842
253	0xbec33e0a	-0.3813327
254	0xbe85e4aa	-0.2615102
255	0xbf86c717	-1.0529507

fc1.bias f4 [256]
0	0xbed475e1	-0.41496184
1	0xbf378dae	-0.7170056
2	0xbe559c76	-0.20860466
3	0xbf693125	-0.91090614
4	0xbda364b9	-0.07978196
5	0xbccd82e1	-0.025086822
6	0xbd7c6648	-0.06162098
7	0x3f2132be	0.6296805
8	0x3e3795c3	0.17928223
9	0x3da7d02d	0.08194003
10	0x3e8bc9f3	0.27302513
11	0xbe66aa49	-0.22525896
12	0xbe57cbd2	-0.21073845
13	0xbd96a8b5	-0.07356397
14	0xbef9de5a	-0.48802453
15	0xbe822e6a	-0.25426036
16	0xbebaa23c	-0.364519
17	0x3d831083	0.06399634
18	0xbeba4c47	-0.3638632
19	0xbf47f354	-0.78105664
20	0xbf2ab9c9	-0.66689736
21	0xbeadc078	-0.33935905
22	0xbf9d470b	-1.2287306
23	0xbef6eee3	-0.4822913
24	0x3eab0c8d	0.33408013
25	0xbf2b7e47	-0.6698956
26	0xbf03c165	-0.5146697
27	0xbd76e447	-0.060276296
28	0xbf2d6c6f	-0.6774358
29	0xbea77c56	-0.32712048
30	0x3e019ebe	0.12658212
31	0xbf182b90	-0.5944147
32	0xbf9430b9	-1.1577369
33	0xbf1a89db	-0.603666
34	0xbf051a16	-0.5199293
35	0xbe746d55	-0.23869832
36	0x3ec9b973	0.393993
37	0xbf004ed1	-0.50120264
38	0xbf3fbbc9	-0.7489591
39	0xbf3da0c3	-0.7407343
40	0x3f059236	0.52176225
41	0xbf1aa1f7	-0.6040339
42	0x3efe00f2	0.49610096
43	0x3ec772bf	0.38954732
44	0xbdab1e65	-0.08355407
45	0xbf0f6801	-0.5601807
46	0xbf61bae6	-0.8817581
47	0xbe988eed	-0.29796544
48	0xbd15757a	-0.036488988
49	0xbd8dddaf	-0.069270484
50	0xbf0a5b0f	-0.54045194
51	0xbf1bb27b	-0.60819215
52	0xbf054e22	-0.52072346
53	0xbf61227c	-0.87943244
54	0x3da4bf7d	0.08044336
55	0xbe3661ef	-0.17810796
56	0x3f6b1b57	0.9183859
57	0xbf1582f2	-0.5840293
58	0xbf63fa88	-0.89054155
59	0xbf55e428	-0.83551264
60	0xbf2e96a3	-0.68198603
61	0xbf89eb8a	-1.0775006
62	0x3e93831a	0.2881096
63	0xbf06f8b0	-0.52723217
64	0x3f86100f	1.0473651
65	0xbeab2dea	-0.33433467
66	0xbe9db5af	-0.30802676
67	0x3eb56655	0.35429636
68	0xbefd1e97	-0.494374
69	0xbe6a338f	-0.2287123
70	0xbef7749b	-0.4833115
71	0xbf14b329	-0.58085877
72	0xbf57df76	-0.8432535
73	0xbe188b1a	-0.14896813
74	0xbf830adc	-1.0237689
75	0xbf0f40ca	-0.55958235
76	0xbeb5e7d0	-0.3552842
77	0x3dcebc4f	0.10094511
78	0xbf4139f1	-0.75479037
79	0xbdaf33dc	-0.08554813
80	0xbbc8b36c	-0.0061249044
81	0xbf1107b6	-0.5665239
82	0x3f3d04b0	0.7383528
83	0x3f1b5aa2	0.6068517
84	0xbf3f3f79	-0.74706227
85	0xbfc163ab	-1.5108541
86	0xbf78aa21	-0.97134596
87	0xbf18ea5a	-0.5973259
88	0xbdb64577	-0.08899968
89	0xbeee0e9c	-0.4649552
90	0xbd5e693d	-0.05429958
91	0xbf0050e5	-0.50123435
92	0x3d93ec27	0.07222777
93	0xbf6cb82b	-0.9246852
94	0xbf9889e2	-1.1917078
95	0xbdc0874a	-0.09400804
96	0xbf65689f	-0.89612764
97	0xbe22fd76	-0.15917
98	0xbdef8086	-0.11694436
99	0xbebfdbc4	-0.37472355
100	0xbf9889fe	-1.1917112
101	0x3e18c2ac	0.14918011
102	0xbf027d92	-0.50972855
103	0xbed770c8	-0.42078233
104	0xbf15bf3e	-0.5849494
105	0xbe824cf2	-0.2544933
106	0x3e91b641	0.2845936
107	0xbea83cef	-0.3285899
108	0xbe9379a4	-0.28803742
109	0xbf1d7771	-0.6151038
110	0x3e09de04	0.13463598
111	0xbe223635	-0.15840991
112	0xbe85021c	-0.25978172
113	0xbf519624	-0.8186972
114	0xbf5e9114	-0.8694012
115	0xbf93a2e7	-1.1534089
116	0xbf812c3d	-1.0091625
117	0xbe443815	-0.19162019
118	0xbf58a8c7	-0.84632534
119	0xbf812df6	-1.0092151
120	0x3e0582a7	0.13038121
121	0xbf008cfa	-0.50215113
122	0xbe819efc	-0.25316608
123	0xbe022bb3	-0.12711982
124	0xbf3d3d51	-0.73921686
125	0xbf31d23f	-0.69461435
126	0xbf03952f	-0.5139951
127	0xbf7730c3	-0.9655878
128	0xbe94c22c	-0.2905439
129	0xbe7e451b	-0.24831049
130	0xbe7a6a4f	-0.24454616
131	0x3e6c21e0	0.23059797
132	0x3ee59256	0.44838208
133	0xbeea7074	-0.4578892
134	0xbebe3ff6	-0.37158173
135	0x3e25155c	0.16121429
136	0xbf13e58f	-0.57772154
137	0xbf3e094b	-0.7423293
138	0xbeec104b	-0.4610618
139	0xbeb54a8a	-0.3540843
140	0x3e24b225	0.16083582
141	0x3fc2e726	1.5226791
142	0xbf9b3403	-1.2125248
143	0xbef7ab8e	-0.48373073
144	0x3ff0f348	1.8824244
145	0xbf3cc8d0	-0.73743916
146	0xbf5208c5	-0.8204463
147	0xbef1f2f1	-0.47255662
148	0xbd8f8437	-0.0700764
149	0xbf311e18	-0.69186544
150	0xbf669e55	-0.90085346
151	0xbfa770cf	-1.3081301
152	0xbe71de35	-0.23619922
153	0x3fc66138	1.5498419
154	0xbeb2d074	-0.34924662
155	0xbf3d0140	-0.7383003
156	0xbf2ec788	-0.6827321
157	0xbf8e9683	-1.1139683
158	0xbf52f3a5	-0.8240302
159	0xbdcac459	-0.099007316
160	0xbd79a9b8	-0.060952872
161	0xbf331306	-0.699509
162	0xbe17b657	-0.14815651
163	0xbf6ac7d7	-0.9171118
164	0xbea87cea	-0.32907802
165	0xbef466c6	-0.4773466
166	0xbf2c034a	-0.6719252
167	0xbf8e5b98	-1.1121702
168	0xbea02cf7	-0.31284305
169	0xbf5b605e	-0.8569392
170	0xbec5aca0	-0.38608265
171	0xbf7912ee	-0.9729451
172	0x3db45ee8	0.088071644
173	0xbc5cd3e5	-0.013478254
174	0xbe8f9025	-0.2803966
175	0xbe9e91d5	-0.30970636
176	0x3eb0c9b2	0.3452888
177	0x3ca7d260	0.020486057
178	0xbf0d5f40	-0.55223465
179	0xbf9f0e95	-1.2426325
180	0x3f50444e	0.81354225
181	0xbf078943	-0.5294382
182	0xbea1a3b1	-0.315702
183	0xbf55e4ca	-0.8355223
184	0x3ec12611	0.37724355
185	0xbeaec0dd	-0.34131518
186	0x3d996919	0.07490749
187	0xbf2f13b4	-0.6838944
188	0xbea336d9	-0.31877783
189	0x3e33b959	0.17551173
190	0x3ff9825d	1.9492909
191	0xbf55b82f	-0.83484167
192	0xbf55b34f	-0.8347673
193	0xbe8ea286	-0.2785837
194	0xbf42a346	-0.76030385
195	0xbf20964f	-0.6272935
196	0xbe811759	-0.25213125
197	0x3f9c4eed	1.2211586
198	0xbf90a195	-1.1299311
199	0xbf0a7c76	-0.5409616
200	0xbe988f95	-0.29797044
201	0xbf166445	-0.5874675
202	0xbef25091	-0.47327092
203	0xbe9601bb	-0.29298195
204	0x3f3dbf4e	0.7412003
205	0xbee2af1c	-0.44274223
206	0xbf9bcce8	-1.2171907
207	0x3c83feb4	0.016112663
208	0xbfacdb18	-1.3504362
209	0xbf89e3a9	-1.0772601
210	0xbf39c327	-0.72563404
211	0xbfb12d25	-1.3841902
212	0xbfae5efd	-1.3622738
213	0xbf61c5da	-0.8819252
214	0xbf4e5707	-0.80601543
215	0xbee62d1a	-0.44956285
216	0xbf902e3e	-1.1264112
217	0xbe73b4c7	-0.2379943
218	0xbf82832c	-1.019628
219	0xbe991374	-0.29897654
220	0xbeed9ca5	-0.46408573
221	0xbeb11a6a	-0.34590465
222	0xbf357565	-0.70882255
223	0xbf1905d3	-0.5977451
224	0x3eb6d0ff	0.35706326
225	0xbdca4bb5	-0.09877721
226	0xbf66dc4a	-0.90179884
227	0xbe145824	-0.14486748
228	0xbb0f589a	-0.002187288
229	0xbfa2a7c0	-1.2707443
230	0xbc572d16	-0.013133308
231	0x3f837cc8	1.0272455
232	0x3f30b8cd	0.69031984
233	0xbf7313fc	-0.9495237
234	0x3f06734a	0.5251967
235	0xbeebaba8	-0.460294
236	0xbf399988	-0.72499895
237	0xbed846ea	-0.42241603
238	0xbef6bd0c	-0.48191106
239	0xbdcbcab7	-0.09950774
240	0x40224bae	2.5358691
241	0x3c4d91d8	0.012546979
242	0x3e48204f	0.19543575
243	0xbf483434	-0.78204656
244	0xbea87d54	-0.32908118
245	0xbf6db302	-0.9285127
246	0x3f502e2a	0.8132044
247	0x3e647abf	0.22312449
248	0x3d43683c	0.047706828
249	0xbf89631d	-1.0733372
250	0xbee78787	-0.45220587
251	0xbc00f7e0	-0.007871598
252	0xbf090451	-0.5352221
253	0xbed0ad24	-0.40757096
254	0x3f177d25	0.5917533
255	0xbf24c5df	-0.6436443

fc2.weight f4 [256, 256]
0	0xbdba2cca	-0.09090574
1	0xbdf705d7	-0.12061661
2	0x3ccec263	0.025239175
3	0xbd579d96	-0.05264052
4	0x3d3314cc	0.043721005
5	0xbcae5937	-0.021282775
6	0xbd25b138	-0.040452212
7	0xbc6a6398	-0.014305972
8	0x3d043915	0.032281
9	0xbe2286bd	-0.15871711
10	0xbd4d633d	-0.05014347
11	0xbd6b7384	-0.05748321
12	0xbc516ee9	-0.012782791
13	0xbcaf03f7	-0.021364195
14	0x3c182fd8	0.009288751
15	0x3d20b9c1	0.03923965
16	0xbd8029cc	-0.06257972
17	0x3bb7c6c5	0.005608412
18	0xbc08b2cf	-0.008343413
19	0xbda8cfd0	-0.08242762
20	0xbda620c3	-0.081117176
21	0xbd6790a4	-0.056534424
22	0xbd9d6258	-0.07684773
23	0xbcbb6091	-0.022873195
24	0xbdfb1148	-0.122591555
25	0xbd26d092	-0.040726252
26	0x3cd67734	0.026179887
27	0xbc3f1dca	-0.011664817
28	0x3d109cf3	0.03530593
29	0x3c6b9e65	0.014381026
30	0xbd83d28d	-0.06436644
31	0xbcec678b	-0.028857967
32	0xbcc5021e	-0.024048861
33	0x3cd2b2bb	0.025719991
34	0x3d5ee61c	0.05441867
35	0x3c3f4350	0.011673763
36	0x3c387320	0.011257917
37	0xb92eb97e	-0.00016663034
38	0xbcbc6392	-0.022996698
39	0xbcd6f21d	-0.026238495
40	0x3b99b02a	0.00469019
41	0xbd9ee831	-0.07759131
42	0x3c0d49d9	0.008623564
43	0xbaa203b8	-0.0012360727
44	0xbe00eb01	-0.12589647
45	0xbd882fb8	-0.06649727
46	0xbd27c718	-0.040961355
47	0xbd569f06	-0.05239775
48	0x3d1514f5	0.03639694
49	0xbda81d13	-0.082086705
50	0x3cf06ff7	0.029350264
51	0x3d151675	0.03639837
52	0x3c19a71e	0.009378223
53	0xbd6d6709	-0.05795959
54	0x3d5e5201	0.054277424
55	0xbdfd0aef	-0.12355601
56	0x3d6436cc	0.05571632
57	0x3db73cc5	0.08947138
58	0xbe3e7715	-0.18600114
59	0xbc448862	-0.011995407
60	0x39b62f82	0.0003474914
61	0x3c0cc02b	0.008590738
62	0xbc943b3a	-0.018094648
63	0xbd25ecc0	-0.040508986
64	0xbc6b606d	-0.014366251
65	0x3c2a2908	0.010385759
66	0x3bc5079f	0.0060128714
67	0xbdabf351	-0.08396018
68	0xbd87dbea	-0.06633742
69	0xbc7a8ced	-0.015292388
70	0xbc12a80a	-0.008951196
71	0x3d7c0160	0.06152475
72	0xbd6ea29f	-0.058260556
73	0xbcc8e130	-0.02452144
74	0xbdf6a1e8	-0.120426
75	0x3c0fd208	0.008778103
76	0xbd33fe9e	-0.043943994
77	0xbc70da1a	-0.014700437
78	0x3cd6d12e	0.026222792
79	0x3d247865	0.04015388
80	0xbd0ca3b6	-0.034335814
81	0xbc8a0bcd	-0.01685133
82	0xbcf31d2c	-0.029676996
83	0xbddb4087	-0.10705667
84	0x3d9089a0	0.070575
85	0x3d2c63eb	0.042087477
86	0xbd60ef9e	-0.054916017
87	0xbdbe218b	-0.092837416
88	0xbca0d154	-0.019631065
89	0xbd7bb8e8	-0.061455637
90	0x3cce14b8	0.025156364
91	0xbdab1080	-0.083527565
92	0xbbc90c5d	-0.006135507
93	0xbcec7a75	-0.028866986
94	0xbd87d74c	-0.066328615
95	0xbd95e493	-0.07318988
96	0xbd8aa9fb	-0.067707025
97	0x3c4ada38	0.012381129
98	0xbd97917d	-0.074007966
99	0xbdbb124b	-0.091343485
100	0xbc49bc88	-0.012313016
101	0xbc444901	-0.011980296
102	0xbdf85746	-0.12126021
103	0x3d3e7afe	0.046504013
104	0x3b10fcf6	0.0022123433
105	0xbd96d06f	-0.07363974
106	0x3b9bdb1b	0.004756344
107	0x3c3a77bb	0.011381085
108	0xbd48e6ce	-0.049048238
109	0x3cfe5d2a	0.031050283
110	0xbc283441	-0.010266365
111	0xbd898fbc	-0.06716868
112	0xbb347f16	-0.002754157
113	0x3d013cbd	0.031552065
114	0xbcb5c69d	-0.022189433
115	0xbd1d46ed	-0.03839772
116	0x3cac074c	0.020999573
117	0xbcbbad27	-0.022909714
118	0xbda9cf5b	-0.08291503
119	0xbd333ba7	-0.04375806
120	0x3c22deca	0.009940812
121	0xbd965143	-0.07339718
122	0xbdd44238	-0.10364193
123	0xbd2af864	-0.04174079
124	0x3d3f2f7a	0.046676137
125	0x3cab78c6	0.020931613
126	0xbd2c7166	-0.042100333
127	0x3cc08f33	0.023505783
128	0xbdd5cbd5	-0.104392685
129	0x3d83a833	0.06428566
130	0xbd46e7a3	-0.04856075
131	0xbc99ed75	-0.018789986
132	0xbd86ab2b	-0.065756164
133	0xbd572126	-0.052521847
134	0xbd1aa3b2	-0.03775377
135	0xbc88d9e8	-0.016705468
136	0x3d4016b2	0.046896644
137	0xbd3a6022	-0.045501836
138	0x3a1c9545	0.00059731706
139	0xbd94be43	-0.07262852
140	0xbc8e8c92	-0.017401014
141	0xbd9960f3	-0.07489195
142	0xbd2eeb95	-0.042705137
143	0xbce052de	-0.027383264
144	0xbe1368dc	-0.1439547
145	0xbd5f4dc8	-0.054517537
146	0xbd40ebe7	-0.047099974
147	0xbceeaf67	-0.029136373
148	0xbd7d0d91	-0.061780516
149	0x3c496b96	0.012293717
150	0xbd183f31	-0.03716964
151	0x3cf08409	0.029359834
152	0xbcdcd6c0	-0.02695787
153	0xbd3d7165	-0.04625072
154	0x3d12e651	0.035864178
155	0xbda07b06	-0.07835965
156	0xbd4acf28	-0.049513966
157	0xbd89629c	-0.06708261
158	0xbd4310bd	-0.047623385
159	0xbca24ea2	-0.019812886
160	0xbd18695a	-0.037209846
161	0xbbfe2715	-0.007756124
162	0xbd6cea68	-0.057840735
163	0xbca357b0	-0.019939274
164	0xbe0fc3fb	-0.14039604
165	0xbe0fe539	-0.14052285
166	0x3d7ca4e0	0.061680675
167	0xbb9df8b5	-0.004820908
168	0xbd5966b3	-0.053076457
169	0x3cc6de6b	0.024275979
170	0xbd3f4481	-0.04669619
171	0xbd8d7422	-0.06906916
172	0x3c5f805a	0.013641441
173	0x3cd85709	0.02640869
174	0xbcd1e578	-0.025622115
175	0xba7d632f	-0.00096659636
176	0xbdbcdb4e	-0.092215165
177	0xbd61cba6	-0.055125855
178	0xbcc5e49b	-0.02415686
179	0x3d0a6208	0.033784896
180	0xbdd987e4	-0.10621622
181	0xbc91a8ce	-0.017780688
182	0x3c72de07	0.014823443
183	0xbbe3a7ff	-0.006947517
184	0x3d69cec6	0.05708196
185	0xbc00e920	-0.007868081
186	0xbd7ad6ae	-0.06123989
187	0xbc8a059e	-0.016848382
188	0xbd0e3b66	-0.034724616
189	0x3cc0bed6	0.023528498
190	0xbe01a536	-0.12660679
191	0x3d226a24	0.039652005
192	0xbc24657a	-0.0100339595
193	0xbe1facd3	-0.15593271
194	0x3d03c462	0.032169707
195	0x3d2b89bd	0.041879404
196	0xbd626767	-0.055274393
197	0x3c186060	0.009300321
198	0xbde1c98e	-0.11024772
199	0xbda182a8	-0.07886249
200	0x3badc6ee	0.0053032553
201	0xbd44f689	-0.048086677
202	0xbd83d591	-0.06437219
203	0xbca2ee50	-0.019889027
204	0xbb753b79	-0.0037419482
205	0x3d322756	0.043494545
206	0x3d722bfa	0.05912397
207	0x3c5b297c	0.01337659
208	0xbd51e3ac	-0.051242515
209	0x3d32eb98	0.04368171
210	0xbd857a65	-0.065174855
211	0xbd5990ad	-0.05311649
212	0x3cfe0bbd	0.031011457
213	0xbd828693	-0.06373324
214	0xbbdbe3f4	-0.0067105237
215	0xbd7a6a1f	-0.06113636
216	0xbd349c79	-0.044094536
217	0xbc8ab4ef	-0.016931979
218	0xbc9ad370	-0.01889965
219	0x3d58e5df	0.052953597
220	0x3d968979	0.073504396
221	0x3bfa43e0	0.007637486
222	0x3bc2bc30	0.005942844
223	0x3d46802a	0.04846207
224	0x389d6973	7.505985e-05
225	0xbc7b4a9a	-0.015337611
226	0xbd0076b3	-0.0313632
227	0xbd01eb3a	-0.03171847
228	0xbd0d0a3e	-0.034433596
229	0xbc7998c1	-0.015234173
230	0xbe07e9d7	-0.13272797
231	0xbcae0b60	-0.021245658
232	0x3c6f98f4	0.014623869
233	0xbd7eb207	-0.0621815
234	0xbd937675	-0.07200328
235	0xbd1bb5cd	-0.038015176
236	0xbd72c675	-0.059271295
237	0x3ca78d39	0.020453082
238	0x3d0eac58	0.03483233
239	0xbd627469	-0.0552868
240	0xbcfea222	-0.03108317
241	0xbd564d06	-0.05231955
242	0xbd331650	-0.04372245
243	0xbd740232	-0.059572406
244	0xbcbc347d	-0.022974247
245	0xbd47bad4	-0.048762158
246	0x3cc79784	0.02436424
247	0xbcb7a478	-0.022417292
248	0xbd4270b1	-0.047470752
249	0xbd3b62c7	-0.0457485
250	0x3cbba172	0.022904132
251	0xbd86ca6c	-0.06581578
252	0xbc3f06d0	-0.011659339
253	0x3c61e8b4	0.013788391
254	0xbdcbb790	-0.09947121
255	0xbcacf455	-0.0211126

fc2.bias f4 [256]
0	0xbc216638	-0.009851031
1	0xbaae09ea	-0.0013278101
2	0x3d802c6d	0.062584735
3	0xbdac0ec1	-0.084012516
4	0xbd882a6f	-0.066487186
5	0xbd4e5e0c	-0.05038266
6	0x3e11a828	0.14224303
7	0xbdf3a75f	-0.11897158
8	0xbd1ef16e	-0.038804464
9	0xbf2c09c8	-0.67202425
10	0xbda91c9e	-0.082574114
11	0xbdff521a	-0.124668315
12	0xbd34f06e	-0.044174604
13	0xbdb830b9	-0.08993668
14	0xbd9564cb	-0.07294615
15	0xbe0ac68e	-0.13552305
16	0xbf11e15e	-0.5698451
17	0x3eaa076a	0.3320878
18	0x3e85675a	0.26055413
19	0xbf915d5a	-1.1356614
20	0x3e43442f	0.19068979
21	0xbda6543c	-0.08121535
22	0xbdad5e10	-0.084652066
23	0x3d9b14a8	0.07572299
24	0xbdc2309d	-0.094819285
25	0x3dcb2a2a	0.099201515
26	0xbdd316f7	-0.103071146
27	0x3dc9f3e2	0.0986097
28	0xbd14a40e	-0.036289267
29	0xbf2a7ca3	-0.6659643
30	0xbd5e5e4a	-0.05428914
31	0xbb1dc2a3	-0.0024072311
32	0xbdae396b	-0.08507045
33	0xbd880bc7	-0.06642871
34	0x3d00c3fd	0.03143691
35	0xbdbe7314	-0.09299293
36	0x3ef277f3	0.4735714
37	0xbd2066a3	-0.039160382
38	0x3e84d949	0.25947025
39	0x3d7d9a2c	0.061914608
40	0xbd8241cd	-0.06360207
41	0x3ebf4bd9	0.37362555
42	0xbdfab52a	-0.122415856
43	0xbdb9da39	-0.09074826
44	0x3f81795a	1.0115159
45	0xbe0604ed	-0.13087817
46	0xbdb439c1	-0.08800078
47	0xbf282579	-0.6568218
48	0xbd9beead	-0.07613883
49	0xbcad8aff	-0.021184443
50	0xbda7f5e0	-0.08201194
51	0xba40a151	-0.0007348257
52	0xbd2e30f3	-0.04252715
53	0xbc54bd79	-0.012984627
54	0x3f9ba11a	1.2158539
55	0x3d94329e	0.07236217
56	0x3d874dee	0.06606661
57	0x3f9de660	1.233593
58	0xbdf7233a	-0.12067266
59	0xbd88159c	-0.06644747
60	0xbe006a09	-0.12540449
61	0xbddea6a2	-0.108716264
62	0xbb4bcb84	-0.0031096647
63	0xbdc17883	-0.09446814
64	0x3da81b7d	0.08208368
65	0x3fc25f6d	1.5185372
66	0x3c938ce1	0.018011512
67	0xbe511603	-0.20418553
68	0x3d49f97b	0.04931019
69	0xbd7424cc	-0.059605405
70	0x3c88ccf4	0.016699292
71	0xbe08153f	-0.13289355
72	0xbd6bf4b0	-0.0576064
73	0xbe33ce42	-0.1755915
74	0x3d803f34	0.06262055
75	0x3e8f62b9	0.28005007
76	0xbccf4754	-0.025302567
77	0x3fb52e7d	1.4154812
78	0xbd973e46	-0.073849246
79	0xbeeae5f8	-0.45878577
80	0x3ed85793	0.42254314
81	0xbd55c7ef	-0.052192625
82	0xbd4531b3	-0.0481431
83	0xbd90bb70	-0.07067001
84	0x3f58bb81	0.8466111
85	0xbc09d6f9	-0.00841307
86	0xbd841d59	-0.0645091
87	0xbe2fc5ca	-0.17165294
88	0xbda21adf	-0.079152815
89	0x3ff0d40f	1.8814715
90	0xc02cb9eb	-2.6988475
91	0xbd1942de	-0.037417285
92	0xbda0bd9b	-0.078486644
93	0xbe489554	-0.19588214
94	0xbbddf30c	-0.006773358
95	0xbd7568e2	-0.059914477
96	0xbf22002f	-0.6328153
97	0xbd31f6dc	-0.043448314
98	0xbda100a5	-0.07861451
99	0xbcc4392e	-0.023953047
100	0xbd02917d	-0.03187703
101	0x3f20e4cc	0.62849116
102	0xbe2f3f68	-0.17114031
103	0xbda0cb7d	-0.07851312
104	0xbe21af2b	-0.15789478
105	0x3e131330	0.14362788
106	0xbf2ddcdb	-0.67915124
107	0x3efb3c9e	0.49069685
108	0xbd9e6cd9	-0.07735605
109	0xbd25dacc	-0.040491864
110	0x3f612575	0.8794778
111	0x3db022c5	0.08600382
112	0x3e535ad6	0.2064012
113	0xbdedea30	-0.11616933
114	0xbde2748b	-0.11057385
115	0xbe1c959a	-0.15291443
116	0x3d365629	0.044515762
117	0xbb087398	-0.0020820852
118	0xbdad303f	-0.08456468
119	0x3e578a04	0.21048743
120	0xbd1809aa	-0.03711859
121	0xbda66880	-0.081254005
122	0xbfac5d8a	-1.3466046
123	0xbe063b28	-0.13108504
124	0x3dbb9052	0.09158386
125	0xbf87c273	-1.0606216
126	0x3e3f90f3	0.18707637
127	0xbdd3d2eb	-0.10342964
128	0xbec39d8d	-0.3820614
129	0xbdb97321	-0.09055162
130	0xbe1e5b80	-0.15464592
131	0x3e1fe78f	0.15615676
132	0xbdecb3d0	-0.11557734
133	0x3ea4bf48	0.32177186
134	0xbc434459	-0.011918151
135	0xc0060434	-2.0940065
136	0xbdb0a547	-0.08625274
137	0xbf788b7c	-0.97087836
138	0xbe1c3dc4	-0.15257937
139	0xbe139755	-0.14413197
140	0xbe14fdb8	-0.14549911
141	0xbd41896b	-0.047250193
142	0xbcca3930	-0.024685472
143	0xbe0eead2	-0.13956764
144	0xbdf05b1c	-0.11736128
145	0xbda14d89	-0.07876117
146	0xbd2f36f0	-0.042777
147	0xbd6fed23	-0.05857576
148	0x3f8bf4fc	1.0934138
149	0xbd23c63e	-0.03998398
150	0xbe80bc38	-0.251436
151	0xbdc6345a	-0.09677954
152	0xbdf302b9	-0.11865754
153	0xbd9e31c8	-0.07724339
154	0x3d57ddfe	0.052701943
155	0xbbf5234a	-0.0074810134
156	0xbeb2a03d	-0.34887877
157	0xbda86855	-0.08223025
158	0x3bba14ce	0.0056787496
159	0xbb681409	-0.0035412333
160	0xbda342b8	-0.0797171
161	0x3fb56bc2	1.417351
162	0xbdecd05b	-0.11563178
163	0xbb8cba5a	-0.004294676
164	0xbc8da6f8	-0.017291531
165	0xbd598ff3	-0.053115796
166	0xbf944e8b	-1.158647
167	0xbe03cd61	-0.12871315
168	0x3c2e6bfa	0.010645861
169	0xbe5d95d3	-0.21639185
170	0xbd504f5b	-0.05085693
171	0xbefac41e	-0.4897775
172	0xbd8937f8	-0.06700128
173	0xbe332ab7	-0.17496763
174	0xbbdeb525	-0.0067964965
175	0x3c1fb8c1	0.009748639
176	0x3f15df5a	0.5854393
177	0x3d996abf	0.07491063
178	0x3cb0b35e	0.021569904
179	0xbe96adf4	-0.2942959
180	0xbdff3b97	-0.12462538
181	0xbb9b331a	-0.0047363164
182	0xbe03dd4e	-0.1287739
183	0xbda3329a	-0.07968636
184	0x3ec48c46	0.3838827
185	0xbdb6b5e5	-0.089214124
186	0x3c6fb26e	0.014629943
187	0xbd978f3d	-0.074003674
188	0x3fa59110	1.2934895
189	0x3c10512b	0.008808414
190	0xbecf74e3	-0.40518865
191	0xbded43a9	-0.11585171
192	0x3b12407e	0.0022316272
193	0xbc61a196	-0.013771435
194	0x3e0aec92	0.13566807
195	0xbe061f1e	-0.13097808
196	0xbe01364f	-0.12618373
197	0x3f841e06	1.0321662
198	0x3ddf1f27	0.10894614
199	0xbd836909	-0.06416518
200	0x3d6f51d5	0.05842765
201	0xbc8c7d37	-0.01714955
202	0x3dd64a82	0.1046343
203	0xbfd00e37	-1.6254338
204	0xbdde9bc0	-0.10869551
205	0x3ebc7486	0.3680765
206	0xbe553b74	-0.20823461
207	0xbde9b908	-0.11412245
208	0xbe2dc4dc	-0.16969627
209	0xbd9f3797	-0.07774275
210	0xbe357006	-0.17718515
211	0x3c323190	0.010876074
212	0xbdb84535	-0.08997575
213	0xbdddc3c1	-0.10828353
214	0x3e0c6450	0.13710141
215	0x3f87deda	1.0614884
216	0x3f557bd7	0.8339209
217	0xbdfee11c	-0.1244528
218	0xbc33db66	-0.010977602
219	0xbdfd4fec	-0.123687595
220	0x3f02b473	0.51056594
221	0xbe39d299	-0.18146743
222	0xbe2b66c7	-0.16738425
223	0xbd869fd1	-0.06573451
224	0xbc65b245	-0.014019554
225	0xbe7b9366	-0.24567947
226	0xbda17fc0	-0.078856945
227	0x3f8bae91	1.0912648
228	0x3e655971	0.223974
229	0x3d8f15b2	0.0698656
230	0x3e577a42	0.21042731
231	0xbda94292	-0.082646504
232	0xbd9c22f3	-0.076238535
233	0xbd3c6cdb	-0.04600225
234	0xbddfe434	-0.10932198
235	0xbd817c83	-0.06322577
236	0x3dcb9672	0.099408045
237	0xbda08d24	-0.078394204
238	0x3ef26077	0.47339222
239	0xc00013e2	-2.0012136
240	0xbf5b78ad	-0.8573101
241	0xbf5be933	-0.8590271
242	0x3f1b01a0	0.60549355
243	0xbda66459	-0.081246085
244	0xbf210fa1	-0.6291447
245	0xbe57a8cf	-0.21060489
246	0xbcd3ccfd	-0.025854582
247	0xbd292638	-0.041296214
248	0x3b0281eb	0.0019913863
249	0x3e29be59	0.16576518
250	0xbdd8493f	-0.105608456
251	0xbcd5f90a	-0.026119728
252	0x3e9d4eac	0.30724084
253	0xbdaa70de	-0.08322309
254	0x3fd1201b	1.6337923
255	0xbdbcc299	-0.09216804

fc3.weight f4 [128, 256]
0	0x3d463678	0.04839179
1	0x3ba40436	0.005005385
2	0xbdaeaa40	-0.08528566
3	0xbd1fba00	-0.038995743
4	0x3d950039	0.07275433
5	0xbcbd6415	-0.023119012
6	0xbf20240f	-0.6255502
7	0x3d3c8e19	0.046033952
8	0x3db73678	0.08945936
9	0xbf83c187	-1.0293435
10	0xbd95e1ce	-0.073184595
11	0xbd29dbf3	-0.041469526
12	0x3b28d19c	0.0025759703
13	0x3906940d	0.00012834389
14	0x3c853dfc	0.016264908
15	0x3e9897ea	0.298034
16	0xbe3b18d6	-0.18271193
17	0xbf397960	-0.7245083
18	0xbeff9463	-0.49917898
19	0xbf4eeeae	-0.80832946
20	0x3e5a2b20	0.21305513
21	0x3c9c2a96	0.019063275
22	0x3b5784e7	0.0032885612
23	0x3ec0562a	0.37565738
24	0xbb99e67a	-0.0046966644
25	0xbe7fe925	-0.24991281
26	0x3d0bc5a3	0.034124028
27	0xbe296f76	-0.16546425
28	0x3d44c149	0.048035894
29	0x3db85a05	0.09001545
30	0xbeb3087a	-0.34967405
31	0x3f4015fe	0.7503356
32	0x3cd6e713	0.026233232
33	0x3b166f80	0.0022954643
34	0xbd8aafb7	-0.06771796
35	0x3c23bc7f	0.009993671
36	0xbf7c3554	-0.9851887
37	0x3cc8dcae	0.02451929
38	0xbd9ae76e	-0.07563673
39	0x3d60d251	0.054888073
40	0x3cae8bc4	0.02130688
41	0x3d4de5ce	0.050267987
42	0x3c5c8c19	0.013461136
43	0x3c9712f9	0.018441664
44	0xbf45ab5c	-0.772146
45	0xbd15c056	-0.03656038
46	0x3e9f3d1f	0.3110132
47	0xbfb298a0	-1.3952827
48	0x3d7ec857	0.062202778
49	0xbd854ffd	-0.06509397
50	0x3e8cb954	0.27485144
51	0xbd2fe12a	-0.042939343
52	0x3b91a190	0.0044443086
53	0x3d08f9b3	0.033441257
54	0xbe7cc394	-0.24683982
55	0xbe402583	-0.1876431
56	0xbe891943	-0.26777086
57	0xbdfb627f	-0.12274646
58	0x3edb7fab	0.4287084
59	0xbc9fd9a0	-0.019512951
60	0xbc235b98	-0.009970568
61	0xbe12023b	-0.14258663
62	0xbdb93d07	-0.09044843
63	0xbcc3e304	-0.02391196
64	0x3e7cdca3	0.24693541
65	0xbf25ef5e	-0.6481837
66	0x3d48a468	0.048984915
67	0xbb09c5f7	-0.0021022537
68	0x3e69b2f5	0.22822173
69	0xbb78d6c7	-0.0037969814
70	0xbfc04a24	-1.5022626
71	0x3c2cea50	0.010553911
72	0xbe67d312	-0.2263911
73	0x3c820ec4	0.015876181
74	0xbcbf1561	-0.023325624
75	0xbf1c5a8d	-0.6107567
76	0x3cad8042	0.021179322
77	0x3ddd3cae	0.10802589
78	0x3d1aef2a	0.03782574
79	0x3f4f685d	0.8101862
80	0xbf3251f1	-0.6965628
81	0xbe078b60	-0.13236761
82	0x3b21aea9	0.0024670756
83	0xbf014e45	-0.50510055
84	0xbfb1fa23	-1.3904461
85	0xbbc295c6	-0.0059382645
86	0x3c5514a0	0.013005406
87	0x3e2eed0c	0.17082614
88	0xbd21beab	-0.039488476
89	0x3df01e18	0.1172449
90	0xbfb4ec24	-1.4134564
91	0xbc86b224	-0.016442366
92	0x3d2b78d2	0.04186327
93	0x3e1dd385	0.1541272
94	0xbd3a9f26	-0.045561932
95	0xbd1d1513	-0.038350176
96	0xbf462bc8	-0.77410555
97	0xbc2d2798	-0.010568522
98	0xbf936807	-1.1516122
99	0xbd74bdbf	-0.05975127
100	0x3dcc1368	0.09964639
101	0x3dfd1c32	0.123588935
102	0xbf1a148d	-0.6018761
103	0x3cba9724	0.022777148
104	0xbd882283	-0.066472076
105	0xbf12e8fb	-0.5738675
106	0xbfe9dfca	-1.827142
107	0x3f024dd6	0.5090002
108	0xbe1d4782	-0.1535931
109	0xbc9c4762	-0.019077007
110	0x3eb770db	0.3582829
111	0x3ce3f6b2	0.027827594
112	0xbe28478a	-0.1643354
113	0xbdbef347	-0.09323745
114	0x3b650a85	0.0034948897
115	0xbc13f628	-0.009030856
116	0xbe107057	-0.14105354
117	0xbce214f4	-0.027597882
118	0xbd4c3f12	-0.049864836
119	0xbf1d3e6f	-0.6142339
120	0xbd2e3b24	-0.04253687
121	0xbd2bbb6a	-0.04192678
122	0xc026a62e	-2.6038928
123	0x3f1aa0d0	0.6040163
124	0x3eeff085	0.4686319
125	0x3e27939b	0.16364901
126	0x3f3104af	0.6914777
127	0x3d30e0cb	0.04318313
128	0xbf463c99	-0.77436215
129	0xbd63b04e	-0.05558806
130	0x3d7d3b58	0.061824173
131	0xbf4ad98d	-0.79238206
132	0xba812672	-0.0009853377
133	0xbf918434	-1.136847
134	0xbc3ae7b8	-0.011407785
135	0xbf302421	-0.6880513
136	0xbc88881c	-0.016666465
137	0xbf69098d	-0.910302
138	0x3aab2980	0.0013058633
139	0xbbe6fd20	-0.007049218
140	0xbf196f01	-0.59935004
141	0x3f5cdf17	0.8627791
142	0x3c1e4ba2	0.009661587
143	0xbd132bfc	-0.03593062
144	0x3d79a8e8	0.060952097
145	0xbeccaafb	-0.39974198
146	0xbd833ac2	-0.064076915
147	0x3d31a025	0.043365616
148	0xbf917bd5	-1.1365916
149	0xbc4bed10	-0.012446657
150	0x3e0d87ee	0.13821384
151	0xbc8e8e47	-0.017401827
152	0xbcdc1e21	-0.026869835
153	0x3ecfe343	0.40603074
154	0xbfe2858e	-1.7697008
155	0x3d34b8d8	0.044121593
156	0xbf13cc39	-0.57733494
157	0xbd21a1c2	-0.039460905
158	0x3d6366b3	0.055517863
159	0xbf9435be	-1.1578901
160	0xbd59958e	-0.053121142
161	0xbedd2e16	-0.43199223
162	0x3d7458eb	0.05965511
163	0x3cdac2f9	0.026704298
164	0xbe8e40d4	-0.27783835
165	0xbd34db1f	-0.044154283
166	0xbf32be7e	-0.6982192
167	0xbe0f284c	-0.13980216
168	0xbf33c97c	-0.70229316
169	0xbe80ae36	-0.25132912
170	0x3cd4c248	0.025971547
171	0xbf50b222	-0.8152181
172	0x3c7accf8	0.015307657
173	0xbec8cc9f	-0.39218614
174	0xbe0343c2	-0.12818816
175	0x3fc3d422	1.5299113
176	0xbecb5e0b	-0.39720187
177	0xbfb2705d	-1.394054
178	0x3e76faef	0.24119161
179	0xbe55823e	-0.20850465
180	0xbdbd6601	-0.09247971
181	0xbc595651	-0.013265208
182	0xbd4d3159	-0.05009589
183	0x3d1c30c7	0.038132455
184	0xbf5e5da5	-0.8686164
185	0x3ab35110	0.0013680775
186	0xbd934891	-0.07191575
187	0x3b9d1116	0.0047932966
188	0xbfcf31bf	-1.6187056
189	0xbd60acbf	-0.054852244
190	0xbf251a27	-0.6449303
191	0x3db0fe32	0.08642234
192	0x3d15b1fc	0.036546692
193	0x3c2daa06	0.010599619
194	0x3ebdcbdb	0.37069592
195	0xbc3a23fd	-0.011361119
196	0xbcb5ed56	-0.022207897
197	0x3fd96a79	1.6985618
198	0xbf33f4e7	-0.70295566
199	0x3b066987	0.0020509677
200	0xbf85a68b	-1.044145
201	0x3d102bd7	0.03519806
202	0x3edab2e1	0.427146
203	0xbf45b9e6	-0.77236784
204	0xbd106896	-0.03525599
205	0x3ecbc4e1	0.39798644
206	0xbb96af33	-0.004598522
207	0xbaef1ff0	-0.0018243771
208	0xbf7abcdd	-0.9794443
209	0xbcfa777c	-0.030574553
210	0x3eca0c2c	0.3946241
211	0xbbc407bd	-0.005982368
212	0x3d49ff9e	0.04931604
213	0x3e8a9768	0.2706864
214	0x3d26b783	0.040702354
215	0xbf0869f9	-0.532867
216	0x3e955aa8	0.29170728
217	0xbe7659fa	-0.24057761
218	0x3d29fa2c	0.041498348
219	0xbd3313da	-0.043720104
220	0x3dceb052	0.10092224
221	0xbe954cd4	-0.29160178
222	0x3aca38e3	0.001542833
223	0x3d3cac0b	0.04606251
224	0x3d235cd5	0.039883453
225	0xbf8300ff	-1.0234679
226	0x3bb26a5f	0.0054448093
227	0xbeb195a0	-0.34684467
228	0xbf001968	-0.50038767
229	0xbc364421	-0.011124642
230	0x3eb446b3	0.3521019
231	0xbe64a77b	-0.22329514
232	0x3cfbec1e	0.030752238
233	0xbc26e38c	-0.010186087
234	0xbc7d2ed0	-0.0154530555
235	0x3d65a986	0.056069873
236	0x3ec10261	0.37697127
237	0xbb7aacf1	-0.0038250054
238	0xbfdbf889	-1.7185222
239	0x3e503d1b	0.2033581
240	0xbf9acde3	-1.2094082
241	0xbe285b4d	-0.16441078
242	0xbe2d2155	-0.16907246
243	0xbd0d0a1e	-0.034433477
244	0xbdbfb996	-0.093615696
245	0x3dbbccc0	0.09169912
246	0x3b549df7	0.0032442787
247	0x3d55d93b	0.05220912
248	0x3d857ac7	0.065175585
249	0xbf04c73d	-0.51866513
250	0x3d6b13e4	0.057392016
251	0x3d93b3d7	0.07212036
252	0x3e8b707c	0.27234256
253	0xbceb8014	-0.028747596
254	0x3f301bae	0.68792236
255	0xbd83fddd	-0.06444905

fc3.bias f4 [128]
0	0x3f12b625	0.5730918
1	0xbe506042	-0.2034922
2	0x3f973d10	1.181551
3	0x3c7fdfbd	0.015617308
4	0xbf2e0828	-0.67981195
5	0x3f90e50f	1.1319903
6	0xbd08a8d5	-0.033364136
7	0xbec60369	-0.38674477
8	0xbf13338e	-0.5750054
9	0xbe420be9	-0.18949856
10	0xbe0234c8	-0.12715447
11	0xbfeb824c	-1.8399138
12	0x3efbe518	0.49198222
13	0xbd8e2acc	-0.069417566
14	0x3fe7847f	1.808731
15	0xbc8738d7	-0.016506596
16	0x3e74acfc	0.23894113
17	0x3fd4c535	1.6622683
18	0xbe293c6c	-0.16526955
19	0xbf640620	-0.89071846
20	0x3f201e82	0.6254655
21	0xbe550256	-0.20801672
22	0x3c978036	0.018493753
23	0xbf04f057	-0.5192923
24	0xbf492162	-0.78566563
25	0x3ef9c464	0.48782647
26	0xbf5b7755	-0.8572896
27	0xbe09029b	-0.133799
28	0xbf61db63	-0.8822538
29	0xc01173bc	-2.2726889
30	0xbfa3cdaf	-1.2797145
31	0xbea84d73	-0.3287159
32	0xbfd9e3d4	-1.7022653
33	0xbe6eac15	-0.23307832
34	0x3f923f6a	1.1425602
35	0x3e492a72	0.19645098
36	0xbe329b3e	-0.17442033
37	0xbdb4eb11	-0.08833898
38	0xbed363f6	-0.41287202
39	0xbd6bd01d	-0.05757152
40	0x3f3c554d	0.7356766
41	0x3f9b72d6	1.214442
42	0xbe0c7844	-0.13717753
43	0x3ffd6521	1.9796487
44	0xbda2e34a	-0.07953508
45	0x3ec9a0c4	0.39380467
46	0x3fa57f3f	1.2929457
47	0x3fc5c486	1.5450599
48	0xbe91146b	-0.2833589
49	0x3e9447a8	0.2896092
50	0xbd8fa31b	-0.07013532
51	0x3e523289	0.2052709
52	0xbf9c9814	-1.223391
53	0xbdfe49bb	-0.12416407
54	0xbf9d55f8	-1.229186
55	0xbd8ee8c1	-0.06977988
56	0xbf3189d2	-0.6935092
57	0x3f350241	0.70706564
58	0xbde0e1de	-0.10980581
59	0xbdfaaa84	-0.122395545
60	0x3bfb99fa	0.0076782675
61	0x3f582bce	0.8444184
62	0xbf71249b	-0.9419648
63	0x3e29e6bb	0.16591923
64	0xbe806a00	-0.25080872
65	0xbf24de3c	-0.644016
66	0xbfd99158	-1.699748
67	0xbd1dbbb2	-0.03850908
68	0xbe81322a	-0.25233585
69	0xbe6c074b	-0.23049657
70	0x3edf24b9	0.43582705
71	0xbdc4b9c1	-0.09605742
72	0xbdc9c309	-0.09851653
73	0xbea2d303	-0.31801614
74	0xbf65d4ec	-0.8977802
75	0xbe0468e0	-0.12930632
76	0xbcf33087	-0.029686226
77	0xbdb56861	-0.08857799
78	0xbdc1e47b	-0.09467407
79	0xbe62ed46	-0.22160825
80	0xbe0b01eb	-0.1357495
81	0xbd426365	-0.04745807
82	0xbeeae4d0	-0.45877695
83	0xbea71975	-0.3263661
84	0x3ebfeb97	0.37484428
85	0xbe06bfb8	-0.13159072
86	0xbf22910e	-0.63502586
87	0x3dc2162b	0.094768845
88	0xbd9b20ed	-0.075746395
89	0x3c307c14	0.01077177
90	0x3d126e96	0.035749994
91	0xbefae27a	-0.49000913
92	0x3de6740a	0.112526014
93	0xbf3bdb63	-0.7338163
94	0x3f735183	0.9504625
95	0x3eab85c7	0.33500502
96	0x3f83640b	1.0264906
97	0xbe169f71	-0.1470926
98	0xbead2834	-0.33819735
99	0x3e1e72dd	0.15473504
100	0xbe266d06	-0.16252527
101	0xbdf3a32f	-0.11896359
102	0xbe38c564	-0.18044049
103	0xbef72653	-0.48271427
104	0xbdf3537d	-0.118811585
105	0xbe325a80	-0.17417336
106	0xc004021d	-2.062629
107	0x3f1b133f	0.6057624
108	0xbdf74bd7	-0.12075012
109	0xbd85dee5	-0.065366544
110	0x3f71188a	0.9417807
111	0xbd885f76	-0.06658833
112	0xbe27c406	-0.16383371
113	0x3e952c3c	0.2913531
114	0xbe25b63a	-0.16182795
115	0x3d8e7e45	0.06957678
116	0x3ec1ce08	0.37852502
117	0x4035fd23	2.8435752
118	0xc00f8f62	-2.2431264
119	0xbd44ddff	-0.048063274
120	0xbdae7200	-0.085178375
121	0x3f6a0c53	0.91425055
122	0x3f58b83e	0.8465613
123	0xbfe337c9	-1.7751399
124	0xbf1e3b34	-0.61809087
125	0x3e0b0aff	0.13578413
126	0x3e072770	0.13198638
127	0x40144b66	2.317102

fc4.weight f4 [64, 128]
0	0xbe9c93a4	-0.3058139
1	0x3d02c3cc	0.031925008
2	0x3e918919	0.2842491
3	0xbe13b755	-0.14425404
4	0xbea91ec5	-0.33031288
5	0xbed7b6e9	-0.42131737
6	0xbd5a5b7c	-0.053309903
7	0x3e978b15	0.295983
8	0xbe837872	-0.2567783
9	0xbe29d48c	-0.16584986
10	0x3d57de76	0.05270239
11	0xbf20b1ee	-0.627715
12	0x3dc55aba	0.09636445
13	0xbd93925b	-0.072056495
14	0x3f09cd96	0.53829324
15	0xbe8bcfbe	-0.27306932
16	0xbea5a26d	-0.32350484
17	0xbf81e0ee	-1.0146768
18	0xbc2be633	-0.0104918955
19	0xbf638def	-0.8888845
20	0xbf0142dd	-0.5049265
21	0xbdf9826b	-0.121830784
22	0xbca6ea60	-0.02037543
23	0xbe971584	-0.29508603
24	0xbdeb8ae4	-0.11501101
25	0xbe843efc	-0.25829303
26	0xbee9150b	-0.45523867
27	0xbd95ea1b	-0.07320043
28	0x3f071ded	0.5278004
29	0xbd52741f	-0.051380273
30	0xbf9eb7e0	-1.2399864
31	0xbe3112bd	-0.17292304
32	0xbf1358b7	-0.57557243
33	0x3cf5d869	0.030010419
34	0xbe38c42a	-0.1804358
35	0xbdd31be5	-0.10308055
36	0xbe83123d	-0.25599852
37	0xb7c9da20	-2.406264e-05
38	0xbeddac38	-0.43295455
39	0xbe0f352a	-0.13985124
40	0xbe4a4c80	-0.19755745
41	0x3e4b7e2a	0.19872347
42	0xbd71782d	-0.0589525
43	0xbee696d0	-0.45036936
44	0x3b02fa99	0.0019985794
45	0xbc9b1b06	-0.018933784
46	0xbe00004c	-0.12500113
47	0xbe2cdd7a	-0.16881362
48	0xbdbb3d34	-0.09142533
49	0xbd284b78	-0.041087598
50	0xbe4debaa	-0.2010943
51	0xbdae32cf	-0.08505785
52	0xbf373725	-0.7156852
53	0xbd8780bb	-0.0661635
54	0xbf76d490	-0.96418095
55	0x3e226d5b	0.15862028
56	0x3dad48bb	0.08461138
57	0xba8da690	-0.0010807086
58	0x3d214394	0.03937109
59	0xbc179a1e	-0.009253053
60	0x3e8a408a	0.27002364
61	0xbec773c6	-0.38955516
62	0xbf8ffee0	-1.1249657
63	0xbe74ed63	-0.23918681
64	0xbd138ac3	-0.036021005
65	0x3e90b7fd	0.28265372
66	0x3e6981b0	0.22803378
67	0x3d10c96f	0.035348352
68	0xbc28b779	-0.01029765
69	0x3ebfe99c	0.37482917
70	0xbe2f300a	-0.17108169
71	0xbcffeb2d	-0.03124007
72	0xbd749cd4	-0.059719875
73	0x3de068e7	0.109575085
74	0xbe5720d8	-0.21008623
75	0x3cadc499	0.02121191
76	0x3d789a41	0.060693983
77	0x3c2a0b1a	0.010378623
78	0x3d88519a	0.06656189
79	0xbeb0980d	-0.34491006
80	0xbd8ad4d0	-0.06778872
81	0x3d6a5205	0.057207126
82	0xbf06eee4	-0.5270827
83	0x3e92186d	0.2853426
84	0x3e6266d6	0.22109541
85	0x3e2e26b9	0.17006959
86	0xbf5094b6	-0.81476915
87	0x3f0a929a	0.54129946
88	0xbe25cda2	-0.16191724
89	0xbe1077a0	-0.14108133
90	0x3f09ba89	0.53800255
91	0xbf3789f8	-0.716949
92	0x3ea721d7	0.32643005
93	0xbda785e3	-0.08179834
94	0xbed2ca21	-0.41169837
95	0xbedc92e3	-0.43080816
96	0xbe8c76e1	-0.27434447
97	0xbdff099c	-0.12453005
98	0x3dcf83d7	0.10132568
99	0xbe22e709	-0.15908445
100	0x3c26b8c3	0.010175887
101	0xbe08c746	-0.13357267
102	0xbba60538	-0.00506654
103	0x3d311c13	0.043239664
104	0xbd9c72a8	-0.076390564
105	0x3b2c40a0	0.0026283637
106	0xbf19d962	-0.60097325
107	0x3d026b26	0.031840466
108	0xbd662445	-0.056186933
109	0x3e2d04bb	0.16896336
110	0xbf1aa346	-0.60405385
111	0x3bd6ead4	0.0065587554
112	0x3cbaf3e9	0.022821384
113	0xbe8cacd1	-0.27475598
114	0xbd8f1bf9	-0.06987757
115	0xbe337ce9	-0.17528118
116	0xbefab93a	-0.48969442
117	0x3db058d8	0.086106956
118	0xbdbb11e3	-0.09134271
119	0x3d83c749	0.06434495
120	0xbd40a13b	-0.04702876
121	0x3db7aa7a	0.08968063
122	0x3e1e5924	0.15463692
123	0xbeeee18d	-0.46656457
124	0xbf6b1fb2	-0.9184524
125	0xbedc8a0f	-0.4307408
126	0x3e7338cc	0.23752135
127	0xbf4ed3e4	-0.8079207
128	0xbe1febc0	-0.15617275
129	0xbeed6999	-0.46369627
130	0xbe0e07c9	-0.13870157
131	0xbd0c918f	-0.034318503
132	0xbce20b9d	-0.027593428
133	0xbee51b68	-0.44747472
134	0xbdc17074	-0.09445277
135	0xbe36862c	-0.1782462
136	0x3d108900	0.035286903
137	0xbe1e9ae0	-0.15488768
138	0x3d43ca70	0.04780048
139	0xbc2f9aec	-0.010718089
140	0xbd9a9be6	-0.075492665
141	0xbdd2396d	-0.10264859
142	0x3ba43d6f	0.0050122063
143	0xbc6c8ccb	-0.014437865
144	0xbe495c5f	-0.19664143
145	0xbe9741a0	-0.29542255
146	0xbe01ac1e	-0.12663314
147	0xbe839739	-0.2570131
148	0xbebb4f8f	-0.36584136
149	0xbc3bf0fc	-0.011471029
150	0xbd001976	-0.03127428
151	0xbe420a09	-0.1894914
152	0xbec3b20f	-0.38221785
153	0x3da879ef	0.08226382
154	0x3e2f42c2	0.1711531
155	0xbc1b80db	-0.009491171
156	0xbe44c726	-0.19216594
157	0x3e334405	0.17506416
158	0xbe29b4c2	-0.1657286
159	0xbe03df87	-0.12878238
160	0x3d658560	0.0560354
161	0x3db1bc89	0.08678538
162	0xbe9d6a33	-0.30745086
163	0x3d48c83f	0.049019095
164	0x3d1509a5	0.03638615
165	0x3caee5f3	0.021349883
166	0xbef2b307	-0.47402212
167	0x3d52a406	0.051425956
168	0xbcfe34a2	-0.031030957
169	0xbd513162	-0.051072486
170	0x3b9908a9	0.004670222
171	0xbb6bdf8f	-0.0035991406
172	0xbdb58fb7	-0.08865302
173	0x3c3a2b1a	0.011362815
174	0xbd11c174	-0.035584882
175	0xbecc9f9a	-0.39965516
176	0xbd97b6be	-0.07407902
177	0xbc8ffdd4	-0.01757709
178	0xbe41113d	-0.18854232
179	0x3db1dcd1	0.086846955
180	0xbdf370d1	-0.118867524
181	0xbe2fbc78	-0.17161739
182	0xbf1b8df2	-0.60763466
183	0x3bdcc35b	0.0067371554
184	0xbe2d81ad	-0.16943999
185	0xbe28ea92	-0.16495731
186	0x3c1d4671	0.009599314
187	0x3a39384a	0.00070655777
188	0xbcba50d0	-0.022743613
189	0xbed215e6	-0.41032332
190	0x3d555bcd	0.0520895
191	0x3d64224e	0.055696778
192	0x3d04951f	0.032368775
193	0x3c11b39e	0.008892922
194	0x3ab0650a	0.0013457846
195	0xbc315c00	-0.010825157
196	0xbdff1cef	-0.124566905
197	0xbce1ba1b	-0.027554562
198	0xbdb10a61	-0.08644558
199	0x3d8fa578	0.070139825
200	0xbea33a02	-0.31880194
201	0x3c092517	0.008370659
202	0xbca26931	-0.01982555
203	0xbd25bd03	-0.04046346
204	0xbea914a8	-0.33023572
205	0xbc57a60c	-0.013162147
206	0xbc080569	-0.008302071
207	0xbe65578a	-0.22396675
208	0xbdd3aa3d	-0.10335205
209	0x3d4a2a6c	0.049356863
210	0x3e173231	0.1476524
211	0xbdc9aee4	-0.09847811
212	0xbea74fe6	-0.32678145
213	0xbdd220a5	-0.10260133
214	0x3cf63aa2	0.030057255
215	0x3d1b80e6	0.037964724
216	0xbc099e33	-0.008399534
217	0x3c79c0d8	0.015243731
218	0xbc0f0938	-0.008730225
219	0x3d8aebae	0.067832336
220	0xbe8fad92	-0.2806211
221	0xbdee0180	-0.1162138
222	0xbeaac6a8	-0.33354688
223	0x3c5faa32	0.013651418
224	0x3d7f172e	0.062277965
225	0x3dad1e53	0.084530495
226	0x3d476ebe	0.048689596
227	0xbea9d88c	-0.33173025
228	0xbe1ecb10	-0.1550715
229	0x3d91ea9c	0.07124826
230	0xbd395b81	-0.04525328
231	0xbdf2c29f	-0.11853527
232	0xbdbb787e	-0.091538414
233	0xbd26d393	-0.040729117
234	0x3e1ba948	0.15201294
235	0xbdb7bd9c	-0.08971712
236	0x3dce02d6	0.10059135
237	0xbd46f187	-0.048570182
238	0x3ce6bc8c	0.028166078
239	0xbdee0815	-0.11622635
240	0xbe7b4f2e	-0.24541923
241	0xbdf472bd	-0.11935947
242	0xbd9a836b	-0.07544597
243	0xbe1cc531	-0.15309598
244	0xbebdb568	-0.37052464
245	0x3c98fb66	0.018674564
246	0xbec2f346	-0.38076228
247	0xbe0a6c7f	-0.1351795
248	0xbd947b00	-0.07250023
249	0xbe847a7d	-0.258747
250	0xbe098b62	-0.13432077
251	0xbc9e0c43	-0.019292956
252	0xbe0b0b84	-0.13578612
253	0xbea5dba2	-0.3239413
254	0xbbc30544	-0.0059515554
255	0xbe27c18c	-0.16382426

fc4.bias f4 [64]
0	0xbe7a0a80	-0.24418068
1	0x3c363414	0.011120815
2	0xbe3cfad1	-0.18455054
3	0xbe13f9e5	-0.14450796
4	0x3f3286fb	0.69737214
5	0xbd87d12f	-0.066316955
6	0xbfafcd0f	-1.3734454
7	0x3e5998e1	0.21249725
8	0xbed3cf90	-0.41369295
9	0xbd12f2dc	-0.03587614
10	0x3f13dcea	0.57758963
11	0x40bf669b	5.981275
12	0x3e86bec9	0.26317433
13	0xbe2365aa	-0.1595675
14	0xbe06b6fa	-0.13155738
15	0xbdaae044	-0.083435565
16	0xbe85385a	-0.26019555
17	0x402ea218	2.7286434
18	0xbe60017d	-0.21875568
19	0xbe3c34c1	-0.18379499
20	0xbd362197	-0.044465628
21	0x3d9fdd1a	0.07805844
22	0x3e376250	0.17908597
23	0xbe6c60e3	-0.23083834
24	0xbe71dd2d	-0.23619528
25	0x3f13e66d	0.57773477
26	0xbe298ab0	-0.16556811
27	0xbeb16ac8	-0.3465178
28	0x3f3bdc7a	0.73383296
29	0xbdb06eef	-0.08614909
30	0x3fbfe472	1.4991591
31	0x3e96cf86	0.29455203
32	0x3f73dcf2	0.9525901
33	0xbe05097b	-0.12991898
34	0x3e3588e7	0.17728005
35	0xbe099e29	-0.1343924
36	0xba944747	-0.0011312746
37	0x3f0a9df9	0.541473
38	0xbde23c5f	-0.11046671
39	0xbbc1542b	-0.005899926
40	0xbe60c4fe	-0.21950147
41	0xbe610531	-0.21974637
42	0xbe136068	-0.14392245
43	0xbe9ba69f	-0.3040056
44	0x3c236a93	0.00997414
45	0x3e40737f	0.18794058
46	0xbf816da2	-1.0111582
47	0x3fdfaad7	1.7474011
48	0x3dbadb32	0.091238394
49	0x3b8fa9c7	0.0043842527
50	0xbd8d97f9	-0.06913752
51	0x3be1e4d8	0.0068937354
52	0x3cbe30b4	0.023216583
53	0xbd8f5148	-0.06997925
54	0x3e675eb5	0.22594722
55	0x38fa7a24	0.000119436794
56	0x3db24173	0.0870389
57	0x3e5ffa53	0.21872835
58	0xbe158fd4	-0.14605647
59	0xbe40ca1a	-0.18827096
60	0xbe73bab3	-0.23801689
61	0xbe2c8b6f	-0.16850065
62	0xbe07ee05	-0.13274391
63	0x3e874176	0.2641713
