model/DQN/_Player_dqnAgent_model_Best.pth (torch_old, 489705 bytes, 10 tensors)

fc1.weight f4 [256, 57]
0	0x3e5d0865	0.21585234
1	0x3f104d71	0.56368166
2	0xbee5491b	-0.44782338
3	0xbe77f672	-0.24215105
4	0xbe6ff05f	-0.23431538
5	0xbf65a6dd	-0.8970774
6	0xbf437fa7	-0.76366657
7	0xbfb32b4e	-1.399759
8	0x3fa675e4	1.3004727
9	0xbf1d92d3	-0.6155216
10	0x3fbb2697	1.4621152
11	0xbd4f22fd	-0.050570477
12	0x3f815e88	1.0106974
13	0xbdb02aa1	-0.08601881
14	0x3e932516	0.28739232
15	0x3e84c2f4	0.25929987
16	0xbeeb8b69	-0.460048
17	0xbed708e1	-0.41998962
18	0x3d8e7024	0.06954983
19	0xbe4a7076	-0.19769463
20	0xbd7d2530	-0.061803043
21	0xbf1ed034	-0.6203644
22	0xbf0b6929	-0.54457337
23	0xc0617d31	-3.523266
24	0xc0195ec4	-2.396409
25	0xbd9ef3a2	-0.07761313
26	0xbeeceb2e	-0.46273178
27	0xbdf9fde6	-0.122066304
28	0xbdaac568	-0.083384335
29	0xc00267a6	-2.0375762
30	0xbd537a42	-0.051630266
31	0x3f10a6f9	0.5650478
32	0x3e197fdb	0.14990179
33	0xbf335c50	-0.7006273
34	0xbf1aa65c	-0.60410094
35	0x3de4c5ed	0.11170564
36	0xbf378b7c	-0.7169721
37	0xbecba12a	-0.39771396
38	0x3d721610	0.05910307
39	0x3f2a08f6	0.66419923
40	0x3be44260	0.0069659203
41	0x3eb6bd77	0.35691425
42	0x3f241fad	0.64110833
43	0xbf4838a2	-0.78211415
44	0xbfccfc43	-1.6014484
45	0xbebe4489	-0.37161663
46	0xbf132b9c	-0.5748842
47	0x3ff31dda	1.8993485
48	0xbf105b5e	-0.56389415
49	0xbf29c918	-0.6632247
50	0xbf9089e2	-1.1292078
51	0x3ddb95da	0.10721941
52	0xbf1b1b4e	-0.6058854
53	0x3fef4292	1.8692191
54	0xbf335014	-0.70044065
55	0xbf3c86e6	-0.7364334
56	0x3eebc192	0.4604612
57	0xbd503f80	-0.05084181
58	0xbe53d72a	-0.20687547
59	0xbf489d30	-0.7836485
60	0xbfb0b7af	-1.3806056
61	0xbc5e9b59	-0.013586842
62	0xbf82f1f7	-1.0230092
63	0x3eef65a9	0.46757248
64	0xbe143cdf	-0.14476345
65	0x3f34fb30	0.7069578
66	0x3e8eaa17	0.27864143
67	0x3f98eec6	1.1947868
68	0x3f089ed7	0.5336737
69	0x3e8ef9ce	0.2792496
70	0x3d1718c5	0.036888856
71	0xbdaeecb6	-0.08541243
72	0x3cf7a2ee	0.030229058
73	0x3e923b00	0.28560638
74	0x3e4b6e52	0.19866303
75	0x3f18dcef	0.5971212
76	0x3e2d8de9	0.16948666
77	0xbf58c4d5	-0.8467534
78	0x3f6f66bb	0.9351613
79	0xbffeb9d9	-1.9900466
80	0xbe692666	-0.22768554
81	0x3f2fc005	0.68652374
82	0xbe7655ec	-0.24056214
83	0xbf97f3db	-1.1871294
84	0xbe083a9d	-0.13303609
85	0xbcb6c9e8	-0.022313073
86	0xbf963aa2	-1.1736643
87	0xbd78589c	-0.06063138
88	0x3ec3573d	0.38152495
89	0xbf0521f0	-0.5200491
90	0xbf8372a4	-1.026936
91	0xbf26364a	-0.6492659
92	0xbeb18ca0	-0.346776
93	0xbf8352d1	-1.0259649
94	0xbf58ebbc	-0.847347
95	0xbdaff7e0	-0.085922
96	0xbfb3f420	-1.4058876
97	0x3ce31a98	0.027722642
98	0xbf207230	-0.62674236
99	0xc01b7409	-2.4289572
100	0xbf73b92f	-0.9520444
101	0x3ee08120	0.43848515
102	0x3ed16401	0.4089661
103	0xbf8e140d	-1.1099869
104	0xbf4e9991	-0.80703074
105	0x3f410b37	0.7540774
106	0xbf969447	-1.1764001
107	0xbf0b3153	-0.5437214
108	0xbe683005	-0.22674568
109	0xbf87441d	-1.0567662
110	0xbfd6385a	-1.6735947
111	0xbe5ee734	-0.21767884
112	0xbf9420c9	-1.1572505
113	0x3f91bbd9	1.1385452
114	0x3fd841c8	1.6895075
115	0xbf09a305	-0.53764373
116	0x3d17993c	0.03701137
117	0xbe984cb6	-0.29746026
118	0x3c5152f5	0.012776126
119	0xbf28ad2d	-0.65889245
120	0x3fb56e54	1.4174294
121	0xbb0b5d91	-0.0021265487
122	0xbd29f1b6	-0.04149028
123	0xc016752e	-2.350902
124	0x3fc3119c	1.5239749
125	0xbf54e517	-0.83162063
126	0x3feb7a62	1.8396723
127	0xbe33490c	-0.17508334
128	0x3f38e4d7	0.7222418
129	0xbfcd565c	-1.604198
130	0x3f24235d	0.6411646
131	0xbf895a38	-1.0730658
132	0x3fb45679	1.4088889
133	0xbf0e46c0	-0.55576706
134	0xbf97d4a8	-1.1861773
135	0xbfcb31ac	-1.5874534
136	0x3ee9896f	0.45612666
137	0xc08225e4	-4.0671253
138	0xbf75b5fc	-0.9598081
139	0x3cb88f20	0.022529185
140	0xbefc4c15	-0.49276796
141	0x3f7e86ce	0.99424446
142	0x3e00c55e	0.1257529
143	0xbf2576ef	-0.64634603
144	0xbdf3aeb7	-0.118985586
145	0xbf74b983	-0.9559557
146	0x3cf58b4e	0.029973652
147	0xbf20a1a9	-0.62746674
148	0x3f7435f6	0.9539484
149	0xbe259b2c	-0.16172475
150	0xbf402359	-0.75053936
151	0x3f68724a	0.9079939
152	0xbcdc16e4	-0.026866384
153	0xbf37b35d	-0.7175806
154	0x3d92a816	0.07160966
155	0xbdac4350	-0.08411276
156	0x3fd3a09e	1.6533391
157	0xbf3dd1cd	-0.74148256
158	0xbedd0a4a	-0.43171912
159	0xbf8e8186	-1.1133277
160	0xbf29d18d	-0.66335374
161	0xbed788cb	-0.42096552
162	0x3fa940b5	1.3222872
163	0xbf40904d	-0.75220186
164	0x3ea9e572	0.33182865
165	0x3eb80ffd	0.35949698
166	0xbf32b0bf	-0.69800943
167	0x3f71365d	0.94223577
168	0xbec02569	-0.37528542
169	0xbf25930b	-0.64677495
170	0xbed13efa	-0.4086836
171	0xbf659165	-0.8967498
172	0x3ecdb230	0.4017501
173	0xbe8138d7	-0.25238678
174	0x3ef88758	0.4854076
175	0xbea642ef	-0.3247294
176	0x3f0f9d34	0.5609925
177	0xbfbd545b	-1.4791368
178	0x3f0b0ede	0.5431956
179	0xc05ce7f5	-3.4516575
180	0x3f2f8125	0.68556434
181	0xc01ec91d	-2.481025
182	0x3f83f744	1.0309834
183	0xbfb1d6e6	-1.3893707
184	0xbe791dd4	-0.24327785
185	0xbf8ed0c7	-1.1157464
186	0xbe783892	-0.2424033
187	0xbf375eac	-0.7162883
188	0xbe500b3f	-0.2031679
189	0xbe0355d4	-0.1282571
190	0xbd801c21	-0.06255365
191	0xbe55f122	-0.20892766
192	0xbf2564a7	-0.6460671
193	0xbf469ad7	-0.77580017
194	0xc093c455	-4.6177163
195	0xc0521afd	-3.2828972
196	0xbee06c6a	-0.43832713
197	0xbfa7b3b8	-1.3101721
198	0xbfeb711b	-1.8393892
199	0xbb3d6200	-0.0028897524
200	0x400629d3	2.0963027
201	0x3daedcf8	0.0853824
202	0xbeb2dce5	-0.34934154
203	0x3ec4cbd8	0.3843677
204	0xbfc9257d	-1.5714566
205	0xbefd151c	-0.49430168
206	0x3edaf92e	0.42768234
207	0xbfb0fffd	-1.3828121
208	0xbf0a0330	-0.53911114
209	0x3c896580	0.016772032
210	0xbf5319b2	-0.8246108
211	0xbcd67ee8	-0.02618356
212	0x3e9b0153	0.30274448
213	0xbf545888	-0.8294759
214	0xbfbcaf3e	-1.474098
215	0x3e0a7499	0.13521041
216	0x3ce40488	0.027834192
217	0xbfc573e8	-1.5425997
218	0xbef12964	-0.4710189
219	0x3e048687	0.12941943
220	0xbfbdc873	-1.4826797
221	0x3d6abe62	0.05731047
222	0x3de78128	0.113039315
223	0xbfbc15e1	-1.4694177
224	0x3f17411d	0.5908373
225	0x3ebcee2c	0.3690046
226	0xbfc8a497	-1.5675229
227	0xbf4f0544	-0.8086741
228	0x3edf806d	0.4365267
229	0xbe957764	-0.2919265
230	0x3f1d1e71	0.61374575
231	0xbf865303	-1.0494083
232	0x3ef4f983	0.47846612
233	0xbeaeff02	-0.3417893
234	0xbf2d56fd	-0.6771086
235	0xbf93f248	-1.1558313
236	0x3eed677f	0.46368024
237	0xbe26c7c1	-0.16287138
238	0xbe41f822	-0.18942311
239	0xbef08d0e	-0.46982616
240	0x3facded4	1.3505502
241	0x3f09f7ea	0.5389391
242	0x3f6b9d2e	0.9203671
243	0x3ee38ae3	0.444419
244	0x3f73c536	0.95222795
245	0xbea858d5	-0.32880273
246	0xbecc490a	-0.39899474
247	0x3e7de15a	0.24792996
248	0x3fc0f782	1.5075533
249	0xbf5fd327	-0.8743157
250	0xbf27104c	-0.6525924
251	0x405ee4f1	3.4827235
252	0xbfa79484	-1.3092198
253	0x3da2003d	0.07910202
254	0xbe9f6cb2	-0.31137615
255	0xbfd38e2e	-1.6527765

fc1.bias f4 [256]
0	0xbf2c3f66	-0.6728424
1	0xbf7e0c2e	-0.99237335
2	0xbf1b33db	-0.60626
3	0xbfc97429	-1.5738574
4	0xbdf40133	-0.11914291
5	0xbe1c57df	-0.15267895
6	0x3cbc52ea	0.022988755
7	0x3e251037	0.16119467
8	0x3f29263c	0.66073966
9	0x3ee5f0b1	0.44910195
10	0x3e83e579	0.2576101
11	0xbeafb3a7	-0.3431675
12	0xbf1b2488	-0.6060262
13	0xbb7aaf48	-0.0038251448
14	0xbf043e51	-0.5165759
15	0xbe8b8ccd	-0.2725586
16	0xbeaf82f5	-0.342796
17	0x3dd4319b	0.10361024
18	0xbf12ca7e	-0.5734023
19	0xbf82d2b0	-1.0220547
20	0xbfafb366	-1.3726623
21	0xbe8675c5	-0.26261726
22	0xbf903a84	-1.1267858
23	0xbf475934	-0.7787049
24	0x3dd588cb	0.10426482
25	0xbf37ac58	-0.7174735
26	0xbef244eb	-0.47318205
27	0xbe62fdf4	-0.22167188
28	0xbf843766	-1.0329406
29	0xbf1d41ed	-0.6142872
30	0x3e0aa1bb	0.13538258
31	0xbec53b87	-0.38521978
32	0xbf9b8978	-1.2151327
33	0xbf99ddca	-1.202081
34	0x3e3f974f	0.18710063
35	0xbe5f9a17	-0.21836124
36	0x3f5b8454	0.8574879
37	0xbef144ff	-0.47122952
38	0xbfba91f1	-1.4575788
39	0xbf5d6bbe	-0.86492527
40	0x3e6e797f	0.23288535
41	0xbf07f2c2	-0.53104794
42	0x3f4550a9	0.770762
43	0x3b6996f1	0.0035642947
44	0xbea9a8d0	-0.33136606
45	0xbfaf38bf	-1.3689193
46	0xbecd8f58	-0.40148425
47	0xbec71a73	-0.38887367
48	0x3e02d756	0.12777457
49	0x3ec1ec59	0.3787563
50	0xbee7d674	-0.45280802
51	0xbe5329f8	-0.20621479
52	0xbf12d13c	-0.57350516
53	0xbf511def	-0.816863
54	0x3e2236cb	0.15841214
55	0xbe290665	-0.16506346
56	0x3fa36edc	1.2768207
57	0xbf557f4c	-0.83397365
58	0xbf8534bf	-1.0406722
59	0xbf7017a5	-0.9378608
60	0xbf38fd9e	-0.7226199
61	0xbf6bffbf	-0.9218711
62	0x3f2535c3	0.6453516
63	0xbf228a21	-0.6349202
64	0x3febe7eb	1.8430151
65	0xbed41c50	-0.4142785
66	0xbe1bdf8a	-0.15221992
67	0x3b85c36e	0.004082135
68	0xbf05a311	-0.52201945
69	0xbd8e61f9	-0.069522806
70	0xbfa31862	-1.2741816
71	0xbe756594	-0.2396453
72	0xbf8a094c	-1.0784087
73	0xbe188b1a	-0.14896813
74	0xbf9ced32	-1.2259886
75	0xbf4f6e95	-0.8102811
76	0xbeb7e63d	-0.35917845
77	0x3e909e00	0.28245544
78	0xbf831d94	-1.0243402
79	0xbf4cc7aa	-0.79992163
80	0x3f37cf52	0.7180072
81	0xbee11c4c	-0.439669
82	0x3f9f9dc0	1.2470016
83	0x3f61c54a	0.88191664
84	0xbf574f50	-0.84105396
85	0xbfd9f973	-1.7029251
86	0xbf495408	-0.78643847
87	0xbf0de7fa	-0.55432093
88	0x3ed43446	0.4144613
89	0xbf0e7bc4	-0.556576
90	0xbf4a044d	-0.7891281
91	0xbf75a4fa	-0.9595486
92	0xbe4ba7f2	-0.19888285
93	0xbf589f8b	-0.84618443
94	0xbfaf860b	-1.3712782
95	0x3e88f9b6	0.26753014
96	0xbf66559c	-0.8997438
97	0x3e2bdc1f	0.16783188
98	0xbdeb657a	-0.114939645
99	0xbf116c1a	-0.56805575
100	0xbfd0ad63	-1.6302913
101	0x3cdfe991	0.027333053
102	0xbf808070	-1.0039196
103	0xbf3514fb	-0.7073514
104	0xbf7f5715	-0.9974225
105	0xbe8d81f7	-0.27638218
106	0x3ec715ae	0.38883728
107	0xbf8202a6	-1.0157058
108	0xbeed59db	-0.46357617
109	0xbf0d1c3c	-0.5512121
110	0x3e4de150	0.20105481
111	0xbe6e215f	-0.23254918
112	0xbf1d2b9e	-0.6139468
113	0xbe9f1487	-0.3107035
114	0xbf71081f	-0.94153017
115	0xbf8b903e	-1.0903394
116	0xbf543011	-0.82885844
117	0xbdd26e97	-0.102749996
118	0xbf0a56c6	-0.54038656
119	0xbf769ef1	-0.96336275
120	0xbe0b11cf	-0.13581012
121	0xbee0e9c2	-0.43928343
122	0xbf41bad2	-0.7567569
123	0xbedd10f8	-0.4317701
124	0xbf27ec37	-0.6559481
125	0xbf0c317d	-0.54763013
126	0xbf25117f	-0.6447982
127	0xbf5e330d	-0.8679665
128	0xbf1e0773	-0.61730117
129	0x3e00dc2d	0.1258399
130	0xbcb4b961	-0.022061052
131	0x3eae456f	0.3403735
132	0x3e22b851	0.15890624
133	0xbee1088e	-0.4395184
134	0x3ee7db40	0.45284462
135	0x3e8bbc29	0.27291992
136	0xbf803faa	-1.0019429
137	0xbf963abb	-1.1736673
138	0xbed70c91	-0.42001775
139	0xbf66cd11	-0.90156657
140	0x3e7e8f19	0.24859275
141	0x401253e8	2.2863712
142	0xbfd30168	-1.6484804
143	0xbfa423b9	-1.2823402
144	0x402085d4	2.5081682
145	0xbfadefeb	-1.3588842
146	0xbfa33369	-1.2750064
147	0xbf3acb4a	-0.72966444
148	0xbe8f103c	-0.27942073
149	0xbf64fb81	-0.89446265
150	0xbef6388b	-0.48090014
151	0xbfef9d50	-1.8719883
152	0x3e073a57	0.13205849
153	0x40093c5c	2.144309
154	0xbe89db5c	-0.2692517
155	0xbf25e2b6	-0.6479906
156	0xbf66b297	-0.90116256
157	0xbfb2d050	-1.3969822
158	0xbf487264	-0.78299546
159	0xbd5cbe36	-0.053892337
160	0x3d98f5ad	0.07468734
161	0xbf27a8a1	-0.6549168
162	0xbf4d4e84	-0.8019793
163	0xbf46a56e	-0.77596176
164	0xbd13694f	-0.035989102
165	0xbdcb7370	-0.09934127
166	0xbf11fa15	-0.5702222
167	0xbfa3c1ec	-1.2793555
168	0xbf3de9fa	-0.74185145
169	0xbf929198	-1.1450682
170	0x3e29e3af	0.1659076
171	0xbf77383b	-0.96570176
172	0x3e04b551	0.12959792
173	0xbe6047b4	-0.21902353
174	0x3d9eba49	0.07750375
175	0xbe9e91d5	-0.30970636
176	0x3d73a383	0.05948211
177	0x3e509dff	0.2037277
178	0xbf48027a	-0.7812878
179	0xbfb58a5e	-1.4182851
180	0x3f453069	0.77026993
181	0xbf3c6e08	-0.73605394
182	0xbf3806e7	-0.7188553
183	0xbf6eeb78	-0.93328047
184	0x3f4548c9	0.77064186
185	0xbe8697ea	-0.26287776
186	0xbcd5457a	-0.026034106
187	0xbfaca25a	-1.3487046
188	0x3e570577	0.20998178
189	0x3b4dee26	0.0031422465
190	0x402d9d7a	2.7127366
191	0xbf3fa2ab	-0.74857587
192	0xbf537630	-0.82602215
193	0xbf0c1579	-0.54720265
194	0xbf65a598	-0.897058
195	0x3d9e6857	0.07734745
196	0xbea6a164	-0.32545006
197	0x3fa08678	1.2541037
198	0xbfb305de	-1.3986166
199	0xbf4eef1e	-0.80833614
200	0xbec6453c	-0.38724697
201	0xbf8d7a8a	-1.1053021
202	0xbf7c8ab9	-0.98649174
203	0xbe4f96b6	-0.20272335
204	0x3f87bcaa	1.0604451
205	0xbf78b8fe	-0.97157276
206	0xbfce5fac	-1.6122947
207	0xbe3705ee	-0.17873356
208	0xbfc8f2c2	-1.5699084
209	0xbf94edd2	-1.1635077
210	0xbf73cb05	-0.9523166
211	0xbff0db21	-1.8816873
212	0xbfc9128e	-1.5708787
213	0xbf6c633d	-0.92338926
214	0xbf5291e2	-0.8225385
215	0xbf62eff5	-0.88647395
216	0xbfd39b90	-1.6531849
217	0xbf26ac6b	-0.6510684
218	0xbfa47f37	-1.2851323
219	0xbe5fd2e3	-0.2185779
220	0xbf0c5123	-0.54811305
221	0xbf40d36a	-0.7532259
222	0xbeca0936	-0.39460152
223	0xbf1a40cb	-0.60255116
224	0xbd17d84c	-0.03707151
225	0xbee71977	-0.45136616
226	0xbf510cb9	-0.8166004
227	0x3c8fc076	0.017547827
228	0xbe1ac077	-0.15112482
229	0xbf4285c0	-0.75985336
230	0x3e614df7	0.22002397
231	0x3fa19371	1.262312
232	0x3e102f3a	0.14080516
233	0xbfa426af	-1.2824305
234	0x3eaac1f9	0.33351114
235	0xbf3d17e7	-0.738646
236	0xbef4d319	-0.47817305
237	0xbe16e6c7	-0.14736472
238	0xbf550801	-0.8321534
239	0xbc19ce01	-0.009387494
240	0x4062d292	3.5441022
241	0x3b180ca1	0.0023200887
242	0x3d3f6e9b	0.04673634
243	0xbf193d56	-0.59859216
244	0xbd5354fe	-0.051594727
245	0xbfa76218	-1.3076811
246	0x3fa48aea	1.2854893
247	0x3e307456	0.17231879
248	0x3b8ee2d8	0.004360538
249	0xbfcf5200	-1.61969
250	0xbf8f2984	-1.1184545
251	0xbbb4efb6	-0.00552174
252	0xbf51be52	-0.8193103
253	0xbf59cb67	-0.8507599
254	0x3f3b0b39	0.73064
255	0xbf35641a	-0.7085587

fc2.weight f4 [256, 256]
0	0xbdba2cca	-0.09090574
1	0xbdf705d7	-0.12061661
2	0x3ccec263	0.025239175
3	0xbd579d96	-0.05264052
4	0x3d3314cc	0.043721005
5	0xbcae5937	-0.021282775
6	0xbd25b138	-0.040452212
7	0xbc6a6398	-0.014305972
8	0x3d043915	0.032281
9	0xbe2286bd	-0.15871711
10	0xbd4d633d	-0.05014347
11	0xbd6b7384	-0.05748321
12	0xbc516ee9	-0.012782791
13	0xbcaf03f7	-0.021364195
14	0x3c182fd8	0.009288751
15	0x3d20b9c1	0.03923965
16	0xbd8029cc	-0.06257972
17	0x3bb7c6c5	0.005608412
18	0xbc08b2cf	-0.008343413
19	0xbda8cfd0	-0.08242762
20	0xbda620c3	-0.081117176
21	0xbd6790a4	-0.056534424
22	0xbd9d6258	-0.07684773
23	0xbcbb6091	-0.022873195
24	0xbdfb1148	-0.122591555
25	0xbd26d092	-0.040726252
26	0x3cd67734	0.026179887
27	0xbc3f1dca	-0.011664817
28	0x3d109cf3	0.03530593
29	0x3c6b9e65	0.014381026
30	0xbd83d28d	-0.06436644
31	0xbcec678b	-0.028857967
32	0xbcc5021e	-0.024048861
33	0x3cd2b2bb	0.025719991
34	0x3d5ee61c	0.05441867
35	0x3c3f4350	0.011673763
36	0x3c387320	0.011257917
37	0xb92eb97e	-0.00016663034
38	0xbcbc6392	-0.022996698
39	0xbcd6f21d	-0.026238495
40	0x3b99b02a	0.00469019
41	0xbd9ee831	-0.07759131
42	0x3c0d49d9	0.008623564
43	0xbaa203b8	-0.0012360727
44	0xbe00eb01	-0.12589647
45	0xbd882fb8	-0.06649727
46	0xbd27c718	-0.040961355
47	0xbd569f06	-0.05239775
48	0x3d1514f5	0.03639694
49	0xbda81d13	-0.082086705
50	0x3cf06ff7	0.029350264
51	0x3d151675	0.03639837
52	0x3c19a71e	0.009378223
53	0xbd6d6709	-0.05795959
54	0x3d5e5201	0.054277424
55	0xbdfd0aef	-0.12355601
56	0x3d6436cc	0.05571632
57	0x3db73cc5	0.08947138
58	0xbe3e7715	-0.18600114
59	0xbc448862	-0.011995407
60	0x39b62f82	0.0003474914
61	0x3c0cc02b	0.008590738
62	0xbc943b3a	-0.018094648
63	0xbd25ecc0	-0.040508986
64	0xbc6b606d	-0.014366251
65	0x3c2a2908	0.010385759
66	0x3bc5079f	0.0060128714
67	0xbdabf351	-0.08396018
68	0xbd87dbea	-0.06633742
69	0xbc7a8ced	-0.015292388
70	0xbc12a80a	-0.008951196
71	0x3d7c0160	0.06152475
72	0xbd6ea29f	-0.058260556
73	0xbcc8e130	-0.02452144
74	0xbdf6a1e8	-0.120426
75	0x3c0fd208	0.008778103
76	0xbd33fe9e	-0.043943994
77	0xbc70da1a	-0.014700437
78	0x3cd6d12e	0.026222792
79	0x3d247865	0.04015388
80	0xbd0ca3b6	-0.034335814
81	0xbc8a0bcd	-0.01685133
82	0xbcf31d2c	-0.029676996
83	0xbddb4087	-0.10705667
84	0x3d9089a0	0.070575
85	0x3d2c63eb	0.042087477
86	0xbd60ef9e	-0.054916017
87	0xbdbe218b	-0.092837416
88	0xbca0d154	-0.019631065
89	0xbd7bb8e8	-0.061455637
90	0x3cce14b8	0.025156364
91	0xbdab1080	-0.083527565
92	0xbbc90c5d	-0.006135507
93	0xbcec7a75	-0.028866986
94	0xbd87d74c	-0.066328615
95	0xbd95e493	-0.07318988
96	0xbd8aa9fb	-0.067707025
97	0x3c4ada38	0.012381129
98	0xbd97917d	-0.074007966
99	0xbdbb124b	-0.091343485
100	0xbc49bc88	-0.012313016
101	0xbc444901	-0.011980296
102	0xbdf85746	-0.12126021
103	0x3d3e7afe	0.046504013
104	0x3b10fcf6	0.0022123433
105	0xbd96d06f	-0.07363974
106	0x3b9bdb1b	0.004756344
107	0x3c3a77bb	0.011381085
108	0xbd48e6ce	-0.049048238
109	0x3cfe5d2a	0.031050283
110	0xbc283441	-0.010266365
111	0xbd898fbc	-0.06716868
112	0xbb347f16	-0.002754157
113	0x3d013cbd	0.031552065
114	0xbcb5c69d	-0.022189433
115	0xbd1d46ed	-0.03839772
116	0x3cac074c	0.020999573
117	0xbcbbad27	-0.022909714
118	0xbda9cf5b	-0.08291503
119	0xbd333ba7	-0.04375806
120	0x3c22deca	0.009940812
121	0xbd965143	-0.07339718
122	0xbdd44238	-0.10364193
123	0xbd2af864	-0.04174079
124	0x3d3f2f7a	0.046676137
125	0x3cab78c6	0.020931613
126	0xbd2c7166	-0.042100333
127	0x3cc08f33	0.023505783
128	0xbdd5cbd5	-0.104392685
129	0x3d83a833	0.06428566
130	0xbd46e7a3	-0.04856075
131	0xbc99ed75	-0.018789986
132	0xbd86ab2b	-0.065756164
133	0xbd572126	-0.052521847
134	0xbd1aa3b2	-0.03775377
135	0xbc88d9e8	-0.016705468
136	0x3d4016b2	0.046896644
137	0xbd3a6022	-0.045501836
138	0x3a1c9545	0.00059731706
139	0xbd94be43	-0.07262852
140	0xbc8e8c92	-0.017401014
141	0xbd9960f3	-0.07489195
142	0xbd2eeb95	-0.042705137
143	0xbce052de	-0.027383264
144	0xbe1368dc	-0.1439547
145	0xbd5f4dc8	-0.054517537
146	0xbd40ebe7	-0.047099974
147	0xbceeaf67	-0.029136373
148	0xbd7d0d91	-0.061780516
149	0x3c496b96	0.012293717
150	0xbd183f31	-0.03716964
151	0x3cf08409	0.029359834
152	0xbcdcd6c0	-0.02695787
153	0xbd3d7165	-0.04625072
154	0x3d12e651	0.035864178
155	0xbda07b06	-0.07835965
156	0xbd4acf28	-0.049513966
157	0xbd89629c	-0.06708261
158	0xbd4310bd	-0.047623385
159	0xbca24ea2	-0.019812886
160	0xbd18695a	-0.037209846
161	0xbbfe2715	-0.007756124
162	0xbd6cea68	-0.057840735
163	0xbca357b0	-0.019939274
164	0xbe0fc3fb	-0.14039604
165	0xbe0fe539	-0.14052285
166	0x3d7ca4e0	0.061680675
167	0xbb9df8b5	-0.004820908
168	0xbd5966b3	-0.053076457
169	0x3cc6de6b	0.024275979
170	0xbd3f4481	-0.04669619
171	0xbd8d7422	-0.06906916
172	0x3c5f805a	0.013641441
173	0x3cd85709	0.02640869
174	0xbcd1e578	-0.025622115
175	0xba7d632f	-0.00096659636
176	0xbdbcdb4e	-0.092215165
177	0xbd61cba6	-0.055125855
178	0xbcc5e49b	-0.02415686
179	0x3d0a6208	0.033784896
180	0xbdd987e4	-0.10621622
181	0xbc91a8ce	-0.017780688
182	0x3c72de07	0.014823443
183	0xbbe3a7ff	-0.006947517
184	0x3d69cec6	0.05708196
185	0xbc00e920	-0.007868081
186	0xbd7ad6ae	-0.06123989
187	0xbc8a059e	-0.016848382
188	0xbd0e3b66	-0.034724616
189	0x3cc0bed6	0.023528498
190	0xbe01a536	-0.12660679
191	0x3d226a24	0.039652005
192	0xbc24657a	-0.0100339595
193	0xbe1facd3	-0.15593271
194	0x3d03c462	0.032169707
195	0x3d2b89bd	0.041879404
196	0xbd626767	-0.055274393
197	0x3c186060	0.009300321
198	0xbde1c98e	-0.11024772
199	0xbda182a8	-0.07886249
200	0x3badc6ee	0.0053032553
201	0xbd44f689	-0.048086677
202	0xbd83d591	-0.06437219
203	0xbca2ee50	-0.019889027
204	0xbb753b79	-0.0037419482
205	0x3d322756	0.043494545
206	0x3d722bfa	0.05912397
207	0x3c5b297c	0.01337659
208	0xbd51e3ac	-0.051242515
209	0x3d32eb98	0.04368171
210	0xbd857a65	-0.065174855
211	0xbd5990ad	-0.05311649
212	0x3cfe0bbd	0.031011457
213	0xbd828693	-0.06373324
214	0xbbdbe3f4	-0.0067105237
215	0xbd7a6a1f	-0.06113636
216	0xbd349c79	-0.044094536
217	0xbc8ab4ef	-0.016931979
218	0xbc9ad370	-0.01889965
219	0x3d58e5df	0.052953597
220	0x3d968979	0.073504396
221	0x3bfa43e0	0.007637486
222	0x3bc2bc30	0.005942844
223	0x3d46802a	0.04846207
224	0x389d6973	7.505985e-05
225	0xbc7b4a9a	-0.015337611
226	0xbd0076b3	-0.0313632
227	0xbd01eb3a	-0.03171847
228	0xbd0d0a3e	-0.034433596
229	0xbc7998c1	-0.015234173
230	0xbe07e9d7	-0.13272797
231	0xbcae0b60	-0.021245658
232	0x3c6f98f4	0.014623869
233	0xbd7eb207	-0.0621815
234	0xbd937675	-0.07200328
235	0xbd1bb5cd	-0.038015176
236	0xbd72c675	-0.059271295
237	0x3ca78d39	0.020453082
238	0x3d0eac58	0.03483233
239	0xbd627469	-0.0552868
240	0xbcfea222	-0.03108317
241	0xbd564d06	-0.05231955
242	0xbd331650	-0.04372245
243	0xbd740232	-0.059572406
244	0xbcbc347d	-0.022974247
245	0xbd47bad4	-0.048762158
246	0x3cc79784	0.02436424
247	0xbcb7a478	-0.022417292
248	0xbd4270b1	-0.047470752
249	0xbd3b62c7	-0.0457485
250	0x3cbba172	0.022904132
251	0xbd86ca6c	-0.06581578
252	0xbc3f06d0	-0.011659339
253	0x3c61e8b4	0.013788391
254	0xbdcbb790	-0.09947121
255	0xbcacf455	-0.0211126

fc2.bias f4 [256]
0	0xbc216638	-0.009851031
1	0xbaae09ea	-0.0013278101
2	0x3d802c6d	0.062584735
3	0xbdac0ec1	-0.084012516
4	0xbd882a6f	-0.066487186
5	0xbd4e5e0c	-0.05038266
6	0x3de241ea	0.11047728
7	0xbdf3a75f	-0.11897158
8	0xbd1ef16e	-0.038804464
9	0xbf023634	-0.5086396
10	0xbda91c9e	-0.082574114
11	0xbdff521a	-0.124668315
12	0xbd34f06e	-0.044174604
13	0xbdb830b9	-0.08993668
14	0xbd9564cb	-0.07294615
15	0xbdb9ba1c	-0.09068701
16	0xbf90363f	-1.1266555
17	0x3efec2c7	0.49757978
18	0x3f110962	0.5665494
19	0xbfbb9e30	-1.465765
20	0x3e43442f	0.19068979
21	0xbda6543c	-0.08121535
22	0xbdad5e10	-0.084652066
23	0x3f027084	0.50952935
24	0xbdc2309d	-0.094819285
25	0x3dcb2a2a	0.099201515
26	0xbdd316f7	-0.103071146
27	0x3e129521	0.143147
28	0xbd14a40e	-0.036289267
29	0xbf5ff1bf	-0.8747825
30	0xbd5e5e4a	-0.05428914
31	0xbb1dc2a3	-0.0024072311
32	0xbdae396b	-0.08507045
33	0xbd880bc7	-0.06642871
34	0x3d00c3fd	0.03143691
35	0xbdfa4cbc	-0.12221667
36	0x3f14ac7f	0.5807571
37	0xbd2066a3	-0.039160382
38	0x3f4b0c17	0.7931532
39	0x3d7d9a2c	0.061914608
40	0xbd8241cd	-0.06360207
41	0x3ebf4bd9	0.37362555
42	0xbdfab52a	-0.122415856
43	0xbdb9da39	-0.09074826
44	0x3f5850dd	0.8449839
45	0xbe0604ed	-0.13087817
46	0xbdb439c1	-0.08800078
47	0xbf4bf95c	-0.7967737
48	0xbd9beead	-0.07613883
49	0xbcad8aff	-0.021184443
50	0xbda7f5e0	-0.08201194
51	0xba40a151	-0.0007348257
52	0xbd2e30f3	-0.04252715
53	0xbc54bd79	-0.012984627
54	0x3f47335b	0.7781274
55	0xbe4e2355	-0.20130666
56	0x3d874dee	0.06606661
57	0x3fdaa432	1.7081358
58	0xbe42ade5	-0.19011648
59	0xbd88159c	-0.06644747
60	0xbe006a09	-0.12540449
61	0xbddea6a2	-0.108716264
62	0xbb4bcb84	-0.0031096647
63	0xbdc17883	-0.09446814
64	0x3da81b7d	0.08208368
65	0x400cb5f6	2.198606
66	0x3c938ce1	0.018011512
67	0xbe511603	-0.20418553
68	0x3d49f97b	0.04931019
69	0xbd7424cc	-0.059605405
70	0x3e0ffefd	0.14062114
71	0xbe08153f	-0.13289355
72	0xbd6bf4b0	-0.0576064
73	0xbe33ce42	-0.1755915
74	0x3d803f34	0.06262055
75	0x3da93327	0.0826171
76	0xbccf4754	-0.025302567
77	0x3ffbfaff	1.9685973
78	0xbd973e46	-0.073849246
79	0xbe781c7b	-0.24229614
80	0x3f31d538	0.6946597
81	0xbd55c7ef	-0.052192625
82	0xbd4531b3	-0.0481431
83	0xbda6010e	-0.0810567
84	0x3f149654	0.5804188
85	0xbc09d6f9	-0.00841307
86	0xbd841d59	-0.0645091
87	0xbe2fc5ca	-0.17165294
88	0xbda21adf	-0.079152815
89	0x403a592d	2.9116929
90	0xc056fa3d	-3.3590233
91	0xbd1942de	-0.037417285
92	0xbda0bd9b	-0.078486644
93	0xbe489554	-0.19588214
94	0xbbddf30c	-0.006773358
95	0xbd7568e2	-0.059914477
96	0xbe6e42a5	-0.2326761
97	0xbd31f6dc	-0.043448314
98	0xbe361caf	-0.1778438
99	0xbcc4392e	-0.023953047
100	0xbd02917d	-0.03187703
101	0x3eeea589	0.46610668
102	0xbf1d8d46	-0.6154369
103	0xbda0cb7d	-0.07851312
104	0xbe21af2b	-0.15789478
105	0x3ea0bb1e	0.3139276
106	0xbf106031	-0.56396776
107	0x3eb2c9ca	0.34919578
108	0xbd9e6cd9	-0.07735605
109	0xbd25dacc	-0.040491864
110	0x3fdd5a94	1.7293267
111	0x3d5c5af2	0.05379767
112	0x3e535ad6	0.2064012
113	0xbdedea30	-0.11616933
114	0xbde2748b	-0.11057385
115	0xbe1c959a	-0.15291443
116	0xbe515f56	-0.20446524
117	0xbb087398	-0.0020820852
118	0xbdad303f	-0.08456468
119	0x3f06d955	0.5267537
120	0xbd1809aa	-0.03711859
121	0xbda66880	-0.081254005
122	0xbfd3007f	-1.6484526
123	0xbd8a3515	-0.06748406
124	0x3f589aa4	0.8461096
125	0xbfa7eedb	-1.3119768
126	0x3ede2b32	0.4339233
127	0xbdd3d2eb	-0.10342964
128	0xbed19c58	-0.40939593
129	0xbdb97321	-0.09055162
130	0xbe1e5b80	-0.15464592
131	0x3e0f8b47	0.14017974
132	0xbdecb3d0	-0.11557734
133	0x3f0e70d8	0.55640936
134	0xbc434459	-0.011918151
135	0xc03297b3	-2.790509
136	0xbdc83388	-0.09775454
137	0xbf8e4a6e	-1.1116464
138	0xbe1c3dc4	-0.15257937
139	0xbe139755	-0.14413197
140	0xbebde229	-0.3708661
141	0x3c7c6582	0.015405061
142	0xbcca3930	-0.024685472
143	0xbe0eead2	-0.13956764
144	0xbdf05b1c	-0.11736128
145	0xbe7a05f9	-0.24416341
146	0xbd2f36f0	-0.042777
147	0xbd6fed23	-0.05857576
148	0x3f9c76d0	1.2223759
149	0xbd23c63e	-0.03998398
150	0xbe63e4f2	-0.22255304
151	0xbdc6345a	-0.09677954
152	0xbdf302b9	-0.11865754
153	0xbddf1e9b	-0.108945094
154	0x3e354f77	0.17706095
155	0xbbf5234a	-0.0074810134
156	0xbf25cafc	-0.64762855
157	0xbda86855	-0.08223025
158	0x3bba14ce	0.0056787496
159	0xbdfda21e	-0.12384437
160	0xbda342b8	-0.0797171
161	0x40021042	2.0322423
162	0xbdecd05b	-0.11563178
163	0xbb8cba5a	-0.004294676
164	0xbc8da6f8	-0.017291531
165	0xbd598ff3	-0.053115796
166	0xbfee7aa0	-1.8631172
167	0xbe03cd61	-0.12871315
168	0x3f28a4f7	0.65876716
169	0xbe5d95d3	-0.21639185
170	0xbd504f5b	-0.05085693
171	0xbf2cc554	-0.674886
172	0xbd8937f8	-0.06700128
173	0xbe43dcc3	-0.19127183
174	0xbbdeb525	-0.0067964965
175	0xbed934c8	-0.4242308
176	0xbd30d0e0	-0.04316795
177	0xbd7d8394	-0.06189306
178	0x3cb0b35e	0.021569904
179	0xbe96adf4	-0.2942959
180	0xbdff3b97	-0.12462538
181	0xbb9b331a	-0.0047363164
182	0xbe03dd4e	-0.1287739
183	0xbda3329a	-0.07968636
184	0x3f2f8da7	0.6857552
185	0xbdb6b5e5	-0.089214124
186	0x3c6fb26e	0.014629943
187	0xbda4fa05	-0.080555
188	0x40008b44	2.0085
189	0x3c10512b	0.008808414
190	0xbf2ed43c	-0.68292594
191	0xbded43a9	-0.11585171
192	0x3b12407e	0.0022316272
193	0xbc61a196	-0.013771435
194	0x3dd4cab8	0.10390228
195	0xbe061f1e	-0.13097808
196	0xbe01364f	-0.12618373
197	0x3f38f149	0.7224317
198	0x3f4975bd	0.7869528
199	0xbd836909	-0.06416518
200	0x3d0563b1	0.032565776
201	0xbc8c7d37	-0.01714955
202	0x3ecba3de	0.39773458
203	0xc01f28e6	-2.4868712
204	0xbdde9bc0	-0.10869551
205	0x3d5ddb5e	0.054164283
206	0xbe553b74	-0.20823461
207	0xbde9b908	-0.11412245
208	0x3e0212e6	0.12702522
209	0xbd9f3797	-0.07774275
210	0xbe357006	-0.17718515
211	0x3c323190	0.010876074
212	0xbdb84535	-0.08997575
213	0xbdddc3c1	-0.10828353
214	0x3e0c6450	0.13710141
215	0x3fab3ee2	1.3378565
216	0x3f113fd2	0.5673801
217	0xbdfee11c	-0.1244528
218	0xbc33db66	-0.010977602
219	0xbdfd4fec	-0.123687595
220	0x3f5ddd04	0.8666537
221	0xbe39d299	-0.18146743
222	0xbe2b66c7	-0.16738425
223	0xbd869fd1	-0.06573451
224	0xbc65b245	-0.014019554
225	0xbf11d36e	-0.5696324
226	0xbda17fc0	-0.078856945
227	0x3fc835af	1.5641383
228	0x3daad3f3	0.08341207
229	0x3d8f118c	0.06985769
230	0x3eb6f8f7	0.3573682
231	0xbda94292	-0.082646504
232	0xbd9c22f3	-0.076238535
233	0xbd3c6cdb	-0.04600225
234	0xbddfe434	-0.10932198
235	0xbd817c83	-0.06322577
236	0x3dcb9672	0.099408045
237	0xbda08d24	-0.078394204
238	0x3ea1c51a	0.3159569
239	0xc008bec2	-2.136643
240	0xbf77e8b0	-0.9683943
241	0xbf9f5aba	-1.2449563
242	0x3ee5da23	0.44892988
243	0xbda66459	-0.081246085
244	0xbf80ec09	-1.0072032
245	0x3eb31486	0.34976596
246	0xbcd3ccfd	-0.025854582
247	0xbd292638	-0.041296214
248	0x3b0281eb	0.0019913863
249	0x3e876b86	0.2644922
250	0xbdd8493f	-0.105608456
251	0xbcd5f90a	-0.026119728
252	0xbbe4fecc	-0.006988382
253	0xbdaa70de	-0.08322309
254	0x3feb313f	1.8374404
255	0xbdbcc299	-0.09216804

fc3.weight f4 [128, 256]
0	0x3d463678	0.04839179
1	0x3ba40436	0.005005385
2	0xbdaeaa40	-0.08528566
3	0xbd1fba00	-0.038995743
4	0x3d950039	0.07275433
5	0xbcbd6415	-0.023119012
6	0xbf20240f	-0.6255502
7	0x3d3c8e19	0.046033952
8	0x3db73678	0.08945936
9	0xbf83c187	-1.0293435
10	0xbd95e1ce	-0.073184595
11	0xbd29dbf3	-0.041469526
12	0x3b28d19c	0.0025759703
13	0x3906940d	0.00012834389
14	0x3c853dfc	0.016264908
15	0x3e8f75af	0.28019473
16	0xbe3b18d6	-0.18271193
17	0xbf397960	-0.7245083
18	0xbeff9463	-0.49917898
19	0xbf5f3240	-0.8718605
20	0x3e5a2b20	0.21305513
21	0x3c9c2a96	0.019063275
22	0x3b5784e7	0.0032885612
23	0x3ec0562a	0.37565738
24	0xbb99e67a	-0.0046966644
25	0xbe7fe925	-0.24991281
26	0x3d0bc5a3	0.034124028
27	0xbe296f76	-0.16546425
28	0x3d44c149	0.048035894
29	0x3db85a05	0.09001545
30	0xbeb3087a	-0.34967405
31	0x3f4015fe	0.7503356
32	0x3cd6e713	0.026233232
33	0x3b166f80	0.0022954643
34	0xbd8aafb7	-0.06771796
35	0x3c23bc7f	0.009993671
36	0xbf7c3554	-0.9851887
37	0x3cc8dcae	0.02451929
38	0xbd9ae76e	-0.07563673
39	0x3d60d251	0.054888073
40	0x3cae8bc4	0.02130688
41	0x3d4de5ce	0.050267987
42	0x3c5c8c19	0.013461136
43	0x3c9712f9	0.018441664
44	0xbf45ab5c	-0.772146
45	0xbd15c056	-0.03656038
46	0x3e9f3d1f	0.3110132
47	0xbfba528d	-1.4556442
48	0x3d7ec857	0.062202778
49	0xbd854ffd	-0.06509397
50	0x3e8cb954	0.27485144
51	0xbd2fe12a	-0.042939343
52	0x3b91a190	0.0044443086
53	0x3d08f9b3	0.033441257
54	0xbe8ea4d7	-0.27860138
55	0xbe3ae008	-0.18249524
56	0xbe891943	-0.26777086
57	0xbdfb627f	-0.12274646
58	0x3edb7fab	0.4287084
59	0xbc9fd9a0	-0.019512951
60	0xbc235b98	-0.009970568
61	0xbe12023b	-0.14258663
62	0xbdb93d07	-0.09044843
63	0xbcc3e304	-0.02391196
64	0x3e7cdca3	0.24693541
65	0xbf25ef5e	-0.6481837
66	0x3d48a468	0.048984915
67	0xbb09c5f7	-0.0021022537
68	0x3e69b2f5	0.22822173
69	0xbb78d6c7	-0.0037969814
70	0xbfc0b3e0	-1.5054893
71	0x3c2cea50	0.010553911
72	0xbe67d312	-0.2263911
73	0x3c820ec4	0.015876181
74	0xbcbf1561	-0.023325624
75	0xbf1c5a8d	-0.6107567
76	0x3cad8042	0.021179322
77	0x3ddd3cae	0.10802589
78	0x3d1aef2a	0.03782574
79	0x3f4f685d	0.8101862
80	0xbf3251f1	-0.6965628
81	0xbe078b60	-0.13236761
82	0x3b21aea9	0.0024670756
83	0xbf014e45	-0.50510055
84	0xbfb1fa23	-1.3904461
85	0xbbc295c6	-0.0059382645
86	0x3c5514a0	0.013005406
87	0x3e2eed0c	0.17082614
88	0xbd21beab	-0.039488476
89	0xbcc7b269	-0.024377065
90	0xbfb8fd04	-1.4452214
91	0xbc86b224	-0.016442366
92	0x3d2b78d2	0.04186327
93	0x3e1dd385	0.1541272
94	0xbd3a9f26	-0.045561932
95	0xbd1d1513	-0.038350176
96	0xbf462bc8	-0.77410555
97	0xbc2d2798	-0.010568522
98	0xbf99fe1f	-1.2030677
99	0xbd74bdbf	-0.05975127
100	0x3dcc1368	0.09964639
101	0x3dfd1c32	0.123588935
102	0xbf1a148d	-0.6018761
103	0x3cba9724	0.022777148
104	0xbd882283	-0.066472076
105	0xbf12e8fb	-0.5738675
106	0xbfe9dfca	-1.827142
107	0x3f024dd6	0.5090002
108	0xbe1d4782	-0.1535931
109	0xbc9c4762	-0.019077007
110	0x3eb770db	0.3582829
111	0x3ce3f6b2	0.027827594
112	0xbe28478a	-0.1643354
113	0xbdbef347	-0.09323745
114	0x3b650a85	0.0034948897
115	0xbc13f628	-0.009030856
116	0xbe107057	-0.14105354
117	0xbce214f4	-0.027597882
118	0xbd4c3f12	-0.049864836
119	0xbf1d3e6f	-0.6142339
120	0xbd2e3b24	-0.04253687
121	0xbd2bbb6a	-0.04192678
122	0xc026a62e	-2.6038928
123	0x3f1aa0d0	0.6040163
124	0x3edfacee	0.43686622
125	0x3d63c606	0.05560877
126	0x3f3104af	0.6914777
127	0x3d30e0cb	0.04318313
128	0xbf640a3e	-0.8907813
129	0xbd63b04e	-0.05558806
130	0x3d7d3b58	0.061824173
131	0xbf4ad98d	-0.79238206
132	0xba812672	-0.0009853377
133	0xbf918434	-1.136847
134	0xbc3ae7b8	-0.011407785
135	0xbf50aab1	-0.81510454
136	0xbc88881c	-0.016666465
137	0xbf69098d	-0.910302
138	0x3aab2980	0.0013058633
139	0xbbe6fd20	-0.007049218
140	0xbf233e99	-0.6376739
141	0x3f5cdf17	0.8627791
142	0x3c1e4ba2	0.009661587
143	0xbd132bfc	-0.03593062
144	0x3d79a8e8	0.060952097
145	0xbedcee8b	-0.43150744
146	0xbd833ac2	-0.064076915
147	0x3d31a025	0.043365616
148	0xbf917bd5	-1.1365916
149	0xbc4bed10	-0.012446657
150	0x3e0d87ee	0.13821384
151	0xbc8e8e47	-0.017401827
152	0xbcdc1e21	-0.026869835
153	0x3ecfe343	0.40603074
154	0xbfe2858e	-1.7697008
155	0x3d34b8d8	0.044121593
156	0xbf1bed24	-0.6090872
157	0xbd21a1c2	-0.039460905
158	0x3d6366b3	0.055517863
159	0xbf9435be	-1.1578901
160	0xbd59958e	-0.053121142
161	0xbedd2e16	-0.43199223
162	0x3d7458eb	0.05965511
163	0x3cdac2f9	0.026704298
164	0xbe8e40d4	-0.27783835
165	0xbd34db1f	-0.044154283
166	0xbf32be7e	-0.6982192
167	0xbe0f284c	-0.13980216
168	0xbf33c97c	-0.70229316
169	0xbe80ae36	-0.25132912
170	0x3cd4c248	0.025971547
171	0xbf50b222	-0.8152181
172	0x3c7accf8	0.015307657
173	0xbec8cc9f	-0.39218614
174	0xbe0343c2	-0.12818816
175	0x3fc3d422	1.5299113
176	0xbecb5e0b	-0.39720187
177	0xbfb2705d	-1.394054
178	0x3e76faef	0.24119161
179	0xbe55823e	-0.20850465
180	0xbdbd6601	-0.09247971
181	0xbc595651	-0.013265208
182	0xbd4d3159	-0.05009589
183	0x3d1c30c7	0.038132455
184	0xbf5e5da5	-0.8686164
185	0x3ab35110	0.0013680775
186	0xbd934891	-0.07191575
187	0x3b9d1116	0.0047932966
188	0xbfd2e159	-1.6475021
189	0xbd60acbf	-0.054852244
190	0xbf251a27	-0.6449303
191	0x3db0fe32	0.08642234
192	0x3d15b1fc	0.036546692
193	0x3c2daa06	0.010599619
194	0x3ebdcbdb	0.37069592
195	0xbc3a23fd	-0.011361119
196	0xbcb5ed56	-0.022207897
197	0x3fd96a79	1.6985618
198	0xbf33f4e7	-0.70295566
199	0x3b066987	0.0020509677
200	0xbf85a68b	-1.044145
201	0x3d102bd7	0.03519806
202	0x3edab2e1	0.427146
203	0xbf55fcef	-0.8358907
204	0xbd106896	-0.03525599
205	0x3ecbc4e1	0.39798644
206	0xbb96af33	-0.004598522
207	0xbaef1ff0	-0.0018243771
208	0xbf85801e	-1.0429723
209	0xbcfa777c	-0.030574553
210	0x3eca0c2c	0.3946241
211	0xbbc407bd	-0.005982368
212	0x3d49ff9e	0.04931604
213	0x3e8a9768	0.2706864
214	0x3d26b783	0.040702354
215	0xbf1325f1	-0.5747977
216	0x3e851711	0.2599416
217	0xbe7659fa	-0.24057761
218	0x3d29fa2c	0.041498348
219	0xbd3313da	-0.043720104
220	0x3d8da1e9	0.069156475
221	0xbe954cd4	-0.29160178
222	0x3aca38e3	0.001542833
223	0x3d3cac0b	0.04606251
224	0x3d235cd5	0.039883453
225	0xbf8300ff	-1.0234679
226	0x3bb26a5f	0.0054448093
227	0xbeb195a0	-0.34684467
228	0xbf001968	-0.50038767
229	0xbc364421	-0.011124642
230	0x3eb446b3	0.3521019
231	0xbe64a77b	-0.22329514
232	0x3cfbec1e	0.030752238
233	0xbc26e38c	-0.010186087
234	0xbc7d2ed0	-0.0154530555
235	0x3d65a986	0.056069873
236	0x3ec10261	0.37697127
237	0xbb7aacf1	-0.0038250054
238	0xbfdbf889	-1.7185222
239	0x3d86f30b	0.065893255
240	0xbf9acde3	-1.2094082
241	0xbe74f665	-0.23922117
242	0xbe2d2155	-0.16907246
243	0xbd0d0a1e	-0.034433477
244	0xbe006400	-0.12538147
245	0x3dbbccc0	0.09169912
246	0x3b549df7	0.0032442787
247	0x3d55d93b	0.05220912
248	0x3d857ac7	0.065175585
249	0xbf04c73d	-0.51866513
250	0x3d6b13e4	0.057392016
251	0x3d93b3d7	0.07212036
252	0x3e8b707c	0.27234256
253	0xbceb8014	-0.028747596
254	0x3f144b66	0.5792755
255	0xbd83fddd	-0.06444905

fc3.bias f4 [128]
0	0x3edc5d63	0.43039998
1	0xbd8fbc9d	-0.07018397
2	0x3f93bc51	1.1541845
3	0x3c7fdfbd	0.015617308
4	0xbf340b98	-0.7033019
5	0x3f47a038	0.7797885
6	0xbd08a8d5	-0.033364136
7	0xbf142930	-0.5787535
8	0xbf13338e	-0.5750054
9	0xbe420be9	-0.18949856
10	0xbe22bbf4	-0.15892011
11	0xc0069dc6	-2.1033797
12	0x3ed742af	0.42043063
13	0xbe0d2b6b	-0.13786094
14	0x4051e287	3.2794511
15	0xbc8738d7	-0.016506596
16	0x3e74acfc	0.23894113
17	0x40439dbc	3.0565023
18	0x3d6faa89	0.058512244
19	0xbf6f3574	-0.9344094
20	0x3f201e82	0.6254655
21	0xbe550256	-0.20801672
22	0x3c978036	0.018493753
23	0xbf6574fa	-0.8963162
24	0xbfa6e30a	-1.3038037
25	0x3ef9c464	0.48782647
26	0xbf3e73ab	-0.74395245
27	0xbe298859	-0.16555919
28	0xbf724e7f	-0.94651026
29	0xc0263cca	-2.5974603
30	0xbfedb22f	-1.8570002
31	0xbef511a8	-0.47865033
32	0xc016f624	-2.3587732
33	0xbeac8e3d	-0.3370227
34	0x3fbbf1af	1.4683131
35	0x3e492a72	0.19645098
36	0xbe329b3e	-0.17442033
37	0xbdb4eb11	-0.08833898
38	0xbeb37d54	-0.35056555
39	0xbd6bd01d	-0.05757152
40	0x3f345534	0.7044251
41	0x3f5d7f06	0.8652195
42	0xbe0c7844	-0.13717753
43	0x402b3ea2	2.6756978
44	0xbda2e34a	-0.07953508
45	0x3ec0677c	0.37578952
46	0x3f8acb83	1.0843357
47	0x3ffa01a3	1.953175
48	0xbe91146b	-0.2833589
49	0x3bedf088	0.0072613396
50	0xbd8fa31b	-0.07013532
51	0x3e523289	0.2052709
52	0xbfecd3fc	-1.8502192
53	0xbdfe49bb	-0.12416407
54	0xc0244ec3	-2.5673072
55	0xbd8ee8c1	-0.06977988
56	0xbf3189d2	-0.6935092
57	0x3f259a95	0.64689
58	0xbdfd41d1	-0.12366069
59	0xbdfaaa84	-0.122395545
60	0xbc4462bb	-0.01198643
61	0x3fe32ffc	1.7749019
62	0xbf84c45d	-1.0372425
63	0x3e81da41	0.25361827
64	0xbe806a00	-0.25080872
65	0xbf87b817	-1.0603055
66	0xbfa7bcfd	-1.310455
67	0xbd1dbbb2	-0.03850908
68	0xbe7afe90	-0.2451117
69	0xbe864703	-0.26226053
70	0x3edf24b9	0.43582705
71	0xbdc4b9c1	-0.09605742
72	0xbe3377f5	-0.17526229
73	0xbea2d303	-0.31801614
74	0xbf6d3aa5	-0.9266761
75	0xbe0468e0	-0.12930632
76	0xbf013a53	-0.5047962
77	0xbdb56861	-0.08857799
78	0xbdc1e47b	-0.09467407
79	0xbe62ed46	-0.22160825
80	0xbe0b01eb	-0.1357495
81	0xbd426365	-0.04745807
82	0xbee72158	-0.45142627
83	0xbeb374cd	-0.3505005
84	0x3ed3feb7	0.4140527
85	0xbe06bfb8	-0.13159072
86	0xbf88f470	-1.0699596
87	0x3d8107c6	0.06300311
88	0xbddc2b19	-0.10750408
89	0x3c307c14	0.01077177
90	0xbded199a	-0.11577149
91	0xbefae27a	-0.49000913
92	0xbd481059	-0.048843715
93	0xbfbbfb90	-1.4686146
94	0x3f55e5ee	0.8355397
95	0x3eab85c7	0.33500502
96	0x3f854ace	1.0413454
97	0xbe169f71	-0.1470926
98	0xbebd5eb5	-0.36986318
99	0x3eb1b976	0.34711808
100	0xbe266d06	-0.16252527
101	0x3e333b03	0.1750298
102	0xbe38c564	-0.18044049
103	0xbef72653	-0.48271427
104	0xbdf3537d	-0.118811585
105	0xbe325a80	-0.17417336
106	0xc05618f0	-3.345272
107	0x3f12f183	0.5739977
108	0xbdf74bd7	-0.12075012
109	0xbd85dee5	-0.065366544
110	0x3f71188a	0.9417807
111	0xbd885f76	-0.06658833
112	0xbe484b36	-0.1955994
113	0x3e952c3c	0.2913531
114	0xbe25b63a	-0.16182795
115	0xbe5fc2e7	-0.21851693
116	0x3ca4a926	0.020100188
117	0x4068ae46	3.6356368
118	0xbffd5e43	-1.9794391
119	0xbd44ddff	-0.048063274
120	0xbdae7200	-0.085178375
121	0x3f543028	0.8288598
122	0x3f509676	0.81479585
123	0xbfeb3e66	-1.8378417
124	0xbfa1a65f	-1.2628897
125	0x3ecb6817	0.39727852
126	0x3dfc5c3e	0.12322281
127	0x40347816	2.8198295

fc4.weight f4 [64, 128]
0	0xbe9c93a4	-0.3058139
1	0x3d02c3cc	0.031925008
2	0x3e918919	0.2842491
3	0xbe13b755	-0.14425404
4	0xbea91ec5	-0.33031288
5	0xbed7b6e9	-0.42131737
6	0xbd5a5b7c	-0.053309903
7	0x3e978b15	0.295983
8	0xbe837872	-0.2567783
9	0xbe29d48c	-0.16584986
10	0x3d57de76	0.05270239
11	0xbf222bd9	-0.63348156
12	0x3dc55aba	0.09636445
13	0xbd93925b	-0.072056495
14	0x3e9a9425	0.3019115
15	0xbe8bcfbe	-0.27306932
16	0xbea5a26d	-0.32350484
17	0xbf82069e	-1.015827
18	0x3cbabe98	0.02279596
19	0xbf7ffec5	-0.9999812
20	0xbf0142dd	-0.5049265
21	0xbdf9826b	-0.121830784
22	0xbca6ea60	-0.02037543
23	0xbe971584	-0.29508603
24	0xbdeb8ae4	-0.11501101
25	0xbe843efc	-0.25829303
26	0xbef9a8cc	-0.48761594
27	0xbd95ea1b	-0.07320043
28	0x3f071ded	0.5278004
29	0x3cdeefa8	0.027213886
30	0xbf9eb7e0	-1.2399864
31	0xbe3112bd	-0.17292304
32	0xbf1358b7	-0.57557243
33	0x3cf5d869	0.030010419
34	0xbe33d18f	-0.17560409
35	0xbdd31be5	-0.10308055
36	0xbe83123d	-0.25599852
37	0xb7c9da20	-2.406264e-05
38	0xbeddac38	-0.43295455
39	0xbe0f352a	-0.13985124
40	0xbe4a4c80	-0.19755745
41	0x3e4b7e2a	0.19872347
42	0xbd71782d	-0.0589525
43	0xbee696d0	-0.45036936
44	0x3b02fa99	0.0019985794
45	0xbc9b1b06	-0.018933784
46	0xbe00004c	-0.12500113
47	0xbe38b1d3	-0.18036585
48	0xbdbb3d34	-0.09142533
49	0xbd284b78	-0.041087598
50	0xbe4debaa	-0.2010943
51	0xbdae32cf	-0.08505785
52	0xbf373725	-0.7156852
53	0xbd8780bb	-0.0661635
54	0xbf76d490	-0.96418095
55	0x3e226d5b	0.15862028
56	0x3dad48bb	0.08461138
57	0xba8da690	-0.0010807086
58	0x3d214394	0.03937109
59	0xbc179a1e	-0.009253053
60	0x3e8a408a	0.27002364
61	0xbed7b6df	-0.42131707
62	0xbf8ffee0	-1.1249657
63	0xbe74ed63	-0.23918681
64	0xbd138ac3	-0.036021005
65	0x3e90b7fd	0.28265372
66	0x3e6981b0	0.22803378
67	0x3d10c96f	0.035348352
68	0xbc28b779	-0.01029765
69	0x3ebfe99c	0.37482917
70	0xbe2f300a	-0.17108169
71	0xbcffeb2d	-0.03124007
72	0xbd749cd4	-0.059719875
73	0x3de068e7	0.109575085
74	0xbe5720d8	-0.21008623
75	0x3cadc499	0.02121191
76	0x3d789a41	0.060693983
77	0x3c2a0b1a	0.010378623
78	0x3d88519a	0.06656189
79	0xbeb0980d	-0.34491006
80	0xbd8ad4d0	-0.06778872
81	0x3d6a5205	0.057207126
82	0xbf0f10ad	-0.5588482
83	0x3e92186d	0.2853426
84	0x3dc1b51a	0.094583705
85	0x3e2e26b9	0.17006959
86	0xbf5094b6	-0.81476915
87	0x3f0a929a	0.54129946
88	0xbe25cda2	-0.16191724
89	0xbe1077a0	-0.14108133
90	0x3f09ba89	0.53800255
91	0xbf3789f8	-0.716949
92	0x3ea721d7	0.32643005
93	0xbda785e3	-0.08179834
94	0xbf0c9b33	-0.54924315
95	0xbedc92e3	-0.43080816
96	0xbe8c76e1	-0.27434447
97	0xbdff099c	-0.12453005
98	0x3dcf83d7	0.10132568
99	0xbe436e42	-0.19085029
100	0x3c26b8c3	0.010175887
101	0xbe08c746	-0.13357267
102	0xbba60538	-0.00506654
103	0x3d311c13	0.043239664
104	0xbd9c72a8	-0.076390564
105	0x3b2c40a0	0.0026283637
106	0xbf4f9694	-0.8108914
107	0x3d026b26	0.031840466
108	0xbd662445	-0.056186933
109	0x3e2d04bb	0.16896336
110	0xbf1aa346	-0.60405385
111	0x3bd6ead4	0.0065587554
112	0x3cbaf3e9	0.022821384
113	0xbe8cacd1	-0.27475598
114	0xbd8f1bf9	-0.06987757
115	0xbe337ce9	-0.17528118
116	0xbefab93a	-0.48969442
117	0xbcbd8364	-0.023133941
118	0xbe5fa09d	-0.21838613
119	0x3d83c749	0.06434495
120	0xbd40a13b	-0.04702876
121	0x3db7aa7a	0.08968063
122	0x3e1e5924	0.15463692
123	0xbf145b6f	-0.57952017
124	0xbf73417a	-0.95021784
125	0xbedc8a0f	-0.4307408
126	0x3e7338cc	0.23752135
127	0xbf6fc31e	-0.936571
128	0xbe1febc0	-0.15617275
129	0xbebe1fef	-0.37133738
130	0xbe0e07c9	-0.13870157
131	0xbd0c918f	-0.034318503
132	0xbce20b9d	-0.027593428
133	0xbee51b68	-0.44747472
134	0xbdc17074	-0.09445277
135	0xbe30a622	-0.17250875
136	0x3d108900	0.035286903
137	0xbe1e9ae0	-0.15488768
138	0x3d43ca70	0.04780048
139	0xbf32d3c8	-0.698544
140	0xbd9a9be6	-0.075492665
141	0xbdd2396d	-0.10264859
142	0x3dca3315	0.098730244
143	0xbc6c8ccb	-0.014437865
144	0xbe495c5f	-0.19664143
145	0xbf33a6ed	-0.70176584
146	0x3e01980f	0.12655662
147	0xbfa0331e	-1.25156
148	0xbebb4f8f	-0.36584136
149	0xbc3bf0fc	-0.011471029
150	0xbd001976	-0.03127428
151	0xbe2aafbc	-0.166686
152	0xbef376fc	-0.47551715
153	0x3da879ef	0.08226382
154	0xbedcaf05	-0.4310228
155	0xbc1b80db	-0.009491171
156	0xbe44c726	-0.19216594
157	0xbd002b29	-0.03129116
158	0xbe9aa018	-0.30200267
159	0xbe03df87	-0.12878238
160	0xbed772ec	-0.42079866
161	0x3db1bc89	0.08678538
162	0xbf05100a	-0.519776
163	0x3d48c83f	0.049019095
164	0x3d1509a5	0.03638615
165	0x3caee5f3	0.021349883
166	0xbec2f604	-0.3807832
167	0x3d52a406	0.051425956
168	0xbcfe34a2	-0.031030957
169	0xbd513162	-0.051072486
170	0x3b9908a9	0.004670222
171	0x3c71755c	0.014737453
172	0xbdb58fb7	-0.08865302
173	0x3d30a79a	0.043128587
174	0xbd11c174	-0.035584882
175	0xbedb5fb7	-0.42846462
176	0xbd97b6be	-0.07407902
177	0xbc8ffdd4	-0.01757709
178	0xbe41113d	-0.18854232
179	0x3db1dcd1	0.086846955
180	0xbe26c44d	-0.1628582
181	0xbe2fbc78	-0.17161739
182	0xbf9a1b87	-1.2039651
183	0x3bdcc35b	0.0067371554
184	0xbe2d81ad	-0.16943999
185	0xbe28ea92	-0.16495731
186	0x3c1d4671	0.009599314
187	0x3a39384a	0.00070655777
188	0xbcba50d0	-0.022743613
189	0xbf7fd22a	-0.9993006
190	0x3d555bcd	0.0520895
191	0x3d64224e	0.055696778
192	0x3d04951f	0.032368775
193	0x3f11f7c2	0.57018673
194	0x3ab0650a	0.0013457846
195	0xbc315c00	-0.010825157
196	0xbdff1cef	-0.124566905
197	0xbce1ba1b	-0.027554562
198	0xbdb10a61	-0.08644558
199	0x3d8fa578	0.070139825
200	0xbea33a02	-0.31880194
201	0x3c092517	0.008370659
202	0xbca26931	-0.01982555
203	0xbd25bd03	-0.04046346
204	0xbec0310c	-0.3753742
205	0xbc57a60c	-0.013162147
206	0xbc080569	-0.008302071
207	0xbe65578a	-0.22396675
208	0xbdd3aa3d	-0.10335205
209	0x3d4a2a6c	0.049356863
210	0xbeacace8	-0.33725667
211	0xbdc9aee4	-0.09847811
212	0xbee46462	-0.44607836
213	0xbdd220a5	-0.10260133
214	0x3cf63aa2	0.030057255
215	0x3d1b80e6	0.037964724
216	0xbc099e33	-0.008399534
217	0x3c79c0d8	0.015243731
218	0xbc0f0938	-0.008730225
219	0x3d8aebae	0.067832336
220	0xbd6f05a6	-0.058354996
221	0xbe590111	-0.21191813
222	0xbe8ec143	-0.27881822
223	0x3c5faa32	0.013651418
224	0x3d7f172e	0.062277965
225	0x3dad1e53	0.084530495
226	0x3d476ebe	0.048689596
227	0x3f0175b2	0.50570214
228	0xbe1ecb10	-0.1550715
229	0xbe179b8d	-0.14805432
230	0xbd395b81	-0.04525328
231	0xbdf2c29f	-0.11853527
232	0xbdbb787e	-0.091538414
233	0xbd26d393	-0.040729117
234	0xbdf860eb	-0.12127861
235	0xbdb7bd9c	-0.08971712
236	0x3dce02d6	0.10059135
237	0xbd46f187	-0.048570182
238	0x3ce6bc8c	0.028166078
239	0xbdee0815	-0.11622635
240	0xbe7b4f2e	-0.24541923
241	0xbdf472bd	-0.11935947
242	0xbd9a836b	-0.07544597
243	0xbe1cc531	-0.15309598
244	0xbe9e72f5	-0.3094708
245	0x3e58b94c	0.21164435
246	0xbf505507	-0.8137974
247	0xbe0a6c7f	-0.1351795
248	0xbd947b00	-0.07250023
249	0xbe847a7d	-0.258747
250	0xbe098b62	-0.13432077
251	0xbd9c4887	-0.07631021
252	0xbe6a1db6	-0.22862896
253	0xbecc5965	-0.39911953
254	0xbbc30544	-0.0059515554
255	0xbc861222	-0.016366068

fc4.bias f4 [64]
0	0xbeec3894	-0.46136916
1	0x3c3a5ea2	0.011375101
2	0xbe3cfad1	-0.18455054
3	0xbe3486c9	-0.17629541
4	0x3f29a7c6	0.66271627
5	0xbd87d12f	-0.066316955
6	0xbfbd6ccc	-1.4798827
7	0xbce579c5	-0.028012166
8	0xbf08b3b1	-0.5339919
9	0xbc1ae371	-0.00945364
10	0x3f09aa2e	0.537753
11	0x40f40e05	7.6267114
12	0x3ebabf07	0.36473867
13	0xbe62022b	-0.2207114
14	0xbe06b6fa	-0.13155738
15	0xbe453d94	-0.19261771
16	0xbea5b495	-0.32364336
17	0x40492713	3.14301
18	0xbe955835	-0.2916886
19	0xbe3e56c0	-0.1858778
20	0xbd9c1e97	-0.07623022
21	0xbdcfeaa0	-0.10152173
22	0x3d1cde20	0.038297772
23	0xbf096346	-0.53667104
24	0xbe99755d	-0.29972354
25	0x3f02de76	0.511207
26	0xbe743a22	-0.23850301
27	0xbed762d5	-0.4206759
28	0x3f22c001	0.63574225
29	0xbe6a26ba	-0.22866336
30	0x3fae00b9	1.359397
31	0x3dee0afd	0.116231896
32	0x3f7100ae	0.9414166
33	0xbe84c4fe	-0.25931543
34	0x3eae2edc	0.34020126
35	0xbc12e1bc	-0.008964952
36	0xbc762ea3	-0.0150257675
37	0x3f1fe295	0.6245511
38	0x3e59bef2	0.21264246
39	0xbdc255f2	-0.09489049
40	0xbecb214e	-0.39673847
41	0xbec1bb8b	-0.37838396
42	0xbe4f16e4	-0.20223576
43	0xbe27df8c	-0.1639387
44	0xbe0c1558	-0.13680017
45	0x3dada429	0.08478577
46	0xbf8e06a0	-1.1095772
47	0x40103a9e	2.2535777
48	0x3c0d0f6d	0.008609635
49	0x3f3e1ae5	0.7425979
50	0x3edbc8b0	0.4292655
51	0xbe24923b	-0.16071407
52	0xbc0bd4a8	-0.008534588
53	0xbdbbe1c4	-0.09173921
54	0x3e1d18d0	0.15341496
55	0xbe057aa6	-0.13035068
56	0x3ea730eb	0.3265451
57	0x3e4c9dd8	0.19982088
58	0xbe381392	-0.17976215
59	0xbea91893	-0.3302656
60	0xbe9a9dc5	-0.30198494
61	0xbe82ed2e	-0.2557158
62	0xbec55015	-0.3853766
63	0x3dacd4b4	0.084390074
