model/DQN/_Player_dqnAgent_model_epoch_500.pth (torch_old, 489705 bytes, 10 tensors)

fc1.weight f4 [256, 57]
000000 36 22 b0 3e 43 16 9b 3d ad d4 4b be 4b 4d 8d 3e
       0.344011 0.075726055 -0.19905348 0.27598032
000010 2f fe 01 bd be 37 d4 bd c1 4d 38 3e 2d c3 4e be
       -0.03173655 -0.103621945 0.17998411 -0.20191641
000020 14 e0 17 3f 0c 3c 55 bc 97 e9 31 3f 96 13 d1 3e
       0.5932629 -0.013014805 0.69497055 0.40835255
000030 97 4c 97 3e 6f cd 7b bc 26 95 6f bc e0 6d de bc
       0.2955062 -0.015368803 -0.014622962 -0.027152002
000040 61 d5 02 bf a5 3c b1 3d 8d 51 56 bf 6d 7b a1 be
       -0.5110684 0.08654145 -0.83718187 -0.3153948
000050 54 7c 08 be fa 81 1a bc bc 62 36 3d 9e 5b de bf
       -0.13328677 -0.009430403 0.044527754 -1.7371709
000060 72 50 28 be 9c 1f 39 3d 7c 97 22 3d 94 92 4f be
       -0.16436937 0.04519616 0.039695248 -0.20270759
000070 68 c5 aa bd 6c 72 cf bc 42 7a 53 bd a2 95 cf 3b
       -0.083384335 -0.025323115 -0.051630266 0.0063349763
000080 85 7c e8 bd b8 4e 2d be 6a 15 fb 3c fd 5a 1b be
       -0.11351875 -0.1692456 0.03064986 -0.15171428
000090 ca 0b 3e be 16 ba 72 3e 10 16 72 3d 48 cf 8a 3f
       -0.18559185 0.23703799 0.05910307 1.0844507
0000a0 60 42 e4 3b f8 fa 0c bf 4b bf 35 3f fa 9a 77 be
       0.0069659203 -0.5507045 0.70995015 -0.24180213
0000b0 0c 6d 36 bf 64 1d a2 be b9 8f 0d bd c5 2b 8f 3e
       -0.7126014 -0.31663048 -0.034560893 0.2796308
0000c0 3c f9 2f be e5 b7 fb bd 49 b6 c4 be c8 43 76 3f
       -0.17184919 -0.122909345 -0.38420323 0.96197176
0000d0 67 45 86 bd 37 13 8f 3e 70 07 d2 bd 5a d3 48 be
       -0.06556206 0.27944347 -0.10255325 -0.19611874
0000e0 b7 67 08 3e 00 89 dd be cb 00 e1 3d 08 87 cf be
       0.13320814 -0.43268585 0.10986479 -0.40532708
0000f0 7b d8 18 be 9d c2 2d 3d 49 e7 15 be 6e 36 0d be
       -0.14926331 0.042421926 -0.1463901 -0.13790295
000100 58 88 55 be d6 b1 06 be cd 92 b9 bd 6f 07 6c be
       -0.20852792 -0.13153777 -0.09061203 -0.2304971
000110 b6 5b 2d 3b 10 d7 83 bf 37 ca 52 bf ec f2 b9 bd
       0.002645237 -1.0300007 -0.82339805 -0.09079537
000120 9d b0 87 be eb 06 1a 3c 30 9d 08 be 21 ba 0b 3f
       -0.26501933 0.009401063 -0.13341212 0.54580885
000130 57 38 6e 3d 03 06 9e be 99 85 f8 be ab 83 63 bf
       0.0581592 -0.30863962 -0.48539427 -0.88872784
000140 de b3 36 3f 01 63 80 3f be 26 35 3e 7d 48 2d bf
       0.71368206 1.0030214 0.1769056 -0.67688733
000150 d6 fd 8f be e8 c9 b6 bc b9 11 64 be 9c 58 78 bd
       -0.2812335 -0.022313073 -0.22272386 -0.06063138
000160 e5 74 79 bd 38 98 d9 bd 42 2b 01 bf 87 62 f0 3d
       -0.060902495 -0.106247365 -0.5045663 0.117375426
000170 ab 46 89 3d b1 eb 00 bf 71 48 a5 bd e0 f7 af bd
       0.06702932 -0.50359637 -0.08070458 -0.085922
000180 71 2b 59 3f 98 1a e3 3c 3e a5 c3 be c7 29 4a bf
       0.8483191 0.027722642 -0.38212007 -0.7897
000190 ef 6e d7 be 64 d6 86 3d 62 76 43 bf 50 26 14 bf
       -0.42076823 0.065838605 -0.7635251 -0.5787096
0001a0 cd 23 45 bf 24 fa 15 3f 72 26 25 bf f6 08 10 be
       -0.7700775 0.5858481 -0.6451179 -0.14065918
0001b0 c0 5e 94 3e 44 86 06 bf 13 ae 98 be 6b ee 62 bd
       0.2897854 -0.52548623 -0.29820308 -0.055403154
0001c0 ca 3f 20 bf 1e 47 dd 3d a6 09 28 bd 04 0c 8b bf
       -0.62597334 0.1080458 -0.041024826 -1.0863042
0001d0 50 09 71 be b6 27 90 be c2 4e 2d be ec 12 86 3e
       -0.23538709 -0.28155297 -0.16924575 0.2618631
0001e0 e2 f0 83 3e eb 18 da 3d d3 eb 28 3e fb b2 f4 3c
       0.25769717 0.10649284 0.1649621 0.0298705
0001f0 b7 34 1d 3f 8f c6 e6 3c 04 7d 88 3c 88 84 db be
       0.6140856 0.028170852 0.016661175 -0.4287455
000200 51 5f 01 be 5f 97 43 3d 72 11 35 bd 5d a5 14 bd
       -0.12634017 0.04775178 -0.04420609 -0.036290515
000210 ef f9 b4 3e 60 ca c5 bd cd 17 05 bf b9 fa c4 be
       0.35346934 -0.096577406 -0.5198944 -0.38472536
000220 63 cc 05 3e 44 85 dd bf 70 ce f3 be 2f 57 ca 3d
       0.13066249 -1.7306294 -0.47618437 0.0987991
000230 05 f1 33 3d 99 a5 88 bd 5e c5 00 3e 31 41 be be
       0.043931026 -0.0667221 0.1257529 -0.37159112
000240 b7 ae f3 bd f2 bb 9b bf 4d d6 13 3e 45 72 d2 bd
       -0.118985586 -1.2166731 0.14437218 -0.102757014
000250 2a 9a 08 3e dc cd 41 bd 36 45 67 be 5d 17 b3 3d
       0.13340059 -0.047315463 -0.22584996 0.087446906
000260 e4 16 dc bc f8 b9 de bd 16 a8 92 3d 90 b6 90 bf
       -0.026866384 -0.108753145 0.07160966 -1.1305714
000270 4a c6 81 3f 9b e9 53 be 90 c1 df 3c 7f de 15 be
       1.0138638 -0.20694582 0.027313977 -0.14635657
000280 81 e6 03 be 2b 96 a2 3e 41 f8 3d 3f b3 e3 5e be
       -0.12880899 0.31755194 0.7420693 -0.21766548
000290 57 9c 58 3e 1d cc 6c 3f f1 63 27 be d6 c6 2b 3f
       0.21153389 0.9249895 -0.16346718 0.67100275
0002a0 b7 bd 51 3e 22 db e5 bd 8d 2b 96 bd 2f 24 0f bf
       0.20482527 -0.11223437 -0.073325254 -0.55914587
0002b0 f0 be 50 bd 13 ac 56 be 68 78 ab be b1 92 d9 bd
       -0.050963342 -0.20964079 -0.334903 -0.10623682
0002c0 d8 e2 40 be a9 dd 0f bf b5 76 bf 3d 2e 51 c1 be
       -0.18836534 -0.561976 0.093488134 -0.37757248
0002d0 c4 e8 82 3e 4d fa 14 bf 37 b5 aa 3e e2 29 2e bf
       0.2556821 -0.5819443 0.3334138 -0.6803266
0002e0 84 bf 18 bd ec 56 43 bf bf 4f c8 be a4 59 5f be
       -0.03729202 -0.7630451 -0.3912334 -0.21811539
0002f0 8a fb 1e 3b a2 d5 95 3d b3 95 40 3e 62 d0 e8 be
       0.0024258816 0.07316138 0.18807106 -0.45471483
000300 d2 61 bd bd a2 63 4f be f1 38 80 bf 24 04 b8 bf
       -0.09247173 -0.2025285 -1.0017377 -1.4376264
000310 97 4a 01 bf d0 d2 43 be aa 76 92 bf 00 62 3d bb
       -0.5050444 -0.19123387 -1.1442463 -0.0028897524
000320 bc cf a3 3f f8 dc ae 3d af 06 e3 3d bc 78 10 3e
       1.279777 0.0853824 0.11085259 0.14108557
000330 79 1a a2 be 09 3d 84 3e 22 d4 3c 3e 2c 0c 03 be
       -0.31660822 0.25827816 0.18440297 -0.12797612
000340 10 97 5a 3e 80 65 89 3c 8f 18 25 bf e8 7e d6 bc
       0.21346688 0.016772032 -0.644906 -0.02618356
000350 11 e0 e2 bd 59 50 9f be cf c3 73 be 71 89 08 3d
       -0.110778935 -0.31115988 -0.23805164 0.0333342
000360 c7 d5 b6 bd 3f f3 9c be d7 d0 52 bd c4 97 ab be
       -0.089274935 -0.30654332 -0.051468696 -0.33514225
000370 26 8d 7c be 7a d0 3d 3e 61 c1 b5 3e c3 f8 6e be
       -0.24663219 0.18536559 0.354991 -0.23337083
000380 5a 37 56 3e e8 53 1c be e6 b5 a9 be db 10 f7 3e
       0.20919552 -0.15266383 -0.3314659 0.48255047
000390 1b 5f c8 3c 39 3b 12 bc ab 84 ab 3e fa 12 5b bf
       0.024459412 -0.008925253 0.33499655 -0.8557583
0003a0 de ed e5 3d 1a 8c 79 bf 64 7d 6d 3e 76 fe 18 bf
       0.1122701 -0.97479403 0.23192364 -0.59763277
0003b0 7c f0 3d 3f 33 db 9c be 61 06 b7 be 9f 4d 3d bf
       0.74195075 -0.30635986 -0.35747054 -0.73946565
0003c0 86 ce 0f bc 0d e7 12 bf de b0 28 3e 31 0e 8c be
       -0.008777266 -0.57383806 0.1647372 -0.27354577
0003d0 1d 8f 4e 3f df c1 a3 bd ef 2b 01 3e e6 a2 02 bf
       0.80687124 -0.07995962 0.12614416 -0.51029813
0003e0 fa b5 19 bf c0 2c 18 bd 06 02 cb be 90 2a 14 40
       -0.600433 -0.037152052 -0.3964998 2.3150978
0003f0 8a a6 15 bf 73 2a 27 be fb ae 81 bd 07 4f 0c bf
       -0.58457243 -0.16324787 -0.06332203 -0.54808086

fc1.bias f4 [256]
000000 1b b5 07 be bf 13 ec be c6 e7 92 bd 1b f4 ac be
       -0.1325268 -0.46108815 -0.071731135 -0.33779988
000010 fd 6a 93 3c 53 56 a3 3b 7e f5 b2 bd 0b 1a 8c 3d
       0.017995352 0.004984656 -0.0873823 0.06840905
000020 9b f6 8a be 26 df c1 bc 4f fb 04 3e 0c de 5c bc
       -0.2714127 -0.023665976 0.12986492 -0.0134806745
000030 a6 cc 08 be 8b 1c 0a be 54 dd 09 3e 16 e8 2a bd
       -0.13359317 -0.13487451 0.13463336 -0.04172524
000040 5e ee 72 3d b8 81 ee bc 40 2e ac be 9a 2c 9f be
       0.059309356 -0.02911459 -0.33629036 -0.31088716
000050 5d e3 e8 be 54 f6 16 be c8 f8 fd be 96 44 45 3e
       -0.45485964 -0.14742404 -0.49603868 0.19264445
000060 9e c0 dc bc 00 dd 9c be b2 57 a4 bd 0f 33 57 3e
       -0.026947316 -0.3063736 -0.08024539 0.21015571
000070 e2 17 3a be cb d0 da bd d6 89 a8 3d 32 aa 10 bf
       -0.18173173 -0.10684355 0.08229415 -0.565097
000080 99 61 fd be bf b7 f5 bd 1b eb ec bd db 2d 4d bd
       -0.49488524 -0.119979374 -0.1156828 -0.05009256
000090 91 b8 10 be c4 5a b3 be e9 e1 be be 7d cc fe bd
       -0.14132906 -0.35030186 -0.3728173 -0.12441347
0000a0 e3 01 2a be 09 28 39 bf cf 74 8a 3d 74 8b 39 3e
       -0.16602282 -0.72326714 0.06760561 0.18119603
0000b0 6d e2 58 3e 26 2a 82 be 9e 4f 1e bf e0 e8 53 3d
       0.21180125 -0.25422782 -0.61840236 0.05173576
0000c0 aa 97 19 bd e6 66 b9 be 82 bb 69 be ce 2a 8d be
       -0.037498154 -0.36211318 -0.22825435 -0.2757172
0000d0 09 a8 b4 be c5 c9 cf be 9e e0 b1 bd 29 fa b5 ba
       -0.3528445 -0.40583625 -0.086854205 -0.0013883758
0000e0 71 1e a0 3e 1d 9c 7b bd 63 53 65 be 32 e7 9c be
       0.31273225 -0.061428178 -0.22395091 -0.30645138
0000f0 28 57 3d be 55 21 a8 be 0f e7 bd 3c ae 01 99 bc
       -0.18490279 -0.3283793 0.023181466 -0.018677559
000100 f5 9a 0f 3e c6 14 9a be bb 59 8d be 19 18 19 3e
       0.14023955 -0.30093974 -0.2760752 0.14950599
000110 31 47 bc bc d6 e0 23 3d 3b 68 3d be 27 ea be be
       -0.022983165 0.040009342 -0.18496792 -0.3728802
000120 e3 7f cf be 1a 8b 18 be 2e 4d b1 be a9 9c af bd
       -0.40527257 -0.14896813 -0.34629196 -0.085748024
000130 c9 25 fb bc 04 19 90 bd 10 13 bc be b9 bb a3 be
       -0.030657666 -0.07036021 -0.36733294 -0.3197916
000140 da c4 05 be 00 46 d9 be c5 9e e2 bd 5d 17 55 3e
       -0.13063374 -0.42436218 -0.11065439 0.20809694
000150 de 6e 98 be 24 81 1b bf 37 53 c5 be 0d a8 39 be
       -0.29772085 -0.6074393 -0.3854005 -0.18130513
000160 fe d7 67 be a2 5c e4 be d4 b6 41 be 00 f6 ae be
       -0.22640988 -0.44601923 -0.189174 -0.34172058
000170 4a 2b 58 3e 68 08 cc be 3d 28 fc be c6 3e 94 3c
       0.21110263 -0.39850163 -0.4924945 0.018096339
000180 6b 62 70 be 02 30 91 3e 3f fb 65 3d 80 ec 9c be
       -0.23475043 0.2835694 0.05614781 -0.30649185
000190 d5 13 48 be 0d 01 f7 3a ae 52 b1 bd bf c2 c9 3d
       -0.19538815 0.0018844918 -0.08658348 0.09851598
0001a0 89 75 49 be 8b 93 2a be 68 51 53 3e f7 f3 15 bd
       -0.19673742 -0.16657846 0.20636523 -0.036609616
0001b0 a9 5a db bd 75 33 60 bd 9b 91 89 be f3 18 b4 be
       -0.107106514 -0.054736573 -0.268689 -0.35175285
0001c0 8a 5a e2 3c 91 63 55 be a8 bb 61 be 91 0f b8 be
       0.027631063 -0.20838763 -0.22044241 -0.35949376
0001d0 5c 6a ac 3c e4 ac b6 3d 9a ad 52 be 76 cc 24 bf
       0.02104681 0.08919695 -0.20574036 -0.6437448
0001e0 82 c6 50 3e f1 26 7a be ca 34 fa bd 17 92 d4 3c
       0.20388225 -0.24428917 -0.122171 0.025948567
0001f0 c6 72 1b be 3a 7c 8c bd a3 b4 8d 3d d0 6d 03 bf
       -0.15180501 -0.06859632 0.06919219 -0.51339436
000200 7b 89 2c 3c a5 7b 86 be ce 3e 67 3c 57 03 78 3e
       0.010530825 -0.26266208 0.014114095 0.24220024
000210 bc 79 18 3e 13 b3 c8 be 78 3c 50 be 89 f3 fa 3d
       0.14890188 -0.39199123 -0.20335567 0.12253482
000220 ba d5 8b be 52 cc b7 be 93 66 63 3d 7d 2b b2 bd
       -0.27311498 -0.35898072 0.055517744 -0.08699701
000230 9c d9 c4 3d e0 e6 fe 3e 84 0e eb be 8e 20 05 bf
       0.09611818 0.4978552 -0.45909512 -0.520028
000240 9c a0 cc 3e cc 0f 8d be 24 68 fc be 30 65 bd be
       0.39966285 -0.27551115 -0.49298203 -0.36991262
000250 9b 4c be bd 6a 2b c4 bc 7d 3b f5 bd 32 3d e6 be
       -0.09291955 -0.023946483 -0.11974237 -0.44968563
000260 9e 97 13 be 42 3b 23 3f d0 6b 45 bc 38 5e f1 be
       -0.14413306 0.63762295 -0.01204963 -0.47142196
000270 0c 5c 51 bd 57 d2 10 bf e1 71 c8 be 6a c5 dd bd
       -0.051113173 -0.56570953 -0.39149383 -0.10828669
000280 52 80 21 bd c0 5b 45 be bb 2f 0d 3e 09 12 94 be
       -0.039429016 -0.19273281 0.13787739 -0.2892001
000290 ec bd d4 bd 2b de 26 be ce 57 3e be 0b 7a a0 be
       -0.10387787 -0.16295688 -0.18588182 -0.3134311
0002a0 98 f2 22 3e 81 07 12 bf 0e c3 29 3e 5a 07 56 be
       0.15912855 -0.570427 0.16578314 -0.20901242
0002b0 8f 06 f6 3d aa 9c c1 bc 56 37 84 be d5 91 9e be
       0.1201297 -0.023634274 -0.25823468 -0.30970636
0002c0 8c b9 8c 3d d8 95 93 3e 22 fd 1a be e4 1d 54 bd
       0.06871328 0.2882526 -0.15135625 -0.05178632
0002d0 62 e8 3a 3e 05 54 9c be 96 fb 89 be 08 fb a5 be
       0.1825271 -0.30532852 -0.26949757 -0.32418084
0002e0 e8 15 d9 3d 82 c8 fe 3d 81 3c 55 3e 0e 82 2f be
       0.105998814 0.124405876 0.20823862 -0.17139456
0002f0 ea 7f ca bd 47 6e e0 bd 60 15 a3 3e 52 73 96 be
       -0.09887679 -0.10958534 0.31852245 -0.29384857
000300 5f b8 36 bc 2e 6f 39 be ef 53 e2 be 83 a3 0c be
       -0.011152356 -0.18108818 -0.4420466 -0.1373425
000310 1c 24 f8 bc c6 4a 03 3f 2c 4b f6 be 0a 2d dc be
       -0.030290656 0.5128597 -0.48104227 -0.43003112
000320 d3 92 19 3e c0 e6 06 be 1b 04 5b be a7 8c ac bd
       0.14997415 -0.13173962 -0.21388285 -0.08425265
000330 aa c8 36 be 96 0e 86 3c 29 bb 11 bf 1a 7c b4 3c
       -0.17849985 0.016364377 -0.5692621 0.022031832
000340 9b 44 0d bf dc f5 c7 be ba b2 8f be d4 2a ec be
       -0.5518281 -0.39054763 -0.28066045 -0.46126425
000350 60 23 08 bf 89 3d 2d be c5 50 07 bf 82 0b 08 bf
       -0.5317898 -0.16918005 -0.5285762 -0.5314256
000360 7a 14 00 bf dd 47 00 bf 14 a5 77 be f2 9a 6f bb
       -0.50031245 -0.50109655 -0.24184066 -0.003656086
000370 da 87 b0 be a3 5e a0 be 1e c6 11 bf 1b 5b ab be
       -0.34478647 -0.31322202 -0.5694293 -0.33467945
000380 7c e4 8e 3e d4 80 d4 bd 5e bb 03 bf fe 4f ca bd
       0.27908695 -0.103761345 -0.51457775 -0.098785385
000390 12 5e f5 bd 77 08 14 bf b9 d2 d7 3c 89 62 33 3e
       -0.11980833 -0.57825416 0.026345598 0.17518057
0003a0 5a be c1 3b f2 a2 e7 be 10 da f9 3d 02 66 ab bd
       0.0059125843 -0.45241505 0.12199795 -0.08369066
0003b0 89 fc 76 be 37 cd 87 be c6 cb 4a be 30 2a a3 bd
       -0.24119772 -0.26523754 -0.19804296 -0.07967031
0003c0 9b b1 da 3e 35 82 85 3d bc 71 9d 3d 67 6f b4 be
       0.42713627 0.06518976 0.07687709 -0.35241243
0003d0 4b fa 48 be 30 a2 91 be 5a ab 6c bd bb c6 d6 3d
       -0.19626729 -0.28444052 -0.0577806 0.104871236
0003e0 1d 4b 35 3e 8e de 48 be 1a c9 c5 be 63 49 93 3d
       0.17704435 -0.19616148 -0.3862999 0.07191732
0003f0 f0 e4 a8 be 05 de de 3d 0f 71 3d be 5d 36 1f be
       -0.32987165 0.108821906 -0.1850016 -0.15548082

fc2.weight f4 [256, 256]
000000 ca 2c ba bd d7 05 f7 bd 63 c2 ce 3c 96 9d 57 bd
       -0.09090574 -0.12061661 0.025239175 -0.05264052
000010 cc 14 33 3d 37 59 ae bc 38 b1 25 bd 98 63 6a bc
       0.043721005 -0.021282775 -0.040452212 -0.014305972
000020 15 39 04 3d bd 86 22 be 3d 63 4d bd 84 73 6b bd
       0.032281 -0.15871711 -0.05014347 -0.05748321
000030 e9 6e 51 bc f7 03 af bc d8 2f 18 3c c1 b9 20 3d
       -0.012782791 -0.021364195 0.009288751 0.03923965
000040 cc 29 80 bd c5 c6 b7 3b cf b2 08 bc d0 cf a8 bd
       -0.06257972 0.005608412 -0.008343413 -0.08242762
000050 c3 20 a6 bd a4 90 67 bd 58 62 9d bd 91 60 bb bc
       -0.081117176 -0.056534424 -0.07684773 -0.022873195
000060 48 11 fb bd 92 d0 26 bd 34 77 d6 3c ca 1d 3f bc
       -0.122591555 -0.040726252 0.026179887 -0.011664817
000070 f3 9c 10 3d 65 9e 6b 3c 8d d2 83 bd 8b 67 ec bc
       0.03530593 0.014381026 -0.06436644 -0.028857967
000080 1e 02 c5 bc bb b2 d2 3c 1c e6 5e 3d 50 43 3f 3c
       -0.024048861 0.025719991 0.05441867 0.011673763
000090 20 73 38 3c 7e b9 2e b9 92 63 bc bc 1d f2 d6 bc
       0.011257917 -0.00016663034 -0.022996698 -0.026238495
0000a0 2a b0 99 3b 31 e8 9e bd d9 49 0d 3c b8 03 a2 ba
       0.00469019 -0.07759131 0.008623564 -0.0012360727
0000b0 01 eb 00 be b8 2f 88 bd 18 c7 27 bd 06 9f 56 bd
       -0.12589647 -0.06649727 -0.040961355 -0.05239775
0000c0 f5 14 15 3d 13 1d a8 bd f7 6f f0 3c 75 16 15 3d
       0.03639694 -0.082086705 0.029350264 0.03639837
0000d0 1e a7 19 3c 09 67 6d bd 01 52 5e 3d ef 0a fd bd
       0.009378223 -0.05795959 0.054277424 -0.12355601
0000e0 cc 36 64 3d c5 3c b7 3d 15 77 3e be 62 88 44 bc
       0.05571632 0.08947138 -0.18600114 -0.011995407
0000f0 82 2f b6 39 2b c0 0c 3c 3a 3b 94 bc c0 ec 25 bd
       0.0003474914 0.008590738 -0.018094648 -0.040508986
000100 6d 60 6b bc 08 29 2a 3c 9f 07 c5 3b 51 f3 ab bd
       -0.014366251 0.010385759 0.0060128714 -0.08396018
000110 ea db 87 bd ed 8c 7a bc 0a a8 12 bc 60 01 7c 3d
       -0.06633742 -0.015292388 -0.008951196 0.06152475
000120 9f a2 6e bd 30 e1 c8 bc e8 a1 f6 bd 08 d2 0f 3c
       -0.058260556 -0.02452144 -0.120426 0.008778103
000130 9e fe 33 bd 1a da 70 bc 2e d1 d6 3c 65 78 24 3d
       -0.043943994 -0.014700437 0.026222792 0.04015388
000140 b6 a3 0c bd cd 0b 8a bc 2c 1d f3 bc 87 40 db bd
       -0.034335814 -0.01685133 -0.029676996 -0.10705667
000150 a0 89 90 3d eb 63 2c 3d 9e ef 60 bd 8b 21 be bd
       0.070575 0.042087477 -0.054916017 -0.092837416
000160 54 d1 a0 bc e8 b8 7b bd b8 14 ce 3c 80 10 ab bd
       -0.019631065 -0.061455637 0.025156364 -0.083527565
000170 5d 0c c9 bb 75 7a ec bc 4c d7 87 bd 93 e4 95 bd
       -0.006135507 -0.028866986 -0.066328615 -0.07318988
000180 fb a9 8a bd 38 da 4a 3c 7d 91 97 bd 4b 12 bb bd
       -0.067707025 0.012381129 -0.074007966 -0.091343485
000190 88 bc 49 bc 01 49 44 bc 46 57 f8 bd fe 7a 3e 3d
       -0.012313016 -0.011980296 -0.12126021 0.046504013
0001a0 f6 fc 10 3b 6f d0 96 bd 1b db 9b 3b bb 77 3a 3c
       0.0022123433 -0.07363974 0.004756344 0.011381085
0001b0 ce e6 48 bd 2a 5d fe 3c 41 34 28 bc bc 8f 89 bd
       -0.049048238 0.031050283 -0.010266365 -0.06716868
0001c0 16 7f 34 bb bd 3c 01 3d 9d c6 b5 bc ed 46 1d bd
       -0.002754157 0.031552065 -0.022189433 -0.03839772
0001d0 4c 07 ac 3c 27 ad bb bc 5b cf a9 bd a7 3b 33 bd
       0.020999573 -0.022909714 -0.08291503 -0.04375806
0001e0 ca de 22 3c 43 51 96 bd 38 42 d4 bd 64 f8 2a bd
       0.009940812 -0.07339718 -0.10364193 -0.04174079
0001f0 7a 2f 3f 3d c6 78 ab 3c 66 71 2c bd 33 8f c0 3c
       0.046676137 0.020931613 -0.042100333 0.023505783
000200 d5 cb d5 bd 33 a8 83 3d a3 e7 46 bd 75 ed 99 bc
       -0.104392685 0.06428566 -0.04856075 -0.018789986
000210 2b ab 86 bd 26 21 57 bd b2 a3 1a bd e8 d9 88 bc
       -0.065756164 -0.052521847 -0.03775377 -0.016705468
000220 b2 16 40 3d 22 60 3a bd 45 95 1c 3a 43 be 94 bd
       0.046896644 -0.045501836 0.00059731706 -0.07262852
000230 92 8c 8e bc f3 60 99 bd 95 eb 2e bd de 52 e0 bc
       -0.017401014 -0.07489195 -0.042705137 -0.027383264
000240 dc 68 13 be c8 4d 5f bd e7 eb 40 bd 67 af ee bc
       -0.1439547 -0.054517537 -0.047099974 -0.029136373
000250 91 0d 7d bd 96 6b 49 3c 31 3f 18 bd 09 84 f0 3c
       -0.061780516 0.012293717 -0.03716964 0.029359834
000260 c0 d6 dc bc 65 71 3d bd 51 e6 12 3d 06 7b a0 bd
       -0.02695787 -0.04625072 0.035864178 -0.07835965
000270 28 cf 4a bd 9c 62 89 bd bd 10 43 bd a2 4e a2 bc
       -0.049513966 -0.06708261 -0.047623385 -0.019812886
000280 5a 69 18 bd 15 27 fe bb 68 ea 6c bd b0 57 a3 bc
       -0.037209846 -0.007756124 -0.057840735 -0.019939274
000290 fb c3 0f be 39 e5 0f be e0 a4 7c 3d b5 f8 9d bb
       -0.14039604 -0.14052285 0.061680675 -0.004820908
0002a0 b3 66 59 bd 6b de c6 3c 81 44 3f bd 22 74 8d bd
       -0.053076457 0.024275979 -0.04669619 -0.06906916
0002b0 5a 80 5f 3c 09 57 d8 3c 78 e5 d1 bc 2f 63 7d ba
       0.013641441 0.02640869 -0.025622115 -0.00096659636
0002c0 4e db bc bd a6 cb 61 bd 9b e4 c5 bc 08 62 0a 3d
       -0.092215165 -0.055125855 -0.02415686 0.033784896
0002d0 e4 87 d9 bd ce a8 91 bc 07 de 72 3c ff a7 e3 bb
       -0.10621622 -0.017780688 0.014823443 -0.006947517
0002e0 c6 ce 69 3d 20 e9 00 bc ae d6 7a bd 9e 05 8a bc
       0.05708196 -0.007868081 -0.06123989 -0.016848382
0002f0 66 3b 0e bd d6 be c0 3c 36 a5 01 be 24 6a 22 3d
       -0.034724616 0.023528498 -0.12660679 0.039652005
000300 7a 65 24 bc d3 ac 1f be 62 c4 03 3d bd 89 2b 3d
       -0.0100339595 -0.15593271 0.032169707 0.041879404
000310 67 67 62 bd 60 60 18 3c 8e c9 e1 bd a8 82 a1 bd
       -0.055274393 0.009300321 -0.11024772 -0.07886249
000320 ee c6 ad 3b 89 f6 44 bd 91 d5 83 bd 50 ee a2 bc
       0.0053032553 -0.048086677 -0.06437219 -0.019889027
000330 79 3b 75 bb 56 27 32 3d fa 2b 72 3d 7c 29 5b 3c
       -0.0037419482 0.043494545 0.05912397 0.01337659
000340 ac e3 51 bd 98 eb 32 3d 65 7a 85 bd ad 90 59 bd
       -0.051242515 0.04368171 -0.065174855 -0.05311649
000350 bd 0b fe 3c 93 86 82 bd f4 e3 db bb 1f 6a 7a bd
       0.031011457 -0.06373324 -0.0067105237 -0.06113636
000360 79 9c 34 bd ef b4 8a bc 70 d3 9a bc df e5 58 3d
       -0.044094536 -0.016931979 -0.01889965 0.052953597
000370 79 89 96 3d e0 43 fa 3b 30 bc c2 3b 2a 80 46 3d
       0.073504396 0.007637486 0.005942844 0.04846207
000380 73 69 9d 38 9a 4a 7b bc b3 76 00 bd 3a eb 01 bd
       7.505985e-05 -0.015337611 -0.0313632 -0.03171847
000390 3e 0a 0d bd c1 98 79 bc d7 e9 07 be 60 0b ae bc
       -0.034433596 -0.015234173 -0.13272797 -0.021245658
0003a0 f4 98 6f 3c 07 b2 7e bd 75 76 93 bd cd b5 1b bd
       0.014623869 -0.0621815 -0.07200328 -0.038015176
0003b0 75 c6 72 bd 39 8d a7 3c 58 ac 0e 3d 69 74 62 bd
       -0.059271295 0.020453082 0.03483233 -0.0552868
0003c0 22 a2 fe bc 06 4d 56 bd 50 16 33 bd 32 02 74 bd
       -0.03108317 -0.05231955 -0.04372245 -0.059572406
0003d0 7d 34 bc bc d4 ba 47 bd 84 97 c7 3c 78 a4 b7 bc
       -0.022974247 -0.048762158 0.02436424 -0.022417292
0003e0 b1 70 42 bd c7 62 3b bd 72 a1 bb 3c 6c ca 86 bd
       -0.047470752 -0.0457485 0.022904132 -0.06581578
0003f0 d0 06 3f bc b4 e8 61 3c 90 b7 cb bd 55 f4 ac bc
       -0.011659339 0.013788391 -0.09947121 -0.0211126

fc2.bias f4 [256]
000000 38 66 21 bc ea 09 ae ba a5 fc b4 3d c9 03 56 bd
       -0.009851031 -0.0013278101 0.088372506 -0.052249704
000010 6f 2a 88 bd 0c 5e 4e bd f1 75 bd 3d 5f a7 f3 bd
       -0.066487186 -0.05038266 0.09251011 -0.11897158
000020 6e f1 1e bd 4e 4d d2 bd b5 25 50 bd 1a 52 ff bd
       -0.038804464 -0.10268651 -0.05081721 -0.124668315
000030 c1 a8 20 bc b9 30 b8 bd cb 64 95 bd 32 2e 4b 3e
       -0.009805859 -0.08993668 -0.07294615 0.19841841
000040 ff 25 f2 3d f1 fe 09 3e 1a 7d 56 be 8c 8f e0 be
       0.118236534 0.13476159 -0.2094616 -0.43859518
000050 f7 e8 a1 bd 3c 54 a6 bd c8 b4 58 bd 56 db 95 3e
       -0.07905763 -0.08121535 -0.05290678 0.29268903
000060 9d 30 c2 bd 2a 2a cb 3d 47 e3 b4 bd af 4d de 3e
       -0.094819285 0.099201515 -0.08832412 0.43418643
000070 0e a4 14 bd a4 83 dc be 78 49 f7 bb 48 5d 7a 3d
       -0.036289267 -0.43069184 -0.0075466 0.061124116
000080 6b 39 ae bd c7 0b 88 bd fd c3 00 3d 14 73 be bd
       -0.08507045 -0.06642871 0.03143691 -0.09299293
000090 06 56 05 3f 08 b1 53 bc 3b 45 9f bd 2c 9a 7d 3d
       0.52084386 -0.0129206255 -0.077768765 0.061914608
0000a0 cd 41 82 bd cd 8f 69 3e 2a b5 fa bd 39 da b9 bd
       -0.06360207 0.22808762 -0.122415856 -0.09074826
0000b0 ea de 5c 3e ed 04 06 be af 56 66 bd 76 53 e0 be
       0.2156941 -0.13087817 -0.05623501 -0.43813676
0000c0 ad ee 9b bd 73 5d 2d 3c 1a d8 4d bd 51 a1 40 ba
       -0.07613883 0.010581362 -0.05025492 -0.0007348257
0000d0 f3 30 2e bd 79 bd 54 bc 95 4f 8c 3e 0a 03 dd bd
       -0.04252715 -0.012984627 0.27404466 -0.10791595
0000e0 c8 9e 6c 3c 26 8c 45 3e 42 f5 ff bd 9c 15 88 bd
       0.014442153 0.19291744 -0.12497951 -0.06644747
0000f0 09 6a 00 be a2 a6 de bd 75 90 92 3c 83 78 c1 bd
       -0.12540449 -0.108716264 0.017891148 -0.09446814
000100 51 bc 65 3e 68 db 1d 3f e1 8c 93 3c 03 16 51 be
       0.22435118 0.6166291 0.018011512 -0.20418553
000110 7b f9 49 3d cc 24 74 bd e5 75 cb be 3f 15 08 be
       0.04931019 -0.059605405 -0.39738384 -0.13289355
000120 b0 f4 6b bd 42 ce 33 be 34 3f 80 3d e1 db 52 3e
       -0.0576064 -0.1755915 0.06262055 0.2059169
000130 96 41 ce bb 0d de 11 3f 46 3e 97 bd e6 75 81 be
       -0.0062944395 0.5697945 -0.073849246 -0.25285262
000140 c0 54 be 3e ef c7 55 bd b3 31 45 bd 55 41 b4 3e
       0.37174034 -0.052192625 -0.0481431 0.35206094
000150 40 02 be 3e f9 d6 09 bc 59 1d 84 bd ca c5 2f be
       0.37111092 -0.00841307 -0.0645091 -0.17165294
000160 df 1a a2 bd a2 53 37 3f bc f9 51 bf de 42 19 bd
       -0.079152815 0.7161199 -0.8202169 -0.037417285
000170 34 cc 72 bd cf 0e 28 be 0c f3 dd bb e2 68 75 bd
       -0.059276775 -0.16411899 -0.006773358 -0.059914477
000180 f8 f1 92 3c 90 78 3f bc 1d 92 24 3e 2e 39 c4 bc
       0.017937645 -0.011686459 0.16071363 -0.023953047
000190 7d 91 02 bd 3a 61 81 3d 16 89 a1 3e 7d cb a0 bd
       -0.03187703 0.063173726 0.315499 -0.07851312
0001a0 2b af 21 be df bd 09 bd 77 cc 1d 3d 4f 34 82 3d
       -0.15789478 -0.03362834 0.03852507 0.06357633
0001b0 55 87 96 bc cc da 25 bd 4a 04 f0 bd d9 b4 23 3d
       -0.018375078 -0.040491864 -0.11719568 0.03996739
0001c0 8b 0b 63 3e 30 ea ed bd 8b 74 e2 bd 9a 95 1c be
       0.22172372 -0.11616933 -0.11057385 -0.15291443
0001d0 04 40 9e bd 98 73 08 bb 3f 30 ad bd 18 aa a6 3e
       -0.07727054 -0.0020820852 -0.08456468 0.32551646
0001e0 aa 09 18 bd 80 68 a6 bd a7 54 7a be 76 44 0a 3f
       -0.03711859 -0.081254005 -0.24446355 0.54010713
0001f0 f6 b9 49 be d9 fe 88 be c3 70 6f 3e eb d2 d3 bd
       -0.19699845 -0.26756933 0.23382859 -0.10342964
000200 fd ee f4 be 21 73 b9 bd 80 5b 1e be 56 28 9e 3b
       -0.47838584 -0.09055162 -0.15464592 0.0048265858
000210 d0 b3 ec bd 0e 51 ba bc 59 44 43 bc 3a ca ac be
       -0.11557734 -0.022743728 -0.011918151 -0.33748037
000220 47 a5 b0 bd 81 7f 00 bf c4 3d 1c be 55 97 13 be
       -0.08625274 -0.50194556 -0.15257937 -0.14413197
000230 71 e8 90 3e 13 cb f2 bd ee 19 f6 bb f9 a6 dd bd
       0.2830234 -0.118551396 -0.0075104153 -0.10822863
000240 1c 5b f0 bd 02 45 63 be f0 36 2f bd 23 ed 6f bd
       -0.11736128 -0.22194293 -0.042777 -0.05857576
000250 f9 67 d5 3e 3e c6 23 bd ad f1 2a be 5a 34 c6 bd
       0.41680887 -0.03998398 -0.16693754 -0.09677954
000260 b9 02 f3 bd f9 31 d9 3c 93 c1 a8 be 4a 23 f5 bb
       -0.11865754 0.026513087 -0.32960185 -0.0074810134
000270 ce 75 94 be 55 68 a8 bd ce 14 ba 3b cb f2 04 3f
       -0.28996128 -0.08223025 0.0056787496 0.5193297
000280 cd 68 44 bd 8f 0d e2 3d 5b d0 ec bd 5a ba 8c bb
       -0.04795151 0.11037742 -0.11563178 -0.004294676
000290 b4 1b 13 3d f3 8f 59 bd 4a 7f da 3d 61 cd 03 be
       0.03591509 -0.053115796 0.1066881 -0.12871315
0002a0 46 8f 03 bf d3 95 5d be 5b 4f 50 bd 49 ad 43 3e
       -0.5139049 -0.21639185 -0.05085693 0.19109072
0002b0 f8 37 89 bd 0e a8 0b be 1b eb 25 3e d4 8e 9a 3e
       -0.06700128 -0.13638327 0.16202967 0.30187094
0002c0 05 72 12 3c ca 55 23 3e 56 92 0f 3e f4 ad 96 be
       0.008938317 0.15950695 0.14020666 -0.2942959
0002d0 97 3b ff bd 1a 33 9b bb 59 ad c6 bd 9a 32 a3 bd
       -0.12462538 -0.0047363164 -0.09701032 -0.07968636
0002e0 48 89 f9 3d e5 b5 b6 bd ed 71 50 3d 3d 8f 97 bd
       0.121843874 -0.089214124 0.050889898 -0.074003674
0002f0 84 a9 56 be c8 1c db 3c d7 ae a2 bd a9 43 ed bd
       -0.20963103 0.026747122 -0.07943504 -0.11585171
000300 3b cd 09 3d 96 a1 61 bc 56 f4 52 bd d4 35 cb bd
       0.03364299 -0.013771435 -0.05150255 -0.09922376
000310 4f 36 01 be 2b 63 56 3e 1a f0 0b 3e 09 69 83 bd
       -0.12618373 0.20936267 0.1366581 -0.06416518
000320 f7 72 81 bd 37 7d 8c bc 12 2a 0e 3e c3 4d 52 be
       -0.06320756 -0.01714955 0.13883236 -0.20537476
000330 c0 9b de bd 8b 61 02 3e 74 3b 55 be 08 b9 e9 bd
       -0.10869551 0.12732522 -0.20823461 -0.11412245
000340 12 fd aa be 97 37 9f bd 06 70 35 be 90 31 32 3c
       -0.33396202 -0.07774275 -0.17718515 0.010876074
000350 35 45 b8 bd 58 c0 32 bd 1e eb 2c 3e 4a 9b ac 3d
       -0.08997575 -0.043640465 0.16886565 0.084280565
000360 10 b7 45 3f 1c e1 fe bd 66 db 33 bc ec 4f fd bd
       0.77232456 -0.1244528 -0.010977602 -0.123687595
000370 55 73 a3 3d 99 d2 39 be c7 66 2b be d1 9f 86 bd
       0.07980982 -0.18146743 -0.16738425 -0.06573451
000380 45 b2 65 bc 51 05 00 3e c0 7f a1 bd de 69 64 3c
       -0.014019554 0.12502028 -0.078856945 0.013941256
000390 c0 e0 24 3d 62 9b 20 3e 04 0d 0b be 92 42 a9 bd
       0.0402534 0.15684274 -0.13579184 -0.082646504
0003a0 f3 22 9c bd 2e 43 69 bc 34 e4 df bd c6 f2 00 bd
       -0.076238535 -0.014237208 -0.10932198 -0.031481527
0003b0 fd 69 ac 3d 24 8d a0 bd 78 6a 0b 3f 1e 6f 19 bf
       0.08418653 -0.078394204 0.54459333 -0.59935176
0003c0 a2 c5 98 3d 92 d8 a1 be e5 39 90 3e 59 64 a6 bd
       0.074595705 -0.31610543 0.2816917 -0.081246085
0003d0 1e c9 34 3d b0 17 2d 3d fd cc d3 bc 38 26 29 bd
       0.044137113 0.04225892 -0.025854582 -0.041296214
0003e0 eb 81 02 3b d8 2c 8d 3e 3f 49 d8 bd 0a f9 d5 bc
       0.0019913863 0.27573276 -0.105608456 -0.026119728
0003f0 ae 3d 4f be de 70 aa bd 51 85 3a 3f 99 c2 bc bd
       -0.20238373 -0.08322309 0.72859675 -0.09216804

fc3.weight f4 [128, 256]
000000 78 36 46 3d 36 04 a4 3b 40 aa ae bd 00 ba 1f bd
       0.04839179 0.005005385 -0.08528566 -0.038995743
000010 39 00 95 3d 15 64 bd bc e5 11 b6 be 19 8e 3c 3d
       0.07275433 -0.023119012 -0.35560527 0.046033952
000020 78 36 b7 3d 38 3a a9 be ce e1 95 bd f3 db 29 bd
       0.08945936 -0.3305223 -0.073184595 -0.041469526
000030 9c d1 28 3b 0d 94 06 39 fc 3d 85 3c f8 99 5b 3e
       0.0025759703 0.00012834389 0.016264908 0.21445453
000040 a0 7d 04 be 28 f6 f3 3d 98 55 db 3e ac f2 fd be
       -0.12938547 0.11912185 0.4283874 -0.49599206
000050 a5 c7 16 3e 96 2a 9c 3c e7 84 57 3b c7 9b 55 3f
       0.14724596 0.019063275 0.0032885612 0.8344082
000060 7a e6 99 bb 25 e9 7f be a3 c5 0b 3d 3c 36 30 bf
       -0.0046966644 -0.24991281 0.034124028 -0.68832755
000070 49 c1 44 3d 01 3e 9d 3d 7a 08 b3 be fe 15 40 3f
       0.048035894 0.07677842 -0.34967405 0.7503356
000080 13 e7 d6 3c 80 6f 16 3b b7 af 8a bd 7f bc 23 3c
       0.026233232 0.0022954643 -0.06771796 0.009993671
000090 25 75 65 bf ca 8a 66 3d cc 4f d6 3e 51 d2 60 3d
       -0.89631873 0.056284703 0.41857755 0.054888073
0000a0 c4 8b ae 3c 03 dd 50 be 19 8c 5c 3c f9 12 97 3c
       0.02130688 -0.2039681 0.013461136 0.018441664
0000b0 fc e4 e6 bd 56 c0 15 bd 1f 3d 9f 3e d9 7d 83 bd
       -0.11274144 -0.03656038 0.3110132 -0.06420488
0000c0 57 c8 7e 3d fd 4f 85 bd 54 b9 8c 3e 2a e1 2f bd
       0.062202778 -0.06509397 0.27485144 -0.042939343
0000d0 90 a1 91 3b b3 f9 08 3d 3d 29 78 be de cb b9 bd
       0.0044443086 0.033441257 -0.24234481 -0.09072088
0000e0 28 92 43 be 39 31 e3 be b6 f3 46 be a0 d9 9f bc
       -0.19098723 -0.4437349 -0.19428906 -0.019512951
0000f0 98 5b 23 bc 3b 02 12 be 84 47 45 bd 04 e3 c3 bc
       -0.009970568 -0.14258663 -0.048163906 -0.02391196
000100 b5 59 a4 3e fd ea 6e be 68 a4 48 3d f7 c5 09 bb
       0.3209969 -0.23331828 0.048984915 -0.0021022537
000110 f5 b2 69 3e c7 d6 78 bb cc 6c 36 bf 50 ea 2c 3c
       0.22822173 -0.0037969814 -0.7125976 0.010553911
000120 12 d3 67 be c4 0e 82 3c 61 15 bf bc fb 0a 0b bf
       -0.2263911 0.015876181 -0.023325624 -0.5431363
000130 30 6e 2d bc cf de c5 3e 2a ef 1a 3d c0 44 1d 3f
       -0.010585353 0.38646552 0.03782574 0.6143303
000140 1b de d8 bd 60 8b 07 be a9 ae 21 3b da 50 34 3d
       -0.10589238 -0.13236761 0.0024670756 0.04402242
000150 70 d3 9f be c6 95 c2 bb a0 14 55 3c 0c ed 2e 3e
       -0.31216002 -0.0059382645 0.013005406 0.17082614
000160 ab be 21 bd 21 10 cb be c7 d8 e3 be 24 b2 86 bc
       -0.039488476 -0.39660743 -0.44501325 -0.016442366
000170 d2 78 2b 3d 85 d3 1d 3e 26 9f 3a bd 13 15 1d bd
       0.04186327 0.1541272 -0.045561932 -0.038350176
000180 a3 39 15 bb 98 27 2d bc b3 e8 d1 3d bf bd 74 bd
       -0.002276995 -0.010568522 0.10249462 -0.05975127
000190 68 13 cc 3d 7d 99 18 3e 72 89 b3 bd 24 97 ba 3c
       0.09964639 0.14902301 -0.0876645 0.022777148
0001a0 83 22 88 bd 5e ef 81 3e f4 19 48 3d ab 21 28 3f
       -0.066472076 0.25377935 0.048852876 0.65676373
0001b0 82 47 1d be 62 47 9c bc 6e cb d6 3e 6b 06 e1 3d
       -0.1535931 -0.019077007 0.4195208 0.10987552
0001c0 8a 47 28 be 47 f3 be bd 85 0a 65 3b 28 f6 13 bc
       -0.1643354 -0.09323745 0.0034948897 -0.009030856
0001d0 84 87 46 be f4 14 e2 bc 12 3f 4c bd ce 7f c5 3e
       -0.19387633 -0.027597882 -0.049864836 0.3857407
0001e0 24 3b 2e bd 6a bb 2b bd c4 55 be bf ea 89 51 bd
       -0.04253687 -0.04192678 -1.4869924 -0.051156916
0001f0 b0 92 7e 3e 29 e1 24 bd a6 5b 90 bc cb e0 30 3d
       0.24860644 -0.040253792 -0.017621826 0.04318313
000200 40 03 8a 3e 4e b0 63 bd 58 3b 7d 3d 6f 49 06 bd
       0.26955605 -0.05558806 0.061824173 -0.032784875
000210 72 26 81 ba 9d 0f 0b bf b8 e7 3a bc 54 e0 0a be
       -0.0009853377 -0.543207 -0.011407785 -0.13562137
000220 1c 88 88 bc 46 78 db 3d 80 29 ab 3a 20 fd e6 bb
       -0.016666465 0.107163 0.0013058633 -0.007049218
000230 b7 59 a5 be 8f 92 ad 3d a2 4b 1e 3c fc 2b 13 bd
       -0.3229501 0.084752195 0.009661587 -0.03593062
000240 e8 a8 79 3d d8 b0 21 3f c2 3a 83 bd 25 a0 31 3d
       0.060952097 0.6316047 -0.064076915 0.043365616
000250 a9 7e b8 3e 10 ed 4b bc da 57 31 bc 47 8e 8e bc
       0.36034134 -0.012446657 -0.010824168 -0.017401827
000260 21 1e dc bc d3 8a e1 3e 7f e3 0d bf d8 b8 34 3d
       -0.026869835 0.44051227 -0.55425256 0.044121593
000270 1f 7b df bd c2 a1 21 bd b3 66 63 3d 1f bd e0 ba
       -0.10912155 -0.039460905 0.055517863 -0.0017146206
000280 8e 95 59 bd 1b ea 32 3d eb 58 74 3d f9 c2 da 3c
       -0.053121142 0.04368029 0.05965511 0.026704298
000290 0f f7 80 be 1f db 34 bd 29 83 1e bf 4c 28 0f be
       -0.2518849 -0.044154283 -0.61918885 -0.13980216
0002a0 37 64 b3 3e 36 ae 80 be 48 c2 d4 3c 8b e3 9c b9
       0.35037395 -0.25132912 0.025971547 -0.0002992417
0002b0 f8 cc 7a 3c 96 1f 76 be 2e a2 ad be 71 eb 2b 3f
       0.015307657 -0.24035487 -0.33912796 0.6715613
0002c0 cd 15 32 3e c0 f8 39 3d 8f e8 d5 3e 3e 82 55 be
       0.17391129 0.045403242 0.4177899 -0.20850465
0002d0 01 66 bd bd 51 56 59 bc 59 31 4d bd c7 30 1c 3d
       -0.09247971 -0.013265208 -0.05009589 0.038132455
0002e0 4b f8 cb 3e 10 51 b3 3a 91 48 93 bd 16 11 9d 3b
       0.3983787 0.0013680775 -0.07191575 0.0047932966
0002f0 a5 df b4 be bf ac 60 bd ab f9 3f bc 32 fe b0 3d
       -0.35326877 -0.054852244 -0.01171724 0.08642234
000300 fc b1 15 3d 06 aa 2d 3c 37 c5 0e 3f fd 23 3a bc
       0.036546692 0.010599619 0.55769676 -0.011361119
000310 56 ed b5 bc f1 71 88 3f 56 26 29 bd 87 69 06 3b
       -0.022207897 1.0659772 -0.041296326 0.0020509677
000320 b9 ae 70 be d7 2b 10 3d 7f a8 0b 3f 6f 0e 85 3d
       -0.23504151 0.03519806 0.5455398 0.064968936
000330 96 68 10 bd 4f fb 06 3f 33 af 96 bb f0 1f ef ba
       -0.03525599 0.52727216 -0.004598522 -0.0018243771
000340 d5 95 11 be 7c 77 fa bc 2c 0c ca 3e bd 07 c4 bb
       -0.14217313 -0.030574553 0.3946241 -0.005982368
000350 9e ff 49 3d a7 94 ef 3d 83 b7 26 3d be 77 90 be
       0.04931604 0.11698275 0.040702354 -0.28216356
000360 f4 86 32 be fa 59 76 be 2c fa 29 3d da 13 33 bd
       -0.17434293 -0.24057761 0.041498348 -0.043720104
000370 18 cd 1c 3e d4 4c 95 be e3 38 ca 3a 0b ac 3c 3d
       0.15312612 -0.29160178 0.001542833 0.04606251
000380 d5 5c 23 3d 6d 04 e7 bd 5f 6a b2 3b f8 69 8e be
       0.039883453 -0.11280141 0.0054448093 -0.27815223
000390 ec b9 f7 bd bd 57 18 3e 6b 2a ff 3e 7b a7 64 be
       -0.12096009 0.1487722 0.4983705 -0.22329514
0003a0 1e ec fb 3c 8c e3 26 bc d0 2e 7d bc 86 a9 65 3d
       0.030752238 -0.010186087 -0.0154530555 0.056069873
0003b0 3f 82 78 3e f1 ac 7a bb e9 e0 93 be 95 76 55 be
       0.24268435 -0.0038250054 -0.2888253 -0.20846017
0003c0 2d 67 a5 be f6 18 d1 3e 00 7e d1 bb 1e 0a 0d bd
       -0.3230528 0.40839356 -0.006393194 -0.034433477
0003d0 b8 b3 bc be d7 8d 91 3e f7 9d 54 3b 3b d9 55 3d
       -0.36855865 0.28428528 0.0032442787 0.05220912
0003e0 c7 7a 85 3d b4 4d 91 be e4 13 6b 3d d7 b3 93 3d
       0.065175585 -0.28379595 0.057392016 0.07212036
0003f0 7b 55 63 3e 14 80 eb bc 2f b3 19 3e dd fd 83 bd
       0.22200577 -0.028747596 0.1500976 -0.06444905

fc3.bias f4 [128]
000000 05 5c 2c 3e 46 f8 9e bb e5 0d 9c 3f cc 14 42 3d
       0.16831978 -0.004851374 1.219174 0.047383115
000010 3b 0e 02 be 62 2a 30 3f d5 a8 08 bd a4 6e 81 be
       -0.12700741 0.6881467 -0.033364136 -0.25279725
000020 df 88 5b 3e e9 0b 42 be 56 86 c3 bd c3 ad ea be
       0.21438931 -0.18949856 -0.09547107 -0.45835695
000030 3c 49 1b 3f 27 a7 a0 3d 2c 5a 67 3b 28 f5 14 3e
       0.6065862 0.07844382 0.003530155 0.14546645
000040 fc ac 74 3e c4 0a 8e 3e 42 91 ea be fd 25 d8 3c
       0.23894113 0.2774259 -0.45813948 0.026385302
000050 72 cc 47 3f 80 f5 13 be bd 65 fe 3c 79 30 97 be
       0.78046334 -0.1444912 0.031054372 -0.2952917
000060 34 ff 71 be 72 4e 30 3f 5a 3b 32 bf ef 21 d1 bd
       -0.23632509 0.688697 -0.69621813 -0.102115504
000070 dc 0a ad 3d bc d6 b4 bd 98 9b 20 bf d4 48 7c bc
       0.08449337 -0.0883002 -0.6273742 -0.015398223
000080 79 a8 5a bd f6 19 6a be e6 e1 37 be 8b 7a 63 3e
       -0.053383324 -0.22861466 -0.17957267 0.22214715
000090 aa 6c 5e bd 36 14 6b bd c9 82 8c 3e eb 6b d3 bc
       -0.05430285 -0.05739232 0.2744353 -0.025808295
0000a0 16 80 02 3f c4 73 8c 3f 44 78 0c be c9 39 0c 3f
       0.50976694 1.0972829 -0.13717753 0.54775673
0000b0 63 aa 43 bd ae 74 46 3d 69 96 54 3f ee 07 99 3b
       -0.047769915 0.04845112 0.8304201 0.0046701347
0000c0 63 5c 6e be d1 3d 50 bd 1b a3 8f bd ad 07 ef 3e
       -0.2327743 -0.050840203 -0.07013532 0.46685544
0000d0 57 89 d3 be bb 49 fe bd 61 cc 45 3e c1 e8 8e bd
       -0.4131572 -0.12416407 0.19316246 -0.06977988
0000e0 d7 0d f0 be 2c cc 20 3f de e1 e0 bd 04 cc b9 bd
       -0.4688556 0.6281154 -0.10980581 -0.09072116
0000f0 b7 ad be bd 4d 84 c3 3d 3e e6 b8 be e8 d1 09 3e
       -0.09310477 0.09546719 -0.3611316 0.13458979
000100 00 6a 80 be dd bd c2 be 39 7f da be b2 bb 1d bd
       -0.25080872 -0.3803548 -0.42675188 -0.03850908
000110 4d e2 61 be aa c5 be bd 45 9a 24 3e b3 e2 94 bd
       -0.22058983 -0.09315045 0.16074474 -0.07269802
000120 83 89 4e bd dc 8f 92 be 35 9e f8 be 36 94 86 bd
       -0.05042411 -0.2862538 -0.48558202 -0.06571238
000130 e5 f7 b7 bd 61 68 b5 bd 7b e4 c1 bd 48 b0 8a bd
       -0.08982829 -0.08857799 -0.09467407 -0.06771904
000140 eb 01 0b be 34 f8 80 bc 9f 28 b2 be ca 83 17 3e
       -0.1357495 -0.015743352 -0.34796616 0.14796367
000150 e8 36 c7 3e b8 bf 06 be 7a 6f 4e 3e 41 4a 55 3e
       0.38909078 -0.13159072 0.20159712 0.20829107
000160 ed 20 9b bd e5 3a 2e 3d dd 27 1c 3d c5 2c a4 3d
       -0.075746395 0.042536635 0.038123954 0.080163516
000170 72 02 66 be cc 7b e7 be 50 ee 9f 3e e3 57 7b 3e
       -0.2246187 -0.45211637 0.31236506 0.24545245
000180 b9 e6 5b 3f 71 9f 16 be 34 28 ad be 4e ab a2 be
       0.8589893 -0.1470926 -0.33819735 -0.3177132
000190 32 e6 05 be 73 89 58 bd 92 43 0a be c4 a8 ed 3d
       -0.13076094 -0.052865457 -0.13502339 0.11604455
0001a0 7d 53 f3 bd 47 d3 11 be d5 99 9b bc e8 33 00 3e
       -0.118811585 -0.14240752 -0.018994251 0.125198
0001b0 d7 4b f7 bd e5 de 85 bd 0d 64 84 3f 6d 14 12 bd
       -0.12075012 -0.065366544 1.0343033 -0.03566401
0001c0 a5 94 f7 bd 2f cf 8e bd 2c 94 94 bd 4a f0 12 3e
       -0.120888986 -0.06973111 -0.07254824 0.14349476
0001d0 0a 76 0b 3e c9 ae 36 3f c0 c9 d5 be 4b c3 44 bd
       0.13619247 0.7136045 -0.41755486 -0.04803781
0001e0 00 72 ae bd 47 03 c2 3e 89 23 89 3f e6 60 10 bf
       -0.085178375 0.37893125 1.071397 -0.56397855
0001f0 14 5a 23 3e b2 e5 8e 3e 44 ee 8b 3e 21 d1 3d 3f
       0.15952331 0.2790962 0.2733022 0.7414723

fc4.weight f4 [64, 128]
000000 47 cf e7 be cc c3 02 3d 42 7e 42 3e 55 b7 13 be
       -0.45275328 0.031925008 0.18993476 -0.14425404
000010 e1 63 7d 3c 0e 1a b2 be 7c 5b 5a bd b1 7b 8b 3e
       0.0154657075 -0.34785503 -0.053309903 0.27242807
000020 4d fa a4 bb 8c d4 29 be 76 de 57 3d f1 b1 8c 3d
       -0.005034721 -0.16584986 0.05270239 0.06869877
000030 34 ca 8e bb 31 8d 08 3d 09 cb b2 3e be cf 8b be
       -0.0043576006 0.033337776 0.3492053 -0.27306932
000040 6d a2 a5 be 23 a9 6d bd 3f f3 8a 3e 44 18 56 be
       -0.32350484 -0.05802263 0.27138707 -0.20907694
000050 e9 8d e2 be 6b 82 f9 bd 60 ea a6 bc 6e 9f 0c be
       -0.44248894 -0.121830784 -0.02037543 -0.13732693
000060 e4 8a eb bd fc 3e 84 be a6 6a 73 be 1b ea 95 bd
       -0.11501101 -0.25829303 -0.23771152 -0.07320043
000070 37 fa 55 3e a0 9e bd bb 7f 40 92 bf c8 95 6e be
       0.2089623 -0.005786732 -1.1425933 -0.23299325
000080 f1 ad ab be 0c 0c 86 3e 99 c5 f5 3c e5 1b d3 bd
       -0.33531144 0.26181066 0.030001448 -0.10308055
000090 3d 12 83 be 20 da c9 b7 75 07 d1 be 2a 35 0f be
       -0.25599852 -2.406264e-05 -0.40826002 -0.13985124
0000a0 7c 20 90 3d 92 cc c7 3d 2d 78 71 bd be 64 ac be
       0.07037446 0.097558156 -0.0589525 -0.3367061
0000b0 99 fa 02 3b e4 3c 52 3c 25 12 09 3d 43 a7 53 3e
       0.0019985794 0.0128319 0.03346457 0.20669274
0000c0 34 3d bb bd 78 4b 28 bd aa eb 4d be 36 55 c9 bd
       -0.09142533 -0.041087598 -0.2010943 -0.09830706
0000d0 ed 06 66 be bb 80 87 bd 49 52 24 bf 5b 6d 22 3e
       -0.2246358 -0.0661635 -0.6418806 0.15862028
0000e0 af 48 56 3e 22 d7 0e 3b 94 43 21 3d 1e 9a 17 bc
       0.20926164 0.002179571 0.03937109 -0.009253053
0000f0 73 25 df bd 21 d9 17 be 28 31 27 bf 1d 12 a6 bd
       -0.10895815 -0.14828922 -0.6530938 -0.081089236
000100 c3 8a 13 bd 7f 63 fb 3b 84 3f 14 3e 6f c9 10 3d
       -0.036021005 0.007671773 0.14477354 0.035348352
000110 79 b7 28 bc 44 31 0c bd 3f 01 17 be 08 09 81 bd
       -0.01029765 -0.03422667 -0.14746569 -0.06300551
000120 8d 9c 43 3b 97 5a 9f 3d 3f 6d 50 be 99 c4 ad 3c
       0.002984795 0.077809505 -0.20354174 0.02121191
000130 30 a5 64 3c 1a 0b 2a 3c 9a 51 88 3d 0d 98 b0 be
       0.013955399 0.010378623 0.06656189 -0.34491006
000140 d0 d4 8a bd 05 52 6a 3d bc 7f 27 be 5a 49 6a 3b
       -0.06778872 0.057207126 -0.1635732 0.0035749287
000150 43 ce 15 bd b9 26 2e 3e fc a0 85 bc 81 08 06 3f
       -0.03657366 0.17006959 -0.016312115 0.52356726
000160 a2 cd 25 be a0 77 10 be 8b 90 20 3f 13 d4 0e bf
       -0.16191724 -0.14108133 0.62720555 -0.5579235
000170 a8 9e 13 3e 53 aa 77 bd ba 5c f9 bd e3 92 dc be
       0.14415991 -0.06046517 -0.12175889 -0.43080816
000180 cf 22 e7 bd 9c 09 ff bd d7 83 cf 3d 4b 4e 89 bd
       -0.11285936 -0.12453005 0.10132568 -0.06704386
000190 c3 b8 26 3c 8c cc 10 3d 14 69 8a bd 45 f3 28 3e
       0.010175887 0.03535132 -0.06758323 0.1649905
0001a0 a8 72 9c bd a0 40 2c 3b 96 a2 50 bd c2 36 33 be
       -0.076390564 0.0026283637 -0.050936304 -0.17501357
0001b0 45 24 66 bd bb 04 2d 3e c7 66 39 bf d4 ea d6 3b
       -0.056186933 0.16896336 -0.7242245 0.0065587554
0001c0 e9 f3 ba 3c d1 ac 8c be 87 0d 73 bd e9 bc 79 bd
       0.022821384 -0.27475598 -0.059339073 -0.060971174
0001d0 4f 06 a6 be 1c 80 32 3e 92 d1 5a 3e 49 c7 83 3d
       -0.32426688 0.17431682 0.21369007 0.06434495
0001e0 3b a1 40 bd 30 5b 12 3e b7 73 43 3e 38 ee 83 be
       -0.04702876 0.14292598 0.1908711 -0.25767684
0001f0 d2 5d 9a be fd 2a f0 be ad 5b cd 3e a4 d7 96 be
       -0.30149704 -0.46907797 0.40109006 -0.29461396
000200 c0 eb 1f be c2 07 aa be c9 07 0e be 8f 91 0c bd
       -0.15617275 -0.33209044 -0.13870157 -0.034318503
000210 9d 0b e2 bc d1 d7 d4 be 74 70 c1 bd 2c 86 36 be
       -0.027593428 -0.41570905 -0.09445277 -0.1782462
000220 00 89 10 3d e0 9a 1e be 70 ca 43 3d 17 4f 95 bd
       0.035286903 -0.15488768 0.04780048 -0.07290476
000230 e6 9b 9a bd 6d 39 d2 bd 03 40 f8 3b cb 8c 6c bc
       -0.075492665 -0.10264859 0.00757599 -0.014437865
000240 5f 5c 49 be f3 8e e3 bd 89 1d 5b be 9a c5 70 be
       -0.19664143 -0.1111125 -0.21397986 -0.23512879
000250 8f 4f bb be fc f0 3b bc 76 19 00 bd 09 0a 42 be
       -0.36584136 -0.011471029 -0.03127428 -0.1894914
000260 31 42 89 be ef 79 a8 3d b8 12 82 3d db 80 1b bc
       -0.26808313 0.08226382 0.063512266 -0.009491171
000270 26 c7 44 be c0 6e 77 3b ab 5d 16 bd 87 df 03 be
       -0.19216594 0.003775522 -0.036710422 -0.12878238
000280 60 85 65 3d 89 bc b1 3d a5 a9 24 be 3f c8 48 3d
       0.0560354 0.08678538 -0.16080339 0.049019095
000290 a5 09 15 3d f3 e5 ae 3c 08 cb 5d be 06 a4 52 3d
       0.03638615 0.021349883 -0.21659482 0.051425956
0002a0 a2 34 fe bc 62 31 51 bd a9 08 99 3b 49 d9 28 bd
       -0.031030957 -0.051072486 0.004670222 -0.041222844
0002b0 b7 8f b5 bd 1a 2b 3a 3c 74 c1 11 bd b1 cb a9 be
       -0.08865302 0.011362815 -0.035584882 -0.33163217
0002c0 be b6 97 bd d4 fd 8f bc 3d 11 41 be d1 dc b1 3d
       -0.07407902 -0.01757709 -0.18854232 0.086846955
0002d0 d1 70 f3 bd 78 bc 2f be 71 ef 2a be 5b c3 dc 3b
       -0.118867524 -0.17161739 -0.16692902 0.0067371554
0002e0 ad 81 2d be 92 ea 28 be 71 46 1d 3c 4a 38 39 3a
       -0.16943999 -0.16495731 0.009599314 0.00070655777
0002f0 d0 50 ba bc 9e 9b 42 bd cd 5b 55 3d 4e 22 64 3d
       -0.022743613 -0.04751169 0.0520895 0.055696778
000300 1f 95 04 3d 06 80 24 3d 0a 65 b0 3a 00 5c 31 bc
       0.032368775 0.040161155 0.0013457846 -0.010825157
000310 ef 1c ff bd 1b ba e1 bc 61 0a b1 bd 78 a5 8f 3d
       -0.124566905 -0.027554562 -0.08644558 0.070139825
000320 02 3a a3 be 17 25 09 3c 31 69 a2 bc 03 bd 25 bd
       -0.31880194 0.008370659 -0.01982555 -0.04046346
000330 c8 c8 09 bc 0c a6 57 bc 69 05 08 bc 8a 57 65 be
       -0.008409686 -0.013162147 -0.008302071 -0.22396675
000340 3d aa d3 bd 6c 2a 4a 3d 2b e8 ea bb e4 ae c9 bd
       -0.10335205 0.049356863 -0.00716879 -0.09847811
000350 9e 05 b4 bd a5 20 d2 bd a2 3a f6 3c e6 80 1b 3d
       -0.08790134 -0.10260133 0.030057255 0.037964724
000360 33 9e 09 bc d8 c0 79 3c 38 09 0f bc ae eb 8a 3d
       -0.008399534 0.015243731 -0.008730225 0.067832336
000370 b0 62 9a be 80 01 ee bd 4a e3 da bd 32 aa 5f 3c
       -0.30153418 -0.1162138 -0.10687883 0.013651418
000380 2e 17 7f 3d 53 1e ad 3d be 6e 47 3d fd ce d1 bd
       0.062277965 0.084530495 0.048689596 -0.10244558
000390 10 cb 1e be 61 7f cf 3c 81 5b 39 bd 9f c2 f2 bd
       -0.1550715 0.025329294 -0.04525328 -0.11853527
0003a0 7e 78 bb bd 93 d3 26 bd 51 97 5b 3d 9c bd b7 bd
       -0.091538414 -0.040729117 0.053611103 -0.08971712
0003b0 d6 02 ce 3d 87 f1 46 bd 8c bc e6 3c 15 08 ee bd
       0.10059135 -0.048570182 0.028166078 -0.11622635
0003c0 2e 4f 7b be bd 72 f4 bd 6b 83 9a bd 31 c5 1c be
       -0.24541923 -0.11935947 -0.07544597 -0.15309598
0003d0 52 df 25 be a2 7c 56 bc 4a 1a e3 bd 7f 6c 0a be
       -0.16198471 -0.013091238 -0.110889986 -0.1351795
0003e0 00 7b 94 bd 7d 7a 84 be 62 8b 09 be 6e d2 ba bd
       -0.07250023 -0.258747 -0.13432077 -0.091221675
0003f0 6b 3b a9 3d a2 db a5 be 44 05 c3 bb ef d6 07 be
       0.08263286 -0.3239413 -0.0059515554 -0.13265584

fc4.bias f4 [64]
000000 71 e3 fd bc 34 c9 61 be 9b bd f6 bd e5 f9 13 be
       -0.030992242 -0.22049409 -0.12047883 -0.14450796
000010 fa 79 4e 3f 83 0e be 3e 86 07 93 be b0 f3 5c 3d
       0.8065487 0.37120447 -0.28716677 0.053943336
000020 de 75 8b be 42 5e a3 bd 74 a2 0a 3f 81 c4 e6 3f
       -0.27238363 -0.079769626 0.54154134 1.8028718
000030 c0 5d 84 bd 9d 7c 0b be ed c8 57 3e b6 f0 09 3d
       -0.06463194 -0.13621755 0.21072741 0.033676825
000040 ed e9 69 be 23 c4 5a 3f 77 a3 17 be ce 86 09 be
       -0.22843142 0.8545553 -0.1480845 -0.1343033
000050 97 21 36 bd 9c f5 5d bd ee a7 b0 bc 2c a1 87 be
       -0.044465628 -0.05418931 -0.02156445 -0.26490152
000060 00 51 10 be 6d e6 13 3f 47 08 04 be fd a2 32 3c
       -0.14093399 0.57773477 -0.12893783 0.010903117
000070 29 80 c1 3e eb 79 fc bc f3 20 95 3f cc 66 82 3f
       0.3779309 -0.030819854 1.165068 1.0187621
000080 53 77 f1 3e 74 6e d1 bc b2 a9 50 3e bd 65 fa bd
       0.4716135 -0.025565363 0.20377234 -0.12226436
000090 69 8d 7f 3d d7 a4 10 3f 45 2e a1 bd 43 67 a4 3e
       0.06239072 0.56501526 -0.07870153 0.32110032
0000a0 9c d7 3b be df a7 01 be 56 12 ac bd 49 46 d9 bd
       -0.18343967 -0.12661694 -0.08401935 -0.10609109
0000b0 3a 01 97 3d be 4c 57 3e 8b e1 96 bd e9 fa 08 3f
       0.07373281 0.21025369 -0.07367238 0.5350786
0000c0 97 72 2f 3e 18 e6 03 3e 4b 14 19 bd 80 c2 91 3d
       0.17133556 0.12880743 -0.03737287 0.07117176
0000d0 37 13 8a 3c b9 4e 28 bd a8 2a 1c 3e e2 85 f6 b7
       0.016854865 -0.0410907 0.15250647 -2.938783e-05
0000e0 90 91 ab 3c 17 10 b0 3e 25 8a 81 bd e2 83 b5 bd
       0.020943433 0.34387276 -0.06325177 -0.08863045
0000f0 9e 95 20 be 5a 04 0c be a2 3c d6 bd 4f 8a 22 3f
       -0.15682074 -0.13673535 -0.104607835 0.6349229
