model/DQN/_Player_dqnAgent_model_epoch_3000.pth (torch_old, 489705 bytes, 10 tensors)

fc1.weight f4 [256, 57]
000000 d1 2c bf 3e e8 54 35 3f b6 b9 0e bf 24 88 88 be
       0.3733888 0.7083268 -0.5575212 -0.26666367
000010 9d 1b 1b bd de 85 2e bf 79 80 4b be 78 e9 89 bf
       -0.03786813 -0.68173015 -0.19873227 -1.0774374
000020 4e ba bb 3f a1 b9 1e bf 9b 78 8f 3f 18 b6 57 be
       1.4666231 -0.62002 1.1208681 -0.21065557
000030 f7 8b 56 3f 94 a7 81 be b2 fa c1 3e 0d 02 be 3e
       0.8380732 -0.25323164 0.37886578 0.3711094
000040 e3 cc 0c bf fd 28 2d bf 23 52 ce bc 71 ff b3 be
       -0.5500013 -0.6764067 -0.02518565 -0.35155824
000050 b7 10 eb 3d 2a 5e 3b bf bf e4 3f bf 80 57 65 c0
       0.114777975 -0.7319056 -0.74958414 -3.5834656
000060 6a c8 28 c0 c0 f7 6a be 86 bb fd be e7 57 6d be
       -2.6372323 -0.22946072 -0.49557132 -0.23178063
000070 68 c5 aa bd 4a aa cd bf 42 7a 53 bd 38 43 fa 3e
       -0.083384335 -1.6067593 -0.051630266 0.4887941
000080 ed c9 0d 3e fb ea 3c bf 2a 1e d5 be 16 5a cd 3d
       0.1384656 -0.7379605 -0.41624576 0.10026948
000090 27 1a 41 bf 7d e4 56 be 10 16 72 3d 8c 37 55 3f
       -0.7543053 -0.20985599 0.05910307 0.8328788
0000a0 60 42 e4 3b a4 1d 3e 3f b8 91 00 3f 9d 9f 50 bf
       0.0069659203 0.7426398 0.5022235 -0.8149355
0000b0 5a 05 ec bf fe 5d ce bd 99 92 1b bf 2e d2 f1 3f
       -1.8439133 -0.10076521 -0.60770565 1.8892267
0000c0 bb b3 1f be 12 30 32 bf 80 55 af bf b8 a4 03 be
       -0.15595905 -0.696046 -1.3697968 -0.12855804
0000d0 48 82 23 bf 72 fa d9 3f df a7 55 bf e0 ed 44 bf
       -0.6387067 1.7029555 -0.83459276 -0.7692547
0000e0 8c 4e 0d 3f 45 33 b5 bd 84 64 99 bd 14 74 7a bf
       0.5519798 -0.088476695 -0.07489875 -0.9783337
0000f0 3f 2b ae bf d2 73 5a 3b df 4e 60 bf ec 59 17 3f
       -1.3606948 0.0033333194 -0.8762035 0.59121585
000100 79 c9 49 bd 8d 41 49 3f c2 c0 85 3e d5 c4 80 3f
       -0.049264405 0.7861565 0.26123625 1.0060068
000110 89 9d b2 3e 82 d5 ac bd 6b 5a c8 be 30 5c 4e be
       0.34885815 -0.08439161 -0.39131483 -0.20152354
000120 0e f0 e5 bd 0e d2 30 3e df af 7f 3d 92 4e e1 3e
       -0.112274274 0.1726763 0.062423583 0.44005257
000130 ae d1 04 3d 31 c5 56 bf 8d 06 85 3f b5 5f 02 c0
       0.03242653 -0.8389464 1.0392624 -2.0370915
000140 dc 69 5d be 4e c5 db 3e f8 6a 7b be 19 76 8c bf
       -0.21622413 0.4292397 -0.24552524 -1.097354
000150 a2 c3 7b be e8 c9 b6 bc cf 6a 91 bf 9c 58 78 bd
       -0.24586347 -0.022313073 -1.136072 -0.06063138
000160 95 81 c2 3e 41 1d 0e bf 47 34 6f bf 69 f1 3d bf
       0.37989488 -0.5551339 -0.93439144 -0.7419649
000170 4f 83 c3 be 9d f4 6e bf db a6 70 bf e0 f7 af bd
       -0.38186118 -0.93342 -0.940046 -0.085922
000180 76 2b a5 bf 98 1a e3 3c f9 74 55 bf 7f 6e 20 c0
       -1.2903888 0.027722642 -0.8338161 -2.5067441
000190 28 d5 5b bf 79 84 e2 3e 6a 96 bb 3e 1d 22 82 bf
       -0.85872126 0.44241694 0.36638194 -1.016666
0001a0 df d8 0d bf 1e b7 6d 3f 5a a2 8a bf bd 9a bb be
       -0.55409044 0.9285754 -1.0830796 -0.36641493
0001b0 b0 f8 1b 3d 96 a4 76 bf ca 04 d5 bf b4 6a c8 be
       0.038078964 -0.9634489 -1.6642087 -0.39143908
0001c0 dc 2e 88 bf 94 fe a0 3f 00 ae 01 40 b3 74 fd be
       -1.06393 1.2577691 2.026245 -0.49503097
0001d0 14 3c 07 3f 1d c8 4f be a7 24 08 3f 32 88 a5 be
       0.52826047 -0.20291181 0.5318093 -0.3233047
0001e0 c8 30 c6 3f 0d 1e 01 be bd f8 45 3c 38 56 0b c0
       1.5483637 -0.1260912 0.01208323 -2.1771374
0001f0 c2 d7 cc 3f 97 73 78 bf 82 55 bb 3f 30 18 49 bf
       1.6003344 -0.97051376 1.463547 -0.7855253
000200 3d 6e db 3e 8d 83 f2 bf 50 f1 af 3e a0 12 91 bf
       0.42857543 -1.8946396 0.34363794 -1.1333809
000210 aa eb a3 3f a2 11 24 bf ee 2c ba bf 8a 25 eb bf
       1.2806294 -0.64089406 -1.4544961 -1.8370831
000220 49 60 69 3e 2b d1 84 c0 a1 99 cb bf 4a 1b 2d bd
       0.22790636 -4.150533 -1.5906259 -0.042262353
000230 78 8f 03 bf 87 41 92 3f 5e c5 00 3e ac 9e 96 be
       -0.5139079 1.1426247 0.1257529 -0.29417932
000240 b7 ae f3 bd 01 cf 04 bf 75 44 53 bd 58 00 24 bf
       -0.118985586 -0.5187836 -0.051578958 -0.64063025
000250 0f a4 12 3f cf 1d 79 be 08 82 43 bf 6f e0 06 3f
       0.57281584 -0.24327777 -0.76370287 0.5268621
000260 e4 16 dc bc fd 38 1c bf 16 a8 92 3d 58 f6 25 bf
       -0.026866384 -0.6102446 0.07160966 -0.64829016
000270 6b c5 f7 3f 1f 3b 43 bf c5 77 af be 2f 19 b4 bf
       1.9357122 -0.76262087 -0.34271064 -1.4070185
000280 df 3a 2f bf 4c 46 1b be 4f 7f b4 3f a1 f9 45 bf
       -0.68449205 -0.15163535 1.4101351 -0.7733403
000290 f0 cb 0c 3f 97 76 a7 3e 13 1a 38 bf 65 83 74 3f
       0.54998684 0.32707664 -0.71914786 0.9551299
0002a0 1f 8a 81 bf 5f fc 2a bf 15 51 0f bf fc 61 7d bf
       -1.0120276 -0.6679134 -0.55983096 -0.9897764
0002b0 9b 8d a0 3e 28 cd 7d be 39 22 d1 3e a1 58 fc be
       0.31358036 -0.24785292 0.40846422 -0.49286368
0002c0 27 cd a9 3e be 64 b8 bf f0 c3 31 3f 7b c7 60 c0
       0.3316433 -1.4405744 0.694396 -3.5121753
0002d0 b2 32 51 3f 2a 60 1e c0 6c ab 76 3f 86 a5 c4 bf
       0.8171798 -2.4746194 0.9635532 -1.5363014
0002e0 3a 16 ac be 5d c0 96 bf f0 b7 90 be 5c 18 3b bf
       -0.33610708 -1.1777455 -0.28265333 -0.73084044
0002f0 74 76 a3 be a4 e6 a3 be f6 d7 85 be 92 dc 14 bf
       -0.3192631 -0.32011902 -0.26141328 -0.58149064
000300 33 92 3e bf 78 43 0b bf 58 d4 91 c0 04 dc 54 c0
       -0.7444183 -0.54399824 -4.557171 -3.3259287
000310 3e 00 b9 be c5 a5 a9 bf fa cb ec bf 00 62 3d bb
       -0.36132997 -1.3253714 -1.8499749 -0.0028897524
000320 36 5e 04 40 f8 dc ae 3d ac d8 66 be 73 00 da 3e
       2.0682502 0.0853824 -0.22543591 0.42578468
000330 d6 be ca bf ea 2e f8 be c9 2d f0 3e 56 99 b2 bf
       -1.5839489 -0.48473293 0.4690993 -1.3953044
000340 56 90 07 bf 80 65 89 3c 54 0e 8b bf e8 7e d6 bc
       -0.52954614 0.016772032 -1.0863748 -0.02618356
000350 74 b8 19 3e 6d 18 40 bf 0f 83 be bf 9d 71 84 3e
       0.1501177 -0.7503727 -1.4883746 0.2586793
000360 69 43 9d be b9 47 c7 bf 17 36 1d bf ec 19 30 3e
       -0.30715492 -1.5568763 -0.6141066 0.17197388
000370 43 9c bf bf b5 5d ad 3e d6 19 88 3d b1 e9 bd bf
       -1.4969562 0.33860555 0.06645553 -1.4836942
000380 8a dd 3c 3f e0 0c 44 3e 67 78 ca bf 44 74 15 bf
       0.7377554 0.19145536 -1.5817994 -0.5838053
000390 1c 61 dd 3e 9b 83 3e be da 20 d5 3e 2f 02 80 bf
       0.4323815 -0.18604891 0.41626626 -1.0000666
0003a0 eb 40 c9 3e fa 67 8b be 9a 9f 66 bf 4f 26 91 bf
       0.3930734 -0.27227765 -0.9008728 -1.1339816
0003b0 2a cb e8 3e 1d 99 c5 bc 32 ba fc be 8b 43 15 bf
       0.45467502 -0.024120862 -0.49360806 -0.5830619
0003c0 4f 74 70 3f 55 cc 93 3e ce ae 53 3f c7 ca ef 3e
       0.9392747 0.2886683 0.82688606 0.46834394
0003d0 fa c4 6d 3f f9 3c a7 be fd e1 07 bf 44 c0 a3 3e
       0.9287869 -0.32663706 -0.53079206 0.31982625
0003e0 c9 b3 c9 3f 7b c7 62 bf 1e 72 2a bf f1 f5 6b 40
       1.5757991 -0.88585633 -0.6658038 3.686886
0003f0 b6 36 84 bf f3 ba 0d 3e 30 e6 ff bd 7f c4 cf bf
       -1.0329196 0.13840847 -0.12495077 -1.6231841

fc1.bias f4 [256]
000000 5f a6 34 bf 26 28 66 bf 36 9d 20 bf 05 48 cb bf
       -0.7056636 -0.8990501 -0.62739885 -1.5881354
000010 54 c4 89 3d e5 8a 4f be 98 9e 96 3e 4f f2 2f 3d
       0.067269 -0.20267828 0.29417872 0.042955693
000020 19 d6 35 3f f1 a3 c1 3e 6f fa 66 3e 39 05 05 bf
       0.7102981 0.3782039 0.2255647 -0.51961094
000030 f3 db 10 bf fc ea 05 bc 2a 38 fa be d5 87 9f be
       -0.56585616 -0.0081737 -0.48870975 -0.3115832
000040 a0 f6 3f be 58 19 73 3e 88 5e 20 bf aa ae 8c bf
       -0.18746424 0.23740137 -0.62644243 -1.0990803
000050 a2 a9 ac bf 25 c1 5a be e7 67 8c bf 9d b2 34 bf
       -1.3489268 -0.21362741 -1.0969208 -0.7058504
000060 ee 8d 08 be cd f5 60 bf 11 5e 0c bf ab d0 9e be
       -0.13335392 -0.8787506 -0.54831034 -0.31018576
000070 1b a8 85 bf 70 16 27 bf ff 64 b0 3d 92 cb b6 be
       -1.0441927 -0.6526861 0.086130135 -0.35702187
000080 c3 1c aa bf 22 d4 9c bf a3 8a 38 3e 12 a0 62 be
       -1.3290027 -1.2252238 0.18021636 -0.22131374
000090 c0 18 53 3f 6e 97 29 bf 76 ef 9e bf 3d d5 27 bf
       0.8245964 -0.6624669 -1.2416828 -0.6555975
0000a0 c9 8e 87 3e 4a 15 02 bf 66 6f 5a 3f ca 03 2a 3e
       0.26476124 -0.50813735 0.8532623 0.16603008
0000b0 c4 5c 91 be c3 e2 c9 bf 0d 77 ed be b0 bf ce be
       -0.28391087 -1.5772327 -0.4637989 -0.4038062
0000c0 8b 7e 01 bd 95 b4 b1 3e 58 92 f6 be f5 2c 29 be
       -0.03161482 0.34708086 -0.48158526 -0.16521056
0000d0 47 97 21 bf 64 dd 4c bf a6 51 e2 3c 2f 3e 47 be
       -0.63121456 -0.80025315 0.027626824 -0.19457315
0000e0 c6 bb ab 3f 6b ac 58 bf 4a 79 94 bf c1 00 93 bf
       1.3416679 -0.8463809 -1.1599514 -1.1484605
0000f0 c4 5c 2e bf 3a 60 80 bf 12 63 44 3f 05 35 61 bf
       -0.681103 -1.0029366 0.7671367 -0.87971526
000100 16 03 ee 3f 16 bf 22 bf 1e 78 0a be 60 b3 2e 3d
       1.8594692 -0.63572824 -0.13522384 0.042651534
000110 73 7b 38 bf f3 af 3d be 1f d8 b6 bf 01 0e 0c be
       -0.7206337 -0.1852415 -1.4284705 -0.13677217
000120 f3 eb 86 bf 1a 8b 18 be 1d af 9e bf b3 49 70 bf
       -1.0540756 -0.14896813 -1.239719 -0.93862456
000130 1c ce b3 be 56 6a ad 3e 94 8a 7e bf 77 01 5b bf
       -0.35118186 0.3387019 -0.99430203 -0.8554911
000140 fb 62 29 3f fa be df be 43 b0 b9 3f af f1 67 3f
       0.6616666 -0.4370039 1.4506916 0.90603155
000150 ee 0d 71 bf b4 65 d8 bf 3c a6 59 bf 32 69 10 bf
       -0.9416188 -1.6906037 -0.8501928 -0.56410515
000160 2b 2b 03 3f 7c 54 23 bf c3 82 40 bf 21 bc 67 bf
       0.51237744 -0.6380079 -0.75199527 -0.90521437
000170 87 38 4f bc 49 e9 81 bf 9f 90 a6 bf d0 57 8c 3e
       -0.0126477545 -1.0149318 -1.3012885 0.27410746
000180 fa 1c 64 bf 96 ac 88 3e be 12 61 be 24 dc 0b bf
       -0.89106715 0.26694173 -0.21979806 -0.5463278
000190 20 7d d7 bf 51 f8 f9 3d 9f 88 9c bf 3c f1 58 bf
       -1.683506 0.12205566 -1.2229193 -0.84743094
0001a0 71 d8 93 bf 08 03 5a be af 9c 8a 3e 83 2c 67 bf
       -1.1550428 -0.21290219 0.27072665 -0.90302294
0001b0 dc a5 b3 be ae 16 e8 be ff e2 79 3e f0 4a a2 be
       -0.35087478 -0.45329803 0.24402998 -0.31697798
0001c0 0d 26 48 bf 2c 5d ef be 9c 1f 7a bf 14 04 9d bf
       -0.7818306 -0.46750772 -0.9770448 -1.226687
0001d0 90 83 7d bf 78 d3 ab 3b e7 b9 1a bf 08 96 3f bf
       -0.99028873 0.005243715 -0.60439914 -0.74838305
0001e0 28 e9 64 be bc 70 04 bf ac 7b 37 bf 28 f8 f5 be
       -0.22354567 -0.5173452 -0.71673083 -0.4804089
0001f0 40 8d 3f bf 24 4e 22 bf 1c 7a 3e bf 1f 7e 6d bf
       -0.74824905 -0.63400483 -0.74405074 -0.9277057
000200 14 00 06 bf c6 e6 3c 3e 38 52 bc bd 4c 24 58 3e
       -0.5234387 0.18447408 -0.091953695 0.21107596
000210 0a b4 a2 3e c8 d2 01 bf 6c 14 13 3f d5 8f 39 3e
       0.31777984 -0.5071225 0.57453036 0.18121274
000220 bf ab 84 bf 62 aa 9e bf 5e 1c 09 bf 95 37 6f bf
       -1.0364913 -1.2395747 -0.5355891 -0.93444186
000230 67 02 aa 3e 51 2b 1b 40 2f bf d4 bf d3 1a b3 bf
       0.33204958 2.4245188 -1.6620845 -1.3992561
000240 39 a6 2b 40 04 fc ab bf f5 4a c1 bf a1 64 39 bf
       2.6820204 -1.3436284 -1.5101 -0.7241917
000250 05 b4 66 be 3f eb 4c bf f0 ae 02 bf 04 40 f0 bf
       -0.2252961 -0.8004646 -0.51048183 -1.8769536
000260 b2 50 2b bc 4e b7 11 40 17 20 af be ce 36 1b bf
       -0.010456251 2.276813 -0.3420417 -0.606305
000270 7f 97 4d bf fd 6e c8 bf 6e af 57 bf 67 f4 21 3c
       -0.8030929 -1.5658871 -0.8425206 0.00988493
000280 76 60 25 3e 8a 19 23 bf 92 7d 7f bf 47 46 2b bf
       0.16150078 -0.63710845 -0.9980098 -0.6690411
000290 cb 90 11 3d 00 b2 0e be 3e bd 26 bf 96 63 a8 bf
       0.035538476 -0.13935089 -0.6513251 -1.3155391
0002a0 05 dd 45 bf be 36 9f bf 4e 12 1b 3e ab ed 85 bf
       -0.77290374 -1.2438581 0.15143701 -1.0463156
0002b0 66 2d 8c 3d 20 f5 02 be a4 2d a2 bc d5 91 9e be
       0.068445966 -0.1278882 -0.019797154 -0.30970636
0002c0 01 20 c3 3d 23 43 20 3e c7 1f 66 bf a2 84 cf bf
       0.09527589 0.1565061 -0.8989224 -1.6212351
0002d0 c2 13 46 3f 15 f5 34 bf ea 38 49 bf c3 bb 83 bf
       0.773739 -0.70686466 -0.7860247 -1.0291675
0002e0 61 3e 3a 3f 7f d6 9d be 76 ec f5 bc 65 1c ad bf
       0.7275143 -0.3082771 -0.03001998 -1.352429
0002f0 10 2e f6 3d aa 29 a8 bd bc 65 37 40 47 84 1d bf
       0.120205045 -0.08211072 2.8655844 -0.61529964
000300 d8 e8 46 bf 6c 96 3d bf dc 2a 51 bf 8b 9d f2 3d
       -0.7769904 -0.7405765 -0.81706023 0.11846455
000310 52 44 ae be 2b 49 a0 3f 43 ea c3 bf 01 17 44 bf
       -0.340365 1.2522329 -1.5305866 -0.765976
000320 ec 8a e1 be 7f 1b 8c bf bc 1b 5b bf be 46 78 be
       -0.440513 -1.0945891 -0.85589194 -0.24245736
000330 24 c6 97 3f 1c 87 7f bf fa b1 cb bf 43 bc 81 be
       1.1857343 -0.99815536 -1.5913689 -0.25338945
000340 a4 41 cd bf 28 3c 99 bf 88 53 6b bf a2 09 fb bf
       -1.6035657 -1.1971483 -0.91924334 -1.9612315
000350 64 c4 bf bf ba 23 8d bf 5a 06 58 bf bd ad 70 bf
       -1.4981809 -1.1026528 -0.8438469 -0.94015104
000360 09 a0 b0 bf b2 ba 16 bf cd f4 aa bf 43 ff 9c be
       -1.3798839 -0.58878624 -1.3355957 -0.306635
000370 4e 80 ff be 75 8e 5a bf f1 6f 15 bf 13 f7 25 bf
       -0.49902576 -0.8537362 -0.58373934 -0.6483013
000380 28 71 36 bd 89 af ee be c5 bd 65 bf 15 83 81 3d
       -0.044541508 -0.46618298 -0.8974269 0.0632383
000390 dc 1b 2f be f3 83 48 bf d1 77 33 3e d8 d8 ac 3f
       -0.17100471 -0.7832634 0.17526175 1.3503675
0003a0 44 71 95 3e ca 08 9c bf 8d 33 be 3e 1b 7d 2b bf
       0.29187977 -1.2190182 0.37148705 -0.6698777
0003b0 23 b8 29 bf 87 9a a8 3c bb 23 68 bf b5 5f 88 bc
       -0.66296595 0.020581497 -0.9067952 -0.0166472
0003c0 60 cd 6a 40 b1 16 12 3d 65 34 b9 3c c6 92 0a bf
       3.668785 0.03566617 0.022607991 -0.5413021
0003d0 3a 8b a9 bd dd fb a4 bf 54 7d a3 3f 27 c4 03 3e
       -0.082785085 -1.2889363 1.2772622 0.12867795
0003e0 85 99 06 bd c1 e5 c8 bf 3a 22 92 bf d3 09 26 3e
       -0.03286125 -1.5695115 -1.1416695 0.16214685
0003f0 29 10 5b bf 9f 3d 6c bf db a7 35 3f a7 5f 56 bf
       -0.85571533 -0.92281526 0.7095925 -0.83739704

fc2.weight f4 [256, 256]
000000 ca 2c ba bd d7 05 f7 bd 63 c2 ce 3c 96 9d 57 bd
       -0.09090574 -0.12061661 0.025239175 -0.05264052
000010 cc 14 33 3d 37 59 ae bc 38 b1 25 bd 98 63 6a bc
       0.043721005 -0.021282775 -0.040452212 -0.014305972
000020 15 39 04 3d bd 86 22 be 3d 63 4d bd 84 73 6b bd
       0.032281 -0.15871711 -0.05014347 -0.05748321
000030 e9 6e 51 bc f7 03 af bc d8 2f 18 3c c1 b9 20 3d
       -0.012782791 -0.021364195 0.009288751 0.03923965
000040 cc 29 80 bd c5 c6 b7 3b cf b2 08 bc d0 cf a8 bd
       -0.06257972 0.005608412 -0.008343413 -0.08242762
000050 c3 20 a6 bd a4 90 67 bd 58 62 9d bd 91 60 bb bc
       -0.081117176 -0.056534424 -0.07684773 -0.022873195
000060 48 11 fb bd 92 d0 26 bd 34 77 d6 3c ca 1d 3f bc
       -0.122591555 -0.040726252 0.026179887 -0.011664817
000070 f3 9c 10 3d 65 9e 6b 3c 8d d2 83 bd 8b 67 ec bc
       0.03530593 0.014381026 -0.06436644 -0.028857967
000080 1e 02 c5 bc bb b2 d2 3c 1c e6 5e 3d 50 43 3f 3c
       -0.024048861 0.025719991 0.05441867 0.011673763
000090 20 73 38 3c 7e b9 2e b9 92 63 bc bc 1d f2 d6 bc
       0.011257917 -0.00016663034 -0.022996698 -0.026238495
0000a0 2a b0 99 3b 31 e8 9e bd d9 49 0d 3c b8 03 a2 ba
       0.00469019 -0.07759131 0.008623564 -0.0012360727
0000b0 01 eb 00 be b8 2f 88 bd 18 c7 27 bd 06 9f 56 bd
       -0.12589647 -0.06649727 -0.040961355 -0.05239775
0000c0 f5 14 15 3d 13 1d a8 bd f7 6f f0 3c 75 16 15 3d
       0.03639694 -0.082086705 0.029350264 0.03639837
0000d0 1e a7 19 3c 09 67 6d bd 01 52 5e 3d ef 0a fd bd
       0.009378223 -0.05795959 0.054277424 -0.12355601
0000e0 cc 36 64 3d c5 3c b7 3d 15 77 3e be 62 88 44 bc
       0.05571632 0.08947138 -0.18600114 -0.011995407
0000f0 82 2f b6 39 2b c0 0c 3c 3a 3b 94 bc c0 ec 25 bd
       0.0003474914 0.008590738 -0.018094648 -0.040508986
000100 6d 60 6b bc 08 29 2a 3c 9f 07 c5 3b 51 f3 ab bd
       -0.014366251 0.010385759 0.0060128714 -0.08396018
000110 ea db 87 bd ed 8c 7a bc 0a a8 12 bc 60 01 7c 3d
       -0.06633742 -0.015292388 -0.008951196 0.06152475
000120 9f a2 6e bd 30 e1 c8 bc e8 a1 f6 bd 08 d2 0f 3c
       -0.058260556 -0.02452144 -0.120426 0.008778103
000130 9e fe 33 bd 1a da 70 bc 2e d1 d6 3c 65 78 24 3d
       -0.043943994 -0.014700437 0.026222792 0.04015388
000140 b6 a3 0c bd cd 0b 8a bc 2c 1d f3 bc 87 40 db bd
       -0.034335814 -0.01685133 -0.029676996 -0.10705667
000150 a0 89 90 3d eb 63 2c 3d 9e ef 60 bd 8b 21 be bd
       0.070575 0.042087477 -0.054916017 -0.092837416
000160 54 d1 a0 bc e8 b8 7b bd b8 14 ce 3c 80 10 ab bd
       -0.019631065 -0.061455637 0.025156364 -0.083527565
000170 5d 0c c9 bb 75 7a ec bc 4c d7 87 bd 93 e4 95 bd
       -0.006135507 -0.028866986 -0.066328615 -0.07318988
000180 fb a9 8a bd 38 da 4a 3c 7d 91 97 bd 4b 12 bb bd
       -0.067707025 0.012381129 -0.074007966 -0.091343485
000190 88 bc 49 bc 01 49 44 bc 46 57 f8 bd fe 7a 3e 3d
       -0.012313016 -0.011980296 -0.12126021 0.046504013
0001a0 f6 fc 10 3b 6f d0 96 bd 1b db 9b 3b bb 77 3a 3c
       0.0022123433 -0.07363974 0.004756344 0.011381085
0001b0 ce e6 48 bd 2a 5d fe 3c 41 34 28 bc bc 8f 89 bd
       -0.049048238 0.031050283 -0.010266365 -0.06716868
0001c0 16 7f 34 bb bd 3c 01 3d 9d c6 b5 bc ed 46 1d bd
       -0.002754157 0.031552065 -0.022189433 -0.03839772
0001d0 4c 07 ac 3c 27 ad bb bc 5b cf a9 bd a7 3b 33 bd
       0.020999573 -0.022909714 -0.08291503 -0.04375806
0001e0 ca de 22 3c 43 51 96 bd 38 42 d4 bd 64 f8 2a bd
       0.009940812 -0.07339718 -0.10364193 -0.04174079
0001f0 7a 2f 3f 3d c6 78 ab 3c 66 71 2c bd 33 8f c0 3c
       0.046676137 0.020931613 -0.042100333 0.023505783
000200 d5 cb d5 bd 33 a8 83 3d a3 e7 46 bd 75 ed 99 bc
       -0.104392685 0.06428566 -0.04856075 -0.018789986
000210 2b ab 86 bd 26 21 57 bd b2 a3 1a bd e8 d9 88 bc
       -0.065756164 -0.052521847 -0.03775377 -0.016705468
000220 b2 16 40 3d 22 60 3a bd 45 95 1c 3a 43 be 94 bd
       0.046896644 -0.045501836 0.00059731706 -0.07262852
000230 92 8c 8e bc f3 60 99 bd 95 eb 2e bd de 52 e0 bc
       -0.017401014 -0.07489195 -0.042705137 -0.027383264
000240 dc 68 13 be c8 4d 5f bd e7 eb 40 bd 67 af ee bc
       -0.1439547 -0.054517537 -0.047099974 -0.029136373
000250 91 0d 7d bd 96 6b 49 3c 31 3f 18 bd 09 84 f0 3c
       -0.061780516 0.012293717 -0.03716964 0.029359834
000260 c0 d6 dc bc 65 71 3d bd 51 e6 12 3d 06 7b a0 bd
       -0.02695787 -0.04625072 0.035864178 -0.07835965
000270 28 cf 4a bd 9c 62 89 bd bd 10 43 bd a2 4e a2 bc
       -0.049513966 -0.06708261 -0.047623385 -0.019812886
000280 5a 69 18 bd 15 27 fe bb 68 ea 6c bd b0 57 a3 bc
       -0.037209846 -0.007756124 -0.057840735 -0.019939274
000290 fb c3 0f be 39 e5 0f be e0 a4 7c 3d b5 f8 9d bb
       -0.14039604 -0.14052285 0.061680675 -0.004820908
0002a0 b3 66 59 bd 6b de c6 3c 81 44 3f bd 22 74 8d bd
       -0.053076457 0.024275979 -0.04669619 -0.06906916
0002b0 5a 80 5f 3c 09 57 d8 3c 78 e5 d1 bc 2f 63 7d ba
       0.013641441 0.02640869 -0.025622115 -0.00096659636
0002c0 4e db bc bd a6 cb 61 bd 9b e4 c5 bc 08 62 0a 3d
       -0.092215165 -0.055125855 -0.02415686 0.033784896
0002d0 e4 87 d9 bd ce a8 91 bc 07 de 72 3c ff a7 e3 bb
       -0.10621622 -0.017780688 0.014823443 -0.006947517
0002e0 c6 ce 69 3d 20 e9 00 bc ae d6 7a bd 9e 05 8a bc
       0.05708196 -0.007868081 -0.06123989 -0.016848382
0002f0 66 3b 0e bd d6 be c0 3c 36 a5 01 be 24 6a 22 3d
       -0.034724616 0.023528498 -0.12660679 0.039652005
000300 7a 65 24 bc d3 ac 1f be 62 c4 03 3d bd 89 2b 3d
       -0.0100339595 -0.15593271 0.032169707 0.041879404
000310 67 67 62 bd 60 60 18 3c 8e c9 e1 bd a8 82 a1 bd
       -0.055274393 0.009300321 -0.11024772 -0.07886249
000320 ee c6 ad 3b 89 f6 44 bd 91 d5 83 bd 50 ee a2 bc
       0.0053032553 -0.048086677 -0.06437219 -0.019889027
000330 79 3b 75 bb 56 27 32 3d fa 2b 72 3d 7c 29 5b 3c
       -0.0037419482 0.043494545 0.05912397 0.01337659
000340 ac e3 51 bd 98 eb 32 3d 65 7a 85 bd ad 90 59 bd
       -0.051242515 0.04368171 -0.065174855 -0.05311649
000350 bd 0b fe 3c 93 86 82 bd f4 e3 db bb 1f 6a 7a bd
       0.031011457 -0.06373324 -0.0067105237 -0.06113636
000360 79 9c 34 bd ef b4 8a bc 70 d3 9a bc df e5 58 3d
       -0.044094536 -0.016931979 -0.01889965 0.052953597
000370 79 89 96 3d e0 43 fa 3b 30 bc c2 3b 2a 80 46 3d
       0.073504396 0.007637486 0.005942844 0.04846207
000380 73 69 9d 38 9a 4a 7b bc b3 76 00 bd 3a eb 01 bd
       7.505985e-05 -0.015337611 -0.0313632 -0.03171847
000390 3e 0a 0d bd c1 98 79 bc d7 e9 07 be 60 0b ae bc
       -0.034433596 -0.015234173 -0.13272797 -0.021245658
0003a0 f4 98 6f 3c 07 b2 7e bd 75 76 93 bd cd b5 1b bd
       0.014623869 -0.0621815 -0.07200328 -0.038015176
0003b0 75 c6 72 bd 39 8d a7 3c 58 ac 0e 3d 69 74 62 bd
       -0.059271295 0.020453082 0.03483233 -0.0552868
0003c0 22 a2 fe bc 06 4d 56 bd 50 16 33 bd 32 02 74 bd
       -0.03108317 -0.05231955 -0.04372245 -0.059572406
0003d0 7d 34 bc bc d4 ba 47 bd 84 97 c7 3c 78 a4 b7 bc
       -0.022974247 -0.048762158 0.02436424 -0.022417292
0003e0 b1 70 42 bd c7 62 3b bd 72 a1 bb 3c 6c ca 86 bd
       -0.047470752 -0.0457485 0.022904132 -0.06581578
0003f0 d0 06 3f bc b4 e8 61 3c 90 b7 cb bd 55 f4 ac bc
       -0.011659339 0.013788391 -0.09947121 -0.0211126

fc2.bias f4 [256]
000000 38 66 21 bc ea 09 ae ba 6d 2c 80 3d c1 0e ac bd
       -0.009851031 -0.0013278101 0.062584735 -0.084012516
000010 6f 2a 88 bd 0c 5e 4e bd ea 41 e2 3d 5f a7 f3 bd
       -0.066487186 -0.05038266 0.11047728 -0.11897158
000020 6e f1 1e bd 81 fd c8 be 9e 1c a9 bd 1a 52 ff bd
       -0.038804464 -0.39255908 -0.082574114 -0.124668315
000030 6e f0 34 bd b9 30 b8 bd cb 64 95 bd 4c e5 ca bd
       -0.044174604 -0.08993668 -0.07294615 -0.09907016
000040 36 78 99 bf 32 24 01 3f c1 8a 00 3f 12 bc bd bf
       -1.198981 0.50445855 0.5021172 -1.482302
000050 2f 44 43 3e 3c 54 a6 bd 10 5e ad bd 64 be da 3e
       0.19068979 -0.08121535 -0.084652066 0.42723382
000060 9d 30 c2 bd 2a 2a cb 3d f7 16 d3 bd c7 cd b6 3d
       -0.094819285 0.099201515 -0.103071146 0.08925968
000070 0e a4 14 bd d5 d9 61 bf 4a 5e 5e bd a3 c2 1d bb
       -0.036289267 -0.8822301 -0.05428914 -0.0024072311
000080 6b 39 ae bd c7 0b 88 bd fd c3 00 3d bc 4c fa bd
       -0.08507045 -0.06642871 0.03143691 -0.12221667
000090 90 94 32 3f a3 66 20 bd 60 a7 5e 3f 2c 9a 7d 3d
       0.6975794 -0.039160382 0.86974144 0.061914608
0000a0 cd 41 82 bd d9 4b bf 3e 2a b5 fa bd 39 da b9 bd
       -0.06360207 0.37362555 -0.122415856 -0.09074826
0000b0 f9 4d 68 3f ed 04 06 be c1 39 b4 bd 7d f1 31 bf
       0.90743977 -0.13087817 -0.08800078 -0.69509107
0000c0 ad ee 9b bd ff 8a ad bc e0 f5 a7 bd 51 a1 40 ba
       -0.07613883 -0.021184443 -0.08201194 -0.0007348257
0000d0 f3 30 2e bd 79 bd 54 bc 3f 44 62 3f 1d 9a 82 be
       -0.04252715 -0.012984627 0.88385385 -0.25508204
0000e0 ee 4d 87 3d 0d a3 e9 3f 8b d4 b9 be 9c 15 88 bd
       0.06606661 1.8252884 -0.3629497 -0.06644747
0000f0 09 6a 00 be a2 a6 de bd 84 cb 4b bb 83 78 c1 bd
       -0.12540449 -0.108716264 -0.0031096647 -0.09446814
000100 7d 1b a8 3d be 0e 13 40 e1 8c 93 3c 03 16 51 be
       0.08208368 2.2977748 0.018011512 -0.20418553
000110 7b f9 49 3d cc 24 74 bd 57 ec 5e 3e 3f 15 08 be
       0.04931019 -0.059605405 0.21769844 -0.13289355
000120 b0 f4 6b bd 42 ce 33 be 34 3f 80 3d 27 33 a9 3d
       -0.0576064 -0.1755915 0.06262055 0.0826171
000130 54 47 cf bc 7e e2 00 40 46 3e 97 bd f4 ee 18 be
       -0.025302567 2.013824 -0.073849246 -0.14934903
000140 bf 80 3e 3f ef c7 55 bd b3 31 45 bd 41 03 1c bd
       0.744152 -0.052192625 -0.0481431 -0.03808904
000150 43 16 21 3f f9 d6 09 bc 59 1d 84 bd ca c5 2f be
       0.62924594 -0.00841307 -0.0645091 -0.17165294
000160 df 1a a2 bd 02 2b 43 40 2a 4d 5a c0 de 42 19 bd
       -0.079152815 3.0495 -3.4109597 -0.037417285
000170 9b bd a0 bd 54 95 48 be 0c f3 dd bb e2 68 75 bd
       -0.078486644 -0.19588214 -0.006773358 -0.059914477
000180 4a a2 43 be dc f6 31 bd d7 78 0f be 2e 39 c4 bc
       -0.19104877 -0.043448314 -0.1401094 -0.023953047
000190 7d 91 02 bd d0 43 0d 3f 41 4b 1a bf 7d cb a0 bd
       -0.03187703 0.551816 -0.6027108 -0.07851312
0001a0 2b af 21 be 46 5a 46 3e f3 b4 29 bf ca c9 b2 3e
       -0.15789478 0.19370374 -0.6629173 0.34919578
0001b0 d9 6c 9e bd cc da 25 bd bf 18 e3 3f f2 5a 5c 3d
       -0.07735605 -0.040491864 1.7741927 0.05379767
0001c0 d6 5a 53 3e 30 ea ed bd 8b 74 e2 bd 9a 95 1c be
       0.2064012 -0.11616933 -0.11057385 -0.15291443
0001d0 11 eb 87 be 98 73 08 bb 3f 30 ad bd c8 64 07 3f
       -0.2654653 -0.0020820852 -0.08456468 0.52888155
0001e0 aa 09 18 bd 80 68 a6 bd d3 5e d1 bf 97 68 aa bd
       -0.03711859 -0.081254005 -1.6357063 -0.0832073
0001f0 ee cb 7d 3f a9 7a af bf 97 6f c5 3e eb d2 d3 bd
       0.99139297 -1.3709308 0.385617 -0.10342964
000200 77 8c e4 be 21 73 b9 bd 80 5b 1e be b3 ef 65 3d
       -0.44638416 -0.09055162 -0.15464592 0.056136798
000210 d0 b3 ec bd 3a d8 0f 3f 59 44 43 bc 45 19 37 c0
       -0.11557734 0.5618931 -0.011918151 -2.8609173
000220 88 33 c8 bd a4 d2 7d bf c4 3d 1c be 55 97 13 be
       -0.09775454 -0.9914954 -0.15257937 -0.14413197
000230 a5 fd ca be 67 a5 97 bd 30 39 ca bc d2 ea 0e be
       -0.3964664 -0.07404595 -0.024685472 -0.13956764
000240 1c 5b f0 bd 4b 11 91 be f0 36 2f bd 23 ed 6f bd
       -0.11736128 -0.28333506 -0.042777 -0.05857576
000250 0d fe a2 3f 3e c6 23 bd 32 59 03 be 5a 34 c6 bd
       1.273378 -0.03998398 -0.12826994 -0.09677954
000260 b9 02 f3 bd 9b 1e df bd c7 3a 52 3e 4a 23 f5 bb
       -0.11865754 -0.108945094 0.20530234 -0.0074810134
000270 5a c3 59 bf 55 68 a8 bd ce 14 ba 3b 1e a2 fd bd
       -0.8506371 -0.08223025 0.0056787496 -0.12384437
000280 b8 42 a3 bd c2 87 00 40 5b d0 ec bd 5a ba 8c bb
       -0.0797171 2.008286 -0.11563178 -0.004294676
000290 f8 a6 8d bc f3 8f 59 bd 53 91 f3 bf 61 cd 03 be
       -0.017291531 -0.053115796 -1.9028724 -0.12871315
0002a0 61 0b 52 3f d3 95 5d be 5b 4f 50 bd 77 5e 31 bf
       0.8204861 -0.21639185 -0.05085693 -0.69284767
0002b0 f8 37 89 bd c3 dc 43 be 25 b5 de bb c8 34 d9 be
       -0.06700128 -0.19127183 -0.0067964965 -0.4242308
0002c0 7e 6f 82 be 27 a1 be bd 5e b3 b0 3c f4 ad 96 be
       -0.25475687 -0.09308081 0.021569904 -0.2942959
0002d0 97 3b ff bd 1a 33 9b bb 4e dd 03 be 9a 32 a3 bd
       -0.12462538 -0.0047363164 -0.1287739 -0.07968636
0002e0 f6 25 38 3f e5 b5 b6 bd 6e b2 6f 3c 05 fa a4 bd
       0.71932924 -0.089214124 0.014629943 -0.080555
0002f0 ce fa fd 3f 2b 51 10 3c a3 be 26 bf a9 43 ed bd
       1.9842165 0.008808414 -0.6513464 -0.11585171
000300 7e 40 12 3b 96 a1 61 bc b8 ca d4 3d 1e 1f 06 be
       0.0022316272 -0.013771435 0.10390228 -0.13097808
000310 4f 36 01 be 49 f1 38 3f 8c 0f 55 3f 09 69 83 bd
       -0.12618373 0.7224317 0.8322685 -0.06416518
000320 ec 90 41 3c 37 7d 8c bc e9 b6 d6 3e ac d6 28 c0
       0.011814337 -0.01714955 0.41936424 -2.6381025
000330 c0 9b de bd d7 70 44 3d 74 3b 55 be 08 b9 e9 bd
       -0.10869551 0.047959175 -0.20823461 -0.11412245
000340 00 27 3c 3e 97 37 9f bd 06 70 35 be 90 31 32 3c
       0.18374252 -0.07774275 -0.17718515 0.010876074
000350 35 45 b8 bd c1 c3 dd bd 50 64 0c 3e 05 28 a2 3f
       -0.08997575 -0.10828353 0.13710141 1.2668463
000360 d6 75 12 3f 1c e1 fe bd 66 db 33 bc ec 4f fd bd
       0.57211053 -0.1244528 -0.010977602 -0.123687595
000370 9e 0e 64 3f 99 d2 39 be c7 66 2b be d1 9f 86 bd
       0.89084804 -0.18146743 -0.16738425 -0.06573451
000380 45 b2 65 bc 2b 96 18 bf c0 7f a1 bd 51 26 c9 3f
       -0.014019554 -0.5960414 -0.078856945 1.5714818
000390 f3 d3 aa 3d 8c 11 8f 3d f7 f8 b6 3e 92 42 a9 bd
       0.08341207 0.06985769 0.3573682 -0.082646504
0003a0 f3 22 9c bd db 6c 3c bd 34 e4 df bd 83 7c 81 bd
       -0.076238535 -0.04600225 -0.10932198 -0.06322577
0003b0 72 96 cb 3d 24 8d a0 bd 65 17 95 3e 0e 97 03 c0
       0.099408045 -0.078394204 0.2911941 -2.0560946
0003c0 07 e4 5c bf 95 88 a0 bf 23 da e5 3e 59 64 a6 bd
       -0.8628544 -1.2541682 0.44892988 -0.081246085
0003d0 15 63 81 bf a8 97 93 3e fd cc d3 bc 38 26 29 bd
       -1.0108362 0.28826642 -0.025854582 -0.041296214
0003e0 eb 81 02 3b 63 48 a9 3e 3f 49 d8 bd 0a f9 d5 bc
       0.0019913863 0.3306304 -0.105608456 -0.026119728
0003f0 cc fe e4 bb de 70 aa bd 50 23 ef 3f 99 c2 bc bd
       -0.006988382 -0.08322309 1.8682652 -0.09216804

fc3.weight f4 [128, 256]
000000 78 36 46 3d 36 04 a4 3b 40 aa ae bd 00 ba 1f bd
       0.04839179 0.005005385 -0.08528566 -0.038995743
000010 39 00 95 3d 15 64 bd bc 0f 24 20 bf 19 8e 3c 3d
       0.07275433 -0.023119012 -0.6255502 0.046033952
000020 78 36 b7 3d 87 c1 83 bf ce e1 95 bd f3 db 29 bd
       0.08945936 -1.0293435 -0.073184595 -0.041469526
000030 9c d1 28 3b 0d 94 06 39 fc 3d 85 3c af 75 8f 3e
       0.0025759703 0.00012834389 0.016264908 0.28019473
000040 d6 18 3b be 60 79 39 bf 63 94 ff be 40 32 5f bf
       -0.18271193 -0.7245083 -0.49917898 -0.8718605
000050 20 2b 5a 3e 96 2a 9c 3c e7 84 57 3b 2a 56 c0 3e
       0.21305513 0.019063275 0.0032885612 0.37565738
000060 7a e6 99 bb 25 e9 7f be a3 c5 0b 3d 76 6f 29 be
       -0.0046966644 -0.24991281 0.034124028 -0.16546425
000070 49 c1 44 3d 05 5a b8 3d 7a 08 b3 be fe 15 40 3f
       0.048035894 0.09001545 -0.34967405 0.7503356
000080 13 e7 d6 3c 80 6f 16 3b b7 af 8a bd 7f bc 23 3c
       0.026233232 0.0022954643 -0.06771796 0.009993671
000090 54 35 7c bf ae dc c8 3c 6e e7 9a bd 51 d2 60 3d
       -0.9851887 0.02451929 -0.07563673 0.054888073
0000a0 c4 8b ae 3c ce e5 4d 3d 19 8c 5c 3c f9 12 97 3c
       0.02130688 0.050267987 0.013461136 0.018441664
0000b0 5c ab 45 bf 56 c0 15 bd 1f 3d 9f 3e 8d 52 ba bf
       -0.772146 -0.03656038 0.3110132 -1.4556442
0000c0 57 c8 7e 3d fd 4f 85 bd 54 b9 8c 3e 2a e1 2f bd
       0.062202778 -0.06509397 0.27485144 -0.042939343
0000d0 90 a1 91 3b b3 f9 08 3d d7 a4 8e be 08 e0 3a be
       0.0044443086 0.033441257 -0.27860138 -0.18249524
0000e0 43 19 89 be 7f 62 fb bd ab 7f db 3e a0 d9 9f bc
       -0.26777086 -0.12274646 0.4287084 -0.019512951
0000f0 98 5b 23 bc 3b 02 12 be 07 3d b9 bd 04 e3 c3 bc
       -0.009970568 -0.14258663 -0.09044843 -0.02391196
000100 a3 dc 7c 3e 5e ef 25 bf 68 a4 48 3d f7 c5 09 bb
       0.24693541 -0.6481837 0.048984915 -0.0021022537
000110 f5 b2 69 3e c7 d6 78 bb e0 b3 c0 bf 50 ea 2c 3c
       0.22822173 -0.0037969814 -1.5054893 0.010553911
000120 12 d3 67 be c4 0e 82 3c 61 15 bf bc 8d 5a 1c bf
       -0.2263911 0.015876181 -0.023325624 -0.6107567
000130 42 80 ad 3c ae 3c dd 3d 2a ef 1a 3d 5d 68 4f 3f
       0.021179322 0.10802589 0.03782574 0.8101862
000140 f1 51 32 bf 60 8b 07 be a9 ae 21 3b 45 4e 01 bf
       -0.6965628 -0.13236761 0.0024670756 -0.50510055
000150 23 fa b1 bf c6 95 c2 bb a0 14 55 3c 0c ed 2e 3e
       -1.3904461 -0.0059382645 0.013005406 0.17082614
000160 ab be 21 bd 69 b2 c7 bc 04 fd b8 bf 24 b2 86 bc
       -0.039488476 -0.024377065 -1.4452214 -0.016442366
000170 d2 78 2b 3d 85 d3 1d 3e 26 9f 3a bd 13 15 1d bd
       0.04186327 0.1541272 -0.045561932 -0.038350176
000180 c8 2b 46 bf 98 27 2d bc 1f fe 99 bf bf bd 74 bd
       -0.77410555 -0.010568522 -1.2030677 -0.05975127
000190 68 13 cc 3d 32 1c fd 3d 8d 14 1a bf 24 97 ba 3c
       0.09964639 0.123588935 -0.6018761 0.022777148
0001a0 83 22 88 bd fb e8 12 bf ca df e9 bf d6 4d 02 3f
       -0.066472076 -0.5738675 -1.827142 0.5090002
0001b0 82 47 1d be 62 47 9c bc db 70 b7 3e b2 f6 e3 3c
       -0.1535931 -0.019077007 0.3582829 0.027827594
0001c0 8a 47 28 be 47 f3 be bd 85 0a 65 3b 28 f6 13 bc
       -0.1643354 -0.09323745 0.0034948897 -0.009030856
0001d0 57 70 10 be f4 14 e2 bc 12 3f 4c bd 6f 3e 1d bf
       -0.14105354 -0.027597882 -0.049864836 -0.6142339
0001e0 24 3b 2e bd 6a bb 2b bd 2e a6 26 c0 d0 a0 1a 3f
       -0.04253687 -0.04192678 -2.6038928 0.6040163
0001f0 ee ac df 3e 06 c6 63 3d af 04 31 3f cb e0 30 3d
       0.43686622 0.05560877 0.6914777 0.04318313
000200 3e 0a 64 bf 4e b0 63 bd 58 3b 7d 3d 8d d9 4a bf
       -0.8907813 -0.05558806 0.061824173 -0.79238206
000210 72 26 81 ba 34 84 91 bf b8 e7 3a bc b1 aa 50 bf
       -0.0009853377 -1.136847 -0.011407785 -0.81510454
000220 1c 88 88 bc 8d 09 69 bf 80 29 ab 3a 20 fd e6 bb
       -0.016666465 -0.910302 0.0013058633 -0.007049218
000230 99 3e 23 bf 17 df 5c 3f a2 4b 1e 3c fc 2b 13 bd
       -0.6376739 0.8627791 0.009661587 -0.03593062
000240 e8 a8 79 3d 8b ee dc be c2 3a 83 bd 25 a0 31 3d
       0.060952097 -0.43150744 -0.064076915 0.043365616
000250 d5 7b 91 bf 10 ed 4b bc ee 87 0d 3e 47 8e 8e bc
       -1.1365916 -0.012446657 0.13821384 -0.017401827
000260 21 1e dc bc 43 e3 cf 3e 8e 85 e2 bf d8 b8 34 3d
       -0.026869835 0.40603074 -1.7697008 0.044121593
000270 24 ed 1b bf c2 a1 21 bd b3 66 63 3d be 35 94 bf
       -0.6090872 -0.039460905 0.055517863 -1.1578901
000280 8e 95 59 bd 16 2e dd be eb 58 74 3d f9 c2 da 3c
       -0.053121142 -0.43199223 0.05965511 0.026704298
000290 d4 40 8e be 1f db 34 bd 7e be 32 bf 4c 28 0f be
       -0.27783835 -0.044154283 -0.6982192 -0.13980216
0002a0 7c c9 33 bf 36 ae 80 be 48 c2 d4 3c 22 b2 50 bf
       -0.70229316 -0.25132912 0.025971547 -0.8152181
0002b0 f8 cc 7a 3c 9f cc c8 be c2 43 03 be 22 d4 c3 3f
       0.015307657 -0.39218614 -0.12818816 1.5299113
0002c0 0b 5e cb be 5d 70 b2 bf ef fa 76 3e 3e 82 55 be
       -0.39720187 -1.394054 0.24119161 -0.20850465
0002d0 01 66 bd bd 51 56 59 bc 59 31 4d bd c7 30 1c 3d
       -0.09247971 -0.013265208 -0.05009589 0.038132455
0002e0 a5 5d 5e bf 10 51 b3 3a 91 48 93 bd 16 11 9d 3b
       -0.8686164 0.0013680775 -0.07191575 0.0047932966
0002f0 59 e1 d2 bf bf ac 60 bd 27 1a 25 bf 32 fe b0 3d
       -1.6475021 -0.054852244 -0.6449303 0.08642234
000300 fc b1 15 3d 06 aa 2d 3c db cb bd 3e fd 23 3a bc
       0.036546692 0.010599619 0.37069592 -0.011361119
000310 56 ed b5 bc 79 6a d9 3f e7 f4 33 bf 87 69 06 3b
       -0.022207897 1.6985618 -0.70295566 0.0020509677
000320 8b a6 85 bf d7 2b 10 3d e1 b2 da 3e ef fc 55 bf
       -1.044145 0.03519806 0.427146 -0.8358907
000330 96 68 10 bd e1 c4 cb 3e 33 af 96 bb f0 1f ef ba
       -0.03525599 0.39798644 -0.004598522 -0.0018243771
000340 1e 80 85 bf 7c 77 fa bc 2c 0c ca 3e bd 07 c4 bb
       -1.0429723 -0.030574553 0.3946241 -0.005982368
000350 9e ff 49 3d 68 97 8a 3e 83 b7 26 3d f1 25 13 bf
       0.04931604 0.2706864 0.040702354 -0.5747977
000360 11 17 85 3e fa 59 76 be 2c fa 29 3d da 13 33 bd
       0.2599416 -0.24057761 0.041498348 -0.043720104
000370 e9 a1 8d 3d d4 4c 95 be e3 38 ca 3a 0b ac 3c 3d
       0.069156475 -0.29160178 0.001542833 0.04606251
000380 d5 5c 23 3d ff 00 83 bf 5f 6a b2 3b a0 95 b1 be
       0.039883453 -1.0234679 0.0054448093 -0.34684467
000390 68 19 00 bf 21 44 36 bc b3 46 b4 3e 7b a7 64 be
       -0.50038767 -0.011124642 0.3521019 -0.22329514
0003a0 1e ec fb 3c 8c e3 26 bc d0 2e 7d bc 86 a9 65 3d
       0.030752238 -0.010186087 -0.0154530555 0.056069873
0003b0 61 02 c1 3e f1 ac 7a bb 89 f8 db bf 0b f3 86 3d
       0.37697127 -0.0038250054 -1.7185222 0.065893255
0003c0 e3 cd 9a bf 65 f6 74 be 55 21 2d be 1e 0a 0d bd
       -1.2094082 -0.23922117 -0.16907246 -0.034433477
0003d0 00 64 00 be c0 cc bb 3d f7 9d 54 3b 3b d9 55 3d
       -0.12538147 0.09169912 0.0032442787 0.05220912
0003e0 c7 7a 85 3d 3d c7 04 bf e4 13 6b 3d d7 b3 93 3d
       0.065175585 -0.51866513 0.057392016 0.07212036
0003f0 7c 70 8b 3e 14 80 eb bc 66 4b 14 3f dd fd 83 bd
       0.27234256 -0.028747596 0.5792755 -0.06444905

fc3.bias f4 [128]
000000 63 5d dc 3e 1a e1 05 bc 51 bc 93 3f bd df 7f 3c
       0.43039998 -0.008171344 1.1541845 0.015617308
000010 98 0b 34 bf 41 5f 34 3f d5 a8 08 bd 30 29 14 bf
       -0.7033019 0.70457846 -0.033364136 -0.5787535
000020 8e 33 13 bf e9 0b 42 be f4 bb 22 be 4e a6 02 c0
       -0.5750054 -0.18949856 -0.15892011 -2.0414004
000030 af 42 d7 3e 6b 2b 0d be b1 d7 60 40 d7 38 87 bc
       0.42043063 -0.13786094 3.5131648 -0.016506596
000040 fc ac 74 3e 09 36 4e 40 f2 96 b5 3d 73 f3 5a bf
       0.23894113 3.222048 0.08866681 -0.85527724
000050 82 1e 20 3f 56 02 55 be 36 80 97 3c ef dc 64 bf
       0.6254655 -0.20801672 0.018493753 -0.8939962
000060 eb f3 aa bf 64 c4 f9 3e c2 71 20 bf 59 88 29 be
       -1.3355688 0.48782647 -0.6267358 -0.16555919
000070 d4 95 8e bf 0a 5c 25 c0 ac 6d f7 bf 1d 1d d7 be
       -1.1139474 -2.5837426 -1.9330344 -0.420144
000080 76 7c 15 c0 07 5f f0 be e0 82 be 3f 72 2a 49 3e
       -2.3357215 -0.469475 1.488369 0.19645098
000090 3e 9b 32 be 11 eb b4 bd f0 90 bd be 1d d0 6b bd
       -0.17442033 -0.08833898 -0.3702464 -0.05757152
0000a0 34 55 34 3f 06 7f 5d 3f 44 78 0c be 2a 46 32 40
       0.7044251 0.8652195 -0.13717753 2.7855325
0000b0 4a e3 a2 bd 7c 67 c0 3e 83 cb 8a 3f f6 f1 fb 3f
       -0.07953508 0.37578952 1.0843357 1.9683216
0000c0 6b 14 91 be 88 f0 ed 3b 1b a3 8f bd 89 32 52 3e
       -0.2833589 0.0072613396 -0.07013532 0.2052709
0000d0 fc d3 ec bf bb 49 fe bd 67 3f 2a c0 c1 e8 8e bd
       -1.8502192 -0.12416407 -2.6601198 -0.06977988
0000e0 d2 89 31 bf cf 78 1d 3f d1 41 fd bd 84 aa fa bd
       -0.6935092 0.61512464 -0.12366069 -0.122395545
0000f0 03 31 2f bd 41 11 01 40 5d c4 84 bf 5f f9 9c 3e
       -0.04277135 2.016678 -1.0372425 0.30659005
000100 00 6a 80 be 14 0e 8f bf cf 7a af bf b2 bb 1d bd
       -0.25080872 -1.1176171 -1.3709353 -0.03850908
000110 90 fe 7a be 03 47 86 be b9 24 df 3e c1 b9 c4 bd
       -0.2451117 -0.26226053 0.43582705 -0.09605742
000120 25 ff 53 be 03 d3 a2 be a5 3a 6d bf e0 68 04 be
       -0.20702799 -0.31801614 -0.9266761 -0.12930632
000130 d1 f4 14 bf 61 68 b5 bd 7b e4 c1 bd 46 ed 62 be
       -0.5818606 -0.08857799 -0.09467407 -0.22160825
000140 eb 01 0b be 65 63 42 bd 44 98 1e bf cd 74 b3 be
       -0.1357495 -0.04745807 -0.6195109 -0.3505005
000150 0c 20 00 3f b8 bf 06 be 70 f4 88 bf c6 07 81 3d
       0.500489 -0.13159072 -1.0699596 0.06300311
000160 19 2b dc bd 14 7c 30 3c 61 f6 0c be 7a e2 fa be
       -0.10750408 0.01077177 -0.13765861 -0.49000913
000170 db 90 08 bd 4c c4 bb bf ee b1 3f 3f c7 85 ab 3e
       -0.03334127 -1.466928 0.74880874 0.33500502
000180 ce 4a 85 3f 71 9f 16 be b5 5e bd be f8 b9 fe 3e
       1.0413454 -0.1470926 -0.36986318 0.49751258
000190 06 6d 26 be 6d 60 bc 3c 64 c5 38 be 53 26 f7 be
       -0.16252527 0.022995198 -0.18044049 -0.48271427
0001a0 7d 53 f3 bd 80 5a 32 be 18 af 61 c0 83 f1 12 3f
       -0.118811585 -0.17417336 -3.5263119 0.5739977
0001b0 d7 4b f7 bd e5 de 85 bd 8a 18 71 3f 76 5f 88 bd
       -0.12075012 -0.065366544 0.9417807 -0.06658833
0001c0 36 4b 48 be 3c 2c 95 3e 3a b6 25 be 79 2a 92 be
       -0.1955994 0.2913531 -0.16182795 -0.2854803
0001d0 e4 09 0f bd 34 b9 66 40 93 89 fc bf ff dd 44 bd
       -0.03492154 3.605054 -1.9729484 -0.048063274
0001e0 00 72 ae bd 28 30 54 3f 76 96 50 3f 8e 22 e4 bf
       -0.085178375 0.8288598 0.81479585 -1.7823045
0001f0 86 9b 9d bf 2b 3a 00 3f 19 c5 3c 3d a1 cd 33 40
       -1.2313087 0.5008876 0.046086404 2.8094256

fc4.weight f4 [64, 128]
000000 a4 93 9c be cc c3 02 3d 19 89 91 3e 55 b7 13 be
       -0.3058139 0.031925008 0.2842491 -0.14425404
000010 c5 1e a9 be e9 b6 d7 be 7c 5b 5a bd 15 8b 97 3e
       -0.33031288 -0.42131737 -0.053309903 0.295983
000020 72 78 83 be 8c d4 29 be 76 de 57 3d d9 2b 22 bf
       -0.2567783 -0.16584986 0.05270239 -0.63348156
000030 ba 5a c5 3d 5b 92 93 bd 25 94 9a 3e be cf 8b be
       0.09636445 -0.072056495 0.3019115 -0.27306932
000040 6d a2 a5 be 9e 06 82 bf 98 be ba 3c c5 fe 7f bf
       -0.32350484 -1.015827 0.02279596 -0.9999812
000050 dd 42 01 bf 6b 82 f9 bd 60 ea a6 bc 84 15 97 be
       -0.5049265 -0.121830784 -0.02037543 -0.29508603
000060 e4 8a eb bd fc 3e 84 be cc a8 f9 be 1b ea 95 bd
       -0.11501101 -0.25829303 -0.48761594 -0.07320043
000070 ed 1d 07 3f a8 ef de 3c e0 b7 9e bf bd 12 31 be
       0.5278004 0.027213886 -1.2399864 -0.17292304
000080 b7 58 13 bf 69 d8 f5 3c 8f d1 33 be e5 1b d3 bd
       -0.57557243 0.030010419 -0.17560409 -0.10308055
000090 3d 12 83 be 20 da c9 b7 38 ac dd be 2a 35 0f be
       -0.25599852 -2.406264e-05 -0.43295455 -0.13985124
0000a0 80 4c 4a be 2a 7e 4b 3e 2d 78 71 bd d0 96 e6 be
       -0.19755745 0.19872347 -0.0589525 -0.45036936
0000b0 99 fa 02 3b 06 1b 9b bc 4c 00 00 be d3 b1 38 be
       0.0019985794 -0.018933784 -0.12500113 -0.18036585
0000c0 34 3d bb bd 78 4b 28 bd aa eb 4d be cf 32 ae bd
       -0.09142533 -0.041087598 -0.2010943 -0.08505785
0000d0 25 37 37 bf bb 80 87 bd 90 d4 76 bf 5b 6d 22 3e
       -0.7156852 -0.0661635 -0.96418095 0.15862028
0000e0 bb 48 ad 3d 90 a6 8d ba 94 43 21 3d 1e 9a 17 bc
       0.08461138 -0.0010807086 0.03937109 -0.009253053
0000f0 8a 40 8a 3e df b6 d7 be e0 fe 8f bf 63 ed 74 be
       0.27002364 -0.42131707 -1.1249657 -0.23918681
000100 c3 8a 13 bd fd b7 90 3e b0 81 69 3e 6f c9 10 3d
       -0.036021005 0.28265372 0.22803378 0.035348352
000110 79 b7 28 bc 9c e9 bf 3e 0a 30 2f be 2d eb ff bc
       -0.01029765 0.37482917 -0.17108169 -0.03124007
000120 d4 9c 74 bd e7 68 e0 3d d8 20 57 be 99 c4 ad 3c
       -0.059719875 0.109575085 -0.21008623 0.02121191
000130 41 9a 78 3d 1a 0b 2a 3c 9a 51 88 3d 0d 98 b0 be
       0.060693983 0.010378623 0.06656189 -0.34491006
000140 d0 d4 8a bd 05 52 6a 3d ad 10 0f bf 6d 18 92 3e
       -0.06778872 0.057207126 -0.5588482 0.2853426
000150 1a b5 c1 3d b9 26 2e 3e b6 94 50 bf 9a 92 0a 3f
       0.094583705 0.17006959 -0.81476915 0.54129946
000160 a2 cd 25 be a0 77 10 be 89 ba 09 3f f8 89 37 bf
       -0.16191724 -0.14108133 0.53800255 -0.716949
000170 d7 21 a7 3e e3 85 a7 bd 33 9b 0c bf e3 92 dc be
       0.32643005 -0.08179834 -0.54924315 -0.43080816
000180 e1 76 8c be 9c 09 ff bd d7 83 cf 3d 42 6e 43 be
       -0.27434447 -0.12453005 0.10132568 -0.19085029
000190 c3 b8 26 3c 46 c7 08 be 38 05 a6 bb 13 1c 31 3d
       0.010175887 -0.13357267 -0.00506654 0.043239664
0001a0 a8 72 9c bd a0 40 2c 3b 94 96 4f bf 26 6b 02 3d
       -0.076390564 0.0026283637 -0.8108914 0.031840466
0001b0 45 24 66 bd bb 04 2d 3e 46 a3 1a bf d4 ea d6 3b
       -0.056186933 0.16896336 -0.60405385 0.0065587554
0001c0 e9 f3 ba 3c d1 ac 8c be f9 1b 8f bd e9 7c 33 be
       0.022821384 -0.27475598 -0.06987757 -0.17528118
0001d0 3a b9 fa be 64 83 bd bc 9d a0 5f be 49 c7 83 3d
       -0.48969442 -0.023133941 -0.21838613 0.06434495
0001e0 3b a1 40 bd 7a aa b7 3d 24 59 1e 3e 6f 5b 14 bf
       -0.04702876 0.08968063 0.15463692 -0.57952017
0001f0 7a 41 73 bf 0f 8a dc be cc 38 73 3e 1e c3 6f bf
       -0.95021784 -0.4307408 0.23752135 -0.936571
000200 c0 eb 1f be ef 1f be be c9 07 0e be 8f 91 0c bd
       -0.15617275 -0.37133738 -0.13870157 -0.034318503
000210 9d 0b e2 bc 68 1b e5 be 74 70 c1 bd 22 a6 30 be
       -0.027593428 -0.44747472 -0.09445277 -0.17250875
000220 00 89 10 3d e0 9a 1e be 70 ca 43 3d c8 d3 32 bf
       0.035286903 -0.15488768 0.04780048 -0.698544
000230 e6 9b 9a bd 6d 39 d2 bd 15 33 ca 3d cb 8c 6c bc
       -0.075492665 -0.10264859 0.098730244 -0.014437865
000240 5f 5c 49 be ed a6 33 bf 0f 98 01 3e 1e 33 a0 bf
       -0.19664143 -0.70176584 0.12655662 -1.25156
000250 8f 4f bb be fc f0 3b bc 76 19 00 bd bc af 2a be
       -0.36584136 -0.011471029 -0.03127428 -0.166686
000260 fc 76 f3 be ef 79 a8 3d 05 af dc be db 80 1b bc
       -0.47551715 0.08226382 -0.4310228 -0.009491171
000270 26 c7 44 be 29 2b 00 bd 18 a0 9a be 87 df 03 be
       -0.19216594 -0.03129116 -0.30200267 -0.12878238
000280 ec 72 d7 be 89 bc b1 3d 0a 10 05 bf 3f c8 48 3d
       -0.42079866 0.08678538 -0.519776 0.049019095
000290 a5 09 15 3d f3 e5 ae 3c 04 f6 c2 be 06 a4 52 3d
       0.03638615 0.021349883 -0.3807832 0.051425956
0002a0 a2 34 fe bc 62 31 51 bd a9 08 99 3b 5c 75 71 3c
       -0.031030957 -0.051072486 0.004670222 0.014737453
0002b0 b7 8f b5 bd 9a a7 30 3d 74 c1 11 bd b7 5f db be
       -0.08865302 0.043128587 -0.035584882 -0.42846462
0002c0 be b6 97 bd d4 fd 8f bc 3d 11 41 be d1 dc b1 3d
       -0.07407902 -0.01757709 -0.18854232 0.086846955
0002d0 4d c4 26 be 78 bc 2f be 87 1b 9a bf 5b c3 dc 3b
       -0.1628582 -0.17161739 -1.2039651 0.0067371554
0002e0 ad 81 2d be 92 ea 28 be 71 46 1d 3c 4a 38 39 3a
       -0.16943999 -0.16495731 0.009599314 0.00070655777
0002f0 d0 50 ba bc 2a d2 7f bf cd 5b 55 3d 4e 22 64 3d
       -0.022743613 -0.9993006 0.0520895 0.055696778
000300 1f 95 04 3d c2 f7 11 3f 0a 65 b0 3a 00 5c 31 bc
       0.032368775 0.57018673 0.0013457846 -0.010825157
000310 ef 1c ff bd 1b ba e1 bc 61 0a b1 bd 78 a5 8f 3d
       -0.124566905 -0.027554562 -0.08644558 0.070139825
000320 02 3a a3 be 17 25 09 3c 31 69 a2 bc 03 bd 25 bd
       -0.31880194 0.008370659 -0.01982555 -0.04046346
000330 0c 31 c0 be 0c a6 57 bc 69 05 08 bc 8a 57 65 be
       -0.3753742 -0.013162147 -0.008302071 -0.22396675
000340 3d aa d3 bd 6c 2a 4a 3d e8 ac ac be e4 ae c9 bd
       -0.10335205 0.049356863 -0.33725667 -0.09847811
000350 62 64 e4 be a5 20 d2 bd a2 3a f6 3c e6 80 1b 3d
       -0.44607836 -0.10260133 0.030057255 0.037964724
000360 33 9e 09 bc d8 c0 79 3c 38 09 0f bc ae eb 8a 3d
       -0.008399534 0.015243731 -0.008730225 0.067832336
000370 a6 05 6f bd 11 01 59 be 43 c1 8e be 32 aa 5f 3c
       -0.058354996 -0.21191813 -0.27881822 0.013651418
000380 2e 17 7f 3d 53 1e ad 3d be 6e 47 3d b2 75 01 3f
       0.062277965 0.084530495 0.048689596 0.50570214
000390 10 cb 1e be 8d 9b 17 be 81 5b 39 bd 9f c2 f2 bd
       -0.1550715 -0.14805432 -0.04525328 -0.11853527
0003a0 7e 78 bb bd 93 d3 26 bd eb 60 f8 bd 9c bd b7 bd
       -0.091538414 -0.040729117 -0.12127861 -0.08971712
0003b0 d6 02 ce 3d 87 f1 46 bd 8c bc e6 3c 15 08 ee bd
       0.10059135 -0.048570182 0.028166078 -0.11622635
0003c0 2e 4f 7b be bd 72 f4 bd 6b 83 9a bd 31 c5 1c be
       -0.24541923 -0.11935947 -0.07544597 -0.15309598
0003d0 f5 72 9e be 4c b9 58 3e 07 55 50 bf 7f 6c 0a be
       -0.3094708 0.21164435 -0.8137974 -0.1351795
0003e0 00 7b 94 bd 7d 7a 84 be 62 8b 09 be 87 48 9c bd
       -0.07250023 -0.258747 -0.13432077 -0.07631021
0003f0 b6 1d 6a be 65 59 cc be 44 05 c3 bb 22 12 86 bc
       -0.22862896 -0.39911953 -0.0059515554 -0.016366068

fc4.bias f4 [64]
000000 94 38 ec be a2 5e 3a 3c d1 fa 3c be c9 86 34 be
       -0.46136916 0.011375101 -0.18455054 -0.17629541
000010 c6 a7 29 3f 2f d1 87 bd cc 6c bd bf 5c d9 74 bd
       0.66271627 -0.066316955 -1.4798827 -0.059777603
000020 b1 b3 08 bf 71 e3 1a bc 2e aa 09 3f af 5b f8 40
       -0.5339919 -0.00945364 0.537753 7.761192
000030 07 bf ba 3e 2b 02 62 be fa b6 06 be 94 3d 45 be
       0.36473867 -0.2207114 -0.13155738 -0.19261771
000040 95 b4 a5 be 7b ec 50 40 35 58 95 be c0 56 3e be
       -0.32364336 3.2644336 -0.2916886 -0.1858778
000050 97 1e 9c bd a0 ea cf bd da 7e cd 3d 6e 93 13 bf
       -0.07623022 -0.10152173 0.10033961 -0.57646835
000060 5d 75 99 be 76 de 02 3f 22 3a 74 be 70 f2 d1 be
       -0.29972354 0.511207 -0.23850301 -0.41005278
000070 01 c0 22 3f ba 26 6a be b9 00 ae 3f fa b3 29 3e
       0.63574225 -0.22866336 1.359397 0.16572562
000080 ae 00 71 3f fe c4 84 be dc 2e ae 3e bc e1 12 bc
       0.9414166 -0.25931543 0.34020126 -0.008964952
000090 a3 2e 76 bc 76 d0 04 3f f2 be 59 3e f2 55 c2 bd
       -0.0150257675 0.51880586 0.21264246 -0.09489049
0000a0 4e 21 cb be 8b bb c1 be e4 16 4f be 7c 13 4e be
       -0.39673847 -0.37838396 -0.20223576 -0.2012462
0000b0 58 15 0c be d8 5f 72 3b a0 06 8e bf da 31 0a 40
       -0.13680017 0.0036983397 -1.1095772 2.1592927
0000c0 6d 0f 0d 3c eb 37 28 3f 93 47 b9 3e 3b 92 24 be
       0.008609635 0.65710324 0.3618742 -0.16071407
0000d0 a8 d4 0b bc c4 e1 bb bd d0 18 1d 3e d5 01 26 be
       -0.008534588 -0.09173921 0.15341496 -0.16211636
0000e0 54 ed 96 3e a3 e5 37 3e 92 13 38 be 93 18 a9 be
       0.29477942 0.17958693 -0.17976215 -0.3302656
0000f0 c5 9d 9a be 2e ed 82 be 15 50 c5 be b4 d4 ac 3d
       -0.30198494 -0.2557158 -0.3853766 0.084390074
