model/DQN/_Player_dqnAgent_model_epoch_3500.pth (torch_old, 489705 bytes, 10 tensors)

fc1.weight f4 [256, 57]
0	0x3c484428	0.012223281
1	0x3f29841a	0.66217196
2	0xbf173491	-0.59064585
3	0xbe905eca	-0.28197318
4	0x3e9ab41d	0.3021554
5	0x3d1dc051	0.038513485
6	0xba81d8c4	-0.000990652
7	0xbe42f730	-0.19039607
8	0x3f301112	0.6877605
9	0xbf0801c8	-0.5312772
10	0x3f849902	1.0359194
11	0x3c1e66bf	0.009668051
12	0x3e76aece	0.2409012
13	0xbf051128	-0.51979303
14	0x3df5c5ae	0.12000595
15	0x3eba720b	0.36415133
16	0xbf4d9dab	-0.8031871
17	0xbee1a2f1	-0.44069627
18	0x3cd1bc87	0.025602592
19	0xbd1dd695	-0.03853472
20	0xbed0486e	-0.4068026
21	0xbea39cb4	-0.31955492
22	0xbf8719a3	-1.0554699
23	0xc08a7b76	-4.327571
24	0xc035990f	-2.837467
25	0x3ea22119	0.31665877
26	0xbeebbf95	-0.46044603
27	0xbf45f813	-0.77331656
28	0xbdaac568	-0.083384335
29	0xbfcf29ba	-1.6184609
30	0xbd537a42	-0.051630266
31	0x3f02540c	0.50909495
32	0xbe0a0e6f	-0.13482068
33	0xbf34c7c3	-0.7061731
34	0xbf63e7d8	-0.8902564
35	0xbe312ac8	-0.17301476
36	0xbf38f6cd	-0.7225159
37	0xbf2f11c8	-0.6838651
38	0x3d721610	0.05910307
39	0x3fe5f7ae	1.7966211
40	0x3be44260	0.0069659203
41	0x3edf717a	0.43641263
42	0x3e8f6913	0.28009853
43	0xbf4891c9	-0.7834745
44	0xc00b8bee	-2.1804156
45	0x3aaf7efe	0.0013389287
46	0xbf1384f0	-0.5762472
47	0x400fb677	2.2455118
48	0xbeafffae	-0.34374756
49	0xbf2a221b	-0.6645829
50	0xbf317fe0	-0.69335747
51	0xbcc8c36b	-0.024507245
52	0xbf1b747f	-0.60724634
53	0x3ff6229e	1.9229314
54	0x3dc217f7	0.09477227
55	0xbf3ce015	-0.7377942
56	0x3f81be32	1.0136168
57	0x3e0069ae	0.12540314
58	0xbe8eb7e6	-0.27874678
59	0xbf70eb71	-0.94109255
60	0xbfb80d68	-1.4379091
61	0xbcf89414	-0.030344047
62	0xbfcf781a	-1.6208527
63	0x3ee2e768	0.44317174
64	0xbf575352	-0.8411151
65	0x3f840e09	1.0316783
66	0xbdf7e4ab	-0.12104162
67	0x3f9439fd	1.1580197
68	0xbe8864f6	-0.26639527
69	0x3e85cafa	0.2613142
70	0xbf29c35e	-0.6631373
71	0x3f3e71e2	0.7439252
72	0xbd8e9556	-0.06962077
73	0x3f0ce2f5	0.5503381
74	0x3d735a3c	0.059412226
75	0x3e044d73	0.1292017
76	0xbf29540c	-0.6614387
77	0xbed8369b	-0.4222916
78	0x3f36cfb6	0.7141069
79	0xc001a7f1	-2.0258753
80	0xbcc78f58	-0.024360344
81	0xbf18769e	-0.59555995
82	0x3ee5218f	0.44752166
83	0xbfa7b1d8	-1.3101149
84	0xbe827fa1	-0.25487998
85	0xbcb6c9e8	-0.022313073
86	0xc007a059	-2.1191618
87	0xbd78589c	-0.06063138
88	0x3f625941	0.8841744
89	0x3e5ad6f1	0.21371056
90	0xbf941ca6	-1.1571243
91	0x3d996fe4	0.074920446
92	0x3ec62217	0.38697883
93	0xbf93fcde	-1.1561544
94	0xbdfc3a50	-0.1231581
95	0xbdaff7e0	-0.085922
96	0xbf373171	-0.71559817
97	0x3ce31a98	0.027722642
98	0xbfc3d6e6	-1.5299957
99	0xc009612a	-2.1465554
100	0xbf88f665	-1.0700194
101	0xbe48b483	-0.1960011
102	0x3d586cd2	0.052838154
103	0xbf9d2d4b	-1.2279447
104	0xbf40c011	-0.7529307
105	0x3fb508f4	1.4143357
106	0xbfa5ad85	-1.2943579
107	0xbadcfdf6	-0.0016860354
108	0xbf895368	-1.0728579
109	0xbf965da7	-1.174733
110	0xbfc996b2	-1.5749114
111	0xbf1343c4	-0.5752528
112	0xbfa33a07	-1.2752084
113	0x3fcedc01	1.616089
114	0x404315b0	3.0481987
115	0xbd97b23f	-0.074070446
116	0x3fdb24fe	1.7120664
117	0x3db20da4	0.08694008
118	0x3fed8167	1.8555115
119	0x3e1dd84d	0.15414543
120	0x3fe3e9d2	1.7805731
121	0xbeb82bed	-0.35971013
122	0x3e3165bf	0.1732397
123	0xc0122c3c	-2.2839499
124	0x3faffa11	1.3748189
125	0xbfcd8b08	-1.6058054
126	0x3f311c40	0.6918373
127	0xbfc5e523	-1.5460552
128	0x3f15f4d0	0.5857668
129	0xbffd89c1	-1.9807664
130	0x3ee951b3	0.45570144
131	0xbfbc360d	-1.4703995
132	0x3fbf902a	1.496587
133	0xbf87f6e7	-1.0622224
134	0xbf7478fe	-0.9549712
135	0xc01bfd45	-2.4373333
136	0x3d96bd14	0.073602825
137	0xc08fdddd	-4.495833
138	0xbf9a8189	-1.2070781
139	0xbe0c7686	-0.13717088
140	0xbf00a5af	-0.50252813
141	0x3fba05d2	1.4533026
142	0x3e00c55e	0.1257529
143	0x3f3cd41b	0.7376115
144	0xbdf3aeb7	-0.118985586
145	0xbfcc338c	-1.5953231
146	0x3db4ef3c	0.08834693
147	0xbf235d28	-0.6381402
148	0x3ed17d07	0.409157
149	0xbdd3aa3c	-0.10335204
150	0xbf42dede	-0.7612132
151	0x3eb9f5db	0.36320385
152	0xbcdc16e4	-0.026866384
153	0xbf433c07	-0.7626347
154	0x3d92a816	0.07160966
155	0xbf54c332	-0.83110344
156	0x3fe57829	1.7927295
157	0xbf42bfae	-0.7607373
158	0xbea63991	-0.32465795
159	0xbffd0c0f	-1.9769305
160	0xbf2ebf6e	-0.6826085
161	0xbeb337f1	-0.35003617
162	0x3f422243	0.7583353
163	0xbf457e30	-0.7714567
164	0x3f2c0ce6	0.6720718
165	0x3f56fa89	0.83976036
166	0xbf379ea2	-0.7172643
167	0x3edcab7f	0.4309959
168	0xbfbec75b	-1.4904588
169	0xbf2a80ee	-0.6660298
170	0xbf1d2499	-0.6138397
171	0xbf76240c	-0.96148753
172	0x3f015e4b	0.50534505
173	0xbec2288e	-0.37921566
174	0x3ef31f80	0.4748497
175	0xbf2ab27a	-0.66678584
176	0x3ece5dfc	0.4030608
177	0xbf93699e	-1.1516607
178	0x3f48b69c	0.7840364
179	0xc068e52c	-3.6389875
180	0x3f97890d	1.18387
181	0xc050c035	-3.2617314
182	0x3eba1058	0.36340594
183	0xbfa5ae4c	-1.2943816
184	0xbe3a6dab	-0.18205898
185	0xbee6c90b	-0.4507526
186	0xbe9fc1ed	-0.3120264
187	0xbf0dd869	-0.5540834
188	0xbf0abfe1	-0.54199034
189	0xbf2f9405	-0.68585235
190	0xbe97c685	-0.29643646
191	0xbecf4b22	-0.4048701
192	0xbf689dbf	-0.908657
193	0xbe1b3f84	-0.15160948
194	0xc097fdda	-4.7497377
195	0xc05f2230	-3.4864616
196	0xbebd568b	-0.3698009
197	0xbfc2b7fe	-1.52124
198	0xbfe8e667	-1.8195313
199	0xbb3d6200	-0.0028897524
200	0x3fe7c1ad	1.810598
201	0x3daedcf8	0.0853824
202	0x3f11244e	0.5669602
203	0x3d0e5860	0.03475225
204	0xbfe74b74	-1.8069901
205	0xbef7a622	-0.48368937
206	0x3d9fe0d7	0.07806557
207	0xbfcf25f4	-1.6183457
208	0xbf074bd5	-0.52850085
209	0x3c896580	0.016772032
210	0xbf4ff4aa	-0.812327
211	0xbcd67ee8	-0.02618356
212	0x3f1ddbd1	0.6166354
213	0xbf581137	-0.8440127
214	0xbfd9ef30	-1.7026119
215	0xbd0c7998	-0.03429565
216	0x3df496ba	0.11942811
217	0xbfe2b3da	-1.7711136
218	0xbf30c738	-0.69053984
219	0x3e10b9c8	0.1413337
220	0xbfdb0866	-1.7111938
221	0x3e4f5953	0.20248918
222	0x3e7d6b61	0.24747993
223	0xbfd955d4	-1.6979318
224	0x3e97fc62	0.2968474
225	0xbe1b8014	-0.15185577
226	0xbfe5e48a	-1.796037
227	0x3e7a0bbc	0.24418539
228	0x3f892abf	1.071617
229	0xbe86acb8	-0.2630365
230	0x3f8e312b	1.1108755
231	0xbf6c84fe	-0.9239043
232	0x3e91a437	0.28445598
233	0xbe7d9cb9	-0.24766816
234	0xbf326199	-0.6968017
235	0xbf6c897d	-0.9239729
236	0x3f436d05	0.76338226
237	0x3c7fdf0f	0.015617146
238	0x3e1f37f7	0.15548693
239	0xbe9534a7	-0.29141733
240	0x3f009ec8	0.5024228
241	0x3d6cdf44	0.05783011
242	0x3f0e299c	0.5553224
243	0x3ec47d9e	0.38377088
244	0x3fb4c6ef	1.412321
245	0xbd19a96d	-0.037515093
246	0xbf460d2c	-0.7736385
247	0x3e5253aa	0.20539728
248	0x3fa2d779	1.2722007
249	0xbf0ef28c	-0.5583885
250	0xbf686fbb	-0.9079549
251	0x407a68b7	3.9126413
252	0xbf83ec93	-1.0306572
253	0x3dfca91e	0.12336944
254	0xbe4712e3	-0.19440798
255	0xc018cb58	-2.387411

fc1.bias f4 [256]
0	0xbf2c9852	-0.6741992
1	0xbf8e1f97	-1.110339
2	0xbf2021be	-0.62551486
3	0xbfe6b42b	-1.8023733
4	0xbb1c5e0d	-0.002385977
5	0xbe384324	-0.17994362
6	0x3ea366a6	0.31914252
7	0x3ea3a991	0.31965306
8	0x3f0b06df	0.5430736
9	0x3e706c8e	0.2347891
10	0x3e17ab57	0.14811455
11	0xbf2a84b2	-0.66608727
12	0xbf0cad2c	-0.5495174
13	0xbe01b72f	-0.12667535
14	0xbf0b462c	-0.5440395
15	0xbea4b062	-0.3216582
16	0xbda65882	-0.0812235
17	0x3ec09a73	0.37617835
18	0xbf15f13b	-0.58571213
19	0xbf9f6da9	-1.2455341
20	0xbfc369f5	-1.526671
21	0xbf1734d4	-0.59064984
22	0xbfa01fef	-1.2509745
23	0xbef94c4f	-0.4869103
24	0xbe465848	-0.19369614
25	0xbf6efde7	-0.93356174
26	0xbf3e3277	-0.74295753
27	0xbf30a568	-0.6900239
28	0xbf6eb9d4	-0.932523
29	0xbee13f37	-0.43993542
30	0x3c5c8286	0.013458854
31	0xbed8fb8b	-0.42379412
32	0xbfb2d2af	-1.3970546
33	0xbfbdd0a4	-1.4829297
34	0x3eb82b33	0.35970458
35	0xbde84c1c	-0.11342642
36	0x3f54d3dd	0.8313578
37	0xbeca6636	-0.39531106
38	0xbf8a7df5	-1.0819689
39	0xbf6af636	-0.9178194
40	0x3ea90d52	0.33017975
41	0xbec109f2	-0.377029
42	0x3f4c1332	0.7971679
43	0x3e8d886a	0.27643138
44	0xbda20f4d	-0.07913075
45	0xbfdb30b2	-1.7124236
46	0xbf193a95	-0.59855014
47	0xbf4c36c0	-0.7977104
48	0xbeb160f7	-0.3464429
49	0xbccde737	-0.025134666
50	0xbf45a416	-0.772035
51	0xbeb3dad9	-0.35127905
52	0xbf2e1d6a	-0.6801363
53	0xbf1abdcf	-0.60445875
54	0xbe9713ba	-0.29507238
55	0xbe21a132	-0.15784147
56	0x3f9f73b5	1.2457186
57	0xbf4c4b41	-0.7980233
58	0xbf92fd8a	-1.1483624
59	0xbfb3823d	-1.402412
60	0xbf2268d5	-0.6344121
61	0xbfa0b209	-1.2554332
62	0x3f428a69	0.7599245
63	0xbf67c2b5	-0.90531474
64	0x3ff7e4a7	1.9366654
65	0xbf2fc21e	-0.68655574
66	0xbe7242d0	-0.236583
67	0x3e91a63c	0.2844714
68	0xbeab020a	-0.33399993
69	0xbe35dc9c	-0.17759937
70	0xbfc23db9	-1.5175086
71	0x3d3b2503	0.045689594
72	0xbf36e366	-0.7144073
73	0xbe188b1a	-0.14896813
74	0xbfa8fe8f	-1.3202685
75	0xbf672129	-0.90284973
76	0xbe9e4cb9	-0.3091791
77	0x3e80d8c8	0.2516539
78	0xbf9be6b2	-1.2179778
79	0xbf84b644	-1.0368123
80	0x3eabb62d	0.33537427
81	0xbefda2a1	-0.49538139
82	0x3ff6d049	1.9282314
83	0x3f1ea755	0.6197408
84	0xbf45d1ea	-0.7727343
85	0xbfe627e6	-1.7980926
86	0xbf4a295a	-0.7896935
87	0xbf4305fb	-0.76181
88	0x3e18398f	0.14865707
89	0xbf84f02f	-1.0385798
90	0xbf7ab52e	-0.9793271
91	0xbf833375	-1.0250078
92	0x3e91cf66	0.28478545
93	0xbee5e4b1	-0.4490104
94	0xbfb1dd55	-1.389567
95	0x3f09658d	0.5367058
96	0xbf5912c1	-0.8479424
97	0x3ec59dd7	0.38596985
98	0xbe8f8b30	-0.2803588
99	0xbf07bccd	-0.5302246
100	0xbfde5736	-1.7370365
101	0xbd51523b	-0.05110381
102	0xbf909b37	-1.1297368
103	0xbf6aef99	-0.91771847
104	0xbfa34d53	-1.2757972
105	0xbe8c4f25	-0.27404132
106	0xbd8cfb00	-0.06883812
107	0xbf867a7c	-1.0506129
108	0xbf0c2436	-0.54742754
109	0xbeec0c1e	-0.46102995
110	0x3ec7e465	0.3904144
111	0xbf201486	-0.62531316
112	0xbf58392e	-0.8446225
113	0xbf0e11c3	-0.5549585
114	0xbfab479c	-1.3381228
115	0xbf974c8d	-1.1820236
116	0xbf969fce	-1.1767519
117	0xbd161df2	-0.03664965
118	0xbf8526c8	-1.040246
119	0xbf0d740f	-0.55255216
120	0xbe94f461	-0.29092696
121	0xbf4f4d27	-0.809771
122	0xbf2b96f1	-0.67027193
123	0xbedf58a2	-0.4362231
124	0xbf2cd6d0	-0.6751528
125	0xbefba4c8	-0.49149156
126	0xbf599754	-0.84996533
127	0xbfa76f73	-1.3080887
128	0xbf216289	-0.6304098
129	0xbda6e6f2	-0.08149518
130	0xbe5ed0ca	-0.21759334
131	0x3eaee6f8	0.3416059
132	0x3e2efaa0	0.17087793
133	0xbee4a40b	-0.44656405
134	0x3ee274dd	0.44229785
135	0x3e4944fb	0.1965522
136	0xbf8d86ef	-1.1056803
137	0xbfa569de	-1.2922933
138	0xbf0b5926	-0.54432905
139	0xbf760ba2	-0.961115
140	0x3e0b59e7	0.13608514
141	0x403a2052	2.9082227
142	0xbfceb533	-1.6149048
143	0xbfcb6187	-1.5889138
144	0x404133c2	3.018784
145	0xbfb4002b	-1.4062551
146	0xbfc50452	-1.5391943
147	0xbf4270b5	-0.7595323
148	0x3e5c4803	0.21511845
149	0xbf5ed94e	-0.8705033
150	0xbe9de635	-0.30839697
151	0xc001ecbc	-2.0300741
152	0x3e2de5ef	0.16982244
153	0x400d9444	2.2121744
154	0xbf30ff0f	-0.6913919
155	0xbf89632e	-1.0733392
156	0xbf5000ad	-0.8125103
157	0xbfe92ad4	-1.8216195
158	0xbf9de308	-1.233491
159	0xbe62f65e	-0.22164294
160	0x3eb83fb2	0.35986096
161	0xbebed901	-0.37274936
162	0xbf914615	-1.1349512
163	0xbf16ee63	-0.589575
164	0x3df2f6fe	0.11863516
165	0xbe88b03d	-0.2669696
166	0xbf3b47cb	-0.7315642
167	0xbf6dd530	-0.92903423
168	0xbf8e95eb	-1.1139501
169	0xbf944415	-1.1583277
170	0x3e83da79	0.2575262
171	0xbfcb1213	-1.5864891
172	0x3e898458	0.26858783
173	0xbef6b28f	-0.48183104
174	0xbdf96a24	-0.12178448
175	0xbe9e91d5	-0.30970636
176	0x3ed9b012	0.42517143
177	0x3e8bf5ea	0.27336055
178	0xbf8b5a04	-1.0886846
179	0xbfee50fa	-1.8618462
180	0x3f66da77	0.901771
181	0xbf27e137	-0.65578026
182	0xbf492773	-0.7857582
183	0xbf81438c	-1.0098739
184	0x3f956a55	1.1673075
185	0xbebfc9ed	-0.37458745
186	0xbdc23a36	-0.09483759
187	0xbfbf81d2	-1.4961493
188	0x3c58365e	0.013196556
189	0xbe7a2095	-0.24426492
190	0x404c4471	3.1916773
191	0xbf59f91a	-0.85145724
192	0xbf6312f3	-0.8870079
193	0xbf495b27	-0.7865471
194	0xbf67340e	-0.90313804
195	0x3ea69f46	0.3254339
196	0xbebe188a	-0.37128097
197	0x3f94ba69	1.1619388
198	0xbfebecca	-1.8431637
199	0xbf3c3109	-0.7351232
200	0xbf026a73	-0.5094368
201	0xbfa36691	-1.2765676
202	0xbf56f5d6	-0.83968866
203	0xbe2d2e43	-0.16912179
204	0x3fbd106b	1.4770635
205	0xbfb7d0f4	-1.4360642
206	0xbfe76778	-1.8078451
207	0xbe97550c	-0.29557073
208	0xbfda941d	-1.707645
209	0xbf9fd532	-1.2486937
210	0xbf88742e	-1.0660455
211	0xbfdf0f28	-1.74265
212	0xbfc8a85c	-1.5676379
213	0xbfb1de79	-1.3896018
214	0xbf77d2cc	-0.96806026
215	0xbf984930	-1.1897335
216	0xbfbd925a	-1.4810288
217	0xbf6cc11b	-0.92482156
218	0xbfb0a3f7	-1.3800038
219	0xbe24a16e	-0.16077206
220	0xbf207a2c	-0.6268642
221	0xbf82488b	-1.0178388
222	0xbf130f59	-0.57445294
223	0xbf1df06c	-0.6169498
224	0x3d9b5546	0.07584624
225	0xbf41aaf1	-0.7565146
226	0xbf64b6a2	-0.89341176
227	0xbd04dc48	-0.03243664
228	0xbe6ecfd4	-0.23321468
229	0xbf81819b	-1.0117677
230	0x3eac6645	0.33671775
231	0x3f820585	1.0157934
232	0x3e67acc7	0.22624503
233	0xbfa93f93	-1.3222526
234	0x3f3162d6	0.69291437
235	0xbf8f654b	-1.1202787
236	0xbe29cb95	-0.16581567
237	0xbe993b77	-0.2992818
238	0xbf832533	-1.0245727
239	0xbe51f75e	-0.2050452
240	0x4080e775	4.028254
241	0x3d9d777c	0.076888055
242	0xbd9ecdc2	-0.07754089
243	0xbf0c6846	-0.5484661
244	0x3d8b9920	0.06816316
245	0xbfceb18d	-1.6147934
246	0x3fb19a4b	1.3875211
247	0xbcce61e8	-0.02519317
248	0x3e050010	0.12988305
249	0xbfc16ae4	-1.5110745
250	0xbf9d44eb	-1.2286657
251	0x3d40f82f	0.047111686
252	0xbf5d582a	-0.8646265
253	0xbf5267de	-0.8218974
254	0x3f49e9c2	0.7887231
255	0xbf72ff8f	-0.949212

fc2.weight f4 [256, 256]
0	0xbdba2cca	-0.09090574
1	0xbdf705d7	-0.12061661
2	0x3ccec263	0.025239175
3	0xbd579d96	-0.05264052
4	0x3d3314cc	0.043721005
5	0xbcae5937	-0.021282775
6	0xbd25b138	-0.040452212
7	0xbc6a6398	-0.014305972
8	0x3d043915	0.032281
9	0xbe2286bd	-0.15871711
10	0xbd4d633d	-0.05014347
11	0xbd6b7384	-0.05748321
12	0xbc516ee9	-0.012782791
13	0xbcaf03f7	-0.021364195
14	0x3c182fd8	0.009288751
15	0x3d20b9c1	0.03923965
16	0xbd8029cc	-0.06257972
17	0x3bb7c6c5	0.005608412
18	0xbc08b2cf	-0.008343413
19	0xbda8cfd0	-0.08242762
20	0xbda620c3	-0.081117176
21	0xbd6790a4	-0.056534424
22	0xbd9d6258	-0.07684773
23	0xbcbb6091	-0.022873195
24	0xbdfb1148	-0.122591555
25	0xbd26d092	-0.040726252
26	0x3cd67734	0.026179887
27	0xbc3f1dca	-0.011664817
28	0x3d109cf3	0.03530593
29	0x3c6b9e65	0.014381026
30	0xbd83d28d	-0.06436644
31	0xbcec678b	-0.028857967
32	0xbcc5021e	-0.024048861
33	0x3cd2b2bb	0.025719991
34	0x3d5ee61c	0.05441867
35	0x3c3f4350	0.011673763
36	0x3c387320	0.011257917
37	0xb92eb97e	-0.00016663034
38	0xbcbc6392	-0.022996698
39	0xbcd6f21d	-0.026238495
40	0x3b99b02a	0.00469019
41	0xbd9ee831	-0.07759131
42	0x3c0d49d9	0.008623564
43	0xbaa203b8	-0.0012360727
44	0xbe00eb01	-0.12589647
45	0xbd882fb8	-0.06649727
46	0xbd27c718	-0.040961355
47	0xbd569f06	-0.05239775
48	0x3d1514f5	0.03639694
49	0xbda81d13	-0.082086705
50	0x3cf06ff7	0.029350264
51	0x3d151675	0.03639837
52	0x3c19a71e	0.009378223
53	0xbd6d6709	-0.05795959
54	0x3d5e5201	0.054277424
55	0xbdfd0aef	-0.12355601
56	0x3d6436cc	0.05571632
57	0x3db73cc5	0.08947138
58	0xbe3e7715	-0.18600114
59	0xbc448862	-0.011995407
60	0x39b62f82	0.0003474914
61	0x3c0cc02b	0.008590738
62	0xbc943b3a	-0.018094648
63	0xbd25ecc0	-0.040508986
64	0xbc6b606d	-0.014366251
65	0x3c2a2908	0.010385759
66	0x3bc5079f	0.0060128714
67	0xbdabf351	-0.08396018
68	0xbd87dbea	-0.06633742
69	0xbc7a8ced	-0.015292388
70	0xbc12a80a	-0.008951196
71	0x3d7c0160	0.06152475
72	0xbd6ea29f	-0.058260556
73	0xbcc8e130	-0.02452144
74	0xbdf6a1e8	-0.120426
75	0x3c0fd208	0.008778103
76	0xbd33fe9e	-0.043943994
77	0xbc70da1a	-0.014700437
78	0x3cd6d12e	0.026222792
79	0x3d247865	0.04015388
80	0xbd0ca3b6	-0.034335814
81	0xbc8a0bcd	-0.01685133
82	0xbcf31d2c	-0.029676996
83	0xbddb4087	-0.10705667
84	0x3d9089a0	0.070575
85	0x3d2c63eb	0.042087477
86	0xbd60ef9e	-0.054916017
87	0xbdbe218b	-0.092837416
88	0xbca0d154	-0.019631065
89	0xbd7bb8e8	-0.061455637
90	0x3cce14b8	0.025156364
91	0xbdab1080	-0.083527565
92	0xbbc90c5d	-0.006135507
93	0xbcec7a75	-0.028866986
94	0xbd87d74c	-0.066328615
95	0xbd95e493	-0.07318988
96	0xbd8aa9fb	-0.067707025
97	0x3c4ada38	0.012381129
98	0xbd97917d	-0.074007966
99	0xbdbb124b	-0.091343485
100	0xbc49bc88	-0.012313016
101	0xbc444901	-0.011980296
102	0xbdf85746	-0.12126021
103	0x3d3e7afe	0.046504013
104	0x3b10fcf6	0.0022123433
105	0xbd96d06f	-0.07363974
106	0x3b9bdb1b	0.004756344
107	0x3c3a77bb	0.011381085
108	0xbd48e6ce	-0.049048238
109	0x3cfe5d2a	0.031050283
110	0xbc283441	-0.010266365
111	0xbd898fbc	-0.06716868
112	0xbb347f16	-0.002754157
113	0x3d013cbd	0.031552065
114	0xbcb5c69d	-0.022189433
115	0xbd1d46ed	-0.03839772
116	0x3cac074c	0.020999573
117	0xbcbbad27	-0.022909714
118	0xbda9cf5b	-0.08291503
119	0xbd333ba7	-0.04375806
120	0x3c22deca	0.009940812
121	0xbd965143	-0.07339718
122	0xbdd44238	-0.10364193
123	0xbd2af864	-0.04174079
124	0x3d3f2f7a	0.046676137
125	0x3cab78c6	0.020931613
126	0xbd2c7166	-0.042100333
127	0x3cc08f33	0.023505783
128	0xbdd5cbd5	-0.104392685
129	0x3d83a833	0.06428566
130	0xbd46e7a3	-0.04856075
131	0xbc99ed75	-0.018789986
132	0xbd86ab2b	-0.065756164
133	0xbd572126	-0.052521847
134	0xbd1aa3b2	-0.03775377
135	0xbc88d9e8	-0.016705468
136	0x3d4016b2	0.046896644
137	0xbd3a6022	-0.045501836
138	0x3a1c9545	0.00059731706
139	0xbd94be43	-0.07262852
140	0xbc8e8c92	-0.017401014
141	0xbd9960f3	-0.07489195
142	0xbd2eeb95	-0.042705137
143	0xbce052de	-0.027383264
144	0xbe1368dc	-0.1439547
145	0xbd5f4dc8	-0.054517537
146	0xbd40ebe7	-0.047099974
147	0xbceeaf67	-0.029136373
148	0xbd7d0d91	-0.061780516
149	0x3c496b96	0.012293717
150	0xbd183f31	-0.03716964
151	0x3cf08409	0.029359834
152	0xbcdcd6c0	-0.02695787
153	0xbd3d7165	-0.04625072
154	0x3d12e651	0.035864178
155	0xbda07b06	-0.07835965
156	0xbd4acf28	-0.049513966
157	0xbd89629c	-0.06708261
158	0xbd4310bd	-0.047623385
159	0xbca24ea2	-0.019812886
160	0xbd18695a	-0.037209846
161	0xbbfe2715	-0.007756124
162	0xbd6cea68	-0.057840735
163	0xbca357b0	-0.019939274
164	0xbe0fc3fb	-0.14039604
165	0xbe0fe539	-0.14052285
166	0x3d7ca4e0	0.061680675
167	0xbb9df8b5	-0.004820908
168	0xbd5966b3	-0.053076457
169	0x3cc6de6b	0.024275979
170	0xbd3f4481	-0.04669619
171	0xbd8d7422	-0.06906916
172	0x3c5f805a	0.013641441
173	0x3cd85709	0.02640869
174	0xbcd1e578	-0.025622115
175	0xba7d632f	-0.00096659636
176	0xbdbcdb4e	-0.092215165
177	0xbd61cba6	-0.055125855
178	0xbcc5e49b	-0.02415686
179	0x3d0a6208	0.033784896
180	0xbdd987e4	-0.10621622
181	0xbc91a8ce	-0.017780688
182	0x3c72de07	0.014823443
183	0xbbe3a7ff	-0.006947517
184	0x3d69cec6	0.05708196
185	0xbc00e920	-0.007868081
186	0xbd7ad6ae	-0.06123989
187	0xbc8a059e	-0.016848382
188	0xbd0e3b66	-0.034724616
189	0x3cc0bed6	0.023528498
190	0xbe01a536	-0.12660679
191	0x3d226a24	0.039652005
192	0xbc24657a	-0.0100339595
193	0xbe1facd3	-0.15593271
194	0x3d03c462	0.032169707
195	0x3d2b89bd	0.041879404
196	0xbd626767	-0.055274393
197	0x3c186060	0.009300321
198	0xbde1c98e	-0.11024772
199	0xbda182a8	-0.07886249
200	0x3badc6ee	0.0053032553
201	0xbd44f689	-0.048086677
202	0xbd83d591	-0.06437219
203	0xbca2ee50	-0.019889027
204	0xbb753b79	-0.0037419482
205	0x3d322756	0.043494545
206	0x3d722bfa	0.05912397
207	0x3c5b297c	0.01337659
208	0xbd51e3ac	-0.051242515
209	0x3d32eb98	0.04368171
210	0xbd857a65	-0.065174855
211	0xbd5990ad	-0.05311649
212	0x3cfe0bbd	0.031011457
213	0xbd828693	-0.06373324
214	0xbbdbe3f4	-0.0067105237
215	0xbd7a6a1f	-0.06113636
216	0xbd349c79	-0.044094536
217	0xbc8ab4ef	-0.016931979
218	0xbc9ad370	-0.01889965
219	0x3d58e5df	0.052953597
220	0x3d968979	0.073504396
221	0x3bfa43e0	0.007637486
222	0x3bc2bc30	0.005942844
223	0x3d46802a	0.04846207
224	0x389d6973	7.505985e-05
225	0xbc7b4a9a	-0.015337611
226	0xbd0076b3	-0.0313632
227	0xbd01eb3a	-0.03171847
228	0xbd0d0a3e	-0.034433596
229	0xbc7998c1	-0.015234173
230	0xbe07e9d7	-0.13272797
231	0xbcae0b60	-0.021245658
232	0x3c6f98f4	0.014623869
233	0xbd7eb207	-0.0621815
234	0xbd937675	-0.07200328
235	0xbd1bb5cd	-0.038015176
236	0xbd72c675	-0.059271295
237	0x3ca78d39	0.020453082
238	0x3d0eac58	0.03483233
239	0xbd627469	-0.0552868
240	0xbcfea222	-0.03108317
241	0xbd564d06	-0.05231955
242	0xbd331650	-0.04372245
243	0xbd740232	-0.059572406
244	0xbcbc347d	-0.022974247
245	0xbd47bad4	-0.048762158
246	0x3cc79784	0.02436424
247	0xbcb7a478	-0.022417292
248	0xbd4270b1	-0.047470752
249	0xbd3b62c7	-0.0457485
250	0x3cbba172	0.022904132
251	0xbd86ca6c	-0.06581578
252	0xbc3f06d0	-0.011659339
253	0x3c61e8b4	0.013788391
254	0xbdcbb790	-0.09947121
255	0xbcacf455	-0.0211126

fc2.bias f4 [256]
0	0xbc216638	-0.009851031
1	0xbaae09ea	-0.0013278101
2	0x3d802c6d	0.062584735
3	0xbdac0ec1	-0.084012516
4	0xbd882a6f	-0.066487186
5	0xbd4e5e0c	-0.05038266
6	0x3de241ea	0.11047728
7	0xbdf3a75f	-0.11897158
8	0xbd1ef16e	-0.038804464
9	0xbed8d2a5	-0.4234821
10	0xbda91c9e	-0.082574114
11	0xbdeb4f9d	-0.114897944
12	0xbd34f06e	-0.044174604
13	0xbdb830b9	-0.08993668
14	0xbd9564cb	-0.07294615
15	0xbe15ea2c	-0.1464011
16	0xbfb68331	-1.4258786
17	0x3e8f917e	0.2804069
18	0x3f147513	0.5799114
19	0xbfc86541	-1.56559
20	0x3e43442f	0.19068979
21	0xbda6543c	-0.08121535
22	0xbdad5e10	-0.084652066
23	0x3f1b7703	0.6072847
24	0xbdc2309d	-0.094819285
25	0x3dcb2a2a	0.099201515
26	0xbdd316f7	-0.103071146
27	0x3cd9ed93	0.026602542
28	0xbd14a40e	-0.036289267
29	0xbf6bb5bb	-0.92074174
30	0xbd5e5e4a	-0.05428914
31	0xbb1dc2a3	-0.0024072311
32	0xbdae396b	-0.08507045
33	0xbd880bc7	-0.06642871
34	0x3d00c3fd	0.03143691
35	0xbdfa4cbc	-0.12221667
36	0x3f0eb609	0.55746514
37	0xbd2066a3	-0.039160382
38	0x3f948bcc	1.1605163
39	0x3d7d9a2c	0.061914608
40	0xbd8241cd	-0.06360207
41	0x3ebf4bd9	0.37362555
42	0xbdfab52a	-0.122415856
43	0xbdb9da39	-0.09074826
44	0x3f4c517b	0.7981183
45	0xbe0604ed	-0.13087817
46	0xbdb439c1	-0.08800078
47	0xbf61a183	-0.8813707
48	0xbd9beead	-0.07613883
49	0xbcad8aff	-0.021184443
50	0xbda7f5e0	-0.08201194
51	0xba40a151	-0.0007348257
52	0xbd2e30f3	-0.04252715
53	0xbc54bd79	-0.012984627
54	0x3f78d500	0.9720001
55	0xbeb5bd14	-0.35495818
56	0x3d874dee	0.06606661
57	0x400eace0	2.2293015
58	0xbf0163e1	-0.5054303
59	0xbd88159c	-0.06644747
60	0xbe006a09	-0.12540449
61	0xbddea6a2	-0.108716264
62	0xbb4bcb84	-0.0031096647
63	0xbdc17883	-0.09446814
64	0x3da81b7d	0.08208368
65	0x4024bba4	2.5739527
66	0x3c938ce1	0.018011512
67	0xbe511603	-0.20418553
68	0x3d49f97b	0.04931019
69	0xbd7424cc	-0.059605405
70	0x3f1b7ac0	0.60734177
71	0xbe08153f	-0.13289355
72	0xbd6bf4b0	-0.0576064
73	0xbe33ce42	-0.1755915
74	0x3d803f34	0.06262055
75	0x3da93327	0.0826171
76	0xbccf4754	-0.025302567
77	0x3ffd599a	1.9792969
78	0xbd973e46	-0.073849246
79	0xbe02486e	-0.12722942
80	0x3f474973	0.7784645
81	0xbd55c7ef	-0.052192625
82	0xbd4531b3	-0.0481431
83	0xbea3e28a	-0.32008773
84	0x3f0a55dc	0.5403726
85	0xbc09d6f9	-0.00841307
86	0xbd841d59	-0.0645091
87	0xbe2fc5ca	-0.17165294
88	0xbddcd063	-0.10781934
89	0x405a0266	3.4063964
90	0xc05910f9	-3.391661
91	0xbd1942de	-0.037417285
92	0xbda0bd9b	-0.078486644
93	0xbe69078e	-0.22756788
94	0xbbddf30c	-0.006773358
95	0xbd7568e2	-0.059914477
96	0xbe7753f7	-0.24153124
97	0xbd31f6dc	-0.043448314
98	0x3dbf9788	0.09355074
99	0xbcc4392e	-0.023953047
100	0xbd02917d	-0.03187703
101	0x3f28e978	0.65981245
102	0xbea09cc3	-0.313696
103	0xbda0cb7d	-0.07851312
104	0xbe21af2b	-0.15789478
105	0x3e51ec46	0.20500287
106	0xbf3fd970	-0.7494116
107	0x3eb2c9ca	0.34919578
108	0xbd9e6cd9	-0.07735605
109	0xbd25dacc	-0.040491864
110	0x4009e715	2.1547291
111	0x3d5c5af2	0.05379767
112	0x3e535ad6	0.2064012
113	0xbdedea30	-0.11616933
114	0xbde2748b	-0.11057385
115	0xbe1c959a	-0.15291443
116	0xbf07cec9	-0.53049904
117	0xbb087398	-0.0020820852
118	0xbdad303f	-0.08456468
119	0x3f23774f	0.63853925
120	0xbd1809aa	-0.03711859
121	0xbda66880	-0.081254005
122	0xbfe99e8a	-1.8251507
123	0x3cc42c8d	0.023947025
124	0x3f5bceb0	0.85862255
125	0xbfc4db57	-1.5379437
126	0x3f133b8c	0.57512736
127	0xbdd3d2eb	-0.10342964
128	0xbee82978	-0.45344138
129	0xbdb97321	-0.09055162
130	0xbe1e5b80	-0.15464592
131	0xbe44118f	-0.19147323
132	0xbdecb3d0	-0.11557734
133	0x3ed60fdb	0.41808972
134	0xbc434459	-0.011918151
135	0xc03d0f6a	-2.9540658
136	0xbdc83388	-0.09775454
137	0xbf590f1d	-0.84788686
138	0xbe1c3dc4	-0.15257937
139	0xbe139755	-0.14413197
140	0xbf2ba0a9	-0.6704202
141	0xbd97a567	-0.07404595
142	0xbcca3930	-0.024685472
143	0xbe0eead2	-0.13956764
144	0xbdf05b1c	-0.11736128
145	0xbeb403fb	-0.35159287
146	0xbd2f36f0	-0.042777
147	0xbd6fed23	-0.05857576
148	0x3f885916	1.0652187
149	0xbd23c63e	-0.03998398
150	0xbdbd3651	-0.09238876
151	0xbdc6345a	-0.09677954
152	0xbdf302b9	-0.11865754
153	0xbddf1e9b	-0.108945094
154	0xbd649b50	-0.05581218
155	0xbbf5234a	-0.0074810134
156	0xbf8c84b8	-1.0978003
157	0xbda86855	-0.08223025
158	0x3bba14ce	0.0056787496
159	0xbe6d8d44	-0.2319842
160	0xbda342b8	-0.0797171
161	0x400b7792	2.179173
162	0xbdecd05b	-0.11563178
163	0xbb8cba5a	-0.004294676
164	0xbc8da6f8	-0.017291531
165	0xbd598ff3	-0.053115796
166	0xc009365e	-2.1439433
167	0xbe03cd61	-0.12871315
168	0x3f79baaa	0.9755045
169	0xbe5d95d3	-0.21639185
170	0xbd504f5b	-0.05085693
171	0xbecdb48f	-0.40176818
172	0xbd8937f8	-0.06700128
173	0xbe43dcc3	-0.19127183
174	0xbbdeb525	-0.0067964965
175	0xbee97852	-0.4559961
176	0xbf1193f2	-0.5686637
177	0xbdbea132	-0.09308089
178	0x3cb0b35e	0.021569904
179	0xbe96adf4	-0.2942959
180	0xbdff3b97	-0.12462538
181	0xbb9b331a	-0.0047363164
182	0xbe03dd4e	-0.1287739
183	0xbda3329a	-0.07968636
184	0x3f5ed2d6	0.8704046
185	0xbdb6b5e5	-0.089214124
186	0x3c6fb26e	0.014629943
187	0xbda4fa05	-0.080555
188	0x40093c09	2.1442893
189	0x3c10512b	0.008808414
190	0xbf1e2644	-0.6177714
191	0xbded43a9	-0.11585171
192	0x3b12407e	0.0022316272
193	0xbc61a196	-0.013771435
194	0x3dd4cab8	0.10390228
195	0xbe061f1e	-0.13097808
196	0xbe01364f	-0.12618373
197	0x3f38f149	0.7224317
198	0x3f896ae2	1.0735743
199	0xbd836909	-0.06416518
200	0x3e3f01b2	0.1865299
201	0xbc8c7d37	-0.01714955
202	0x3da252f6	0.0792598
203	0xc0366061	-2.8496325
204	0xbdde9bc0	-0.10869551
205	0x3d1ca38d	0.03824191
206	0xbe553b74	-0.20823461
207	0xbde9b908	-0.11412245
208	0x3ea9cbe7	0.33163378
209	0xbd9f3797	-0.07774275
210	0xbe357006	-0.17718515
211	0x3c323190	0.010876074
212	0xbdb84535	-0.08997575
213	0xbdddc3c1	-0.10828353
214	0x3e0c6450	0.13710141
215	0x3fb45656	1.4088848
216	0x3e8c9f75	0.27465406
217	0xbdfee11c	-0.1244528
218	0xbc33db66	-0.010977602
219	0xbdfd4fec	-0.123687595
220	0x3f4429a9	0.7662607
221	0xbe39d299	-0.18146743
222	0xbe2b66c7	-0.16738425
223	0xbd869fd1	-0.06573451
224	0xbc65b245	-0.014019554
225	0xbf724591	-0.946374
226	0xbda17fc0	-0.078856945
227	0x3fc52e93	1.5404838
228	0x3daad3f3	0.08341207
229	0x3d8f118c	0.06985769
230	0x3eb6f8f7	0.3573682
231	0xbda94292	-0.082646504
232	0xbd9c22f3	-0.076238535
233	0xbd3c6cdb	-0.04600225
234	0xbddfe434	-0.10932198
235	0xbd817c83	-0.06322577
236	0x3dcb9672	0.099408045
237	0xbda08d24	-0.078394204
238	0x3e951765	0.2911941
239	0xc010338c	-2.2531462
240	0xbf594bfb	-0.8488156
241	0xbf9f1cbb	-1.2430643
242	0x3ed5968c	0.4171642
243	0xbda66459	-0.081246085
244	0xbf9a5879	-1.205825
245	0x3ee1f738	0.44133925
246	0xbcd3ccfd	-0.025854582
247	0xbd292638	-0.041296214
248	0xbce92863	-0.02846164
249	0x3e3013c4	0.1719504
250	0xbdd8493f	-0.105608456
251	0xbcd5f90a	-0.026119728
252	0xbd1ebc43	-0.03875376
253	0xbdaa70de	-0.08322309
254	0x3fd82daa	1.6888936
255	0xbdbcc299	-0.09216804

fc3.weight f4 [128, 256]
0	0x3d463678	0.04839179
1	0x3ba40436	0.005005385
2	0xbdaeaa40	-0.08528566
3	0xbd1fba00	-0.038995743
4	0x3d950039	0.07275433
5	0xbcbd6415	-0.023119012
6	0xbf20240f	-0.6255502
7	0x3d3c8e19	0.046033952
8	0x3db73678	0.08945936
9	0xbf83c187	-1.0293435
10	0xbd95e1ce	-0.073184595
11	0xbd29dbf3	-0.041469526
12	0x3b28d19c	0.0025759703
13	0x3906940d	0.00012834389
14	0x3c853dfc	0.016264908
15	0x3e8f75af	0.28019473
16	0xbe3b18d6	-0.18271193
17	0xbf397960	-0.7245083
18	0xbeff9463	-0.49917898
19	0xbf5f3240	-0.8718605
20	0x3e5a2b20	0.21305513
21	0x3c9c2a96	0.019063275
22	0x3b5784e7	0.0032885612
23	0x3ec0562a	0.37565738
24	0xbb99e67a	-0.0046966644
25	0xbe7fe925	-0.24991281
26	0x3d0bc5a3	0.034124028
27	0xbe296f76	-0.16546425
28	0x3d44c149	0.048035894
29	0x3db85a05	0.09001545
30	0xbeb3087a	-0.34967405
31	0x3f4015fe	0.7503356
32	0x3cd6e713	0.026233232
33	0x3b166f80	0.0022954643
34	0xbd8aafb7	-0.06771796
35	0x3c23bc7f	0.009993671
36	0xbf7c3554	-0.9851887
37	0x3cc8dcae	0.02451929
38	0xbd9ae76e	-0.07563673
39	0x3d60d251	0.054888073
40	0x3cae8bc4	0.02130688
41	0x3d4de5ce	0.050267987
42	0x3c5c8c19	0.013461136
43	0x3c9712f9	0.018441664
44	0xbf45ab5c	-0.772146
45	0xbd15c056	-0.03656038
46	0x3e9f3d1f	0.3110132
47	0xbfba528d	-1.4556442
48	0x3d7ec857	0.062202778
49	0xbd854ffd	-0.06509397
50	0x3e8cb954	0.27485144
51	0xbd2fe12a	-0.042939343
52	0x3b91a190	0.0044443086
53	0x3d08f9b3	0.033441257
54	0xbe8ea4d7	-0.27860138
55	0xbe3ae008	-0.18249524
56	0xbe891943	-0.26777086
57	0xbdfb627f	-0.12274646
58	0x3edb7fab	0.4287084
59	0xbc9fd9a0	-0.019512951
60	0xbc235b98	-0.009970568
61	0xbe12023b	-0.14258663
62	0xbdb93d07	-0.09044843
63	0xbcc3e304	-0.02391196
64	0x3e7cdca3	0.24693541
65	0xbf25ef5e	-0.6481837
66	0x3d48a468	0.048984915
67	0xbb09c5f7	-0.0021022537
68	0x3e69b2f5	0.22822173
69	0xbb78d6c7	-0.0037969814
70	0xbfc0b3e0	-1.5054893
71	0x3c2cea50	0.010553911
72	0xbe67d312	-0.2263911
73	0x3c820ec4	0.015876181
74	0xbcbf1561	-0.023325624
75	0xbf1c5a8d	-0.6107567
76	0x3cad8042	0.021179322
77	0x3ddd3cae	0.10802589
78	0x3d1aef2a	0.03782574
79	0x3f4f685d	0.8101862
80	0xbf3251f1	-0.6965628
81	0xbe078b60	-0.13236761
82	0x3b21aea9	0.0024670756
83	0xbf014e45	-0.50510055
84	0xbfb1fa23	-1.3904461
85	0xbbc295c6	-0.0059382645
86	0x3c5514a0	0.013005406
87	0x3e2eed0c	0.17082614
88	0xbd21beab	-0.039488476
89	0xbcc7b269	-0.024377065
90	0xbfb8fd04	-1.4452214
91	0xbc86b224	-0.016442366
92	0x3d2b78d2	0.04186327
93	0x3e1dd385	0.1541272
94	0xbd3a9f26	-0.045561932
95	0xbd1d1513	-0.038350176
96	0xbf462bc8	-0.77410555
97	0xbc2d2798	-0.010568522
98	0xbf99fe1f	-1.2030677
99	0xbd74bdbf	-0.05975127
100	0x3dcc1368	0.09964639
101	0x3dfd1c32	0.123588935
102	0xbf1a148d	-0.6018761
103	0x3cba9724	0.022777148
104	0xbd882283	-0.066472076
105	0xbf12e8fb	-0.5738675
106	0xbfe9dfca	-1.827142
107	0x3f024dd6	0.5090002
108	0xbe1d4782	-0.1535931
109	0xbc9c4762	-0.019077007
110	0x3eb770db	0.3582829
111	0x3ce3f6b2	0.027827594
112	0xbe28478a	-0.1643354
113	0xbdbef347	-0.09323745
114	0x3b650a85	0.0034948897
115	0xbc13f628	-0.009030856
116	0xbe107057	-0.14105354
117	0xbce214f4	-0.027597882
118	0xbd4c3f12	-0.049864836
119	0xbf1d3e6f	-0.6142339
120	0xbd2e3b24	-0.04253687
121	0xbd2bbb6a	-0.04192678
122	0xc026a62e	-2.6038928
123	0x3f1aa0d0	0.6040163
124	0x3edfacee	0.43686622
125	0x3d63c606	0.05560877
126	0x3f3104af	0.6914777
127	0x3d30e0cb	0.04318313
128	0xbf640a3e	-0.8907813
129	0xbd63b04e	-0.05558806
130	0x3d7d3b58	0.061824173
131	0xbf4ad98d	-0.79238206
132	0xba812672	-0.0009853377
133	0xbf918434	-1.136847
134	0xbc3ae7b8	-0.011407785
135	0xbf50aab1	-0.81510454
136	0xbc88881c	-0.016666465
137	0xbf69098d	-0.910302
138	0x3aab2980	0.0013058633
139	0xbbe6fd20	-0.007049218
140	0xbf233e99	-0.6376739
141	0x3f5cdf17	0.8627791
142	0x3c1e4ba2	0.009661587
143	0xbd132bfc	-0.03593062
144	0x3d79a8e8	0.060952097
145	0xbedcee8b	-0.43150744
146	0xbd833ac2	-0.064076915
147	0x3d31a025	0.043365616
148	0xbf917bd5	-1.1365916
149	0xbc4bed10	-0.012446657
150	0x3e0d87ee	0.13821384
151	0xbc8e8e47	-0.017401827
152	0xbcdc1e21	-0.026869835
153	0x3ecfe343	0.40603074
154	0xbfe2858e	-1.7697008
155	0x3d34b8d8	0.044121593
156	0xbf1bed24	-0.6090872
157	0xbd21a1c2	-0.039460905
158	0x3d6366b3	0.055517863
159	0xbf9435be	-1.1578901
160	0xbd59958e	-0.053121142
161	0xbedd2e16	-0.43199223
162	0x3d7458eb	0.05965511
163	0x3cdac2f9	0.026704298
164	0xbe8e40d4	-0.27783835
165	0xbd34db1f	-0.044154283
166	0xbf32be7e	-0.6982192
167	0xbe0f284c	-0.13980216
168	0xbf33c97c	-0.70229316
169	0xbe80ae36	-0.25132912
170	0x3cd4c248	0.025971547
171	0xbf50b222	-0.8152181
172	0x3c7accf8	0.015307657
173	0xbec8cc9f	-0.39218614
174	0xbe0343c2	-0.12818816
175	0x3fc3d422	1.5299113
176	0xbecb5e0b	-0.39720187
177	0xbfb2705d	-1.394054
178	0x3e76faef	0.24119161
179	0xbe55823e	-0.20850465
180	0xbdbd6601	-0.09247971
181	0xbc595651	-0.013265208
182	0xbd4d3159	-0.05009589
183	0x3d1c30c7	0.038132455
184	0xbf5e5da5	-0.8686164
185	0x3ab35110	0.0013680775
186	0xbd934891	-0.07191575
187	0x3b9d1116	0.0047932966
188	0xbfd2e159	-1.6475021
189	0xbd60acbf	-0.054852244
190	0xbf251a27	-0.6449303
191	0x3db0fe32	0.08642234
192	0x3d15b1fc	0.036546692
193	0x3c2daa06	0.010599619
194	0x3ebdcbdb	0.37069592
195	0xbc3a23fd	-0.011361119
196	0xbcb5ed56	-0.022207897
197	0x3fd96a79	1.6985618
198	0xbf33f4e7	-0.70295566
199	0x3b066987	0.0020509677
200	0xbf85a68b	-1.044145
201	0x3d102bd7	0.03519806
202	0x3edab2e1	0.427146
203	0xbf55fcef	-0.8358907
204	0xbd106896	-0.03525599
205	0x3ecbc4e1	0.39798644
206	0xbb96af33	-0.004598522
207	0xbaef1ff0	-0.0018243771
208	0xbf85801e	-1.0429723
209	0xbcfa777c	-0.030574553
210	0x3eca0c2c	0.3946241
211	0xbbc407bd	-0.005982368
212	0x3d49ff9e	0.04931604
213	0x3e8a9768	0.2706864
214	0x3d26b783	0.040702354
215	0xbf1325f1	-0.5747977
216	0x3e851711	0.2599416
217	0xbe7659fa	-0.24057761
218	0x3d29fa2c	0.041498348
219	0xbd3313da	-0.043720104
220	0x3d8da1e9	0.069156475
221	0xbe954cd4	-0.29160178
222	0x3aca38e3	0.001542833
223	0x3d3cac0b	0.04606251
224	0x3d235cd5	0.039883453
225	0xbf8300ff	-1.0234679
226	0x3bb26a5f	0.0054448093
227	0xbeb195a0	-0.34684467
228	0xbf001968	-0.50038767
229	0xbc364421	-0.011124642
230	0x3eb446b3	0.3521019
231	0xbe64a77b	-0.22329514
232	0x3cfbec1e	0.030752238
233	0xbc26e38c	-0.010186087
234	0xbc7d2ed0	-0.0154530555
235	0x3d65a986	0.056069873
236	0x3ec10261	0.37697127
237	0xbb7aacf1	-0.0038250054
238	0xbfdbf889	-1.7185222
239	0x3d86f30b	0.065893255
240	0xbf9acde3	-1.2094082
241	0xbe74f665	-0.23922117
242	0xbe2d2155	-0.16907246
243	0xbd0d0a1e	-0.034433477
244	0xbe006400	-0.12538147
245	0x3dbbccc0	0.09169912
246	0x3b549df7	0.0032442787
247	0x3d55d93b	0.05220912
248	0x3d857ac7	0.065175585
249	0xbf04c73d	-0.51866513
250	0x3d6b13e4	0.057392016
251	0x3d93b3d7	0.07212036
252	0x3e8b707c	0.27234256
253	0xbceb8014	-0.028747596
254	0x3f144b66	0.5792755
255	0xbd83fddd	-0.06444905

fc3.bias f4 [128]
0	0x3edc5d63	0.43039998
1	0x3d2d769a	0.042349435
2	0x3f89a7f7	1.0754384
3	0xbc8449bf	-0.016148446
4	0xbf340b98	-0.7033019
5	0x3eb7b3eb	0.35879454
6	0xbd84e7bd	-0.06489513
7	0xbf386966	-0.72035825
8	0xbf13338e	-0.5750054
9	0xbe420be9	-0.18949856
10	0xbe22bbf4	-0.15892011
11	0xc0053d6b	-2.0818737
12	0x3ed742af	0.42043063
13	0xbe0d2b6b	-0.13786094
14	0x40868761	4.2040257
15	0xbd45b4f3	-0.04826827
16	0x3e74acfc	0.23894113
17	0x406e1bfb	3.7204578
18	0xbe695aab	-0.22788493
19	0xbf3adf9b	-0.72997445
20	0x3f196495	0.599191
21	0xbe550256	-0.20801672
22	0x3c978036	0.018493753
23	0xbf658150	-0.8965044
24	0xbfaaf3eb	-1.3355688
25	0x3ef9c464	0.48782647
26	0xbe74cf6a	-0.23907247
27	0xbe298859	-0.16555919
28	0xbf84d0fc	-1.0376277
29	0xc017613f	-2.3653104
30	0xc00329ba	-2.0494218
31	0xbf11282a	-0.5670191
32	0xc01784e8	-2.367487
33	0xbf1fbdab	-0.62398785
34	0x3ff05eb2	1.8778899
35	0x3e492a72	0.19645098
36	0xbe329b3e	-0.17442033
37	0xbdb4eb11	-0.08833898
38	0xbf1e027e	-0.6172255
39	0xbd6bd01d	-0.05757152
40	0x3f766deb	0.9626147
41	0x3f5d7f06	0.8652195
42	0xbe0c7844	-0.13717753
43	0x403635b1	2.847027
44	0xbdbe47a0	-0.09291005
45	0x3ec0677c	0.37578952
46	0x3f8acb83	1.0843357
47	0x3fe7bd96	1.8104732
48	0xbe91146b	-0.2833589
49	0xbcc8bd76	-0.024504405
50	0xbd8fa31b	-0.07013532
51	0x3e523289	0.2052709
52	0xbff4f5b4	-1.9137483
53	0xbdfe49bb	-0.12416407
54	0xc04e94a8	-3.2278233
55	0xbd8ee8c1	-0.06977988
56	0xbf3189d2	-0.6935092
57	0x3f1c50ab	0.6106059
58	0xbdfd41d1	-0.12366069
59	0xbdfaaa84	-0.122395545
60	0xbeac6e78	-0.3367803
61	0x40333473	2.8000762
62	0xbf84c45d	-1.0372425
63	0x3e603a93	0.21897344
64	0xbe806a00	-0.25080872
65	0xbf846613	-1.034365
66	0xbf9d8d51	-1.2308751
67	0xbd1dbbb2	-0.03850908
68	0xbe7afe90	-0.2451117
69	0xbe864703	-0.26226053
70	0x3edf24b9	0.43582705
71	0xbdc4b9c1	-0.09605742
72	0xbe65490b	-0.22391145
73	0xbea2d303	-0.31801614
74	0xbf82cff4	-1.0219712
75	0xbe0468e0	-0.12930632
76	0xbf1d169a	-0.6136261
77	0xbdb56861	-0.08857799
78	0xbdc1e47b	-0.09467407
79	0xbe62ed46	-0.22160825
80	0xbe0b01eb	-0.1357495
81	0xbd426365	-0.04745807
82	0xbf1184c7	-0.5684323
83	0xbe8b9ce2	-0.2726813
84	0x3f3074b2	0.6892806
85	0xbe06bfb8	-0.13159072
86	0xbf88f470	-1.0699596
87	0x3cf0bfba	0.029388297
88	0xbddc2b19	-0.10750408
89	0xbcabf942	-0.020992879
90	0xbe99ebdc	-0.3006276
91	0xbefae27a	-0.49000913
92	0x3e12866b	0.14309089
93	0xbfcf7065	-1.6206175
94	0x3f634e35	0.8879121
95	0x3eab85c7	0.33500502
96	0x3f7dbd7d	0.9911726
97	0xbe169f71	-0.1470926
98	0xbebd5eb5	-0.36986318
99	0x3d10f9d5	0.03539451
100	0xbe266d06	-0.16252527
101	0xbea49126	-0.3214199
102	0xbe38c564	-0.18044049
103	0xbef72653	-0.48271427
104	0xbdf3537d	-0.118811585
105	0xbe325a80	-0.17417336
106	0xc082a957	-4.0831714
107	0x3f02adf5	0.5104669
108	0xbe33836e	-0.17530605
109	0xbd85dee5	-0.065366544
110	0x3f71188a	0.9417807
111	0xbd885f76	-0.06658833
112	0xbe484b36	-0.1955994
113	0x3e952c3c	0.2913531
114	0xbe25b63a	-0.16182795
115	0xbecf7b56	-0.40523785
116	0xbd8bc5f3	-0.06824865
117	0x405f9fde	3.4941325
118	0xbff51985	-1.9148413
119	0xbd44ddff	-0.048063274
120	0xbdae7200	-0.085178375
121	0x3f543028	0.8288598
122	0x3f4874b1	0.78303057
123	0xbfa89970	-1.3171825
124	0xbf972dd4	-1.1810861
125	0x3f9378a6	1.1521194
126	0x3d3cc519	0.046086404
127	0x403215e9	2.7825873

fc4.weight f4 [64, 128]
0	0xbe9c93a4	-0.3058139
1	0x3d02c3cc	0.031925008
2	0x3e918919	0.2842491
3	0xbe13b755	-0.14425404
4	0xbea91ec5	-0.33031288
5	0xbed7b6e9	-0.42131737
6	0xbd5a5b7c	-0.053309903
7	0x3e978b15	0.295983
8	0xbe837872	-0.2567783
9	0xbe29d48c	-0.16584986
10	0x3d57de76	0.05270239
11	0xbf222bd9	-0.63348156
12	0x3dc55aba	0.09636445
13	0xbd93925b	-0.072056495
14	0x3da9b5ed	0.08286653
15	0xbe8bcfbe	-0.27306932
16	0xbea5a26d	-0.32350484
17	0xbf8088d7	-1.004176
18	0x3cbabe98	0.02279596
19	0xbf7ffec5	-0.9999812
20	0xbf0142dd	-0.5049265
21	0xbdf9826b	-0.121830784
22	0xbca6ea60	-0.02037543
23	0xbe971584	-0.29508603
24	0xbdeb8ae4	-0.11501101
25	0xbe843efc	-0.25829303
26	0xbef9a8cc	-0.48761594
27	0xbd95ea1b	-0.07320043
28	0x3ed73e63	0.42039785
29	0x3cdeefa8	0.027213886
30	0xbf9eb7e0	-1.2399864
31	0xbe3112bd	-0.17292304
32	0xbf1358b7	-0.57557243
33	0x3cf5d869	0.030010419
34	0xbe33d18f	-0.17560409
35	0xbdd31be5	-0.10308055
36	0xbe83123d	-0.25599852
37	0xb7c9da20	-2.406264e-05
38	0xbeddac38	-0.43295455
39	0xbe0f352a	-0.13985124
40	0xbe4a4c80	-0.19755745
41	0x3e4b7e2a	0.19872347
42	0xbd71782d	-0.0589525
43	0xbf0bf1b1	-0.54665667
44	0x3b02fa99	0.0019985794
45	0xbc9b1b06	-0.018933784
46	0xbe00004c	-0.12500113
47	0xbe38b1d3	-0.18036585
48	0xbdbb3d34	-0.09142533
49	0xbd284b78	-0.041087598
50	0xbe4debaa	-0.2010943
51	0xbdae32cf	-0.08505785
52	0xbf373725	-0.7156852
53	0xbd8780bb	-0.0661635
54	0xbf76d490	-0.96418095
55	0x3e226d5b	0.15862028
56	0x3dad48bb	0.08461138
57	0xba8da690	-0.0010807086
58	0x3d214394	0.03937109
59	0xbc179a1e	-0.009253053
60	0x3e8a408a	0.27002364
61	0xbf239fe2	-0.63915837
62	0xbf8ffee0	-1.1249657
63	0xbe74ed63	-0.23918681
64	0xbd138ac3	-0.036021005
65	0x3e90b7fd	0.28265372
66	0x3e6981b0	0.22803378
67	0x3d10c96f	0.035348352
68	0xbc28b779	-0.01029765
69	0x3ebfe99c	0.37482917
70	0xbe2f300a	-0.17108169
71	0xbcffeb2d	-0.03124007
72	0xbd749cd4	-0.059719875
73	0x3de068e7	0.109575085
74	0xbe5720d8	-0.21008623
75	0x3cadc499	0.02121191
76	0x3d789a41	0.060693983
77	0x3c2a0b1a	0.010378623
78	0x3d88519a	0.06656189
79	0xbeb0980d	-0.34491006
80	0xbd8ad4d0	-0.06778872
81	0x3d6a5205	0.057207126
82	0xbf0f10ad	-0.5588482
83	0x3e92186d	0.2853426
84	0x3dc1b51a	0.094583705
85	0x3e2e26b9	0.17006959
86	0xbf5094b6	-0.81476915
87	0x3f0a929a	0.54129946
88	0xbe25cda2	-0.16191724
89	0xbe1077a0	-0.14108133
90	0x3f09ba89	0.53800255
91	0xbf3789f8	-0.716949
92	0x3ea721d7	0.32643005
93	0xbda785e3	-0.08179834
94	0xbf0c9b33	-0.54924315
95	0xbedc92e3	-0.43080816
96	0xbe8c76e1	-0.27434447
97	0xbdff099c	-0.12453005
98	0x3dcf83d7	0.10132568
99	0xbe436e42	-0.19085029
100	0x3c26b8c3	0.010175887
101	0xbe08c746	-0.13357267
102	0xbba60538	-0.00506654
103	0x3d311c13	0.043239664
104	0xbd9c72a8	-0.076390564
105	0x3b2c40a0	0.0026283637
106	0xbf5a64a4	-0.85309815
107	0x3d026b26	0.031840466
108	0xbd662445	-0.056186933
109	0x3e2d04bb	0.16896336
110	0xbf1aa346	-0.60405385
111	0x3bd6ead4	0.0065587554
112	0x3cbaf3e9	0.022821384
113	0xbe8cacd1	-0.27475598
114	0xbd8f1bf9	-0.06987757
115	0xbe337ce9	-0.17528118
116	0xbefab93a	-0.48969442
117	0xbcbd8364	-0.023133941
118	0xbeb25e72	-0.3483768
119	0x3d83c749	0.06434495
120	0xbd40a13b	-0.04702876
121	0x3db7aa7a	0.08968063
122	0x3e1e5924	0.15463692
123	0xbf249338	-0.6428714
124	0xbf73417a	-0.95021784
125	0xbef55d39	-0.47922686
126	0x3e7338cc	0.23752135
127	0xbf6fc31e	-0.936571
128	0xbe1febc0	-0.15617275
129	0xbebe1fef	-0.37133738
130	0xbe0e07c9	-0.13870157
131	0xbd0c918f	-0.034318503
132	0xbce20b9d	-0.027593428
133	0xbee51b68	-0.44747472
134	0xbdc17074	-0.09445277
135	0xbe30a622	-0.17250875
136	0x3d108900	0.035286903
137	0xbe1e9ae0	-0.15488768
138	0x3d43ca70	0.04780048
139	0xbf32d3c8	-0.698544
140	0xbd9a9be6	-0.075492665
141	0xbdd2396d	-0.10264859
142	0x3deb4771	0.11488236
143	0xbc6c8ccb	-0.014437865
144	0xbe495c5f	-0.19664143
145	0xbf4c545b	-0.79816216
146	0x3e01980f	0.12655662
147	0xbfa0331e	-1.25156
148	0xbebb4f8f	-0.36584136
149	0xbc3bf0fc	-0.011471029
150	0xbd001976	-0.03127428
151	0xbe2aafbc	-0.166686
152	0xbef376fc	-0.47551715
153	0x3da879ef	0.08226382
154	0xbedcaf05	-0.4310228
155	0xbc1b80db	-0.009491171
156	0xbe44c726	-0.19216594
157	0x3ba334e7	0.0049806717
158	0xbe9aa018	-0.30200267
159	0xbe03df87	-0.12878238
160	0xbed772ec	-0.42079866
161	0x3db1bc89	0.08678538
162	0xbf05100a	-0.519776
163	0x3d48c83f	0.049019095
164	0x3d1509a5	0.03638615
165	0x3caee5f3	0.021349883
166	0xbec2f604	-0.3807832
167	0x3d52a406	0.051425956
168	0xbcfe34a2	-0.031030957
169	0xbd513162	-0.051072486
170	0x3b9908a9	0.004670222
171	0x3e0386e4	0.12844425
172	0xbdb58fb7	-0.08865302
173	0x3d30a79a	0.043128587
174	0xbd11c174	-0.035584882
175	0xbeb491b2	-0.35267407
176	0xbd97b6be	-0.07407902
177	0xbc8ffdd4	-0.01757709
178	0xbe41113d	-0.18854232
179	0x3db1dcd1	0.086846955
180	0xbe26c44d	-0.1628582
181	0xbe2fbc78	-0.17161739
182	0xbf9a1b87	-1.2039651
183	0x3bdcc35b	0.0067371554
184	0xbe2d81ad	-0.16943999
185	0xbe28ea92	-0.16495731
186	0x3c1d4671	0.009599314
187	0x3a39384a	0.00070655777
188	0xbcefb2b8	-0.029260024
189	0xbf83f9f7	-1.0310658
190	0x3d555bcd	0.0520895
191	0x3d64224e	0.055696778
192	0x3d04951f	0.032368775
193	0x3f11f7c2	0.57018673
194	0x3ab0650a	0.0013457846
195	0xbc315c00	-0.010825157
196	0xbdff1cef	-0.124566905
197	0xbce1ba1b	-0.027554562
198	0xbdb10a61	-0.08644558
199	0x3d8fa578	0.070139825
200	0xbea33a02	-0.31880194
201	0x3c092517	0.008370659
202	0xbca26931	-0.01982555
203	0xbd25bd03	-0.04046346
204	0xbec0310c	-0.3753742
205	0xbc57a60c	-0.013162147
206	0xbc080569	-0.008302071
207	0xbe65578a	-0.22396675
208	0xbdd3aa3d	-0.10335205
209	0x3d4a2a6c	0.049356863
210	0xbe9008cd	-0.28131714
211	0xbdc9aee4	-0.09847811
212	0xbee46462	-0.44607836
213	0xbdd220a5	-0.10260133
214	0x3cf63aa2	0.030057255
215	0x3d1b80e6	0.037964724
216	0xbc099e33	-0.008399534
217	0x3c79c0d8	0.015243731
218	0xbc0f0938	-0.008730225
219	0x3d8aebae	0.067832336
220	0xbd335285	-0.04377987
221	0xbe590111	-0.21191813
222	0xbe8ec143	-0.27881822
223	0x3c5faa32	0.013651418
224	0x3d7f172e	0.062277965
225	0x3dad1e53	0.084530495
226	0x3d476ebe	0.048689596
227	0x3f0175b2	0.50570214
228	0xbe1ecb10	-0.1550715
229	0xbe179b8d	-0.14805432
230	0xbd395b81	-0.04525328
231	0xbdf2c29f	-0.11853527
232	0xbdbb787e	-0.091538414
233	0xbd26d393	-0.040729117
234	0xbe11bf86	-0.14233217
235	0xbdb7bd9c	-0.08971712
236	0x3dce02d6	0.10059135
237	0xbd46f187	-0.048570182
238	0x3ce6bc8c	0.028166078
239	0xbdee0815	-0.11622635
240	0xbe7b4f2e	-0.24541923
241	0xbdf472bd	-0.11935947
242	0xbd9a836b	-0.07544597
243	0xbe1cc531	-0.15309598
244	0xbe9e72f5	-0.3094708
245	0x3e5de0fe	0.21667859
246	0xbf485585	-0.7825549
247	0xbe0a6c7f	-0.1351795
248	0xbd947b00	-0.07250023
249	0xbe847a7d	-0.258747
250	0xbe098b62	-0.13432077
251	0xbd9c4887	-0.07631021
252	0xbe68a609	-0.22719587
253	0xbecc5965	-0.39911953
254	0xbbc30544	-0.0059515554
255	0xbc861222	-0.016366068

fc4.bias f4 [64]
0	0xbf2dbb1f	-0.6786365
1	0x3e1e8f3f	0.15484332
2	0xbe4262fc	-0.18983072
3	0xbe75949e	-0.23982474
4	0x3f185000	0.5949707
5	0xbe404885	-0.18777664
6	0xbfbd0fe8	-1.4770479
7	0xbe29a9d5	-0.16568692
8	0xbf05cc49	-0.5226484
9	0xbc1ae371	-0.00945364
10	0x3f065d63	0.52486247
11	0x4102a925	8.166295
12	0x3e8615eb	0.26188597
13	0xbe732b07	-0.23746882
14	0xbe9a5e00	-0.3014984
15	0xbe453d94	-0.19261771
16	0xbea5b495	-0.32364336
17	0x405319e2	3.2984548
18	0xbed244ff	-0.41068265
19	0xbe1ff520	-0.15620852
20	0xbd9c1e97	-0.07623022
21	0xbe6a1086	-0.22857866
22	0x3e92d7bc	0.28680217
23	0xbf3d7878	-0.74011946
24	0xbe99755d	-0.29972354
25	0x3f02de76	0.511207
26	0xbe743a22	-0.23850301
27	0xbdd14dfc	-0.102199525
28	0x3f1a9e39	0.6039768
29	0xbdbafb86	-0.091300055
30	0x3fb9ea8f	1.4524707
31	0x3dc1e48e	0.094674215
32	0x3f7100ae	0.9414166
33	0xbe950888	-0.2910807
34	0x3e2b29a0	0.16715097
35	0xbdd31810	-0.10307324
36	0xbc762ea3	-0.0150257675
37	0x3f3d5401	0.73956305
38	0xbe146012	-0.14489773
39	0xbdeb2469	-0.11481554
40	0xbedb646b	-0.4285005
41	0xbee2429c	-0.44191444
42	0xbe6f9df9	-0.23400106
43	0xbeb14a41	-0.34626964
44	0x3e5e8916	0.21731982
45	0x3ef98eff	0.4874191
46	0xbf96277a	-1.1730797
47	0x3ffef277	1.9917744
48	0x3e8fd513	0.2809225
49	0x3eb739d9	0.35786322
50	0x3e10cd54	0.14140826
51	0xbe24923b	-0.16071407
52	0x3d4481e4	0.047975436
53	0xbdb5826a	-0.08862765
54	0x3db815aa	0.08988507
55	0xbe82e2e2	-0.25563723
56	0x3ec7931c	0.38979423
57	0x3e948525	0.2900783
58	0xbe381392	-0.17976215
59	0xbea91893	-0.3302656
60	0xbe9a9dc5	-0.30198494
61	0xbe471d8e	-0.19444868
62	0xbf01758f	-0.50570005
63	0xbd2b227d	-0.041780937
