model/DQN/_Player_dqnAgent_model_epoch_1500.pth (torch_old, 489705 bytes, 10 tensors)

fc1.weight f4 [256, 57]
-0.121698864 -0.6515179 -0.025311826 0.2963905 -0.13482496 -0.012640825 0.4364633 -0.50784343
1.8421743 0.29079348 1.6716102 0.424983 0.479605 -0.21618533 -0.40915012 -0.0038017677
-0.49053913 0.2103685 -1.2791603 -0.8405452 -0.28331107 -0.45004988 0.4287576 -3.0067284
-0.8995798 -0.21592438 -0.29323685 -0.27075636 -0.083384335 -0.029894073 -0.051630266 0.57914925
-0.14558744 -0.55034006 0.16254711 -0.18378237 -0.56668675 0.36892816 0.05910307 0.90664047
0.0069659203 -0.5301755 0.45825535 -0.61767185 -0.65440094 -0.17447455 -0.41044122 0.872908
-0.0009670888 -0.49878576 -0.21443585 1.2712309 -0.4414457 0.42075932 -0.17891593 -0.57199293
0.23477463 -0.5258072 0.16822039 -0.76016545 -0.4129671 -0.01870141 -0.28563341 0.1863928
-0.03013049 -0.07682888 0.19897209 0.011047034 0.10468335 -0.5920973 -0.23894642 -0.9554768
-0.4359878 -0.26264796 -0.33371446 0.26037335 0.12022313 -0.29001045 -0.37384132 -1.5566081
0.37080246 1.3316829 0.46407092 -0.7851219 0.5138443 -0.022313073 0.18989058 -0.06063138
0.24032414 0.261554 -0.6173386 -0.22543551 0.43483725 -0.6163693 -0.4235157 -0.085922
-0.08089182 0.027722642 -0.95520467 -1.4323472 -0.54027283 -0.31795502 -0.4874819 -0.6982142
-1.0989178 0.3873112 -0.7646218 -1.4295454 0.501798 -0.64499027 -1.0340402 -0.34488136
-0.74547666 0.11460355 0.43395475 -1.0440701 -0.27712867 -0.49582857 0.4972056 0.6969856
1.2106222 0.5487135 -0.042605687 -0.9814663 0.7536947 -0.7274516 0.13800272 -1.2431232
-0.1472918 -0.8574767 0.1854953 -0.47526214 -0.03465059 -1.3752387 -0.23815496 -1.118846
-0.81727666 -2.993111 -0.7471522 -0.6683687 -0.32447943 -0.009984885 0.1257529 0.03267239
-0.118985586 -1.8562508 0.34588793 -0.4482567 0.50246966 0.15419264 -0.5713454 0.4565176
-0.026866384 -0.17472798 0.07160966 -0.6669905 0.9714465 -0.5528961 0.23587035 -0.67735434
-0.47476378 0.64989674 1.1034397 -0.5636155 0.008943859 0.81753963 -0.50942 0.7362142
-0.117722146 -0.45818537 -0.43196678 -1.3365036 -0.13955541 -0.21182695 0.08874813 -0.57339764
0.15480065 -1.2597363 0.31332222 -1.9399334 0.23299706 -1.3974202 0.56926423 -1.4079622
-0.24554358 -1.1633188 -0.2043752 -0.6380951 0.0019097377 -0.21159117 0.2200448 -0.13806874
-0.6232177 -0.15716556 -2.448419 -1.2575506 -0.88311905 -0.55408114 -2.0327466 -0.0028897524
2.2540803 0.0853824 -0.049651355 0.110914715 -0.73192215 0.29227814 0.15423295 -0.5432823
0.2474687 0.016772032 -0.65880823 -0.02618356 0.9123758 -0.20562127 -0.65423316 -0.4074209
-0.073319875 -0.7227333 0.07532652 -0.6240228 -0.66281486 -0.2869711 0.33279008 -0.6495515
0.19601227 0.08469415 -0.7476605 -0.009565559 0.37721694 -0.115137964 1.0491745 -0.5075091
0.74052256 -0.55396044 0.5639976 -0.1963693 0.96487224 -0.14713934 -0.40136427 -1.0211602
0.9716648 0.05305673 0.11454847 -0.0830445 0.9396451 -0.29370034 -0.20984787 -0.06142063
0.7656414 -1.1395795 -0.4608408 2.3103428 -0.58648896 -0.70362437 -0.36829147 -0.8006446
00000000: 413d f9bd e1c9 26bf bf5a cfbc 7fc0 973e
00000010: 8e0f 0abe 761b 4fbc 1e78 df3e 0702 02bf
00000020: 5ecc eb3f e2e2 943e 53f7 d53f 5f97 d93e
00000030: c98e f53e b05f 5dbe 207c d1be 1427 79bb
00000040: f227 fbbe d76a 573e 86bb a3bf f82d 57bf
00000050: 260e 91be f06c e6be 1e86 db3e 3d6e 40c0
00000060: dd4a 66bf 481b 5dbe 2423 96be 94a0 8abe
00000070: 68c5 aabd 6ae4 f4bc 427a 53bd 2043 143f
00000080: e014 15be 16e3 0cbf c072 263e 7231 3cbe
00000090: 6212 11bf 27e4 bc3e 1016 723d 9719 683f
000000a0: 6042 e43b 95b9 07bf 72a0 ea3e be1f 1ebf
000000b0: d286 27bf 75a9 32be 5a25 d2be e676 5f3f
000000c0: 3b84 7dba d960 ffbe 1295 5bbe b2b7 a23f
000000d0: 2c05 e2be c46d d73e bd35 37be 216e 12bf
000000e0: c368 703e 4d9b 06bf f741 2c3e 349a 42bf
000000f0: 6c70 d3be b333 99bc 8b3e 92be c1dd 3e3e
00000100: 38d4 f6bc 7658 9dbd 57bf 4b3e 9efe 343c
00000110: 3964 d63d b093 17bf 5fae 74be 219a 74bf
00000120: cb39 dfbe cb79 86be 9fdc aabe a84f 853e
00000130: 8b37 f63d 407c 94be 2168 bfbe ef3e c7bf
00000140: d2d9 bd3e 9674 aa3f b49a ed3e c0fd 48bf
00000150: 4d8b 033f e8c9 b6bc ad72 423e 9c58 78bd
00000160: 8817 763e 68ea 853e e709 1ebf 91d8 66be
00000170: fda2 de3e 61ca 1dbf 0dd7 d8be e0f7 afbd
00000180: 9caa a5bd 981a e33c 4b88 74bf 2757 b7bf
00000190: 524f 0abf 00cb a2be 3a97 f9be 2abe 32bf
000001a0: 57a9 8cbf a74d c63e 41be 43bf 58fb b6bf
000001b0: d575 003f 151e 25bf 6e5b 84bf 4a94 b0be
000001c0: 8fd7 3ebf 44b5 ea3d 512f de3e 17a4 85bf
000001d0: cfe3 8dbe 3edd fdbe bb91 fe3e a66d 323f
000001e0: abf5 9a3f 7d78 0c3f 4d83 2ebd 6041 7bbf
000001f0: 23f2 403f 453a 3abf 9650 0d3e a91e 9fbf
00000200: a9d3 16be 9883 5bbf 7bf2 3d3e 8f55 f3be
00000210: c7ed 0dbd d207 b0bf e5de 73be 5936 8fbf
00000220: 0b39 51bf 218f 3fc0 5e45 3fbf 361a 2bbf
00000230: 2b22 a6be a597 23bc 5ec5 003e 7cd3 053d
00000240: b7ae f3bd a099 edbf 3918 b13e e781 e5be
00000250: daa1 003f ade4 1d3e b143 12bf adbc e93e
00000260: e416 dcbc e4eb 32be 16a8 923d e4bf 2abf
00000270: b8b0 783f 998a 0dbf ff87 713e 1867 2dbf
00000280: 3d14 f3be a25f 263f 833d 8d3f 1b49 10bf
00000290: 4389 123c 474a 513f 5969 02bf 8978 3c3f
000002a0: 4f18 f1bd 4697 eabe c02a ddbe 8d12 abbf
000002b0: 9de7 0ebe 2ae9 58be 94c1 b53d 30ca 12bf
000002c0: 1084 1e3e 0a3f a1bf c56b a03e bd4f f8bf
000002d0: c896 6e3e aade b2bf 4dbb 113f 1b38 b4bf
000002e0: c76f 7bbe a1e7 94bf bc47 51be 335a 23bf
000002f0: 2a50 fa3a 5bab 58be 6d53 613e e461 0dbe
00000300: 328b 1fbf 02f0 20be e6b2 1cc0 6bf7 a0bf
00000310: 1714 62bf 43d8 0dbf 8518 02c0 0062 3dbb
00000320: da42 1040 f8dc ae3d 385f 4bbd 4127 e33d
00000330: 405f 3bbf 7ba5 953e 3eef 1d3e 8c14 0bbf
00000340: 6f68 7d3e 8065 893c a8a7 28bf e87e d6bc
00000350: 7691 693f 628e 52be d37b 27bf 7999 d0be
00000360: bb28 96bd 0d05 39bf ca44 9a3d f5bf 1fbf
00000370: 3cae 29bf e0ed 92be 7663 aa3e 0249 26bf
00000380: 71b7 483e 2074 ad3d ae66 3fbf ddb8 1cbc
00000390: 9422 c13e 74cd ebbd 5a4b 863f 1eec 01bf
000003a0: e392 3d3f 5ad0 0dbf 2662 103f 0915 49be
000003b0: de01 773f b2ab 16be 9e7f cdbe 61b5 82bf
000003c0: 06bf 783f 0452 593d 6398 ea3d 3c13 aabd
000003d0: 958c 703f e45f 96be 5ce2 56be 3394 7bbd
000003e0: 1301 443f bedd 91bf 53f3 ebbe a8dc 1340
000003f0: 2424 16bf ba20 34bf b390 bcbe 0bf7 4cbf

fc1.bias f4 [256]
-0.5084025 -0.5805951 -0.41768116 -0.753996 -0.20721033 0.021329895 -0.19694433 0.47452265
0.10174211 0.0874256 0.19210453 -0.023515126 -0.118195266 -0.22752063 -0.192538 -0.10141858
-0.32650578 0.23814645 -0.23758572 -0.6547093 -0.71580255 -0.35233197 -0.78776836 -0.38291696
0.18561727 -0.28557158 -0.32177976 0.10053585 -0.4656042 -0.59425884 0.15411471 -0.6637808
-1.0679317 -0.57363814 -0.22194448 0.1578533 0.24836324 -0.2408895 -0.6455153 -0.3646335
0.093669534 -0.4548095 0.42027324 0.5363353 0.03996891 -0.30145496 -1.0921923 -0.030976776
0.03704519 -0.40289077 -0.27402285 -0.52675307 -0.6228551 -0.2801089 -0.12849243 0.010780399
0.6296199 -0.29738182 -0.74323803 -0.6028512 -0.39804634 -0.8110985 0.271539 -0.21782032
0.9072732 -0.27847752 -0.43600044 0.27507725 -0.136165 -0.08990652 -0.48792166 -0.8664275
-0.7456198 -0.14896813 -0.931472 -0.3449324 -0.25832102 0.07162576 -0.5480813 -0.13133869
-0.049867697 -0.49272332 0.086030275 0.46303523 -0.488129 -1.2928035 -0.9300142 -0.23710606
-0.19387405 -0.31256709 -0.17534041 -0.2899577 0.061164018 -0.66190064 -0.7811576 0.008802393
-0.5952115 0.114019506 -0.06744089 -0.20044424 -0.8642645 0.05690431 -0.23243484 -0.2793087
-0.723988 -0.23153429 0.4288171 -0.18061194 -0.2651851 -0.21050993 -0.046040695 -0.15561533
-0.06260876 -0.5944824 -0.92269164 -1.1683705 -0.8492548 -0.16063066 -0.56106675 -1.0075743
-0.119593546 -0.7085524 -0.06885817 0.27437198 -0.25075197 -0.5430284 -0.40102816 -0.7747561
-0.19565283 -0.2524287 -0.210828 0.2834049 0.17926413 -0.7430173 -0.028745182 0.1600847
-0.47753143 -0.5392364 -0.3191638 -0.21076931 0.18744962 1.187875 -0.7654697 -0.5744636
1.2547917 -0.6163292 -0.84230435 -0.33332744 0.23572111 -0.5746511 -0.68452495 -0.8792433
-0.16713697 1.1452348 -0.41694015 -0.74386895 -0.44186032 -1.0819492 -0.7532964 -0.15626962
0.1063038 -0.2553855 0.000554665 -0.4270984 -0.2567079 -0.21954785 -0.23470242 -1.0298791
-0.29574794 -1.0468658 -0.11167495 -0.6379598 -0.05840988 0.15499969 -0.21794933 -0.30970636
0.37265733 0.17319536 -0.5909804 -0.9158781 0.7424831 -0.43368748 -0.2931849 -0.4893892
0.33806744 -0.17727837 0.11493877 -0.6733745 -0.26670435 -0.10062923 1.3412544 -0.8464651
-0.5121393 -0.18982412 -0.46046862 -0.5373938 -0.33424285 0.8322629 -0.9593687 -0.60928607
-0.1201913 -0.42474592 -0.49595326 -0.09224758 0.19807497 -0.32476553 -1.0717713 -0.24231276
-0.9886108 -0.9446147 -0.3939984 -0.96320057 -0.95300144 -0.6533257 -0.62625945 -0.39139444
-0.9429437 -0.1863028 -0.6844308 -0.31737095 -0.20513816 -0.5876984 -0.62303424 -0.5405979
0.1016501 -0.36399958 -0.8389288 0.14264978 -0.06511372 -1.0243855 -0.04075947 0.82946646
0.5808175 -0.5896113 0.28718114 -0.33336022 -0.4952023 -0.4365438 -0.4430803 -0.21398446
1.809928 0.12731044 0.10050059 -0.5279456 0.12566413 -0.6765134 0.69436866 0.029709795
0.26485 -0.8687275 -0.6280002 0.08525809 -0.51237 -0.36250407 0.5690278 -0.35363588
00000000: ab26 02bf e1a1 14bf 4eda d5be e205 41bf
00000010: f22e 54be 08bc ae3c c6ab 49be a2f4 f23e
00000020: 2b5e d03d 310c b33d 0db7 443e cba2 c0bc
00000030: 5c10 f2bd 2bfb 68be ae28 45be 8bb4 cfbd
00000040: c42b a7be aadc 733e ac49 73be 079b 27bf
00000050: d63e 37bf db64 b4be 30ab 49bf b10d c4be
00000060: 7412 3e3e 7036 92be 51c0 a4be bde5 cd3d
00000070: ac63 eebe 5921 18bf 3fd0 1d3e 8aed 29bf
00000080: fcb1 88bf f3d9 12bf 6a45 63be 4ca4 213e
00000090: ef52 7e3e bdab 76be 7e40 25bf 3eb1 babe
000000a0: d0d5 bf3d cadc e8be 0e2e d73e 454d 093f
000000b0: 71b6 233d 4e58 9abe f5cc 8bbf 02c3 fdbc
000000c0: b2bc 173d b347 cebe b94c 8cbe 4ad9 06bf
000000d0: 6f73 1fbf 6f6a 8fbe 8593 03be 45a0 303c
000000e0: c52e 213f 6e42 98be d944 3ebf 7554 1abf
000000f0: bbcc cbbe 27a4 4fbf 2907 8b3e 4a0c 5fbe
00000100: 0e43 683f 9b94 8ebe 733b dfbe edd6 8c3e
00000110: d66e 0bbe e920 b8bd ded0 f9be 31ce 5dbf
00000120: f0e0 3ebf 1a8b 18be f374 6ebf fb9a b0be
00000130: a742 84be 87b0 923d 0e4f 0cbf a67d 06be
00000140: 1242 4cbd 3b46 fcbe a430 b03d f412 ed3e
00000150: 0bec f9be 967a a5bf 6915 6ebf eecb 72be
00000160: eb86 46be cb08 a0be 708c 33be 5675 94be
00000170: 1f87 7a3d 5272 29bf f2f9 47bf ea37 103c
00000180: c85f 18bf 0f83 e93d 731e 8abd 4141 4dbe
00000190: 7040 5dbf 7e14 693d 6603 6ebe 8d01 8fbe
000001a0: 4757 39bf 5317 6dbe ea8d db3e 56f2 38be
000001b0: 57c6 87be ea8f 57be 2b95 3cbd a059 1fbe
000001c0: 0639 80bd 0030 18bf 8535 6cbf 2a8d 95bf
000001d0: c368 59bf 5d7c 24be 12a2 0fbf 32f8 80bf
000001e0: 76ed f4bd b163 35bf 8305 8dbd 7c7a 8c3e
000001f0: 9062 80be e903 0bbf 9053 cdbe 6a56 46bf
00000200: 3759 48be 563e 81be 4ce3 57be 721a 913e
00000210: 0491 373e 6236 3ebf 047b ebbc 3eed 233e
00000220: 007f f4be 660b 0abf 7069 a3be e9d3 57be
00000230: cbf2 3f3e 4a0c 983f d2f5 43bf 0c10 13bf
00000240: 049d a03f c0c7 1dbf 42a1 57bf e5a9 aabe
00000250: e060 713e 561c 13bf 073d 2fbf 1716 61bf
00000260: f425 2bbe 0e97 923f 2e79 d5be 326e 3ebf
00000270: 843b e2be 507d 8abf 08d8 40bf 2505 20be
00000280: cfb5 d93d e3c1 82be f066 113a a4ac dabe
00000290: 386f 83be 27d1 60be d555 70be 14d3 83bf
000002a0: 466c 97be b3ff 85bf d6b5 e4bd 5551 23bf
000002b0: 333f 6fbd 3db8 1e3e 1c2e 5fbe d591 9ebe
000002c0: f1cc be3e 205a 313e 7e4a 17bf fd76 6abf
000002d0: 5f13 3e3f 490c debe 551c 96be 3991 fabe
000002e0: 2d17 ad3e 7688 35be 0565 eb3d 4562 2cbf
000002f0: 798d 88be b316 cebd 39ae ab3f f0b1 58bf
00000300: 901b 03bf 4161 42be 8bc2 ebbe a492 09bf
00000310: e121 abbe 2e0f 553f 3099 75bf 2cfa 1bbf
00000320: db26 f6bd 4c78 d9be 96ed fdbe 4dec bcbd
00000330: 2ad4 4a3e ab47 a6be cd2f 89bf d620 78be
00000340: 9915 7dbf 45d2 71bf 29ba c9be 5094 76bf
00000350: e7f7 73bf 5a40 27bf 8a52 20bf da64 c8be
00000360: c264 71bf 29c6 3ebe db36 2fbf 727e a2be
00000370: bd0f 52be 6773 16bf 2c7f 1fbf a064 0abf
00000380: ed2d d03d 275e babe 0ac4 56bf c912 123e
00000390: 585a 85bd 101f 83bf 67f3 26bd ea57 543f
000003a0: 75b0 143f c4f0 16bf 6809 933e 31ae aabe
000003b0: 288b fdbe ab82 dfbe 6cdb e2be be1e 5bbe
000003c0: b9ab e73f ab5d 023e 41d3 cd3d 7127 07bf
000003d0: 19ae 003e fb2f 2dbf 25c2 313f f561 f33c
000003e0: 6b9a 873e ed64 5ebf 9fc4 20bf cb9b ae3d
000003f0: ae2a 03bf 229a b9be ceab 113f c30f b5be

fc2.weight f4 [256, 256]
-0.09090574 -0.12061661 0.025239175 -0.05264052 0.043721005 -0.021282775 -0.040452212 -0.014305972
0.032281 -0.15871711 -0.05014347 -0.05748321 -0.012782791 -0.021364195 0.009288751 0.03923965
-0.06257972 0.005608412 -0.008343413 -0.08242762 -0.081117176 -0.056534424 -0.07684773 -0.022873195
-0.122591555 -0.040726252 0.026179887 -0.011664817 0.03530593 0.014381026 -0.06436644 -0.028857967
-0.024048861 0.025719991 0.05441867 0.011673763 0.011257917 -0.00016663034 -0.022996698 -0.026238495
0.00469019 -0.07759131 0.008623564 -0.0012360727 -0.12589647 -0.06649727 -0.040961355 -0.05239775
0.03639694 -0.082086705 0.029350264 0.03639837 0.009378223 -0.05795959 0.054277424 -0.12355601
0.05571632 0.08947138 -0.18600114 -0.011995407 0.0003474914 0.008590738 -0.018094648 -0.040508986
-0.014366251 0.010385759 0.0060128714 -0.08396018 -0.06633742 -0.015292388 -0.008951196 0.06152475
-0.058260556 -0.02452144 -0.120426 0.008778103 -0.043943994 -0.014700437 0.026222792 0.04015388
-0.034335814 -0.01685133 -0.029676996 -0.10705667 0.070575 0.042087477 -0.054916017 -0.092837416
-0.019631065 -0.061455637 0.025156364 -0.083527565 -0.006135507 -0.028866986 -0.066328615 -0.07318988
-0.067707025 0.012381129 -0.074007966 -0.091343485 -0.012313016 -0.011980296 -0.12126021 0.046504013
0.0022123433 -0.07363974 0.004756344 0.011381085 -0.049048238 0.031050283 -0.010266365 -0.06716868
-0.002754157 0.031552065 -0.022189433 -0.03839772 0.020999573 -0.022909714 -0.08291503 -0.04375806
0.009940812 -0.07339718 -0.10364193 -0.04174079 0.046676137 0.020931613 -0.042100333 0.023505783
-0.104392685 0.06428566 -0.04856075 -0.018789986 -0.065756164 -0.052521847 -0.03775377 -0.016705468
0.046896644 -0.045501836 0.00059731706 -0.07262852 -0.017401014 -0.07489195 -0.042705137 -0.027383264
-0.1439547 -0.054517537 -0.047099974 -0.029136373 -0.061780516 0.012293717 -0.03716964 0.029359834
-0.02695787 -0.04625072 0.035864178 -0.07835965 -0.049513966 -0.06708261 -0.047623385 -0.019812886
-0.037209846 -0.007756124 -0.057840735 -0.019939274 -0.14039604 -0.14052285 0.061680675 -0.004820908
-0.053076457 0.024275979 -0.04669619 -0.06906916 0.013641441 0.02640869 -0.025622115 -0.00096659636
-0.092215165 -0.055125855 -0.02415686 0.033784896 -0.10621622 -0.017780688 0.014823443 -0.006947517
0.05708196 -0.007868081 -0.06123989 -0.016848382 -0.034724616 0.023528498 -0.12660679 0.039652005
-0.0100339595 -0.15593271 0.032169707 0.041879404 -0.055274393 0.009300321 -0.11024772 -0.07886249
0.0053032553 -0.048086677 -0.06437219 -0.019889027 -0.0037419482 0.043494545 0.05912397 0.01337659
-0.051242515 0.04368171 -0.065174855 -0.05311649 0.031011457 -0.06373324 -0.0067105237 -0.06113636
-0.044094536 -0.016931979 -0.01889965 0.052953597 0.073504396 0.007637486 0.005942844 0.04846207
7.505985e-05 -0.015337611 -0.0313632 -0.03171847 -0.034433596 -0.015234173 -0.13272797 -0.021245658
0.014623869 -0.0621815 -0.07200328 -0.038015176 -0.059271295 0.020453082 0.03483233 -0.0552868
-0.03108317 -0.05231955 -0.04372245 -0.059572406 -0.022974247 -0.048762158 0.02436424 -0.022417292
-0.047470752 -0.0457485 0.022904132 -0.06581578 -0.011659339 0.013788391 -0.09947121 -0.0211126
00000000: ca2c babd d705 f7bd 63c2 ce3c 969d 57bd
00000010: cc14 333d 3759 aebc 38b1 25bd 9863 6abc
00000020: 1539 043d bd86 22be 3d63 4dbd 8473 6bbd
00000030: e96e 51bc f703 afbc d82f 183c c1b9 203d
00000040: cc29 80bd c5c6 b73b cfb2 08bc d0cf a8bd
00000050: c320 a6bd a490 67bd 5862 9dbd 9160 bbbc
00000060: 4811 fbbd 92d0 26bd 3477 d63c ca1d 3fbc
00000070: f39c 103d 659e 6b3c 8dd2 83bd 8b67 ecbc
00000080: 1e02 c5bc bbb2 d23c 1ce6 5e3d 5043 3f3c
00000090: 2073 383c 7eb9 2eb9 9263 bcbc 1df2 d6bc
000000a0: 2ab0 993b 31e8 9ebd d949 0d3c b803 a2ba
000000b0: 01eb 00be b82f 88bd 18c7 27bd 069f 56bd
000000c0: f514 153d 131d a8bd f76f f03c 7516 153d
000000d0: 1ea7 193c 0967 6dbd 0152 5e3d ef0a fdbd
000000e0: cc36 643d c53c b73d 1577 3ebe 6288 44bc
000000f0: 822f b639 2bc0 0c3c 3a3b 94bc c0ec 25bd
00000100: 6d60 6bbc 0829 2a3c 9f07 c53b 51f3 abbd
00000110: eadb 87bd ed8c 7abc 0aa8 12bc 6001 7c3d
00000120: 9fa2 6ebd 30e1 c8bc e8a1 f6bd 08d2 0f3c
00000130: 9efe 33bd 1ada 70bc 2ed1 d63c 6578 243d
00000140: b6a3 0cbd cd0b 8abc 2c1d f3bc 8740 dbbd
00000150: a089 903d eb63 2c3d 9eef 60bd 8b21 bebd
00000160: 54d1 a0bc e8b8 7bbd b814 ce3c 8010 abbd
00000170: 5d0c c9bb 757a ecbc 4cd7 87bd 93e4 95bd
00000180: fba9 8abd 38da 4a3c 7d91 97bd 4b12 bbbd
00000190: 88bc 49bc 0149 44bc 4657 f8bd fe7a 3e3d
000001a0: f6fc 103b 6fd0 96bd 1bdb 9b3b bb77 3a3c
000001b0: cee6 48bd 2a5d fe3c 4134 28bc bc8f 89bd
000001c0: 167f 34bb bd3c 013d 9dc6 b5bc ed46 1dbd
000001d0: 4c07 ac3c 27ad bbbc 5bcf a9bd a73b 33bd
000001e0: cade 223c 4351 96bd 3842 d4bd 64f8 2abd
000001f0: 7a2f 3f3d c678 ab3c 6671 2cbd 338f c03c
00000200: d5cb d5bd 33a8 833d a3e7 46bd 75ed 99bc
00000210: 2bab 86bd 2621 57bd b2a3 1abd e8d9 88bc
00000220: b216 403d 2260 3abd 4595 1c3a 43be 94bd
00000230: 928c 8ebc f360 99bd 95eb 2ebd de52 e0bc
00000240: dc68 13be c84d 5fbd e7eb 40bd 67af eebc
00000250: 910d 7dbd 966b 493c 313f 18bd 0984 f03c
00000260: c0d6 dcbc 6571 3dbd 51e6 123d 067b a0bd
00000270: 28cf 4abd 9c62 89bd bd10 43bd a24e a2bc
00000280: 5a69 18bd 1527 febb 68ea 6cbd b057 a3bc
00000290: fbc3 0fbe 39e5 0fbe e0a4 7c3d b5f8 9dbb
000002a0: b366 59bd 6bde c63c 8144 3fbd 2274 8dbd
000002b0: 5a80 5f3c 0957 d83c 78e5 d1bc 2f63 7dba
000002c0: 4edb bcbd a6cb 61bd 9be4 c5bc 0862 0a3d
000002d0: e487 d9bd cea8 91bc 07de 723c ffa7 e3bb
000002e0: c6ce 693d 20e9 00bc aed6 7abd 9e05 8abc
000002f0: 663b 0ebd d6be c03c 36a5 01be 246a 223d
00000300: 7a65 24bc d3ac 1fbe 62c4 033d bd89 2b3d
00000310: 6767 62bd 6060 183c 8ec9 e1bd a882 a1bd
00000320: eec6 ad3b 89f6 44bd 91d5 83bd 50ee a2bc
00000330: 793b 75bb 5627 323d fa2b 723d 7c29 5b3c
00000340: ace3 51bd 98eb 323d 657a 85bd ad90 59bd
00000350: bd0b fe3c 9386 82bd f4e3 dbbb 1f6a 7abd
00000360: 799c 34bd efb4 8abc 70d3 9abc dfe5 583d
00000370: 7989 963d e043 fa3b 30bc c23b 2a80 463d
00000380: 7369 9d38 9a4a 7bbc b376 00bd 3aeb 01bd
00000390: 3e0a 0dbd c198 79bc d7e9 07be 600b aebc
000003a0: f498 6f3c 07b2 7ebd 7576 93bd cdb5 1bbd
000003b0: 75c6 72bd 398d a73c 58ac 0e3d 6974 62bd
000003c0: 22a2 febc 064d 56bd 5016 33bd 3202 74bd
000003d0: 7d34 bcbc d4ba 47bd 8497 c73c 78a4 b7bc
000003e0: b170 42bd c762 3bbd 72a1 bb3c 6cca 86bd
000003f0: d006 3fbc b4e8 613c 90b7 cbbd 55f4 acbc

fc2.bias f4 [256]
-0.009851031 -0.0013278101 0.088372506 -0.052249704 -0.066487186 -0.05038266 0.27734947 -0.11897158
-0.038804464 -0.36064288 -0.082574114 -0.124668315 -0.044174604 -0.08993668 -0.07294615 0.28422418
0.0651334 0.26313773 0.44054386 -0.88580525 0.19068979 -0.08121535 -0.084652066 0.06496521
-0.094819285 0.099201515 -0.103071146 0.0986097 -0.036289267 -0.48735452 -0.05428914 -0.0024072311
-0.08507045 -0.06642871 0.03143691 -0.09299293 0.52975774 -0.039160382 -0.05708023 0.061914608
-0.06360207 0.6178975 -0.122415856 -0.09074826 0.7128376 -0.13087817 -0.08800078 -0.835871
-0.07613883 0.010581362 -0.08201194 -0.0007348257 -0.04252715 -0.012984627 0.8601852 -0.13501668
0.3289585 1.0310643 -0.09620385 -0.06644747 -0.12540449 -0.108716264 -0.0031096647 -0.09446814
0.08208368 0.8690514 0.018011512 -0.20418553 0.04931019 -0.059605405 -0.18494813 -0.13289355
-0.0576064 -0.1755915 0.06262055 0.57234645 -0.025302567 1.1412357 -0.073849246 -0.5569666
0.34761086 -0.052192625 -0.0481431 0.05235368 0.6298568 -0.00841307 -0.0645091 -0.17165294
-0.079152815 1.2874033 -2.1408567 -0.037417285 -0.078486644 -0.19588214 -0.006773358 -0.059914477
-0.7183233 -0.043448314 0.0044097174 -0.023953047 -0.03187703 0.35942167 -0.44362423 -0.07851312
-0.15789478 -0.025502415 -0.41174746 0.24500686 -0.07735605 -0.040491864 0.5145274 0.08600382
0.2064012 -0.11616933 -0.11057385 -0.15291443 0.103559636 -0.0020820852 -0.08456468 0.20424464
-0.03711859 -0.081254005 -0.93613464 0.0823734 0.22482458 -0.76835954 0.1830715 -0.10342964
-0.278257 -0.09055162 -0.15464592 0.008154686 -0.11557734 -0.027883168 -0.011918151 -1.5323434
-0.08625274 -0.9207054 -0.15257937 -0.14413197 -0.006070779 -0.41219503 -0.024685472 -0.13956764
-0.11736128 -0.38734096 -0.042777 -0.05857576 0.67678493 -0.03998398 -0.058363058 -0.09677954
-0.11865754 -0.07724339 0.035651203 -0.0074810134 -0.39128214 -0.08223025 0.0056787496 0.30460098
-0.0797171 1.0524917 -0.11563178 -0.004294676 -0.017291531 -0.053115796 -0.68038565 -0.12871315
-0.5811898 -0.21639185 -0.05085693 -0.16544993 -0.06700128 -0.13533327 -0.0067964965 -0.40339175
0.3800387 0.0054644546 0.021569904 -0.2942959 -0.12462538 -0.0047363164 -0.1287739 -0.07968636
0.11556949 -0.089214124 0.014629943 -0.074003674 0.7016047 0.008808414 -0.5992843 -0.11585171
0.0022316272 -0.013771435 0.2290386 -0.13097808 -0.12618373 0.782376 0.1488723 -0.06416518
-0.13264205 -0.01714955 0.23655087 -1.1475996 -0.10869551 0.47276023 -0.20823461 -0.11412245
-0.36713037 -0.07774275 -0.17718515 0.010876074 -0.08997575 -0.10828353 0.13710141 0.7530979
0.91124666 -0.1244528 -0.010977602 -0.123687595 0.2284482 -0.18146743 -0.16738425 -0.06573451
-0.014019554 -0.31698316 -0.078856945 0.8482066 0.282714 0.13339709 0.18272603 -0.082646504
-0.076238535 -0.04600225 -0.10932198 -0.031481527 0.25476015 -0.078394204 0.6628641 -1.6221011
-0.6379085 -0.66236997 0.42600915 -0.081246085 -0.4135941 -0.047962174 -0.025854582 -0.041296214
0.0019913863 0.30145434 -0.105608456 -0.026119728 0.3138036 -0.08322309 1.4333158 -0.09216804
00000000: 3866 21bc ea09 aeba a5fc b43d c903 56bd
00000010: 6f2a 88bd 0c5e 4ebd c000 8e3e 5fa7 f3bd
00000020: 6ef1 1ebd 2fa6 b8be 9e1c a9bd 1a52 ffbd
00000030: 6ef0 34bd b930 b8bd cb64 95bd d585 913e
00000040: a964 853d fdb9 863e f78e e13e 22c4 62bf
00000050: 2f44 433e 3c54 a6bd 105e adbd 7b0c 853d
00000060: 9d30 c2bd 2a2a cb3d f716 d3bd e2f3 c93d
00000070: 0ea4 14bd 8886 f9be 4a5e 5ebd a3c2 1dbb
00000080: 6b39 aebd c70b 88bd fdc3 003d 1473 bebd
00000090: 349e 073f a366 20bd f6cc 69bd 2c9a 7d3d
000000a0: cd41 82bd 882e 1e3f 2ab5 fabd 39da b9bd
000000b0: 867c 363f ed04 06be c139 b4bd a4fb 55bf
000000c0: adee 9bbd 735d 2d3c e0f5 a7bd 51a1 40ba
000000d0: f330 2ebd 79bd 54bc 1935 5c3f d041 0abe
000000e0: 406d a83e eaf9 833f 8606 c5bd 9c15 88bd
000000f0: 096a 00be a2a6 debd 84cb 4bbb 8378 c1bd
00000100: 7d1b a83d 277a 5e3f e18c 933c 0316 51be
00000110: 7bf9 493d cc24 74bd 0b63 3dbe 3f15 08be
00000120: b0f4 6bbd 42ce 33be 343f 803d 4c85 123f
00000130: 5447 cfbc 0314 923f 463e 97bd 5d95 0ebf
00000140: 0dfa b13e efc7 55bd b331 45bd d070 563d
00000150: 4c3e 213f f9d6 09bc 591d 84bd cac5 2fbe
00000160: df1a a2bd a2c9 a43f cc03 09c0 de42 19bd
00000170: 9bbd a0bd 5495 48be 0cf3 ddbb e268 75bd
00000180: 09e4 37bf dcf6 31bd 647f 903b 2e39 c4bc
00000190: 7d91 02bd 1e06 b83e b722 e3be 7dcb a0bd
000001a0: 2baf 21be 71ea d0bc 90d0 d2be 14e3 7a3e
000001b0: d96c 9ebd ccda 25bd 11b8 033f c522 b03d
000001c0: d65a 533e 30ea edbd 8b74 e2bd 9a95 1cbe
000001d0: 1317 d43d 9873 08bb 3f30 adbd 8225 513e
000001e0: aa09 18bd 8068 a6bd 85a6 6fbf 63b3 a83d
000001f0: 6a38 663e 36b3 44bf 1877 3b3e ebd2 d3bd
00000200: b477 8ebe 2173 b9bd 805b 1ebe 3b9b 053c
00000210: d0b3 ecbd 3e6b e4bc 5944 43bc d423 c4bf
00000220: 47a5 b0bd 59b3 6bbf c43d 1cbe 5597 13be
00000230: 63ed c6bb 3a0b d3be 3039 cabc d2ea 0ebe
00000240: 1c5b f0bd 8e51 c6be f036 2fbd 23ed 6fbd
00000250: c741 2d3f 3ec6 23bd 1a0e 6fbd 5a34 c6bd
00000260: b902 f3bd c831 9ebd ff06 123d 4a23 f5bb
00000270: 2256 c8be 5568 a8bd ce14 ba3b a9f4 9b3e
00000280: b842 a3bd 0cb8 863f 5bd0 ecbd 5aba 8cbb
00000290: f8a6 8dbc f38f 59bd c12d 2ebf 61cd 03be
000002a0: dbc8 14bf d395 5dbe 5b4f 50bd b56b 29be
000002b0: f837 89bd ce94 0abe 25b5 debb 5d89 cebe
000002c0: 6f94 c23e 2b0f b33b 5eb3 b03c f4ad 96be
000002d0: 973b ffbd 1a33 9bbb 4edd 03be 9a32 a3bd
000002e0: b2af ec3d e5b5 b6bd 6eb2 6f3c 3d8f 97bd
000002f0: 5e9c 333f 2b51 103c b26a 19bf a943 edbd
00000300: 7e40 123b 96a1 61bc 1889 6a3e 1e1f 06be
00000310: 4f36 01be cb49 483f fb71 183e 0969 83bd
00000320: 51d3 07be 377d 8cbc 643a 723e 8be4 92bf
00000330: c09b debd a10d f23e 743b 55be 08b9 e9bd
00000340: 83f8 bbbe 9737 9fbd 0670 35be 9031 323c
00000350: 3545 b8bd c1c3 ddbd 5064 0c3e 06cb 403f
00000360: 7647 693f 1ce1 febd 66db 33bc ec4f fdbd
00000370: 53ee 693e 99d2 39be c766 2bbe d19f 86bd
00000380: 45b2 65bc 9e4b a2be c07f a1bd 1124 593f
00000390: e4bf 903e 3f99 083e 881c 3b3e 9242 a9bd
000003a0: f322 9cbd db6c 3cbd 34e4 dfbd c6f2 00bd
000003b0: ec6f 823e 248d a0bd 76b1 293f 02a1 cfbf
000003c0: f94d 23bf 1491 29bf df1d da3e 5964 a6bd
000003d0: 9bc2 d3be fc73 44bd fdcc d3bc 3826 29bd
000003e0: eb81 023b 3958 9a3e 3f49 d8bd 0af9 d5bc
000003f0: deaa a03e de70 aabd e476 b73f 99c2 bcbd

fc3.weight f4 [128, 256]
0.04839179 0.005005385 -0.08528566 -0.038995743 0.07275433 -0.023119012 -0.6339774 0.046033952
0.08945936 -0.99521226 -0.073184595 -0.041469526 0.0025759703 0.00012834389 0.016264908 0.29308313
-0.14271641 0.27417699 -0.034272168 -0.92193955 0.21305513 0.019063275 0.0032885612 0.40833494
-0.0046966644 -0.24991281 0.034124028 -0.16546425 0.048035894 -0.104813635 -0.34967405 0.7503356
0.026233232 0.0022954643 -0.06771796 0.009993671 -1.0550467 0.02451929 -0.113932125 0.054888073
0.02130688 0.15880479 0.013461136 0.018441664 -0.52806014 -0.03656038 0.3110132 -0.9927033
0.062202778 -0.06509397 0.27485144 -0.042939343 0.0044443086 0.033441257 0.041410055 -0.2314471
-0.26777086 -0.18828721 0.40121618 -0.019512951 -0.009970568 -0.14258663 -0.09044843 -0.02391196
0.24693541 -0.5553179 0.048984915 -0.0021022537 0.22822173 -0.0037969814 -1.5177264 0.010553911
-0.2263911 0.015876181 -0.023325624 -0.5098158 0.021179322 0.20750594 0.03782574 0.42017677
-0.38133764 -0.13236761 0.0024670756 -0.15344185 -1.3656384 -0.0059382645 0.013005406 0.17082614
-0.039488476 0.14432487 -0.7124859 -0.016442366 0.04186327 0.1541272 -0.045561932 -0.038350176
-0.22753784 -0.010568522 0.11052913 -0.05975127 0.09964639 -0.22767863 -0.3278468 0.022777148
-0.066472076 -0.2643209 -0.90628505 0.64751816 -0.1535931 -0.019077007 0.054731052 0.027827594
-0.1643354 -0.09323745 0.0034948897 -0.009030856 -0.28011933 -0.027597882 -0.049864836 0.2749612
-0.04253687 -0.04192678 -2.3628004 0.54117054 0.44639653 0.27718 0.5150614 0.04318313
0.047050223 -0.05558806 0.061824173 -0.06621927 -0.0009853377 -1.0017083 -0.011407785 -0.42144305
-0.016666465 -0.11899976 0.0013058633 -0.007049218 -0.5667811 0.65111303 0.009661587 -0.03593062
0.060952097 0.49540764 -0.064076915 0.043365616 -0.099936634 -0.012446657 -0.049253065 -0.017401827
-0.026869835 0.40603074 -1.2800789 0.044121593 -0.35159338 -0.039460905 0.055517863 -1.0837995
-0.053121142 -0.08593614 0.05965511 0.026704298 -0.27783835 -0.044154283 -0.6529953 -0.13980216
-0.06802532 -0.25132912 0.025971547 -0.4386584 0.015307657 -0.39218614 -0.12818816 1.2799796
0.005595607 -0.67214334 0.24119161 -0.20850465 -0.09247971 -0.013265208 -0.05009589 0.038132455
-0.13424948 0.0013680775 -0.07191575 0.0047932966 -0.79082566 -0.054852244 0.39951044 0.08642234
0.036546692 0.010599619 0.30949825 -0.011361119 -0.022207897 1.7037232 -0.49037844 0.0020509677
-1.024161 0.03519806 0.427146 0.0866178 -0.03525599 0.3529885 -0.004598522 -0.0018243771
-0.3079074 -0.030574553 0.3946241 -0.005982368 0.04931604 0.2706864 0.040702354 -1.0132426
0.23551808 -0.24057761 0.041498348 -0.043720104 0.007243948 -0.29160178 0.001542833 0.04606251
0.039883453 -0.7504923 0.0054448093 -0.4279789 -0.23618041 -0.011124642 0.3521019 -0.22329514
0.030752238 -0.010186087 -0.0154530555 0.056069873 0.42609087 -0.0038250054 -1.0682828 0.0857101
-0.90287304 -0.23789258 0.006715852 -0.034433477 0.047281504 0.6772012 0.0032442787 0.05220912
0.065175585 -0.40871218 0.057392016 0.07212036 0.27234256 -0.028747596 0.6696372 -0.06444905
00000000: 7836 463d 3604 a43b 40aa aebd 00ba 1fbd
00000010: 3900 953d 1564 bdbc 584c 22bf 198e 3c3d
00000020: 7836 b73d 3bc6 7ebf cee1 95bd f3db 29bd
00000030: 9cd1 283b 0d94 0639 fc3d 853c fe0e 963e
00000040: 4024 12be ed60 8c3e f960 0cbd 3b04 6cbf
00000050: 202b 5a3e 962a 9c3c e784 573b 4711 d13e
00000060: 7ae6 99bb 25e9 7fbe a3c5 0b3d 766f 29be
00000070: 49c1 443d 88a8 d6bd 7a08 b3be fe15 403f
00000080: 13e7 d63c 806f 163b b7af 8abd 7fbc 233c
00000090: c50b 87bf aedc c83c 3f55 e9bd 51d2 603d
000000a0: c48b ae3c b99d 223e 198c 5c3c f912 973c
000000b0: f32e 07bf 56c0 15bd 1f3d 9f3e ce21 7ebf
000000c0: 57c8 7e3d fd4f 85bd 54b9 8c3e 2ae1 2fbd
000000d0: 90a1 913b b3f9 083d 979d 293d 7800 6dbe
000000e0: 4319 89be 5dce 40be 356c cd3e a0d9 9fbc
000000f0: 985b 23bc 3b02 12be 073d b9bd 04e3 c3bc
00000100: a3dc 7c3e 5029 0ebf 68a4 483d f7c5 09bb
00000110: f5b2 693e c7d6 78bb dc44 c2bf 50ea 2c3c
00000120: 12d3 67be c40e 823c 6115 bfbc 4a83 02bf
00000130: 4280 ad3c 707c 543e 2aef 1a3d 6921 d73e
00000140: b03e c3be 608b 07be a9ae 213b dc1f 1dbe
00000150: 3dcd aebf c695 c2bb a014 553c 0ced 2e3e
00000160: abbe 21bd e6c9 133e 7a65 36bf 24b2 86bc
00000170: d278 2b3d 85d3 1d3e 269f 3abd 1315 1dbd
00000180: aeff 68be 9827 2dbc 195d e23d bfbd 74bd
00000190: 6813 cc3d 9624 69be 89db a7be 2497 ba3c
000001a0: 8322 88bd 1255 87be 4c02 68bf c0c3 253f
000001b0: 8247 1dbe 6247 9cbc ab2d 603d b2f6 e33c
000001c0: 8a47 28be 47f3 bebd 850a 653b 28f6 13bc
000001d0: cd6b 8fbe f414 e2bc 123f 4cbd b7c7 8c3e
000001e0: 243b 2ebd 6abb 2bbd 1f38 17c0 278a 0a3f
000001f0: 168e e43e 89ea 8d3e 10db 033f cbe0 303d
00000200: bcb7 403d 4eb0 63bd 583b 7d3d f89d 87bd
00000210: 7226 81ba fa37 80bf b8e7 3abc 62c7 d7be
00000220: 1c88 88bc 25b6 f3bd 8029 ab3a 20fd e6bb
00000230: 9118 11bf 58af 263f a24b 1e3c fc2b 13bd
00000240: e8a8 793d 12a6 fd3e c23a 83bd 25a0 313d
00000250: 94ab ccbd 10ed 4bbc 95bd 49bd 478e 8ebc
00000260: 211e dcbc 43e3 cf3e a0d9 a3bf d8b8 343d
00000270: 0c04 b4be c2a1 21bd b366 633d f1b9 8abf
00000280: 8e95 59bd 49ff afbd eb58 743d f9c2 da3c
00000290: d440 8ebe 1fdb 34bd b32a 27bf 4c28 0fbe
000002a0: dc50 8bbd 36ae 80be 48c2 d43c d597 e0be
000002b0: f8cc 7a3c 9fcc c8be c243 03be 5fd6 a33f
000002c0: 5b5b b73b 9611 2cbf effa 763e 3e82 55be
000002d0: 0166 bdbd 5156 59bc 5931 4dbd c730 1c3d
000002e0: b278 09be 1051 b33a 9148 93bd 1611 9d3b
000002f0: 8d73 4abf bfac 60bd a28c cc3e 32fe b03d
00000300: fcb1 153d 06aa 2d3c 8e76 9e3e fd23 3abc
00000310: 56ed b5bc 9a13 da3f e212 fbbe 8769 063b
00000320: b517 83bf d72b 103d e1b2 da3e ac64 b13d
00000330: 9668 10bd e9ba b43e 33af 96bb f01f efba
00000340: 0aa6 9dbe 7c77 fabc 2c0c ca3e bd07 c4bb
00000350: 9eff 493d 6897 8a3e 83b7 263d efb1 81bf
00000360: a72b 713e fa59 76be 2cfa 293d da13 33bd
00000370: a45e ed3b d44c 95be e338 ca3a 0bac 3c3d
00000380: d55c 233d 4320 40bf 5f6a b23b 0d20 dbbe
00000390: 47d9 71be 2144 36bc b346 b43e 7ba7 64be
000003a0: 1eec fb3c 8ce3 26bc d02e 7dbc 86a9 653d
000003b0: 9528 da3e f1ac 7abb 7ebd 88bf c788 af3d
000003c0: b022 67bf 1d9a 73be a610 dc3b 1e0a 0dbd
000003d0: 40aa 413d 0f5d 2d3f f79d 543b 3bd9 553d
000003e0: c77a 853d b942 d1be e413 6b3d d7b3 933d
000003f0: 7c70 8b3e 1480 ebbc 586d 2b3f ddfd 83bd

fc3.bias f4 [128]
0.3942571 -0.35753384 1.2108889 0.015617308 -0.33390737 1.036846 -0.033364136 -0.17422302
-0.30280918 -0.18949856 -0.12715447 -1.4350742 0.49198222 -0.10062445 0.82661396 -0.016506596
0.23894113 0.9221362 -0.2576802 -1.2555684 0.6254655 -0.20801672 0.018493753 -0.60142225
-0.4749201 0.48782647 -0.8076446 -0.133799 -0.37053224 -1.6550539 -1.2242616 -0.030455444
-1.2185909 -0.12884678 0.67512536 0.19645098 -0.17442033 -0.08833898 -0.0504387 -0.05757152
0.7356766 1.0920959 -0.13717753 1.7147303 -0.07953508 0.26042312 1.373725 1.2047061
-0.2833589 0.431564 -0.07013532 0.2052709 -1.1273221 -0.12416407 -0.7677362 -0.06977988
-0.6935092 0.98972744 -0.10980581 -0.122395545 0.14348209 0.8734107 -0.9425749 0.38761225
-0.25080872 -0.30989614 -1.4970773 -0.03850908 -0.22058983 -0.23049657 0.54696494 -0.09605742
0.21288787 -0.31801614 -0.7000312 -0.097540766 -0.08982829 -0.08857799 -0.09467407 -0.20488442
-0.1357495 -0.04745807 -0.20439225 -0.31210536 0.5053299 -0.13159072 -0.44588938 0.094768845
-0.075746395 0.01077177 0.44274053 -0.49000913 0.2587785 -0.7811509 1.1056753 0.33500502
1.2504202 -0.1470926 -0.33819735 0.01672787 -0.13076094 -0.017185709 -0.18044049 -0.48271427
-0.118811585 -0.17417336 -1.492452 0.6057624 -0.12075012 -0.065366544 0.97354597 -0.06658833
-0.16383371 0.33993497 -0.1560079 0.20383795 0.42394817 2.086173 -1.956876 -0.048063274
-0.085178375 0.8448277 0.90515107 -1.2632239 -0.63437843 0.1880915 0.3260687 1.9483994
00000000: 11dc c93e ad0e b7be 68fe 9a3f bddf 7f3c
00000010: e8f5 aabe 5fb7 843f d5a8 08bd 8567 32be
00000020: ce09 9bbe e90b 42be c834 02be 83b0 b7bf
00000030: 18e5 fb3e 3114 cebd f99c 533f d738 87bc
00000040: fcac 743e 1e11 6c3f a9ee 83be 77b6 a0bf
00000050: 821e 203f 5602 55be 3680 973c cff6 19bf
00000060: ba28 f3be 64c4 f93e ccc1 4ebf 9b02 09be
00000070: 67b6 bdbe ced8 d3bf 9bb4 9cbf b27d f9bc
00000080: c9fa 9bbf 69f0 03be 04d5 2c3f 722a 493e
00000090: 3e9b 32be 11eb b4bd cf98 4ebd 1dd0 6bbd
000000a0: 4d55 3c3f ccc9 8b3f 4478 0cbe 487c db3f
000000b0: 4ae3 a2bd 2e56 853e 39d6 af3f cf33 9a3f
000000c0: 6b14 91be f5f5 dc3e 1ba3 8fbd 8932 523e
000000d0: 174c 90bf bb49 febd 5c8a 44bf c1e8 8ebd
000000e0: d289 31bf c75e 7d3f dee1 e0bd 84aa fabd
000000f0: f8ec 123e d897 5f3f 974c 71bf 1d75 c63e
00000100: 006a 80be b5aa 9ebe 3ba0 bfbf b2bb 1dbd
00000110: 4de2 61be 4b07 6cbe e505 0c3f c1b9 c4bd
00000120: 47ff 593e 03d3 a2be 3f35 33bf 74c3 c7bd
00000130: e5f7 b7bd 6168 b5bd 7be4 c1bd 39cd 51be
00000140: eb01 0bbe 6563 42bd 344c 51be 46cc 9fbe
00000150: 4d5d 013f b8bf 06be 9d4b e4be 2b16 c23d
00000160: ed20 9bbd 147c 303c e3ae e23e 7ae2 fabe
00000170: 9e7e 843e 81f9 47bf c586 8d3f c785 ab3e
00000180: c50d a03f 719f 16be 3428 adbe e308 893c
00000190: 32e6 05be 0bc9 8cbc 64c5 38be 5326 f7be
000001a0: 7d53 f3bd 805a 32be ab08 bfbf 3f13 1b3f
000001b0: d74b f7bd e5de 85bd 4f3a 793f 765f 88bd
000001c0: 06c4 27be f50b ae3e 89c0 1fbe e5ba 503e
000001d0: bc0f d93e dc83 0540 ea7a fabf ffdd 44bd
000001e0: 0072 aebd a146 583f fbb7 673f 52b1 a1bf
000001f0: a066 22bf 0f9b 403e 7af2 a63e 2765 f93f

fc4.weight f4 [64, 128]
-0.3058139 0.031925008 0.2842491 -0.14425404 -0.33031288 -0.6271848 -0.053309903 0.3277487
-0.2567783 -0.16584986 0.05270239 -0.3874066 0.09636445 -0.072056495 0.72526187 -0.27306932
-0.32350484 -0.70419973 0.15190813 -0.72383153 -0.5049265 -0.121830784 -0.02037543 -0.29508603
-0.11501101 -0.25829303 -0.33741736 -0.07320043 0.5278004 -0.06466714 -1.2717516 -0.1411572
-0.60733795 0.030010419 -0.1787231 -0.10308055 -0.25599852 -2.406264e-05 -0.6906972 -0.13985124
-0.19755745 0.19872347 -0.0589525 -0.24437277 0.0019985794 -0.018933784 -0.12500113 0.11054867
-0.09142533 -0.041087598 -0.2010943 -0.08505785 -0.77987546 -0.0661635 -0.90993226 0.15862028
0.08461138 -0.0010807086 0.03937109 -0.009253053 0.1685796 -0.14623465 -1.1249657 -0.23918681
-0.036021005 0.19946492 0.2882446 0.035348352 -0.01029765 0.37482917 -0.17108169 -0.03124007
-0.059719875 0.109575085 -0.21008623 0.02121191 0.013955399 0.010378623 0.06656189 -0.34491006
-0.06778872 0.057207126 -0.30151027 0.23809698 0.3075807 0.17006959 -0.81476915 0.54129946
-0.16191724 -0.14108133 0.53800255 -0.716949 0.35819572 -0.08179834 -0.035997566 -0.43080816
-0.27434447 -0.12453005 0.10132568 -0.15908445 0.010175887 -0.034030955 -0.00506654 0.043239664
-0.076390564 0.0026283637 -0.23817454 0.031840466 -0.056186933 0.16896336 -0.60405385 0.0065587554
0.022821384 -0.27475598 -0.06987757 -0.17528118 -0.48969442 0.26540098 -0.0022604738 0.06434495
-0.04702876 0.08968063 0.15463692 -0.40325862 -0.48296466 -0.4307408 0.23752135 -0.5430992
-0.15617275 -0.33209044 -0.13870157 -0.034318503 -0.027593428 -0.41570905 -0.09445277 -0.1782462
0.035286903 -0.15488768 0.04780048 -0.07290476 -0.075492665 -0.10264859 0.00757599 -0.014437865
-0.19664143 -0.1111125 -0.21397986 -0.23512879 -0.36584136 -0.011471029 -0.03127428 -0.1894914
-0.26808313 0.08226382 0.063512266 -0.009491171 -0.19216594 0.003775522 -0.036710422 -0.12878238
0.0560354 0.08678538 -0.16080339 0.049019095 0.03638615 0.021349883 -0.21659482 0.051425956
-0.031030957 -0.051072486 0.004670222 -0.041222844 -0.08865302 0.011362815 -0.035584882 -0.33163217
-0.07407902 -0.01757709 -0.18854232 0.086846955 -0.118867524 -0.17161739 -0.16692902 0.0067371554
-0.16943999 -0.16495731 0.009599314 0.00070655777 -0.022743613 -0.04751169 0.0520895 0.055696778
0.032368775 0.040161155 0.0013457846 -0.010825157 -0.124566905 -0.027554562 -0.08644558 0.070139825
-0.31880194 0.008370659 -0.01982555 -0.04046346 -0.008409686 -0.013162147 -0.008302071 -0.22396675
-0.10335205 0.049356863 -0.00716879 -0.09847811 -0.08790134 -0.10260133 0.030057255 0.037964724
-0.008399534 0.015243731 -0.008730225 0.067832336 -0.30153418 -0.1162138 -0.10687883 0.013651418
0.062277965 0.084530495 0.048689596 -0.10244558 -0.1550715 0.025329294 -0.04525328 -0.11853527
-0.091538414 -0.040729117 0.053611103 -0.08971712 0.10059135 -0.048570182 0.028166078 -0.11622635
-0.24541923 -0.11935947 -0.07544597 -0.15309598 -0.16198471 -0.013091238 -0.110889986 -0.1351795
-0.07250023 -0.258747 -0.13432077 -0.091221675 0.08263286 -0.3239413 -0.0059515554 -0.13265584
00000000: a493 9cbe ccc3 023d 1989 913e 55b7 13be
00000010: c51e a9be 2f8f 20bf 7c5b 5abd adce a73e
00000020: 7278 83be 8cd4 29be 76de 573d 285a c6be
00000030: ba5a c53d 5b92 93bd c3aa 393f becf 8bbe
00000040: 6da2 a5be 6f46 34bf ce8d 1b3e 064d 39bf
00000050: dd42 01bf 6b82 f9bd 60ea a6bc 8415 97be
00000060: e48a ebbd fc3e 84be f8c1 acbe 1bea 95bd
00000070: ed1d 073f 3570 84bd c2c8 a2bf 838b 10be
00000080: 807a 1bbf 69d8 f53c 3003 37be e51b d3bd
00000090: 3d12 83be 20da c9b7 88d1 30bf 2a35 0fbe
000000a0: 804c 4abe 2a7e 4b3e 2d78 71bd db3c 7abe
000000b0: 99fa 023b 061b 9bbc 4c00 00be 5767 e23d
000000c0: 343d bbbd 784b 28bd aaeb 4dbe cf32 aebd
000000d0: eba5 47bf bb80 87bd 52f1 68bf 5b6d 223e
000000e0: bb48 ad3d 90a6 8dba 9443 213d 1e9a 17bc
000000f0: 21a0 2c3e 89be 15be e0fe 8fbf 63ed 74be
00000100: c38a 13bd 8840 4c3e cc94 933e 6fc9 103d
00000110: 79b7 28bc 9ce9 bf3e 0a30 2fbe 2deb ffbc
00000120: d49c 74bd e768 e03d d820 57be 99c4 ad3c
00000130: 30a5 643c 1a0b 2a3c 9a51 883d 0d98 b0be
00000140: d0d4 8abd 0552 6a3d 8e5f 9abe b2cf 733e
00000150: 387b 9d3e b926 2e3e b694 50bf 9a92 0a3f
00000160: a2cd 25be a077 10be 89ba 093f f889 37bf
00000170: 6e65 b73e e385 a7bd 2f72 13bd e392 dcbe
00000180: e176 8cbe 9c09 ffbd d783 cf3d 09e7 22be
00000190: c3b8 263c 0b64 0bbd 3805 a6bb 131c 313d
000001a0: a872 9cbd a040 2c3b 07e4 73be 266b 023d
000001b0: 4524 66bd bb04 2d3e 46a3 1abf d4ea d63b
000001c0: e9f3 ba3c d1ac 8cbe f91b 8fbd e97c 33be
000001d0: 3ab9 fabe a3e2 873e 7524 14bb 49c7 833d
000001e0: 3ba1 40bd 7aaa b73d 2459 1e3e ea77 cebe
000001f0: 2547 f7be 0f8a dcbe cc38 733e 8d08 0bbf
00000200: c0eb 1fbe c207 aabe c907 0ebe 8f91 0cbd
00000210: 9d0b e2bc d1d7 d4be 7470 c1bd 2c86 36be
00000220: 0089 103d e09a 1ebe 70ca 433d 174f 95bd
00000230: e69b 9abd 6d39 d2bd 0340 f83b cb8c 6cbc
00000240: 5f5c 49be f38e e3bd 891d 5bbe 9ac5 70be
00000250: 8f4f bbbe fcf0 3bbc 7619 00bd 090a 42be
00000260: 3142 89be ef79 a83d b812 823d db80 1bbc
00000270: 26c7 44be c06e 773b ab5d 16bd 87df 03be
00000280: 6085 653d 89bc b13d a5a9 24be 3fc8 483d
00000290: a509 153d f3e5 ae3c 08cb 5dbe 06a4 523d
000002a0: a234 febc 6231 51bd a908 993b 49d9 28bd
000002b0: b78f b5bd 1a2b 3a3c 74c1 11bd b1cb a9be
000002c0: beb6 97bd d4fd 8fbc 3d11 41be d1dc b13d
000002d0: d170 f3bd 78bc 2fbe 71ef 2abe 5bc3 dc3b
000002e0: ad81 2dbe 92ea 28be 7146 1d3c 4a38 393a
000002f0: d050 babc 9e9b 42bd cd5b 553d 4e22 643d
00000300: 1f95 043d 0680 243d 0a65 b03a 005c 31bc
00000310: ef1c ffbd 1bba e1bc 610a b1bd 78a5 8f3d
00000320: 023a a3be 1725 093c 3169 a2bc 03bd 25bd
00000330: c8c8 09bc 0ca6 57bc 6905 08bc 8a57 65be
00000340: 3daa d3bd 6c2a 4a3d 2be8 eabb e4ae c9bd
00000350: 9e05 b4bd a520 d2bd a23a f63c e680 1b3d
00000360: 339e 09bc d8c0 793c 3809 0fbc aeeb 8a3d
00000370: b062 9abe 8001 eebd 4ae3 dabd 32aa 5f3c
00000380: 2e17 7f3d 531e ad3d be6e 473d fdce d1bd
00000390: 10cb 1ebe 617f cf3c 815b 39bd 9fc2 f2bd
000003a0: 7e78 bbbd 93d3 26bd 5197 5b3d 9cbd b7bd
000003b0: d602 ce3d 87f1 46bd 8cbc e63c 1508 eebd
000003c0: 2e4f 7bbe bd72 f4bd 6b83 9abd 31c5 1cbe
000003d0: 52df 25be a27c 56bc 4a1a e3bd 7f6c 0abe
000003e0: 007b 94bd 7d7a 84be 628b 09be 6ed2 babd
000003f0: 6b3b a93d a2db a5be 4405 c3bb efd6 07be

fc4.bias f4 [64]
-0.07058297 -0.22049409 -0.15281376 -0.14450796 0.7507065 0.02846588 -1.143764 0.24426296
-0.3813628 -0.11153341 0.66751355 4.8330884 -0.06463194 -0.1595675 -0.06427325 -0.019904377
-0.22843142 2.3524415 -0.18698984 -0.16595468 -0.044465628 0.10982418 0.292769 -0.042230573
-0.17269823 0.57773477 -0.07760254 -0.17346746 0.5917847 -0.05438333 1.675191 0.40409103
0.9725576 -0.12991898 0.09581751 -0.1343924 0.030624986 0.6379203 -0.07870153 0.12588815
-0.23422416 -0.18798621 -0.14392245 0.007167031 0.00997414 0.20873834 -1.0111582 1.7554777
0.12519841 0.53557754 -0.03737287 -0.0046159257 -0.014428463 0.06780572 0.18193115 -2.938783e-05
-0.010820853 0.3121075 -0.12676476 -0.12448355 -0.23801689 -0.13673535 -0.13274391 0.38224432
00000000: ce8d 90bd 34c9 61be 367b 1cbe e5f9 13be
00000010: 4d2e 403f 4731 e93c dc66 92bf 1220 7a3e
00000020: fc41 c3be a16b e4bd 2be2 2a3f a9a8 9a40
00000030: c05d 84bd aa65 23be b2a1 83bd 810e a3bc
00000040: ede9 69be 678e 1640 447a 3fbe 06f0 29be
00000050: 9721 36bd 80eb e03d d2e5 953e f7f9 2cbd
00000060: ced7 30be 6de6 133f 15ee 9ebd 74a1 31be
00000070: 347f 173f 0ec1 5ebd a96c d63f 05e5 ce3e
00000080: 89f9 783f 7b09 05be f83b c43d 299e 09be
00000090: 40e1 fa3c bf4e 233f 452e a1bd d3e8 003e
000000a0: 75d8 6fbe 757f 40be 6860 13be 6ad9 ea3b
000000b0: 936a 233c 81bf 553e a26d 81bf 7eb3 e03f
000000c0: 0334 003e 9c1b 093f 4b14 19bd 3141 97bb
000000d0: 5c65 6cbc badd 8a3d 294c 3a3e e285 f6b7
000000e0: f249 31bc 8ecc 9f3e 9fce 01be 3bf1 febd
000000f0: b3ba 73be 5a04 0cbe 05ee 07be 87b5 c33e

fc5.weight f4 [4, 64]
0.32691756 0.05855405 0.03615024 -0.06858858 0.12316215 0.5990817 0.61321133 0.4872339
0.15866484 -0.018143034 0.22191422 0.26360464 -0.07080408 -0.013474246 0.33921432 0.53782666
-0.057964757 -0.50783485 -0.027745409 0.03009979 -0.038903017 0.31330377 0.44964975 0.18685785
0.04026676 0.023641437 0.28217706 0.15183768 0.1048376 0.32722074 0.30978432 0.19487971
0.037824225 0.16115324 0.062105943 0.04737108 -0.09209788 0.12915002 0.033911355 0.030315286
0.10836562 0.25285503 0.01145148 0.15107709 -0.0146416705 0.12449151 0.59900266 -0.22894864
-0.47155207 0.32181537 -0.012199433 0.4979578 -0.12742755 0.31344998 0.22429498 0.4915923
0.01613326 0.21281388 -0.09157076 0.11851656 0.08148101 0.037111714 0.08447252 0.6084363
0.47185525 0.10099011 -0.024226993 -0.026736442 0.15456547 0.3904758 0.7723336 0.32439533
-0.024491508 0.047964368 0.019237276 0.26297054 0.03239958 0.013189661 0.27743524 0.3474617
-0.12867707 -0.52087414 -0.10775254 0.012337635 0.025673883 0.46645594 0.2202117 0.11614364
0.009612209 0.3360573 -0.0098835 -0.1687288 0.4188051 0.4063135 0.21525793 0.35739818
0.41852552 -0.19258392 0.030847404 -0.12466021 0.058939435 0.11099882 0.071117125 -0.010405133
0.016798537 0.69677484 -0.0037339563 -0.41548312 -0.05312052 0.2672951 0.58375007 -0.20141709
0.037959237 0.44457936 -0.005028381 0.3259696 0.00044058712 0.31231186 0.3224709 0.386777
-0.053368013 -0.066555575 -0.052434385 -0.074063115 -0.096266896 0.025708688 0.0806349 0.6275503
0.3534739 0.007667895 0.050310034 -0.07418967 0.22557649 0.5558182 0.6290194 0.5085775
0.16230209 0.03317343 0.37972575 0.25778696 -0.002821368 -0.0033550109 0.44834128 0.3974944
0.02483314 -0.49406603 0.06851403 0.015070031 0.051780112 0.40165326 0.58133864 0.34029144
0.026755968 0.2761046 0.0032792857 0.079896666 0.28822657 0.093832836 0.25733775 0.5023244
-0.2906558 0.04060504 0.5401916 0.0208934 0.084519185 0.12173144 0.020489048 0.005818571
0.04199558 0.1334139 -0.01178673 0.08934689 -0.027103115 0.05490445 0.44111076 -0.34594545
0.14880666 0.3416578 -0.04071014 0.19978444 -0.12937503 0.31933066 0.3491167 0.28935975
0.04261396 0.16625215 0.0028695548 0.26163822 0.120570675 0.017045742 0.03167685 0.53876865
0.42190537 0.0676649 0.039979123 -0.16545661 0.16941102 0.5157713 0.651677 0.37669992
-0.098450676 -0.00095622684 0.19341592 0.25794387 0.07804227 0.07286763 0.72368944 0.3589671
0.07208758 -0.5177156 -0.039027154 -0.020274935 -0.015163348 0.50126106 0.5645299 0.26659366
0.04580241 0.21482448 -0.084090956 0.33563676 0.48915 -0.17959777 0.27195847 0.38440782
0.44059408 0.14538775 0.28392547 -0.12679544 0.026504336 -0.008746513 -0.038660694 -0.021220388
-0.019564714 -0.076555155 0.030903257 0.12283656 -0.01200468 0.34287328 0.41473198 -0.16464068
-0.029624013 0.26898602 0.013502614 -0.3622926 -0.03150957 0.33992553 0.32275492 -0.23397653
0.010248634 0.19152324 0.019007748 0.123622164 0.08768576 -0.078827225 -0.022252208 0.5789142
00000000: bd61 a73e 5fd6 6f3d 4612 143d 2b78 8cbd
00000010: 703c fc3d 6b5d 193f 6bfb 1c3f b976 f93e
00000020: 0979 223e b3a0 94bc 7b3d 633e 30f7 863e
00000030: bb01 91bd 15c3 5cbc 80ad ad3e 02af 093f
00000040: 746c 6dbd 7701 02bf 574a e3bc d693 f63c
00000050: c558 1fbd 5a69 a03e 7e38 e63e aa57 3f3e
00000060: c2ee 243d b0ab c13c 8379 903e 567b 1b3e
00000070: 18b5 d63d 7a89 a73e 0d9c 9e3e 8c8e 473e
00000080: 93ed 1a3d 5b05 253e cd62 7e3d 2d08 423d
00000090: d09d bcbd e73f 043e a2e6 0a3d c357 f83c
000000a0: cbee dd3d 3776 813e fd9e 3b3c f4b3 1a3e
000000b0: 9ee3 6fbc 68f5 fe3d 3d58 193f 8371 6abe
000000c0: 466f f1be fcc4 a43e 21e0 47bc 53f4 fe3e
000000d0: 5e7c 02be 847c a03e 95ad 653e fcb1 fb3e
000000e0: e629 843c e2eb 593e 7389 bbbd cfb8 f23d
000000f0: 84df a63d 7402 183d eeff ac3d 7bc2 1b3f
00000100: 0397 f13e e7d3 ce3d b077 c6bc 6206 dbbc
00000110: 6946 1e3e 72ec c73e a8b7 453f 2517 a63e
00000120: 6aa2 c8bc 4976 443d 7e97 9d3c 13a4 863e
00000130: 6cb5 043d 7319 583c fe0b 8e3e 80e6 b13e
00000140: ecc3 03be 0258 05bf 5dad dcbd cb23 4a3c
00000150: 0952 d23c 50d3 ee3e 2d7f 613e b7dc ed3d
00000160: 877c 1d3c b40f ac3e 67ee 21bc 3ec7 2cbe
00000170: 9f6d d63e 5308 d03e 936c 5c3e e5fc b63e
00000180: fa48 d63e b834 45be b2b3 fc3c da4d ffbd
00000190: 7a6a 713d 5953 e33d dba5 913d 4a7a 2abc
000001a0: 169d 893c d65f 323f 64b5 74bb 34ba d4be
000001b0: e794 59bd e7da 883e a570 153f 4840 4ebe
000001c0: 257b 1b3d e89f e33e 1ec5 a4bb 7de5 a63e
000001d0: 9afe e639 57e7 9f3e e81a a53e a307 c63e
000001e0: 6b98 5abd 4a4e 88bd 70c5 56bd 67ae 97bd
000001f0: 9427 c5bd 079b d23c e923 a53d 23a7 203f
00000200: 88fa b43e f742 fb3b e511 4e3d c1f0 97bd
00000210: 86fd 663e 1a4a 0e3f 6a07 213f 2332 023f
00000220: 8532 263e dde0 073d 6a6b c23e a7fc 833e
00000230: b3e6 38bb bedf 5bbb fd8c e53e 6384 cb3e
00000240: df6e cb3c 39f6 fcbe 1551 8c3d 4be8 763c
00000250: 6217 543d 7fa5 cd3e 9cd2 143f ae3a ae3e
00000260: 552f db3c 955d 8d3e 49e9 563b dda0 a33d
00000270: 6f92 933e 6e2b c03d c6c1 833e 5598 003f
00000280: d6d0 94be 7851 263d ff49 0a3f a328 ab3c
00000290: 6518 ad3d 554e f93d a6d8 a73c b6a9 be3b
000002a0: 8f03 2c3d a79d 083e 211d 41bc 81fb b63d
000002b0: 5a07 debc 7de3 603d 45d9 e13e c31f b1be
000002c0: c660 183e c5ed ae3e adbf 26bd 4b94 4c3e
000002d0: e37a 04be 4f7f a33e 6dbf b23e f626 943e
000002e0: fa8b 2e3d 013e 2a3e 240f 3c3b 72f5 853e
000002f0: c2ed f63d 83a3 8b3c 96bf 013d beec 093f
00000300: fb03 d83e e593 8a3d 26c1 233d 756d 29be
00000310: 157a 2d3e 9709 043f 4ed4 263f d0de c03e
00000320: 82a0 c9bd 4cab 7aba d30e 463e 3811 843e
00000330: a0d4 9f3d a03b 953d b643 393f 89ca b73e
00000340: a7a2 933d 0289 04bf f0da 1fbd 9f17 a6bc
00000350: b16f 78bc a552 003f 0885 103f f77e 883e
00000360: 4f9b 3b3d f3fa 5b3e e137 acbd 95d8 ab3e
00000370: de71 fa3e 7ae8 37be 243e 8b3e 1ad1 c43e
00000380: 8c95 e13e 87e0 143e ae5e 913e aad6 01be
00000390: 9f1f d93c 894d 0fbc ad5a 1ebd 61d6 adbc
000003a0: 2e46 a0bc f3c8 9cbd d428 fd3c bc91 fb3d
000003b0: 47af 44bc 168d af3e c057 d43e 9197 28be
000003c0: 0fae f2bc 89b8 893e 113a 5d3c 6a7e b9be
000003d0: 2e10 01bd b80a ae3e 2240 a53e 8b97 6fbe
000003e0: e3e9 273c ab1e 443e 23b6 9b3c 9e2d fd3d
000003f0: 9794 b33d 2b70 a1bd 434a b6bc b933 143f

fc5.bias f4 [4]
-15.657886 -16.188158 -15.491057 -14.889954
00000000: b386 7ac1 5981 81c1 5fdb 77c1 403d 6ec1
