model/DDQN with batchnorm/EX1_Player_model_epoch_4000.pth (torch_old, 854519 bytes, 10 tensors)

fc1.weight f4 [256, 57]
00000000: 3066 8a3f 1d0f 00bf b9cf 963e bfe8 a8bf
00000010: 143d 573f 8b35 dcbe e3dc 0d3f 8012 043e
00000020: 0d38 923e b41c c93d 4db2 173e 9ee7 5bbf
00000030: ede6 96bd a7dd 84bf 6b2b 8b3e 465c 37bf
00000040: 1494 443f 5f20 e23e a528 7f3e 9cb3 1e3e
00000050: 20ab c8be 03c0 ee3e 35ea 65bf 36cb 03c0
00000060: 951b bbbf a72a f9be 8e35 79bf 2527 62bf
00000070: 68c5 aabd 6b12 2ebf 427a 53bd 7762 853f
00000080: 676d 9ebe 850b 94bf e67f 9fbe cdfb b1be
00000090: 3723 96bf 9c4b d7bd 1016 723d 5979 23bf
000000a0: 6042 e43b 4dff 86be b6b1 2ebf 9061 9bbf
000000b0: 11d1 87be 101b 35bd 15da 80bf 2ab4 a73d
000000c0: dea1 d3be 1229 8cbf 2edc 15bf 17e5 61bc
000000d0: f4d1 84bf b348 843e c75a 1ebf 4e88 95bf
000000e0: ee97 1a3e 2133 f93d 7016 85be c4e8 de3c
000000f0: 9fc0 c2bd 7b66 463e ecc3 5abe aff7 663e
00000100: 1b88 81bd 9666 5b3e 6f7e bcbd 85d5 ff3d
00000110: 7010 acbd bbdf 773e 07ed 83be ec8b e03d
00000120: b4d8 b8bd 73d3 203e b8c6 cdbd 00ce 0f3e
00000130: cc75 71be 1340 51be 1226 d23c 8769 c4be
00000140: b534 6abe 883e 0b3d f460 2f3d e148 dcbe
00000150: 4811 883d e8c9 b6bc 5ffb 9d3e 9c58 78bd
00000160: 2ce8 05be a654 25bd 5410 7ebe e40d d13d
00000170: 1219 083e 2c12 7dbe 319b c4bd e0f7 afbd
00000180: 4f2e 4e3d 981a e33c c243 21be e21e 5fbd
00000190: c8ed 30be 381a 953d 2549 adbd 8f54 a9be
000001a0: 216e 24be cb45 73bd d954 cbbe ba7c 39be
000001b0: ea38 073d 6d14 8ebe 76f2 e7bc ebaa 8fbc
000001c0: d987 c1be d29d f23d 91c1 bebe bd8d f5bf
000001d0: 4fa3 af3e 093c 15be 3a9e 103e f7e7 99bf
000001e0: f0ad 4e3f 6e27 02bf 8842 74bc 0df8 cfbf
000001f0: 1958 913e 9c30 8ebf 828b 1f3f a0fa 85be
00000200: 91fa fd3d c945 3abe 824c 0d3f 49b0 27bd
00000210: 1964 2b3f b965 65be fdce 3f3e 60bf 63be
00000220: 7cb8 b03e ff4c c4be 633d 8abe 9f39 21be
00000230: f79c 20bf 67f5 5abd 5ec5 003e f7ec 843e
00000240: b7ae f3bd 5557 923f a9d1 cb3e be5b 41bf
00000250: 95ac 543d 2f5d 533e 94df 60bf 5874 c33b
00000260: e416 dcbc fdca 7e3f 16a8 923d ec65 c1bf
00000270: b045 d93d 5159 5bbf 6eb2 9d3e dac4 9ebe
00000280: d158 47bf 846d b93d dab0 c2bf cf17 5ebf
00000290: f4f9 d9be d1ef e0bd 3d38 50bf dcdb 9c3f
000002a0: 7fef c63c e11a 43bf 94dc 9bbe bf2c 923f
000002b0: 3219 6ebf 3861 9c3f f44a b0bf 2984 8e3f
000002c0: cb39 c5bf cb34 7d3e 2ec9 a9bf 7161 5c3f
000002d0: eebf 67bf b8f1 103f 20c0 91bf 9b16 243f
000002e0: d6df 6bbf a1c2 663e 4b57 a5bf 8d0e 5b3f
000002f0: 191a f8bf e85e 1f3f 6a8f e1bf d4c9 51bf
00000300: c4b5 4d3e c3b7 67bf 3e4c 29bf 04e3 41c0
00000310: f393 8c3d 6022 00bf 7385 8a3e 0062 3dbb
00000320: 8492 f8be f8dc ae3d 14dc 3fbf e4c0 6dbe
00000330: 3f43 21bf 4b1d 1d3e ee65 41be b0f2 e1be
00000340: 9f74 de3d 8065 893c 4825 473f e87e d6bc
00000350: 0cfc 0a3f 0eb6 37bd 552d 0bbf 9f4e 383d
00000360: 3b7d d2be bcb5 1cbf bd6f e13e 9e76 fa3d
00000370: 855f 0dbf 6d5e 103c af04 db3e 8ffa 09bf
00000380: 72c8 8c3e ef13 3cbd 2417 23bf ce46 b6be
00000390: 3873 893f 9c55 c0be 9bca e73f 21d7 2d3e
000003a0: 5c84 ecbe 48d1 5bbf 5b64 343e c76b 19bf
000003b0: 3496 ab3c 3846 86bd 205b 9e3d 7b8e 86be
000003c0: b1c2 3abf 7477 02bf ee05 85bf 3f24 6abf
000003d0: e715 34be e8c4 c2bf 4b33 08bf d32c 9abf
000003e0: 82c2 233e 44dd 5c3f 638a 3abf cb35 d43f
000003f0: fba3 2cc0 b7b5 03bf af40 03bf a60f 54bf
1.0812435 -0.5002306 0.29455355 -1.3196028 0.8407757 -0.430096 0.5541517 0.12897682
0.28558388 0.09819928 0.1481411 -0.85900295 -0.07368264 -1.0380143 0.27181563 -0.71625173
0.7678845 0.44165322 0.24917848 0.15498203 -0.39193058 0.46630868 -0.89810497 -2.059278
-1.4617792 -0.48665354 -0.9734734 -0.8834098 -0.083384335 -0.67996854 -0.051630266 1.0420674
-0.30942842 -1.1566015 -0.31152266 -0.3476242 -1.1729497 -0.10512468 0.05910307 -0.63857037
0.0069659203 -0.26366654 -0.68239915 -1.2139149 -0.26526693 -0.044215262 -1.0066553 0.081886604
-0.41334432 -1.0950034 -0.5853909 -0.013787529 -1.0376573 0.25836715 -0.61857265 -1.1682222
0.15097019 0.12167955 -0.2599368 0.0272106 -0.09509396 0.1937503 -0.21363801 0.22555421
-0.06324788 0.21425852 -0.09203803 0.124918975 -0.08401573 0.2420644 -0.25766775 0.10964188
-0.09025708 0.15705661 -0.10047668 0.14043427 -0.23580092 -0.20434599 0.025652919 -0.3836176
-0.22871669 0.03399518 0.04281707 -0.43024352 0.06643921 -0.022313073 0.30855843 -0.06063138
-0.13076848 -0.04036393 -0.24810916 0.102077276 0.13290814 -0.24713963 -0.09599913 -0.085922
0.050337132 0.027722642 -0.15748504 -0.05447281 -0.17278206 0.072803915 -0.08461217 -0.33072326
-0.16057636 -0.05939273 -0.3971317 -0.18113986 0.03301326 -0.2774996 -0.028313857 -0.017537555
-0.37798956 0.11846508 -0.37257054 -1.918388 0.34304282 -0.14573683 0.14122859 -1.2023915
0.8073416 -0.50841415 -0.01490844 -1.6247574 0.28387526 -1.1108584 0.6232225 -0.26167774
0.124013074 -0.18190683 0.55194867 -0.040939603 0.6694961 -0.22402085 0.18731304 -0.22240973
0.3451575 -0.38339993 -0.2699996 -0.15744637 -0.6273951 -0.05345669 0.1257529 0.2596204
-0.118985586 1.1432902 0.39808396 -0.7553061 0.0519224 0.20641015 -0.87841153 0.005964797
-0.026866384 0.99528486 0.07160966 -1.5109229 0.10608995 -0.8568316 0.30800194 -0.3100956
-0.778699 0.090540916 -1.5210221 -0.8675508 -0.42573512 -0.10983241 -0.8133581 1.2254596
0.024284123 -0.7621289 -0.30441725 1.1419905 -0.93007195 1.2217169 -1.3772874 1.1134082
-1.5408262 0.2472717 -1.326452 0.86086184 -0.90527236 0.56618834 -1.1386757 0.64096993
-0.9213842 0.22535183 -1.2917265 0.8556908 -1.9382964 0.6225419 -1.7621891 -0.8194859
0.2008887 -0.90514773 -0.6613196 -3.029481 0.068641566 -0.5005245 0.2705494 -0.0028897524
-0.48549283 0.0853824 -0.7494519 -0.23218113 -0.62993234 0.15343206 -0.1888654 -0.44130468
0.108620875 0.016772032 0.7779126 -0.02618356 0.54290843 -0.044851355 -0.54366046 0.044996854
-0.41111168 -0.61214805 0.44030562 0.12229656 -0.55223876 0.008811575 0.4277701 -0.5389795
0.27496678 -0.045917448 -0.63707185 -0.35600895 1.0738287 -0.37565315 1.8108705 0.16976596
-0.46194732 -0.8586621 0.17616408 -0.5993008 0.020945646 -0.06556362 0.077322245 -0.2628058
-0.72953326 -0.5096352 -1.0392435 -0.9146156 -0.1758648 -1.5216341 -0.53203267 -1.2044929
0.15992168 0.86275125 -0.7286741 1.6578916 -2.6975086 -0.5144915 -0.51270574 -0.8283638

fc1.bias f4 [256]
00000000: 6664 8dbf 3bbf 5cbe bc7c 38bf feb5 24bf
00000010: fcc5 bebe a931 39bf bd99 afbd 3096 1a3e
00000020: 19ee 4abf 5b56 bc3e 87fe 27bf 2cb0 2bbf
00000030: 0052 0dbf 829a 4ebf bcff 28bf 4d10 babe
00000040: 3067 3cbf f3d5 cabe cf42 4bbf 988a 01bf
00000050: a80d 08bf 6940 46bf 65cd 0b3f 96de 3bbf
00000060: e965 a0bf 06e7 5fbf b70a 2fbf 7c78 34bf
00000070: 1fd8 f7bc 7a88 f6be e228 53bf b305 79bf
00000080: 6892 8ebf 9371 ba3f 7a28 febe c41f 75bf
00000090: 5261 31bf 95d3 1fbf fa3e 2abf 5cee 6fbf
000000a0: b774 49be 4c3c 4cbf 3363 81bd d5bd 15bf
000000b0: 7ae4 16bf ac06 dabd d6f9 97bf 8f49 eebe
000000c0: cd67 0ebf 2143 6cbf a150 97bf 2f79 ffbe
000000d0: f2ef 85be bde2 a5bf 8cb1 36bf 1bc0 56bf
000000e0: a428 47be 2b71 70be 207b 1fbf 35c7 58be
000000f0: 2fdd 39bf 46d6 5abf 4a87 85be 4daf e1be
00000100: 52e3 2bbf 0e9a afbf 7665 4abf b8a7 14bf
00000110: b37a 33bf f992 4e3d 38b6 81bf 26e8 cebe
00000120: f40a bfbe 6410 9abe 5c49 6abf a5cd 0fbf
00000130: 8780 22bf 4287 4cbf 66ac dcbe 54aa 05bf
00000140: 7e99 0dbf 156b 0ebf 2f64 c2bd f306 a9be
00000150: 9385 63bf de47 5cbf d728 18bf e9b2 3bbf
00000160: 68cb 6cbf 9290 21bf ba32 1f40 391f bbbe
00000170: 8a1a 48be 4e5a 48bf 5290 89bf 8e62 24bf
00000180: ad60 8fbf 0e52 883f c744 78bf f5d7 49bf
00000190: 0e7a 29bf fd88 8ebf 7b72 82bf 646d 47be
000001a0: f220 ebbe 122a acbe 0672 44bf 76e1 7ebe
000001b0: 0e8e 3fbe 148a a8bf d3b6 d93a be22 02bf
000001c0: 1111 4fbf fa4e c3be fbd6 ef3c 4503 d8be
000001d0: de62 c5be 3384 44be 12fb 1ebf b895 77bf
000001e0: 7a6b 733f 568d 65be 4aff 95bf 03db 71bf
000001f0: 3ded 24bf af05 86bf 4b82 0d40 db2f 83bf
00000200: 9bad 67bf 52be e33e c226 c6be 184d 74bf
00000210: 2b06 67be a006 23bf 8ced 55bc e5f4 75bd
00000220: 9c2c 3fbe f36f 9abe 97ca c0bd a0f9 78bf
00000230: c38c 41bf 2248 4cbf 8059 70bf 89e3 0dbf
00000240: 8239 54bf 4e0a 073f 3063 64bf dae4 8bbf
00000250: e519 42bd 4b73 91bf 36a3 28bf 39f1 55bf
00000260: ad6b 31bf 8498 e8be d0dc dbbe 97ee 8abf
00000270: 1b26 e0be dfac 6cbf 3705 93bf 6e39 dabe
00000280: 49c7 133f 437b 71bf 1c76 4fbf 9ee8 3fbf
00000290: 50de 95bf 1a23 71be d821 ebbe 86e7 ebbd
000002a0: ae25 2dbf a725 69bf ecf0 6abf 51c4 0ebf
000002b0: 4ae1 3cbe be38 86bf e7ff 5abf ffc0 0fbf
000002c0: 068d 98bf 411b 9abd d7c2 03bf 888d 23bd
000002d0: 5b3d 49be ae21 18bf 8d50 48bf a64d 49bf
000002e0: c6ee f4bc effa 41be 2680 3fbf b8d7 e4be
000002f0: 8205 4dbf 6f36 30bf d9e2 27bf 8dfb 56bf
00000300: 02ef 3f3f f1e5 75bf e7fe 2cbf a7cf 64bf
00000310: 7888 d1be 96d7 8e39 8f71 7fbf 22fa 93bf
00000320: 1222 b9bd ebf3 9ebf 9b5b 7f3e 6b33 b5be
00000330: 3324 7abf 4c1e 0fbf 46f1 61bf 62d8 0abf
00000340: f799 2abf ba96 47bf 922b d0be 12b5 1fbf
00000350: 1c22 e2be 40c6 38bf 9a5b 4dbf c61d a9bf
00000360: f3f3 a3bf 699c b9bd 94dc 71be 9915 14bf
00000370: 80fd 77be df04 de3d 7d97 34bf bd43 2bbf
00000380: 9d3a 38bf f5ee a9bf edd6 2dbf d3dd 6cbe
00000390: f867 0e40 d383 d3bf 246a 40bf 464a 51bf
000003a0: d05c e3be 408a 1140 387f 20bf 3f46 dbbd
000003b0: 4891 26bf e989 65bf c650 f7bd c621 b73d
000003c0: dbe0 80bf 332f bb3d 9205 a8bf 617b 10bf
000003d0: 6a5b 6bbe 3596 86bf 1145 17bf c476 13bf
000003e0: 3251 43bf 3f79 1840 42e3 e3be 9eed 51bf
000003f0: 0898 bcbe 9ec1 8cbf df00 2ebf 8923 33bf
-1.1046264 -0.21557324 -0.7206533 -0.643402 -0.37260425 -0.723414 -0.08574245 0.15096354
-0.7926956 0.36784634 -0.6562275 -0.6706569 -0.5520325 -0.8070451 -0.6601522 -0.36340562
-0.7359495 -0.39616355 -0.79398817 -0.506021 -0.5314584 -0.7744203 0.5461028 -0.73386514
-1.25311 -0.8746189 -0.68375725 -0.70496345 -0.030254422 -0.48150998 -0.8248426 -0.9727432
-1.113843 1.456591 -0.49640256 -0.95751595 -0.69289124 -0.62432224 -0.66502345 -0.9372308
-0.1967343 -0.79779506 -0.06317749 -0.58492786 -0.5894238 -0.10645804 -1.1873119 -0.46540496
-0.5562714 -0.9228993 -1.1821481 -0.49897143 -0.26159626 -1.295982 -0.71364665 -0.8388688
-0.19449097 -0.2348067 -0.6229725 -0.21169741 -0.72603124 -0.85483205 -0.2607978 -0.44079056
-0.6714374 -1.3718889 -0.7906107 -0.5806842 -0.701091 0.050433133 -1.0133734 -0.4041149
-0.37313044 -0.3009063 -0.9151819 -0.56173164 -0.6347737 -0.7989389 -0.4310028 -0.52213025
-0.55312335 -0.55632144 -0.09491765 -0.33013114 -0.88875693 -0.8604716 -0.59437317 -0.7331987
-0.92497873 -0.6311122 2.487471 -0.36547258 -0.19541374 -0.78262794 -1.0747168 -0.6421288
-1.1201378 1.0650041 -0.96979946 -0.7884515 -0.66201866 -1.1135556 -1.0191187 -0.19475323
-0.45923573 -0.33625847 -0.76736486 -0.24890694 -0.18706533 -1.3167138 0.0016610272 -0.5083426
-0.80885416 -0.38146192 0.029277315 -0.42189994 -0.38551992 -0.19191055 -0.6210185 -0.9671283
0.9508587 -0.22417197 -1.1718533 -0.9447481 -0.64424497 -1.0470484 2.2110775 -1.0248979
-0.90499276 0.4448114 -0.38701445 -0.95430136 -0.22560947 -0.63681984 -0.013057124 -0.060048003
-0.18669361 -0.30163535 -0.09413641 -0.972559 -0.7560541 -0.79797566 -0.93886566 -0.55425316
-0.8290025 0.527501 -0.8921385 -1.0929215 -0.047387976 -1.136331 -0.6587404 -0.835712
-0.69304925 -0.4542886 -0.42941904 -1.0854062 -0.43779072 -0.9245128 -1.1485966 -0.4262194
0.5772596 -0.9432871 -0.81039596 -0.7496432 -1.1708469 -0.23548546 -0.45924258 -0.11518769
-0.6763562 -0.9107308 -0.9177387 -0.55768305 -0.18445316 -1.0486066 -0.85546726 -0.56153864
-1.1918037 -0.075247295 -0.51469177 -0.039929897 -0.19652312 -0.5942639 -0.7824791 -0.7863411
-0.029899012 -0.1894338 -0.74804914 -0.4469583 -0.8008653 -0.6883306 -0.6558052 -0.83977586
0.7497407 -0.9605399 -0.6757645 -0.8937935 -0.4092443 0.00027244975 -0.9978265 -1.156071
-0.090397015 -1.2418188 0.24937288 -0.3539079 -0.97711486 -0.55905604 -0.8825878 -0.54236424
-0.6664118 -0.77964365 -0.40658242 -0.62385666 -0.44166648 -0.72177505 -0.802179 -1.3212211
-1.2808822 -0.09063036 -0.236193 -0.57845455 -0.24217796 0.10840773 -0.7054365 -0.66900235
-0.71964437 -1.3276049 -0.67906076 -0.23131494 2.2250957 -1.6524605 -0.7516196 -0.8175396
-0.44406748 2.274063 -0.6269412 -0.10706758 -0.6506543 -0.8966356 -0.12075953 0.08941989
-1.006862 0.09139862 -1.31267 -0.5643826 -0.2298409 -1.051459 -0.5908976 -0.57603097
-0.7629577 2.3824003 -0.4450932 -0.820032 -0.3683474 -1.0996587 -0.6797008 -0.699761

fc2.weight f4 [256, 256]
00000000: 1009 833e 0c84 1abb bba2 d7be a436 05bf
00000010: 6e0a 7bbe e50d bf3c 05f8 eabe 78f0 803e
00000020: e893 683e 91e2 75be 2e56 c03d 9d2d fcbe
00000030: 6e98 bfbe 2597 063f 5103 94be 7591 9a3d
00000040: 3b7e 9c3f f3ec 993e 67f8 e23e 1388 87bf
00000050: d1dc ec3e 59cb 13bf c730 20bf 0853 5a3f
00000060: 265c 783f c2af 523d ba7d 743d 7c24 243f
00000070: 28fa 9abf f4a9 1c3f 507e 463f 4511 183f
00000080: c71b e83f b6db 80bf e5ed b43e c421 153f
00000090: 65e9 783e 3193 13be b29e b03e 9915 8d3f
000000a0: 2b34 bd3e 5dea 78bf 5c65 af3f eeb2 f43e
000000b0: ebee 89bc 29e3 afbe b68e 8cbe 4c7d 293f
000000c0: 9299 993e f234 0cb9 9436 e2be 1efd b63f
000000d0: 1c44 e6be c4a0 8e3f cea4 723f d7ff 073f
000000e0: 7ad4 f23e 9677 5d3e d00b dbbe 25be b33c
000000f0: ab58 b9be e9a3 5f3f 6a98 85bf af10 ae3d
00000100: 313f 6d3e 43c5 b73f e32e df3e ff45 31bf
00000110: 3a11 9c3e 5aee 08bf 9c0e 41be 9b18 af3e
00000120: e2cf 48bd 47d0 3e3e e271 0ebe 50de 3abf
00000130: b213 9b3f a39c 3d3f 729d 573f 2167 063f
00000140: 26fd 993f eace dbbe 750f 2f3f 273c 98bc
00000150: 1daf eabd a2bc e7bd fb51 3d3c 7047 053f
00000160: 5109 88be c3d6 69be 7b95 27bf 8776 813f
00000170: 9692 8a3d 4724 153f 0e86 da3e b3d3 fdbe
00000180: 2c3e 213f 01bd 86bf 52ce 12bf fe9c a2be
00000190: 1d9d a9be 60b2 783f 0784 05bd 7634 dabe
000001a0: e0ee d63d 73e3 f43e b9cf 823f 67eb 083f
000001b0: 106f 843e e9c1 d73e 33a8 af3e 63d8 273e
000001c0: cee8 da3e fb98 533f 0bca 09bf c140 9a3f
000001d0: 1a87 09be 29d2 7e3f 7b71 38bf 936d 93be
000001e0: 3d6f cbbe 08d8 a23e 2ac5 ad3c fb34 553e
000001f0: 9a92 c63e 7532 4b3f dffa 3cbf 2088 8ebf
00000200: 780e 813f 6200 08bf d148 353c eda9 863f
00000210: 77f2 17be 4f7b 4dbe 9dd7 1e3e aa47 43be
00000220: 2a01 7abf c592 9d3f 4ef1 95be e710 f23d
00000230: bbe9 82be c67f 503f e96d 0e3f 93dc b6be
00000240: f2e1 2dbe bdf9 50bf cdc2 fb3d 9428 933e
00000250: 7a6b ef3e 18a0 f73e 558b e13e 4884 cebe
00000260: 35b0 c1be 9179 81bf cdfb d13d e93d 17bf
00000270: 214c ecbe 84b8 943f 63bf 76bf 013f 33bf
00000280: c27d 88bf ed0c b43f a74f a4be 3e09 95bc
00000290: 3fdf a83f b7c5 86bd 65be e93e 109e 3cbe
000002a0: 207b 543f 7a77 ed3d 98d8 b73f fd63 3a3e
000002b0: 21ec 6a3f c9f7 113f f6d2 a33d d589 1a3e
000002c0: be08 873f a755 0e3f 78cf c93b b72e 0cbf
000002d0: 1923 80be 21f5 8f3f 124c a63f f92f cabe
000002e0: c5ef 9a3e 9a0f 04bd 929e 053f 2b86 353e
000002f0: 13cb 193f 017e 5cbe c904 7c3f bbf5 b03e
00000300: 4371 70bf 21b7 5dbf a233 9e3f 5b9b 643f
00000310: 445f 473e ebb2 a2be ee01 833f 10a4 9d3f
00000320: 98e5 703f 5d61 19bf 78bd 453f e575 ecbd
00000330: 3ca3 283f 1851 823f b484 253f 5274 b83f
00000340: 8e8c 9a3f c30d a13e c457 31bd a142 6f3d
00000350: 55a2 993e fef8 6f3f 8fbf d03e 89d9 463f
00000360: f928 143f 0a56 8f3e 7eb3 263e 0df3 83be
00000370: 3da6 00be 4483 8d3e e55d 6abe 8839 b4be
00000380: 0d2e 963f 9dc3 5c3e 7e45 1c3e dd5b e43e
00000390: b314 1cbf 916a db3e ee61 b53f 11a4 b8bd
000003a0: f274 61be b4de 0ebf 3b3e 013c 2e18 213e
000003b0: 58eb 093f 6965 1abf 536c 7fbd 9473 38bd
000003c0: 10bd bd3e 3b70 fbbe 3b25 91be 3cf3 c63e
000003d0: 03a4 5b3f ae41 33bf 6d00 ad3e 4aba 493e
000003e0: af6c 30be 13d1 40bf fa55 23bc 8888 1a3f
000003f0: 4ca5 ccbe e05c 413f 96e6 47bf 2a78 a43f
0.25592852 -0.0023577241 -0.4211634 -0.520365 -0.24515697 0.023322055 -0.4589235 0.25183463
0.22712672 -0.2401221 0.093914375 -0.4925355 -0.37420982 0.5257438 -0.2890878 0.07547275
1.2226022 0.3006359 0.4433014 -1.0588402 0.4626222 -0.5773216 -0.6257443 0.85282946
0.9701561 0.051437147 0.059690215 0.6411817 -1.2107592 0.6119683 0.7753649 0.5940135
1.8133477 -1.006705 0.3533775 0.5825465 0.24307783 -0.14411618 0.34496075 1.1022216
0.36953864 -0.9723261 1.3702807 0.47792763 -0.016837558 -0.34352997 -0.2745263 0.6620681
0.29999977 -0.00013371164 -0.44182265 1.4295995 -0.44973838 1.1142812 0.9478272 0.53124756
0.47427732 0.2162765 -0.4278245 0.021941254 -0.3620046 0.8735948 -1.0437138 0.08499276
0.23168637 1.4357074 0.4359046 -0.6924743 0.30481893 -0.53488696 -0.1885323 0.3419846
-0.049026377 0.18634139 -0.1391063 -0.7299547 1.2115386 0.74067134 0.8422462 0.5250111
1.203038 -0.429313 0.6838296 -0.01858337 -0.114591815 -0.11315276 0.01155519 0.5206213
-0.26569608 -0.22835831 -0.65462464 1.0114297 0.0676624 0.5825848 0.426804 -0.49575576
0.6298549 -1.052643 -0.5734607 -0.317604 -0.3312768 0.9714718 -0.032596614 -0.4261815
0.104947805 0.4782978 1.0219642 0.53484195 0.25865984 0.4214013 0.34308013 0.16391139
0.4275574 0.82655305 -0.5382392 1.2051011 -0.13430443 0.9953943 -0.7204816 -0.28794536
-0.39733306 0.31805444 0.02121218 0.20820992 0.38783723 0.79373866 -0.738203 -1.1135292
1.008254 -0.53125584 0.011064724 1.0520607 -0.14838587 -0.2006657 0.15511937 -0.19070306
-0.97658026 1.2310416 -0.29285663 0.1181963 -0.25568947 0.81444967 0.5563646 -0.3571516
-0.16980723 -0.8163107 0.12293015 0.28741896 0.46761686 0.4836433 0.44051614 -0.40335298
-0.37829748 -1.0115224 0.10253105 -0.5907884 -0.46151832 1.161881 -0.9638578 -0.7001801
-1.0663378 1.4066445 -0.3209202 -0.018192884 1.3193129 -0.0658068 0.45653072 -0.18419671
0.83000374 0.11595054 1.4362974 0.18202205 0.91766554 0.57018715 0.07999222 0.15091641
1.0549543 0.55599445 0.0061587654 -0.5475878 -0.25026777 1.1246682 1.2991965 -0.39489725
0.30261055 -0.03224144 0.52195084 0.17726962 0.6007549 -0.21532442 0.984448 0.34562477
-0.93922824 -0.8660756 1.2359507 0.89299554 0.19469935 -0.3177713 1.0234964 1.2315693
0.9410033 -0.5991419 0.7724223 -0.11545924 0.65874076 1.0180998 0.64655614 1.4410498
1.2074144 0.31455812 -0.04329659 0.05841315 0.30006662 0.93739307 0.40771148 0.7767568
0.5787502 0.2799533 0.16279408 -0.2577137 -0.12563415 0.2763921 -0.2288738 -0.35200143
1.1732804 0.21558996 0.15260884 0.44601336 -0.60969085 0.4285474 1.4170511 -0.09015668
-0.22017267 -0.5580857 0.007888372 0.1573188 0.5387473 -0.6031099 -0.062359165 -0.0450321
0.37058306 -0.49109063 -0.28348717 0.38857448 0.8579714 -0.70022094 0.33789387 0.1969997
-0.1722896 -0.7531902 -0.009969229 0.6036458 -0.39969862 0.7553234 -0.7808622 1.2849171

fc2.bias f4 [256]
00000000: e988 7abf facb f03f 0fd9 87bb 7b0c e7be
00000010: 294a 50bd c0cd 13bc 692b 8fbd 0ddb ed3d
00000020: 6044 af3f 2572 8b3c f4f2 1fbf de5c 09be
00000030: 6344 0cbd 61b9 103f 9c7c 87bc 0466 7b3e
00000040: a601 c5bd c1ce e73d 7bdd e73d e67c 663e
00000050: 3a07 80bd b277 f7bd 6dbf f6bc 99f3 51bd
00000060: e197 2d3e f02f 933f 80b0 b8bd 7356 42bf
00000070: c027 c0bd 61e5 093d 01ed 0940 20f8 1bbd
00000080: d923 11be 399b 3abd 33f7 2e3c e1e0 90be
00000090: be98 80bd d863 fabc 25a2 0740 bed4 dc3c
000000a0: d1a9 f0bc b1b3 cabc fa66 b3bd 34be cabd
000000b0: 0aab dfbd a290 b63f bf75 dabb fc05 10bf
000000c0: 32f1 e2bd f807 54bd cfdf 91bf b093 24bc
000000d0: c530 3bbe 1938 c4be 35e6 97bf 1314 143e
000000e0: 62f0 2abd be34 94bd be85 74be bcb8 9cbf
000000f0: 161c 95be b295 853e 4464 09bd 5769 9cbd
00000100: ddda 8ebd ad30 16bd 438a 5dbd 41ad cabd
00000110: a8c6 7b3e ef33 943d c405 243f f75b 7b3e
00000120: 406c a4bb 8a49 d1bd f9e3 0a3d d847 eb3d
00000130: 87b2 6ebc 5651 4f3e 59eb f5bc a6cc 85bd
00000140: 408d b6bf c36f 85bd 404f eb3f 27a6 883f
00000150: 2f6f 0abf 7fbd 89bd ea8c d6bd 0dfc 51bd
00000160: dbea dd3f 6bfc 12bf 395a 35be aa1e babe
00000170: 92ce abbc 4740 833f 0bc2 9abc 1623 cfbe
00000180: a1c1 5cbd d66d afbc 97a8 f43f a3d5 84bc
00000190: df1d d8bd ef5f d8bc b21b e3bc a9ed 1b3e
000001a0: 17d1 2c3e 9e80 bcbc a39d babf 2fb5 b0bd
000001b0: 799f c6be 799c 9abd b524 97bd 9732 2abc
000001c0: 0c0b d7bf f516 dabd a020 97bd e86d a6bd
000001d0: bd5a 2ebc c577 963c 2782 9fbd a22a 813f
000001e0: ac37 17bd 8eec f63b 488e 59bd d6c6 7d3f
000001f0: 9f25 253e 3597 e0bc 3e72 c8bd ea29 bfbd
00000200: 9732 b6be 01b1 153d 15ce 1240 6b37 783e
00000210: fc60 883e c9a4 8fbd 714c c2ba bf8a 50be
00000220: b5ed 80bf d069 01bd d7d7 43bf b414 febd
00000230: 046e 19bd c641 313f 136d 10be 1781 39be
00000240: dba0 e4bd df3c 36bd df7a 0740 9aa3 ab3e
00000250: bcd7 5a3e 8ded 9dbd f5bf a0bf 1272 f0bd
00000260: c6e6 b6bd 7ca3 69bc a277 84bd 2643 8fbd
00000270: d6e7 76bc ded2 9fbe 96c7 ad3d 6b7b ff3f
00000280: f42d 5abd c218 abbe d4cd 98bd 6b59 c63e
00000290: c3fb 4a3f d5cc c1bd c6fb cbbe 8415 9ebc
000002a0: 414d fdbd 7884 99bd cae6 893c 5e51 ce3c
000002b0: 31e5 5b3e cd14 67bd 0928 a4bd f093 e6bc
000002c0: d667 45bd 457f 2bbc 9959 933f 89a0 53bf
000002d0: 28f6 57bf 930a 01bd 0973 ccbc da63 fc3f
000002e0: 937b 41be a72d 36be baca 2b3e 28d5 9bbd
000002f0: 3c83 a8bf 6aa4 a73b cbc4 d1bd 5c62 b5bd
00000300: 828f 6fbe a49d 83bd 33bd fdbd e2b0 8cbd
00000310: 5450 0540 6f12 53bd f617 16bc b5f3 783d
00000320: 7bab 05bd f8c4 1dbf aacf a4bd f090 81bf
00000330: 26b8 90bd 7ec9 52be f999 dbbc c7a0 01c0
00000340: d25c 6d3b 8236 a93d 5207 d7bd 38d6 70bd
00000350: 74ff abbd 9345 b0bf 40f2 75be 9d3c c83f
00000360: 04ff 6dbe 5013 04bc d91b 8ebd d4a2 b0bf
00000370: 24bc c4bd 59d7 8ebd 117f 213e e629 8cbd
00000380: 799e fcbb 68c5 b5bf 3cff dabd cfee 08bc
00000390: 8926 b1bb 5057 c7be 2173 88bd c13f 6dbf
000003a0: 68b5 60bd 3dc0 e63f 73f7 81be 97f4 adbf
000003b0: 89f8 c4bd 6d25 07be f92c a23f e5ab aa3f
000003c0: 05c1 3f3e 6988 4fbe f9c8 c7be b3fc dd3f
000003d0: 8b5e 81bd 77ed dabc 86d1 7dbc fd54 48bf
000003e0: cced bcbf 0b0c 29bb 072e a6bd a5fe 58bf
000003f0: a62a 8a3b a5a1 18bd 8544 4cbb 1b95 63bd
-0.9786516 1.8812249 -0.0041457484 -0.4512671 -0.050851975 -0.009021223 -0.06990702 0.11614046
1.3692741 0.017022202 -0.6248009 -0.13414332 -0.034244906 0.56532866 -0.01653891 0.24550635
-0.09619455 0.11318732 0.11321541 0.22508582 -0.06251378 -0.12083377 -0.030120576 -0.051257703
0.16952468 1.1499004 -0.0901804 -0.7591316 -0.09382582 0.03366602 2.1550906 -0.038078427
-0.14173831 -0.045558188 0.010679054 -0.2829657 -0.06279133 -0.030565187 2.1192715 0.026956912
-0.02937785 -0.024743887 -0.087598756 -0.098995596 -0.10921295 1.4262888 -0.0066668685 -0.5625913
-0.110811606 -0.051765412 -1.1396426 -0.010044977 -0.18280323 -0.3832405 -1.1867129 0.14460783
-0.041733153 -0.07236622 -0.23879144 -1.2243876 -0.2912299 0.2609077 -0.033542886 -0.076372795
-0.069753386 -0.036667515 -0.054086935 -0.09896327 0.245875 0.07236468 0.640713 0.245468
-0.005017787 -0.102191046 0.033908818 0.114883125 -0.014568931 0.20245871 -0.03001945 -0.06533174
-1.4261856 -0.065154575 1.838356 1.0675706 -0.540759 -0.06725597 -0.10476096 -0.051265765
1.7337297 -0.5741641 -0.17710198 -0.3635152 -0.020972524 1.0253991 -0.018891355 -0.40456456
-0.053895596 -0.021414679 1.911395 -0.016215151 -0.105525725 -0.026412932 -0.027723167 0.15227379
0.16876636 -0.023010548 -1.4579357 -0.08628308 -0.38793543 -0.07549376 -0.07380048 -0.010388038
-1.6800246 -0.1064891 -0.073792696 -0.08126432 -0.010641751 0.018367657 -0.077884965 1.0091136
-0.036918327 0.0075355237 -0.053114206 0.99131525 0.16127633 -0.027415851 -0.09787415 -0.09334166
-0.35585472 0.036545757 2.2938282 0.2423989 0.26636493 -0.07013852 -0.0014823807 -0.20365427
-1.0072542 -0.03159505 -0.7650122 -0.124062926 -0.037458435 0.6924099 -0.14104109 -0.1811565
-0.11163493 -0.044491645 2.1168745 0.33523256 0.21371359 -0.07711325 -1.2558581 -0.11740507
-0.08930735 -0.014260169 -0.06468131 -0.069952294 -0.015069922 -0.31215566 0.084853336 1.9959539
-0.05326648 -0.33417326 -0.074611336 0.38740095 0.7929041 -0.09462897 -0.39840525 -0.019297369
-0.12368251 -0.074959695 0.016833682 0.025185283 0.21474148 -0.05641632 -0.080154486 -0.028146714
-0.04819473 -0.010467355 1.1511718 -0.8266683 -0.8435998 -0.031504225 -0.024957197 1.9717972
-0.18894796 -0.17790852 0.16776553 -0.07609016 -1.316505 0.005116035 -0.102426134 -0.08856651
-0.23394588 -0.06426552 -0.123896025 -0.06869675 2.0830278 -0.05153125 -0.009160986 0.060779292
-0.03263424 -0.61628675 -0.08047421 -1.0122356 -0.070663735 -0.20584676 -0.026806818 -2.025438
0.0036218655 0.0826235 -0.10499443 -0.058798045 -0.08398333 -1.3771232 -0.24018192 1.5643498
-0.23241812 -0.008061245 -0.06938905 -1.3799691 -0.096061975 -0.06974668 0.15771128 -0.06843929
-0.007709321 -1.4200869 -0.10693213 -0.008357718 -0.005406205 -0.38933802 -0.06662584 -0.92675406
-0.054860502 1.8027416 -0.253841 -1.3590268 -0.09617717 -0.1319787 1.2669975 1.3333708
0.18725975 -0.2026688 -0.39020517 1.7342743 -0.06316861 -0.02672456 -0.015491849 -0.7825468
-1.476007 -0.0025794532 -0.08114248 -0.84763557 0.00421651 -0.03726353 -0.003116877 -0.05556212

fc3.weight f4 [256, 256]
00000000: 227b 883c 8c90 7dbd a07a 25bd efe1 90bd
00000010: 2e40 2d3d 81ed 1d3c a55e 5dbd f6c0 fd3c
00000020: 1503 063d 2e8f 653d a97c 5bbd 1bd8 29bd
00000030: 79b2 993b 0f8f 483d fc3d 853c a6b2 693c
00000040: dc8d 353b 7383 5ebd 2089 c0bc 4d93 3abd
00000050: ee86 7f3d 0b44 9c3c bec8 233c 7ffe 73bd
00000060: 0eb5 1dbd e05a 7f3c b6a2 673d b1f9 b2bd
00000070: f536 4b3d e4d3 a33c a547 d4bd a0d4 483b
00000080: bf5d 27bc 806f 163b e904 3ebc 7cd8 20bd
00000090: e6f5 1dbd c270 c93c 7a5f fcbc 57ce 383d
000000a0: c48b ae3c 2d4b e13c a2c7 3cbd 3482 f73c
000000b0: 57f6 e03c 6887 46bd f216 16bd 124c 61bd
000000c0: 2002 d4bc a610 72bd 7546 43bd 74be 00bb
000000d0: dc22 98b8 fbc2 c9bc a9be c23b bc40 a4bc
000000e0: 6906 b1bc 4632 4e3d 55dc 9fbd 7809 52bd
000000f0: 42dc 22bd 0bd9 86bd 3c98 b33c 1a9c 2bbd
00000100: 3ac1 113d 32f4 23bd de68 debc cfa8 18bd
00000110: 234b 93bd 8501 163d 5d40 2dbb 11f8 4ebd
00000120: 8906 833b 0012 44bc b9cc bebc f082 5abd
00000130: 306e 2dbc 1031 0cbd c3ae 123d 383c 44bd
00000140: dc3d b0bd 3c31 12bd c0ee 0cbd 3c07 333b
00000150: 2d97 a5bd 3d82 17bd 2f90 e53c e4ce 153d
00000160: bcac d2bc f141 503b f34d 42bc d549 3bbd
00000170: 35f1 88bd b6c4 8bbd 4d4d 11bd 4822 77bc
00000180: 4cf7 53bc d191 69bc 48e7 5dbd cf87 97bd
00000190: 5d9a 513d e700 ca3c 341e 003d 497c 7cbd
000001a0: 66dc 92bd 93e3 a13c 416a f3bb 81b3 d6bb
000001b0: c725 a6bd 46eb b03b 26d3 24bc f499 a8bc
000001c0: 99cb c3bd 98a6 92bd 0bc7 673b 48b5 a13c
000001d0: 7317 943c f414 e2bc 0ccf 33bd e026 75bb
000001e0: bc7f 2ebd 771c f2bc 1425 debb 6594 86bd
000001f0: 306f 173d b2eb d13c 36ed 5d3d b8c8 25bc
00000200: 8d68 aa3c f105 6cbd 49e3 2dbc be0e 5abd
00000210: 8947 063d 8310 89bd b8e7 3abc bbbe dbbc
00000220: 44b6 9cbd 94ed f9bc 8029 ab3a e875 8dbc
00000230: 02fe 883c c7ae ed3c 1de9 993c 7d41 13bd
00000240: 8990 213d 47f4 7e3d edf5 62bd c619 33bc
00000250: 90c2 90bd d10c 97bc b296 6fbd fde1 3cbd
00000260: 097e 56bc 6d87 103c 8e21 3abc d8b8 343d
00000270: 867b a33d 48ed 6dbd 3b70 123d 0466 8cbd
00000280: 17b3 c5bb 193c c3bd 4d00 3c3d 249d fcbc
00000290: 7f9e fabb a60b 4fbd 7a16 3fbd beef 3cbd
000002a0: 92a3 e93c 4ee1 f0bc 708d 5dbd ba2c 5dbb
000002b0: f8cc 7a3c 7bb0 263d 16c8 173c cce3 02bd
000002c0: ea75 483d 2d60 ebbc c833 5bbd 329a ddbc
000002d0: 12c7 4dbc 3e9d 55bd e44c 67bc 5e8a 963c
000002e0: 3e0c 2e3d a14b 5dbc a4ae 9ebd 840f c3bc
000002f0: 5e5f 5abc 4b70 443d 31da 14bd 3c69 373d
00000300: 0720 123d 0ec8 2d3c c224 5ebc 79f5 c7bb
00000310: 0373 3bbd a2ac 753b 580c 0c3b bd56 a9bc
00000320: cf8b 85bd 8d07 5ebc 2224 683d c508 aabd
00000330: d8a3 34bc ffa5 d73c 10ad c7bc 19d4 76bd
00000340: c6fe a13c f464 98bc 9383 453d cc2b 20bd
00000350: cdfb 793d 8b7d 8abb ddf2 1c3d 877f 64bd
00000360: 6803 753d 372a 6e3b 42b2 2d3d a471 49bd
00000370: 407f 7e3c 7d67 3fbd e02c f73b 8019 6a3c
00000380: 945e 133d 3a2f 8cbd 4267 693c f8c6 fcbc
00000390: 3d06 6fbd a0c5 373d a8a9 243c 66da 033c
000003a0: 6410 fc3c c267 cabd d02e 7dbc 7519 c73c
000003b0: a2c1 13bc 146b d93b 8c97 debc fc1f 6c3c
000003c0: 68ff 8dbd 1f19 42bd ce43 e2bb cd88 87bd
000003d0: f623 553d f31d ee3c 4b7a 063d afff d73c
000003e0: 5f9d 54bc a091 17bd e413 6b3d 12a8 a7bd
000003f0: c8be 5f3b 879d 1ebd 60e4 45bc 2d13 42bd
0.016660277 -0.06190543 -0.040400147 -0.070743434 0.042297535 0.009639145 -0.05404534 0.0309758
0.032717783 0.05604475 -0.053585682 -0.04146586 0.004690465 0.048964556 0.016264908 0.0142637845
0.0027702963 -0.05432458 -0.023502886 -0.045550633 0.06238454 0.019075414 0.009996591 -0.05956888
-0.038502745 0.015585631 0.056551658 -0.08739031 0.049612958 0.019998498 -0.103652276 0.0030644313
-0.010215222 0.0022954643 -0.01159785 -0.039268956 -0.038564585 0.0245899 -0.030807246 0.045118656
0.02130688 0.027501667 -0.046088822 0.030213453 0.027461214 -0.048468977 -0.036642976 -0.055004187
-0.02587992 -0.05909791 -0.047674615 -0.001964477 -7.254418e-05 -0.024629107 0.0059431386 -0.020050399
-0.021609502 0.050340913 -0.07805697 -0.05127856 -0.039760835 -0.065843664 0.021923177 -0.041896917
0.035584666 -0.040027805 -0.027149614 -0.037270363 -0.071920656 0.036622543 -0.0026436069 -0.050529543
0.003998582 -0.011967182 -0.023290979 -0.053347528 -0.010585353 -0.034226477 0.035811197 -0.04790899
-0.08605549 -0.035691485 -0.034407377 0.0027317544 -0.08085475 -0.03698944 0.028022854 0.03657426
-0.025717132 0.0031777585 -0.011859405 -0.04572471 -0.066866316 -0.06824629 -0.03547411 -0.015083857
-0.012937378 -0.014255957 -0.054175645 -0.0739895 0.051172603 0.024658633 0.031278804 -0.061641965
-0.07170944 0.019761836 -0.007428438 -0.0065521603 -0.08112674 0.0053991405 -0.010060107 -0.020581223
-0.095603175 -0.071606815 0.0035366442 0.019739762 0.018077588 -0.027597882 -0.043898627 -0.0037407205
-0.042602286 -0.029554589 -0.0067793224 -0.06571273 0.03697127 0.025625084 0.0541813 -0.010118656
0.020801807 -0.057622854 -0.010613271 -0.053236715 0.032783065 -0.066926025 -0.011407785 -0.026824346
-0.07651952 -0.030508794 0.0013058633 -0.017268136 0.016722683 0.029014004 0.018787915 -0.035951126
0.03944448 0.06224468 -0.055410314 -0.010931438 -0.0706836 -0.018438729 -0.058493324 -0.046113957
-0.013091573 0.0088213505 -0.011360539 0.044121593 0.079825446 -0.058087617 0.035751563 -0.068553954
-0.006033312 -0.09532947 0.045898724 -0.03083665 -0.0076482887 -0.05054822 -0.046652295 -0.046127073
0.02852038 -0.029404309 -0.054089963 -0.0033748583 0.015307657 0.04069565 0.009264013 -0.031955525
0.048940577 -0.028732384 -0.05351618 -0.027051065 -0.012559669 -0.05215191 -0.014117453 0.018376525
0.042492144 -0.013506801 -0.07748154 -0.02381111 -0.013328401 0.047958653 -0.036340896 0.044778094
0.035675075 0.010606779 -0.013558568 -0.0061022607 -0.04576398 0.003748693 0.0021369662 -0.020671243
-0.06520807 -0.013551605 0.056675084 -0.08302454 -0.0110253915 0.02632427 -0.024374515 -0.060260866
0.019774806 -0.018602826 0.048221182 -0.039104268 0.06103115 -0.0042263917 0.03831755 -0.055785682
0.0598177 0.003634108 0.042406328 -0.04918064 0.015533268 -0.046729553 0.0075431913 0.014288306
0.03597887 -0.06844945 0.01424581 -0.030856594 -0.05835556 0.044866204 0.010050215 0.008047676
0.030769534 -0.098830715 -0.0154530555 0.024304131 -0.009018334 0.006635079 -0.027171873 0.014411923
-0.069334805 -0.04738724 -0.0069050556 -0.066178896 0.05203625 0.029067015 0.03283147 0.026367037
-0.012976973 -0.037004113 0.057392016 -0.08186354 0.0034140814 -0.03872445 -0.012078375 -0.04738157

fc3.bias f4 [256]
00000000: dcb8 adbd 1a79 86bd a043 7c3b 6ed5 ddbd
00000010: 5c49 9bbd f956 b9bd 41c2 63bd 1b0c 05be
00000020: d9b8 21be c9a4 cdbc 8f6d 03be 5b83 ad3d
00000030: 8706 abbd ab3a 1abe c1b7 833b c66b ec3d
00000040: b2d5 dfbc 5dd6 62bf f4cb d93e 8c4a 9b3c
00000050: 7dbe 6bbe a088 00be 96c5 73be 3008 8c3e
00000060: ff55 643d 87fd 23bd 1a7a 7cbf c693 b3bf
00000070: 093b 84bf c84b 343d 5b16 993e ddf7 97bd
00000080: fc43 03be 27c5 21be 3485 3ebe aa47 0fbe
00000090: d2a3 1a3c 5e71 c5bd f537 b6bd 9008 d8bd
000000a0: c4b8 c6bd 15ff a6bd d14f 0cbd 3de1 50be
000000b0: 4c54 db3e 1f63 2ebe b5f0 96be 1285 5dbd
000000c0: a172 aebd f4d4 13bc 9735 f7bd 08b7 2fbd
000000d0: 86e2 80bf 00c2 7c3a cc97 d0bd 129c 58be
000000e0: 1da8 58be 67d4 87bd 42cd 3240 817a c4be
000000f0: b6f3 943f 7dd6 a9bd 8469 dbbd ef3d e23e
00000100: a717 82bf 2c7b 51bd fc7f f1bc b1cc 1bbe
00000110: 6dca 85bd 954f 2fbf a788 dcbd 1eaa 98bd
00000120: 9b58 4d3f c133 abbd 689b 36bf c9ef ccbd
00000130: 05e4 7abd 8fd4 733c 304b 8fbb 74c4 c5bd
00000140: 0144 c0bd 02be babd bd3a 253f 3319 27bd
00000150: e47c c0bd bea3 25be c4e3 2abc 5ce6 673d
00000160: 0a6f 0cbe 1fe2 17be 0c4b fcbd f9db 08bd
00000170: 76f6 43bc a5e8 c8bd aee2 e3be ae5d 73bd
00000180: 7e33 5dbd a128 4bbe d77a ee3d a862 e4bc
00000190: f5e9 3abd 92ee a0be ce58 693c 06eb e4bd
000001a0: f439 86be cca8 7abd b61e ab3b bebd fe3d
000001b0: 4719 c0bd 5653 aa3d 0ad0 ccbd c58f d0be
000001c0: 5592 963c c375 e7bd 65f8 5d3d 931d 0ebd
000001d0: fb9c e3bd 5072 bbbd b456 7e3d 24ea e9bd
000001e0: 790e 08bd 05b2 09bd f5ce babd 79db 56bd
000001f0: c1ba b6bd b8de 85be 577d ffbe fbcd 10bd
00000200: 682e 03bd 5d33 99be b67e cc3d c6d4 63ba
00000210: 3cfb bebd 6860 dcbd fbe2 1dbe 6fc0 363e
00000220: f8f2 703d e6ed 143e 373d cdbd 46f8 68be
00000230: e89a c0bd 3f57 52bc f833 4c3e 0b15 eb3d
00000240: 8adf e1be 8e25 ebbd 364f b53c 8f06 88be
00000250: 9bba d4bd cc9c ad3d 3e8a f53d 418a b9bf
00000260: 0648 1dbe 2b11 003c 6293 1c40 7984 e2bd
00000270: a094 80be 5832 e6bd e086 22bd 727a 95bd
00000280: 606b b93e 532d 36bf 251b 40be be4e 51be
00000290: f985 77be 7ff2 36be b7d6 a1bd d8ba 12be
000002a0: 6718 91bc ffab 10bd 00fe 99bd 2029 95bc
000002b0: af51 a2be 3026 f1bd c18e 603f 136b c1bd
000002c0: 228f ccbd 8f60 e3bd e1b7 19bc dfd4 38be
000002d0: a6b3 1bbe 519c dbbe 2623 1abd 074a bcbc
000002e0: f2fe c63f d79b 7f3d c1d7 cbbd a250 3dbd
000002f0: 0243 1cbe f759 b1bd 1e45 13be 8acf 17be
00000300: da5e a7bd f198 34bd 412a 37bf ed61 c4bd
00000310: 9d1d 1040 fe30 2bbd 1c9d 3e3c ceef b73d
00000320: ca1d 7e3d 458a d9bd 32ce bbbd b140 193e
00000330: c85f 5a3d 1197 9dbd 836e f1bd 3be9 5ebd
00000340: 292e 66bd eb4d 17be 1efb dabd 22c9 f73d
00000350: e4ee 87bd 5c67 36bd d00b 393f aa2d 8f3e
00000360: 42ce c9bc 4c19 36bd da6c 523d da86 2ebd
00000370: e2a0 a63f 8aa0 82bf 45fe 5c3c 8275 8f3e
00000380: d610 afbe dfd9 43bd 010c c7bd cd9e b5bd
00000390: 3d68 2fbf e790 97bb f070 c2bd bea7 bebd
000003a0: 067d 02bf 944e 4e3f 2d50 81bd 3ade 6abd
000003b0: 8fb3 29bd d0af b2bc af04 ccbd db0f 09bd
000003c0: ea51 3bbd 1935 a4bd 681f 283e afff 89bd
000003d0: 6cde 11be 28b9 cdbd a6e1 833c b7ba e2bd
000003e0: 2c1c 32bb 7279 dbbd a847 2ebe 19ef 253e
000003f0: 9cf3 56bd d888 18bd 43eb 66bd 9393 82ba
-0.08482525 -0.06566067 0.0038492456 -0.10831724 -0.075823516 -0.09049792 -0.055605177 -0.12992899
-0.1579317 -0.02510299 -0.12834762 0.0847232 -0.08350854 -0.15061443 0.004019708 0.11543994
-0.027323578 -0.8860834 0.42538416 0.018956445 -0.23021884 -0.12552118 -0.23805842 0.27349997
0.055746075 -0.040036704 -0.9862381 -1.4029472 -1.0330516 0.044017583 0.29899868 -0.07420323
-0.12818903 -0.15797864 -0.186055 -0.13992181 0.009438472 -0.09640764 -0.08897392 -0.10548508
-0.0970321 -0.08154122 -0.034255806 -0.20398422 0.4283775 -0.17029999 -0.2948052 -0.054081984
-0.085179575 -0.00902294 -0.12070768 -0.04289916 -1.006913 0.00096419454 -0.10185203 -0.21153286
-0.2115788 -0.066323094 2.793778 -0.38374713 1.1636875 -0.082928635 -0.10713485 0.44187877
-1.0163468 -0.051142856 -0.029479973 -0.15214802 -0.0653275 -0.6848081 -0.10768252 -0.07454322
0.80213326 -0.08359481 -0.7133088 -0.10006673 -0.061252613 0.014882221 -0.0043729767 -0.09656611
-0.09387971 -0.09118272 0.6454275 -0.040795516 -0.09398821 -0.16175744 -0.01043028 0.056616172
-0.13714233 -0.14832352 -0.123190016 -0.033412907 -0.011960616 -0.098099984 -0.4450888 -0.05941551
-0.054004185 -0.19839717 0.116445236 -0.027879074 -0.045633275 -0.31432015 0.014242364 -0.1117764
-0.2621609 -0.061196133 0.005222167 0.12438534 -0.09379821 0.08316676 -0.10000618 -0.40734687
0.018380323 -0.11301758 0.054191966 -0.034696173 -0.11113926 -0.09152663 0.062094405 -0.11421612
-0.033216927 -0.03361704 -0.09121505 -0.0524554 -0.08922339 -0.26146483 -0.49900314 -0.03535269
-0.03202668 -0.29922 0.09985106 -0.00086910685 -0.09325263 -0.107605755 -0.15418617 0.17846845
0.058825463 0.14543876 -0.100214414 -0.22750959 -0.09404546 -0.012838184 0.199417 0.11478623
-0.4411586 -0.11481772 0.022132497 -0.26567504 -0.10387155 0.08477172 0.11989258 -1.4495317
-0.15359506 0.007816593 2.4464955 -0.110604234 -0.25113392 -0.11240071 -0.039679408 -0.07298745
0.36214733 -0.7116291 -0.18760355 -0.20440194 -0.241722 -0.17865942 -0.07902282 -0.14329088
-0.017711831 -0.03532028 -0.0751915 -0.018208086 -0.31702945 -0.11774862 0.87717825 -0.09444251
-0.09988238 -0.111024015 -0.009382219 -0.18049954 -0.15205249 -0.42892697 -0.037631176 -0.022984518
1.5546553 0.06240448 -0.09953261 -0.046219476 -0.15259936 -0.086597376 -0.14381835 -0.14825264
-0.081723884 -0.04409117 -0.7154885 -0.0958899 2.2518075 -0.04179477 0.0116341375 0.08981286
0.062040128 -0.10622076 -0.09170188 0.14966084 0.053314 -0.07694829 -0.117886566 -0.054421645
-0.056196366 -0.14775817 -0.10692428 0.1209891 -0.06637362 -0.044532165 0.7228365 0.27964526
-0.024634484 -0.04445772 0.05137334 -0.042609073 1.3017848 -1.0205243 0.013488357 0.2801934
-0.34192532 -0.0478152 -0.097190864 -0.088681795 -0.6851843 -0.004625428 -0.09494197 -0.09309338
-0.5097202 0.8058865 -0.063141204 -0.057340838 -0.041431006 -0.02181235 -0.09961831 -0.033462387
-0.045732416 -0.0801794 0.1641823 -0.06738221 -0.14245003 -0.100450814 0.016098808 -0.11070769
-0.0027177436 -0.10716523 -0.17019522 0.1620449 -0.052478418 -0.03723988 -0.056376707 -0.0009962193

fc4.weight f4 [256, 256]
00000000: 6ada 0b3d 1e11 0bbd fb2e 01bd ba12 693c
00000010: e193 ee3d 2884 b43d 2f8b d63d bca2 7ebc
00000020: df5c 49bd d823 4bbe c7e6 a1bd 896a 85be
00000030: 14f2 c03c 26d3 4b3d cd72 fd3c 4d13 75be
00000040: 1b73 7b3d dee4 65be e02a 81be 71e8 7cbb
00000050: 43df e7bd 55b5 9f3c afc6 f33c 0039 e4bd
00000060: 89f2 c93d 42d6 6c3d d3b5 86bd 4312 73bd
00000070: f433 6d3c 8c57 ab3d 6a0a 4e3e 0511 ab3c
00000080: 2fe1 9cbb 8e69 553d 8a29 8e3d 8c9d 0f3b
00000090: 597f 8fbd 4ccc 463c f545 833d 2cad 0c3d
000000a0: aa4d 4dbc 2935 173e 7905 16bd ad3b fa3d
000000b0: a740 913d 1ab4 06be 6d3f 4f3d 148c b13c
000000c0: 3fd7 a5ba bc27 fe3d e6a4 1ebb 38c9 203d
000000d0: baf7 09bc 2b02 053d b2b3 bf3d f93f 16be
000000e0: 78bb 133d 92ff 8dbc b2bb 1bbf 2e7b 013d
000000f0: a27f 5cbe acbb 583d 7be2 3e3d 4eea 5fbd
00000100: 9465 713c 7a0e f3bd 40d8 2b3d 7f74 07bd
00000110: 5f8a 423c e4af 913d e5f3 9e3d 494f aabd
00000120: d1df aabd 5b20 893d 8f93 59be 352f 2abd
00000130: c3a4 72bc efba 383e ee0b 36bd 6ae5 393d
00000140: e592 09be 4670 963d fc35 b1bd 045c bcbc
00000150: 3924 f53d d5ab 84bd 95c3 df3d 6c9a 17be
00000160: 0b89 76bc c201 633d d263 1c3d b102 863d
00000170: 6255 8a3d af77 4c3a 867b 38bd d606 893c
00000180: b09f 5d3d 56ee 13bd 1f17 e7bc 0102 73bd
00000190: 5b4c c8bc 4a71 83be 1847 6fbc bfde 1aba
000001a0: b3c2 0ebc b0f9 0abd e5d9 c93d 1115 7c3d
000001b0: da7c de3c 636c 6c3e 9696 dd3c e4c9 0bbc
000001c0: 160b 44be 37e5 2d3d 8c39 013e b5f2 d13c
000001d0: 9910 803d e8b4 e2bc eb64 743e 68c6 a3bc
000001e0: d39b 47bd 4294 463c f68d d4bd b0c6 173d
000001f0: eea9 c8bb 5fda a9bc 2e70 d5bd 0456 b8bd
00000200: 9c7a 573c 4027 48bd efbe 823e 7706 ba3c
00000210: d06b 6a3a 87bc d6bb 65b0 0fbc 4583 3cbe
00000220: 9f28 233e 0c68 413e c90a 25bd 485e a3bc
00000230: e8ef 5e3d af99 2c3d aeb2 1ebd 9565 1b3e
00000240: e972 5cbd 7c17 093e 641b 903b 2a1c 14bd
00000250: 8738 94bd f8b1 d23d bfbc a73e af79 f23c
00000260: c1df 26bd e389 b0ba 4fb0 bf3d 3e04 f63c
00000270: bae5 763c fcce 12bd 19e4 a9bc 7a89 0bbd
00000280: 406b 80be 6793 04bd ae2e 13be 2ed8 5fbe
00000290: ae9b 1ebd 548d 08be eaac 52bb d9a5 d93d
000002a0: 9869 58bd 1099 ac3d 92fc 9c3d f45c 1cbe
000002b0: 8614 08bd ed27 55bd 10c3 8cbd 9c89 86ba
000002c0: e9ee 13be 24b2 d93c 8eef 02be 92c0 5ebe
000002d0: 1669 153e 5b67 96bd 69a4 893d 9f3b b2bc
000002e0: 89b1 90bd 7e20 173e fc6a a23d 6801 733c
000002f0: 7799 22bd 39fc 9dbc 04f5 ad3d 0817 8b3d
00000300: 4357 dfbc 095b 5f3d d796 883b e673 3cbd
00000310: 7e93 88be 8f7a 0cbd 771a c9bc f441 8d3d
00000320: 8269 403e 501d 3c3d e189 9a3d 7131 923d
00000330: 7763 673e 89b0 68bd 698c 7fbd f6ca ff3c
00000340: a79a 053d 4968 1f3e 34cf a1bc 70f5 ca3d
00000350: b8f1 583b 82b2 85bd ce43 d2ba 9b81 86be
00000360: 1944 0f3e d015 d6b9 a111 c2bd 9917 b9bc
00000370: 9a44 07bd f55a 1bbd 44b6 d4be fabb 30bd
00000380: 84c4 2a3d 804c 983d 1b8e 55bc 632b 233c
00000390: e727 0ebf 045e ba3d 6611 cb3c 5cc1 f1bb
000003a0: ddd1 843e c8e0 8dbd 1914 13be 5ab3 383d
000003b0: 3b14 eebc a50e ca3d 5043 4dbd 2a9b 183d
000003c0: b186 a2bc 20a1 093d c3f3 553c 8848 9d3d
000003d0: 024e 9b3c 98da 6f3d 848b a23d ea9f e6bb
000003e0: b593 e2bd 7b0d df3c abd6 753c a2cb 81bd
000003f0: 6032 cabc 9385 3e3d c522 833c 2fb6 b43d
0.034143843 -0.03395187 -0.031538945 0.014225656 0.116492994 0.08814269 0.10475766 -0.015541729
-0.049160834 -0.19837892 -0.079053454 -0.26057842 0.023552932 0.049761914 0.03093853 -0.23933144
0.06138907 -0.22450587 -0.25228024 -0.0038590694 -0.11321881 0.019495646 0.029757826 -0.111436844
0.09860713 0.05782152 -0.06577649 -0.059343588 0.014477719 0.083663076 0.2012116 0.020882139
-0.004787586 0.052102618 0.06941517 0.0021913974 -0.070067115 0.012133669 0.064098276 0.034344837
-0.012530724 0.14766373 -0.036626313 0.122184135 0.070924096 -0.13154641 0.050597597 0.02167324
-0.0012652649 0.124099225 -0.0024207174 0.039254397 -0.008420879 0.03247277 0.09360446 -0.14672841
0.036067456 -0.01733378 -0.60833275 0.031611614 -0.21533063 0.052913353 0.046602707 -0.05466681
0.014733691 -0.118679956 0.04195428 -0.033070084 0.011873811 0.071136266 0.07761363 -0.08315904
-0.08343471 0.066956244 -0.21247695 -0.041548926 -0.01480979 0.1804006 -0.04444497 0.045384802
-0.13434942 0.07345633 -0.08652875 -0.022993095 0.119697995 -0.06478087 0.10925976 -0.14805001
-0.015047322 0.0554216 0.038181134 0.06543482 0.06754567 0.00077998167 -0.045039676 0.016726892
0.054107368 -0.036115967 -0.028209267 -0.059328083 -0.024450472 -0.2567237 -0.014604352 -0.00059078255
-0.008713412 -0.033929527 0.09856013 0.061543528 0.027159143 0.23088221 0.027049344 -0.008532021
-0.19144854 0.042454924 0.12619609 0.025628427 0.06253166 -0.027674153 0.23866622 -0.019992068
-0.04873259 0.012120308 -0.103786394 0.037054718 -0.006123773 -0.02073401 -0.10421787 -0.09000781
0.013151791 -0.048865557 0.25536296 0.02270816 0.0008942457 -0.006553236 -0.008770083 -0.1840945
0.15933464 0.18887347 -0.04029349 -0.019942418 0.05442801 0.04213875 -0.03874462 0.15175469
-0.053820524 0.13387865 0.0043977965 -0.03615967 -0.07237344 0.10287851 0.3276119 0.029599039
-0.040740732 -0.0013468828 0.093598 0.03003132 0.0150694195 -0.035841927 -0.020738648 -0.034066655
-0.25081825 -0.032367136 -0.14373276 -0.2185981 -0.038722686 -0.13335162 -0.0032146522 0.10627336
-0.052835077 0.08427632 0.076653615 -0.15269834 -0.033222698 -0.05204003 -0.06873143 -0.00102644
-0.14446606 0.026574202 -0.12786695 -0.21753147 0.14590868 -0.07343932 0.06720812 -0.021756945
-0.07065112 0.14758489 0.07930562 0.014831878 -0.039697137 -0.019285308 0.08493999 0.06791502
-0.02726329 0.054530177 0.004168372 -0.046008967 -0.26675028 -0.03429657 -0.024548752 0.06897345
0.18790248 0.045926392 0.075458296 0.071383364 0.22596537 -0.056808982 -0.062389765 0.031224709
0.03261819 0.15567125 -0.019752122 0.09910095 0.003310306 -0.06528188 -0.0016041936 -0.26270756
0.13990821 -0.00040833512 -0.09476019 -0.02259426 -0.033024408 -0.03792854 -0.41545308 -0.04314802
0.04169132 0.07436466 -0.013034369 0.009959075 -0.55529636 0.09099963 0.02478857 -0.0073777866
0.25941363 -0.06927639 -0.14363135 0.045092918 -0.029062381 0.098660745 -0.050113022 0.03725735
-0.019839616 0.033600926 0.013058606 0.0767985 0.018958095 0.058558077 0.07936767 -0.007038106
-0.11063329 0.027228108 0.015004794 -0.06337668 -0.024682224 0.046514105 0.01600779 0.08823811

fc4.bias f4 [256]
00000000: 3300 433e 3078 43be 92e4 fcbd 4404 55be
00000010: a505 4cbf 3e7e 52bf 8503 6dbe 487d 2dbe
00000020: 681a cd3e 554f b03d 9c78 7dbe 165b ccba
00000030: ea18 f23d 4656 123d a8c9 173e 0249 c4bd
00000040: 1cab 3fbe 5c20 373d 978d 1bbe 7cb6 48be
00000050: e19f 82bd 45fb d23d e3cb e2bd 5ee6 53bc
00000060: 9779 8ebe ccfd 46be 0b2e e83d bfef acbe
00000070: 1218 adbe 6639 54be 4b3f ebbe da44 87be
00000080: 0a47 52be 3cc6 35be a9c1 bcbe 6ce7 893f
00000090: 2a39 46be 7fb9 2d3d 4a85 363e 5503 aabe
000000a0: c592 1fbe f2bf fabd 209f d93d 9b94 e9be
000000b0: 036b 90be 848a fabd 8406 abbc 59b1 df3c
000000c0: 60b8 fb3d a82f 31bf 310f 5dbe b434 94be
000000d0: 5407 b0bc 8469 9ebe e19c 55be dbb1 11be
000000e0: dd3f c9be 5ddd 12bf 1aab e3be 6d7f a7be
000000f0: 0880 763d e932 4d3d a188 aa3c d80e a8be
00000100: bbbc 24be d593 1d3b 7dd1 39bf 421b e43d
00000110: 6c2e b7be 9646 de3e 836f a2be 7be3 713f
00000120: 229b 8cbe 86f9 2a40 ef98 98be 7f0d ef3d
00000130: da06 8fbe 6f04 b9be a31c dcbd 725e 47be
00000140: 0504 c3bd d94f 9fbe ae7d 87be 9f33 1bbe
00000150: bf02 80bd 754e 04be 5d8d 27bf c50a a2be
00000160: 0cb4 a83d a442 39be 1ead 33be 6d5e c53f
00000170: 86e1 0bbf 3394 8abe 8597 17bf f015 78be
00000180: ca99 cdbe 30c2 37be 7c5b 45be c50f 2cbd
00000190: fe29 2a3c 4b05 4abf 5716 73be 458b 5a3f
000001a0: c856 a7be 0505 9fbd b317 943c c85a b4be
000001b0: 4cbf 63be 4711 debe baaa 1f3f a61d 16be
000001c0: ddcf 4fbe cbf2 09bc 97af d5be b227 1b3f
000001d0: d20c 91be 7dc6 bcba 962f cbbd 7480 22be
000001e0: 107b acbe e433 cabe fd89 91bd 1794 87bd
000001f0: ec74 38be 3c5b 41bb f516 aebc 52ee 3ebc
00000200: e9ea e7be 686c 2fbc 4483 d0be cd26 44be
00000210: b623 32be eef9 9cbe ac05 6e3d c658 7bbe
00000220: 261b c53e 37ef 22be 1fb1 2ebe a7c4 65be
00000230: a10d 34be 1a47 1b40 b253 06be d05f 77be
00000240: 42c7 2fbe a877 bebd 45dc a6be 5962 32be
00000250: 5041 e5bd 4049 2dbe 795f 4bbe 224f 9a40
00000260: 4095 64be 77a9 13bf a87c dbbe c62d 0cbf
00000270: 8f8f b7be 0a8d 5ebe 7045 e8be 3547 703e
00000280: f804 8bbe 31fa b1be 7c9e f43e cad9 333d
00000290: dcb2 92bd ca1f 69be f3e8 01bf 1a8e 7c3d
000002a0: c320 0ebf a975 3cbe 8926 aebe a434 45be
000002b0: f431 0c3e afaa 81bc ca32 89be b489 2abf
000002c0: 9e38 06be bf47 17be ceae 73bd d375 3abf
000002d0: 6e6a 953d 012e 1fbe 1313 35be 67c0 923d
000002e0: 964c 3cbc 34ef f53d daff 51be f6d4 a5be
000002f0: 2cf6 9dbe 01b6 e5bd 8df2 71be e79c 2c3f
00000300: cd98 41be 5ebb 3e3c 0d60 5bbe 3fc3 8fbe
00000310: 6b9d 42be e83f 05be a2d6 0dbf 37b5 1dbe
00000320: 882f 883f 77e6 b0be a578 96be 815d 25be
00000330: 895e cabd 0d7b 033f 30ea 4fbc 4f57 4f3f
00000340: 91ad cf3c 25c6 c3be ce2a db3d 5486 3bbe
00000350: ea7d bdbd cc78 50be 15b6 10bf 1b81 eb3c
00000360: 9387 0ebe 91cb dabe 81df 28bf 514b 653d
00000370: 3a30 523e 005f 1e3e 6bca 663d 8c45 f6bc
00000380: 9bd0 61be 5f58 f3bd 5899 533f 3954 76be
00000390: a03f 98bc 23ca 253f 032b 56be 22eb 89bd
000003a0: 4787 74be cf9d a03e 5ef2 8cbe 5326 acbe
000003b0: 1471 5840 7e26 023e 4d1e 2fbe 5b1e 1abe
000003c0: 1021 823c 86b4 e3bd 741d 44be d224 c9be
000003d0: 8e78 6abe 1da8 4bbd 3f6e 92be 2f18 1fbe
000003e0: 631e 1abd dba7 84be 9818 abbe b9a6 3ebe
000003f0: 37c4 5f3f 6f87 023d a375 3cbe 8bee d1bd
0.19043045 -0.19088817 -0.12348284 -0.20802408 -0.7969611 -0.8222388 -0.23145874 -0.16942322
0.4005921 0.086088814 -0.2475304 -0.001559111 0.11821158 0.035726808 0.1482302 -0.09584238
-0.18717617 0.044708595 -0.15190731 -0.19600862 -0.06378151 0.10301832 -0.110740446 -0.012933342
-0.2782714 -0.19432753 0.11336907 -0.33776662 -0.33807427 -0.20725021 -0.45946726 -0.26419717
-0.20534912 -0.17751402 -0.368665 1.0773749 -0.19357744 0.04241323 0.17824283 -0.33205667
-0.15583332 -0.12243642 0.10626054 -0.4562119 -0.28206643 -0.12233451 -0.02087713 0.027306246
0.12291026 -0.6921334 -0.21587826 -0.2894646 -0.02148787 -0.30939877 -0.20860626 -0.14228003
-0.39306536 -0.57369024 -0.44466478 -0.32714406 0.060180694 0.05009738 0.020817103 -0.32823825
-0.1608762 0.0024044414 -0.7258528 0.111380115 -0.35777605 0.43413228 -0.31725702 0.9448773
-0.27462107 2.6714797 -0.2980418 0.11672496 -0.27934915 -0.36136195 -0.107476495 -0.19469622
-0.09522251 -0.31115606 -0.26463073 -0.1515641 -0.06250524 -0.12920554 -0.6545008 -0.31648842
0.08237466 -0.18091828 -0.17546508 1.5419441 -0.54640996 -0.27066192 -0.59215575 -0.24227118
-0.40156394 -0.1794517 -0.1927318 -0.042007226 0.010385988 -0.78914326 -0.2373899 0.8536876
-0.32683396 -0.07764629 0.018077707 -0.3522551 -0.22240943 -0.43372557 0.62369883 -0.14659747
-0.20294137 -0.008419703 -0.41735527 0.60607445 -0.28330094 -0.0014402416 -0.09921186 -0.15869313
-0.3368764 -0.39492714 -0.07106397 -0.06620043 -0.18013352 -0.0029503843 -0.021251181 -0.0116535
-0.4529641 -0.010706998 -0.40725148 -0.19155426 -0.17396435 -0.3065943 0.058110878 -0.24545583
0.38497275 -0.15911566 -0.17059754 -0.22438298 -0.17583324 2.4262147 -0.13117865 -0.24157643
-0.17165855 -0.09300166 -0.32589927 -0.17420329 -0.11194098 -0.16922474 -0.19860639 4.82216
-0.2232256 -0.5768046 -0.42868543 -0.54757345 -0.35851714 -0.2173349 -0.45365477 0.23464663
-0.27152228 -0.34761193 0.47777164 0.04390887 -0.07163021 -0.22766033 -0.5074608 0.061658956
-0.5551874 -0.18404259 -0.34013775 -0.19258362 0.1369093 -0.015828459 -0.2679656 -0.6661637
-0.13107535 -0.14773463 -0.05949288 -0.72836035 0.072956905 -0.15544893 -0.17683057 0.07165604
-0.011492869 0.12008515 -0.20507756 -0.3238904 -0.30851877 -0.11216355 -0.23627682 0.67426914
-0.18905945 0.0116413515 -0.21423359 -0.28078648 -0.19005363 -0.1301266 -0.5540563 -0.15401159
1.0639505 -0.3455083 -0.2938892 -0.1614895 -0.098813124 0.51359636 -0.012690112 0.809926
0.025351318 -0.3823711 0.10701524 -0.18312961 -0.09252532 -0.2035858 -0.56527835 0.028748086
-0.13918905 -0.42733434 -0.6596604 0.05598003 0.2052621 0.15465927 0.056345385 -0.03006246
-0.22052233 -0.1188209 0.8265586 -0.24055566 -0.018585026 0.6476156 -0.20914845 -0.06734301
-0.23879729 0.31370398 -0.2752866 -0.3362299 3.3819017 0.12709996 -0.17101403 -0.15050642
0.015884906 -0.111184165 -0.1915186 -0.39285904 -0.2289755 -0.049720872 -0.28599736 -0.15536569
-0.037626635 -0.25909314 -0.334172 -0.18618287 0.87408775 0.03186744 -0.1840425 -0.102505766
