model/DDQN with batchnorm/EX1_Player_model_epoch_500.pth (torch_old, 854519 bytes, 10 tensors)

fc1.weight f4 [256, 57]
00000000: 2fc8 163f e513 833e 5f94 a73c ff5f abbd
00000010: a3e8 aa3e f13d 8d3e 06a9 1a3f 6ad8 e23e
00000020: db4a c4bd d68e 813c bb19 30be 32ed 3ebe
00000030: 81c7 e63b 2e26 19bd 13db af3e 1cc9 da3d
00000040: b8e0 9d3e f3cf a03e 7390 763e 0a3f f13d
00000050: c919 fcbe 3158 1a3f 0fa3 a5be b597 85bf
00000060: d8bf 833f 995f 963d 31d0 2fbe 84e8 53be
00000070: 68c5 aabd 0243 ecbe 427a 53bd 7af4 983d
00000080: 30f2 2f3c 1ce1 b5be 95ec 103e d7f0 e0bc
00000090: ae3f bebe 9d22 b23e 1016 723d 3c48 643e
000000a0: 6042 e43b 5e74 ecbd d8f6 f13d 55b1 d5be
000000b0: 2707 57be 93f4 83be 002b 57be 20c2 303e
000000c0: 291c 43be bfd1 98be 327d a4be 3b17 a53e
000000d0: 0cea 76be 8b2d 3639 e031 2dbe ad4d bebe
000000e0: 9ea6 c03e ff1f dc3d 7016 85be 6738 553c
000000f0: 9fc0 c2bd ebdc 373e ecc3 5abe 1f6e 583e
00000100: 1b88 81bd 06dd 4c3e 6f7e bcbd 62c2 e23d
00000110: 7010 acbd 2b56 693e 07ed 83be cd78 c33d
00000120: b4d8 b8bd e149 123e b8c6 cdbd 3437 673e
00000130: 43ca 28be 28ba 30be 5eb6 c5bb 8769 c4be
00000140: 09ae 49be 93ac 863d 4c17 493d ed00 d5be
00000150: 561f 3f3d e8c9 b6bc 8a82 a23e 9c58 78bd
00000160: 2c1c 15be 6b65 05bd f37f 6fbe 5b24 713d
00000170: d814 103e cb81 6ebe 718b 0ebe e0f7 afbd
00000180: 543f 593d 981a e33c ef42 fcbd 0e0d 25bd
00000190: ac5a 22be 2223 b23d 2549 adbd 010b a2be
000001a0: 7ff4 32be 0ab6 96bd 4b0b c4be 75f7 2abe
000001b0: 0c4c 413d e4ca 86be 9298 67bc b925 5cbb
000001c0: 4b3e babe aad3 073e 4036 a93e 2dd2 e23c
000001d0: 0ace 013f 4750 a63e a86e 043b d377 02be
000001e0: 8970 c5bc 0090 91be 8012 acbe 3d99 a2be
000001f0: a7e1 b0be ddf8 97be b576 a2be 93a1 1cbf
00000200: 197b bc3d 7b52 05bc b1b0 a7bd e508 21bd
00000210: df28 d4bd 4452 73bd b648 183e 7c06 54be
00000220: 4863 393e b156 8f3c 312a 4d3d feab b93e
00000230: a590 783d 328b 1cbd 5ec5 003e 7a09 373e
00000240: b7ae f3bd cb90 c33e 2f86 b53e 7cf6 83bd
00000250: 80bd 453d 51c2 263e ff08 40be b10a 183b
00000260: e416 dcbc 8ede 13bd 16a8 923d 284c 49be
00000270: 643a 20be 2561 2cbe cec8 a1bd 32c0 91bd
00000280: d3bd b8bd af1b 6b3e 70a3 94be 295b 37be
00000290: b0ac b5bd 9fdb 0b3f 5db8 ffbd 2ffc f83e
000002a0: 7883 9fbd a3cc 96bd ca71 2c3e a2ab 163f
000002b0: 043f 1c3d 890b 523f b7a5 cbbe 915d 2d3f
000002c0: 2213 94be f84f 493e b67a 29be 2e08 0e3f
000002d0: a0aa 2f3e 5a4a 893e 95a9 3cbe b43a 493e
000002e0: 9e21 0ebe bb81 d4bd 07fe 2bbf 8c62 febd
000002f0: 71b4 eabf 2633 c3bd 11fa 9dbf d5bf 21bf
00000300: 925e 9d3e cc09 483d ea59 84be e340 f3bf
00000310: 9115 ca3d 7a09 3ebd cdaa 5ebc 0062 3dbb
00000320: b0dc 6d3e f8dc ae3d 38cd 05bf c14a 303e
00000330: 7288 33be 6582 b23d 77a6 5c3e 3507 5a3c
00000340: 3e78 2d3d 8065 893c b350 9c3e e87e d6bc
00000350: 25de 793e 1152 9f3d 0e13 bebd 77f8 323e
00000360: f2cf 65be 1a2c 25be af99 773d 164b b23c
00000370: caa5 cfbd cca9 7c3e 97a3 d23e 027d b4bd
00000380: aa48 553d 1c68 0d3e 1cb1 3ebe 4a38 d9be
00000390: b7a8 993c b9c6 943d 2d17 34be 035e 02bd
000003a0: 84df a4bd 97a8 fb3d 2e06 163b 8dec 0bbe
000003b0: 2cdc 81bd f64f 33be c74b 52be 7c53 2ebe
000003c0: b8b5 f6be ba42 36be 6652 48bf ed6e a5be
000003d0: ff51 c03d eb01 2fbe 00a3 823d 6065 7cbe
000003e0: 08c2 10bf e0cb 8f3e 654c 163d f420 943f
000003f0: 52b3 a1bf 1c43 05bd 26a1 11be 62fe fdbe
0.58899206 0.25601116 0.020456491 -0.08367919 0.33380613 0.2758632 0.6041416 0.44305736
-0.0958459 0.01581518 -0.17197315 -0.1864517 0.0070428257 -0.037389927 0.34346828 0.1068289
0.3083551 0.31408653 0.2407854 0.11779602 -0.49238423 0.6029082 -0.32350966 -1.0436922
1.0292921 0.073424526 -0.17169262 -0.20694166 -0.083384335 -0.46144873 -0.051630266 0.07468505
0.010738894 -0.35523307 0.14152749 -0.027458591 -0.3715796 0.34792033 0.05910307 0.2229318
0.0069659203 -0.11545633 0.1181466 -0.41736856 -0.20998822 -0.25772533 -0.21012497 0.17261553
-0.19053711 -0.29847524 -0.32126766 0.32244286 -0.2411272 0.00017373839 -0.16913557 -0.37168637
0.3762712 0.1074829 -0.2599368 0.013013936 -0.09509396 0.17955367 -0.21363801 0.21135758
-0.06324788 0.20006189 -0.09203803 0.11072232 -0.08401573 0.22786777 -0.25766775 0.09544525
-0.09025708 0.14285995 -0.10047668 0.22579652 -0.16483407 -0.17258513 -0.0060337028 -0.3836176
-0.19695295 0.06575885 0.049094483 -0.4160227 0.046660744 -0.022313073 0.31740218 -0.06063138
-0.14561528 -0.032567423 -0.23388653 0.058872562 0.14070451 -0.232917 -0.1392038 -0.085922
0.05303891 0.027722642 -0.12317454 -0.040295653 -0.15854901 0.08698107 -0.08461217 -0.3164902
-0.1747608 -0.0735894 -0.38289866 -0.1669596 0.047191665 -0.26326668 -0.014135497 -0.003359182
-0.3637565 0.13264337 0.33049202 0.02768811 0.50705016 0.32483122 0.0020207558 -0.12741022
-0.024101513 -0.28430176 -0.33607864 -0.31757537 -0.3454716 -0.29682055 -0.3173119 -0.6118404
0.092031665 -0.008137341 -0.08187998 -0.039315123 -0.10359358 -0.059404626 0.14871487 -0.20705599
0.18104279 0.017497392 0.050089065 0.36264032 0.06068482 -0.038218684 0.1257529 0.17874709
-0.118985586 0.38196406 0.35453936 -0.064434975 0.048276424 0.16285063 -0.18753432 0.0023199732
-0.026866384 -0.036100917 0.07160966 -0.19657958 -0.15647274 -0.16833933 -0.078996286 -0.071167365
-0.09020581 0.22959779 -0.29030943 -0.17905869 -0.08870828 0.5463199 -0.124863364 0.486299
-0.077887475 -0.0736325 0.16840282 0.5885564 0.038146034 0.8204885 -0.39774868 0.67720896
-0.28920847 0.19659412 -0.16550717 0.5548123 0.17154932 0.26814538 -0.18424065 0.196513
-0.13880011 -0.103763066 -0.6718449 -0.1242114 -1.8336316 -0.0953124 -1.2341939 -0.6318334
0.30736214 0.048837468 -0.2584985 -1.9004177 0.09867395 -0.046395756 -0.013590527 -0.0028897524
0.23228717 0.0853824 -0.52266264 0.17216016 -0.17532519 0.08716277 0.21547876 0.013307382
0.042351 0.016772032 0.3053032 -0.02618356 0.24401148 0.07779325 -0.09280978 0.17477594
-0.22442606 -0.16130105 0.0604493 0.02176432 -0.10139044 0.24674147 0.41140434 -0.08812906
0.05207125 0.13809246 -0.1862225 -0.42425758 0.018757207 0.07264466 -0.17586966 -0.031827938
-0.08050445 0.12288015 0.0022891867 -0.13664456 -0.063408226 -0.17510971 -0.2053672 -0.17024034
-0.48185515 -0.17798892 -0.7825073 -0.32311192 0.093906395 -0.17090575 0.06378746 -0.24648046
-0.5654607 0.28085232 0.03669395 1.1572556 -1.2632849 -0.032534704 -0.1422163 -0.4960814

fc1.bias f4 [256]
00000000: e5be 9dbe ab35 4ebe d8b8 03bd bb2c 45be
00000010: e2cc 8fbd fb7e acbd 456b 15be 3179 c43c
00000020: 445f 21be c24d 2cbc 03c3 87bd 3ed5 23be
00000030: 2be8 84bc 4280 c43d 89d3 2cbe 2516 42be
00000040: 746b 8a3d 35fc c3bd 59f5 30be 2953 383d
00000050: dfb8 1dbe a034 c4bd 1592 cfbd 1e06 ffbd
00000060: 9b66 d5bc 5fa0 90be 4f19 2ebe 021e b5bd
00000070: 5339 dd3c d210 3cbe 76fd abbd 885c 71be
00000080: 70d3 0cbe f0b6 a53d 34d6 9b3e cc60 84be
00000090: 473a bdbd 5ed0 a9be 4850 d3bd e2ad 83be
000000a0: 2429 06be 3974 b5be fd22 b73c e419 0f3d
000000b0: 1ec6 0ebd 308c 18bd 544b a9be 590f 73be
000000c0: a966 85be 881a 22be 724a 47be 02f3 65be
000000d0: f948 123c 0ac7 afbe 21fd c0bd 1dde 9ebc
000000e0: dc88 a4bd 6b44 f43d 151e 333e 86ab e0bd
000000f0: a85e a0be 65ae 59be 88ea 91be 22ce 183e
00000100: cbbe e13d 8fee 87be 5117 c6bd 9bf6 f23d
00000110: 0612 e63d 0f4b 5e3a 4da5 3bbe 5e2a 32be
00000120: ed9f 7abe cdd5 d13c 26f1 95be d4d8 d13d
00000130: fdac 563e c8a5 14bd a690 bdbd 7b97 fcbd
00000140: 9a19 373e 8f9a 71bc cbdb 0fbd b1fe 07be
00000150: c98d 71bb d18e 01be d6c3 a23d 4f08 133d
00000160: ecc5 a7bd ae32 16be 7736 393e 2f62 6dbd
00000170: 3d24 68be 716f cdbd 1cdd d1bd b59e 21bd
00000180: 4384 d0bd d119 363e 5e59 0d3e 33cc b7bd
00000190: 7f00 e13d 5047 89bd 0d81 81be b130 d83d
000001a0: ed48 18be 3949 3abd eb98 f9bc b3b3 afbd
000001b0: 3807 a2bc f8ef 1cbe ccb2 2cbe 1dda abbc
000001c0: 2670 9fbc a40a 53bb 08a0 6d3c 9fe4 2ebd
000001d0: 5e01 04be f59f 9e3d 9c69 073c 68c9 9cbd
000001e0: a266 0e3e 9ceb 0d3e 2756 13be a699 f83c
000001f0: f9fe 82be 4c55 a9bd f1c1 3a3e b73a 70be
00000200: 33d1 2ebd 34ee f03a 898d 0bbd bdd9 febd
00000210: 2a8d 9b3c 7126 7dbe 89af c8bd 7b48 9dbd
00000220: 83ca 403d 2086 3f3e d588 163e 78f7 48be
00000230: 0029 be3d 65ce 1b3d 1b14 99bd 51d5 34bc
00000240: fd41 02be d58d 6c3c 9073 fabd b1f0 2dbe
00000250: 5f01 163e 1733 79be 8ed2 2abc 527a e1bd
00000260: 83f9 d93d 9423 1c3e efbb 7dbe c6db 2ebe
00000270: 2649 1dbe a8df e2bd 610f 91be 8d46 19be
00000280: f5c7 8f3d 76d8 7cbe 053a 293e 2fd5 6fbe
00000290: c82e 5fbe e7b4 50be e764 67be fc2a ebbd
000002a0: 2469 b9bd ad61 50be d4de 01bd 1c25 18be
000002b0: 09cf 0abe 134f 95be c435 babe 74c6 25be
000002c0: 6250 40be c9cd 7fbd 800a d33c ed0f 163e
000002d0: 892e b13c 29ff 84bd 74d0 3ebe c2b6 37be
000002e0: a0ad cb3c f431 173e 5573 573d 5dee 95bb
000002f0: 004f 94be e5dd cdbc 15ad 56be 8f19 26be
00000300: 39f7 433e 27a0 a3be 3594 afbd 4682 79be
00000310: aa1d 0c3e 9bec 1b3e a50e c4be 5b86 2dbe
00000320: 1ec4 9d3b 4bbc 5dbe 0942 11bd 3e54 83bd
00000330: 57de 173e 377c 3a3e c1be 6dbe b8aa dd3c
00000340: 9198 2a3d d0fc acbc fdee 7dbe babb c0bd
00000350: d4fb 7abd ea17 5fbd cd38 ccbe 5e2e a6be
00000360: 1606 fa3c c47e 47be d65c e5bd d923 debd
00000370: d59a 85bd f976 723d 28fe 20be 106c 64be
00000380: 3b94 1ebe e98b bcbd 3152 553c 9fcf 11be
00000390: 3cc1 403e 1163 a7be adb9 833c fcdb bebd
000003a0: 138b 96be 2362 173e 8721 013d e171 68bd
000003b0: 1de9 f4bd 0afa 48be e1c5 0dbe e826 d0bd
000003c0: 8d37 863d 6e7b 893d 583d 53bd f13b 5a3d
000003d0: 0bc9 9c3d 610a e2bc 5f06 16be 384d bbbd
000003e0: e8ac bebd caba 473e 3b09 9bbe 2a70 e0bd
000003f0: b2c8 803d 856e 3fbe 0bb4 f8bd fb52 59bd
-0.30809703 -0.2013766 -0.032158703 -0.19255345 -0.070215 -0.08422657 -0.14591701 0.02398357
-0.15758997 -0.010516586 -0.066289924 -0.15999314 -0.016223988 0.09594776 -0.1687757 -0.1895376
0.06758776 -0.09569589 -0.17281093 0.045001183 -0.15402554 -0.0958035 -0.10135285 -0.12452339
-0.026049903 -0.28247353 -0.17001842 -0.08843614 0.027004873 -0.18365791 -0.08397953 -0.23570454
-0.13752532 0.08091533 0.30436862 -0.258551 -0.09239631 -0.33166784 -0.10318047 -0.257186
-0.13101631 -0.35440233 0.02235555 0.0349368 -0.034856908 -0.03724307 -0.33065283 -0.23736323
-0.26054886 -0.15830433 -0.19461992 -0.22455981 0.008928531 -0.34331542 -0.094232805 -0.019393021
-0.08033916 0.11927112 0.17491944 -0.109702155 -0.31322217 -0.21257932 -0.28499246 0.14922383
0.11022719 -0.26549193 -0.09672416 0.118634425 0.112339064 0.00084798125 -0.18324776 -0.17398974
-0.2447507 0.025614643 -0.29285544 0.10246435 0.20964427 -0.036290914 -0.09256105 -0.1233358
0.1788086 -0.014746322 -0.03512172 -0.13280751 -0.0036858192 -0.12652136 0.07947509 0.035896596
-0.081920475 -0.1466777 0.18087183 -0.057954963 -0.22670074 -0.100310214 -0.102472514 -0.039457995
-0.10181477 0.17783286 0.13803622 -0.08974495 0.10986423 -0.06703055 -0.2529377 0.10556162
-0.14871569 -0.045479987 -0.030468425 -0.08579197 -0.019778833 -0.15325916 -0.1686508 -0.020978028
-0.019462656 -0.0032202387 0.014503486 -0.0426985 -0.12891147 0.07745353 0.008264925 -0.07655603
0.13906339 0.13859409 -0.14388333 0.030346703 -0.25585154 -0.08268222 0.18238045 -0.23459898
-0.042679977 0.0018381537 -0.034070525 -0.12443874 0.01898821 -0.24721695 -0.09799106 -0.0767984
0.04706813 0.18703508 0.14700635 -0.19625652 0.09285164 0.03803863 -0.07474538 -0.011037187
-0.12720485 0.014438112 -0.12229073 -0.16986348 0.1464896 -0.24335895 -0.010426177 -0.11009659
0.10643294 0.15247947 -0.24778722 -0.17076024 -0.15359935 -0.11077815 -0.28332046 -0.14968319
0.07020561 -0.24691948 0.16526039 -0.23421167 -0.2179519 -0.20381509 -0.22597085 -0.11482808
-0.09053257 -0.2034976 -0.031706646 -0.14857906 -0.1355554 -0.2916189 -0.36369145 -0.16188985
-0.18780664 -0.06245211 0.025761843 0.14654513 0.021628635 -0.064939804 -0.18634206 -0.1794081
0.024863064 0.1476515 0.052600224 -0.0045755343 -0.28966522 -0.025130222 -0.20964463 -0.16220687
0.19137277 -0.31958124 -0.0857319 -0.24366102 0.13683191 0.15226977 -0.38292423 -0.16945784
0.0048146388 -0.2165386 -0.035463367 -0.06412552 0.1483091 0.18211447 -0.23217298 0.027058944
0.041649405 -0.021116644 -0.24798198 -0.09410806 -0.06127532 -0.054466166 -0.39887086 -0.3245725
0.03052048 -0.19481951 -0.11199348 -0.10846681 -0.065236725 0.059195492 -0.15721953 -0.22306848
-0.15486233 -0.09206373 0.013020084 -0.14239357 0.18823713 -0.3269277 0.016079748 -0.093193024
-0.2940298 0.1478353 0.031526115 -0.05674923 -0.11958525 -0.19626632 -0.13845016 -0.10163671
0.06553564 0.067129955 -0.051572174 0.05327982 0.076555334 -0.02759284 -0.14650868 -0.09145588
-0.09310323 0.19504848 -0.3028048 -0.109588936 0.062882796 -0.18694504 -0.121437155 -0.053057652

fc2.weight f4 [256, 256]
00000000: 5271 c9bd 0085 aaba 689f a53e 6f17 a1be
00000010: 75fe 363e 1383 35bd d811 b1be b24a c1bd
00000020: d52b 373e 6053 563d b373 82bd a4e8 dbbe
00000030: c705 503e 6887 af3e 6ef2 88be 9112 59bd
00000040: 5a8b 913d b814 0bbf 8a27 b63c 3d5a 6dbf
00000050: c14f 93bc d0d1 90be ea3a a1bd d96f b23e
00000060: e231 ab3e d496 763e fffc 12bd 624d 09be
00000070: 3228 58bd 0483 bf3e 27ca 36bd 6422 c73d
00000080: b3aa 083e e7d0 aa3d e4de 4b3b 6f7e 403e
00000090: b89e 123d 6fea 203e 0cd9 3a3d 3d3c 853e
000000a0: 1a62 203c be11 4b3e 3ebc 0e3f 8486 7fbd
000000b0: 22a1 d6bd 8758 513e fec3 86be 40ab fd3d
000000c0: 1a58 063e 62bc 6f3b e252 fa3d c031 6f3e
000000d0: ecf5 7a3e eb4e f6ba dc39 2b3e 92fd 2cbe
000000e0: 2a55 b03d 0c4d 66bb 8c39 d8be d1bf 81bc
000000f0: 3170 4bbe eed8 163e 2182 08be b8b7 a9bd
00000100: 7005 68be 0981 a93e 9cba adbc 29b4 eb3d
00000110: 921b 1e3e a3b3 283d d0a1 d73d 7416 25bc
00000120: 4ee6 a73d e0af 153e b223 083e 8af3 2cbe
00000130: b8ca 0cbd 31be b33d 17bc 823e 689c f83d
00000140: e27a b9bd c9ed 323d e565 bfbd 8704 34bf
00000150: 2eb6 a6bd cbfe 053c ef29 4fbc 8445 72be
00000160: 3c06 af3d eb6e 98be 9f79 893d e3a8 40be
00000170: 458b 1d3f b969 8b3e 0670 2ebe e315 8dbe
00000180: d87b 44be 827d 1bbe c6b1 99bc 0408 78bd
00000190: 0e62 d73d 0cd8 e8bd 140b c83b 08fe d4bd
000001a0: fd93 403d 35b9 14be c798 9c3c 816e 8b3e
000001b0: 2080 953d 6f7e 583e 8945 08bd b682 efbd
000001c0: c342 a33e 4640 113e 7a74 203d 52e8 033e
000001d0: 41b4 103f 021f 6dbe f1a8 a1be 24a3 373e
000001e0: d025 b83d 364d c5be 5d5c 333e 2fd4 433d
000001f0: a09d 773e 01ce e13c f57c c63d 021f 9bbd
00000200: 851f d43d 6cdf 693e de0b 11bd 874c aa3e
00000210: 45b2 10be edf6 3bbe ab79 a9bd 8d23 043e
00000220: bcd1 11be 5ecf cfbd e741 c6be f6c1 883d
00000230: dcf9 0c3e e4a5 863e 7fbc c3bc 5c34 12be
00000240: a333 41be a162 dabe 5d75 e4bc 84fd e83d
00000250: 1d85 c93d 4009 05be d074 f73e 564f 993d
00000260: 6156 f6be 0bb0 98be 6582 8fbe c940 88be
00000270: 8106 1fbe 07a2 8d3e 4f29 63bf cc6e 2dbe
00000280: f564 ba3b 9ba1 903c ded3 db3d 5eb5 29be
00000290: 3b9f ca3e db74 c7bd acfc 7c3d 294d 5f3e
000002a0: 661e c6bd 6a20 443e 4324 1d3e 90ce 95be
000002b0: a365 d33b cccd 5dbe a0e2 febd b8b3 503e
000002c0: 3329 96bd 914e c8be a0eb a93d ff3d 453d
000002d0: a7fe 863e 3868 1139 64d8 0b3f e41e bdbe
000002e0: 0c88 a4be 64c6 5e3e bda4 40be a53f 153e
000002f0: 4f34 863e d0ec 48bd 7cd7 c6bd c38d b03e
00000300: b75c aabe a196 54be d80d 0b3e 5dc4 dc3e
00000310: 1e06 1dbe 1c0c 433e 95be 3e3e 75d9 853e
00000320: 2cf1 1d3a c12f b5bd 8c74 a53d 5063 acbb
00000330: 978f 0fbe 5d09 b33e e936 85be e770 493e
00000340: 0b03 7b3d 33f7 9cbd 41f1 0dbe db87 493e
00000350: c2d0 433e 86b3 a23c 76c7 063e d0e3 f43b
00000360: 7f83 163e 4fc5 d73d 614e 2e3e be0f 093e
00000370: f28e 8d3d d2b3 023e 4f33 523e 8623 d83d
00000380: 1ef1 193e f02d 243e 5eda 88bc 81bc f03d
00000390: 9535 d53d e782 b3be 1050 12bc 7f52 f83d
000003a0: 84eb 1abd d9ef 0b3e 13f5 9c3e 7b05 2a3e
000003b0: 1be1 3c3e 0cf3 0ebe c288 05be fdbd 193c
000003c0: 3638 27ba d829 983d 201b 73be f796 4e3e
000003d0: 4476 0bbe 09d9 353e aa2a 2cbe e92b e6bd
000003e0: d64d 2a3e d14d 07bc 8cb9 3d3d ab40 223e
000003f0: 980e 34bd cbc1 3ebc c7f3 75be c38f 6c3e
-0.09836067 -0.0013009608 0.3234818 -0.3146319 0.17870505 -0.044314455 -0.34583926 -0.09438075
0.17887814 0.052325606 -0.06369724 -0.42950928 0.20314704 0.34282994 -0.2674746 -0.052996222
0.07106657 -0.5432849 0.02223565 -0.9271582 -0.017982366 -0.28285074 -0.07872565 0.34850958
0.33436495 0.24080974 -0.035885807 -0.13408425 -0.05277271 0.37404644 -0.04462638 0.09723356
0.13346367 0.08340626 0.0031108195 0.1879823 0.035795897 0.1571443 0.04561715 0.2602252
0.009789014 0.19830987 0.55755985 -0.062384143 -0.104799524 0.20443927 -0.26321405 0.12386179
0.13119546 0.003658079 0.1222284 0.23358822 0.24507874 -0.001879183 0.1672129 -0.16893604
0.08609994 -0.0035141138 -0.42231405 -0.015838536 -0.19867016 0.1473119 -0.1333089 -0.08286995
-0.22658324 0.3310626 -0.021207146 0.11508972 0.15440205 0.04118694 0.1052891 -0.010076154
0.08198224 0.14617872 0.13294867 -0.16889778 -0.034373015 0.087765105 0.25534126 0.12139207
-0.09056641 0.0436838 -0.09345607 -0.7031941 -0.08140217 0.008178423 -0.012644275 -0.2365933
0.08546111 -0.29772124 0.067126505 -0.18814425 0.61540633 0.27229097 -0.17034921 -0.2755576
-0.19187868 -0.15184596 -0.018761527 -0.06055452 0.10516749 -0.11369333 0.0061048362 -0.10400015
0.047016133 -0.14523776 0.019115819 0.27232745 0.072998285 0.2114198 -0.03326944 -0.11694853
0.31886873 0.14184675 0.03917358 0.12881592 0.56525046 -0.2315636 -0.31574205 0.17933327
0.08991587 -0.3853547 0.17515703 0.047809776 0.24181223 0.02756405 0.096918024 -0.07574274
0.103575744 0.22839135 -0.035411708 0.3326151 -0.14130504 -0.18355913 -0.082751594 0.12904187
-0.14240164 -0.10146974 -0.38722154 0.0667762 0.13767189 0.2629844 -0.023893593 -0.14277786
-0.18867354 -0.42653373 -0.027887994 0.11376479 0.098398425 -0.1299181 0.48331308 0.07485835
-0.48112777 -0.2982181 -0.2802917 -0.26611927 -0.15529825 0.2766268 -0.88734907 -0.16936797
0.0056883045 0.017655184 0.1073377 -0.16573092 0.39574608 -0.09739085 0.061764404 0.21806778
-0.09673767 0.1915299 0.15345864 -0.29259157 0.006451325 -0.21660537 -0.12445569 0.20381057
-0.07332077 -0.3912244 0.08296895 0.048154827 0.2636616 0.00013867102 0.5462706 -0.3693763
-0.32135046 0.21755368 -0.18812843 0.1457506 0.26211783 -0.049053967 -0.09709069 0.34483156
-0.3327386 -0.20760585 0.135795 0.43118563 -0.15334365 0.19047588 0.18627389 0.2614247
0.0006025012 -0.08846999 0.0807887 -0.0052608624 -0.14019619 0.3496808 -0.26018456 0.19671975
0.0612822 -0.07664337 -0.13861562 0.19680731 0.19122604 0.019860994 0.13162026 0.0074734464
0.146986 0.105356805 0.17022087 0.13384911 0.0691203 0.12763909 0.20527385 0.105536506
0.15033385 0.16033149 -0.016705688 0.11754704 0.104106106 -0.35060808 -0.008930221 0.1212511
-0.03782226 0.13665713 0.30655727 0.16603653 0.18445246 -0.13959903 -0.1304045 0.009383676
-0.00063789205 0.07429856 -0.23740816 0.20174776 -0.13619334 0.17758574 -0.1681315 -0.11238844
0.16631255 -0.008258299 0.04631953 0.15844981 -0.04395923 -0.0116428835 -0.24018775 0.23101716

fc2.bias f4 [256]
00000000: edd4 83bc 7998 b03e 0fd9 87bb 1f35 963d
00000010: 294a 50bd c0cd 13bc 692b 8fbd aaf9 6ebe
00000020: 7030 423e 2572 8b3c e09e 69be de5c 09be
00000030: 6344 0cbd 0273 7b3e 9c7c 87bc ef7b a63e
00000040: a601 c5bd 5f31 9a3e 7bdd e73d c4c1 9dbd
00000050: 3a07 80bd 2206 40be 3fd1 41bc 99f3 51bd
00000060: 6b12 8c3d 14e1 a73e 80b0 b8bd 95e6 f53c
00000070: 6737 2e3a 61e5 093d 19dd 973e 20f8 1bbd
00000080: 4248 e6bd 399b 3abd 33f7 2e3c 1889 a2be
00000090: be98 80bd a9d9 843d 30d1 cc3e bed4 dc3c
000000a0: d1a9 f0bc 6f29 bebc 57e2 aabe 34be cabd
000000b0: 894e c4bd de47 983d bf75 dabb 06db d5bd
000000c0: 32f1 e2bd f807 54bd c9cf d2bd 2b3e b03c
000000d0: 0c2e fdbd f01d 613c 9482 b1be 9f27 92bc
000000e0: 444e 23bc be34 94bd 3f84 60be fcc3 dcbe
000000f0: c0c3 debd ea80 2cbd 4464 09bd 5769 9cbd
00000100: ddda 8ebd ad30 16bd 21f8 013e 41ad cabd
00000110: ff72 d53b 8da1 3d3e 67dd 4c3e a2b9 ce3d
00000120: 406c a4bb 7c88 84bd f9e3 0a3d f056 ec3d
00000130: 87b2 6ebc d855 883e 59eb f5bc a6cc 85bd
00000140: 30d1 3fbe c36f 85bd af31 8d3e 7120 973e
00000150: 987e 9cbc 629b 073d ea8c d6bd 0dfc 51bd
00000160: 90df 303d a283 51be 6a5e f6bd 9550 723d
00000170: 92ce abbc e066 823d 0bc2 9abc d6d4 e03d
00000180: a1c1 5cbd d66d afbc 1189 763e a3d5 84bc
00000190: df1d d8bd a071 ab3d b21b e3bc 566e d13d
000001a0: eef9 3b3e 9e80 bcbc 84f0 e9be 2fb5 b0bd
000001b0: f554 7abc 799c 9abd b524 97bd 9732 2abc
000001c0: 868f acbe 84e5 a2bd a020 97bd 3cbf 4abd
000001d0: bd5a 2ebc c577 963c 2782 9fbd 6818 013d
000001e0: ac37 17bd 8eec f63b 488e 59bd a498 393d
000001f0: 6636 b4be 3597 e0bc 738b c2bd ea29 bfbd
00000200: 26ed 243e ddd5 72bd 6d9d bd3e 8f37 d83d
00000210: 3e11 b33e c9a4 8fbd 714c c2ba de31 ed3c
00000220: 11b3 79be d069 01bd 2780 543d b414 febd
00000230: 046e 19bd 7221 723d 0afa 27be 1781 39be
00000240: dba0 e4bd df3c 36bd 031b 403e b65b bbbd
00000250: 2837 a1bd 8ded 9dbd 4a22 45be 740e 9abc
00000260: c6e6 b6bd 7ca3 69bc a277 84bd 2643 8fbd
00000270: d6e7 76bc 6d87 5f3d 42dc 34bd 2c91 4c3e
00000280: f42d 5abd 2bda 3a3e d4cd 98bd 88fe 0d3d
00000290: 8786 e7bc d5cc c1bd 9776 cfbd 8415 9ebc
000002a0: 7be6 50be 3731 05bd cae6 893c 5e51 ce3c
000002b0: 817e 8f3e cd14 67bd cf0a 62bd f093 e6bc
000002c0: d667 45bd 457f 2bbc 6ee6 743d 500e 86be
000002d0: b838 2fbc 930a 01bd d7b8 883d f895 743e
000002e0: b77f 3abe 6da6 15be 38bf 873e 28d5 9bbd
000002f0: 8c5f 19be 6aa4 a73b ef72 7b3d 6889 5fbd
00000300: 8945 0a3e a49d 83bd ba40 77bd e2b0 8cbd
00000310: 2e4b 983e 6f12 53bd f617 16bc 4588 bd3d
00000320: 1ff3 7cbc 46fb 873d aacf a4bd a47f cdbe
00000330: 26b8 90bd 1cc5 a93c f999 dbbc cd0d e3be
00000340: d25c 6d3b 8d9d 0f3e 5207 d7bd 38d6 70bd
00000350: 74ff abbd 93d8 99be d23d d43d 882e 673e
00000360: bfbe 2dbd 5013 04bc 236a b23b 661e 9dbe
00000370: 24bc c4bd 59d7 8ebd 4293 963c e629 8cbd
00000380: 799e fcbb 88d8 a8be 3cff dabd cfee 08bc
00000390: 8926 b1bb e3cd 03be abea 213d bc0a 98be
000003a0: 68b5 60bd f1e8 6e3e 73f7 81be d999 87be
000003b0: 89f8 c4bd 6f3c cdbd ca74 b93e 2651 3cbe
000003c0: a383 d43d b403 0dbd 6abe 583b d34b 8a3e
000003d0: 3965 99bb 7b78 dfbc 86d1 7dbc fefb 13bd
000003e0: aa70 4abe 0b0c 29bb 072e a6bd f53b a7bc
000003f0: a62a 8a3b a5a1 18bd 8544 4cbb 1b95 63bd
-0.016092742 0.34491327 -0.0041457484 0.07334351 -0.050851975 -0.009021223 -0.06990702 -0.23337427
0.1896379 0.017022202 -0.22814512 -0.13414332 -0.034244906 0.24555591 -0.01653891 0.3251643
-0.09619455 0.30115792 0.11321541 -0.077029735 -0.06251378 -0.1875234 -0.011829673 -0.051257703
0.068394504 0.32788908 -0.0901804 0.030017177 0.0006645829 0.03366602 0.29660872 -0.038078427
-0.11244251 -0.045558188 0.010679054 -0.3174522 -0.06279133 0.06486828 0.40003347 0.026956912
-0.02937785 -0.023213116 -0.3337581 -0.098995596 -0.09585292 0.074355826 -0.0066668685 -0.10442166
-0.110811606 -0.051765412 -0.10293538 0.021514019 -0.12362298 0.013740048 -0.34669936 -0.017841158
-0.00996739 -0.07236622 -0.21925448 -0.43118274 -0.1087718 -0.04211513 -0.033542886 -0.076372795
-0.069753386 -0.036667515 0.1269231 -0.09896327 0.0065139527 0.18518658 0.20006333 0.100940004
-0.005017787 -0.06471345 0.033908818 0.115400195 -0.014568931 0.26627994 -0.03001945 -0.06533174
-0.18732142 -0.065154575 0.27576968 0.29516938 -0.019103333 0.03310717 -0.10476096 -0.051265765
0.043181956 -0.2046037 -0.12029727 0.05915888 -0.020972524 0.06367278 -0.018891355 0.10978095
-0.053895596 -0.021414679 0.24075724 -0.016215151 -0.105525725 0.083712816 -0.027723167 0.10226123
0.1835706 -0.023010548 -0.4569131 -0.08628308 -0.015279044 -0.07549376 -0.07380048 -0.010388038
-0.3370325 -0.07953933 -0.073792696 -0.04949878 -0.010641751 0.018367657 -0.077884965 0.031517416
-0.036918327 0.0075355237 -0.053114206 0.045311585 -0.35197753 -0.027415851 -0.09499254 -0.09334166
0.1610609 -0.059285987 0.3703417 0.10557472 0.34974092 -0.07013852 -0.0014823807 0.028954443
-0.24384715 -0.03159505 0.051880028 -0.124062926 -0.037458435 0.059113927 -0.16403976 -0.1811565
-0.11163493 -0.044491645 0.18760304 -0.09148352 -0.07871848 -0.07711325 -0.19251361 -0.01880572
-0.08930735 -0.014260169 -0.06468131 -0.069952294 -0.015069922 0.05457251 -0.044155367 0.19977254
-0.05326648 0.18247287 -0.074611336 0.034666568 -0.02826239 -0.09462897 -0.10130041 -0.019297369
-0.20400421 -0.032517638 0.016833682 0.025185283 0.28026202 -0.05641632 -0.05518609 -0.028146714
-0.04819473 -0.010467355 0.059790067 -0.26182795 -0.010694675 -0.031504225 0.066758804 0.23885334
-0.18212782 -0.14614268 0.26513076 -0.07609016 -0.14977854 0.005116035 0.061388906 -0.0545744
0.13503088 -0.06426552 -0.060364462 -0.06869675 0.29744858 -0.05153125 -0.009160986 0.09254507
-0.015438824 0.066397235 -0.08047421 -0.40136445 -0.070663735 0.020723872 -0.026806818 -0.44346467
0.0036218655 0.14024945 -0.10499443 -0.058798045 -0.08398333 -0.30048046 0.10363354 0.22576344
-0.042418238 -0.008061245 0.0054447814 -0.30687255 -0.096061975 -0.06974668 0.018380765 -0.06843929
-0.007709321 -0.329777 -0.10693213 -0.008357718 -0.005406205 -0.12871508 0.039530437 -0.2969569
-0.054860502 0.23331048 -0.253841 -0.26484564 -0.09617717 -0.100212924 0.36221915 -0.1839033
0.1037667 -0.03442736 0.003307248 0.27010974 -0.004681256 -0.02727913 -0.015491849 -0.03612899
-0.1976954 -0.0025794532 -0.08114248 -0.020414332 0.00421651 -0.03726353 -0.003116877 -0.05556212

fc3.weight f4 [256, 256]
00000000: 585a 463d 8c90 7dbd a07a 25bd efe1 90bd
00000010: 2e40 2d3d 81ed 1d3c a55e 5dbd f6c0 fd3c
00000020: 1503 063d 2e8f 653d a97c 5bbd 1bd8 29bd
00000030: 79b2 993b 0f8f 483d fc3d 853c a6b2 693c
00000040: dc8d 353b 7383 5ebd 2089 c0bc 4d93 3abd
00000050: ee86 7f3d 0b44 9c3c bec8 233c 7ffe 73bd
00000060: 0eb5 1dbd e05a 7f3c b6a2 673d 98d6 63bd
00000070: f536 4b3d e4d3 a33c 4239 93bd a0d4 483b
00000080: bf5d 27bc 806f 163b e904 3ebc bddd f5bb
00000090: e6f5 1dbd c270 c93c b143 7b3a 57ce 383d
000000a0: c48b ae3c 2d4b e13c a2c7 3cbd 3482 f73c
000000b0: 57f6 e03c 6887 46bd f216 16bd 405f bebc
000000c0: 2002 d4bc a610 72bd 7546 43bd 74be 00bb
000000d0: dc22 98b8 fbc2 c9bc a574 1a3d bc40 a4bc
000000e0: 6906 b1bc 4632 4e3d 55dc 9fbd a0d9 9fbc
000000f0: 42dc 22bd 0bd9 86bd 3c98 b33c 1a9c 2bbd
00000100: 3ac1 113d 32f4 23bd de68 debc cfa8 18bd
00000110: 234b 93bd 8501 163d 5d40 2dbb 11f8 4ebd
00000120: 8906 833b 0012 44bc b9cc bebc f082 5abd
00000130: 306e 2dbc 1031 0cbd c3ae 123d 383c 44bd
00000140: 015f 5ebd 3c31 12bd c11f 2dbb 3c07 333b
00000150: 2d97 a5bd 3d82 17bd 2f90 e53c e4ce 153d
00000160: bcac d2bc f141 503b f34d 42bc d549 3bbd
00000170: 35f1 88bd b6c4 8bbd 4d4d 11bd 4822 77bc
00000180: 4cf7 53bc d191 69bc ec95 b7bc cf87 97bd
00000190: 5d9a 513d e700 ca3c 341e 003d 497c 7cbd
000001a0: 66dc 92bd 93e3 a13c 0d5f c73c 81b3 d6bb
000001b0: e22e 4abd 46eb b03b 26d3 24bc f499 a8bc
000001c0: 36bd 82bd 98a6 92bd 0bc7 673b 48b5 a13c
000001d0: 7317 943c f414 e2bc 0ccf 33bd e026 75bb
000001e0: bc7f 2ebd 771c f2bc 1425 debb 050c 0bbd
000001f0: 306f 173d b2eb d13c 36ed 5d3d b8c8 25bc
00000200: 8d68 aa3c f105 6cbd fc46 ad3c be0e 5abd
00000210: 8947 063d 8310 89bd b8e7 3abc bbbe dbbc
00000220: 1f50 37bd 94ed f9bc 8029 ab3a e875 8dbc
00000230: 02fe 883c c7ae ed3c 1de9 993c 7d41 13bd
00000240: 8990 213d 47f4 7e3d edf5 62bd c619 33bc
00000250: 90c2 90bd d10c 97bc 0df4 dabc fde1 3cbd
00000260: 097e 56bc 6d87 103c 8e21 3abc d8b8 343d
00000270: 867b a33d 48ed 6dbd 3b70 123d f1b0 16bd
00000280: 17b3 c5bb 193c c3bd 4d00 3c3d 1c8d 733a
00000290: 7f9e fabb a60b 4fbd 7a16 3fbd beef 3cbd
000002a0: 92a3 e93c 4ee1 f0bc 708d 5dbd ba2c 5dbb
000002b0: f8cc 7a3c 7bb0 263d 16c8 173c cce3 02bd
000002c0: ea75 483d 2d60 ebbc cb2e b2bc cf7a 9a3b
000002d0: e155 9d3c 3e9d 55bd e44c 67bc 5e8a 963c
000002e0: 3e0c 2e3d a14b 5dbc a4ae 9ebd 840f c3bc
000002f0: cf09 973c 4b70 443d 31da 14bd 3c69 373d
00000300: 0720 123d 0ec8 2d3c c224 5ebc 79f5 c7bb
00000310: 0373 3bbd a2ac 753b 580c 0c3b bd56 a9bc
00000320: cf8b 85bd 8d07 5ebc 2224 683d c6f4 51bd
00000330: d8a3 34bc d2ef 6d3d 10ad c7bc a46e e9bc
00000340: c6fe a13c f464 98bc 9383 453d cc2b 20bd
00000350: cdfb 793d 449a e13c ddf2 1c3d 877f 64bd
00000360: 6803 753d 372a 6e3b 42b2 2d3d b3a9 8ebc
00000370: 407f 7e3c 7d67 3fbd e02c f73b 8019 6a3c
00000380: 945e 133d 3a2f 8cbd 4267 693c f8c6 fcbc
00000390: 3d06 6fbd a0c5 373d cd38 2b3d 66da 033c
000003a0: 6410 fc3c ca59 89bd d02e 7dbc 86a9 653d
000003b0: a2c1 13bc 146b d93b 8c97 debc d324 3d3d
000003c0: 68ff 8dbd 1f19 42bd ce43 e2bb cd88 87bd
000003d0: f623 553d f31d ee3c 4b7a 063d a21c 6e3d
000003e0: c8ea 993c a091 17bd e413 6b3d 12a8 a7bd
000003f0: c8be 5f3b 879d 1ebd 60e4 45bc 2d13 42bd
0.048426002 -0.06190543 -0.040400147 -0.070743434 0.042297535 0.009639145 -0.05404534 0.0309758
0.032717783 0.05604475 -0.053585682 -0.04146586 0.004690465 0.048964556 0.016264908 0.0142637845
0.0027702963 -0.05432458 -0.023502886 -0.045550633 0.06238454 0.019075414 0.009996591 -0.05956888
-0.038502745 0.015585631 0.056551658 -0.055624574 0.049612958 0.019998498 -0.071886554 0.0030644313
-0.010215222 0.0022954643 -0.01159785 -0.00750324 -0.038564585 0.0245899 0.0009584977 0.045118656
0.02130688 0.027501667 -0.046088822 0.030213453 0.027461214 -0.048468977 -0.036642976 -0.023238778
-0.02587992 -0.05909791 -0.047674615 -0.001964477 -7.254418e-05 -0.024629107 0.037708897 -0.020050399
-0.021609502 0.050340913 -0.07805697 -0.019512951 -0.039760835 -0.065843664 0.021923177 -0.041896917
0.035584666 -0.040027805 -0.027149614 -0.037270363 -0.071920656 0.036622543 -0.0026436069 -0.050529543
0.003998582 -0.011967182 -0.023290979 -0.053347528 -0.010585353 -0.034226477 0.035811197 -0.04790899
-0.05428982 -0.035691485 -0.0026416632 0.0027317544 -0.08085475 -0.03698944 0.028022854 0.03657426
-0.025717132 0.0031777585 -0.011859405 -0.04572471 -0.066866316 -0.06824629 -0.03547411 -0.015083857
-0.012937378 -0.014255957 -0.022410356 -0.0739895 0.051172603 0.024658633 0.031278804 -0.061641965
-0.07170944 0.019761836 0.024337316 -0.0065521603 -0.049361117 0.0053991405 -0.010060107 -0.020581223
-0.06383745 -0.071606815 0.0035366442 0.019739762 0.018077588 -0.027597882 -0.043898627 -0.0037407205
-0.042602286 -0.029554589 -0.0067793224 -0.03394701 0.03697127 0.025625084 0.0541813 -0.010118656
0.020801807 -0.057622854 0.021152012 -0.053236715 0.032783065 -0.066926025 -0.011407785 -0.026824346
-0.044754144 -0.030508794 0.0013058633 -0.017268136 0.016722683 0.029014004 0.018787915 -0.035951126
0.03944448 0.06224468 -0.055410314 -0.010931438 -0.0706836 -0.018438729 -0.0267277 -0.046113957
-0.013091573 0.0088213505 -0.011360539 0.044121593 0.079825446 -0.058087617 0.035751563 -0.03678984
-0.006033312 -0.09532947 0.045898724 0.0009290741 -0.0076482887 -0.05054822 -0.046652295 -0.046127073
0.02852038 -0.029404309 -0.054089963 -0.0033748583 0.015307657 0.04069565 0.009264013 -0.031955525
0.048940577 -0.028732384 -0.021750828 0.004714347 0.01920599 -0.05215191 -0.014117453 0.018376525
0.042492144 -0.013506801 -0.07748154 -0.02381111 0.018437294 0.047958653 -0.036340896 0.044778094
0.035675075 0.010606779 -0.013558568 -0.0061022607 -0.04576398 0.003748693 0.0021369662 -0.020671243
-0.06520807 -0.013551605 0.056675084 -0.051258825 -0.0110253915 0.05809004 -0.024374515 -0.02849514
0.019774806 -0.018602826 0.048221182 -0.039104268 0.06103115 0.02753938 0.03831755 -0.055785682
0.0598177 0.003634108 0.042406328 -0.017414903 0.015533268 -0.046729553 0.0075431913 0.014288306
0.03597887 -0.06844945 0.01424581 -0.030856594 -0.05835556 0.044866204 0.041802216 0.008047676
0.030769534 -0.06706579 -0.0154530555 0.056069873 -0.009018334 0.006635079 -0.027171873 0.046177696
-0.069334805 -0.04738724 -0.0069050556 -0.066178896 0.05203625 0.029067015 0.03283147 0.058132775
0.01878871 -0.037004113 0.057392016 -0.08186354 0.0034140814 -0.03872445 -0.012078375 -0.04738157

fc3.bias f4 [256]
00000000: 5d57 59bd 7378 46bd c69a ac3b 6ed5 ddbd
00000010: c2f0 a03c f392 70bd d24a c3bc 4003 88bd
00000020: d856 c1bd e478 053e 1661 5c3d 1f72 efbd
00000030: 0a01 54bd 0506 23be c78b 123d 7104 083e
00000040: 73f1 8b3b e667 51bd 7903 bbbd 60c1 4f3d
00000050: c422 efbc e002 c0bd 0f44 0fbe 5913 9a3e
00000060: a938 b33d bdc4 07bc 1f02 74be 681a 433e
00000070: b20a d7bd 4b34 9b3d 1558 c73e 4fda 2ebc
00000080: 4a30 353d 27c5 21be 99d2 283d aa47 0fbe
00000090: fcac 283d 7b6a 84bd 5aa8 37bd 707e a33c
000000a0: 77ab 9ebd f78d 93bc 9bf4 a7bc 4d37 a6bb
000000b0: f402 1a3d 6ea9 dabd be8a ea3d 8e8d 50bc
000000c0: b052 113d a548 b23c 73e6 973c 7b22 df3c
000000d0: 33a3 82bd 00c2 7c3a cc97 d0bd f3c2 87bd
000000e0: 7b76 a5bd 784e 8bbc 76cd 353f f2e4 053c
000000f0: ab82 e43e f204 33bd 0e01 923b 25a6 33be
00000100: 420d b93b e985 9dbc 1b86 e23a f08a f6bd
00000110: 417b 09bd ba2d 863c 3732 23bd 5113 29bd
00000120: 435a 1c3e c68b 23bd 3a76 20bd 9d6e 58bd
00000130: 8610 dcbc ccfe 3e3d e466 e03c fb4e 42bd
00000140: a662 c03d 02be babd f5a8 95bc 565d cfbc
00000150: ad86 f9bc eced b5bd bec7 ae3c c99f a8bc
00000160: a9d4 96bd 4eb6 eebd aa5e 74bd d6f1 d7ba
00000170: 9b7d bd3c a5e8 c8bd d178 1a3e ae5d 73bd
00000180: 7a07 eb39 451a 0abe 3cb1 ae3c b2b0 7d3b
00000190: 53f3 1e3d 1e22 c0bc d4f0 0b3d 06eb e4bd
000001a0: ee58 3bbe 102c f1bc 327e 173d 7aae 5e3e
000001b0: 7c3f 35bc 6f56 933d f997 52bd 3d39 79be
000001c0: 5064 c53e a818 9dbd 9c20 7a3d da0f ebbc
000001d0: 56db 95bd 9ad0 1dbd 7339 c03d 7166 77bd
000001e0: 8159 c0ba 245c 6abd 2dbe 6c3d 61ef 69bd
000001f0: 1659 6bbd 041f 69bd 3639 a8bd 1372 afbc
00000200: 72b4 aebc bb9b 60bd 1e7f 003e 9513 fd3c
00000210: c5ae 91bd 2908 cabd f9a9 b9bd c757 993e
00000220: 990f bb3d f498 353e e32e 8cbd 10c4 c0bd
00000230: e994 8abd 3270 b63c 6f70 a7bd 8f11 163e
00000240: 578b 6abd 09e7 b8bd 16c3 2f3d 69e6 82b9
00000250: 9bba d4bd da73 e13d 5a7a 7c3e 52c2 52bd
00000260: 45a6 1cbd 2720 223d dc1b 0c3f 6276 a1bd
00000270: 1ca2 60be 2833 a5bd dbaa 94bc 10ff 28bd
00000280: 035b e93e 4a5a b7bd be66 5ebd 2f5b 1a3d
00000290: 816a 8dbd 7ff2 36be f14c 853c fbe4 72bd
000002a0: 6718 91bc 7290 7bbb bd4a ddbc d4dc 87bc
000002b0: 3118 d23a 0a7d ccbd b8ce 773e 315e fdbc
000002c0: bf2b b0be 7574 723d a3a1 cfbd 2eef 6abe
000002d0: a6b3 1bbe 184f 163c 1d79 d4bd 22da 59bc
000002e0: 727f 91be 22c6 c93d 5dc9 8abd 5923 5ebc
000002f0: 036b b6bd 7e8b 5bbd 1630 afbd 75ce adbc
00000300: 19f0 59be 54f9 49bc 5e20 19bc 0655 83bd
00000310: a037 ef3e 307e 903d fdaa 3c3d e5ce 623e
00000320: 1e33 d03d 3039 f2bd 5f81 75bd c80a 0f3e
00000330: aa3d ae3d b1ac 8ebd 504e a7bd a4bb b9bc
00000340: 8010 d0bc 045e 78bd c4c4 31bd 7526 813d
00000350: bff0 ec3c 4cd0 a83c bdfd e0bd 24ed 87bd
00000360: ccc5 2b3d 160a 50bc 6a6a 8abd d5aa 31bc
00000370: 8323 58bd 3ac5 2fbe 2a3c e6bd 1f94 86bd
00000380: 52cd 9ebe dfd9 43bd c2a9 6cbd 1b56 2abd
00000390: 26da 1ebe 61ed 0b3c d0d7 30bd d1b2 47bd
000003a0: 131e 243e 9a14 efbc ab83 00bd 8d73 ca3b
000003b0: 8fb3 29bd 23d0 843b da85 9bbd db0f 09bd
000003c0: 3039 6e3b 4443 a7ba e7c6 723e afff 89bd
000003d0: f6a2 a1bd 17ac 8cbd a6e1 833c 4401 54bd
000003e0: 1284 0abd 028a 9abd 6272 94bd ca46 bb3c
000003f0: 44b9 a9bc bd59 d23c 6ee2 53bc 9393 82ba
-0.05306183 -0.048454713 0.005267474 -0.10831724 0.019646052 -0.05873389 -0.023839388 -0.06641245
-0.09440392 0.13034397 0.053803526 -0.11691689 -0.051758803 -0.15920265 0.035777833 0.13282944
0.0042707263 -0.051124476 -0.09131522 0.050721526 -0.029191382 -0.09375548 -0.13990806 0.30092886
0.087510414 -0.008286652 -0.23828934 0.19053042 -0.10500087 0.075783335 0.3893439 -0.010672166
0.044235505 -0.15797864 0.041216467 -0.13992181 0.041180596 -0.06465622 -0.044838287 0.019957751
-0.07747548 -0.01801203 -0.02050238 -0.0050725103 0.037600473 -0.106768474 0.11452244 -0.012729062
0.035479248 0.021763155 0.018542504 0.027238121 -0.06378784 0.00096419454 -0.10185203 -0.066289805
-0.08079239 -0.01700519 0.71016634 0.008172261 0.44630942 -0.043705888 0.004455692 -0.17543848
0.0056473324 -0.019228892 0.0017282398 -0.12038219 -0.03356481 0.016379226 -0.03984281 -0.041278187
0.15268807 -0.03992822 -0.03917525 -0.052839864 -0.026863348 0.046629712 0.027392812 -0.047438603
0.09393816 -0.09118272 -0.018269042 -0.02531306 -0.030459726 -0.088832706 0.021335479 -0.020584004
-0.073647805 -0.116558656 -0.05966059 -0.0016475271 0.023131182 -0.098099984 0.1508515 -0.05941551
0.00044828263 -0.13486584 0.021324746 0.0038710055 0.03880627 -0.023453768 0.03416522 -0.1117764
-0.18295643 -0.029439956 0.036985584 0.21746245 -0.011062499 0.0719422 -0.051414464 -0.24338241
0.38553095 -0.076707184 0.061066255 -0.028694082 -0.07317226 -0.038529016 0.093859576 -0.06040043
-0.0014675112 -0.05721678 0.057798553 -0.057113055 -0.057458006 -0.056914344 -0.08214037 -0.0214167
-0.021326277 -0.054836016 0.12548491 0.030893127 -0.07113413 -0.09864838 -0.09065623 0.2994978
0.091338344 0.17734128 -0.068448804 -0.09412396 -0.067666836 0.022270296 -0.08175742 0.14655136
-0.05726179 -0.090284415 0.042910658 -0.000249672 -0.10387155 0.11008425 0.24656048 -0.05145485
-0.038244504 0.039581444 0.5473001 -0.07883908 -0.2193684 -0.08066398 -0.018147876 -0.04125887
0.4557725 -0.08952768 -0.0542972 0.037684616 -0.0690508 -0.17865942 0.01627204 -0.059300404
-0.017711831 -0.0038385657 -0.027013177 -0.016584791 0.0016028938 -0.09984787 0.2419995 -0.030928703
-0.34408376 0.059193093 -0.10138252 -0.22942802 -0.15205249 0.009174131 -0.10374663 -0.013296636
-0.28417546 0.09852244 -0.06776688 -0.013558232 -0.089071296 -0.053599827 -0.085540935 -0.02121661
-0.21282996 -0.012327511 -0.009346096 -0.06412701 0.46722126 0.07055318 0.046061505 0.22149237
0.10166 -0.11827314 -0.05993783 0.13968956 0.08507855 -0.06966532 -0.08169234 -0.022672482
-0.025398493 -0.060636535 -0.04340054 0.06306163 0.02892339 0.020607136 -0.10985897 -0.06637028
0.04193668 -0.012697717 -0.06758578 -0.010843952 -0.05276824 -0.1716508 -0.11241944 -0.065712206
-0.31016022 -0.0478152 -0.05777908 -0.041586023 -0.15512905 0.008540482 -0.043174565 -0.048754517
0.16027097 -0.029184628 -0.03137557 0.0061783255 -0.041431006 0.004053132 -0.075938895 -0.033462387
0.0036350004 -0.0012761136 0.23708688 -0.06738221 -0.078924105 -0.06868761 0.016098808 -0.05175902
-0.03381736 -0.07545854 -0.07248379 0.022860903 -0.020718224 0.025677556 -0.012932403 -0.0009962193

fc4.weight f4 [256, 256]
00000000: 6ada 0b3d 1e11 0bbd fb2e 01bd ba12 693c
00000010: 27d1 173e 2884 b43d 2f8b d63d bca2 7ebc
00000020: df5c 49bd d823 4bbe c7e6 a1bd b812 00bd
00000030: 14f2 c03c ee37 4b3d cd72 fd3c a73d a5bd
00000040: 1b73 7b3d ed0c 87bd b572 46be 71e8 7cbb
00000050: 15e2 993d 55b5 9f3c afc6 f33c 5d8c 943d
00000060: 89f2 c93d 42d6 6c3d 717f 4d3d be16 30bd
00000070: 319b febb 8c57 ab3d 60a1 103e 0511 ab3c
00000080: 7939 bb3d 8e69 553d 8a29 8e3d 8c9d 0f3b
00000090: 597f 8fbd 4ccc 463c f545 833d 2cad 0c3d
000000a0: aa4d 4dbc 2935 173e 7905 16bd 6707 023e
000000b0: a740 913d 1ab4 06be 12ee 6b3c 148c b13c
000000c0: 3fd7 a5ba bc27 fe3d e6a4 1ebb 38c9 203d
000000d0: f0a0 0cbc 2b02 053d b2b3 bf3d ecf7 e9bc
000000e0: da46 18bd 92ff 8dbc ffd7 a4be 07aa ad3d
000000f0: 89f0 f1bd acbb 583d 7be2 3e3d bb55 f0bd
00000100: 2c6f 9b3c 7a0e f3bd 40d8 2b3d 7f74 07bd
00000110: 5f8a 423c e543 fa3c 717b 9b3d 494f aabd
00000120: 54eb 95bd 3342 ba3d ea87 01be 352f 2abd
00000130: c3a4 72bc efba 383e ee0b 36bd 6ae5 393d
00000140: e592 09be 4670 963d 638f 763d 045c bcbc
00000150: 3924 f53d 81b2 76bc 95c3 df3d dd67 0abe
00000160: 0b89 76bc c201 633d d263 1c3d b102 863d
00000170: 6255 8a3d af77 4c3a 7c28 203e d606 893c
00000180: ecef b13b 56ee 13bd 1f17 e7bc 0102 73bd
00000190: 5b4c c8bc aed2 d0bc 1847 6fbc bfde 1aba
000001a0: b3c2 0ebc b0f9 0abd e5d9 c93d 1115 7c3d
000001b0: da7c de3c 636c 6c3e c63b 513d e4c9 0bbc
000001c0: 0a3a cebd b021 2f3c 8c39 013e b5f2 d13c
000001d0: 9910 803d 5295 84bc eb64 743e 68c6 a3bc
000001e0: d39b 47bd 4294 463c f68d d4bd b0c6 173d
000001f0: eea9 c8bb 2140 033c 6f8b 9a3d 04bf 4abd
00000200: 9c7a 573c 69d6 7dbc efbe 823e 7706 ba3c
00000210: d06b 6a3a 87bc d6bb 65b0 0fbc 4583 3cbe
00000220: 9f28 233e 0c68 413e c90a 25bd 485e a3bc
00000230: e8ef 5e3d af99 2c3d da04 643d 9565 1b3e
00000240: 471b 1f3c 7c17 093e 641b 903b cbc7 a9bc
00000250: 8738 94bd f8b1 d23d bfbc a73e 1cdc ba3d
00000260: c1df 26bd e389 b0ba 4e8e 6f3d 3e04 f63c
00000270: bae5 763c fcce 12bd 19e4 a9bc 7a89 0bbd
00000280: 4b6f 18be 92c2 9e3c 004c 70bd 4fef fc39
00000290: ae9b 1ebd 548d 08be eaac 52bb d9a5 d93d
000002a0: 9869 58bd 1099 ac3d 92fc 9c3d 2567 adbd
000002b0: 4b3d b43d ed27 55bd 10c3 8cbd 9c89 86ba
000002c0: 2268 59bd f1f5 6e3d f547 9c3c 92c0 5ebe
000002d0: 1669 153e 2c3a c2bc 69a4 893d 9f3b b2bc
000002e0: 5840 b03d 7e20 173e fc6a a23d 6801 733c
000002f0: 7799 22bd 39fc 9dbc 04f5 ad3d 0817 8b3d
00000300: de93 51bd 095b 5f3d 3bd1 583d e673 3cbd
00000310: 2c18 86be 8f7a 0cbd 771a c9bc f441 8d3d
00000320: 8269 403e 501d 3c3d e189 9a3d 7131 923d
00000330: 7763 673e 89b0 68bd 698c 7fbd f6ca ff3c
00000340: a79a 053d b8a5 943d 34cf a1bc 70f5 ca3d
00000350: b8f1 583b 82b2 85bd 5b1c 5ebd 8776 893d
00000360: 1944 0f3e d015 d6b9 e636 f83c 9917 b9bc
00000370: dab3 0cbd e7c3 933d 8ff2 33be 897c 3abc
00000380: 84c4 2a3d 804c 983d 1b8e 55bc 632b 233c
00000390: c79d abbe 045e ba3d 6611 cb3c 5cc1 f1bb
000003a0: 58b8 773e 3e44 6d3d 1914 13be 5ab3 383d
000003b0: 3b14 eebc 540c a53d 5043 4dbd 2a9b 183d
000003c0: b186 a2bc 20a1 093d c3f3 553c 8848 9d3d
000003d0: 024e 9b3c 98da 6f3d 848b a23d 2a4b 473d
000003e0: b6e7 e8bd 7b0d df3c abd6 753c 658b 4a3c
000003f0: 6032 cabc 9385 3e3d c522 833c 2fb6 b43d
0.034143843 -0.03395187 -0.031538945 0.014225656 0.14825879 0.08814269 0.10475766 -0.015541729
-0.049160834 -0.19837892 -0.079053454 -0.03126785 0.023552932 0.049613886 0.03093853 -0.080684
0.06138907 -0.06594262 -0.19379695 -0.0038590694 0.07513825 0.019495646 0.029757826 0.07253335
0.09860713 0.05782152 0.050170366 -0.04299044 -0.007769965 0.083663076 0.1412406 0.020882139
0.091418214 0.052102618 0.06941517 0.0021913974 -0.070067115 0.012133669 0.064098276 0.034344837
-0.012530724 0.14766373 -0.036626313 0.12698136 0.070924096 -0.13154641 0.014400022 0.02167324
-0.0012652649 0.124099225 -0.0024207174 0.039254397 -0.008583292 0.03247277 0.09360446 -0.028560601
-0.037176944 -0.01733378 -0.32196042 0.08479696 -0.118134566 0.052913353 0.046602707 -0.11735102
0.01897391 -0.118679956 0.04195428 -0.033070084 0.011873811 0.030549953 0.07591904 -0.08315904
-0.07320276 0.09094658 -0.12649503 -0.041548926 -0.01480979 0.1804006 -0.04444497 0.045384802
-0.13434942 0.07345633 0.060195338 -0.022993095 0.119697995 -0.015057207 0.10925976 -0.13516183
-0.015047322 0.0554216 0.038181134 0.06543482 0.06754567 0.00077998167 0.15640444 0.016726892
0.0054302122 -0.036115967 -0.028209267 -0.059328083 -0.024450472 -0.025491085 -0.014604352 -0.00059078255
-0.008713412 -0.033929527 0.09856013 0.061543528 0.027159143 0.23088221 0.051082395 -0.008532021
-0.10069664 0.010689184 0.12619609 0.025628427 0.06253166 -0.016184483 0.23866622 -0.019992068
-0.04873259 0.012120308 -0.103786394 0.037054718 -0.006123773 0.008010895 0.07546126 -0.049498573
0.013151791 -0.015493014 0.25536296 0.02270816 0.0008942457 -0.006553236 -0.008770083 -0.1840945
0.15933464 0.18887347 -0.04029349 -0.019942418 0.05442801 0.04213875 0.05566869 0.15175469
0.009711093 0.13387865 0.0043977965 -0.020725152 -0.07237344 0.10287851 0.3276119 0.09124014
-0.040740732 -0.0013468828 0.05848532 0.03003132 0.0150694195 -0.035841927 -0.020738648 -0.034066655
-0.14886205 0.019379888 -0.05866623 0.00048243484 -0.038722686 -0.13335162 -0.0032146522 0.10627336
-0.052835077 0.08427632 0.076653615 -0.08466939 0.08800753 -0.05204003 -0.06873143 -0.00102644
-0.053077824 0.058340017 0.01907728 -0.21753147 0.14590868 -0.02370938 0.06720812 -0.021756945
0.086060226 0.14758489 0.07930562 0.014831878 -0.039697137 -0.019285308 0.08493999 0.06791502
-0.051166408 0.054530177 0.052933913 -0.046008967 -0.26190317 -0.03429657 -0.024548752 0.06897345
0.18790248 0.045926392 0.075458296 0.071383364 0.22596537 -0.056808982 -0.062389765 0.031224709
0.03261819 0.07258171 -0.019752122 0.09910095 0.003310306 -0.06528188 -0.05422626 0.067120604
0.13990821 -0.00040833512 0.030299615 -0.02259426 -0.034351207 0.072151 -0.17572998 -0.011382231
0.04169132 0.07436466 -0.013034369 0.009959075 -0.33518812 0.09099963 0.02478857 -0.0073777866
0.24191415 0.05792641 -0.14363135 0.045092918 -0.029062381 0.08058992 -0.050113022 0.03725735
-0.019839616 0.033600926 0.013058606 0.0767985 0.018958095 0.058558077 0.07936767 0.048655666
-0.1137232 0.027228108 0.015004794 0.012362336 -0.024682224 0.046514105 0.01600779 0.08823811
