model/DDQN with batchnorm/EX1_Player_model_epoch_6000.pth (torch_old, 854519 bytes, 10 tensors)

fc1.weight f4 [256, 57]
0	0x3fa6c27d	1.3028103
1	0xbf000f1d	-0.5002306
2	0x3f0420b1	0.51612383
3	0xbfa8e8bf	-1.3196028
4	0x3f82f6c2	1.0231555
5	0xbeec791b	-0.46186146
6	0x3f2782ec	0.65434146
7	0x3d5d243f	0.053989645
8	0x3ed7c0f3	0.42139396
9	0x3d0e00a3	0.034668576
10	0x3ebd4ae1	0.3697119
11	0xbf5be79e	-0.85900295
12	0x3e176fd8	0.14788759
13	0xbf84dda7	-1.0380143
14	0x3efc9d19	0.49338606
15	0xbf375c46	-0.71625173
16	0x3f31683b	0.6929967
17	0x3e61e1cd	0.22058792
18	0x3e8564e8	0.26053548
19	0xbd1015b4	-0.035176948
20	0xbea85512	-0.32877403
21	0x3ece69ee	0.40315193
22	0xbf762dc3	-0.96163577
23	0xc011f95e	-2.2808452
24	0xbfbb1b95	-1.4617792
25	0xbe894c5f	-0.2681608
26	0xbf98f70f	-1.1950396
27	0xbf296d66	-0.66182554
28	0xbdaac568	-0.083384335
29	0xbf0eede8	-0.55831766
30	0xbd537a42	-0.051630266
31	0x3fa1fa75	1.2654558
32	0xbdb75409	-0.08951575
33	0xbfb067cb	-1.3781675
34	0xbdbbbc01	-0.09166718
35	0xbe02c6e9	-0.1277119
36	0xbfb27f7d	-1.3945156
37	0x3deaf805	0.11473087
38	0x3d721610	0.05910307
39	0xbf0b5b00	-0.5443573
40	0x3be44260	0.0069659203
41	0xbea4fe87	-0.3222544
42	0xbf17b1a6	-0.59255445
43	0xbfb7bdd2	-1.4354804
44	0xbed8ecbb	-0.4236811
45	0xbddbe56a	-0.10737117
46	0xbf9d3657	-1.2282208
47	0x3dc21d68	0.09478265
48	0xbea21415	-0.31655946
49	0xbfa88554	-1.3165689
50	0xbeccd78d	-0.40008202
51	0x3da68e7a	0.08132644
52	0xbfa12e36	-1.2592227
53	0x3d2b7b82	0.041865833
54	0xbf177205	-0.59158355
55	0xbfb1e490	-1.3897877
56	0x3d8e6799	0.069533534
57	0x3e1d20ca	0.1534454
58	0xbe851670	-0.2599368
59	0x3d71913e	0.058976404
60	0xbdc2c09f	-0.09509396
61	0x3e66edb5	0.22551616
62	0xbe5ac3ec	-0.21363801
63	0x3e83bf70	0.25731993
64	0xbd81881b	-0.06324788
65	0x3e7bedd0	0.24602437
66	0xbdbc7e6f	-0.09203803
67	0x3e2071fc	0.15668482
68	0xbdac1070	-0.08401573
69	0x3e8c3375	0.2738301
70	0xbe83ed07	-0.25766775
71	0x3e10cd30	0.14140773
72	0xbdb8d8b4	-0.09025708
73	0x3e415aad	0.18882246
74	0xbdcdc6b8	-0.10047668
75	0x3e30553a	0.17220011
76	0xbe7175cc	-0.23580092
77	0xbe30b8d9	-0.17258014
78	0x3d6b2fe5	0.057418723
79	0xbec46987	-0.3836176
80	0xbe855df4	-0.26048243
81	0x3d0b3e88	0.03399518
82	0x3c351045	0.011051242
83	0xbeec8c78	-0.4620092
84	0x3d0e05b3	0.034673404
85	0xbcb6c9e8	-0.022313073
86	0x3e8db7c7	0.27679273
87	0xbd78589c	-0.06063138
88	0xbdcac1ee	-0.099002704
89	0xbd93b8bf	-0.07212972
90	0xbe8f4bc1	-0.27987483
91	0x3e090e24	0.133843
92	0x3dcf23b9	0.101142354
93	0xbe8eccad	-0.2789053
94	0xbd838cd1	-0.06423343
95	0xbdaff7e0	-0.085922
96	0x3da82592	0.08210291
97	0x3ce31a98	0.027722642
98	0xbe00bc88	-0.12571919
99	0xbdb09ddd	-0.0862386
100	0xbe517502	-0.20454791
101	0x3d281793	0.041038107
102	0xbdad4925	-0.08461217
103	0xbeb99826	-0.36248893
104	0xbe03e6e7	-0.12881051
105	0xbce251d9	-0.027626919
106	0xbedb9870	-0.42889738
107	0xbe18f580	-0.14937401
108	0x3d84aae3	0.064779066
109	0xbe9e5804	-0.30926526
110	0xbd761617	-0.06007966
111	0x3c691dae	0.014228268
112	0xbed1cb70	-0.40975523
113	0x3db18f67	0.0866993
114	0xbe298efb	-0.16558449
115	0xbfe58844	-1.793221
116	0x3ec5f2f8	0.38661933
117	0x3bcf62a5	0.006328898
118	0x3f2db7bd	0.6785849
119	0xbf85d7b2	-1.045645
120	0x3fac57a3	1.3464245
121	0x3e84e1f3	0.25953636
122	0x3e166381	0.14686395
123	0xbff4bf1b	-1.9120821
124	0x3ef96172	0.48707157
125	0xbf8cacea	-1.0990269
126	0x3f347f84	0.70507073
127	0x3dc8cefe	0.098051056
128	0x3c05019d	0.00811806
129	0xbebecf76	-0.37267655
130	0x3f7eb632	0.9949676
131	0x3d9d756b	0.07688411
132	0x3f4a9260	0.791296
133	0xbeb7da88	-0.35908914
134	0xbc4574fc	-0.012051817
135	0xbe926a72	-0.28596836
136	0x3ef99964	0.4874984
137	0xbf4e4c43	-0.80585116
138	0xbe8a3d63	-0.2699996
139	0xbbf82458	-0.007572692
140	0xbf5d3d6b	-0.8642184
141	0xbe779a9d	-0.24180074
142	0x3e00c55e	0.1257529
143	0x3f2173b1	0.63067156
144	0xbdf3aeb7	-0.118985586
145	0x3facb844	1.3493733
146	0x3eb71516	0.35758275
147	0xbf7e6f54	-0.99388623
148	0xbe13bf1a	-0.14428368
149	0x3e29e454	0.16591007
150	0xbf8ef9b5	-1.1169955
151	0xbe42cea2	-0.19024137
152	0xbcdc16e4	-0.026866384
153	0x3fe07bfe	1.753784
154	0x3d92a816	0.07160966
155	0xbf8ee1c4	-1.1162648
156	0xbe9fcf26	-0.3121273
157	0xbf8c4c5d	-1.0960804
158	0x3e3cd0a8	0.18438971
159	0xbe220586	-0.1582242
160	0xbf824c35	-1.0179507
161	0xbea4a04c	-0.32153547
162	0xbfbea920	-1.4895363
163	0xbf8dabad	-1.1068016
164	0x3ea56131	0.32300714
165	0xbe45d04d	-0.19317742
166	0xbf86bbdc	-1.052608
167	0x3f7d937c	0.9905317
168	0x3e24d92c	0.1609847
169	0xbf802d33	-1.0013794
170	0xbf400d5b	-0.7502038
171	0x3f922cbf	1.1419905
172	0xbf6e1932	-0.93007195
173	0x3f9c6138	1.2217169
174	0xbfb04af4	-1.3772874
175	0x3f8e8429	1.1134082
176	0xbfc539cb	-1.5408262
177	0x3e7d34cb	0.2472717
178	0xbfa9c92e	-1.326452
179	0x3f5c6171	0.86086184
180	0xbf67bfee	-0.90527236
181	0x3f10f1b8	0.56618834
182	0xbf91c020	-1.1386757
183	0x3f24169b	0.64096993
184	0xbf6bdfd6	-0.9213842
185	0x3e66c2a1	0.22535183
186	0xbfa5574b	-1.2917265
187	0x3f5b0e8d	0.8556908
188	0xbff81a19	-1.9382964
189	0x3f1f5ee8	0.6225419
190	0xbfe18f6a	-1.7621891
191	0xbf51c9d4	-0.8194859
192	0x3e4db5c4	0.2008887
193	0xbf67b7c3	-0.90514773
194	0xbf294c3e	-0.6613196
195	0xc041e304	-3.029481
196	0x3d8c93f3	0.068641566
197	0xbf002260	-0.5005245
198	0x3e8a8573	0.2705494
199	0xbb3d6200	-0.0028897524
200	0xbef89284	-0.48549283
201	0x3daedcf8	0.0853824
202	0xbf3fdc14	-0.7494519
203	0xbe6dc0e4	-0.23218113
204	0xbf21433f	-0.62993234
205	0x3e1d1d4b	0.15343206
206	0xbe4165ee	-0.1888654
207	0xbee1f2b0	-0.44130468
208	0x3dde749f	0.108620875
209	0x3c896580	0.016772032
210	0x3f472548	0.7779126
211	0xbcd67ee8	-0.02618356
212	0x3f0afc0c	0.54290843
213	0xbd37b60e	-0.044851355
214	0xbf0b2d55	-0.54366046
215	0x3d384e9f	0.044996854
216	0xbed27d3b	-0.41111168
217	0xbf1cb5bc	-0.61214805
218	0x3ee16fbd	0.44030562
219	0x3dfa769e	0.12229656
220	0xbf0d5f85	-0.55223876
221	0x3c105e6d	0.008811575
222	0x3edb04af	0.4277701
223	0xbf09fa8f	-0.5389795
224	0x3e8cc872	0.27496678
225	0xbd3c13ef	-0.045917448
226	0xbf231724	-0.63707185
227	0xbeb646ce	-0.35600895
228	0x3ef9befb	0.4877852
229	0xbf5423a8	-0.8286691
230	0x3f98b12a	1.1929066
231	0xbeee93fe	-0.46597284
232	0xbf46117b	-0.77370423
233	0xbf39e8a3	-0.726206
234	0xbf205ff5	-0.6264642
235	0xbf8c3dcd	-1.095636
236	0xbbe45c6a	-0.0069690244
237	0x3e9190e3	0.28430852
238	0xbe8b96d0	-0.27263498
239	0x3e1c014c	0.1523487
240	0xbf8e5afa	-1.1121514
241	0xbf5c2732	-0.8599731
242	0xbfba51f6	-1.4556262
243	0xbf7981b0	-0.9746351
244	0x3e6d5674	0.2317751
245	0xbf8707e3	-1.0549282
246	0x3ed41a54	0.41426337
247	0xbea7bd57	-0.32761642
248	0x3f38f7c4	0.7225306
249	0x3f39ca5b	0.72574395
250	0xbf9e5c87	-1.2371987
251	0x3fd88f4c	1.6918731
252	0xc029d3ec	-2.6535597
253	0xbf116f64	-0.56810594
254	0xbeda9ce2	-0.42697817
255	0xbf8fb8f9	-1.1228324

fc1.bias f4 [256]
0	0xbfa9c0b3	-1.3261932
1	0xbe7d4675	-0.24733908
2	0xbf75bc47	-0.95990413
3	0xbf24b5fe	-0.643402
4	0xbe6a166f	-0.2286012
5	0xbf473759	-0.7781883
6	0xbc9e87d8	-0.019351885
7	0x3e21ebd0	0.15812612
8	0xbf3d9a8f	-0.7406396
9	0x3f0f2688	0.5591817
10	0xbf4dc2ac	-0.8037517
11	0xbf9db40f	-1.2320575
12	0xbf3b1999	-0.73085934
13	0xbfa8c9ce	-1.3186586
14	0xbf874103	-1.0566715
15	0xbf7d697b	-0.98989075
16	0xbf26692e	-0.6500424
17	0xbf17386b	-0.5907046
18	0xbf93c7e4	-1.1545377
19	0xbf6a8ab8	-0.9161792
20	0xbf60e8d4	-0.8785527
21	0xbf68660c	-0.9078071
22	0x3ccb8c39	0.024847137
23	0xbf77d524	-0.968096
24	0xbfa44c23	-1.2835735
25	0xbf9ecfa1	-1.2407113
26	0xbf998250	-1.1992893
27	0xbf722db3	-0.9460098
28	0xbf09eb09	-0.5387426
29	0xbf81e6dd	-1.0148579
30	0xbf3626bc	-0.71152854
31	0xbfd3ed92	-1.6556876
32	0xbf93e24c	-1.1553435
33	0x3ff7ebf5	1.9368883
34	0xbf2955a3	-0.66146296
35	0xbfc88fac	-1.5668845
36	0xbe6774ee	-0.22603199
37	0xbf8c11ab	-1.0942892
38	0xbf8e84d7	-1.113429
39	0xbf9cc101	-1.22464
40	0xbf2fb349	-0.6863294
41	0xbf83a319	-1.0284148
42	0xbeadb9bb	-0.33930764
43	0xbf717f72	-0.9433509
44	0xbf949dcb	-1.1610655
45	0xbe0db3e1	-0.1383815
46	0xbf1afe3a	-0.6054417
47	0xbf89a03b	-1.0752023
48	0xbf9bf3ce	-1.2183778
49	0xbfaaacdc	-1.3334002
50	0xbfaca6d4	-1.3488412
51	0xbf5d7e45	-0.86520797
52	0xbf4541ef	-0.7705373
53	0xbfd87dd8	-1.6913404
54	0xbf5d38ba	-0.8641468
55	0xbf656e6d	-0.8962162
56	0xbf0db2e1	-0.5535107
57	0xbed166d4	-0.40898764
58	0xbf6d05fe	-0.9258727
59	0xbf21e775	-0.632438
60	0xbf67193f	-0.902729
61	0xbf82df51	-1.0224401
62	0xbde4e34b	-0.11176165
63	0xbf57fcb6	-0.8436998
64	0xbf34051b	-0.7032029
65	0xbfa9c3c0	-1.3262863
66	0xbf22802c	-0.63476825
67	0xbf94198a	-1.1570294
68	0xbf3b9c7a	-0.7328564
69	0xbdd135dc	-0.10215351
70	0xbfb23e3d	-1.3925244
71	0xbef6a40e	-0.4817204
72	0xbf97701c	-1.1831088
73	0xbf4696c2	-0.7757379
74	0xbf994b58	-1.1976118
75	0xbf1be45b	-0.6089532
76	0xbf884a95	-1.0647761
77	0xbf9e82f2	-1.2383711
78	0xbf9b8c49	-1.2152187
79	0xbe5553f7	-0.20832811
80	0xbef12e78	-0.47105765
81	0xbf6818e0	-0.90662956
82	0xbb1ea305	-0.0024206054
83	0xbe61fe65	-0.220697
84	0xbf5d2412	-0.86383164
85	0xbfbdbe18	-1.4823637
86	0xbf83e59a	-1.0304444
87	0xbf80abf4	-1.0052476
88	0xbf9d55eb	-1.2291845
89	0xbf256968	-0.6461396
90	0x40640281	3.5626528
91	0xbeb08e05	-0.34483352
92	0xbd1de6d1	-0.0385502
93	0xbfb29e7d	-1.3954617
94	0xbf94d2fa	-1.1626885
95	0xbf45a764	-0.7720854
96	0xbf962a55	-1.1731669
97	0x3fa7d788	1.311265
98	0xbf7ed2fc	-0.99540687
99	0xbf58ad98	-0.84639883
100	0xbf5280af	-0.82227606
101	0xbfa20bc2	-1.2659838
102	0xbf88f54d	-1.069986
103	0xbebf0280	-0.37306595
104	0xbeb6f293	-0.35731944
105	0xbf17fb68	-0.5936799
106	0xbf7ba77a	-0.98302424
107	0xbf373a0e	-0.7157296
108	0xbe98adc7	-0.29820082
109	0xbfaeac22	-1.3646281
110	0xbe970a62	-0.2950011
111	0xbe3d072a	-0.18459764
112	0xbf86a872	-1.0520155
113	0xbf9c7a0a	-1.2224743
114	0xbe0d880e	-0.13821432
115	0xbf7f1ffb	-0.99658173
116	0xbee5d2da	-0.4488743
117	0xbe8573a5	-0.26064792
118	0xbf38ea4c	-0.7223251
119	0xbf5668a1	-0.837534
120	0x3faae6e7	1.3351716
121	0xbec6416d	-0.3872179
122	0xbfa970c7	-1.3237542
123	0xbf9b1014	-1.2114282
124	0xbf9222e4	-1.1416898
125	0xbfc6eff0	-1.5541973
126	0x404be744	3.1859903
127	0xbf9e5003	-1.2368168
128	0xbfe23b09	-1.7674266
129	0xbe39898c	-0.18118876
130	0xbee7bd5e	-0.45261663
131	0xbfa2bfdb	-1.27148
132	0xbeeaf2be	-0.45888323
133	0xbf2306a0	-0.63681984
134	0xbe8c62f0	-0.27419233
135	0xbd546374	-0.05185266
136	0xbebc7b15	-0.36812654
137	0xbf40ed4f	-0.75362104
138	0xbe7d86af	-0.24758409
139	0xbfa2098f	-1.2659167
140	0x3dd98024	0.10620144
141	0xbf1b4764	-0.6065581
142	0xbf068e51	-0.5256091
143	0xbf160552	-0.5860187
144	0xbfb3457e	-1.4005582
145	0x3e4eb8c3	0.20187669
146	0xbf597a84	-0.8495257
147	0xbf65d510	-0.8977823
148	0xbec35341	-0.38149455
149	0xbfcc7856	-1.5974224
150	0xbf6c881a	-0.92395175
151	0xbf95bd0e	-1.169832
152	0xbf54f737	-0.8318972
153	0xbf9c311f	-1.220249
154	0xbeaba8b3	-0.33527145
155	0xbfb81c45	-1.4383627
156	0xbf68160a	-0.9065863
157	0xbfee3d0a	-1.8612378
158	0xbf971619	-1.1803619
159	0xbc86481b	-0.016391804
160	0xbe57ade5	-0.21062429
161	0xbfaf979e	-1.3718145
162	0xbf71c31a	-0.94438326
163	0xbf254eba	-0.6457325
164	0xbfddf47d	-1.7340237
165	0xbe71231a	-0.23548546
166	0xbf19717a	-0.59938776
167	0xbee16936	-0.44025582
168	0xbf8b7562	-1.0895197
169	0xbf714770	-0.9424963
170	0xbfcee6c0	-1.6164169
171	0xbf68abd3	-0.9088718
172	0xbe573cd3	-0.21019296
173	0xbfb54496	-1.4161556
174	0xbf6b4379	-0.9189983
175	0xbf0fc0ff	-0.56153864
176	0xbfb195c7	-1.3873833
177	0xbe5d6899	-0.21621932
178	0xbf239d91	-0.639123
179	0xbefd9013	-0.49523982
180	0xbdb264ab	-0.08710607
181	0xbf55583f	-0.8333778
182	0xbfbb0e4e	-1.461374
183	0xbf7d1690	-0.9886255
184	0xbe169ac2	-0.14707473
185	0xbeb0255b	-0.344035
186	0xbfc5548d	-1.5416428
187	0xbf447054	-0.767339
188	0xbfcbec79	-1.5931541
189	0xbe8b706b	-0.27234206
190	0xbf6a771e	-0.9158801
191	0xbf92adf5	-1.1459337
192	0x3f48677e	0.78282917
193	0xbf9bccca	-1.2171872
194	0xbf37c19e	-0.7177981
195	0xbf97069c	-1.1798892
196	0x3d7fb69c	0.06243001
197	0x3f13d1d2	0.57742035
198	0xbf757e71	-0.9589606
199	0xbfcecea7	-1.6156815
200	0xbe5b27ff	-0.21401976
201	0xbf9d1d99	-1.2274657
202	0x3e98ea76	0.2986638
203	0xbf53eaad	-0.8277996
204	0xbf9df1b2	-1.2339385
205	0xbf56c791	-0.83898264
206	0xbeaa47bd	-0.33257857
207	0xbf3d50a5	-0.7395118
208	0xbf92d396	-1.1470821
209	0xbf4796ba	-0.77964365
210	0xbf3c7c93	-0.73627585
211	0xbf7a6728	-0.97813654
212	0xbec62ca7	-0.38705942
213	0xbfa05dd4	-1.2528634
214	0xbf99919d	-1.1997563
215	0xbfada84f	-1.3566989
216	0xbfac07c1	-1.3439866
217	0xbf197939	-0.59950596
218	0xbc6b5c84	-0.014365319
219	0xbf498d4d	-0.7873123
220	0xbdbdf339	-0.09274907
221	0x3d98d340	0.07462168
222	0xbf829c00	-1.0203857
223	0xbf7a6836	-0.97815263
224	0xbf550572	-0.83211434
225	0xbfab4fa0	-1.3383675
226	0xbfb54b0b	-1.4163526
227	0xbf35ee91	-0.7106715
228	0x4051fe27	3.2811372
229	0xbfe313b6	-1.774039
230	0xbf469a50	-0.7757921
231	0xbf8f2a1b	-1.1184725
232	0xbf21cbd0	-0.6320162
233	0x40527259	3.2882292
234	0xbf9dcaa6	-1.2327468
235	0xbe603ec3	-0.21898942
236	0xbf54f3b4	-0.8318436
237	0xbf5fce0f	-0.87423795
238	0x3e53e027	0.20690976
239	0xbe81b88d	-0.25336114
240	0xbf8342c1	-1.0254747
241	0xbe36d606	-0.17855081
242	0xbfcb0df9	-1.5863639
243	0xbf5e91d5	-0.8694127
244	0xbefdf06b	-0.49597487
245	0xbfa7bc46	-1.3104331
246	0xbf94cb1d	-1.1624485
247	0xbf1b988c	-0.60779643
248	0xbf7273ef	-0.9470815
249	0x405c4659	3.4417937
250	0xbf4de17b	-0.8042218
251	0xbf9eb3e0	-1.2398643
252	0xbe37bb98	-0.17942655
253	0xbfa97d33	-1.3241333
254	0xbf391e12	-0.7231151
255	0xbf9e5486	-1.2369545

fc2.weight f4 [256, 256]
0	0x3e934c82	0.28769308
1	0xbb1a840c	-0.0023577241
2	0xbed7a2bb	-0.4211634
3	0xbf0536a4	-0.520365
4	0xbd8d8338	-0.069097936
5	0x3d321a47	0.04348209
6	0xbefb3b9d	-0.4906892
7	0x3e5aa823	0.21353202
8	0x3dabe612	0.08393492
9	0xbe035fb7	-0.12829481
10	0x3e05c883	0.1306477
11	0xbedbf88b	-0.4296306
12	0xbed82ff7	-0.42224094
13	0x3f0dde44	0.55417275
14	0xbe8c81df	-0.27442834
15	0x3d83dfe2	0.06439187
16	0x3fcc70bb	1.5971903
17	0x3f062c86	0.5241169
18	0x3e67ee37	0.22649466
19	0xbf7cf759	-0.9881492
20	0x3eecdcd1	0.4626222
21	0xbf1bed22	-0.6090871
22	0xbf103158	-0.5632529
23	0x3f3b5e1b	0.7319047
24	0x3f785c26	0.9701561
25	0x3ca125c4	0.019671328
26	0xbb7bc078	-0.003841428
27	0x3f294433	0.6611969
28	0xbf9afa28	-1.2107592
29	0x3ec7cef2	0.39025074
30	0x3f465594	0.7747433
31	0x3ef2331d	0.4730462
32	0x3fe41007	1.7817391
33	0xbf7538b6	-0.9578966
34	0x3eb4ede5	0.3533775
35	0x3f01bab7	0.5067553
36	0x3e58622b	0.21131198
37	0x3d65fb7b	0.056148034
38	0x3e8e945e	0.2784757
39	0x3f86f2e3	1.0542873
40	0x3e205694	0.15658027
41	0xbf86b6e0	-1.0524559
42	0x3fa957f2	1.3229964
43	0x3f1f6a2d	0.62271386
44	0x3d87f04b	0.06637629
45	0xbe9038c0	-0.28168297
46	0xbe9fd96e	-0.31220573
47	0x3f1944aa	0.598704
48	0x3de51606	0.11185841
49	0xbe0bffe0	-0.13671827
50	0xbecfbbb8	-0.40572906
51	0x3fb2ec3c	1.3978343
52	0xbeeab3b4	-0.45840228
53	0x3f66a4ae	0.9009503
54	0x3f65de87	0.89792675
55	0x3eead8c5	0.45868507
56	0x3ea9e1a2	0.33179957
57	0xbc0c2e0d	-0.008555901
58	0xbedb0bd0	-0.4278245
59	0x3e391671	0.18074967
60	0xbec99c42	-0.39377028
61	0x3f464869	0.7745424
62	0xbf8ae868	-1.0852175
63	0xbb38e08a	-0.0028210008
64	0x3e6d3f31	0.23168637
65	0x3fb7c543	1.4357074
66	0x3edf2ee3	0.4359046
67	0xbf481eb8	-0.78171873
68	0x3e9c113a	0.30481893
69	0xbeffb3b2	-0.49941784
70	0xbed91210	-0.42396593
71	0x3f12fcd8	0.5741706
72	0xbe62793c	-0.2211656
73	0x3e08e0ce	0.13367006
74	0xbdd28bad	-0.10280547
75	0xbf5c8602	-0.8614198
76	0x3f900894	1.1252618
77	0x3f0af913	0.5428631
78	0x3f2d42e6	0.67680204
79	0x3f4e7358	0.8064475
80	0x3f980909	1.1877757
81	0xbee853da	-0.45376474
82	0x3f39f789	0.72643334
83	0x3dc8d525	0.09806279
84	0xbdf46f83	-0.11935332
85	0x3dc0647c	0.09394166
86	0x3d306ce9	0.043072615
87	0x3edd5f7d	0.43236914
88	0xbe984ce8	-0.29746175
89	0xbe69d6c3	-0.22835831
90	0xbf5daf9b	-0.8659608
91	0x3f72a95d	0.9478968
92	0x3aa930e3	0.0012908246
93	0x3e97c8ce	0.2964539
94	0x3eca4277	0.39503834
95	0xbeba5209	-0.36390713
96	0x3f213e2c	0.6298549
97	0xbf516067	-0.81787723
98	0xbf12ce52	-0.5734607
99	0xbe9f60df	-0.31128594
100	0xbea99d1d	-0.3312768
101	0x3f835836	1.0261295
102	0xbd83d072	-0.06436242
103	0xbef082e5	-0.46974865
104	0x3e1a7f31	0.15087582
105	0x3f029380	0.5100632
106	0x3f787257	0.9704947
107	0x3f62394d	0.88368684
108	0x3eba7aad	0.3642172
109	0x3ea70dfd	0.3262786
110	0x3eb43d3f	0.35202977
111	0x3e27d863	0.16391139
112	0x3ed0454d	0.40677872
113	0x3f4b7732	0.7947875
114	0xbeeb1ba4	-0.45919526
115	0x3f7c9ae8	0.9867387
116	0xbe09871a	-0.13430443
117	0x3f7ed229	0.9953943
118	0xbf400816	-0.7501234
119	0xbe936d93	-0.28794536
120	0xbeebf587	-0.4608576
121	0x3ec1ffc0	0.37890434
122	0xbc2ce92d	-0.01055364
123	0x3e9b6515	0.30350557
124	0x3e95e2a0	0.29274464
125	0x3f4520c6	0.77003133
126	0xbf6f3902	-0.9344636
127	0xbf8e8820	-1.1135292
128	0x3f57af85	0.84252197
129	0xbf1cbe8c	-0.6122825
130	0xbd56d1d1	-0.05244619
131	0x3f824e1f	1.0180091
132	0xbe2d40a6	-0.16919193
133	0xbe4d7b4f	-0.2006657
134	0x3ea50f76	0.32238358
135	0xbec3383a	-0.38128835
136	0xbf7a012a	-0.97658026
137	0x3f9c743b	1.2222971
138	0xbec59308	-0.38588738
139	0x3df210e7	0.1181963
140	0xbe81d8d7	-0.25360748
141	0x3f507fc6	0.81444967
142	0x3ee93e12	0.45555168
143	0xbeb6dc93	-0.3571516
144	0xbeb5e2f8	-0.35524726
145	0xbf6a2209	-0.91458184
146	0x3dfbc2cd	0.12293015
147	0x3e932894	0.28741896
148	0x3ec52b85	0.38509765
149	0x3f0ad36c	0.54228854
150	0x3ead8b37	0.33895275
151	0xbf020466	-0.5078796
152	0xbec1b035	-0.37829748
153	0xbf818182	-1.0117648
154	0x3dd1fbcd	0.10253105
155	0xbefd4423	-0.49466047
156	0xbedc0eca	-0.42980033
157	0x3f8a80aa	1.0820515
158	0xbf76bf63	-0.9638578
159	0xbf333f01	-0.7001801
160	0xbf8bf788	-1.0934916
161	0x3fbbdd88	1.4676981
162	0xbea44fa7	-0.3209202
163	0xbdab04cb	-0.083505236
164	0x3fb3075d	1.3986622
165	0xbd86c5b7	-0.0658068
166	0x3f739473	0.9514839
167	0xbd2ef6f5	-0.042715985
168	0x3f54316b	0.82887906
169	0x3ded777a	0.11595054
170	0x3fb896f7	1.4421071
171	0x3e3a63fd	0.18202205
172	0x3f6aec21	0.91766554
173	0x3efd307a	0.49451047
174	0x3da3d2f6	0.07999222
175	0x3e1a89d5	0.15091641
176	0x3f7c7249	0.98611885
177	0x3f87309e	1.0561712
178	0xbe1a48b0	-0.1506679
179	0xbf32d503	-0.6985628
180	0xbe145748	-0.1448642
181	0x3fbd4546	1.4786766
182	0x3f97703c	1.1831126
183	0xbee0afb4	-0.4388405
184	0x3e90aa0f	0.28254744
185	0xbd550321	-0.052004937
186	0x3f07c35e	0.5303248
187	0x3e5f937b	0.21833603
188	0x3f078c40	0.5294838
189	0xbe8e97a1	-0.2785006
190	0x3f317072	0.693122
191	0x3e4af421	0.1981969
192	0xbf539422	-0.8264791
193	0xbf6f1058	-0.93384314
194	0x3f9a22c0	1.2041855
195	0x3f6364d6	0.8882574
196	0x3e26d80a	0.1629335
197	0xbea2b2eb	-0.3177713
198	0x3f83567c	1.0260768
199	0x3f730a48	0.9493756
200	0x3f8b4b17	1.0882291
201	0xbf821b36	-1.0164554
202	0x3f46a7de	0.77599895
203	0xbc6b0bb8	-0.014346056
204	0x3f31bf0b	0.69432133
205	0x3f69575b	0.9114892
206	0x3f1d62eb	0.6147906
207	0x3fafe9b1	1.3743192
208	0x3f84154e	1.0319002
209	0x3ea10dc3	0.31455812
210	0xbd3157c4	-0.04329659
211	0x3d6f42a1	0.05841315
212	0x3ec2aa6e	0.38020653
213	0x3f5ac14c	0.854512
214	0x3edc2500	0.4299698
215	0x3f571abb	0.8402516
216	0x3f1428f9	0.5787502
217	0x3e9107ad	0.2832617
218	0xbd53a224	-0.0516683
219	0xbe2f6766	-0.17129287
220	0xbbc5b707	-0.0060337815
221	0x3ec9a797	0.39385673
222	0xbe68e7ed	-0.22744723
223	0xbf0091b3	-0.5022232
224	0x3f8e8e75	1.1137224
225	0x3dec732e	0.11545406
226	0x3e1c457e	0.15260884
227	0x3ef49855	0.4777247
228	0xbf47da1e	-0.78067195
229	0x3edb6a91	0.4285474
230	0x3fc59593	1.5436271
231	0xbe0b0179	-0.1357478
232	0xbe21e635	-0.15810473
233	0xbf44d540	-0.76887894
234	0x3c013e3b	0.007888372
235	0x3dacad53	0.084314965
236	0x3efcb53e	0.49357027
237	0xbf08f364	-0.53496385
238	0xbe15e8c8	-0.1463958
239	0xbe051931	-0.12997891
240	0x3edfba0a	0.43696624
241	0xbeed1dfa	-0.46311933
242	0xbee9e4d8	-0.45682406
243	0x3ed73c5d	0.4203824
244	0x3f75489e	0.9581393
245	0xbf30e5c0	-0.6910057
246	0x3ebd2d6a	0.3694871
247	0x3e49ba4a	0.1969997
248	0xbe70edc0	-0.23528194
249	0xbf752ef5	-0.95774776
250	0xbdbf388f	-0.093369596
251	0x3f19b4a9	0.6004129
252	0xbe12a79d	-0.14321752
253	0x3f332216	0.69973886
254	0xbf3b1e10	-0.73092747
255	0x3faa6254	1.3311257

fc2.bias f4 [256]
0	0xbf96d1b5	-1.1782748
1	0x4022deea	2.5448556
2	0xbb87d90f	-0.0041457484
3	0xbee70c7b	-0.4512671
4	0xbd504a29	-0.050851975
5	0xbc13cdc0	-0.009021223
6	0xbd8f2b69	-0.06990702
7	0x3def730d	0.11691866
8	0x4027299b	2.6119144
9	0x3c8b7225	0.017022202
10	0xbf678bf8	-0.9044795
11	0xbe095cde	-0.13414332
12	0xbd0c4463	-0.034244906
13	0x3f0a9b6e	0.54143417
14	0xbc877c9c	-0.01653891
15	0x3e7b6604	0.24550635
16	0xbdc501a6	-0.09619455
17	0x3f9fa689	1.2472697
18	0x3de7dd7b	0.11321541
19	0x3e667ce6	0.22508582
20	0xbd80073a	-0.06251378
21	0xbdf777b2	-0.12083377
22	0xbcf6bf6d	-0.030120576
23	0xbd51f399	-0.051257703
24	0x3d98047e	0.07422732
25	0x3fd9ecdf	1.7025412
26	0xbdb8b080	-0.0901804
27	0xbf866270	-1.0498791
28	0xbdc027c0	-0.09382582
29	0x3d09e561	0.03366602
30	0x403bbf32	2.9335446
31	0xbd1bf820	-0.038078427
32	0xbe1123d9	-0.14173831
33	0xbd3a9b39	-0.045558188
34	0x3c2ef733	0.010679054
35	0xbf378b5d	-0.71697026
36	0xbd8098be	-0.06279133
37	0xbcfa63d8	-0.030565187
38	0x40533f38	3.3007336
39	0x3cdcd4be	0.026956912
40	0xbcf0a9d1	-0.02937785
41	0xbccab3b1	-0.024743887
42	0x3e378868	0.17923129
43	0xbdcabe34	-0.098995596
44	0xbddfab0a	-0.10921295
45	0x3fdd2559	1.7277023
46	0xbbda75bf	-0.0066668685
47	0xbf6eac15	-0.93231326
48	0xbde2f132	-0.110811606
49	0xbd5407f8	-0.051765412
50	0xbfbac441	-1.4591142
51	0xbc2493b0	-0.010044977
52	0xbe3b30c5	-0.18280323
53	0xbec43819	-0.3832405
54	0xbf76c4e8	-0.96394205
55	0x3de719ba	0.11284204
56	0xbd2af062	-0.041733153
57	0xbd9434be	-0.07236622
58	0xbe7485be	-0.23879144
59	0xbfbd1179	-1.4770957
60	0xbe951c16	-0.2912299
61	0x3d04205f	0.032257434
62	0xbd096444	-0.033542886
63	0xbd9c6957	-0.076372795
64	0xbd8edadd	-0.069753386
65	0xbd1630ad	-0.036667515
66	0xbd5d8a43	-0.054086935
67	0xbdcaad41	-0.09896327
68	0x3e28cdcb	0.16484754
69	0x3e57ffe9	0.21093716
70	0x3f11e36f	0.5698766
71	0x3d9f00c7	0.0776382
72	0xbba46c40	-0.005017787
73	0xbe092ed0	-0.13396764
74	0x3d0ae3f9	0.033908818
75	0x3deb47d8	0.114883125
76	0xbc6eb287	-0.014568931
77	0x3e4f5156	0.20245871
78	0xbcf5eb59	-0.03001945
79	0xbd85cca6	-0.06533174
80	0xbfbd633e	-1.4795911
81	0xbd856fc3	-0.065154575
82	0x402c31c5	2.6905377
83	0x3f068739	0.52550083
84	0xbf568802	-0.8380128
85	0xbd89bd7f	-0.06725597
86	0xbdd68cea	-0.10476096
87	0xbd51fc0d	-0.051265765
88	0x3fcb51f2	1.5884383
89	0xbf36cd47	-0.7140698
90	0xbe355a39	-0.17710198
91	0xbeba1eaa	-0.3635152
92	0xbcabce92	-0.020972524
93	0x3fad6804	1.3547368
94	0xbc9ac20b	-0.018891355
95	0xbf437dd6	-0.76363885
96	0xbd5cc1a1	-0.053895596
97	0xbcaf6dd6	-0.021414679
98	0x4025dcc3	2.5915992
99	0xbc84d5a3	-0.016215151
100	0xbdd81ddf	-0.105525725
101	0xbcd85fef	-0.026412932
102	0xbce31bb2	-0.027723167
103	0x3e1beda9	0.15227379
104	0x3e0f8f6f	0.1401956
105	0xbcbc809e	-0.023010548
106	0xbfb20d25	-1.3910261
107	0xbdb0b52f	-0.08628308
108	0xbf2752dd	-0.65360814
109	0xbd9a9c79	-0.07549376
110	0xbd9724b5	-0.07380048
111	0xbc2a3297	-0.010388038
112	0xc000ad17	-2.0105646
113	0xbdda16f5	-0.1064891
114	0xbd9720a0	-0.073792696
115	0xbda66de8	-0.08126432
116	0xbc2e5abd	-0.010641751
117	0x3c9677c5	0.018367657
118	0xbd9f8227	-0.077884965
119	0x3f560147	0.835957
120	0xbd1737ac	-0.036918327
121	0x3bf6ec8e	0.0075355237
122	0xbd598e48	-0.053114206
123	0x3fe5fd7b	1.7967981
124	0xbdcc3fb4	-0.09973088
125	0xbd72672a	-0.059180416
126	0xbdc8723e	-0.09787415
127	0xbdbf29ea	-0.09334166
128	0xbea0d066	-0.31408995
129	0x3d15b101	0.036545757
130	0x4050e6e4	3.2640924
131	0x3ea532a4	0.32265198
132	0x3e8860fc	0.26636493
133	0xbd8fa4c9	-0.07013852
134	0xbac24c71	-0.0014823807
135	0xbe711106	-0.2354165
136	0xbf31b1ab	-0.69411725
137	0xbd0169d0	-0.03159505
138	0xbf3c3e93	-0.7353298
139	0xbdfe14b4	-0.124062926
140	0xbd196e04	-0.037458435
141	0x3f6bf194	0.92165494
142	0xbe106d13	-0.14104109
143	0xbe398117	-0.1811565
144	0xbde4a0db	-0.11163493
145	0xbd363cdf	-0.044491645
146	0x4048f18e	3.1397433
147	0x3f7c4112	0.9853679
148	0x3e046e7d	0.12932773
149	0xbd9ded8d	-0.07711325
150	0xbf944089	-1.1582195
151	0xbdf07212	-0.11740507
152	0xbdb6e6c6	-0.08930735
153	0xbc69a37c	-0.014260169
154	0xbd8477a2	-0.06468131
155	0xbd8f4326	-0.069952294
156	0xbc76e7d6	-0.015069922
157	0xbe9fd2de	-0.31215566
158	0xbe5db62e	-0.21651527
159	0x403c95ba	2.9466386
160	0xbd5a2df4	-0.05326648
161	0xbec080f6	-0.3759839
162	0xbd98cdd4	-0.074611336
163	0xbda46c0f	-0.08028423
164	0x3fba1225	1.4536787
165	0xbdc1ccd5	-0.09462897
166	0xbecbfbc6	-0.39840525
167	0xbc9e1584	-0.019297369
168	0xbdfd4d41	-0.12368251
169	0xbd998478	-0.074959695
170	0xbc74a5c6	-0.014932102
171	0x3cce515e	0.025185283
172	0x3e5be531	0.21474148
173	0xbd6714cd	-0.05641632
174	0xbda42809	-0.080154486
175	0xbce693f0	-0.028146714
176	0xbd4567d6	-0.04819473
177	0xbc2b7f45	-0.010467355
178	0x3f6d4e31	0.92697436
179	0xbf7d3aca	-0.9891783
180	0xbfa6771c	-1.3005099
181	0xbd010a93	-0.031504225
182	0xbd68564b	-0.05672292
183	0x400f619e	2.240333
184	0xbe417b93	-0.18894796
185	0xbe38c942	-0.18045524
186	0x3e2bcaba	0.16776553
187	0xbd9bd528	-0.07609016
188	0xbfbea606	-1.4894416
189	0x3ba7a46a	0.005116035
190	0xbdd1c4cb	-0.102426134
191	0xbdb5625c	-0.08856651
192	0xbe6f8f82	-0.23394588
193	0xbd839da4	-0.06426552
194	0xbdfdbd33	-0.123896025
195	0xbd8cb0e2	-0.06869675
196	0x4027c97d	2.6216729
197	0xbd53126f	-0.05153125
198	0xbc1617f6	-0.009160986
199	0x3d78f3b5	0.060779292
200	0xbd05ab7b	-0.03263424
201	0xbf847adb	-1.0349993
202	0xbda4cfaa	-0.08047421
203	0xbf792d83	-0.9733507
204	0xbd90b826	-0.070663735
205	0xbd8cdd82	-0.06878187
206	0xbcdb99f9	-0.026806818
207	0xc00dc6c6	-2.2152572
208	0x3b6d5cd2	0.0036218655
209	0x3da93682	0.0826235
210	0xbdd70752	-0.10499443
211	0xbd70d638	-0.058798045
212	0xbdabff74	-0.08398333
213	0xbf957b6c	-1.167829
214	0xbf090500	-0.53523254
215	0x3fa9ce01	1.3265992
216	0xbf171845	-0.5902141
217	0xbc041350	-0.008061245
218	0xbd817c1e	-0.063225016
219	0xbfcb506b	-1.5883917
220	0xbdc4bc24	-0.096061975
221	0xbd8ed759	-0.06974668
222	0x3ddc9e06	0.10772328
223	0xbd8c29e6	-0.06843929
224	0xbbfc9e79	-0.007709321
225	0xbfc103fc	-1.5079341
226	0xbddaff3c	-0.10693213
227	0xbc08eecf	-0.008357718
228	0xbbb12689	-0.005406205
229	0xbf23c7a1	-0.63976485
230	0xbd887321	-0.06662584
231	0xbf459834	-0.7718537
232	0xbd60b568	-0.054860502
233	0x400bae14	2.1825
234	0xbe81f773	-0.253841
235	0xbfa15e00	-1.2606812
236	0xbdc4f889	-0.09617717
237	0xbe07256d	-0.1319787
238	0x3ff064fd	1.8780819
239	0x4000988d	2.009311
240	0x3e3fc105	0.18725975
241	0xbf0bc744	-0.5460093
242	0xbec7c8f9	-0.39020517
243	0x4013f7a0	2.3119888
244	0xbd815e8b	-0.06316861
245	0xbcdaed77	-0.02672456
246	0xbc7dd186	-0.015491849
247	0xbf63c0bd	-0.8896597
248	0xbffc97b9	-1.9733802
249	0xbb290c0b	-0.0025794532
250	0xbda62e07	-0.08114248
251	0xbf64f428	-0.8943505
252	0x3b8a2aa6	0.00421651
253	0xbd18a1a5	-0.03726353
254	0xbb4c4485	-0.003116877
255	0xbd63951b	-0.05556212

fc3.weight f4 [256, 256]
0	0x3c887b22	0.016660277
1	0xbd7d908c	-0.06190543
2	0xbd257aa0	-0.040400147
3	0xbd90e1ef	-0.070743434
4	0x3d2d402e	0.042297535
5	0x3c1ded81	0.009639145
6	0xbd5d5ea5	-0.05404534
7	0x3cfdc0f6	0.0309758
8	0x3d060315	0.032717783
9	0x3d658f2e	0.05604475
10	0xbd5b7ca9	-0.053585682
11	0xbd29d81b	-0.04146586
12	0x3b99b279	0.004690465
13	0x3d488f0f	0.048964556
14	0x3c853dfc	0.016264908
15	0x3c69b2a6	0.0142637845
16	0x3b358ddc	0.0027702963
17	0xbd5e8373	-0.05432458
18	0xbcc08920	-0.023502886
19	0xbd3a934d	-0.045550633
20	0x3d7f86ee	0.06238454
21	0x3c9c440b	0.019075414
22	0x3c23c8be	0.009996591
23	0xbd73fe7f	-0.05956888
24	0xbd1db50e	-0.038502745
25	0x3c7f5ae0	0.015585631
26	0x3d67a2b6	0.056551658
27	0xbdb2f9b1	-0.08739031
28	0x3d4b36f5	0.049612958
29	0x3ca3d3e4	0.019998498
30	0xbdd447a5	-0.103652276
31	0x3b48d4a0	0.0030644313
32	0xbc275dbf	-0.010215222
33	0x3b166f80	0.0022954643
34	0xbc3e04e9	-0.01159785
35	0xbd20d87c	-0.039268956
36	0xbd1df5e6	-0.038564585
37	0x3cc970c2	0.0245899
38	0xbcfc5f7a	-0.030807246
39	0x3d38ce57	0.045118656
40	0x3cae8bc4	0.02130688
41	0x3ce14b2d	0.027501667
42	0xbd3cc7a2	-0.046088822
43	0x3cf78234	0.030213453
44	0x3ce0f657	0.027461214
45	0xbd468768	-0.048468977
46	0xbd1616f2	-0.036642976
47	0xbd614c12	-0.055004187
48	0xbcd40220	-0.02587992
49	0xbd7210a6	-0.05909791
50	0xbd434675	-0.047674615
51	0xbb00be74	-0.001964477
52	0xb89822dc	-7.254418e-05
53	0xbcc9c2fb	-0.024629107
54	0x3bc2bea9	0.0059431386
55	0xbca440bc	-0.020050399
56	0xbcb10669	-0.021609502
57	0x3d4e3246	0.050340913
58	0xbd9fdc55	-0.07805697
59	0xbd520978	-0.05127856
60	0xbd22dc42	-0.039760835
61	0xbd86d90b	-0.065843664
62	0x3cb3983c	0.021923177
63	0xbd2b9c1a	-0.041896917
64	0x3d11c13a	0.035584666
65	0xbd23f432	-0.040027805
66	0xbcde68de	-0.027149614
67	0xbd18a8cf	-0.037270363
68	0xbd934b23	-0.071920656
69	0x3d160185	0.036622543
70	0xbb2d405d	-0.0026436069
71	0xbd4ef811	-0.050529543
72	0x3b830689	0.003998582
73	0xbc441200	-0.011967182
74	0xbcbeccb9	-0.023290979
75	0xbd5a82f0	-0.053347528
76	0xbc2d6e30	-0.010585353
77	0xbd0c3110	-0.034226477
78	0x3d12aec3	0.035811197
79	0xbd443c38	-0.04790899
80	0xbdb03ddc	-0.08605549
81	0xbd12313c	-0.035691485
82	0xbd0ceec0	-0.034407377
83	0x3b33073c	0.0027317544
84	0xbda5972d	-0.08085475
85	0xbd17823d	-0.03698944
86	0x3ce5902f	0.028022854
87	0x3d15cee4	0.03657426
88	0xbcd2acbc	-0.025717132
89	0x3b5041f1	0.0031777585
90	0xbc424df3	-0.011859405
91	0xbd3b49d5	-0.04572471
92	0xbd88f135	-0.066866316
93	0xbd8bc4b6	-0.06824629
94	0xbd114d4d	-0.03547411
95	0xbc772248	-0.015083857
96	0xbc53f74c	-0.012937378
97	0xbc6991d1	-0.014255957
98	0xbd5de748	-0.054175645
99	0xbd9787cf	-0.0739895
100	0x3d519a5d	0.051172603
101	0x3cca00e7	0.024658633
102	0x3d001e34	0.031278804
103	0xbd7c7c49	-0.061641965
104	0xbd92dc66	-0.07170944
105	0x3ca1e393	0.019761836
106	0xbbf36a41	-0.007428438
107	0xbbd6b381	-0.0065521603
108	0xbda625c7	-0.08112674
109	0x3bb0eb46	0.0053991405
110	0xbc24d326	-0.010060107
111	0xbca899f4	-0.020581223
112	0xbdc3cb99	-0.095603175
113	0xbd92a698	-0.071606815
114	0x3b67c70b	0.0035366442
115	0x3ca1b548	0.019739762
116	0x3c941773	0.018077588
117	0xbce214f4	-0.027597882
118	0xbd33cf0c	-0.043898627
119	0xbb7526e0	-0.0037407205
120	0xbd2e7fbc	-0.042602286
121	0xbcf21c77	-0.029554589
122	0xbbde2514	-0.0067793224
123	0xbd869465	-0.06571273
124	0x3d176f30	0.03697127
125	0x3cd1ebb2	0.025625084
126	0x3d5ded36	0.0541813
127	0xbc25c8b8	-0.010118656
128	0x3caa688d	0.020801807
129	0xbd6c05f1	-0.057622854
130	0xbc2de349	-0.010613271
131	0xbd5a0ebe	-0.053236715
132	0x3d064789	0.032783065
133	0xbd891083	-0.066926025
134	0xbc3ae7b8	-0.011407785
135	0xbcdbbebb	-0.026824346
136	0xbd9cb644	-0.07651952
137	0xbcf9ed94	-0.030508794
138	0x3aab2980	0.0013058633
139	0xbc8d75e8	-0.017268136
140	0x3c88fe02	0.016722683
141	0x3cedaec7	0.029014004
142	0x3c99e91d	0.018787915
143	0xbd13417d	-0.035951126
144	0x3d219089	0.03944448
145	0x3d7ef447	0.06224468
146	0xbd62f5ed	-0.055410314
147	0xbc3319c6	-0.010931438
148	0xbd90c290	-0.0706836
149	0xbc970cd1	-0.018438729
150	0xbd6f96b2	-0.058493324
151	0xbd3ce1fd	-0.046113957
152	0xbc567e09	-0.013091573
153	0x3c10876d	0.0088213505
154	0xbc3a218e	-0.011360539
155	0x3d34b8d8	0.044121593
156	0x3da37b86	0.079825446
157	0xbd6ded48	-0.058087617
158	0x3d12703b	0.035751563
159	0xbd8c6604	-0.068553954
160	0xbbc5b317	-0.006033312
161	0xbdc33c19	-0.09532947
162	0x3d3c004d	0.045898724
163	0xbcfc9d24	-0.03083665
164	0xbbfa9e7f	-0.0076482887
165	0xbd4f0ba6	-0.05054822
166	0xbd3f167a	-0.046652295
167	0xbd3cefbe	-0.046127073
168	0x3ce9a392	0.02852038
169	0xbcf0e14e	-0.029404309
170	0xbd5d8d70	-0.054089963
171	0xbb5d2cba	-0.0033748583
172	0x3c7accf8	0.015307657
173	0x3d26b07b	0.04069565
174	0x3c17c816	0.009264013
175	0xbd02e3cc	-0.031955525
176	0x3d4875ea	0.048940577
177	0xbceb602d	-0.028732384
178	0xbd5b33c8	-0.05351618
179	0xbcdd9a32	-0.027051065
180	0xbc4dc712	-0.012559669
181	0xbd559d3e	-0.05215191
182	0xbc674ce4	-0.014117453
183	0x3c968a5e	0.018376525
184	0x3d2e0c3e	0.042492144
185	0xbc5d4ba1	-0.013506801
186	0xbd9eaea4	-0.07748154
187	0xbcc30f84	-0.02381111
188	0xbc5a5f5e	-0.013328401
189	0x3d44704b	0.047958653
190	0xbd14da31	-0.036340896
191	0x3d37693c	0.044778094
192	0x3d122007	0.035675075
193	0x3c2dc80e	0.010606779
194	0xbc5e24c2	-0.013558568
195	0xbbc7f579	-0.0061022607
196	0xbd3b7303	-0.04576398
197	0x3b75aca2	0.003748693
198	0x3b0c0c58	0.0021369662
199	0xbca956bd	-0.020671243
200	0xbd858bcf	-0.06520807
201	0xbc5e078d	-0.013551605
202	0x3d682422	0.056675084
203	0xbdaa08c5	-0.08302454
204	0xbc34a3d8	-0.0110253915
205	0x3cd7a5ff	0.02632427
206	0xbcc7ad10	-0.024374515
207	0xbd76d419	-0.060260866
208	0x3ca1fec6	0.019774806
209	0xbc9864f4	-0.018602826
210	0x3d458393	0.048221182
211	0xbd202bcc	-0.039104268
212	0x3d79fbcd	0.06103115
213	0xbb8a7d8b	-0.0042263917
214	0x3d1cf2dd	0.03831755
215	0xbd647f87	-0.055785682
216	0x3d750368	0.0598177
217	0x3b6e2a37	0.003634108
218	0x3d2db242	0.042406328
219	0xbd4971a4	-0.04918064
220	0x3c7e7f40	0.015533268
221	0xbd3f677d	-0.046729553
222	0x3bf72ce0	0.0075431913
223	0x3c6a1980	0.014288306
224	0x3d135e94	0.03597887
225	0xbd8c2f3a	-0.06844945
226	0x3c696742	0.01424581
227	0xbcfcc6f8	-0.030856594
228	0xbd6f063d	-0.05835556
229	0x3d37c5a0	0.044866204
230	0x3c24a9a8	0.010050215
231	0x3c03da66	0.008047676
232	0x3cfc1064	0.030769534
233	0xbdca67c2	-0.098830715
234	0xbc7d2ed0	-0.0154530555
235	0x3cc71975	0.024304131
236	0xbc13c1a2	-0.009018334
237	0x3bd96b14	0.006635079
238	0xbcde978c	-0.027171873
239	0x3c6c1ffc	0.014411923
240	0xbd8dff68	-0.069334805
241	0xbd42191f	-0.04738724
242	0xbbe243ce	-0.0069050556
243	0xbd8788cd	-0.066178896
244	0x3d5523f6	0.05203625
245	0x3cee1df3	0.029067015
246	0x3d067a4b	0.03283147
247	0x3cd7ffaf	0.026367037
248	0xbc549d5f	-0.012976973
249	0xbd1791a0	-0.037004113
250	0x3d6b13e4	0.057392016
251	0xbda7a812	-0.08186354
252	0x3b5fbec8	0.0034140814
253	0xbd1e9d87	-0.03872445
254	0xbc45e460	-0.012078375
255	0xbd42132d	-0.04738157

fc3.bias f4 [256]
0	0xbdadb8dc	-0.08482525
1	0xbd86791a	-0.06566067
2	0x3b7c43a0	0.0038492456
3	0xbdddd56e	-0.10831724
4	0xbd9b495c	-0.075823516
5	0xbdb956f9	-0.09049792
6	0xbdb2ef64	-0.087370664
7	0xbe050c1b	-0.12992899
8	0xbe21b8d9	-0.1579317
9	0xbe4fa62b	-0.20278232
10	0xbe036d8f	-0.12834762
11	0xbd15b33e	-0.03654789
12	0xbdab0687	-0.08350854
13	0xbe4e8c25	-0.20170648
14	0x3b83b7c1	0.004019708
15	0x3f38fdf1	0.72262484
16	0xbcdfd5b2	-0.027323578
17	0xbf54e748	-0.8316541
18	0x3d6a2bf8	0.057170838
19	0x3c9b4a8c	0.018956445
20	0xbdbc6ffb	-0.09201046
21	0xbe0088a0	-0.12552118
22	0xbe73c596	-0.23805842
23	0x3f1e31a5	0.617945
24	0x3d6455ff	0.055746075
25	0xbd23fd87	-0.040036704
26	0xbfb00ac2	-1.3753283
27	0xbfc6146d	-1.5474983
28	0xbf8358d6	-1.0261486
29	0x3d344bc8	0.044017583
30	0x3e5ee806	0.21768197
31	0xbd97f7dd	-0.07420323
32	0xbe54923c	-0.20758909
33	0xbe21c527	-0.15797864
34	0x3d907d4d	0.07055149
35	0xbe0f47aa	-0.13992181
36	0x3c1aa3d2	0.009438472
37	0xbdc5715e	-0.09640764
38	0xbdb637f5	-0.08897392
39	0xbdd80890	-0.10548508
40	0xbdc6b8c4	-0.0970321
41	0xbda6ff15	-0.08154122
42	0xbd0c4fd1	-0.034255806
43	0xbfb43fc7	-1.4081963
44	0x3ed50415	0.41604677
45	0xbe2e631f	-0.17029999
46	0xbec369cb	-0.3816665
47	0xbd5d8512	-0.054081984
48	0xbdae72a1	-0.085179575
49	0xbc13d4f4	-0.00902294
50	0xbdf73597	-0.12070768
51	0xbd2fb708	-0.04289916
52	0xbf7a5705	-0.9778903
53	0x3a7cc200	0.00096419454
54	0xbdd097cc	-0.10185203
55	0xbeb98933	-0.36237487
56	0xbe58a81d	-0.2115788
57	0xbd87d467	-0.066323094
58	0x40743659	3.815817
59	0xbe810592	-0.25199562
60	0x400617f5	2.0952122
61	0xbda9d67d	-0.082928635
62	0xbddb6984	-0.10713485
63	0x3f0f5274	0.5598519
64	0xbf711ad1	-0.94181544
65	0xbd517b2c	-0.051142856
66	0xbcf17ffc	-0.029479973
67	0xbe1bccb1	-0.15214802
68	0xbd85ca6d	-0.0653275
69	0xbf1c17ce	-0.60973823
70	0xbe0313e1	-0.12800552
71	0xbd98aa1e	-0.07454322
72	0x3ec145c8	0.3774855
73	0xbe0d1a91	-0.13779666
74	0xbed9dda8	-0.42551923
75	0xbe06fd7d	-0.13182636
76	0xbd7ae405	-0.061252613
77	0x3c73d48f	0.014882221
78	0xbb8f4b30	-0.0043729767
79	0xbdc5c474	-0.09656611
80	0xbdc04401	-0.09387971
81	0xbdbabe02	-0.09118272
82	0x3f5da1be	0.86574924
83	0xbd271933	-0.040795516
84	0xbdc07ce4	-0.09398821
85	0xbe462687	-0.19350635
86	0xbc2ae3c4	-0.01043028
87	0xbc5f47ba	-0.013627941
88	0xbe0c6f0a	-0.13714233
89	0xbe17e21f	-0.14832352
90	0xbdfc4b0c	-0.123190016
91	0xbd08dbf9	-0.033412907
92	0xbc43f676	-0.011960616
93	0xbdc8e8a5	-0.098099984
94	0xbf05bcec	-0.52241397
95	0xbd735dae	-0.05941551
96	0xbd5d337e	-0.054004185
97	0xbe4b28a1	-0.19839717
98	0x3dee7ad7	0.116445236
99	0xbce462a8	-0.027879074
100	0xbd3ae9f5	-0.045633275
101	0xbe9dbadc	-0.30806625
102	0xbbb362c0	-0.0054744184
103	0xbde4eb06	-0.1117764
104	0xbe8639f4	-0.2621609
105	0xbd7aa8cc	-0.061196133
106	0x3bab1eb6	0.005222167
107	0x3dbdaf55	0.092619576
108	0xbdc01947	-0.09379821
109	0x3daa5356	0.08316676
110	0xbdccd00a	-0.10000618
111	0xbed08fc5	-0.40734687
112	0xbdeaf1f1	-0.11471928
113	0xbe143ed9	-0.144771
114	0x3d5df865	0.054191966
115	0xbd0e1d93	-0.034696173
116	0xbde39cfb	-0.11113926
117	0xbdbb7250	-0.09152663
118	0x3d7e56b4	0.062094405
119	0xbde9ea24	-0.11421612
120	0xbd080e79	-0.033216927
121	0xbd09b205	-0.03361704
122	0xbdbacef5	-0.09121505
123	0xbd56db79	-0.0524554
124	0xbdb6bac1	-0.08922339
125	0xbebe6dba	-0.3719309
126	0xbf0c5abb	-0.54825944
127	0xbe2bbbb3	-0.1677082
128	0xbd5926d2	-0.053015538
129	0xbe104310	-0.14088082
130	0x3dcc7eb6	0.09985106
131	0xba63d4c6	-0.00086910685
132	0xbdbefb3c	-0.09325263
133	0xbddc6068	-0.107605755
134	0xbe1de2fb	-0.15418617
135	0x3e36c06f	0.17846845
136	0x3d70f2f8	0.058825463
137	0x3e14ede6	0.14543876
138	0xbdf9a55a	-0.121897414
139	0xbe68f846	-0.22750959
140	0xbdc09ae8	-0.09404546
141	0xbc52573f	-0.012838184
142	0x3e6ef97a	0.23337355
143	0x3deb150b	0.11478623
144	0xbed7a7ab	-0.42120108
145	0xbdeb258e	-0.11481772
146	0x3cb54f36	0.022132497
147	0xbe932750	-0.2874093
148	0xbdd4ba9b	-0.10387155
149	0x3dad9ccc	0.08477172
150	0x3df58a3e	0.11989258
151	0xbfe658fb	-1.7995905
152	0xbe1d4806	-0.15359506
153	0x3c00112b	0.007816593
154	0x4054ef4a	3.327105
155	0xbde28479	-0.110604234
156	0xbe8094a0	-0.25113392
157	0xbde63258	-0.11240071
158	0x3ca3d77d	0.020000214
159	0xbd957a72	-0.07298745
160	0x3eb96b60	0.36214733
161	0xbf281d5d	-0.65669805
162	0xbe39e0e8	-0.18152201
163	0xbe47a584	-0.19496733
164	0xbe7785f9	-0.241722
165	0xbe36f27f	-0.17865942
166	0xbda1d6b7	-0.07902282
167	0xbe12bad8	-0.14329088
168	0xbc911867	-0.017711831
169	0xbd10abff	-0.03532028
170	0xbd99fe00	-0.0751915
171	0x3e1e9a9f	0.15488671
172	0xbe1e562a	-0.15462556
173	0xbdf12630	-0.11774862
174	0x3f6e5e22	0.93112385
175	0xbdc16b13	-0.09444251
176	0x3eca4bcf	0.39510962
177	0xbde3608f	-0.111024015
178	0x3d295d34	0.04134865
179	0xbe38d4df	-0.18049954
180	0xbe1bb3a6	-0.15205249
181	0x3e0240ee	0.12720081
182	0xbd1a2326	-0.037631176
183	0xbd6041c2	-0.05475021
184	0x40257c4e	2.585712
185	0x3d7f9bd7	0.06240448
186	0xbdcbd7c1	-0.09953261
187	0xbd3d50a2	-0.046219476
188	0xbe1c4302	-0.15259936
189	0xbdb159f7	-0.086597376
190	0xbe13451e	-0.14381835
191	0xbe17cf8a	-0.14825264
192	0xbda75eda	-0.081723884
193	0xbd3498f1	-0.04409117
194	0xbf7b57e4	-0.98180985
195	0xbde4481d	-0.11146567
196	0x403a340f	2.9094274
197	0xbd2b30fe	-0.04179477
198	0x3c549e10	0.012977138
199	0x3db7efce	0.08981286
200	0x3d7e1dca	0.062040128
201	0xbe0d4991	-0.13797595
202	0xbdbbce32	-0.09170188
203	0x3e1940b1	0.14966084
204	0x3d5a5fc8	0.053314
205	0xbd9d9711	-0.07694829
206	0xbdf16e83	-0.117886566
207	0xbd5ee93b	-0.054421645
208	0xbd662e29	-0.056196366
209	0xbdee312e	-0.11630474
210	0xbddafb1e	-0.10692428
211	0x3df7c922	0.1209891
212	0xbd87eee4	-0.06637362
213	0xbd36675c	-0.044532165
214	0x3f34148f	0.7034387
215	0x3f183464	0.5945494
216	0xbcc9ce42	-0.024634484
217	0xbd36194c	-0.04445772
218	0x3f4feb56	0.8121847
219	0xbd2e86da	-0.042609073
220	0x3fc21658	1.5163069
221	0xbf83698c	-1.0266585
222	0xbd9142da	-0.07092829
223	0x3f31d6f8	0.6946864
224	0xbeaf10d6	-0.34192532
225	0xbd43d9df	-0.0478152
226	0xbdc70c01	-0.097190864
227	0xbdb59ecd	-0.088681795
228	0xbf195a95	-0.5990384
229	0xbb9790e7	-0.004625428
230	0xbdc270f0	-0.09494197
231	0xbdbea7be	-0.09309338
232	0xbeb31868	-0.34979558
233	0x3f6db87e	0.9285964
234	0xbd81502d	-0.063141204
235	0xbd6ade3a	-0.057340838
236	0xbd29b38f	-0.041431006
237	0xbc2ae60f	-0.010430827
238	0xbde2236d	-0.11041913
239	0xbd090fdb	-0.033462387
240	0xbd3b51ea	-0.045732416
241	0xbda43519	-0.0801794
242	0x3e281f68	0.1641823
243	0xbda62fb7	-0.0811457
244	0xbe11de6c	-0.14245003
245	0xbdcdb928	-0.100450814
246	0xbc80570b	-0.015666505
247	0xbe11e48e	-0.14247343
248	0xbd9dddd1	-0.07708324
249	0xbddb7972	-0.10716523
250	0xbe2e47a8	-0.17019522
251	0x3e25ef19	0.1620449
252	0xbd56f39c	-0.052478418
253	0xbd1888d8	-0.03723988
254	0xbd66eb43	-0.056376707
255	0xba829393	-0.0009962193

fc4.weight f4 [256, 256]
0	0x3d0bda6a	0.034143843
1	0xbd0b111e	-0.03395187
2	0xbd012efb	-0.031538945
3	0x3c6912ba	0.014225656
4	0x3dee93e1	0.116492994
5	0x3db48428	0.08814269
6	0x3dd68b2f	0.10475766
7	0xbc7ea2bc	-0.015541729
8	0xbd495cdf	-0.049160834
9	0xbe4b23d8	-0.19837892
10	0xbda1e6c7	-0.079053454
11	0xbe856a89	-0.26057842
12	0x3cc0f214	0.023552932
13	0x3d4bd326	0.049761914
14	0x3cfd72cd	0.03093853
15	0xbe75134d	-0.23933144
16	0x3d7b731b	0.06138907
17	0xbe65e4de	-0.22450587
18	0xbe812ae0	-0.25228024
19	0xbb7ce871	-0.0038590694
20	0xbde7df43	-0.11321881
21	0x3c9fb555	0.019495646
22	0x3cf3c6af	0.029757826
23	0xbde43900	-0.111436844
24	0x3dc9f289	0.09860713
25	0x3d6cd642	0.05782152
26	0xbd86b5d3	-0.06577649
27	0xbd731243	-0.059343588
28	0x3c6d33f4	0.014477719
29	0x3dab578c	0.083663076
30	0x3e4e0a6a	0.2012116
31	0x3cab1105	0.020882139
32	0xbb9ce12f	-0.004787586
33	0x3d55698e	0.052102618
34	0x3d8e298a	0.06941517
35	0x3b0f9d8c	0.0021913974
36	0xbd8f7f59	-0.070067115
37	0x3c46cc4c	0.012133669
38	0x3d8345f5	0.064098276
39	0x3d0cad2c	0.034344837
40	0xbc4d4daa	-0.012530724
41	0x3e173529	0.14766373
42	0xbd160579	-0.036626313
43	0x3dfa3bb0	0.12218416
44	0x3d9140a7	0.070924096
45	0xbe06b41a	-0.13154641
46	0x3d4f3f6d	0.050597597
47	0x3cb18c14	0.02167324
48	0xbaa5d73f	-0.0012652649
49	0x3dfe27bc	0.124099225
50	0xbb1ea4e6	-0.0024207174
51	0x3d20c938	0.039254397
52	0xbc09f7ba	-0.008420879
53	0x3d05022b	0.03247277
54	0x3dbfb3b2	0.09360446
55	0xbe163ff9	-0.14672841
56	0x3d13bb78	0.036067456
57	0xbc8dff92	-0.01733378
58	0xbf1bbbb2	-0.60833275
59	0x3d017b2e	0.031611614
60	0xbe8ea51c	-0.27860343
61	0x3d58bbac	0.052913353
62	0x3d3ee27b	0.046602707
63	0xbd5fea4e	-0.05466681
64	0x3c716594	0.014733691
65	0xbdf30e7a	-0.118679956
66	0x3d2bd840	0.04195428
67	0xbd07747f	-0.033070084
68	0x3c428a5f	0.011873811
69	0x3d91afe4	0.071136266
70	0x3d9ef3e5	0.07761363
71	0xbdaa4f49	-0.08315904
72	0xbdaadfd1	-0.08343471
73	0x3d89205b	0.066956244
74	0xbe59938f	-0.21247695
75	0xbd2a2f35	-0.041548926
76	0xbc72a4c3	-0.01480979
77	0x3e38baef	0.1804006
78	0xbd360bee	-0.04444497
79	0x3d39e56a	0.045384802
80	0xbe0992e5	-0.13434942
81	0x3d967046	0.07345633
82	0xbdb135fc	-0.08652875
83	0xbcbc5c04	-0.022993095
84	0x3df52439	0.119697995
85	0xbd84abd5	-0.06478087
86	0x3ddfc395	0.10925976
87	0xbe179a6c	-0.14805001
88	0xbc76890b	-0.015047322
89	0x3d6301c2	0.0554216
90	0x3d1c63d2	0.038181134
91	0x3d8602b1	0.06543482
92	0x3d8a5562	0.06754567
93	0x3a4c77af	0.00077998167
94	0xbd387b86	-0.045039676
95	0x3c8906d6	0.016726892
96	0x3d5d9fb0	0.054107368
97	0xbd13ee56	-0.036115967
98	0xbce7171f	-0.028209267
99	0xbd730201	-0.059328083
100	0xbcc84c5b	-0.024450472
101	0xbe83714a	-0.2567237
102	0xbc6f4718	-0.014604352
103	0xba1adebf	-0.00059078255
104	0xbc0ec2b3	-0.008713412
105	0xbd0af9b0	-0.033929527
106	0x3dc9d9e5	0.09856013
107	0x3d7c1511	0.061543528
108	0x3cde7cda	0.027159143
109	0x3e6c6c63	0.23088221
110	0x3cdd9696	0.027049344
111	0xbc0bc9e4	-0.008532021
112	0xbe440b16	-0.19144854
113	0x3d2de537	0.042454924
114	0x3e01398c	0.12619609
115	0x3cd1f2b5	0.025628427
116	0x3d801099	0.06253166
117	0xbce2b4e8	-0.027674153
118	0x3e7464eb	0.23866622
119	0xbca3c668	-0.019992068
120	0xbd479bd3	-0.04873259
121	0x3c469442	0.012120308
122	0xbdd48df6	-0.103786394
123	0x3d17c6b0	0.037054718
124	0xbbc8a9ee	-0.006123773
125	0xbca9da5f	-0.02073401
126	0xbdd5702e	-0.10421787
127	0xbdb85604	-0.09000781
128	0x3c577a9c	0.013151791
129	0xbd482740	-0.048865557
130	0x3e82beef	0.25536296
131	0x3cba0677	0.02270816
132	0x3a6a6bd0	0.0008942457
133	0xbbd6bc87	-0.006553236
134	0xbc0fb065	-0.008770083
135	0xbe3c8345	-0.1840945
136	0x3e23289f	0.15933464
137	0x3e41680c	0.18887347
138	0xbd250ac9	-0.04029349
139	0xbca35e48	-0.019942418
140	0x3d5eefe8	0.05442801
141	0x3d2c99af	0.04213875
142	0xbd1eb2ae	-0.03874462
143	0x3e1b6595	0.15175469
144	0xbd5c72e9	-0.053820524
145	0x3e09177c	0.13387865
146	0x3b901b64	0.0043977965
147	0xbd141c2a	-0.03615967
148	0xbd943887	-0.07237344
149	0x3dd2b1f8	0.10287851
150	0x3ea7bcbf	0.3276119
151	0x3cf279af	0.029599039
152	0xbd26dfc1	-0.040740732
153	0xbab089e3	-0.0013468828
154	0x3e12a9ac	0.14322537
155	0x3cf6043e	0.03003132
156	0x3c76e5ba	0.0150694195
157	0xbd12cefc	-0.035841927
158	0xbca9e419	-0.020738648
159	0xbd0b897a	-0.034066655
160	0xbe806b40	-0.25081825
161	0xbd049367	-0.032367136
162	0xbe132eae	-0.14373276
163	0xbe5fd82e	-0.2185981
164	0xbd1e9bae	-0.038722686
165	0xbe088d54	-0.13335162
166	0xbb52acea	-0.0032146522
167	0x3dd9a5d9	0.10627336
168	0xbd586998	-0.052835077
169	0x3dac9910	0.08427632
170	0x3d9cfc92	0.076653615
171	0xbe1c5cf4	-0.15269834
172	0xbd081486	-0.033222698
173	0xbd5527ed	-0.05204003
174	0xbd8cc310	-0.06873143
175	0xba86899c	-0.00102644
176	0xbe13eee9	-0.14446606
177	0x3cd9b224	0.026574202
178	0xbe02ef8e	-0.12786695
179	0xbe5ec092	-0.21753147
180	0x3e156916	0.14590868
181	0xbdd775c3	-0.10520508
182	0x3d89a469	0.06720812
183	0xbcb23b9f	-0.021756945
184	0xbd90b189	-0.07065112
185	0x3e17207e	0.14758489
186	0x3da26afc	0.07930562
187	0x3c730168	0.014831878
188	0xbd229977	-0.039697137
189	0xbc9dfc39	-0.019285308
190	0x3dadf504	0.08493999
191	0x3d8b1708	0.06791502
192	0xbcdf5743	-0.02726329
193	0x3d5f5b09	0.054530177
194	0x3b8896d7	0.004168372
195	0xbd3c73e6	-0.046008967
196	0xbe887f3d	-0.26659575
197	0xbd0c7a8f	-0.03429657
198	0xbcc91a77	-0.024548752
199	0x3d8d41f4	0.06897345
200	0x3e406982	0.18790248
201	0x3d3c1d50	0.045926392
202	0x3d9a89e1	0.075458296
203	0x3d923171	0.071383364
204	0x3e676377	0.22596537
205	0xbd68b089	-0.056808982
206	0xbd7f8c69	-0.062389765
207	0x3cffcaf6	0.031224709
208	0x3d059aa7	0.03261819
209	0x3e1f6849	0.15567125
210	0xbca1cf34	-0.019752122
211	0x3dcaf570	0.09910095
212	0x3b58f1b8	0.003310306
213	0xbd85b282	-0.06528188
214	0xbad243ce	-0.0016041936
215	0xbe86819b	-0.26270756
216	0x3e0f4419	0.13990821
217	0xb9d615d0	-0.00040833512
218	0xbdc211a1	-0.09476019
219	0xbcb91799	-0.02259426
220	0xbcbb6455	-0.02287499
221	0xbd1b5af5	-0.03792854
222	0xbed4b644	-0.41545308
223	0xbd30bbfa	-0.04314802
224	0x3d2ac484	0.04169132
225	0x3d984c80	0.07436466
226	0xbc558e1b	-0.013034369
227	0x3c232b63	0.009959075
228	0xbf0e27e7	-0.55529636
229	0x3dba5e04	0.09099963
230	0x3ccb1166	0.02478857
231	0xbbf1c15c	-0.0073777866
232	0x3e84d1dd	0.25941363
233	0xbd8de0c8	-0.06927639
234	0xbe131419	-0.14363135
235	0x3d38b35a	0.045092918
236	0xbcee143b	-0.029062381
237	0x3dca0ea5	0.098660745
238	0xbd4d4350	-0.050113022
239	0x3d189b2a	0.03725735
240	0xbca286b1	-0.019839616
241	0x3d09a120	0.033600926
242	0x3c55f3c3	0.013058606
243	0x3d9d4888	0.0767985
244	0x3c9b4e02	0.018958095
245	0x3d6fda98	0.058558077
246	0x3da28b84	0.07936767
247	0xbbe69fea	-0.007038106
248	0xbde293b5	-0.11063329
249	0x3cdf0d7b	0.027228108
250	0x3c75d6ab	0.015004794
251	0xbd81cba2	-0.06337668
252	0xbcca3260	-0.024682224
253	0x3d3e8593	0.046514105
254	0x3c8322c5	0.01600779
255	0x3db4b62f	0.08823811
