model/DDQN with batchnorm/EX1_Player_model_epoch_2000.pth (torch_old, 854519 bytes, 10 tensors)

fc1.weight f4 [256, 57]
0.777462 -0.14822268 0.40638396 -0.36116043 0.7368502 0.09694009 0.14411496 0.025064185
-0.007780845 0.07550052 -0.017099347 -0.3222579 0.08150855 -0.15323089 0.5327209 -0.26730815
0.36790824 0.026804382 0.34741783 -0.02467498 -0.65080935 1.0115321 -0.60607314 -1.6795341
-1.4035716 -0.2581996 -0.8289874 -0.617512 -0.083384335 0.02058026 -0.051630266 0.496709
-0.34566128 -1.0136055 -0.0009065303 -0.3838575 -1.0299526 0.20549029 0.05910307 -0.29785615
0.0069659203 0.2652728 0.022775425 -1.0729896 -0.21460375 -0.1858013 -0.865748 0.10828043
-0.269797 -0.9540953 -0.34563592 -0.16369966 -0.8967497 0.13022864 -0.30977073 -1.0273083
0.06296595 0.12167955 -0.2599368 0.0272106 -0.09509396 0.1937503 -0.21363801 0.22555421
-0.06324788 0.21425852 -0.09203803 0.124918975 -0.08401573 0.2420644 -0.25766775 0.10964188
-0.09025708 0.15705661 -0.10047668 0.14043427 -0.23580092 -0.20434599 0.025652919 -0.3836176
-0.22871669 0.03399518 0.04281707 -0.43024352 0.06643921 -0.022313073 0.30855843 -0.06063138
-0.13076848 -0.04036393 -0.24810916 0.102077276 0.13290814 -0.24713963 -0.09599913 -0.085922
0.050337132 0.027722642 -0.15748504 -0.05447281 -0.17278206 0.072803915 -0.08461217 -0.33072326
-0.16057636 -0.05939273 -0.3971317 -0.18113986 0.03301326 -0.2774996 -0.028313857 -0.017537555
-0.37798956 0.11846508 -0.5082908 -1.3084768 0.17824078 0.13962908 -0.07141309 -0.9468978
0.42250744 -0.25455666 -0.3499579 -1.4840071 -0.050837103 -0.91810876 -0.09179888 -0.41281912
0.39618546 0.07337799 0.48711216 0.27267626 0.5895727 0.13978674 -0.10977312 -0.022473631
0.24448317 0.18436494 -0.26999986 -0.2450997 -0.1873092 0.020284696 0.1257529 -0.13798262
-0.118985586 1.5259781 0.27999657 -0.3045315 0.16141269 0.08831179 -0.42763478 0.11545789
-0.026866384 1.3757364 0.07160966 -1.157851 0.04195422 -0.40387905 -0.17932326 0.032450948
-0.32574666 -0.5553985 -1.2600039 -0.41459835 0.0546688 0.41039455 -0.3604049 0.96138567
-0.023197362 -0.3091735 -0.04420201 0.798402 -0.76881444 0.92054015 -0.9236479 0.8584444
-1.2302334 0.06563453 -1.2039965 0.73428637 -0.76868874 0.35280225 -0.95546997 0.540494
-0.5673185 0.1621703 -0.9801391 0.25446552 -2.199526 0.07617181 -2.048697 -0.85029685
0.29851916 -0.42333293 -0.42003033 -3.029481 -0.08696754 -0.14932208 0.33350104 -0.0028897524
-0.29629883 0.0853824 -0.3970052 -0.21425456 -0.2676742 0.37420687 -0.17093655 -0.0790412
0.3293951 0.016772032 1.1229124 -0.02618356 0.43105176 0.010518022 -0.17979284 -0.20836787
-0.48701674 -0.24828301 0.15037324 0.48348066 -0.1883729 -0.101098694 0.5435921 -0.17511195
0.0016288963 0.19521564 -0.27320588 -0.53884655 0.29561108 0.016960282 0.5122774 0.061765507
-0.115738295 -0.07739515 0.49125963 -0.3200147 -0.042870983 -0.43796012 0.27311647 -0.40970597
-0.5133574 -0.5699667 -0.6090474 -0.45443898 0.22071373 -0.75991476 0.0613662 -0.8965242
-0.4372413 0.80326116 -0.034759447 1.4189119 -2.8299546 -0.26543695 -0.5359216 -0.43279913
00000000: c007 473f b0c7 17be 8f11 d03e 05ea b8be
00000010: 37a2 3c3f 8788 c63d df92 133e 6853 cd3c
00000020: 75f6 febb 04a0 9a3d ee13 8cbc fdfe a4be
00000030: f4ed a63d 8fe8 1cbe 6660 083f 9ddc 88be
00000040: 785e bc3e dd94 db3c c0e0 b13e 2f23 cabc
00000050: 719b 26bf e279 813f 9c27 1bbf f9fa d6bf
00000060: 3ca8 b3bf bd32 84be 8538 54bf 4415 1ebf
00000070: 68c5 aabd ef97 a83c 427a 53bd a450 fe3e
00000080: 84fa b0be d3bd 81bf 38a4 6dba f888 c4be
00000090: 7dd5 83bf 0c6c 523e 1016 723d 9a80 98be
000000a0: 6042 e43b d6d1 873e 8793 ba3c b957 89bf
000000b0: 16c1 5bbe b242 3ebe a9a1 5dbf 21c2 dd3d
000000c0: d522 8abe 973f 74bf 31f7 b0be e2a0 27be
000000d0: 6391 65bf a85a 053e 459a 9ebe d77e 83bf
000000e0: 4bf4 803d 2133 f93d 7016 85be c4e8 de3c
000000f0: 9fc0 c2bd 7b66 463e ecc3 5abe aff7 663e
00000100: 1b88 81bd 9666 5b3e 6f7e bcbd 85d5 ff3d
00000110: 7010 acbd bbdf 773e 07ed 83be ec8b e03d
00000120: b4d8 b8bd 73d3 203e b8c6 cdbd 00ce 0f3e
00000130: cc75 71be 1340 51be 1226 d23c 8769 c4be
00000140: b534 6abe 883e 0b3d f460 2f3d e148 dcbe
00000150: 4811 883d e8c9 b6bc 5ffb 9d3e 9c58 78bd
00000160: 2ce8 05be a654 25bd 5410 7ebe e40d d13d
00000170: 1219 083e 2c12 7dbe 319b c4bd e0f7 afbd
00000180: 4f2e 4e3d 981a e33c c243 21be e21e 5fbd
00000190: c8ed 30be 381a 953d 2549 adbd 8f54 a9be
000001a0: 216e 24be cb45 73bd d954 cbbe ba7c 39be
000001b0: ea38 073d 6d14 8ebe 76f2 e7bc ebaa 8fbc
000001c0: d987 c1be d29d f23d 591f 02bf 2b7c a7bf
000001d0: c084 363e edfa 0e3e 0741 92bd e567 72bf
000001e0: e552 d83e 4055 82be af2d b3be f2f3 bdbf
000001f0: 913a 50bd 2d09 6bbf 0d01 bcbd 075d d3be
00000200: d2d8 ca3e 3347 963d c466 f93e 399c 8b3e
00000210: 3dee 163f 4124 0f3e bbd0 e0bd 9f1a b8bc
00000220: cc59 7a3e 2aca 3c3e 6c3d 8abe 6afb 7abe
00000230: fccd 3fbe 172c a63c 5ec5 003e 514b 0dbe
00000240: b7ae f3bd 4053 c33f b65b 8f3e 8eeb 9bbe
00000250: 5e49 253e d0dc b43d f2f2 dabe 3075 ec3d
00000260: e416 dcbc 2118 b03f 16a8 923d 7634 94bf
00000270: 30d8 2b3d 3cc9 cebe 84a0 37be 49eb 043d
00000280: 44c8 a6be 992e 0ebf cf47 a1bf 3c46 d4be
00000290: 64ec 5f3d 3c1f d23e fe86 b8be 5f1d 763f
000002a0: 6508 bebc fd4b 9ebe 2b0d 35bd 1364 4c3f
000002b0: 06d1 44bf 85a8 6b3f 3074 6cbf 03c3 5b3f
000002c0: 4a78 9dbf 656b 863d 8f1c 9abf 31fa 3b3f
000002d0: c9c8 44bf 7fa2 b43e ae99 74bf d15d 0a3f
000002e0: c93b 11bf f90f 263e 65ea 7abf 4e49 823e
000002f0: 09c5 0cc0 f7ff 9b3d da1d 03c0 0ead 59bf
00000300: 81d7 983e 18bf d8be 370e d7be 04e3 41c0
00000310: 0a1c b2bd e3e7 18be a6c0 aa3e 0062 3dbb
00000320: 7bb4 97be f8dc ae3d 4444 cbbe 8c65 5bbe
00000330: 980c 89be 0b98 bf3e fe09 2fbe 5ae0 a1bd
00000340: 79a6 a83e 8065 893c 98bb 8f3f e87e d6bc
00000350: d1b2 dc3e c853 2c3c 9d1b 38be 635e 55be
00000360: 425a f9be e73d 7ebe 71fb 193e c78a f73e
00000370: d3e4 40be d50c cfbd da28 0b3f 8c50 33be
00000380: b180 d53a 9ce6 473e a4e1 8bbe d9f1 09bf
00000390: 565a 973e 4af0 8a3c 9d24 033f d4fd 7c3d
000003a0: 3308 edbd 5981 9ebd 6286 fb3e f7d8 a3be
000003b0: 7c99 2fbd 4f3c e0be ecd5 8b3e fbc4 d1be
000003c0: 646b 03bf 56e9 11bf 88ea 1bbf 3aac e8be
000003d0: c802 623e c689 42bf 205b 7b3d 9c82 65bf
000003e0: 17de dfbe 86a2 4d3f ec5f 0ebd e89e b53f
000003f0: fa1d 35c0 5ae7 87be 2832 09bf d997 ddbe

fc1.bias f4 [256]
-0.96371716 -0.21557324 -0.267699 -0.27953577 -0.43519065 -0.586209 -0.3115566 0.051129825
-0.32653746 -0.09873054 -0.34252152 -0.2638335 0.0818893 -0.19251935 -0.41729292 -0.25304085
-0.5288777 -0.16637051 -0.4417317 -0.39528945 -0.24953388 -0.64765245 0.21065974 -0.4722117
-0.35608748 -0.55658996 -0.32014635 -0.6407779 0.07060037 -0.56245124 -0.47981933 -0.44191566
-0.8273048 0.6273753 0.022165919 -0.9307956 -0.4400845 -0.5626072 -0.66809016 -0.930314
-0.28001994 -0.7518401 -0.0639136 -0.4686514 -0.31432444 -0.028458014 -0.7240533 -0.81301814
-0.5993661 -0.6443267 -0.5542675 -0.23051651 -0.26851788 -0.95976245 -0.5597581 -0.061282404
-0.24639395 0.007928949 -0.029850615 -0.2022762 -0.56705683 -0.9687804 -0.33863524 -0.06648271
-0.35184798 -0.8638228 -0.8733503 -0.65265965 -0.58980745 0.10190133 -0.7296665 -0.23047715
-0.36205724 -0.07987181 -0.6786992 0.09453489 0.052393522 -0.68316305 -0.61519253 -0.36016542
-0.20029032 -0.29050487 -0.3189484 -0.36760926 -0.41638127 -0.6838851 -0.55423063 -0.16755044
-0.5451311 -0.43772554 1.229276 -0.48131096 -0.11771183 -0.49783882 -0.4788992 -0.48734385
-0.48587024 0.46548426 -0.2625101 -0.519808 -0.1641282 -0.73013484 -0.5063439 -0.05067386
-0.5439713 -0.5138321 -0.6606773 -0.33485758 -0.15721275 -0.77791625 -0.15493731 -0.027432358
-0.31425843 -0.1361711 -0.18331775 -0.12397075 -0.35251698 0.47363478 -0.39090863 -0.63803536
0.6086345 -0.14231181 -0.7351745 -0.2809763 -0.19088864 -0.63236356 1.0908189 -0.6966932
-0.55508715 0.3722127 -0.17645964 -0.9259931 -0.24118467 -0.5732888 -0.22880267 -0.31408706
-0.30710486 -0.3206319 0.5120598 -0.6374394 -0.19436604 -0.34811032 -0.6489724 0.060510308
-0.7774637 0.22007138 -0.7665809 -0.60012925 -0.08119292 -0.76692 -0.4647855 -0.42641383
-0.33479905 -0.25504357 -0.47108978 -0.76617426 -0.40988946 -0.77913857 -0.79458904 0.27294177
0.64657176 -0.7531108 -0.26979247 -0.7245703 -0.45353875 -0.23548546 0.15146205 -0.30829185
0.09228426 -0.58404833 -0.52499175 -0.32827428 -0.4677514 -0.81108207 -0.59418094 -0.5297731
-0.7492944 0.25044012 -0.2763696 -0.2543275 -0.026119117 -0.070718154 -0.4828449 -0.47744045
0.20096375 -0.40903726 -0.51640344 -0.30137798 -0.76009566 -0.21954468 -0.43567282 -0.533093
0.5452831 -0.77599144 -0.6741047 -0.47843593 0.37394878 0.3151359 -0.9420607 -0.939058
0.07239101 -0.7154255 -0.029834801 -0.4333883 -0.17457311 -0.121334516 -0.23660827 -0.09122035
-0.31861398 -0.28028426 -0.2743311 -0.6594657 -0.035507843 -0.46539068 -0.9661422 -0.901981
-0.24989128 -0.19594352 -0.22605714 -0.3079753 -0.16309778 0.076652974 -0.45245114 -0.37422398
-0.43610677 -0.71007377 -0.45983827 -0.36607584 1.0123053 -1.0506858 -0.2282736 -0.42109033
-0.68695146 1.0983087 -0.28995994 -0.15967858 -0.6569883 -0.4647371 -0.18056726 0.07817291
-0.59982693 0.059488695 -0.76818687 -0.18566534 -0.09705467 -0.7149417 -0.5298906 -0.24379662
-0.45668638 1.1504396 -0.73668045 -0.46122935 -0.32201496 -0.60139394 -0.0035944171 -0.42629895
00000000: 2bb6 76bf 3bbf 5cbe d80f 89be 501f 8fbe
00000010: 4fd1 debe cb11 16bf 5984 9fbe 826d 513d
00000020: eb2f a7be 3d33 cabd fb5e afbe 2f15 87be
00000030: 94b5 a73d cb23 45be 6ba7 d5be 928e 81be
00000040: 8764 07bf 085d 2abe a82a e2be 6163 cabe
00000050: cf85 7fbe 8dcc 25bf 30b7 573e bbc5 f1be
00000060: 1951 b6be ae7c 0ebf 39ea a3be 050a 24bf
00000070: ed96 903d cefc 0fbf e1aa f5be c542 e2be
00000080: 3fca 53bf ab9b 203f 4d95 b53c 9f48 6ebf
00000090: c152 e1be 0707 10bf f507 2bbf 0f29 6ebf
000000a0: c65e 8fbe 9878 40bf 22e5 82bd 14f3 efbe
000000b0: 22ef a0be c820 e9bc 8f5b 39bf f521 50bf
000000c0: 0f70 19bf 98f2 24bf 7ae4 0dbf 850c 6cbe
000000d0: 2d7b 89be feb2 75bf 4f4c 0fbf 4203 7bbd
000000e0: b24e 7cbe 6ce8 013c 4789 f4bc 7e21 4fbe
000000f0: a32a 11bf fe01 78bf 9961 adbe 1628 88bd
00000100: 6b25 b4be 7e23 5dbf e393 5fbf b414 27bf
00000110: 9ffd 16bf a5b1 d03d 6ccb 3abf 3402 6cbe
00000120: 915f b9be d593 a3bd 3bbf 2dbf 829b c13d
00000130: 979a 563d c6e3 2ebf 427d 1dbf 9a67 b8be
00000140: e818 4dbe 0ebd 94be 344d a3be 4837 bcbe
00000150: ed2f d5be 1813 2fbf 0fe2 0dbf 5892 2bbe
00000160: b68d 0bbf 901d e0be ea58 9d3f 646e f6be
00000170: e612 f1bd bbe4 febe 4732 f5be 2285 f9be
00000180: fcc3 f8be f453 ee3e b967 86be 2312 05bf
00000190: 3911 28be 1eea 3abf c19f 01bf 658f 4fbd
000001a0: b441 0bbf 808a 03bf 2622 29bf 7472 abbe
000001b0: 61fc 20be 8525 47bf e3a7 1ebe d3b9 e0bc
000001c0: 7be6 a0be 7070 0bbe a6b7 3bbe 60e4 fdbd
000001d0: 1b7d b4be 4280 f23e 2d25 c8be 4956 23bf
000001e0: 78cf 1b3f 30ba 11be 6534 3cbf 20dc 8fbe
000001f0: 5078 43be 94e2 21bf f49f 8b3f 7c5a 32bf
00000200: 311a 0ebf aa92 be3e d6b1 34be e20d 6dbf
00000210: 1df9 76be 0ec3 12bf 3f4b 6abe 05d0 a0be
00000220: d93c 9dbe dd29 a4be 5a16 033f 3b2f 23bf
00000230: e407 47be 843b b2be 0e23 26bf a8d9 773d
00000240: dc07 47bf 645a 613e a53e 44bf 12a2 19bf
00000250: 7948 a6bd de54 44bf 5df8 edbe ea52 dabe
00000260: c86a abbe 1295 82be ae32 f1be ff23 44bf
00000270: 08dd d1be a075 47bf 306a 4bbf 06bf 8b3e
00000280: ba85 253f dfcb 40bf 3d22 8abe 707d 39bf
00000290: 3b36 e8be 1a23 71be de18 1b3e 6ed8 9dbe
000002a0: 88ff bc3d 3184 15bf dc65 06bf 9113 a8be
000002b0: 1d7d efbe 13a3 4fbf 3e1c 18bf 369f 07bf
000002c0: c2d1 3fbf b039 803e 5180 8dbe 3737 82be
000002d0: c2f7 d5bc aed4 90bd 7237 f7be 1373 f4be
000002e0: 71c9 4d3e 556d d1be 0433 04bf 374e 9abe
000002f0: a195 42bf 52d0 60be 8210 dfbe c878 08bf
00000300: ac97 0b3f 60a7 46bf 2092 2cbf 8ef5 f4be
00000310: 3776 bf3e 7e59 a13e e42a 71bf 1b66 70bf
00000320: bd41 943d 2026 37bf 1d68 f4bc 12e5 ddbe
00000330: 4bc3 32be 3b7e f8bd 7049 72be bcd1 babd
00000340: 5f21 a3be 6b81 8fbe 2075 8cbe bed2 28bf
00000350: ac70 11bd b047 eebe 1855 77bf 3ae8 66bf
00000360: 80e3 7fbe 6ba5 48be 867b 67be f0ae 9dbe
00000370: 1b03 27be 3cfc 9c3d ada7 e7be 499a bfbe
00000380: 6349 dfbe 65c7 35bf ec6f ebbe 4b6e bbbe
00000390: 3893 813f df7c 86bf 8ec0 69be 2799 d7be
000003a0: 0ddc 2fbf 6195 8c3f a175 94be c882 23be
000003b0: 6330 28bf 05f2 edbe a0e6 38be 1e19 a03d
000003c0: 428e 19bf 6baa 733d e5a7 44bf 0e1f 3ebe
000003d0: 99c4 c6bd 6b06 37bf e9a6 07bf d2a5 79be
000003e0: ccd2 e9be 9b41 933f 1797 3cbf 4126 ecbe
000003f0: 25df a4be f4f4 19bf 5090 6bbb db43 dabe

fc2.weight f4 [256, 256]
-0.07502643 -0.0023577241 -0.13628681 -0.59683144 -0.14338458 0.18000773 -0.7854947 0.24428265
0.07304254 -0.1395389 -0.311413 -0.08460524 -0.28934583 0.5950595 -0.27782196 -0.03250027
1.0337659 0.45535758 0.24969058 -0.8537104 0.6687066 -0.34187174 -0.5485333 0.53280395
0.99522346 0.20180234 0.3163961 0.7933003 -1.147628 0.49192265 0.69587505 -0.20910887
1.1664767 -0.78683925 0.6159662 0.26849437 0.2862146 0.39948797 0.10129786 0.76684535
0.4518137 -0.8999122 1.3862951 -0.10279384 0.057313196 0.04781825 -0.22418843 1.0280722
-0.058242276 0.18984638 -0.43040532 1.011913 -0.075183176 0.13096727 0.9245415 0.24925031
0.4355934 0.15965416 -0.41348994 -0.33796403 -0.3267473 0.28565982 -0.31238532 0.37461603
0.19992039 1.4861443 0.42060393 -0.5589166 0.30481893 -0.5298707 -0.0025791836 -0.06413149
-0.15651888 0.2043233 -0.24236386 -0.39228752 0.62958354 0.049261615 0.8854826 0.5846899
0.63189125 -0.6461469 0.53717726 -0.15103666 0.009723704 0.2691236 -0.04174055 0.113541536
-0.031072887 -0.34688848 -0.6334231 0.8500233 0.10989807 0.44859803 -0.012016635 -0.43009168
0.48657784 -0.9786089 -0.27634612 -0.13695075 -0.31457928 0.41169345 0.08751538 0.21376121
0.020868385 0.49944684 0.765497 0.8522607 0.39594963 0.5141732 0.34027126 0.129564
0.79161334 0.49429163 -0.10004856 0.8586244 0.10822484 1.0048581 -0.5838733 -0.5268259
-0.5290151 -0.20274422 -0.16485786 0.27647185 0.19028284 0.33992845 -0.6683997 -0.33747852
0.2819251 -0.621544 0.07775206 0.71408737 -0.017157715 -0.2006657 0.16266811 0.016435292
-0.7908155 0.84978706 -0.49104455 0.025426257 0.08974813 1.1764135 0.63671494 -0.362965
-0.007364016 -0.93851787 0.08519978 0.13431738 0.36647967 0.09165962 0.5507037 0.14946392
-0.3465318 -0.9541239 0.13819975 -0.6163916 0.009030088 0.91388166 -0.92351353 -0.7512113
-0.874588 1.0033112 -0.024818521 -0.254562 1.4481251 -0.0658068 0.031436503 0.10937354
0.47512767 0.084184796 0.8235678 0.3197897 0.37410575 0.21140902 0.0757873 0.15091641
0.3929655 0.45749602 0.11790521 -0.21479143 -0.22078761 1.1523746 1.0212173 -0.49016201
-0.055157714 0.34123865 0.104339615 0.5254751 0.3343773 0.22998263 0.5700291 0.5785419
-0.9275766 -0.6390953 0.9296395 0.82434845 0.04871499 -0.43003616 1.4341404 0.801879
1.0587631 -0.70600885 0.4320407 -0.049466025 0.4904007 0.80379254 0.42675105 1.0049794
0.7968842 0.043694638 -0.16375752 0.49739125 0.52997535 0.49812728 0.054462615 0.6123101
0.49439532 0.3366599 0.41853696 -0.22117673 -0.0025217237 0.24471901 -0.088685706 0.1631507
0.4800883 0.047139075 -0.032555636 0.5783943 -0.49090388 -0.03990801 1.1394712 -0.22366506
-0.09622183 -0.53533286 0.48597315 0.37433094 0.7716522 -0.39927477 -0.1168297 -0.24053492
0.26988333 -0.49833918 -0.027248044 0.37049624 0.9075118 -0.266399 0.10876251 0.35439003
0.33207166 -0.75420547 -0.032066282 0.7742348 -0.11905677 0.34173012 -1.0526636 1.0627058
00000000: 75a7 99bd 0c84 1abb c58e 0bbe f2c9 18bf
00000010: 68d3 12be f253 383e 2e16 49bf 3b25 7a3e
00000020: 5497 953d 49e3 0ebe 8671 9fbe 8345 adbd
00000030: 2325 94be d255 183f ae3e 8ebe 011f 05bd
00000040: 7152 843f a124 e93e e3ae 7f3e c48c 5abf
00000050: 5b30 2b3f d009 afbe ae6c 0cbf d765 083f
00000060: f7c6 7e3f 46a5 4e3e abfe a13e ba15 4b3f
00000070: 79e5 92bf 49dd fb3e de24 323f a320 56be
00000080: 1c4f 953f 4c6e 49bf f6af 1d3f 1878 893e
00000090: b88a 923e b089 cc3e 4175 cf3d fa4f 443f
000000a0: 2054 e73e a560 66bf 1e72 b13f 9485 d2bd
000000b0: 3ec1 6a3d 12dd 433d a791 65be df97 833f
000000c0: 748f 6ebd 1767 423e 165e dcbe 5d86 813f
000000d0: a3f9 99bd 491c 063e c0ae 6c3f 793b 7f3e
000000e0: 1906 df3e 617c 233e f4b4 d3be 9f09 adbe
000000f0: 6c4b a7be 0142 923e f8f0 9fbe accd bf3e
00000100: eeb7 4c3e fa39 be3f 6659 d73e 2915 0fbf
00000110: 3a11 9c3e 9ba5 07bf 8507 29bb 5f57 83bd
00000120: 7c46 20be 213a 513e 3b2e 78be e9d9 c8be
00000130: 632c 213f 8cc6 493d fdae 623f 3dae 153f
00000140: a0c3 213f e269 25bf 7384 093f 5ba9 1abe
00000150: 2c50 1f3c 92ca 893e 24f8 2abd 7788 e83d
00000160: 918c febc 5e9b b1be 0428 22bf 219b 593f
00000170: 3d12 e13d a4ae e53e 6ce1 44bc fa34 dcbe
00000180: bb20 f93e 1d86 7abf 3d7d 8dbe d13c 0cbe
00000190: 8910 a1be 7cc9 d23e 433b b33d 38e4 5a3e
000001a0: 2df4 aa3c 7fb7 ff3e 9df7 433f c22d 5a3f
000001b0: e9b9 ca3e dba0 033f 0938 ae3e 6dac 043e
000001c0: 2ca7 4a3f cb13 fd3e 42e6 ccbd cfce 5b3f
000001d0: fca4 dd3d 319f 803f b878 15bf 10de 06bf
000001e0: 896d 07bf 2e9c 4fbe 80d0 28be b88d 8d3e
000001f0: 81d9 423e 1a0b ae3e 3e1c 2bbf fcc9 acbe
00000200: 7d58 903e 821d 1fbf 793c 9f3d 6ece 363f
00000210: 568e 8cbc 4f7b 4dbe 7892 263e 4ea3 863c
00000220: e272 4abf a58b 593f 316a fbbe ba4a d03c
00000230: decd b73d b894 963f c0ff 223f 8cd6 b9be
00000240: d84d f1bb b542 70bf 397d ae3d 7f8a 093e
00000250: 39a3 bb3e 0ab8 bb3d ebfa 0c3f 120d 193e
00000260: 9e6c b1be 7741 74bf 3c84 0d3e d7cb 1dbf
00000270: eff2 133c 26f4 693f 626b 6cbf 624f 40bf
00000280: 00e5 5fbf 806c 803f 3650 cbbc f355 82be
00000290: 2a5c b93f b7c5 86bd 90c3 003d 3cff df3d
000002a0: ef43 f33e 1469 ac3d 57d5 523f 7abb a33e
000002b0: ca8a bf3e 9b7b 583e 5f36 9b3d d589 1a3e
000002c0: c632 c93e eb3c ea3e 4978 f13d 49f2 5bbe
000002d0: 2616 62be 0381 933f 40b7 823f 84f6 fabe
000002e0: 0eed 61bd d5b6 ae3e 02b0 d53d 8985 063f
000002f0: 8033 ab3e 9180 6b3e 6ded 113f 521b 143f
00000300: a975 6dbf c09b 23bf dbfc 6d3f 8008 533f
00000310: 5f89 473d b32d dcbe ea91 b73f f147 4d3f
00000320: 8d85 873f ffbc 34bf 7034 dd3e e39c 4abd
00000330: cd15 fb3e 59c5 4d3f 1d7f da3e 2aa3 803f
00000340: 9a00 4c3f 26f9 323d 0db0 27be 11aa fe3e
00000350: 77ac 073f 8a0a ff3e 3114 5f3d 5bc0 1c3f
00000360: 6221 fd3e b05e ac3e 7a4a d63e 277c 62be
00000370: 8143 25bb 9f97 7a3e daa0 b5bd fa10 273e
00000380: 22ce f53e e714 413d 0f59 05bd a611 143f
00000390: c157 fbbe 9576 23bd 31da 913f 7408 65be
000003a0: f30f c5bd 930b 09bf 79d1 f83e 4ea8 bf3e
000003b0: 008b 453f be6d ccbe 6944 efbd c94e 76be
000003c0: 262e 8a3e 5026 ffbe 4a37 dfbc afb1 bd3e
000003d0: b152 683f 7365 88be e1be de3d 9c72 b53e
000003e0: 4c05 aa3e 9c13 41bf ef57 03bd 4034 463f
000003f0: 09d4 f3bd 40f7 ae3e aebd 86bf be06 883f

fc2.bias f4 [256]
-0.85994846 1.2021515 -0.0041457484 -0.23843919 -0.050851975 -0.009021223 -0.06990702 0.14882684
1.0041513 0.017022202 -0.40738887 -0.13414332 -0.034244906 0.4304553 -0.01653891 0.24550635
-0.09619455 0.16894688 0.11321541 0.20128302 -0.06251378 -0.12083377 -0.030120576 -0.051257703
-0.07829101 0.98121345 -0.0901804 -0.34604046 -0.062060043 0.03366602 0.9303067 -0.038078427
-0.17811716 -0.045558188 0.010679054 -0.4681633 -0.06279133 -0.030565187 1.2181735 0.026956912
-0.02937785 -0.024743887 0.06825374 -0.098995596 -0.10921295 0.9968328 -0.0066668685 -0.10458486
-0.110811606 -0.051765412 -0.63833106 -0.010044977 -0.30518925 -0.31970915 -0.5973574 0.05428057
-0.041733153 -0.07236622 -0.23879144 -0.72436786 -0.27424136 0.32515827 -0.033542886 -0.076372795
-0.069753386 -0.036667515 -0.022321133 -0.09896327 0.29367423 0.36881182 1.0673935 -0.020380154
-0.005017787 -0.039763767 0.033908818 0.11149838 -0.014568931 0.20245871 -0.03001945 -0.06533174
-0.7506637 -0.065154575 0.9666812 0.9715064 -0.64081264 -0.03549023 -0.10476096 -0.051265765
0.5128176 -0.22669634 -0.17710198 -0.27793196 -0.020972524 0.3585131 -0.018891355 0.015086528
-0.053895596 -0.021414679 0.7338507 -0.016215151 -0.105525725 -0.026412932 -0.027723167 0.15227379
0.16876636 -0.023010548 -0.5699182 -0.08628308 -0.27292302 -0.07549376 -0.07380048 -0.010388038
-1.0080217 -0.1064891 -0.073792696 -0.04949878 -0.010641751 0.018367657 -0.077884965 0.2787194
-0.036918327 0.0075355237 -0.053114206 -0.012068044 -0.16942385 -0.027415851 -0.09787415 -0.09334166
0.03266723 0.18468527 1.3838905 0.12147519 0.26636493 -0.07013852 -0.0014823807 -0.1070614
-0.6410157 -0.03159505 -0.5334177 -0.124062926 -0.037458435 0.20238775 -0.14104109 -0.1811565
-0.11163493 -0.044491645 1.103098 0.10128064 0.2150711 -0.07711325 -0.5881969 -0.078195214
-0.08930735 -0.014260169 -0.06468131 -0.069952294 -0.015069922 -0.24862434 -0.10768692 1.132886
-0.05326648 -0.32546583 -0.074611336 0.39019093 0.10519561 -0.09462897 -0.27137968 -0.019297369
-0.12368251 -0.074959695 0.016833682 0.025185283 0.21474148 -0.05641632 -0.08694853 -0.028146714
-0.04819473 -0.010467355 0.4903866 -0.7957574 -0.6928806 -0.031504225 -0.024957197 1.1627545
-0.18894796 -0.17790852 0.16776553 -0.07609016 -0.5623803 0.005116035 -0.07066039 -0.057388324
-0.2114996 -0.06426552 -0.123896025 -0.06869675 1.2986711 -0.05153125 -0.009160986 0.060779292
-0.03263424 -0.41350606 -0.08047421 -0.7247366 -0.070663735 -0.019293588 -0.026806818 -1.0062703
0.0036218655 0.11682224 -0.10499443 -0.058798045 -0.08398333 -0.9671574 0.19357356 0.9834545
-0.052569646 -0.008061245 -0.046954878 -0.7736681 -0.096061975 -0.06974668 0.18156688 -0.06843929
-0.007709321 -0.82010484 -0.10693213 -0.008357718 -0.005406205 -0.20471647 -0.06662584 -0.6795178
-0.054860502 0.9388014 -0.253841 -0.8256341 -0.09617717 -0.1319787 0.5465741 0.5987694
0.18725975 0.16021743 -0.39020517 1.206452 -0.036447063 -0.02727913 -0.015491849 -0.23411511
-1.070243 -0.0025794532 -0.08114248 -0.5960148 0.00421651 -0.03726353 -0.003116877 -0.05556212
00000000: 9525 5cbf 1ae0 993f 0fd9 87bb 6729 74be
00000010: 294a 50bd c0cd 13bc 692b 8fbd 1066 183e
00000020: 0888 803f 2572 8b3c 4695 d0be de5c 09be
00000030: 6344 0cbd a364 dc3e 9c7c 87bc 0466 7b3e
00000040: a601 c5bd 6900 2d3e 7bdd e73d 231d 4e3e
00000050: 3a07 80bd b277 f7bd 6dbf f6bc 99f3 51bd
00000060: 0957 a0bd ce30 7b3f 80b0 b8bd 372c b1be
00000070: ac32 7ebd 61e5 093d 9428 6e3f 20f8 1bbd
00000080: 5864 36be 399b 3abd 33f7 2e3c 1ab3 efbe
00000090: be98 80bd d863 fabc 1ced 9b3f bed4 dc3c
000000a0: d1a9 f0bc b1b3 cabc 9ec8 8b3d 34be cabd
000000b0: 0aab dfbd 6f30 7f3f bf75 dabb 9630 d6bd
000000c0: 32f1 e2bd f807 54bd aa69 23bf b093 24bc
000000d0: c441 9cbe ebb0 a3be 6aec 18bf 4e55 5e3d
000000e0: 62f0 2abd be34 94bd be85 74be 2c70 39bf
000000f0: 5d69 8cbe 257b a63e 4464 09bd 5769 9cbd
00000100: ddda 8ebd ad30 16bd cfda b6bc 41ad cabd
00000110: 785c 963e e7d4 bc3e 5aa0 883f 48f4 a6bc
00000120: 406c a4bb 55df 22bd f9e3 0a3d 4359 e43d
00000130: 87b2 6ebc 5651 4f3e 59eb f5bc a6cc 85bd
00000140: 7f2b 40bf c36f 85bd 6b78 773f a5b4 783f
00000150: 4c0c 24bf 345e 11bd ea8c d6bd 0dfc 51bd
00000160: 0448 033f 1623 68be 395a 35be 194d 8ebe
00000170: 92ce abbc 078f b73e 0bc2 9abc 7c2d 773c
00000180: a1c1 5cbd d66d afbc a4dd 3b3f a3d5 84bc
00000190: df1d d8bd ef5f d8bc b21b e3bc a9ed 1b3e
000001a0: 17d1 2c3e 9e80 bcbc 29e6 11bf 2fb5 b0bd
000001b0: 91bc 8bbe 799c 9abd b524 97bd 9732 2abc
000001c0: db06 81bf f516 dabd a020 97bd 3cbf 4abd
000001d0: bd5a 2ebc c577 963c 2782 9fbd 4fb4 8e3e
000001e0: ac37 17bd 8eec f63b 488e 59bd 0cb9 45bc
000001f0: 727d 2dbe 3597 e0bc 3e72 c8bd ea29 bfbd
00000200: 13ce 053d 231e 3d3e 5323 b13f fcc7 f83d
00000210: fc60 883e c9a4 8fbd 714c c2ba 0243 dbbd
00000220: 9b19 24bf d069 01bd 108e 08bf b414 febd
00000230: 046e 19bd bc3e 4f3e 136d 10be 1781 39be
00000240: dba0 e4bd df3c 36bd 5132 8d3f 396c cf3d
00000250: 993b 5c3e 8ded 9dbd 1294 16bf d024 a0bd
00000260: c6e6 b6bd 7ca3 69bc a277 84bd 2643 8fbd
00000270: d6e7 76bc 6197 7ebe f68a dcbd 6902 913f
00000280: f42d 5abd 75a3 a6be d4cd 98bd 1bc7 c73e
00000290: cc70 d73d d5cc c1bd 47f2 8abe 8415 9ebc
000002a0: 414d fdbd 7884 99bd cae6 893c 5e51 ce3c
000002b0: 31e5 5b3e cd14 67bd 1212 b2bd f093 e6bc
000002c0: d667 45bd 457f 2bbc f413 fb3e c2b6 4bbf
000002d0: 9f60 31bf 930a 01bd 0973 ccbc 24d5 943f
000002e0: 937b 41be a72d 36be baca 2b3e 28d5 9bbd
000002f0: 28f8 0fbf 6aa4 a73b 65b6 90bd 0510 6bbd
00000300: 5a93 58be a49d 83bd 33bd fdbd e2b0 8cbd
00000310: db3a a63f 6f12 53bd f617 16bc b5f3 783d
00000320: 7bab 05bd 11b7 d3be aacf a4bd 5688 39bf
00000330: 26b8 90bd 960d 9ebc f999 dbbc 77cd 80bf
00000340: d25c 6d3b 8040 ef3d 5207 d7bd 38d6 70bd
00000350: 74ff abbd a197 77bf 2638 463e adc3 7b3f
00000360: 4553 57bd 5013 04bc c253 40bd 1d0f 46bf
00000370: 24bc c4bd 59d7 8ebd abec 393e e629 8cbd
00000380: 799e fcbb 64f2 51bf 3cff dabd cfee 08bc
00000390: 8926 b1bb 32a1 51be 2173 88bd e1f4 2dbf
000003a0: 68b5 60bd 4a55 703f 73f7 81be c25c 53bf
000003b0: 89f8 c4bd 6d25 07be 48ec 0b3f f448 193f
000003c0: 05c1 3f3e 0a10 243e f9c8 c7be 056d 9a3f
000003d0: 8449 15bd 7b78 dfbc 86d1 7dbc dfbb 6fbe
000003e0: b9fd 88bf 0b0c 29bb 072e a6bd 6d94 18bf
000003f0: a62a 8a3b a5a1 18bd 8544 4cbb 1b95 63bd

fc3.weight f4 [256, 256]
0.016660277 -0.06190543 -0.040400147 -0.070743434 0.042297535 0.009639145 -0.05404534 0.0309758
0.032717783 0.05604475 -0.053585682 -0.04146586 0.004690465 0.048964556 0.016264908 0.0142637845
0.0027702963 -0.05432458 -0.023502886 -0.045550633 0.06238454 0.019075414 0.009996591 -0.05956888
-0.038502745 0.015585631 0.056551658 -0.08739031 0.049612958 0.019998498 -0.103652276 0.0030644313
-0.010215222 0.0022954643 -0.01159785 -0.039268956 -0.038564585 0.0245899 -0.030807246 0.045118656
0.02130688 0.027501667 -0.046088822 0.030213453 0.027461214 -0.048468977 -0.036642976 -0.055004187
-0.02587992 -0.05909791 -0.047674615 -0.001964477 -7.254418e-05 -0.024629107 0.0059431386 -0.020050399
-0.021609502 0.050340913 -0.07805697 -0.05127856 -0.039760835 -0.065843664 0.021923177 -0.041896917
0.035584666 -0.040027805 -0.027149614 -0.037270363 -0.071920656 0.036622543 -0.0026436069 -0.050529543
0.003998582 -0.011967182 -0.023290979 -0.053347528 -0.010585353 -0.034226477 0.035811197 -0.04790899
-0.08605549 -0.035691485 -0.034407377 0.0027317544 -0.08085475 -0.03698944 0.028022854 0.03657426
-0.025717132 0.0031777585 -0.011859405 -0.04572471 -0.066866316 -0.06824629 -0.03547411 -0.015083857
-0.012937378 -0.014255957 -0.054175645 -0.0739895 0.051172603 0.024658633 0.031278804 -0.061641965
-0.07170944 0.019761836 -0.007428438 -0.0065521603 -0.08112674 0.0053991405 -0.010060107 -0.020581223
-0.095603175 -0.071606815 0.0035366442 0.019739762 0.018077588 -0.027597882 -0.043898627 -0.0037407205
-0.042602286 -0.029554589 -0.0067793224 -0.06571273 0.03697127 0.025625084 0.0541813 -0.010118656
0.020801807 -0.057622854 -0.010613271 -0.053236715 0.032783065 -0.066926025 -0.011407785 -0.026824346
-0.07651952 -0.030508794 0.0013058633 -0.017268136 0.016722683 0.029014004 0.018787915 -0.035951126
0.03944448 0.06224468 -0.055410314 -0.010931438 -0.0706836 -0.018438729 -0.058493324 -0.046113957
-0.013091573 0.0088213505 -0.011360539 0.044121593 0.079825446 -0.058087617 0.035751563 -0.068553954
-0.006033312 -0.09532947 0.045898724 -0.03083665 -0.0076482887 -0.05054822 -0.046652295 -0.046127073
0.02852038 -0.029404309 -0.054089963 -0.0033748583 0.015307657 0.04069565 0.009264013 -0.031955525
0.048940577 -0.028732384 -0.05351618 -0.027051065 -0.012559669 -0.05215191 -0.014117453 0.018376525
0.042492144 -0.013506801 -0.07748154 -0.02381111 -0.013328401 0.047958653 -0.036340896 0.044778094
0.035675075 0.010606779 -0.013558568 -0.0061022607 -0.04576398 0.003748693 0.0021369662 -0.020671243
-0.06520807 -0.013551605 0.056675084 -0.08302454 -0.0110253915 0.02632427 -0.024374515 -0.060260866
0.019774806 -0.018602826 0.048221182 -0.039104268 0.06103115 -0.0042263917 0.03831755 -0.055785682
0.0598177 0.003634108 0.042406328 -0.04918064 0.015533268 -0.046729553 0.0075431913 0.014288306
0.03597887 -0.06844945 0.01424581 -0.030856594 -0.05835556 0.044866204 0.010050215 0.008047676
0.030769534 -0.098830715 -0.0154530555 0.024304131 -0.009018334 0.006635079 -0.027171873 0.014411923
-0.069334805 -0.04738724 -0.0069050556 -0.066178896 0.05203625 0.029067015 0.03283147 0.026367037
-0.012976973 -0.037004113 0.057392016 -0.08186354 0.0034140814 -0.03872445 -0.012078375 -0.04738157
00000000: 227b 883c 8c90 7dbd a07a 25bd efe1 90bd
00000010: 2e40 2d3d 81ed 1d3c a55e 5dbd f6c0 fd3c
00000020: 1503 063d 2e8f 653d a97c 5bbd 1bd8 29bd
00000030: 79b2 993b 0f8f 483d fc3d 853c a6b2 693c
00000040: dc8d 353b 7383 5ebd 2089 c0bc 4d93 3abd
00000050: ee86 7f3d 0b44 9c3c bec8 233c 7ffe 73bd
00000060: 0eb5 1dbd e05a 7f3c b6a2 673d b1f9 b2bd
00000070: f536 4b3d e4d3 a33c a547 d4bd a0d4 483b
00000080: bf5d 27bc 806f 163b e904 3ebc 7cd8 20bd
00000090: e6f5 1dbd c270 c93c 7a5f fcbc 57ce 383d
000000a0: c48b ae3c 2d4b e13c a2c7 3cbd 3482 f73c
000000b0: 57f6 e03c 6887 46bd f216 16bd 124c 61bd
000000c0: 2002 d4bc a610 72bd 7546 43bd 74be 00bb
000000d0: dc22 98b8 fbc2 c9bc a9be c23b bc40 a4bc
000000e0: 6906 b1bc 4632 4e3d 55dc 9fbd 7809 52bd
000000f0: 42dc 22bd 0bd9 86bd 3c98 b33c 1a9c 2bbd
00000100: 3ac1 113d 32f4 23bd de68 debc cfa8 18bd
00000110: 234b 93bd 8501 163d 5d40 2dbb 11f8 4ebd
00000120: 8906 833b 0012 44bc b9cc bebc f082 5abd
00000130: 306e 2dbc 1031 0cbd c3ae 123d 383c 44bd
00000140: dc3d b0bd 3c31 12bd c0ee 0cbd 3c07 333b
00000150: 2d97 a5bd 3d82 17bd 2f90 e53c e4ce 153d
00000160: bcac d2bc f141 503b f34d 42bc d549 3bbd
00000170: 35f1 88bd b6c4 8bbd 4d4d 11bd 4822 77bc
00000180: 4cf7 53bc d191 69bc 48e7 5dbd cf87 97bd
00000190: 5d9a 513d e700 ca3c 341e 003d 497c 7cbd
000001a0: 66dc 92bd 93e3 a13c 416a f3bb 81b3 d6bb
000001b0: c725 a6bd 46eb b03b 26d3 24bc f499 a8bc
000001c0: 99cb c3bd 98a6 92bd 0bc7 673b 48b5 a13c
000001d0: 7317 943c f414 e2bc 0ccf 33bd e026 75bb
000001e0: bc7f 2ebd 771c f2bc 1425 debb 6594 86bd
000001f0: 306f 173d b2eb d13c 36ed 5d3d b8c8 25bc
00000200: 8d68 aa3c f105 6cbd 49e3 2dbc be0e 5abd
00000210: 8947 063d 8310 89bd b8e7 3abc bbbe dbbc
00000220: 44b6 9cbd 94ed f9bc 8029 ab3a e875 8dbc
00000230: 02fe 883c c7ae ed3c 1de9 993c 7d41 13bd
00000240: 8990 213d 47f4 7e3d edf5 62bd c619 33bc
00000250: 90c2 90bd d10c 97bc b296 6fbd fde1 3cbd
00000260: 097e 56bc 6d87 103c 8e21 3abc d8b8 343d
00000270: 867b a33d 48ed 6dbd 3b70 123d 0466 8cbd
00000280: 17b3 c5bb 193c c3bd 4d00 3c3d 249d fcbc
00000290: 7f9e fabb a60b 4fbd 7a16 3fbd beef 3cbd
000002a0: 92a3 e93c 4ee1 f0bc 708d 5dbd ba2c 5dbb
000002b0: f8cc 7a3c 7bb0 263d 16c8 173c cce3 02bd
000002c0: ea75 483d 2d60 ebbc c833 5bbd 329a ddbc
000002d0: 12c7 4dbc 3e9d 55bd e44c 67bc 5e8a 963c
000002e0: 3e0c 2e3d a14b 5dbc a4ae 9ebd 840f c3bc
000002f0: 5e5f 5abc 4b70 443d 31da 14bd 3c69 373d
00000300: 0720 123d 0ec8 2d3c c224 5ebc 79f5 c7bb
00000310: 0373 3bbd a2ac 753b 580c 0c3b bd56 a9bc
00000320: cf8b 85bd 8d07 5ebc 2224 683d c508 aabd
00000330: d8a3 34bc ffa5 d73c 10ad c7bc 19d4 76bd
00000340: c6fe a13c f464 98bc 9383 453d cc2b 20bd
00000350: cdfb 793d 8b7d 8abb ddf2 1c3d 877f 64bd
00000360: 6803 753d 372a 6e3b 42b2 2d3d a471 49bd
00000370: 407f 7e3c 7d67 3fbd e02c f73b 8019 6a3c
00000380: 945e 133d 3a2f 8cbd 4267 693c f8c6 fcbc
00000390: 3d06 6fbd a0c5 373d a8a9 243c 66da 033c
000003a0: 6410 fc3c c267 cabd d02e 7dbc 7519 c73c
000003b0: a2c1 13bc 146b d93b 8c97 debc fc1f 6c3c
000003c0: 68ff 8dbd 1f19 42bd ce43 e2bb cd88 87bd
000003d0: f623 553d f31d ee3c 4b7a 063d afff d73c
000003e0: 5f9d 54bc a091 17bd e413 6b3d 12a8 a7bd
000003f0: c8be 5f3b 879d 1ebd 60e4 45bc 2d13 42bd

fc3.bias f4 [256]
-0.08482525 -0.06566067 0.0038492456 -0.10831724 -0.075823516 -0.09049792 -0.055605177 -0.12992899
-0.1579317 -0.15005094 -0.12834762 0.00090392405 -0.08350854 -0.15061443 0.004019708 -0.010434747
-0.027323578 -0.39881334 0.1834691 0.018956445 -0.20935307 -0.12552118 -0.20629273 0.1709046
0.055746075 -0.040036704 -0.28938952 -0.87787676 -0.26972362 0.044017583 0.30598286 -0.07420323
-0.12905538 -0.15797864 0.004600946 -0.13992181 0.009438472 -0.09640764 -0.08897392 -0.10548508
-0.07747548 -0.08154122 -0.02050238 -0.021418283 0.048139084 -0.1385343 0.097828664 -0.054081984
-0.0996066 -0.00902294 -0.08894445 -0.04289916 -0.38362852 0.00096419454 -0.10185203 -0.029524896
-0.2115788 -0.034557436 1.8682894 0.14749868 0.9770833 -0.051163662 -0.10713485 0.16721742
-0.30743325 -0.037518777 0.0017282398 -0.15214802 -0.0653275 0.121701375 -0.10768252 -0.07454322
0.42113793 0.03136226 -0.12699693 -0.06471566 -0.061252613 0.014882221 -0.0043729767 -0.09656611
-0.09387971 -0.09118272 0.041256927 -0.02531306 -0.09398821 -0.16175744 -0.01043028 0.14672174
-0.13714233 -0.14832352 -0.09142617 -0.033412907 -0.011960616 -0.098099984 -0.05918575 -0.05941551
-0.054004185 -0.19839717 0.116445236 -0.027879074 -0.045633275 0.16184063 -0.008237167 -0.1117764
-0.2621609 -0.061196133 0.036985584 0.12438534 -0.09379821 0.08316676 -0.10000618 -0.3120714
-0.36251572 -0.08125189 0.04896241 -0.034696173 -0.11113926 -0.09152663 0.062094405 -0.081470974
-0.033216927 -0.03361704 -0.09121505 -0.0524554 -0.08922339 0.07272139 -0.1559558 0.14503314
-0.03202668 -0.07808968 0.09985106 -0.00086910685 -0.09325263 -0.107605755 -0.12242199 0.24200012
0.058825463 0.14543876 -0.100214414 -0.19574432 -0.09404546 -0.012838184 0.02586847 0.11478623
-0.50413895 -0.090284415 0.022132497 -0.23691289 -0.10387155 0.08477172 0.11989258 -0.5866667
-0.15359506 0.007816593 1.9208385 -0.110604234 -0.25113392 -0.11240071 -0.039679408 -0.07298745
0.46425933 -0.17186454 0.15849555 -0.26730442 -0.121571496 -0.17865942 -0.07902282 -0.14329088
-0.017711831 -0.03532028 -0.0751915 0.199683 0.16462249 -0.11774862 0.21977659 -0.09444251
0.16002586 -0.111024015 0.24589159 -0.18049954 -0.15205249 -0.012304236 -0.037631176 -0.022984518
0.81230277 0.06240448 -0.09953261 -0.046219476 -0.15259936 -0.086597376 -0.09943423 -0.14825264
-0.081723884 -0.04409117 -0.12262492 -0.0958899 1.6754075 -0.010028974 0.0116341375 0.08981286
0.062040128 -0.10622076 -0.09170188 0.14966084 0.053314 -0.07694829 -0.11345473 -0.054421645
-0.01972019 -0.14019749 -0.075161465 0.1209891 -0.034607906 -0.020995382 0.851419 -0.27316692
-0.024634484 -0.04445772 -0.031154986 -0.042609073 0.77652085 -0.4470152 -0.12893842 -0.12833102
-0.34192532 -0.0478152 -0.097190864 -0.088681795 -0.61624473 -0.004625428 -0.09494197 -0.09309338
0.11134352 0.62460274 -0.063141204 -0.02557699 -0.041431006 0.21140504 -0.09961831 -0.033462387
-0.045732416 -0.048414465 0.1641823 -0.06738221 -0.11068438 -0.06868761 0.016098808 0.04567597
-0.20349593 -0.10716523 -0.13860181 0.022860903 -0.052478418 -0.03723988 -0.03877281 -0.0009962193
00000000: dcb8 adbd 1a79 86bd a043 7c3b 6ed5 ddbd
00000010: 5c49 9bbd f956 b9bd 41c2 63bd 1b0c 05be
00000020: d9b8 21be f4a6 19be 8f6d 03be 51f5 6c3a
00000030: 8706 abbd ab3a 1abe c1b7 833b 80f6 2abc
00000040: b2d5 dfbc 4331 ccbe 53df 3b3e 8c4a 9b3c
00000050: a760 56be a088 00be 673e 53be 9e01 2f3e
00000060: ff55 643d 87fd 23bd dd2a 94be 88bc 60bf
00000070: 3719 8abe c84b 343d c9a9 9c3e ddf7 97bd
00000080: 1827 04be 27c5 21be 88c3 963b aa47 0fbe
00000090: d2a3 1a3c 5e71 c5bd f537 b6bd 9008 d8bd
000000a0: 77ab 9ebd 15ff a6bd 9bf4 a7bc 6575 afbc
000000b0: 7d2d 453d efdb 0dbe 655a c83d 1285 5dbd
000000c0: 8cfe cbbd f4d4 13bc 8228 b6bd 08b7 2fbd
000000d0: f56a c4be 00c2 7c3a cc97 d0bd 32de f1bc
000000e0: 1da8 58be 198c 0dbd 1b24 ef3f e509 173e
000000f0: 2222 7a3f fd90 51bd 8469 dbbd 0b3b 2b3e
00000100: e467 9dbe 4aad 19bd 1b86 e23a b1cc 1bbe
00000110: 6dca 85bd 923e f93d a788 dcbd 1eaa 98bd
00000120: 649f d73e b775 003d 7c0b 02be a589 84bd
00000130: 05e4 7abd 8fd4 733c 304b 8fbb 74c4 c5bd
00000140: 0144 c0bd 02be babd 06fd 283d 565d cfbc
00000150: e47c c0bd bea3 25be c4e3 2abc 393e 163e
00000160: 0a6f 0cbe 1fe2 17be a53d bbbd f9db 08bd
00000170: 76f6 43bc a5e8 c8bd c26c 72bd ae5d 73bd
00000180: 7e33 5dbd a128 4bbe d77a ee3d a862 e4bc
00000190: f5e9 3abd 8db9 253e 2ff5 06bc 06eb e4bd
000001a0: f439 86be cca8 7abd 327e 173d bebd fe3d
000001b0: 4719 c0bd 5653 aa3d 0ad0 ccbd d3c7 9fbe
000001c0: a99b b9be 6467 a6bd cf8c 483d 931d 0ebd
000001d0: fb9c e3bd 5072 bbbd b456 7e3d 41da a6bd
000001e0: 790e 08bd 05b2 09bd f5ce babd 79db 56bd
000001f0: c1ba b6bd f4ee 943d e1b2 1fbe 9183 143e
00000200: 682e 03bd 7bed 9fbd b67e cc3d c6d4 63ba
00000210: 3cfb bebd 6860 dcbd 61b8 fabd e1ce 773e
00000220: f8f2 703d e6ed 143e 373d cdbd 3371 48be
00000230: e89a c0bd 3f57 52bc 1dea d33c 0b15 eb3d
00000240: 400f 01bf 09e7 b8bd 364f b53c 4b99 72be
00000250: 9bba d4bd cc9c ad3d 3e8a f53d ca2f 16bf
00000260: 0648 1dbe 2b11 003c 09de f53f 7984 e2bd
00000270: a094 80be 5832 e6bd e086 22bd 727a 95bd
00000280: 66b3 ed3e 42fd 2fbe a84c 223e 20dc 88be
00000290: 7afa f8bd 7ff2 36be b7d6 a1bd d8ba 12be
000002a0: 6718 91bc ffab 10bd 00fe 99bd b379 4c3e
000002b0: cc92 283e 3026 f1bd 1d0d 613e 136b c1bd
000002c0: d2dd 233e 8f60 e3bd 01cb 7b3e dfd4 38be
000002d0: a6b3 1bbe b597 49bc 2623 1abd 074a bcbc
000002e0: 13f3 4f3f d79b 7f3d c1d7 cbbd a250 3dbd
000002f0: 0243 1cbe f759 b1bd 2ca4 cbbd 8acf 17be
00000300: da5e a7bd f198 34bd c622 fbbd ed61 c4bd
00000310: c173 d63f 9150 24bc 1c9d 3e3c ceef b73d
00000320: ca1d 7e3d 458a d9bd 32ce bbbd b140 193e
00000330: c85f 5a3d 1197 9dbd f45a e8bd 3be9 5ebd
00000340: 3c8c a1bc ee8f 0fbe 41ee 99bd 22c9 f73d
00000350: 05c1 0dbd 82fe abbc 98f6 593f 89dc 8bbe
00000360: 42ce c9bc 4c19 36bd be38 ffbc da86 2ebd
00000370: 12ca 463f 2ddf e4be 6f08 04be 3569 03be
00000380: d610 afbe dfd9 43bd 010c c7bd cd9e b5bd
00000390: 37c2 1dbf e790 97bb f070 c2bd bea7 bebd
000003a0: 1208 e43d f7e5 1f3f 2d50 81bd d686 d1bc
000003b0: 8fb3 29bd 907a 583e af04 ccbd db0f 09bd
000003c0: ea51 3bbd 3f4e 46bd 681f 283e afff 89bd
000003d0: 7eae e2bd 17ac 8cbd a6e1 833c ba16 3b3d
000003e0: 3d61 50be 7279 dbbd a2ed 0dbe ca46 bb3c
000003f0: 9cf3 56bd d888 18bd 3dd0 1ebd 9393 82ba

fc4.weight f4 [256, 256]
0.034143843 -0.03395187 -0.031538945 0.014225656 0.116492994 0.08814269 0.10475766 -0.015541729
-0.049160834 -0.19837892 -0.079053454 -0.2288127 0.023552932 0.049761914 0.03093853 -0.24781579
0.06138907 -0.22450587 -0.1612631 -0.0038590694 -0.04226818 0.019495646 0.029757826 0.01643793
0.09860713 0.05782152 0.0021214613 -0.11078649 0.014477719 0.083663076 0.2012116 0.020882139
0.09490771 0.052102618 0.06941517 0.0021913974 -0.070067115 0.012133669 0.064098276 0.034344837
-0.012530724 0.14766373 -0.036626313 0.12698136 0.070924096 -0.13154641 0.050597597 0.02167324
-0.0012652649 0.124099225 -0.0024207174 0.039254397 -0.008420879 0.03247277 0.09360446 -0.13440824
0.036067456 -0.01733378 -0.67018646 0.08384628 -0.21533063 0.052913353 0.046602707 -0.13310845
0.014733691 -0.118679956 0.04195428 -0.033070084 0.011873811 0.071136266 0.07761363 -0.08315904
-0.08343471 0.10476546 -0.21247695 -0.041548926 -0.01480979 0.1804006 -0.04444497 0.045384802
-0.13434942 0.07345633 -0.06190561 -0.022993095 0.119697995 -0.06478087 0.10925976 -0.17981584
-0.015047322 0.0554216 0.038181134 0.06543482 0.06754567 0.00077998167 -0.045039676 0.016726892
0.054107368 -0.036115967 -0.028209267 -0.059328083 -0.024450472 -0.12665054 -0.014604352 -0.00059078255
-0.008713412 -0.033929527 0.09856013 0.061543528 0.027159143 0.23088221 0.027049344 -0.008532021
-0.24803703 0.042454924 0.12619609 0.025628427 0.06253166 -0.027674153 0.23866622 -0.019992068
-0.04873259 0.012120308 -0.103786394 0.037054718 -0.006123773 -0.02073401 -0.048795253 -0.10658009
0.013151791 -0.048865557 0.25536296 0.02270816 0.0008942457 -0.006553236 -0.008770083 -0.1840945
0.15933464 0.18887347 -0.04029349 -0.019942418 0.05442801 0.04213875 -0.015725855 0.15175469
-0.053820524 0.13387865 0.0043977965 -0.03615967 -0.07237344 0.10287851 0.3276119 0.029599039
-0.040740732 -0.0013468828 0.025818469 0.03003132 0.0150694195 -0.035841927 -0.020738648 -0.034066655
-0.25081825 0.011700738 -0.0937624 -0.18215986 -0.038722686 -0.13335162 -0.0032146522 0.10627336
-0.052835077 0.08427632 0.076653615 -0.18446419 0.06105701 -0.05204003 -0.06873143 -0.00102644
-0.06857485 0.026574202 -0.02664829 -0.21753147 0.14590868 -0.021397613 0.06720812 -0.021756945
-0.09279497 0.14758489 0.07930562 0.014831878 -0.039697137 -0.019285308 0.08493999 0.06791502
-0.02726329 0.054530177 0.004168372 -0.046008967 -0.26675028 -0.03429657 -0.024548752 0.06897345
0.18790248 0.045926392 0.075458296 0.071383364 0.22596537 -0.056808982 -0.062389765 0.031224709
0.03261819 0.11178979 -0.019752122 0.09910095 0.003310306 -0.06528188 -0.011235073 -0.08399366
0.13990821 -0.00040833512 0.006476186 -0.02259426 -0.02436223 0.025603008 -0.2402525 -0.011382231
0.04169132 0.07436466 -0.013034369 0.009959075 -0.51713395 0.09099963 0.02478857 -0.0073777866
0.25941363 -0.051240977 -0.14363135 0.045092918 -0.029062381 0.088042304 -0.050113022 0.03725735
-0.019839616 0.033600926 0.013058606 0.0767985 0.018958095 0.058558077 0.07936767 0.048655666
-0.11063329 0.027228108 0.015004794 0.012362336 -0.024682224 0.046514105 0.01600779 0.08823811
00000000: 6ada 0b3d 1e11 0bbd fb2e 01bd ba12 693c
00000010: e193 ee3d 2884 b43d 2f8b d63d bca2 7ebc
00000020: df5c 49bd d823 4bbe c7e6 a1bd e04d 6abe
00000030: 14f2 c03c 26d3 4b3d cd72 fd3c 6cc3 7dbe
00000040: 1b73 7b3d dee4 65be 2722 25be 71e8 7cbb
00000050: 6621 2dbd 55b5 9f3c afc6 f33c d6a8 863c
00000060: 89f2 c93d 42d6 6c3d 3708 0b3b 07e4 e2bd
00000070: f433 6d3c 8c57 ab3d 6a0a 4e3e 0511 ab3c
00000080: f95e c23d 8e69 553d 8a29 8e3d 8c9d 0f3b
00000090: 597f 8fbd 4ccc 463c f545 833d 2cad 0c3d
000000a0: aa4d 4dbc 2935 173e 7905 16bd 6707 023e
000000b0: a740 913d 1ab4 06be 6d3f 4f3d 148c b13c
000000c0: 3fd7 a5ba bc27 fe3d e6a4 1ebb 38c9 203d
000000d0: baf7 09bc 2b02 053d b2b3 bf3d 50a2 09be
000000e0: 78bb 133d 92ff 8dbc 5791 2bbf 99b7 ab3d
000000f0: a27f 5cbe acbb 583d 7be2 3e3d 954d 08be
00000100: 9465 713c 7a0e f3bd 40d8 2b3d 7f74 07bd
00000110: 5f8a 423c e4af 913d e5f3 9e3d 494f aabd
00000120: d1df aabd 468f d63d 8f93 59be 352f 2abd
00000130: c3a4 72bc efba 383e ee0b 36bd 6ae5 393d
00000140: e592 09be 4670 963d bd90 7dbd 045c bcbc
00000150: 3924 f53d d5ab 84bd 95c3 df3d a521 38be
00000160: 0b89 76bc c201 633d d263 1c3d b102 863d
00000170: 6255 8a3d af77 4c3a 867b 38bd d606 893c
00000180: b09f 5d3d 56ee 13bd 1f17 e7bc 0102 73bd
00000190: 5b4c c8bc aeb0 01be 1847 6fbc bfde 1aba
000001a0: b3c2 0ebc b0f9 0abd e5d9 c93d 1115 7c3d
000001b0: da7c de3c 636c 6c3e 9696 dd3c e4c9 0bbc
000001c0: 6bfd 7dbe 37e5 2d3d 8c39 013e b5f2 d13c
000001d0: 9910 803d e8b4 e2bc eb64 743e 68c6 a3bc
000001e0: d39b 47bd 4294 463c f68d d4bd b0c6 173d
000001f0: eea9 c8bb 5fda a9bc 88dd 47bd aa46 dabd
00000200: 9c7a 573c 4027 48bd efbe 823e 7706 ba3c
00000210: d06b 6a3a 87bc d6bb 65b0 0fbc 4583 3cbe
00000220: 9f28 233e 0c68 413e c90a 25bd 485e a3bc
00000230: e8ef 5e3d af99 2c3d 82d3 80bc 9565 1b3e
00000240: e972 5cbd 7c17 093e 641b 903b 2a1c 14bd
00000250: 8738 94bd f8b1 d23d bfbc a73e af79 f23c
00000260: c1df 26bd e389 b0ba 4181 d33c 3e04 f63c
00000270: bae5 763c fcce 12bd 19e4 a9bc 7a89 0bbd
00000280: 406b 80be 74b4 3f3c 8006 c0bd 1d88 3abe
00000290: ae9b 1ebd 548d 08be eaac 52bb d9a5 d93d
000002a0: 9869 58bd 1099 ac3d 92fc 9c3d 2ee4 3cbe
000002b0: ea16 7a3d ed27 55bd 10c3 8cbd 9c89 86ba
000002c0: f970 8cbd 24b2 d93c 844d dabc 92c0 5ebe
000002d0: 1669 153e 0c4a afbc 69a4 893d 9f3b b2bc
000002e0: 4a0b bebd 7e20 173e fc6a a23d 6801 733c
000002f0: 7799 22bd 39fc 9dbc 04f5 ad3d 0817 8b3d
00000300: 4357 dfbc 095b 5f3d d796 883b e673 3cbd
00000310: 7e93 88be 8f7a 0cbd 771a c9bc f441 8d3d
00000320: 8269 403e 501d 3c3d e189 9a3d 7131 923d
00000330: 7763 673e 89b0 68bd 698c 7fbd f6ca ff3c
00000340: a79a 053d 0cf2 e43d 34cf a1bc 70f5 ca3d
00000350: b8f1 583b 82b2 85bd 5013 38bc de04 acbd
00000360: 1944 0f3e d015 d6b9 3036 d43b 9917 b9bc
00000370: 4d93 c7bc 66bd d13c c004 76be 897c 3abc
00000380: 84c4 2a3d 804c 983d 1b8e 55bc 632b 233c
00000390: e462 04bf 045e ba3d 6611 cb3c 5cc1 f1bb
000003a0: ddd1 843e 0fe2 51bd 1914 13be 5ab3 383d
000003b0: 3b14 eebc 864f b43d 5043 4dbd 2a9b 183d
000003c0: b186 a2bc 20a1 093d c3f3 553c 8848 9d3d
000003d0: 024e 9b3c 98da 6f3d 848b a23d 2a4b 473d
000003e0: b593 e2bd 7b0d df3c abd6 753c 658b 4a3c
000003f0: 6032 cabc 9385 3e3d c522 833c 2fb6 b43d

fc4.bias f4 [256]
0.20000003 -0.23892762 -0.04230829 -0.14502521 -0.46542925 -0.6051942 -0.12135525 -0.074126124
0.18578748 0.11080471 -0.18660529 0.061971873 0.12004766 0.11419617 0.27490807 -0.06407836
-0.13676615 0.13994241 -0.13626301 -0.19600862 -0.060070902 0.14412275 0.010528322 0.018832317
-0.21598479 -0.22349665 0.1768996 -0.30600095 -0.18397063 -0.20725021 -0.38710546 -0.23619106
-0.110236816 -0.11398333 -0.38415864 1.1558315 -0.19357744 0.06399107 0.26505315 -0.20513238
-0.12036394 -0.12243642 0.19845492 -0.34465572 -0.21631245 -0.07025982 0.054342005 0.05907145
-0.20897056 0.15266663 -0.16113634 -0.075537175 0.06174274 -0.23604824 -0.12565841 -0.07875121
-0.20721616 -0.23129225 -0.41834432 -0.0248114 0.116120234 0.13367367 0.05258238 -0.0055944226
-0.11542751 0.07733529 -0.3465489 -0.04360934 -0.35516676 0.029273987 -0.18081838 1.050065
-0.24286088 2.2034788 -0.22989722 -0.21079637 -0.18818209 -0.36136198 -0.23740171 -0.19469622
-0.110726096 -0.15547653 -0.29882604 -0.034336 -0.03073965 -0.12920554 -0.45641246 -0.20784031
0.17580575 -0.117386624 -0.14068606 1.8231182 -0.5376192 -0.23889652 -0.32073355 -0.122697525
-0.33991456 -0.14768586 -0.15854704 -0.07673776 0.0738908 -0.6211875 -0.002297914 1.0478338
-0.24030685 -0.08063342 0.1335471 0.035066627 -0.12541994 -0.1947296 0.13586386 -0.049698308
-0.04395795 -0.008419703 -0.23666216 0.64491725 -0.2348807 0.0059844134 -0.110285945 -0.07481963
-0.12577459 -0.20849185 -0.065863416 -0.25054407 -0.15119272 -0.0029503843 0.010513483 0.051875688
-0.32590148 0.11958954 -0.37663144 -0.1597971 -0.10493968 -0.26977095 0.07433694 -0.39187157
0.266175 -0.04817684 -0.13886286 -0.122379065 -0.11230958 2.1838534 -0.24174711 -0.15074795
-0.13989283 -0.09788051 -0.1328973 -0.11067528 -0.048411287 -0.114692815 -0.12184723 3.650804
-0.11033457 -0.40410286 -0.39691976 -0.38693488 -0.2528864 -0.10242606 -0.10103708 -0.27532318
-0.22683758 -0.3158527 0.18970609 0.1074394 -0.04140094 -0.14914541 -0.4579812 0.013489811
-0.1891847 -0.15227792 -0.022501046 -0.013245716 0.0895502 -0.1856019 -0.2305038 -0.2218283
-0.11166392 -0.094214045 -0.027734114 -0.28083855 0.08637851 -0.091936074 -0.14506835 0.29763567
-0.04341424 0.20584223 -0.13196194 -0.19503196 -0.3086051 -0.11216355 -0.11639139 0.2321152
-0.15647545 0.0116413515 -0.1728624 -0.21725585 -0.17922096 -0.076342285 0.03726344 -0.15401159
1.2697412 -0.3660388 -0.2596555 -0.09795809 -0.050960697 -0.1679656 0.003183888 1.3843663
0.066721424 -0.43383387 0.14998224 -0.15797181 -0.071097806 -0.1744355 -0.14642763 0.05998314
-0.10742358 -0.39653403 -0.6292945 0.11917043 0.3460726 0.21206027 -0.19813241 0.057880268
-0.19916952 -0.1188209 1.1600755 -0.11067824 -0.06569335 0.5962045 -0.21809758 -0.036823392
-0.005032397 -0.04299227 -0.18023944 -0.23456366 2.1025977 -0.16375962 -0.13924897 -0.08692696
0.059141323 -0.073265545 -0.16971223 -0.11667213 -0.22245854 -0.17638898 -0.29417485 -0.065305986
-0.036518652 -0.17634094 -0.29900524 -0.15441707 0.9156246 -0.109373204 -0.16344729 -0.038974892
00000000: cfcc 4c3e 71a9 74be 754b 2dbd 7d81 14be
00000010: be4c eebe 02ee 1abf 1a89 f8bd 70cf 97bd
00000020: 133f 3e3e 94ed e23d 7515 3fbe 38d6 7d3d
00000030: 8cdb f53d aedf e93d c0c0 8c3e 843b 83bd
00000040: 6d0c 0cbe 104d 0f3e 8888 0bbe 7cb6 48be
00000050: e80c 76bd ea94 133e fc7e 2c3c 3b46 9a3c
00000060: 1e2b 5dbe 4edc 64be 2b25 353e 28ac 9cbe
00000070: cc62 3cbe 6639 54be b032 c6be 12dc 71be
00000080: d7c3 e1bd 1870 e9bd 71b0 c4be 49f2 933f
00000090: 2a39 46be c00d 833d 0cb5 873e 390e 52be
000000a0: 5f81 f6bd f2bf fabd c437 4b3e b776 b0be
000000b0: 0381 5dbe 61e4 8fbd b995 5e3d e8f4 713d
000000c0: 61fc 55be a454 1c3e ed00 25be 3cb3 9abd
000000d0: f5e5 7c3d a1b6 71be 99ac 00be 5048 a1bd
000000e0: 7930 54be e0d7 6cbe 3a31 d6be 4741 cbbc
000000f0: 72d0 ed3d c0e1 083e 9f60 573d 6b51 b7bb
00000100: 4265 ecbd f761 9e3d db6e b1be b59f 32bd
00000110: 6bd8 b5be 00d0 ef3c 7428 39be 8868 863f
00000120: 86b0 78be cc05 0d40 2d6a 6bbe 01db 57be
00000130: ceb2 40be 7004 b9be 6f19 73be 725e 47be
00000140: 5dc4 e2bd 3d35 1fbe baff 98be e8a3 0cbd
00000150: b8d1 fbbc 754e 04be e5ae e9be 17d4 54be
00000160: 6c06 343e 6668 f0bd 0210 10be f05b e93f
00000170: 69a1 09bf 4aa1 74be 3037 a4be d748 fbbd
00000180: 4809 aebe f63a 17be 285a 22be b028 9dbd
00000190: 0f54 973d 2506 1fbf 9998 16bb 6b1f 863f
000001a0: 0013 76be 2223 a5bd 92c0 083e 06a2 0f3d
000001b0: 166e 00be 3267 47be e51f 0b3e 7490 4bbd
000001c0: 400d 34bd cbf2 09bc 9157 72be 4c19 253f
000001d0: 9184 70be e618 c43b 99dd e1bd 093b 99bd
000001e0: 0ecb 00be e37e 55be 66e3 86bd 5047 80be
000001f0: 44d2 1abe 3c5b 41bb be40 2c3c 9a7b 543d
00000200: 8fdc a6be 5ceb f43d d6d5 c0be daa1 23be
00000210: 9dea d6bd 6b1f 8abe f73d 983d 64a3 c8be
00000220: 1748 883e 1455 45bd 1132 0ebe e0a1 fabd
00000230: 9102 e6bd 41c4 0b40 8e8c 77be ac5d 1abe
00000240: 1140 0fbe 9475 c8bd 3b16 08be b9a9 e2bd
00000250: ea4a 46bd 11e4 eabd 0a8b f9bd c6a6 6940
00000260: 17f7 e1bd 92e6 cebe 1139 cbbe 541c c6be
00000270: 547a 81be c1c4 d1bd 87ec cebd 29f7 8cbe
00000280: 1c48 68be 72b7 a1be 5042 423e 3009 dc3d
00000290: 0894 29bd 93b9 18be 837c eabe 5e04 5d3c
000002a0: a2b9 41be beee 1bbe 1d54 b8bc 8f04 59bc
000002b0: 1866 b73d 6d0e 3ebe 3009 6cbe f526 63be
000002c0: 0eb0 e4bd 4bf3 c0bd a732 e3bc 12ca 8fbe
000002d0: 37e7 b03d fb48 bcbd cc8c 14be b463 983e
000002e0: 21d3 31bd 4ec8 523e 0821 07be 75b6 47be
000002f0: 7d01 9ebe 01b6 e5bd 9c5e eebd 9baf 6d3e
00000300: 1a3b 20be 5ebb 3e3c d702 31be 5178 5ebe
00000310: b385 37be 5859 9cbd 8da1 183d 37b5 1dbe
00000320: e186 a23f 7069 bbbe 91f1 84be 409e c8bd
00000330: 2abc 50bd 2dff 2bbe c7a8 503b ea32 b13f
00000340: 3ea5 883d 791f debe f294 193e 5dc3 21be
00000350: ba9b 91bd 389f 32be 20f1 15be e2b0 753d
00000360: e500 dcbd 8206 cbbe 7219 21bf a00f f43d
00000370: 6e30 b13e 5426 593e 39e3 4abe dc13 6d3d
00000380: 18f3 4bbe 5f58 f3bd 5b7d 943f 46ab e2bd
00000390: 3c8a 86bd dca0 183f f954 5fbe 20d4 16bd
000003a0: cee6 a4bb aa18 30bd b090 38be 7531 70be
000003b0: f690 0640 9ab0 27be 4897 0ebe c306 b2bd
000003c0: 2c3e 723d 3f0c 96bd 0bc9 2dbe ccf1 eebd
000003d0: 2ccc 63be 509f 34be 169e 96be 25bf 85bd
000003e0: 9594 15bd b892 34be 3717 99be 821f 1ebe
000003f0: 6066 6a3f 0fff dfbd ba5e 27be 23a4 1fbd
