model/DDQN with batchnorm/EX1_Player_model_Best.pth (torch_old, 854519 bytes, 10 tensors)

fc1.weight f4 [256, 57]
00000000: ab45 d93e f60a e23d e1ea 33be 8be9 9fbe
00000010: 2fe3 073e a183 b13d 5f59 cf3e e647 5e3e
00000020: 9edc d3bd dfa9 32bb 591b e93c 233a 48be
00000030: dacf 893e fb4f 9bbc 504b 233f 2abc a43c
00000040: 4912 123f 33bc 893e 36ba 0d3e 10df 6ebd
00000050: b746 0ebf 928c 573f 0985 d1bd d26b 9bbf
00000060: 6316 f73e 866d 093e 83a9 b4be 0cf1 59be
00000070: 68c5 aabd 5387 2abf 427a 53bd 8d27 daba
00000080: 762c 333d 735b 09bf 0a18 4f3e d9b8 b53b
00000090: b98a 0dbf 3038 d13e 1016 723d 7952 523e
000000a0: 6042 e43b e86e a33e 5288 e83b 1939 19bf
000000b0: aadd 09bc 6228 45bc d756 c8be d317 053d
000000c0: c0dd 5dbe 1593 f5be 3a5a a1be 81e5 9d3e
000000d0: 7d36 d8be 3ef4 aabc e954 7bbe 6387 0dbf
000000e0: 23e3 f63e ff1f dc3d 7016 85be 6738 553c
000000f0: 9fc0 c2bd ebdc 373e ecc3 5abe 1f6e 583e
00000100: 1b88 81bd 06dd 4c3e 6f7e bcbd 62c2 e23d
00000110: 7010 acbd 2b56 693e 07ed 83be cd78 c33d
00000120: b4d8 b8bd e149 123e b8c6 cdbd 3437 673e
00000130: 43ca 28be 28ba 30be 5eb6 c5bb 8769 c4be
00000140: 09ae 49be 93ac 863d 4c17 493d ed00 d5be
00000150: 561f 3f3d e8c9 b6bc 8a82 a23e 9c58 78bd
00000160: 2c1c 15be 6b65 05bd f37f 6fbe 5b24 713d
00000170: d814 103e cb81 6ebe 718b 0ebe e0f7 afbd
00000180: 543f 593d 981a e33c ef42 fcbd 0e0d 25bd
00000190: ac5a 22be 2223 b23d 2549 adbd 010b a2be
000001a0: 7ff4 32be 0ab6 96bd 4b0b c4be 75f7 2abe
000001b0: 0c4c 413d e4ca 86be 9298 67bc b925 5cbb
000001c0: 4b3e babe aad3 073e 6460 013e b796 0dbe
000001d0: b732 d53e ae78 9e3e 42de 243d a2a3 44be
000001e0: 307e 17be f43b bcbe 8e8d cbbe f70c 06bf
000001f0: ce0f 9fbe 4ae7 10bf bb24 b1be 0818 59bf
00000200: 77d8 ca3b 6998 f9bd fc87 d4bd d059 a8bd
00000210: a8e3 1b3d 5cc6 d03d 299b ed3d 07c1 c2be
00000220: 92e6 b33e 7fef 353e bda5 59be 4a9f a33e
00000230: 7bc5 973d b9f0 903d 5ec5 003e e4ae 7cbc
00000240: b7ae f3bd 5a5c 6a3f 9348 543e 8559 45bd
00000250: 4188 2b3e 59eb 7f3c 3264 2fbe bef1 f83d
00000260: e416 dcbc e042 503f 16a8 923d f0dd a8be
00000270: d5e0 b6bd 5040 18be e027 c53d bab0 80be
00000280: fe7b 90bd 3f1a 293e b10a 00bf 4e3a 23be
00000290: 4794 1bbe 7346 0d3f b376 d7bd cbab e43e
000002a0: 7b83 18be 9f15 5dbd b78d a33d 615f 963f
000002b0: dbea a2ba 4e6f 543f c2ff 08bf 8be7 403f
000002c0: 2cd0 d9be efec df3b 3df4 e8be b793 193f
000002d0: 2817 eebd 76bc 9b3e 36a2 a8be 62bb e73e
000002e0: e6a3 36bd f234 773d 5460 55bf 56be 943d
000002f0: 3cd5 fdbf a880 59be dc79 1bc0 999e 1cbf
00000300: e7f3 8f3e 80ed c93e 5aed a8be e064 0ac0
00000310: b3ff ed3d 1722 423d ef67 a6bd 0062 3dbb
00000320: 5a7b 04bf f8dc ae3d 61bb f2be c19c ab3d
00000330: 1191 afbd 12ee 36bc 5a2a 023e 7dc0 d23d
00000340: 1f48 65bd 8065 893c d6bd 2b3f e87e d6bc
00000350: 47c7 ab3e cc27 533e d3a1 803a d0d8 a4bd
00000360: 688c d6be bf42 8abd 5164 f2bc dcab 39bd
00000370: 7300 f9bb 667c c33d a552 213f 278a b93b
00000380: 1c13 93bd 5b74 bd3e 9b4c bdbd 650c 02bf
00000390: bf47 0cbe 0c3d 223e bb72 66be 8e9e 49bd
000003a0: c5a7 49be b6d9 0c3e 7ae7 9abd fd59 63bc
000003b0: 9bc8 06be 4234 2cbe 2692 efbd 8d40 a7bd
000003c0: 84cc f4be 58db a0bd fd25 02bf 2513 e3bd
000003d0: 52c4 923e 53e0 8b3c 4321 42bc 3b95 9cbe
000003e0: 66a7 1cbf 361a e53d c383 f63d c3f3 b03f
000003f0: 90e7 b8bf eeb2 51be ce94 d4bd 4ff3 d5be
0.42435965 0.11037247 -0.17570068 -0.31232867 0.13270257 0.08667684 0.40497872 0.21707115
-0.10344814 -0.0027261896 0.028455423 -0.19553427 0.2691639 -0.018959036 0.6378679 0.020109255
0.5705915 0.26901397 0.13840565 -0.058318198 -0.5557665 0.8419887 -0.102304526 -1.2142279
0.48259267 0.13420686 -0.35285577 -0.21283358 -0.083384335 -0.6661274 -0.051630266 -0.0016643867
0.043743573 -0.53655165 0.20224014 0.005545717 -0.552898 0.4086318 0.05910307 0.20539273
0.0069659203 0.31920552 0.007096329 -0.5985275 -0.008414665 -0.012033554 -0.39128754 0.032493424
-0.21666622 -0.47963777 -0.3151415 0.3083916 -0.4222907 -0.020868417 -0.2454411 -0.5528471
0.48220167 0.1074829 -0.2599368 0.013013936 -0.09509396 0.17955367 -0.21363801 0.21135758
-0.06324788 0.20006189 -0.09203803 0.11072232 -0.08401573 0.22786777 -0.25766775 0.09544525
-0.09025708 0.14285995 -0.10047668 0.22579652 -0.16483407 -0.17258513 -0.0060337028 -0.3836176
-0.19695295 0.06575885 0.049094483 -0.4160227 0.046660744 -0.022313073 0.31740218 -0.06063138
-0.14561528 -0.032567423 -0.23388653 0.058872562 0.14070451 -0.232917 -0.1392038 -0.085922
0.05303891 0.027722642 -0.12317454 -0.040295653 -0.15854901 0.08698107 -0.08461217 -0.3164902
-0.1747608 -0.0735894 -0.38289866 -0.1669596 0.047191665 -0.26326668 -0.014135497 -0.003359182
-0.3637565 0.13264337 0.12634426 -0.13827024 0.41640255 0.30951446 0.040251024 -0.19203046
-0.1479423 -0.3676449 -0.39756435 -0.5236353 -0.31066746 -0.5660292 -0.34598336 -0.84802294
0.0061903554 -0.12187273 -0.103774995 -0.082202554 0.038058907 0.10194084 0.1160186 -0.38037893
0.3513685 0.17767142 -0.2125463 0.31957465 0.07410713 0.07077164 0.1257529 -0.015422557
-0.118985586 0.9154717 0.2073081 -0.048181076 0.16751195 0.015620076 -0.17128065 0.12155484
-0.026866384 0.81352043 0.07160966 -0.32981825 -0.08929602 -0.14868283 0.09626746 -0.25134832
-0.070549 0.16513918 -0.50016314 -0.1594021 -0.15193282 0.5518562 -0.10520687 0.44662318
-0.14893906 -0.053975698 0.07986014 1.1747857 -0.0012429612 0.8298234 -0.53515255 0.75353307
-0.42541635 0.0068336646 -0.4549884 0.5999102 -0.116255105 0.30417222 -0.32936257 0.4526015
-0.0445899 0.060353227 -0.8335011 0.07262866 -1.9830699 -0.21240485 -2.4293127 -0.611795
0.2811577 0.3943901 -0.32993585 -2.162407 0.116210364 0.04739579 -0.081252925 -0.0028897524
-0.5175072 0.0853824 -0.47408584 0.08379508 -0.08572591 -0.011165159 0.12711468 0.102906205
-0.055976983 0.016772032 0.6708654 -0.02618356 0.33550474 0.2062065 0.0009813852 -0.08049166
-0.41903996 -0.06751012 -0.02958885 -0.045329913 -0.0075989305 0.095452115 0.6301673 0.005662221
-0.07181379 0.37002835 -0.09243127 -0.5080016 -0.13699244 0.158436 -0.22504704 -0.049223475
-0.19692905 0.13754925 -0.07563682 -0.013876435 -0.13162462 -0.1681681 -0.116977975 -0.08166609
-0.47812283 -0.078543365 -0.50839216 -0.11087636 0.28665406 0.01707474 -0.0118487505 -0.30582604
-0.6119293 0.1118664 0.1203685 1.382439 -1.4445667 -0.20478413 -0.10379945 -0.41787192

fc1.bias f4 [256]
00000000: 4780 fabe ab35 4ebe 27d6 4cbc f143 cabd
00000010: 09bf dabc 1043 37be c560 48be 81bd 973c
00000020: 4e30 1bbe 5e5e 88bd b511 95bd 6e9b 5bbe
00000030: b9fa 1abd a08a 26bd 886f 80be 66bd 8bbe
00000040: 00b8 eebc b743 c5bd b2b7 9abe 67f1 06bc
00000050: 15d7 94be 69b7 0bbe 3421 1fbe 76e5 56be
00000060: 6754 36be 3ed5 37be 7c22 2fbe 5846 aebd
00000070: 86f2 093e fe67 b6be 96de e6bd ec62 39be
00000080: 57b9 0dbe c6df 0d3e 6f28 3e3e 28bf cbbe
00000090: de8a 1fbe ea82 86be c426 06be e0ea adbe
000000a0: ef24 39be 5b1c bcbe bd01 c53d d7b6 563e
000000b0: e5c8 2abd 2430 a9bd 5b4e bcbe 4390 acbe
000000c0: e994 c2be 9dce a7be cec8 8abe abfb b8be
000000d0: 08b7 d53c a376 edbe 1258 bbbe c937 8a3c
000000e0: ad7d 40bd ff30 613e 3bda 67bd 5e3a 4bbd
000000f0: ebfd 94be 082a d9be 306b dcbe 2d8c 263d
00000100: 3c62 d0ba 17dd 93be 8502 90be ce71 a0bc
00000110: db5d 3ebd 0ec2 843d ede8 6ebe dc3c 45be
00000120: 865d 6cbe 87bd 6e3d 6797 b9be 3f03 023d
00000130: 4a07 06bd 0bea b1bd bceb 9bbd d260 43be
00000140: e4c4 043e 0b23 d23b 8a75 3abe 317e 47be
00000150: 8edd 59bc e893 5bbe c43b 883d 9bac 6aba
00000160: ad57 5cbd e901 83bd b222 9a3e 554a 16be
00000170: f517 88be 4f00 77bd f36c 69be d6ee 51bd
00000180: 621b 48be 3fab 803e ee6c 1a3e 3aa0 2abe
00000190: a230 373e 6dda 84be 6919 93be d535 be3d
000001a0: f1b7 26be d91e 25be 9f90 95bd 6b39 f2bd
000001b0: b0e2 06be 6ac9 46be 2268 07be c8e8 d9bd
000001c0: 14bd a3bd 0bc7 3b3e 3bb4 4abd ad3f 3839
000001d0: 794e 51be b987 943d 51b8 05be 1106 0bbe
000001e0: 07cd 083e f9c1 ff3d 6444 9bbe 7157 41bd
000001f0: b319 8dbe 55f3 59be 2c7d 843e d123 90be
00000200: 0a5a 09be dfdc df3d 933f 303d 374d 26be
00000210: 410e f3bb 8f40 95be ee30 e8bd 1688 80be
00000220: f6de ef3c f2da 123e 01ca 583e 36dd 99be
00000230: 61b2 093e b136 f7bd a1dc 40be 4e67 84bd
00000240: 17e1 5cbe 5785 b23a 4395 e4bd 16ae a1be
00000250: f703 bd3d 061b bbbe 4bf8 88be e4c8 34be
00000260: a698 c3bb a313 0f3e ade8 debe 92ad 86be
00000270: d487 8dbe 8cd4 9abe f3ba c5be b224 19be
00000280: 9f10 923d 0fa5 91be 1d28 323d d801 d3be
00000290: 05ce 4fbd 1a23 71be f1ac 45be 3bb8 a4bd
000002a0: 2903 12bd 92ef 53be 6e26 6bbe de33 77be
000002b0: 38ff b3be c8d4 f2be 96fb 66be 412f ccbe
000002c0: c2cb 82be 18b6 d7bd 2410 eebd b95e 443d
000002d0: dc6e 0f3e 0c20 17be 10bf 2fbe 59be 5ebe
000002e0: d6b1 e9bd 54b3 023e b774 82bc ad12 9fbd
000002f0: fdda f8be ae91 89bd 494b 42be bb58 58be
00000300: 46c9 453e 9f41 f4be 02b9 40be e1e2 84be
00000310: d0b0 bc3d 5335 633e 3ff1 b0be 7136 d4be
00000320: 44fe 13bd bdc2 b8be 6c26 213c 9e97 adbd
00000330: c440 6d3d af5f 303e 8869 38be 1cc6 0b3e
00000340: 0b16 0ebd 049f 1bbd b388 c3be 3a12 3cbe
00000350: 5bcf 74be 2353 0ebe 24b5 babe 7caf cdbe
00000360: 8a5e 17be e279 25be 6d98 14be a485 36be
00000370: 315a b3bd a0b3 273d ebb6 42be 090b 98be
00000380: 6ce3 74be 8ca0 12be 1b1d ac3d 7456 36be
00000390: b05f 823e 5dcd f8be ca67 80bd 5de2 57bd
000003a0: edb3 fcbe 8ca5 6f3e 9bb0 8dbd 7ff1 b9bd
000003b0: 1b8c 77be 0ec1 8abe 3fcd 55be 2895 08be
000003c0: a2a6 543d a479 993d 7066 77be 9455 b53c
000003d0: 0fd3 313d ee8b 10be 174e 76be 0990 16be
000003e0: 4aa7 a7bc 97da 8d3e 4a17 8cbe c046 81bd
000003f0: 6da2 533b 6eaa 7bbe fb6e c0bd 5de1 81be
-0.48925993 -0.2013766 -0.01250223 -0.0987624 -0.02670242 -0.17896676 -0.19568165 0.01852298
-0.15155146 -0.06658624 -0.07278768 -0.2144601 -0.037836764 -0.040659547 -0.25085092 -0.27292937
-0.029140472 -0.09632056 -0.30218273 -0.008236266 -0.29070345 -0.13644184 -0.1554001 -0.2098597
-0.17805634 -0.17952439 -0.17102998 -0.08509511 0.13471422 -0.35626215 -0.11272924 -0.18104142
-0.13840233 0.13854894 0.18570112 -0.39794278 -0.15580317 -0.26271755 -0.13100725 -0.33968258
-0.18080495 -0.36740384 0.09619472 0.20968185 -0.041695494 -0.08261135 -0.3677853 -0.33703813
-0.38004234 -0.3277482 -0.27106327 -0.36129507 0.026088253 -0.46379575 -0.3659063 0.016872304
-0.046994854 0.21991347 -0.056604605 -0.04961621 -0.29099974 -0.4241488 -0.43050528 0.040661026
-0.0015898417 -0.28879616 -0.28126922 -0.019585516 -0.046476226 0.064823255 -0.23331042 -0.19261497
-0.23082551 0.058286216 -0.36248323 0.031741377 -0.032721795 -0.08687218 -0.07613322 -0.19079903
0.12965733 0.006412869 -0.182089 -0.19481732 -0.013297452 -0.2144314 0.066520244 -0.0008952112
-0.05379455 -0.06396849 0.30104595 -0.14676793 -0.26580778 -0.06030303 -0.22795467 -0.051253162
-0.19541696 0.2513065 0.15080616 -0.16662684 0.17889646 -0.25947896 -0.28730324 0.092876114
-0.16281106 -0.16125049 -0.07302975 -0.11827358 -0.13172412 -0.19412771 -0.13223317 -0.106401026
-0.07995048 0.18337648 -0.049488287 0.00017571328 -0.20440091 0.072524495 -0.13058592 -0.13576533
0.13359462 0.12488169 -0.30325615 -0.04720253 -0.2755867 -0.2128423 0.2587675 -0.28152326
-0.13413253 0.109308 0.04302938 -0.16240393 -0.0074174707 -0.29150817 -0.113374576 -0.25103825
0.02928112 0.14341334 0.21170808 -0.30051583 0.13446952 -0.120709784 -0.18834163 -0.06465016
-0.2157024 0.0013620061 -0.11161282 -0.3157813 0.09229272 -0.36544055 -0.26751933 -0.17654759
-0.005969125 0.13972335 -0.43536893 -0.263043 -0.2764269 -0.30240285 -0.38619193 -0.14955404
0.071320765 -0.28446242 0.043495286 -0.41212344 -0.050733585 -0.23548546 -0.19304253 -0.08042952
-0.035647545 -0.20696858 -0.22963879 -0.2414088 -0.35155654 -0.47427964 -0.2255691 -0.39879802
-0.2554608 -0.105327785 -0.11624172 0.047941897 0.14007133 -0.14758319 -0.17162728 -0.217523
-0.11410873 0.12763721 -0.015924795 -0.07767234 -0.48604575 -0.06717239 -0.18974032 -0.21127598
0.19315061 -0.47706315 -0.18820575 -0.25954345 0.09213412 0.2218831 -0.34559056 -0.41447785
-0.03613116 -0.36086074 0.009835821 -0.08476184 0.057923093 0.17224 -0.18009007 0.13649791
-0.03468899 -0.037993446 -0.3819023 -0.18366328 -0.23907225 -0.13898902 -0.36466324 -0.40172946
-0.14782158 -0.16159776 -0.14511271 -0.17824417 -0.08757437 0.040942788 -0.1901509 -0.2969592
-0.2391488 -0.14319056 0.08403989 -0.17806417 0.2546363 -0.4859418 -0.06269796 -0.05270611
-0.49356022 0.23402995 -0.069184504 -0.09079265 -0.2417454 -0.27100414 -0.20879076 -0.13338149
0.051916726 0.07493904 -0.2416017 0.022135533 0.04341417 -0.14115879 -0.24053226 -0.14703383
-0.020465512 0.27705833 -0.27361518 -0.063123226 0.0032292858 -0.24576733 -0.09396168 -0.2536725

fc2.weight f4 [256, 256]
00000000: def1 22bc 0085 aaba c12a 9a3e bb69 80be
00000010: 8e6f 553e 211c 1f3e aed0 c7be dcb5 00bf
00000020: 03b9 453e 4b7f 963d 5a6e 91be e62e 8abe
00000030: 88b4 4b3e 82bd c23e b362 2abe 5452 953d
00000040: d74f 1d3f 6c65 833d 2a10 373e 4673 88bf
00000050: 2ba7 823c 4050 24bf 3f9b c2bd 546c 173f
00000060: 15a7 f33e 4b70 d13c 4c59 cf3d 0b48 5fbe
00000070: 49dc fabe c64d 9b3e b341 f33e 597a 20bd
00000080: c7c1 de3e 6441 f5bd e3c7 91bd c291 0c3f
00000090: 0f2a 543e 571d e0bd c1c0 503c 409c b9bc
000000a0: 8950 343e 3ea1 2abe eef7 373f b90d a1bd
000000b0: 9034 dd3d 8da9 a63e ec2f 89be 1e36 fb3e
000000c0: b88d 313e 8dd9 653e 31a7 89be 5cc7 193f
000000d0: 05a3 893e 89cf d2bb 36a7 033f 5ea6 a83e
000000e0: f3f0 673d 7d63 393e 8c90 45be c38b 32be
000000f0: 5da8 66be bc8b b33e d9d0 81bd 2604 0abd
00000100: 8f1a 25be 2da4 233f d7f8 acbe afac 9cbe
00000110: ebfa d53c c40b 83bd 4138 853e acfd ca3d
00000120: 8d8a 49be 2af4 7f3e c861 1fbe 1ffa 29be
00000130: 38a5 443d f9bd 923e e73b d73e 8dd7 193e
00000140: 14ae 94be 74c9 b6be ac01 b73d 90f4 2cbf
00000150: 6ae8 8cbe 4f63 4c3e de05 7ebe 14c9 9dbd
00000160: 31d0 af3d aace 65be a1f5 f8bc 320f a8bc
00000170: c748 393f 2a17 dd3e c421 89bd 22d6 64be
00000180: de5c 833e 2430 d5be 01d9 30be 9d9e 45be
00000190: 7f68 64be 4eea d2bc cecd 24be 0b6b 8ebc
000001a0: f793 e33c bd20 543e edf9 233f fe20 3b3f
000001b0: 3b69 0d3f a6e0 9c3e 1e6e cb3d 8c72 38be
000001c0: 72c0 013f 2d75 ab3d 4b02 2ebd eb3f 32bd
000001d0: 28f8 a83e 0288 47bd fa33 05bf 45d5 a33e
000001e0: 2b37 febc cd8d c2be 0cc7 f03d 203f 6dbd
000001f0: 901c 463e de78 a43e 2319 8fbd 451d 2c3d
00000200: 048a 65bd 98ab 6ebd 74b8 92be 2d53 333e
00000210: 893a 06bf 0843 d9be 98b0 c1be da25 ed3d
00000220: 9cca b5be 3c68 db3d 4669 91be cda0 b93e
00000230: 8b04 e83d 4cbb b33e 00b8 c03e 48f9 7cbe
00000240: c5b2 253d a6cf f4be 91cc 2b3e 09cb 1a3e
00000250: 7a2d 4fbe 51a1 8abe f67b fb3e 3c57 ff3e
00000260: dabc 66bf aeda 09bf c32c b8be b33f d7be
00000270: 45bd cdbd e6dc ad3e 9202 34bf 0c00 efbe
00000280: 4e82 0cbe 00c3 c53e c3f9 34bd 68ea a3be
00000290: 8bae 223f b7c5 86bd b7a7 463e 5087 b63e
000002a0: 3adf 243e e0cf 6f3e 2d92 0f3e 45ab 5cbd
000002b0: c669 debd 55f2 63be 5f59 44bc 53a9 8d3d
000002c0: 6167 383d 73a6 92bc c548 a23c 62fa 233e
000002d0: 5360 3a3e b646 873e 9d5c 8b3f e1e5 e6be
000002e0: 5265 10bf 74d6 a43e 63b6 503d d79b f43e
000002f0: 8ea2 cb3e 287f 373e 90cb 393d 8f47 653e
00000300: 6072 eabe 14a5 08bf f42c 113e 1d83 ad3e
00000310: bd5e d6bd 76e7 053e bd02 86be 9de8 803e
00000320: 74b8 b23e 9aaf 22be b3dc 4f3e 94f5 813d
00000330: 4d60 cd3d db1d 963e 4e87 97be 5fa3 8e3e
00000340: 94f6 893e 6dae e7bd 6ed6 a5be 0b94 813e
00000350: de78 083e baa7 aabb 3e06 a23c 9759 7c3e
00000360: c703 28be 21dd 973e eb04 cb3e 5dd5 bc3d
00000370: 48df 13bd 296d e93d ff70 0b3e d307 183e
00000380: 4bf0 973e 905f 12bd 2ff5 c33e 441d 453e
00000390: f73f 91bc 2fcc 12bd 9de6 933d 4b6a bf3e
000003a0: 1823 af3c 3c4c 6c3c a772 2b3e cdab 7d3e
000003b0: 6898 0f3e ccba e6be 760d 713d 0ab7 163e
000003c0: 5863 c93d e27f 38be 9b9b 28be 2c7c 9b3e
000003d0: 2b97 47bd 1e7e 68bd 997a 11be 6f33 33be
000003e0: 8bfa 043f 60b9 f8bd 9226 5e3d 79b5 e63e
000003f0: 2ff8 0abe 700a c23e 8ea6 a7be 99ff 3b3f
-0.009945361 -0.0013009608 0.30110744 -0.25080666 0.20843336 0.15538074 -0.39026397 -0.50277495
0.19308858 0.07348498 -0.28404504 -0.26988906 0.19893086 0.38035208 -0.16639213 0.072910935
0.6144995 0.06415829 0.1787726 -1.0660179 0.015948853 -0.6418495 -0.09502267 0.5914967
0.4758841 0.02556624 0.10124454 -0.21804826 -0.4899619 0.30332774 0.47511062 -0.03917918
0.43507215 -0.11975363 -0.071182035 0.5490991 0.20719169 -0.10943096 0.012741269 -0.022657514
0.17608847 -0.16663072 0.71862686 -0.078639455 0.10801041 0.32551232 -0.26794374 0.49064726
0.17339218 0.2244627 -0.2688537 0.60069823 0.26882187 -0.0064334315 0.5142702 0.32939428
0.05662627 0.18104358 -0.19293422 -0.17436127 -0.22525163 0.35067546 -0.06338663 -0.033695363
-0.16123413 0.6392239 -0.337836 -0.30600497 0.026120624 -0.063987285 0.2601948 0.09911665
-0.19681759 0.24995485 -0.15564644 -0.1659932 0.048009127 0.28660563 0.4203789 0.15023632
-0.2903906 -0.35700572 0.08935866 -0.6756067 -0.27521068 0.19959758 -0.24806926 -0.07704368
0.08584631 -0.22442117 -0.030390562 -0.020515058 0.72376674 0.43181735 -0.066958934 -0.2234731
0.2565679 -0.4163829 -0.1727028 -0.19298787 -0.22305487 -0.02574649 -0.16094133 -0.017385026
0.027780516 0.20715614 0.6405323 0.7309722 0.55238694 0.30640143 0.099331126 -0.18012446
0.50684273 0.08371959 -0.042482655 -0.04351799 0.33001828 -0.04871369 -0.52032435 0.3199865
-0.031032166 -0.3799881 0.11756715 -0.05792153 0.19346833 0.32123464 -0.06987216 0.0420201
-0.056039825 -0.058269113 -0.28656352 0.17512198 -0.5243307 -0.42433953 -0.37830043 0.11579485
-0.3550614 0.107132405 -0.2840063 0.36255494 0.113289915 0.35103834 0.3764038 -0.24704468
0.04045369 -0.47814673 0.16777255 0.15116514 -0.20232192 -0.270762 0.49118012 0.49871242
-0.90131915 -0.53849304 -0.3597165 -0.42040786 -0.10045866 0.33957595 -0.7031642 -0.46679723
-0.13721582 0.38625336 -0.044183504 -0.32014775 0.6354758 -0.0658068 0.19399916 0.3565011
0.16100779 0.23419142 0.14020605 -0.053874273 -0.108600184 -0.22260411 -0.011984198 0.06917062
0.045020465 -0.017901635 0.01981009 0.16013482 0.18200807 0.26421136 1.0887638 -0.4509726
-0.564046 0.32194865 0.050955188 0.47775146 0.39772457 0.179196 0.045360148 0.22390579
-0.45790386 -0.5337689 0.14177305 0.33889094 -0.10467289 0.13076577 -0.26173964 0.2517747
0.34906352 -0.15887299 0.20299034 0.063456684 0.100281335 0.29319653 -0.29595417 0.27859017
0.26945937 -0.11312566 -0.3239016 0.2530826 0.13327357 -0.005207983 0.019778367 0.24643551
-0.16407691 0.29660895 0.3965219 0.09220383 -0.03610161 0.11397774 0.13617323 0.14846735
0.29675516 -0.035735667 0.38272998 0.19249445 -0.017730696 -0.035839256 0.0722172 0.37385783
0.021379039 0.014422473 0.16742955 0.24772568 0.14022982 -0.4506439 0.058850728 0.14718261
0.098334014 -0.18017533 -0.16465609 0.30368173 -0.04872815 -0.0567609 -0.14206924 -0.17500089
0.519448 -0.121447325 0.054236002 0.45060328 -0.13571237 0.37898588 -0.3274426 0.73436886

fc2.bias f4 [256]
00000000: 21e1 45be 0150 013f 0fd9 87bb cb7f 4b3e
00000010: 294a 50bd c0cd 13bc 692b 8fbd a1d8 3fbe
00000020: adfe 873e 2572 8b3c 5b1f 9cbe de5c 09be
00000030: 6344 0cbd d1a2 993e 9c7c 87bc 0466 7b3e
00000040: a601 c5bd 999b d13e 7bdd e73d 1cc1 91bd
00000050: 3a07 80bd 81e1 6bbd 6dbf f6bc 99f3 51bd
00000060: adc2 843c 6d84 053f 80b0 b8bd bb95 f6bd
00000070: cc70 c93d 61e5 093d d118 e13e 20f8 1bbd
00000080: e2df 15be 399b 3abd 33f7 2e3c 8975 98be
00000090: be98 80bd a574 af3a 7091 143f bed4 dc3c
000000a0: d1a9 f0bc 2694 d2bd 9279 d5be 34be cabd
000000b0: 894e c4bd b469 f63d bf75 dabb 1095 23be
000000c0: 32f1 e2bd f807 54bd d0cf 8ebe b093 24bc
000000d0: 4f77 43be 2b4c 78bd 9913 08bf 2c67 d5bb
000000e0: 444e 23bc be34 94bd be85 74be d897 f7be
000000f0: e696 0dbe 10a3 80bd 4464 09bd 5769 9cbd
00000100: ddda 8ebd ad30 16bd 963f 203e 41ad cabd
00000110: 9f02 e8bd 3c34 f93d b070 ab3e 5026 36bd
00000120: 406c a4bb f88f 0dbe f9e3 0a3d 0bf7 383e
00000130: 87b2 6ebc 5651 4f3e 59eb f5bc a6cc 85bd
00000140: dcc9 b6be c36f 85bd adc6 b93e e9e6 083f
00000150: 770e c3bd 345e 11bd ea8c d6bd 0dfc 51bd
00000160: c23f 9c3e 53b8 cbbe 6a5e f6bd fe56 fa3d
00000170: 92ce abbc 3343 46bd 0bc2 9abc bcd7 e33c
00000180: a1c1 5cbd d66d afbc a9a6 be3e a3d5 84bc
00000190: df1d d8bd fcbd 033e b21b e3bc 566e d13d
000001a0: 9126 2e3e 9e80 bcbc 4ffb fabe 2fb5 b0bd
000001b0: 9de9 37bd 799c 9abd b524 97bd 9732 2abc
000001c0: 0cb7 00bf f516 dabd a020 97bd 3cbf 4abd
000001d0: bd5a 2ebc c577 963c 2782 9fbd 09f6 e73d
000001e0: ac37 17bd 8eec f63b 488e 59bd 9713 b53d
000001f0: aa91 e0be 3597 e0bc 8aba 7ebd ea29 bfbd
00000200: 4db9 ab3c f5b8 b53c e4dd fb3e 36c8 443e
00000210: fc60 883e c9a4 8fbd 714c c2ba 7a84 dd3c
00000220: c9aa b3be d069 01bd 8821 703c b414 febd
00000230: 046e 19bd 56d1 ee3d 6d5f 13be 1781 39be
00000240: dba0 e4bd df3c 36bd cc19 863e 766a 82bd
00000250: 4c88 c73c 8ded 9dbd a822 6cbe d024 a0bd
00000260: c6e6 b6bd 7ca3 69bc a277 84bd 2643 8fbd
00000270: d6e7 76bc da98 23be 8d7c 9bbd c7ab 763e
00000280: f42d 5abd 0457 bc3d d4cd 98bd 3ca5 07bc
00000290: 76e4 153c d5cc c1bd 325a 8abe 8415 9ebc
000002a0: 3ab8 89be 7884 99bd cae6 893c 5e51 ce3c
000002b0: 31e5 5b3e cd14 67bd cf0a 62bd f093 e6bc
000002c0: d667 45bd 457f 2bbc 0ed3 7f3d 7547 bfbe
000002d0: 7a6d ebbd 930a 01bd 50c8 1d3d 6afe d93e
000002e0: 937b 41be 6da6 15be 808c 973e 28d5 9bbd
000002f0: dddc a8be 6aa4 a73b b004 673d 6889 5fbd
00000300: 1c29 833e a49d 83bd 33bd fdbd e2b0 8cbd
00000310: 4f28 ee3e 6f12 53bd f617 16bc 4588 bd3d
00000320: 7bab 05bd 073d f1bd aacf a4bd 952a e1be
00000330: 26b8 90bd 9851 8cbd f999 dbbc 46fb 08bf
00000340: d25c 6d3b bd7d 363e 5207 d7bd 38d6 70bd
00000350: 74ff abbd 1084 bbbe d348 273d 6b0e c13e
00000360: bfbe 2dbd 5013 04bc 236a b23b 5f05 cabe
00000370: 24bc c4bd 59d7 8ebd b947 0d3d e629 8cbd
00000380: 799e fcbb 1c97 dfbe 3cff dabd cfee 08bc
00000390: 8926 b1bb 5332 a5be 623d ff3d 41d8 b8be
000003a0: 68b5 60bd 2424 d73e 73f7 81be 931e b1be
000003b0: 89f8 c4bd 6d25 07be 1b29 b23e ea29 79be
000003c0: 27b6 a03e f184 8c3c cd4f 40be 81dc c93e
000003d0: 8449 15bd 7b78 dfbc 86d1 7dbc 1f12 2dbe
000003e0: 75fa abbe 0b0c 29bb 072e a6bd bce3 6dbe
000003f0: a62a 8a3b a5a1 18bd 8544 4cbb 1b95 63bd
-0.19324161 0.505127 -0.0041457484 0.19872968 -0.050851975 -0.009021223 -0.06990702 -0.18734981
0.2656149 0.017022202 -0.30492672 -0.13414332 -0.034244906 0.30007032 -0.01653891 0.24550635
-0.09619455 0.40939024 0.11321541 -0.07116911 -0.06251378 -0.057588104 -0.030120576 -0.051257703
0.01620611 0.5215519 -0.0901804 -0.120402776 0.098359674 0.03366602 0.43964246 -0.038078427
-0.14636186 -0.045558188 0.010679054 -0.29777172 -0.06279133 0.0013386203 0.5803442 0.026956912
-0.02937785 -0.10282163 -0.41694313 -0.098995596 -0.09585292 0.1203188 -0.0066668685 -0.15974832
-0.110811606 -0.051765412 -0.27892923 -0.010044977 -0.19088481 -0.060619514 -0.53154904 -0.006512543
-0.00996739 -0.07236622 -0.23879144 -0.48358035 -0.13827094 -0.06281102 -0.033542886 -0.076372795
-0.069753386 -0.036667515 0.15649256 -0.09896327 -0.11328625 0.12168166 0.3348441 -0.04447013
-0.005017787 -0.13824451 0.033908818 0.1806299 -0.014568931 0.20245871 -0.03001945 -0.06533174
-0.3570088 -0.065154575 0.3628439 0.5347734 -0.09524243 -0.03549023 -0.10476096 -0.051265765
0.30517393 -0.39789066 -0.12029727 0.12223624 -0.020972524 -0.04840393 -0.018891355 0.027812831
-0.053895596 -0.021414679 0.37236527 -0.016215151 -0.105525725 0.12865442 -0.027723167 0.10226123
0.170069 -0.023010548 -0.49019858 -0.08628308 -0.044900525 -0.07549376 -0.07380048 -0.010388038
-0.5027931 -0.1064891 -0.073792696 -0.04949878 -0.010641751 0.018367657 -0.077884965 0.11326224
-0.036918327 0.0075355237 -0.053114206 0.08841627 -0.43861133 -0.027415851 -0.062189616 -0.09334166
0.020962382 0.022182921 0.49192727 0.19217 0.26636493 -0.07013852 -0.0014823807 0.027040709
-0.35091236 -0.03159505 0.014656432 -0.124062926 -0.037458435 0.116610214 -0.14391871 -0.1811565
-0.11163493 -0.044491645 0.26191556 -0.06367962 0.024356984 -0.07711325 -0.23060095 -0.078195214
-0.08930735 -0.014260169 -0.06468131 -0.069952294 -0.015069922 -0.15976277 -0.075921156 0.24088965
-0.05326648 0.091962844 -0.074611336 -0.008279141 0.009148708 -0.09462897 -0.2702194 -0.019297369
-0.26898366 -0.074959695 0.016833682 0.025185283 0.21474148 -0.05641632 -0.05518609 -0.028146714
-0.04819473 -0.010467355 0.062457137 -0.37359205 -0.1149549 -0.031504225 0.03852111 0.42576915
-0.18894796 -0.14614268 0.2959938 -0.07609016 -0.32981005 0.005116035 0.056400955 -0.0545744
0.256173 -0.06426552 -0.123896025 -0.06869675 0.46515128 -0.05153125 -0.009160986 0.09254507
-0.03263424 -0.11779218 -0.08047421 -0.439778 -0.070663735 -0.068515 -0.026806818 -0.5350841
0.0036218655 0.17821403 -0.10499443 -0.058798045 -0.08398333 -0.36624193 0.040840935 0.37706313
-0.042418238 -0.008061245 0.0054447814 -0.39457223 -0.096061975 -0.06974668 0.03449223 -0.06843929
-0.007709321 -0.43669975 -0.10693213 -0.008357718 -0.005406205 -0.32264957 0.1246288 -0.3610249
-0.054860502 0.4201976 -0.253841 -0.3459364 -0.09617717 -0.1319787 0.34796986 -0.24332395
0.3138897 0.017153235 -0.18780442 0.39426044 -0.036447063 -0.02727913 -0.015491849 -0.16901444
-0.3358952 -0.0025794532 -0.08114248 -0.23231405 0.00421651 -0.03726353 -0.003116877 -0.05556212

fc3.weight f4 [256, 256]
00000000: 585a 463d 8c90 7dbd a07a 25bd efe1 90bd
00000010: 2e40 2d3d 81ed 1d3c a55e 5dbd f6c0 fd3c
00000020: 1503 063d 2e8f 653d a97c 5bbd 1bd8 29bd
00000030: 79b2 993b 0f8f 483d fc3d 853c a6b2 693c
00000040: dc8d 353b 7383 5ebd 2089 c0bc 4d93 3abd
00000050: ee86 7f3d 0b44 9c3c bec8 233c 7ffe 73bd
00000060: 0eb5 1dbd e05a 7f3c b6a2 673d 98d6 63bd
00000070: f536 4b3d e4d3 a33c 4239 93bd a0d4 483b
00000080: bf5d 27bc 806f 163b e904 3ebc bddd f5bb
00000090: e6f5 1dbd c270 c93c b143 7b3a 57ce 383d
000000a0: c48b ae3c 2d4b e13c a2c7 3cbd 3482 f73c
000000b0: 57f6 e03c 6887 46bd f216 16bd 405f bebc
000000c0: 2002 d4bc a610 72bd 7546 43bd 74be 00bb
000000d0: dc22 98b8 fbc2 c9bc a574 1a3d bc40 a4bc
000000e0: 6906 b1bc 4632 4e3d 55dc 9fbd a0d9 9fbc
000000f0: 42dc 22bd 0bd9 86bd 3c98 b33c 1a9c 2bbd
00000100: 3ac1 113d 32f4 23bd de68 debc cfa8 18bd
00000110: 234b 93bd 8501 163d 5d40 2dbb 11f8 4ebd
00000120: 8906 833b 0012 44bc b9cc bebc f082 5abd
00000130: 306e 2dbc 1031 0cbd c3ae 123d 383c 44bd
00000140: 015f 5ebd 3c31 12bd c11f 2dbb 3c07 333b
00000150: 2d97 a5bd 3d82 17bd 2f90 e53c e4ce 153d
00000160: bcac d2bc f141 503b f34d 42bc d549 3bbd
00000170: 35f1 88bd b6c4 8bbd 4d4d 11bd 4822 77bc
00000180: 4cf7 53bc d191 69bc ec95 b7bc cf87 97bd
00000190: 5d9a 513d e700 ca3c 341e 003d 497c 7cbd
000001a0: 66dc 92bd 93e3 a13c 0d5f c73c 81b3 d6bb
000001b0: e22e 4abd 46eb b03b 26d3 24bc f499 a8bc
000001c0: 36bd 82bd 98a6 92bd 0bc7 673b 48b5 a13c
000001d0: 7317 943c f414 e2bc 0ccf 33bd e026 75bb
000001e0: bc7f 2ebd 771c f2bc 1425 debb 050c 0bbd
000001f0: 306f 173d b2eb d13c 36ed 5d3d b8c8 25bc
00000200: 8d68 aa3c f105 6cbd fc46 ad3c be0e 5abd
00000210: 8947 063d 8310 89bd b8e7 3abc bbbe dbbc
00000220: 1f50 37bd 94ed f9bc 8029 ab3a e875 8dbc
00000230: 02fe 883c c7ae ed3c 1de9 993c 7d41 13bd
00000240: 8990 213d 47f4 7e3d edf5 62bd c619 33bc
00000250: 90c2 90bd d10c 97bc 0df4 dabc fde1 3cbd
00000260: 097e 56bc 6d87 103c 8e21 3abc d8b8 343d
00000270: 867b a33d 48ed 6dbd 3b70 123d f1b0 16bd
00000280: 17b3 c5bb 193c c3bd 4d00 3c3d 1c8d 733a
00000290: 7f9e fabb a60b 4fbd 7a16 3fbd beef 3cbd
000002a0: 92a3 e93c 4ee1 f0bc 708d 5dbd ba2c 5dbb
000002b0: f8cc 7a3c 7bb0 263d 16c8 173c cce3 02bd
000002c0: ea75 483d 2d60 ebbc cb2e b2bc cf7a 9a3b
000002d0: e155 9d3c 3e9d 55bd e44c 67bc 5e8a 963c
000002e0: 3e0c 2e3d a14b 5dbc a4ae 9ebd 840f c3bc
000002f0: cf09 973c 4b70 443d 31da 14bd 3c69 373d
00000300: 0720 123d 0ec8 2d3c c224 5ebc 79f5 c7bb
00000310: 0373 3bbd a2ac 753b 580c 0c3b bd56 a9bc
00000320: cf8b 85bd 8d07 5ebc 2224 683d c6f4 51bd
00000330: d8a3 34bc d2ef 6d3d 10ad c7bc a46e e9bc
00000340: c6fe a13c f464 98bc 9383 453d cc2b 20bd
00000350: cdfb 793d 449a e13c ddf2 1c3d 877f 64bd
00000360: 6803 753d 372a 6e3b 42b2 2d3d b3a9 8ebc
00000370: 407f 7e3c 7d67 3fbd e02c f73b 8019 6a3c
00000380: 945e 133d 3a2f 8cbd 4267 693c f8c6 fcbc
00000390: 3d06 6fbd a0c5 373d cd38 2b3d 66da 033c
000003a0: 6410 fc3c ca59 89bd d02e 7dbc 86a9 653d
000003b0: a2c1 13bc 146b d93b 8c97 debc d324 3d3d
000003c0: 68ff 8dbd 1f19 42bd ce43 e2bb cd88 87bd
000003d0: f623 553d f31d ee3c 4b7a 063d a21c 6e3d
000003e0: c8ea 993c a091 17bd e413 6b3d 12a8 a7bd
000003f0: c8be 5f3b 879d 1ebd 60e4 45bc 2d13 42bd
0.048426002 -0.06190543 -0.040400147 -0.070743434 0.042297535 0.009639145 -0.05404534 0.0309758
0.032717783 0.05604475 -0.053585682 -0.04146586 0.004690465 0.048964556 0.016264908 0.0142637845
0.0027702963 -0.05432458 -0.023502886 -0.045550633 0.06238454 0.019075414 0.009996591 -0.05956888
-0.038502745 0.015585631 0.056551658 -0.055624574 0.049612958 0.019998498 -0.071886554 0.0030644313
-0.010215222 0.0022954643 -0.01159785 -0.00750324 -0.038564585 0.0245899 0.0009584977 0.045118656
0.02130688 0.027501667 -0.046088822 0.030213453 0.027461214 -0.048468977 -0.036642976 -0.023238778
-0.02587992 -0.05909791 -0.047674615 -0.001964477 -7.254418e-05 -0.024629107 0.037708897 -0.020050399
-0.021609502 0.050340913 -0.07805697 -0.019512951 -0.039760835 -0.065843664 0.021923177 -0.041896917
0.035584666 -0.040027805 -0.027149614 -0.037270363 -0.071920656 0.036622543 -0.0026436069 -0.050529543
0.003998582 -0.011967182 -0.023290979 -0.053347528 -0.010585353 -0.034226477 0.035811197 -0.04790899
-0.05428982 -0.035691485 -0.0026416632 0.0027317544 -0.08085475 -0.03698944 0.028022854 0.03657426
-0.025717132 0.0031777585 -0.011859405 -0.04572471 -0.066866316 -0.06824629 -0.03547411 -0.015083857
-0.012937378 -0.014255957 -0.022410356 -0.0739895 0.051172603 0.024658633 0.031278804 -0.061641965
-0.07170944 0.019761836 0.024337316 -0.0065521603 -0.049361117 0.0053991405 -0.010060107 -0.020581223
-0.06383745 -0.071606815 0.0035366442 0.019739762 0.018077588 -0.027597882 -0.043898627 -0.0037407205
-0.042602286 -0.029554589 -0.0067793224 -0.03394701 0.03697127 0.025625084 0.0541813 -0.010118656
0.020801807 -0.057622854 0.021152012 -0.053236715 0.032783065 -0.066926025 -0.011407785 -0.026824346
-0.044754144 -0.030508794 0.0013058633 -0.017268136 0.016722683 0.029014004 0.018787915 -0.035951126
0.03944448 0.06224468 -0.055410314 -0.010931438 -0.0706836 -0.018438729 -0.0267277 -0.046113957
-0.013091573 0.0088213505 -0.011360539 0.044121593 0.079825446 -0.058087617 0.035751563 -0.03678984
-0.006033312 -0.09532947 0.045898724 0.0009290741 -0.0076482887 -0.05054822 -0.046652295 -0.046127073
0.02852038 -0.029404309 -0.054089963 -0.0033748583 0.015307657 0.04069565 0.009264013 -0.031955525
0.048940577 -0.028732384 -0.021750828 0.004714347 0.01920599 -0.05215191 -0.014117453 0.018376525
0.042492144 -0.013506801 -0.07748154 -0.02381111 0.018437294 0.047958653 -0.036340896 0.044778094
0.035675075 0.010606779 -0.013558568 -0.0061022607 -0.04576398 0.003748693 0.0021369662 -0.020671243
-0.06520807 -0.013551605 0.056675084 -0.051258825 -0.0110253915 0.05809004 -0.024374515 -0.02849514
0.019774806 -0.018602826 0.048221182 -0.039104268 0.06103115 0.02753938 0.03831755 -0.055785682
0.0598177 0.003634108 0.042406328 -0.017414903 0.015533268 -0.046729553 0.0075431913 0.014288306
0.03597887 -0.06844945 0.01424581 -0.030856594 -0.05835556 0.044866204 0.041802216 0.008047676
0.030769534 -0.06706579 -0.0154530555 0.056069873 -0.009018334 0.006635079 -0.027171873 0.046177696
-0.069334805 -0.04738724 -0.0069050556 -0.066178896 0.05203625 0.029067015 0.03283147 0.058132775
0.01878871 -0.037004113 0.057392016 -0.08186354 0.0034140814 -0.03872445 -0.012078375 -0.04738157

fc3.bias f4 [256]
00000000: 5d57 59bd 7378 46bd c69a ac3b 6ed5 ddbd
00000010: c2f0 a03c f392 70bd d24a c3bc 4003 88bd
00000020: d856 c1bd 96e8 853d aaea 373c 1f72 efbd
00000030: 0a01 54bd 8b4a f0bd c78b 123d ec8b 923e
00000040: b2d5 dfbc 6fb3 13be e101 d9bd 60c1 4f3d
00000050: 3dae 79bd a088 00be 0f44 0fbe 0cc8 893e
00000060: a938 b33d bdc4 07bc d640 8abe 2cdd c13e
00000070: fd9e 71bd c84b 343d e264 b93e 4fda 2ebc
00000080: 4a30 353d 27c5 21be 8fd7 1a3c aa47 0fbe
00000090: fcac 283d 7b6a 84bd 6b56 6abd fba5 4b3c
000000a0: 77ab 9ebd f78d 93bc 9bf4 a7bc 4d37 a6bb
000000b0: 722f 703e efdb 0dbe d02a e93d 8e8d 50bc
000000c0: 148b 5a3c a548 b23c 023d d0bc 9160 a43c
000000d0: bc9d b0bd 00c2 7c3a cc97 d0bd f3c2 87bd
000000e0: 1057 c6bd 784e 8bbc 16d1 5c3f f2e4 053c
000000f0: 0271 273f f204 33bd 7e5b 9abd 2684 52be
00000100: bedd d5bc d081 32bd 1b86 e23a b1cc 1bbe
00000110: 417b 09bd 6c58 8a3d 3732 23bd 5113 29bd
00000120: 1433 633e 68d2 92bd 483d f7bc 9d6e 58bd
00000130: 7bc9 ffbc ccfe 3e3d 304b 8fbb fb4e 42bd
00000140: 05da 08bb 02be babd f5a8 95bc 565d cfbc
00000150: 9cde 7ebd eced b5bd bec7 ae3c 191e e2bd
00000160: a9d4 96bd 4eb6 eebd aa5e 74bd f9db 08bd
00000170: 9b7d bd3c a5e8 c8bd 33a4 4b3e ae5d 73bd
00000180: 7a07 eb39 7ea1 2abe f800 193e b2b0 7d3b
00000190: 12a5 f2bc 1e22 c0bc d4f0 0b3d 06eb e4bd
000001a0: f979 43be 102c f1bc 327e 173d 3a2b 5c3e
000001b0: 7220 7ebd a50c 6f3d f997 52bd 7ec5 83be
000001c0: 103c 0f3f a818 9dbd 1e9e 483d 931d 0ebd
000001d0: 3aa8 d4bd 9ad0 1dbd 7339 c03d 7166 77bd
000001e0: 8159 c0ba 245c 6abd 34a4 7b3b 61ef 69bd
000001f0: 1659 6bbd 041f 69bd 3639 a8bd e45d 133e
00000200: 72b4 aebc 2578 1ebe 1e7f 003e 9513 fd3c
00000210: 3cfb bebd 2908 cabd f9a9 b9bd 2a4a ac3e
00000220: 990f bb3d f498 353e e32e 8cbd 8f48 40be
00000230: e994 8abd 3f57 52bc 4d5f 79bc 8f11 163e
00000240: 7bc2 87bd 09e7 b8bd 16c3 2f3d 69e6 82b9
00000250: 9bba d4bd da73 e13d bacb 3b3e 52c2 52bd
00000260: 9d8f f9bd 2720 223d 5e78 3b3f 6276 a1bd
00000270: a094 80be 2833 a5bd dbaa 94bc 10ff 28bd
00000280: 2051 363f bf31 0abe be66 5ebd 2f5b 1a3d
00000290: 816a 8dbd 7ff2 36be f14c 853c 2b33 aabd
000002a0: 6718 91bc 7290 7bbb bd4a ddbc d4dc 87bc
000002b0: 3118 d23a 0a7d ccbd a4b0 973e 315e fdbc
000002c0: 058f b8be 7574 723d a3a1 cfbd 2eef 6abe
000002d0: a6b3 1bbe c67f e93c 1d79 d4bd 22da 59bc
000002e0: c218 eebd 15dc c03d c1d7 cbbd 5923 5ebc
000002f0: ab78 f7bd 7e8b 5bbd 2ca4 cbbd 0a04 59bd
00000300: 19f0 59be 54f9 49bc 0302 b8bc 0655 83bd
00000310: e0d9 313f 2016 603d fdaa 3c3d ac47 423e
00000320: c3e7 bd3d 458a d9bd 5f81 75bd c80a 0f3e
00000330: aa3d ae3d 1197 9dbd 504e a7bd a4bb b9bc
00000340: 8010 d0bc 045e 78bd c4c4 31bd 7526 813d
00000350: 2647 3abb 4cd0 a83c 9702 11be a3e5 e8bd
00000360: ccc5 2b3d 160a 50bc 6a6a 8abd da86 2ebd
00000370: 8323 58bd f44e fabd 63c3 18be 1f94 86bd
00000380: 52cd 9ebe dfd9 43bd c2a9 6cbd 1b56 2abd
00000390: bb88 01be 61ed 0b3c 547a 99bd d1b2 47bd
000003a0: 1a4b 0c3e 9a14 efbc ab83 00bd 8d73 ca3b
000003b0: 8fb3 29bd 23d0 843b da85 9bbd db0f 09bd
000003c0: 3039 6e3b b063 88bc 11e5 3f3e afff 89bd
000003d0: f6a2 a1bd 17ac 8cbd a6e1 833c 4401 54bd
000003e0: e4c5 66bc 7279 dbbd f01f e9bd ca46 bb3c
000003f0: 44b9 a9bc bd59 d23c 6ee2 53bc 9393 82ba
-0.05306183 -0.048454713 0.005267474 -0.10831724 0.019646052 -0.05873389 -0.023839388 -0.06641245
-0.09440392 0.06538503 0.011225382 -0.11691689 -0.051758803 -0.11732968 0.035777833 0.28622377
-0.027323578 -0.14423917 -0.105960615 0.050721526 -0.060957182 -0.12552118 -0.13990806 0.26910436
0.087510414 -0.008286652 -0.2700259 0.37864053 -0.058989514 0.044017583 0.3620978 -0.010672166
0.044235505 -0.15797864 0.009450807 -0.13992181 0.041180596 -0.06465622 -0.05721132 0.01242971
-0.07747548 -0.01801203 -0.02050238 -0.0050725103 0.23455599 -0.1385343 0.11385119 -0.012729062
0.013338823 0.021763155 -0.025419716 0.020065578 -0.086238354 0.00096419454 -0.10185203 -0.066289805
-0.096845746 -0.01700519 0.8625654 0.008172261 0.6540681 -0.043705888 -0.07536982 -0.20558223
-0.026106711 -0.04358083 0.0017282398 -0.15214802 -0.03356481 0.067551464 -0.03984281 -0.041278187
0.22187454 -0.07169038 -0.030180588 -0.052839864 -0.031224003 0.046629712 -0.0043729767 -0.047438603
-0.0020881903 -0.09118272 -0.018269042 -0.02531306 -0.062224016 -0.088832706 0.021335479 -0.11040897
-0.073647805 -0.116558656 -0.05966059 -0.033412907 0.023131182 -0.098099984 0.19886856 -0.05941551
0.00044828263 -0.16663167 0.14941776 0.0038710055 -0.029619727 -0.023453768 0.03416522 -0.1117764
-0.19089498 -0.029439956 0.036985584 0.21500865 -0.06204266 0.05836167 -0.051414464 -0.25736612
0.55951023 -0.076707184 0.048978917 -0.034696173 -0.10383649 -0.038529016 0.093859576 -0.06040043
-0.0014675112 -0.05721678 0.0038397433 -0.057113055 -0.057458006 -0.056914344 -0.08214037 0.14391285
-0.021326277 -0.15475519 0.12548491 0.030893127 -0.09325263 -0.09864838 -0.09065623 0.33650333
0.091338344 0.17734128 -0.068448804 -0.18777679 -0.067666836 -0.012838184 -0.015220475 0.14655136
-0.06628891 -0.090284415 0.042910658 -0.000249672 -0.10387155 0.11008425 0.18339434 -0.05145485
-0.12185595 0.039581444 0.7323054 -0.07883908 -0.25113392 -0.08066398 -0.018147876 -0.04125887
0.71217537 -0.13495539 -0.0542972 0.037684616 -0.0690508 -0.17865942 0.01627204 -0.08310541
-0.017711831 -0.0038385657 -0.027013177 -0.016584791 0.0016028938 -0.09984787 0.29626954 -0.030928703
-0.36046615 0.059193093 -0.10138252 -0.22942802 -0.15205249 0.02850331 -0.10374663 -0.013296636
-0.11625816 0.09416977 -0.09953261 -0.013558232 -0.120835625 -0.053599827 -0.09943423 -0.052982368
-0.21282996 -0.012327511 -0.022461897 -0.06412701 0.69473076 0.0547086 0.046061505 0.18972653
0.09272721 -0.10622076 -0.05993783 0.13968956 0.08507855 -0.07694829 -0.08169234 -0.022672482
-0.025398493 -0.060636535 -0.04340054 0.06306163 -0.0028423755 0.020607136 -0.14161144 -0.11371925
0.04193668 -0.012697717 -0.06758578 -0.042609073 -0.05276824 -0.1222209 -0.14918284 -0.065712206
-0.31016022 -0.0478152 -0.05777908 -0.041586023 -0.12649815 0.008540482 -0.07494035 -0.048754517
0.13700524 -0.029184628 -0.03137557 0.0061783255 -0.041431006 0.004053132 -0.075938895 -0.033462387
0.0036350004 -0.016649097 0.18739726 -0.06738221 -0.078924105 -0.06868761 0.016098808 -0.05175902
-0.014085267 -0.10716523 -0.11383045 0.022860903 -0.020718224 0.025677556 -0.012932403 -0.0009962193

fc4.weight f4 [256, 256]
00000000: 6ada 0b3d 1e11 0bbd fb2e 01bd ba12 693c
00000010: 27d1 173e 2884 b43d 2f8b d63d bca2 7ebc
00000020: df5c 49bd d823 4bbe c7e6 a1bd b812 00bd
00000030: 14f2 c03c ee37 4b3d cd72 fd3c a73d a5bd
00000040: 1b73 7b3d ed0c 87bd b572 46be 71e8 7cbb
00000050: 15e2 993d 55b5 9f3c afc6 f33c dffb 263d
00000060: 89f2 c93d 42d6 6c3d 717f 4d3d be16 30bd
00000070: 319b febb 8c57 ab3d 60a1 103e 0511 ab3c
00000080: 7939 bb3d 8e69 553d 8a29 8e3d 8c9d 0f3b
00000090: 597f 8fbd 4ccc 463c f545 833d 2cad 0c3d
000000a0: aa4d 4dbc 2935 173e 7905 16bd 6707 023e
000000b0: a740 913d 1ab4 06be 12ee 6b3c 148c b13c
000000c0: 3fd7 a5ba bc27 fe3d e6a4 1ebb 38c9 203d
000000d0: f0a0 0cbc 2b02 053d b2b3 bf3d ecf7 e9bc
000000e0: da46 18bd 92ff 8dbc 961b b5be 07aa ad3d
000000f0: 89f0 f1bd acbb 583d 7be2 3e3d bb55 f0bd
00000100: 2c6f 9b3c 7a0e f3bd 40d8 2b3d 7f74 07bd
00000110: 5f8a 423c e543 fa3c 717b 9b3d 494f aabd
00000120: 54eb 95bd 3342 ba3d ea87 01be 352f 2abd
00000130: c3a4 72bc efba 383e ee0b 36bd 6ae5 393d
00000140: e592 09be 4670 963d 638f 763d 045c bcbc
00000150: 3924 f53d 81b2 76bc 95c3 df3d dd67 0abe
00000160: 0b89 76bc c201 633d d263 1c3d b102 863d
00000170: 6255 8a3d af77 4c3a 7c28 203e d606 893c
00000180: ecef b13b 56ee 13bd 1f17 e7bc 0102 73bd
00000190: 5b4c c8bc aed2 d0bc 1847 6fbc bfde 1aba
000001a0: b3c2 0ebc b0f9 0abd e5d9 c93d 1115 7c3d
000001b0: da7c de3c 636c 6c3e c63b 513d e4c9 0bbc
000001c0: 0a3a cebd b021 2f3c 8c39 013e b5f2 d13c
000001d0: 9910 803d 5295 84bc eb64 743e 68c6 a3bc
000001e0: d39b 47bd 4294 463c f68d d4bd b0c6 173d
000001f0: eea9 c8bb 2140 033c 6f8b 9a3d 04bf 4abd
00000200: 9c7a 573c 7692 41bd efbe 823e 7706 ba3c
00000210: d06b 6a3a 87bc d6bb 65b0 0fbc 4583 3cbe
00000220: 9f28 233e 0c68 413e c90a 25bd 485e a3bc
00000230: e8ef 5e3d af99 2c3d f3cf c33c 9565 1b3e
00000240: 471b 1f3c 7c17 093e 641b 903b cbc7 a9bc
00000250: 8738 94bd f8b1 d23d bfbc a73e 1cdc ba3d
00000260: c1df 26bd e389 b0ba 4e8e 6f3d 3e04 f63c
00000270: bae5 763c fcce 12bd 19e4 a9bc 7a89 0bbd
00000280: 84f6 38be 92c2 9e3c 004c 70bd 4fef fc39
00000290: ae9b 1ebd 548d 08be eaac 52bb d9a5 d93d
000002a0: 9869 58bd 1099 ac3d 92fc 9c3d 2567 adbd
000002b0: 4b3d b43d ed27 55bd 10c3 8cbd 9c89 86ba
000002c0: 7cc2 adbd f1f5 6e3d f547 9c3c 92c0 5ebe
000002d0: 1669 153e 2c3a c2bc 69a4 893d 9f3b b2bc
000002e0: 5840 b03d 7e20 173e fc6a a23d 6801 733c
000002f0: 7799 22bd 39fc 9dbc 04f5 ad3d 0817 8b3d
00000300: de93 51bd 095b 5f3d 3bd1 583d e673 3cbd
00000310: 2c18 86be 8f7a 0cbd 771a c9bc f441 8d3d
00000320: 8269 403e 501d 3c3d e189 9a3d 7131 923d
00000330: 7763 673e 89b0 68bd 698c 7fbd f6ca ff3c
00000340: a79a 053d b8a5 943d 34cf a1bc 70f5 ca3d
00000350: b8f1 583b 82b2 85bd 5b1c 5ebd 8776 893d
00000360: 1944 0f3e d015 d6b9 e636 f83c 9917 b9bc
00000370: dab3 0cbd f26a 253d 8ff2 33be 897c 3abc
00000380: 84c4 2a3d 804c 983d 1b8e 55bc 632b 233c
00000390: 5ee1 bbbe 045e ba3d 6611 cb3c 5cc1 f1bb
000003a0: 58b8 773e 3e44 6d3d 1914 13be 5ab3 383d
000003b0: 3b14 eebc 540c a53d 5043 4dbd 2a9b 183d
000003c0: b186 a2bc 20a1 093d c3f3 553c 8848 9d3d
000003d0: 024e 9b3c 98da 6f3d 848b a23d 2a4b 473d
000003e0: b6e7 e8bd 7b0d df3c abd6 753c 658b 4a3c
000003f0: 6032 cabc 9385 3e3d c522 833c 2fb6 b43d
0.034143843 -0.03395187 -0.031538945 0.014225656 0.14825879 0.08814269 0.10475766 -0.015541729
-0.049160834 -0.19837892 -0.079053454 -0.03126785 0.023552932 0.049613886 0.03093853 -0.080684
0.06138907 -0.06594262 -0.19379695 -0.0038590694 0.07513825 0.019495646 0.029757826 0.040767547
0.09860713 0.05782152 0.050170366 -0.04299044 -0.007769965 0.083663076 0.1412406 0.020882139
0.091418214 0.052102618 0.06941517 0.0021913974 -0.070067115 0.012133669 0.064098276 0.034344837
-0.012530724 0.14766373 -0.036626313 0.12698136 0.070924096 -0.13154641 0.014400022 0.02167324
-0.0012652649 0.124099225 -0.0024207174 0.039254397 -0.008583292 0.03247277 0.09360446 -0.028560601
-0.037176944 -0.01733378 -0.3537261 0.08479696 -0.118134566 0.052913353 0.046602707 -0.11735102
0.01897391 -0.118679956 0.04195428 -0.033070084 0.011873811 0.030549953 0.07591904 -0.08315904
-0.07320276 0.09094658 -0.12649503 -0.041548926 -0.01480979 0.1804006 -0.04444497 0.045384802
-0.13434942 0.07345633 0.060195338 -0.022993095 0.119697995 -0.015057207 0.10925976 -0.13516183
-0.015047322 0.0554216 0.038181134 0.06543482 0.06754567 0.00077998167 0.15640444 0.016726892
0.0054302122 -0.036115967 -0.028209267 -0.059328083 -0.024450472 -0.025491085 -0.014604352 -0.00059078255
-0.008713412 -0.033929527 0.09856013 0.061543528 0.027159143 0.23088221 0.051082395 -0.008532021
-0.10069664 0.010689184 0.12619609 0.025628427 0.06253166 -0.016184483 0.23866622 -0.019992068
-0.04873259 0.012120308 -0.103786394 0.037054718 -0.006123773 0.008010895 0.07546126 -0.049498573
0.013151791 -0.047258817 0.25536296 0.02270816 0.0008942457 -0.006553236 -0.008770083 -0.1840945
0.15933464 0.18887347 -0.04029349 -0.019942418 0.05442801 0.04213875 0.023902869 0.15175469
0.009711093 0.13387865 0.0043977965 -0.020725152 -0.07237344 0.10287851 0.3276119 0.09124014
-0.040740732 -0.0013468828 0.05848532 0.03003132 0.0150694195 -0.035841927 -0.020738648 -0.034066655
-0.18062788 0.019379888 -0.05866623 0.00048243484 -0.038722686 -0.13335162 -0.0032146522 0.10627336
-0.052835077 0.08427632 0.076653615 -0.08466939 0.08800753 -0.05204003 -0.06873143 -0.00102644
-0.084843606 0.058340017 0.01907728 -0.21753147 0.14590868 -0.02370938 0.06720812 -0.021756945
0.086060226 0.14758489 0.07930562 0.014831878 -0.039697137 -0.019285308 0.08493999 0.06791502
-0.051166408 0.054530177 0.052933913 -0.046008967 -0.26190317 -0.03429657 -0.024548752 0.06897345
0.18790248 0.045926392 0.075458296 0.071383364 0.22596537 -0.056808982 -0.062389765 0.031224709
0.03261819 0.07258171 -0.019752122 0.09910095 0.003310306 -0.06528188 -0.05422626 0.067120604
0.13990821 -0.00040833512 0.030299615 -0.02259426 -0.034351207 0.040385194 -0.17572998 -0.011382231
0.04169132 0.07436466 -0.013034369 0.009959075 -0.3669538 0.09099963 0.02478857 -0.0073777866
0.24191415 0.05792641 -0.14363135 0.045092918 -0.029062381 0.08058992 -0.050113022 0.03725735
-0.019839616 0.033600926 0.013058606 0.0767985 0.018958095 0.058558077 0.07936767 0.048655666
-0.1137232 0.027228108 0.015004794 0.012362336 -0.024682224 0.046514105 0.01600779 0.08823811

fc4.bias f4 [256]
00000000: 7af0 703e 2f9e 33be 5107 a2bd f9ef 66bd
00000010: 3a49 e9be d25b 09be 4335 b5bd 91a1 d03d
00000020: fbbb 6d3e e196 0b3e c2ee 00be edd4 d23d
00000030: ca92 2e3e 5a76 3a3e f78d 603e 5f39 10ba
00000040: f219 96bd bab2 f53d 7a75 dbbd 542f 28be
00000050: b8d9 fd3d 81a7 2f3e fc7e 2c3c b3ae 8b3d
00000060: a3a4 62be bdb3 bebd b58c 6c3e ad98 86be
00000070: daec 7cbe 652b 13be a115 1dbe f172 07be
00000080: 6eb5 a0bd 6452 02be 4edc 383e 0841 403f
00000090: 75b2 25be 6ce1 833e 300c b93e 0fe0 12be
000000a0: 5a1d 06bd 1088 d0bd df58 533e acec 88be
000000b0: 50c0 23be 61e4 8fbd 0953 513e 6095 ec3d
000000c0: 3975 35be 0275 0e3d 8475 9cbd aabf d7bd
000000d0: ba47 003e 2e87 25be 99ac 00be 4da3 0d3d
000000e0: 5997 cebd 67cb 013e 0978 6abe 5cc6 05be
000000f0: 15cb 34bd 6e9f 543e 6ed8 fe3d 761e 0f3e
00000100: e792 54bd 5743 7dbd e22f 6bbb 1069 bfbd
00000110: 4c2d 8fbe 1347 7cbe 93d3 81be 5ca1 f23d
00000120: 688b 00be 36be 8e3f 5df7 42be 6349 2abe
00000130: 9550 203d 0acf 5ebe 1443 36be bbd7 26be
00000140: 70b6 a1bd 3e70 cbbd 08b3 56be 8266 ca3a
00000150: 5600 bd3c 3d91 b4bd 437a e9be 3022 cebd
00000160: a970 2a3e 3fbc 893d 0210 10be 7614 9d3f
00000170: 17d5 e2be af1c 3bbe 9188 d1be ef86 7f3e
00000180: 9494 66bd 7d67 edbd 2f30 f4bd b8f7 a5bc
00000190: 5c80 013e 91a2 06bf 4a1b 733d ef18 a33b
000001a0: a16d 60be f9dc 91bd 2c32 bb3d 1e55 203c
000001b0: a9d6 cebd 76e0 2dbe 3424 593e 8ab5 fd3c
000001c0: 400d 34bd f3d6 b03d 9157 72be e553 e83d
000001d0: d7ba 2abe 749d 993d 3b44 d6bd d400 b6bd
000001e0: 33cf c9bd 330e 1bbe 9227 70bd 7b07 60be
000001f0: 710c e1bd 9e51 8f3d 3afa b03c 1ae4 8f3d
00000200: dd6c 83be 5aaf 513e a973 7dbe cf1a 03be
00000210: 4748 ebbd 4823 18be 604c d93d a695 56bd
00000220: ae77 453e f8ff 403d 3d56 dbbd 03f8 e7bd
00000230: e0cb 47bd 7635 993f 9fa0 5cbe 984b debd
00000240: 417d e4bd 4d15 b6bd 8f81 a4bd b9a9 e2bd
00000250: 5e10 0ebd 43f8 b5bd a9f1 6fbd 7950 0640
00000260: f2e4 3fbd c461 c3be 9128 c5be d4ee c3bd
00000270: fce6 41be 4ccc b2bd ffab 1d3e 4d72 b93c
00000280: 85fc 2cbe d430 81be bf13 823e 985c f13d
00000290: 0894 29bd 93b9 18be 138f a1be 80ec 99bd
000002a0: 275e d7bd efc1 b5bd 9d4d 05be 7c3a e6bd
000002b0: b216 d63c 9ed0 123d 0182 4bbe 9936 29be
000002c0: 84a3 a3bd 7e4b dfbb 2310 dbbd 894e 71be
000002d0: 91c2 653e d3d2 4bbd ab26 08be 3e39 c33e
000002e0: 087c f0ba b0ba 723e ab33 cdbd a244 23be
000002f0: 0f99 15be e899 00be 5927 a8bd 481f 073e
00000300: 16ff f9bd 7b05 c23d af7b 10be fc6a 1dbe
00000310: 64cb 2abe 07b6 0b3c 50f0 92be 37b5 1dbe
00000320: fe66 6c3e 91c2 80be 672c 3abe e28f 87bd
00000330: acc3 e2bc 1478 0bbe 9117 d63d 6e79 a33f
00000340: a7fe 453e 84db 83be aba4 7f3e 563c 01be
00000350: ba9b 91bd 213b 47be a828 15be 4de9 cebd
00000360: 6e2a c8bd 7d3d b6be 3fed d0bd fad8 4d3e
00000370: 99d1 103f ee61 5b3e 1d09 f2bd eb69 8e3d
00000380: 18f3 4bbe ee4b b2bd dadf 453f 0288 053c
00000390: 3c8a 86bd b3dc 2d3e f693 80bd 30ec 7abc
000003a0: f61b e93c e3f6 043d affd 193e 837f 08be
000003b0: 7c75 fd3e 6b29 07be b212 9bbd 0cc4 ccbd
000003c0: 92de 0c3e 3f0c 96bd cbe3 b33c 8ee3 adbd
000003d0: cdbd 22be f09b 06be f5af 24be ee75 92bd
000003e0: 9594 15bd 51dd 9b3b 7546 30be a730 fbbd
000003f0: f779 4d3e 51b1 25bd aeb3 a9bd fed7 6f3d
0.23529235 -0.17540811 -0.07911552 -0.0563812 -0.4556368 -0.13413933 -0.088480495 0.10187066
0.2321624 0.13631774 -0.12591079 0.102945186 0.17048183 0.1820921 0.21929155 -0.0005501713
-0.073291674 0.1199698 -0.10715766 -0.16424304 0.12395042 0.17153741 0.010528322 0.068204306
-0.22133116 -0.09311626 0.2310055 -0.26288357 -0.24699727 -0.14372022 -0.15340282 -0.1322744
-0.07847105 -0.12726742 0.1805279 0.7509923 -0.16181357 0.2575792 0.3614211 -0.14343284
-0.032742836 -0.10182202 0.2063937 -0.26743066 -0.1599133 -0.07025982 0.20441832 0.115519285
-0.17720498 0.034779556 -0.07639602 -0.10534604 0.12527362 -0.16164848 -0.12565841 0.034579564
-0.10087461 0.12675248 -0.22897352 -0.1306395 -0.044138987 0.20763943 0.124436244 0.13976464
-0.05189791 -0.0618318 -0.0035886695 -0.09346211 -0.27964246 -0.24636488 -0.2535673 0.11847183
-0.1255318 1.1151798 -0.19039674 -0.16629557 0.03913935 -0.21758667 -0.17799026 -0.16293232
-0.07896125 -0.09933518 -0.20966733 0.0015441927 0.02307145 -0.088167645 -0.4560109 -0.100651145
0.16644539 0.06725358 -0.14068606 1.2271869 -0.443032 -0.1827266 -0.40924504 0.24953817
-0.05629404 -0.115920044 -0.11923253 -0.020259723 0.12646621 -0.52591807 0.059352197 0.0049773376
-0.2191682 -0.07122225 0.09140429 0.0097859185 -0.10099537 -0.16980156 0.21205217 0.030970354
-0.04395795 0.08634748 -0.23666216 0.113441266 -0.16672836 0.07500735 -0.10462233 -0.08886877
-0.09853973 -0.15142135 -0.058631487 -0.21877854 -0.10988701 0.06997989 0.021603692 0.07025929
-0.25668994 0.20477048 -0.24751152 -0.12803195 -0.11488395 -0.14857209 0.106102705 -0.05238881
0.19283935 0.04711911 -0.10709808 -0.11326601 -0.048778415 1.196944 -0.21545647 -0.10854262
-0.11156703 -0.088907816 -0.08032524 -0.11067528 -0.034683578 -0.08885243 -0.058580074 2.0986617
-0.0468492 -0.38160527 -0.38507512 -0.09567037 -0.1893577 -0.08730373 0.15397643 0.02263751
-0.16893204 -0.25232565 0.2540569 0.11785239 -0.04140094 -0.14914541 -0.3155447 -0.07515812
-0.10516005 -0.088748805 -0.13017888 -0.11241624 0.026133869 0.035843484 -0.19873811 -0.16524734
-0.079901725 -0.0068144193 -0.10696437 -0.23565115 0.22437502 -0.049761605 -0.13296 0.3812961
-0.0018347511 0.23704028 -0.100196205 -0.1594415 -0.14609168 -0.1255871 -0.0821063 0.13195527
-0.12206857 0.094737016 -0.14109682 -0.15372843 -0.1667915 0.008527285 -0.2869897 -0.15401159
0.23086163 -0.25148442 -0.18181 -0.0661924 -0.027681194 -0.13620025 0.10453714 1.2771432
0.19335423 -0.25753415 0.2496516 -0.12620673 -0.071097806 -0.1945615 -0.1456629 -0.10103092
-0.09773718 -0.35593787 -0.10201501 0.20102301 0.5656982 0.21424076 -0.118181445 0.06953796
-0.19916952 -0.08705889 0.77294695 0.008150103 -0.06569335 0.16978721 -0.06278221 -0.015315101
0.028455716 0.032462012 0.15038179 -0.13329892 0.49503696 -0.13199393 -0.07571925 -0.099983305
0.13756779 -0.073265545 0.021959206 -0.08490668 -0.15892716 -0.13145423 -0.16082747 -0.071513996
-0.036518652 0.0047566076 -0.17214377 -0.12265139 0.20066057 -0.040452305 -0.08286224 0.058555596
