model/DDQN with batchnorm/EX1_Player_model_epoch_2500.pth (torch_old, 854519 bytes, 10 tensors)

fc1.weight f4 [256, 57]
00000000: 1d04 653f 96b6 04be 35d6 e03e 02c2 cabe
00000010: 598e 423f 48dc ec3c 7e55 da3d 27ba b33c
00000020: 1ee2 d7bc b6ea ba3d 5802 8dbe 0569 1ebf
00000030: 0674 29be aa9e dcbe e8ac 893e 1d49 1cbf
00000040: 6d31 003f 1afd 3f3e b0f4 2a3f 2c01 713e
00000050: bffb 35bf a179 823f c3de a6be e170 efbf
00000060: 3ca8 b3bf a117 7bbe f3bf 3abf ca9a 6cbf
00000070: 68c5 aabd b183 e6be 427a 53bd bc3c 623f
00000080: a694 98be d4c7 69bf 46e2 3dbe 1c23 acbe
00000090: 4cf7 6dbf a7bc ab3c 1016 723d 9d5a a9be
000000a0: 6042 e43b 25c6 813e 2357 c9bb 6299 79bf
000000b0: bef2 a9be 9d07 01bf fc8a 44bf 83e3 47bd
000000c0: 29d5 52bd e228 5bbf 0333 f2be b925 723d
000000d0: b67a 4cbf c0da e33d e4f9 c5be 6ae7 6dbf
000000e0: c25a 08bb 2133 f93d 7016 85be c4e8 de3c
000000f0: 9fc0 c2bd 7b66 463e ecc3 5abe aff7 663e
00000100: 1b88 81bd 9666 5b3e 6f7e bcbd 85d5 ff3d
00000110: 7010 acbd bbdf 773e 07ed 83be ec8b e03d
00000120: b4d8 b8bd 73d3 203e b8c6 cdbd 00ce 0f3e
00000130: cc75 71be 1340 51be 1226 d23c 8769 c4be
00000140: b534 6abe 883e 0b3d f460 2f3d e148 dcbe
00000150: 4811 883d e8c9 b6bc 5ffb 9d3e 9c58 78bd
00000160: 2ce8 05be a654 25bd 5410 7ebe e40d d13d
00000170: 1219 083e 2c12 7dbe 319b c4bd e0f7 afbd
00000180: 4f2e 4e3d 981a e33c c243 21be e21e 5fbd
00000190: c8ed 30be 381a 953d 2549 adbd 8f54 a9be
000001a0: 216e 24be cb45 73bd d954 cbbe ba7c 39be
000001b0: ea38 073d 6d14 8ebe 76f2 e7bc ebaa 8fbc
000001c0: d987 c1be d29d f23d 38a3 3fbf f491 ecbf
000001d0: 71f0 78bd 2a09 e3bd d8e8 88be f757 9cbf
000001e0: 9644 ef3e a337 c0be d8c9 9abe 3433 bbbf
000001f0: 03c1 8e3d 886b 80bf a591 b4bd 6f4a dcbe
00000200: c327 063f ca5f a53e fa37 313f 2be0 ee3e
00000210: 5803 7c3f e140 b73e 2c9a a53d 1b93 83be
00000220: 2a49 493e b86a 5b3d 6c3d 8abe 1474 c5bd
00000230: f462 4abe 5157 313d 5ec5 003e a0fa 0abe
00000240: b7ae f3bd 3181 c13f 68fd 133f fd3a a1be
00000250: 0354 913e 4ed7 c53e 6542 e0be ae98 733e
00000260: e416 dcbc 84c5 a53f 16a8 923d 23f5 afbf
00000270: d3de cdbc 0606 d5be 43b4 ebbc d3a7 b3bd
00000280: fa04 adbe 7211 2dbe 6439 b8bf 0483 dabe
00000290: 339a 4fbd c123 d03e c6c3 bebe bcf2 913f
000002a0: 837c 683c de88 a4be 5955 dfbd 0e2f 803f
000002b0: d6ab 1dbf 3509 883f c8f9 6abf 7708 683f
000002c0: 0eee a4bf 71d9 85bd b796 a6bf 003b 1c3f
000002d0: 343a 5ebf 4ee1 c53e 15db 75bf 9a68 083f
000002e0: 6f7f 27bf 850a 513e 92d2 74bf 6196 403e
000002f0: 2f8b 0ec0 f409 6b3b 7a63 06c0 4461 4cbf
00000300: f6a5 543e ba38 1abf a373 e7be 04e3 41c0
00000310: 322f 073e cb90 41be f894 a43e 0062 3dbb
00000320: 6966 43be f8dc ae3d c0ee 40bf ee43 5abe
00000330: 91ce a0be 4a5d 953e 80e8 2dbe 3174 00be
00000340: 6dd7 7c3e 8065 893c 2826 9e3f e87e d6bc
00000350: 3089 283f 63a2 83bd 79dc 67be 0293 efbc
00000360: 7af0 45bf 4fff 96be dda2 9a3e c522 e33e
00000370: 89a5 70be f16b 66bd 2419 c63e 6f11 63be
00000380: e5c7 143d d5a7 2e3e 22c2 a3be f328 1cbf
00000390: 1cad 743e c19b 0ebe 8424 853f 2cf9 e23e
000003a0: e1c3 5bbe e4cf e3bd 0791 4c3e c4eb a6be
000003b0: a163 d33a 42bf 31be 6edf 72bd 47d3 6fbf
000003c0: 208c 00bf 9efa 21bf 1db2 4cbf e2ca 8cbf
000003d0: b896 493e 72e9 7dbf 3054 c33d 4f55 4fbf
000003e0: 7899 02bf 151e 133f d46b 5fbd 24fb ba3f
000003f0: 23ba 37c0 3ccb 793d dbe3 0bbf 31ac 3cbf
0.894594 -0.12960276 0.43913427 -0.3960114 0.75998455 0.028913632 0.106608376 0.02193935
-0.026352938 0.09126799 -0.2754085 -0.61879 -0.16548166 -0.430898 0.2688973 -0.6104906
0.5007542 0.18748894 0.66779613 0.23535603 -0.7108726 1.0193368 -0.3259183 -1.8706323
-1.4035716 -0.24520732 -0.7294914 -0.9242369 -0.083384335 -0.45022348 -0.051630266 0.88373923
-0.2980091 -0.9132054 -0.18543348 -0.33620536 -0.9295547 0.02096398 0.05910307 -0.33076945
0.0069659203 0.25346485 -0.0061444207 -0.9749967 -0.3319301 -0.5040224 -0.76774573 -0.048800956
-0.051472817 -0.8560926 -0.47304544 0.059118006 -0.7987474 0.111257076 -0.38667214 -0.92931235
-0.002080605 0.12167955 -0.2599368 0.0272106 -0.09509396 0.1937503 -0.21363801 0.22555421
-0.06324788 0.21425852 -0.09203803 0.124918975 -0.08401573 0.2420644 -0.25766775 0.10964188
-0.09025708 0.15705661 -0.10047668 0.14043427 -0.23580092 -0.20434599 0.025652919 -0.3836176
-0.22871669 0.03399518 0.04281707 -0.43024352 0.06643921 -0.022313073 0.30855843 -0.06063138
-0.13076848 -0.04036393 -0.24810916 0.102077276 0.13290814 -0.24713963 -0.09599913 -0.085922
0.050337132 0.027722642 -0.15748504 -0.05447281 -0.17278206 0.072803915 -0.08461217 -0.33072326
-0.16057636 -0.05939273 -0.3971317 -0.18113986 0.03301326 -0.2774996 -0.028313857 -0.017537555
-0.37798956 0.11846508 -0.7485843 -1.8482041 -0.060776178 -0.11085732 -0.26740146 -1.2214345
0.46732014 -0.37542447 -0.3023212 -1.4625001 0.06970408 -1.0032816 -0.08816842 -0.43025538
0.5240442 0.32299644 0.6922604 0.46655402 0.984426 0.35791686 0.080860466 -0.2569817
0.19656816 0.05356857 -0.26999986 -0.09641281 -0.1976431 0.043296162 0.1257529 -0.13572168
-0.118985586 1.5117551 0.5780854 -0.31490317 0.28384408 0.38640827 -0.43800655 0.23788711
-0.026866384 1.2950902 0.07160966 -1.3746685 -0.025130665 -0.41606158 -0.028772479 -0.08772244
-0.3379286 -0.16901186 -1.4392514 -0.42678082 -0.050684165 0.40652278 -0.37258738 1.1402202
0.014189842 -0.3213567 -0.10904951 1.001436 -0.61590326 1.062781 -0.91787386 0.90637916
-1.2885149 -0.06535614 -1.3014745 0.61027527 -0.8680756 0.38648456 -0.9603742 0.5328461
-0.65428823 0.20414169 -0.95633805 0.18807365 -2.227245 0.0035864087 -2.0998216 -0.79835916
0.20766434 -0.6024281 -0.4520541 -3.029481 0.13201597 -0.1890289 0.32144904 -0.0028897524
-0.19082035 0.0853824 -0.75364304 -0.21314976 -0.31407598 0.29172736 -0.16983223 -0.12544324
0.24691553 0.016772032 1.2355394 -0.02618356 0.6583433 -0.06427457 -0.22642697 -0.029244903
-0.77320063 -0.2949166 0.3020238 0.44362465 -0.23500647 -0.056255285 0.38691056 -0.22174619
0.036323447 0.1705621 -0.3198405 -0.60999984 0.23894161 -0.13926603 1.0401769 0.44330728
-0.2146144 -0.11123636 0.19977199 -0.3260175 0.0016127714 -0.17358115 -0.05929511 -0.9368176
-0.50213814 -0.63273036 -0.7995928 -1.0999415 0.19686401 -0.99184334 0.09537542 -0.80989546
-0.51015425 0.57467777 -0.054546192 1.4607892 -2.870736 0.060984835 -0.54644555 -0.73700243

fc1.bias f4 [256]
00000000: 8e9f 5dbf 3bbf 5cbe 794c 8fbe c6ff a6be
00000010: 1d98 e3be 939b 19bf e378 38be b3ce b93d
00000020: 90bf a5be f2d3 84bd 35b4 00bf 53b5 cabe
00000030: 0164 18bf 9fdc a0be de45 8bbe c107 fcbe
00000040: 920f f7be 78a2 59be 2220 32bf 5bf4 efbe
00000050: aa0e d4be 92d6 68bf fd49 e33e c225 edbe
00000060: d59d 2fbf 7a26 08bf 3033 bfbe fc0a 33bf
00000070: d9ec 20bc c4d2 11bf 5b0f 2ebf 3e49 14bf
00000080: 5894 49bf e64e 7c3f 515c 8ebe 8103 a3bf
00000090: dce8 0abf c9ca 4dbf c157 54bf 2b99 5fbf
000000a0: 7240 48be 690b 4fbf 84d7 57be 139b 43bf
000000b0: c2a3 d0be 50bb 203d fb17 6fbf 569c 25bf
000000c0: 08c1 2abf 94a8 2cbf 3ed1 45bf c165 3abe
000000d0: ff49 babe 5c2a 7abf b058 51bf 19b9 6fbe
000000e0: e4db 56be bd86 71bd 47a0 8dbe 991a d1be
000000f0: 93e4 2cbf d9d3 68bf 575c 1bbe 9c23 53be
00000100: 4bab f8be ef1c 3dbf 1b71 4dbf 2c28 1fbf
00000110: b37a 33bf c513 1c3e 6b7d 70bf 9cfa f1be
00000120: 22b4 a1be 03f6 0dbd 8eba 27bf 8e4b 01be
00000130: f712 c3be 1cea 0ebf c2ad 0bbf c48e adbe
00000140: b327 a2be 5572 37be 0ba6 00bf 6c53 8dbe
00000150: 799e 3ebf 9d3d 32bf a58e 04bf 6b5b f7be
00000160: 9ba9 14bf 9bf1 c8be 02a7 cd3f 4ed2 bdbe
00000170: f63b d23d fa00 4abf 73a7 10bf f9e4 d2be
00000180: 9a92 5bbf a569 ce3e 3f7d aabe 4fd6 b3be
00000190: 565e abbe d79d 3dbf f6dc 51bf 66bf 41bd
000001a0: 97a3 e7be f321 efbe e9fb 48bf b3f1 d7be
000001b0: 0f86 02be d581 93bf 3d17 db3c a213 c7bd
000001c0: f8e6 1fbf d743 77be b69e b0be 58f8 d0be
000001d0: 2100 1fbf 019b aabd 47d9 9dbe 05ef 1abf
000001e0: d9c8 433f f529 1fbe 27b3 4cbf 3813 bfbe
000001f0: 1003 c3be 5b52 30bf 036e b83f 1432 5bbf
00000200: 2327 1bbf bcf5 c13e d352 4abe 1d9f 51bf
00000210: 5143 81be d7e4 1abf ec83 bfbe 4c39 dbbd
00000220: 3455 cfbe 1380 9bbe 76e1 893e b5db 36bf
00000230: 26be cfbe 3e89 aabe 8fbe 1abf e88d 5abe
00000240: 1cea 53bf ddef 973e c754 4cbf 0c87 4fbf
00000250: b766 20bd c218 5abf 98ad 10bf aa3b d6be
00000260: 91b4 f4be 2f56 1cbf b3cb e6be e007 4dbf
00000270: 7b67 06bf 55af 35bf c158 79bf 0b6d d53e
00000280: 1627 5a3f 660b 81bf 4cf8 b0be 1c3b 13bf
00000290: 4120 40bf 1a23 71be 4d54 38be edd0 6b3e
000002a0: 134b 323d 9bca 10bf ccd9 4bbf e496 dbbe
000002b0: a689 d9be 7d03 8cbf a37b aebe ffc0 0fbf
000002c0: d829 7bbf 5faf 4a3e b8d1 bfbd 0bbb efbc
000002d0: ad1f 78bd 4fb0 87be fe84 0cbf 2b22 0bbf
000002e0: d60d a33e 4526 05bf 694c 47bf 2ae8 b5be
000002f0: 60d2 6ebf 19be 04bf 3e5b 05bf c872 30bf
00000300: 1146 2d3f 3427 5dbf 7ed5 3cbf 020d 15bf
00000310: b72d f5bd 9c4b db3d a55f 76bf 51d7 88bf
00000320: 4057 3f3e 81e8 4fbf 0c93 23be b1f8 13bf
00000330: 5373 0abf 76b2 bdbe 2c90 0fbf 33d3 adbe
00000340: 2271 0ebf 712a 08bf 5bb8 02bf f8b3 11bf
00000350: 4936 7dbe b1b2 1ebf 1929 79bf a0bb 77bf
00000360: 8eb9 18bf 2207 003c a765 8ebe 65e0 03bf
00000370: 6506 96bd f68b 993e 0246 81be 1067 b6be
00000380: 0eb9 18bf 80be 60bf 16d3 d4be f7f6 65be
00000390: ef1a b33f 63ea 8ebf 96cc 17bf 58c9 3fbf
000003a0: 8289 62bf f762 b83f 5e9e 49be d127 08be
000003b0: ebc3 49bf 551a 31bf d03b 2abe ee61 a13e
000003c0: b527 52bf 9392 253d 8fcc 6fbf d685 75bd
000003d0: ad24 99ba 6a12 78bf a017 27bf 4975 d6be
000003e0: c450 ebbe 549e c23f 056b 46bf aaa2 09bf
000003f0: 67d1 abbe f37f 47bf ee90 b7bd c3e5 fbbe
-0.86571586 -0.21557324 -0.27988032 -0.32617015 -0.4445199 -0.6000301 -0.18014865 0.09072628
-0.32372713 -0.06485738 -0.50274974 -0.39591464 -0.59527594 -0.3141832 -0.27201742 -0.49224666
-0.48254067 -0.21253383 -0.6958028 -0.46866116 -0.41417438 -0.9095241 0.44392386 -0.4631787
-0.6860021 -0.5318371 -0.3734374 -0.69938636 -0.009822094 -0.5696223 -0.6799218 -0.5792426
-0.7874198 0.9855789 -0.27804807 -1.2735444 -0.54261565 -0.8038755 -0.829464 -0.8734309
-0.19555834 -0.80876786 -0.21078306 -0.764085 -0.40749937 0.039241135 -0.93395966 -0.64691675
-0.6670079 -0.6744473 -0.77272403 -0.18202879 -0.3638458 -0.97720885 -0.8177595 -0.23410453
-0.20982319 -0.058966387 -0.27661344 -0.40840605 -0.67536277 -0.90948254 -0.15171944 -0.20619053
-0.48568186 -0.73872274 -0.8025071 -0.6217067 -0.701091 0.15241916 -0.9394137 -0.47261512
-0.31582743 -0.034658443 -0.65519035 -0.12626478 -0.38100407 -0.5582597 -0.5456201 -0.33897984
-0.31670913 -0.17914708 -0.5025336 -0.27602708 -0.7446056 -0.69625264 -0.5178016 -0.48311934
-0.580713 -0.3924683 1.6066592 -0.37074512 0.10265343 -0.7890774 -0.5650551 -0.41190317
-0.8577057 0.40314975 -0.3329868 -0.35124442 -0.3347041 -0.7406897 -0.81977785 -0.047301672
-0.45241997 -0.4670559 -0.78509384 -0.4217659 -0.12746452 -1.1523997 0.02674448 -0.097205415
-0.62461805 -0.24146973 -0.34496087 -0.4081447 -0.6210957 -0.08330346 -0.30829832 -0.60520965
0.76478344 -0.15543349 -0.79960865 -0.3731935 -0.38088274 -0.68875664 1.4408573 -0.8562329
-0.6060659 0.37882793 -0.19758157 -0.8188341 -0.2524667 -0.6050543 -0.37405336 -0.10704288
-0.40494692 -0.3037115 0.26929826 -0.71428996 -0.4057476 -0.33307832 -0.6044702 -0.21343195
-0.827791 0.2967519 -0.7981686 -0.8106544 -0.039160457 -0.8519403 -0.56514883 -0.41842395
-0.4779401 -0.61069006 -0.45077285 -0.8009014 -0.5250165 -0.7097066 -0.9740105 0.41684756
0.8521589 -1.0081604 -0.34564435 -0.5751207 -0.75049216 -0.23548546 -0.18000908 0.23028918
0.043528628 -0.5655915 -0.79629207 -0.42888558 -0.4248783 -1.0938565 -0.34078702 -0.56153864
-0.98110723 0.19793461 -0.093661726 -0.029263994 -0.060577083 -0.265017 -0.5489043 -0.5434901
0.31846493 -0.5201152 -0.7785097 -0.3552869 -0.93289757 -0.51852566 -0.5209235 -0.6892514
0.6768504 -0.86387944 -0.73763263 -0.58222973 -0.1197161 0.10707781 -0.9623969 -1.0690709
0.18685627 -0.8121415 -0.15974063 -0.5780135 -0.5408222 -0.37050217 -0.56079364 -0.33950195
-0.55641377 -0.5318976 -0.51062554 -0.56915236 -0.2472774 -0.6199141 -0.97328335 -0.9677067
-0.59658134 0.007814201 -0.2781193 -0.51514274 -0.073254384 0.29989594 -0.25248724 -0.35625505
-0.5965737 -0.8779068 -0.41567296 -0.22457491 1.3992594 -1.1165279 -0.5929655 -0.749166
-0.8849107 1.4405202 -0.19689319 -0.13296439 -0.7881457 -0.69180804 -0.16624379 0.31520027
-0.8209184 0.040422987 -0.93671507 -0.05994209 -0.0011683904 -0.969031 -0.65270424 -0.41886356
-0.45960057 1.5204568 -0.7750705 -0.5376383 -0.335582 -0.7792961 -0.0896319 -0.49198732

fc2.weight f4 [256, 256]
00000000: 75a7 99bd 0c84 1abb 1576 b9be f2c9 18bf
00000010: 9370 563c c32a 6d3e 500b 34bf d9f8 7d3e
00000020: 7f40 acbd e609 73be 64f6 8fbe b18f aabe
00000030: 5892 bcbe 05ce ff3e 8071 84be a1a2 aa3d
00000040: cd2f 913f f850 e93e 4a88 e83e 08db 5abf
00000050: d1ec 1a3f 75ec bdbe 8fd4 22bf 6d9f cf3e
00000060: 2ccf 863f 7077 a03e 52eb a03e 3ded 4e3f
00000070: addf 91bf 6d10 063f 72b0 313f dc5a f6bd
00000080: 1c4f 953f b7ed 2ebf b8a3 4e3f 01f2 cb3d
00000090: 3ae5 c63e e6bc 3d3e fb46 463e 2490 433f
000000a0: 13a0 173f a560 66bf 182c b83f 1460 0fbe
000000b0: 7ba5 f5bc 5cd6 d53c 6946 33be bea8 873f
000000c0: 748f 6ebd c58e 373e ed5a 9cbe 9952 923f
000000d0: bf55 99be 798d e63d a88d 643f a84b 803e
000000e0: 4cf1 fd3e 0866 433e b156 a3be f48c a2be
000000f0: 180c a8be e9e3 013f 5a71 a8be 9a8a d03e
00000100: 283f 6d3e 7264 b63f 6659 d73e 7c9e ddbe
00000110: 3a11 9c3e ea19 14bf 070f 593c 9680 27be
00000120: 6d26 cabd fe69 283e a4d0 84be 75b0 d2be
00000130: 5152 243f c924 723d bef2 883f 717c 3a3f
00000140: d91f 063f de84 e2be f2ed 0b3f d24c a4bd
00000150: a581 893d ed2e 4d3e f0e8 f4bc e7b6 6d3e
00000160: 0a17 d7bd f81e b7be f338 1abf 1915 543f
00000170: 80c1 2d3e c9fa ca3e 127d 5d3b b49e c7be
00000180: d1a6 143f 37e3 78bf b97d cdbe 4fd4 15be
00000190: 404d a1be 631d 5b3e 542b bf3d 3ceb 4e3e
000001a0: 782d f3bd 84fd 073f 6330 1d3f c22d 5a3f
000001b0: e411 dc3e dba0 033f c23b 8c3e a733 253e
000001c0: fcea 403f be3f 303f cd1f e3bd bfa8 7f3f
000001d0: 6417 dc3c f579 833f d603 29bf 10de 06bf
000001e0: 7647 00bf aef9 e0bd bb8a 5cbe 210d 5a3e
000001f0: e96e a73d 8f94 de3e 4bc0 22bf 8286 d9be
00000200: ece1 bb3e e223 10bf 17a2 323d 6ece 363f
00000210: 7c2e bbbc 4f7b 4dbe 2fda 443e 3174 2bbc
00000220: a8b8 3bbf 2af3 853f 8ab5 b8be ba4a d03c
00000230: 923a 333c 0cee a53f c0ff 223f f592 a9be
00000240: e553 e6bd b518 5fbf 397d ae3d 0eb4 583e
00000250: b28e c03e 4079 ba3d 18ae 043f 1500 1d3e
00000260: 9e6c b1be ea2a 44bf 6c0b 2e3e 67b0 0cbf
00000270: b3b6 32bc 5dd2 613f 626b 6cbf e8e6 24bf
00000280: e025 57bf 2de3 513f 8dff d4bc f350 82be
00000290: 19de c03f b7c5 86bd 6907 093d 8674 ab3c
000002a0: 3e50 d43e 1469 ac3d 0c3f 4e3f 3c79 933e
000002b0: aade f03e fb6e 5a3e 8bd9 8b3d d589 1a3e
000002c0: 84bd c43e 0c57 ec3e 32e2 463c fc87 31be
000002d0: 9a6f 69be df67 963f d8a3 813f e9a8 dbbe
000002e0: 6f9e 14bd 811c ad3e 32b7 1e3e 5c48 043f
000002f0: 599b 893e ef8a 833e 0c92 263f 5ee4 2c3f
00000300: c198 72bf fa8b 33bf dbfc 6d3f 36ca 753f
00000310: e9df 353e 42ad d4be 1132 b43f 3fa6 483f
00000320: 8542 7d3f 0a48 3cbf dc8a 223f f977 77be
00000330: 81a3 bf3e 6150 553f 116f b03e 6a68 7e3f
00000340: 505b 6c3f c30d a13e 38e6 ed3c 0f74 fa3e
00000350: b779 0c3f 13cb 0c3f f800 213e 9692 053f
00000360: 4dde ec3e da92 a73e 9273 c23e 2337 52be
00000370: 66a1 0b3d 969d 9f3e 0db4 013d 71a8 423e
00000380: 04d0 1e3f d210 193e 8ed6 02bd ddef 0b3f
00000390: d038 ebbe 775c 26be 1ef3 813f d8c3 82be
000003a0: 94e1 dd3c 6f6a 00bf 848a 043f c495 843e
000003b0: aafc 373f 3235 95be 9aef 80ba 8af4 15be
000003c0: 9499 8c3e 623a cbbe 874c 0abe c784 e33e
000003d0: 5e7b 4e3f 531d 63be e1be de3d 704a 9e3e
000003e0: cf5b 893e 7110 36bf ef57 03bd 1b61 493f
000003f0: 905b 90be 3c7e 8e3e 93a6 75bf c128 8f3f
-0.07502643 -0.0023577241 -0.36222902 -0.59683144 0.013088363 0.23160844 -0.7032976 0.24801959
-0.08410739 -0.23734245 -0.2811767 -0.33312753 -0.368304 0.49961868 -0.25867844 0.083318
1.1342713 0.45569587 0.4541648 -0.85490465 0.60517603 -0.37094465 -0.6360559 0.4055132
1.0531974 0.31341124 0.31429535 0.80830747 -1.1396385 0.52368814 0.6940986 -0.12029049
1.1664767 -0.68331474 0.80718565 0.09958268 0.3884676 0.1852909 0.19363014 0.76391816
0.5922863 -0.8999122 1.4388456 -0.14001495 -0.029986134 0.026103191 -0.17507328 1.0598371
-0.058242276 0.17925556 -0.3053812 1.1431457 -0.29948232 0.112574525 0.8927865 0.2505772
0.49598157 0.1908189 -0.31902078 -0.31748164 -0.32821727 0.5073839 -0.3289898 0.40730745
0.23168623 1.4249403 0.42060393 -0.43284976 0.30481893 -0.5785204 0.013248212 -0.16357645
-0.098706104 0.16446683 -0.2594043 -0.4115025 0.64188105 0.059117112 1.0699079 0.7284613
0.52392346 -0.44241995 0.5465995 -0.08022465 0.06714181 0.20037432 -0.02989623 0.23214303
-0.10502441 -0.35765815 -0.6024315 0.8284469 0.16968346 0.3964446 0.0033796472 -0.38988268
0.5806704 -0.972217 -0.4013498 -0.1463177 -0.3150425 0.21397929 0.09334436 0.20206922
-0.11873907 0.5312121 0.6140196 0.8522607 0.429824 0.5141732 0.27389342 0.16132985
0.7535856 0.6884726 -0.1109005 0.9986686 0.026866622 1.0271593 -0.6602148 -0.5268259
-0.5010904 -0.109851226 -0.21537296 0.21294071 0.08175451 0.43472716 -0.63574666 -0.42485434
0.36695802 -0.5630475 0.043611612 0.71408737 -0.022849314 -0.2006657 0.19223855 -0.010464714
-0.7332864 1.0464833 -0.36076003 0.025426257 0.010939257 1.2963271 0.63671494 -0.33119932
-0.1124647 -0.87147075 0.08519978 0.21162435 0.37608868 0.09105158 0.51828146 0.15332063
-0.3465318 -0.7662798 0.16996545 -0.5495667 -0.010907817 0.88211614 -0.92351353 -0.64414835
-0.8404217 0.8198727 -0.026000762 -0.25452384 1.5067779 -0.0658068 0.033454333 0.020929586
0.4146747 0.084184796 0.8056495 0.28803432 0.4704488 0.21331398 0.068286024 0.15091641
0.3842584 0.46160161 0.01213889 -0.1733703 -0.22796479 1.1750449 1.0128126 -0.42902306
-0.036283907 0.3381081 0.15499571 0.5167291 0.26876333 0.25691935 0.650666 0.6753596
-0.94764334 -0.7013546 0.9296395 0.96011674 0.17761196 -0.41538435 1.4077779 0.7837867
0.98929626 -0.7354742 0.6349313 -0.2416686 0.3742943 0.83325773 0.34459737 0.99378073
0.9232683 0.31455812 0.02904044 0.4891667 0.5487322 0.54997367 0.15723026 0.521768
0.46263352 0.32729226 0.37978798 -0.20528845 0.03408947 0.31174916 0.03166585 0.19009568
0.62036157 0.14947823 -0.031942897 0.5466288 -0.45941782 -0.1624621 1.0152318 -0.25540042
0.027085103 -0.50162405 0.5177386 0.25895512 0.7186991 -0.29142147 -0.0009837032 -0.14644065
0.2746092 -0.3969298 -0.13505755 0.4443724 0.80656993 -0.22179155 0.10876251 0.30916166
0.26827857 -0.7111884 -0.032066282 0.78663796 -0.28194857 0.27830684 -0.959573 1.1184312

fc2.bias f4 [256]
00000000: 2d0a 54bf 964b a93f 0fd9 87bb 6a96 aabe
00000010: 294a 50bd c0cd 13bc 692b 8fbd 30e1 883e
00000020: e425 4c3f 2572 8b3c 44ee 0fbf de5c 09be
00000030: 6344 0cbd 24eb 123f 9c7c 87bc 0466 7b3e
00000040: a601 c5bd 9b0e 2d3e 7bdd e73d e67c 663e
00000050: 3a07 80bd b277 f7bd 6dbf f6bc 99f3 51bd
00000060: fb6e ebbc 6998 913f 80b0 b8bd 8ab8 15bf
00000070: ac32 7ebd 61e5 093d 70a7 a93f 20f8 1bbd
00000080: 91eb 56be 399b 3abd 33f7 2e3c 1d0c 02bf
00000090: be98 80bd d863 fabc 6b8d c33f bed4 dc3c
000000a0: d1a9 f0bc b1b3 cabc 650b 7cbd 34be cabd
000000b0: 0aab dfbd bc20 893f bf75 dabb 90ed e8be
000000c0: 32f1 e2bd f807 54bd 732b e8be b093 24bc
000000d0: c441 9cbe 82f4 b3be 09cb 35bf 4a39 aa3d
000000e0: 62f0 2abd be34 94bd be85 74be 5f41 2cbf
000000f0: 5d69 8cbe 3563 243f 4464 09bd 5769 9cbd
00000100: ddda 8ebd ad30 16bd cfda b6bc 41ad cabd
00000110: e0c0 813e f588 873e 67fc 333f 2949 a1bc
00000120: 406c a4bb 8a49 d1bd f9e3 0a3d 6886 2a3e
00000130: 87b2 6ebc 5651 4f3e 59eb f5bc a6cc 85bd
00000140: a26b a2bf c36f 85bd 7a78 953f 8ea4 643f
00000150: a9ef 2dbf 345e 11bd ea8c d6bd 0dfc 51bd
00000160: 93e3 853f 1e2d ecbe 395a 35be 194d 8ebe
00000170: 92ce abbc edbf 143f 0bc2 9abc d847 7abd
00000180: a1c1 5cbd d66d afbc 5423 813f a3d5 84bc
00000190: df1d d8bd ef5f d8bc b21b e3bc a9ed 1b3e
000001a0: 17d1 2c3e 9e80 bcbc b441 68bf 2fb5 b0bd
000001b0: a5bb 63bd 799c 9abd b524 97bd 9732 2abc
000001c0: ee1b 90bf f516 dabd a020 97bd 3cbf 4abd
000001d0: bd5a 2ebc c577 963c 2782 9fbd 4883 1f3f
000001e0: ac37 17bd 8eec f63b 488e 59bd 3d28 3a3e
000001f0: 3666 b9bd 3597 e0bc 3e72 c8bd ea29 bfbd
00000200: 2f1e 1a3d b729 cc3d 7c4e d73f 31ce 783e
00000210: fc60 883e c9a4 8fbd 714c c2ba 41b8 11be
00000220: a887 19bf d069 01bd 043a 2ebf b414 febd
00000230: 046e 19bd 3405 de3e 136d 10be 1781 39be
00000240: dba0 e4bd df3c 36bd ddfc b43f 396c cf3d
00000250: bcd7 5a3e 8ded 9dbd 2e49 50bf a963 afbd
00000260: c6e6 b6bd 7ca3 69bc a277 84bd 2643 8fbd
00000270: d6e7 76bc 6197 7ebe f68a dcbd 552c bb3f
00000280: f42d 5abd 4705 94be d4cd 98bd fd6d c83e
00000290: 0dc1 833e d5cc c1bd 47f2 8abe 8415 9ebc
000002a0: 414d fdbd 7884 99bd cae6 893c 5e51 ce3c
000002b0: 31e5 5b3e cd14 67bd 1212 b2bd f093 e6bc
000002c0: d667 45bd 457f 2bbc 2160 083f 3c62 73bf
000002d0: db6e 39bf 930a 01bd 0973 ccbc dd95 c33f
000002e0: 937b 41be a72d 36be baca 2b3e 28d5 9bbd
000002f0: 12a5 3fbf 6aa4 a73b 65b6 90bd 0510 6bbd
00000300: 828f 6fbe a49d 83bd 33bd fdbd e2b0 8cbd
00000310: d26c c73f 6f12 53bd f617 16bc b5f3 783d
00000320: 7bab 05bd dd42 cfbe aacf a4bd 7bfc 3fbf
00000330: 26b8 90bd 4b7b 19be f999 dbbc c90e 9abf
00000340: d25c 6d3b f02b 063e 5207 d7bd 38d6 70bd
00000350: 74ff abbd 052e 63bf d221 65bd 6452 903f
00000360: daaf d4bd 5013 04bc 834b 87be 9452 5dbf
00000370: 24bc c4bd 59d7 8ebd abec 393e e629 8cbd
00000380: 799e fcbb 43e5 81bf 3cff dabd cfee 08bc
00000390: 8926 b1bb 22ea c8be 2173 88bd b110 76bf
000003a0: 68b5 60bd 583b a83f 73f7 81be 01ba 66bf
000003b0: 89f8 c4bd 6d25 07be 490c 263f 53a1 563f
000003c0: 05c1 3f3e 9046 d23c f9c8 c7be 0825 bc3f
000003d0: 58a0 00bd 7b78 dfbc 86d1 7dbc beb6 0bbf
000003e0: 0d8a 97bf 0b0c 29bb 072e a6bd 9565 22bf
000003f0: a62a 8a3b a5a1 18bd 8544 4cbb 1b95 63bd
-0.82828027 1.3226192 -0.0041457484 -0.33317882 -0.050851975 -0.009021223 -0.06990702 0.26734304
0.79745317 0.017022202 -0.5622294 -0.13414332 -0.034244906 0.57390046 -0.01653891 0.24550635
-0.09619455 0.16900103 0.11321541 0.22508582 -0.06251378 -0.12083377 -0.030120576 -0.051257703
-0.028739443 1.1374637 -0.0901804 -0.5848471 -0.062060043 0.03366602 1.3254223 -0.038078427
-0.20988299 -0.045558188 0.010679054 -0.50799733 -0.06279133 -0.030565187 1.5277532 0.026956912
-0.02937785 -0.024743887 -0.061534304 -0.098995596 -0.10921295 1.0713115 -0.0066668685 -0.45493746
-0.110811606 -0.051765412 -0.4534565 -0.010044977 -0.30518925 -0.35147482 -0.7101293 0.08311708
-0.041733153 -0.07236622 -0.23879144 -0.6728725 -0.27424136 0.6421388 -0.033542886 -0.076372795
-0.069753386 -0.036667515 -0.022321133 -0.09896327 0.25342464 0.26471677 0.7030701 -0.019688206
-0.005017787 -0.102191046 0.033908818 0.16652834 -0.014568931 0.20245871 -0.03001945 -0.06533174
-1.2689097 -0.065154575 1.1677392 0.8931359 -0.6794382 -0.03549023 -0.10476096 -0.051265765
1.0460075 -0.46128172 -0.17710198 -0.27793196 -0.020972524 0.58105356 -0.018891355 -0.06110367
-0.053895596 -0.021414679 1.0088906 -0.016215151 -0.105525725 -0.026412932 -0.027723167 0.15227379
0.16876636 -0.023010548 -0.90725255 -0.08628308 -0.055598874 -0.07549376 -0.07380048 -0.010388038
-1.1258523 -0.1064891 -0.073792696 -0.04949878 -0.010641751 0.018367657 -0.077884965 0.62309694
-0.036918327 0.0075355237 -0.053114206 0.18179412 -0.09052698 -0.027415851 -0.09787415 -0.09334166
0.03762644 0.09968894 1.6820827 0.24297406 0.26636493 -0.07013852 -0.0014823807 -0.14230444
-0.5997262 -0.03159505 -0.68057275 -0.124062926 -0.037458435 0.43363345 -0.14104109 -0.1811565
-0.11163493 -0.044491645 1.4139668 0.10128064 0.21371359 -0.07711325 -0.81361663 -0.085639305
-0.08930735 -0.014260169 -0.06468131 -0.069952294 -0.015069922 -0.24862434 -0.10768692 1.4622904
-0.05326648 -0.28910276 -0.074611336 0.39146414 0.25733224 -0.09462897 -0.27137968 -0.019297369
-0.12368251 -0.074959695 0.016833682 0.025185283 0.21474148 -0.05641632 -0.08694853 -0.028146714
-0.04819473 -0.010467355 0.5327168 -0.9507177 -0.7243478 -0.031504225 -0.024957197 1.528011
-0.18894796 -0.17790852 0.16776553 -0.07609016 -0.7486125 0.005116035 -0.07066039 -0.057388324
-0.23394588 -0.06426552 -0.123896025 -0.06869675 1.5580084 -0.05153125 -0.009160986 0.060779292
-0.03263424 -0.404807 -0.08047421 -0.7499463 -0.070663735 -0.14988439 -0.026806818 -1.2035762
0.0036218655 0.13102698 -0.10499443 -0.058798045 -0.08398333 -0.88742095 -0.055940457 1.1275144
-0.103851035 -0.008061245 -0.26424798 -0.8645413 -0.096061975 -0.06974668 0.18156688 -0.06843929
-0.007709321 -1.014809 -0.10693213 -0.008357718 -0.005406205 -0.3924113 -0.06662584 -0.9611922
-0.054860502 1.314311 -0.253841 -0.9012757 -0.09617717 -0.1319787 0.64862496 0.8383991
0.18725975 0.025668412 -0.39020517 1.4698801 -0.031402916 -0.02727913 -0.015491849 -0.5457572
-1.1839005 -0.0025794532 -0.08114248 -0.6343625 0.00421651 -0.03726353 -0.003116877 -0.05556212

fc3.weight f4 [256, 256]
00000000: 227b 883c 8c90 7dbd a07a 25bd efe1 90bd
00000010: 2e40 2d3d 81ed 1d3c a55e 5dbd f6c0 fd3c
00000020: 1503 063d 2e8f 653d a97c 5bbd 1bd8 29bd
00000030: 79b2 993b 0f8f 483d fc3d 853c a6b2 693c
00000040: dc8d 353b 7383 5ebd 2089 c0bc 4d93 3abd
00000050: ee86 7f3d 0b44 9c3c bec8 233c 7ffe 73bd
00000060: 0eb5 1dbd e05a 7f3c b6a2 673d b1f9 b2bd
00000070: f536 4b3d e4d3 a33c a547 d4bd a0d4 483b
00000080: bf5d 27bc 806f 163b e904 3ebc 7cd8 20bd
00000090: e6f5 1dbd c270 c93c 7a5f fcbc 57ce 383d
000000a0: c48b ae3c 2d4b e13c a2c7 3cbd 3482 f73c
000000b0: 57f6 e03c 6887 46bd f216 16bd 124c 61bd
000000c0: 2002 d4bc a610 72bd 7546 43bd 74be 00bb
000000d0: dc22 98b8 fbc2 c9bc a9be c23b bc40 a4bc
000000e0: 6906 b1bc 4632 4e3d 55dc 9fbd 7809 52bd
000000f0: 42dc 22bd 0bd9 86bd 3c98 b33c 1a9c 2bbd
00000100: 3ac1 113d 32f4 23bd de68 debc cfa8 18bd
00000110: 234b 93bd 8501 163d 5d40 2dbb 11f8 4ebd
00000120: 8906 833b 0012 44bc b9cc bebc f082 5abd
00000130: 306e 2dbc 1031 0cbd c3ae 123d 383c 44bd
00000140: dc3d b0bd 3c31 12bd c0ee 0cbd 3c07 333b
00000150: 2d97 a5bd 3d82 17bd 2f90 e53c e4ce 153d
00000160: bcac d2bc f141 503b f34d 42bc d549 3bbd
00000170: 35f1 88bd b6c4 8bbd 4d4d 11bd 4822 77bc
00000180: 4cf7 53bc d191 69bc 48e7 5dbd cf87 97bd
00000190: 5d9a 513d e700 ca3c 341e 003d 497c 7cbd
000001a0: 66dc 92bd 93e3 a13c 416a f3bb 81b3 d6bb
000001b0: c725 a6bd 46eb b03b 26d3 24bc f499 a8bc
000001c0: 99cb c3bd 98a6 92bd 0bc7 673b 48b5 a13c
000001d0: 7317 943c f414 e2bc 0ccf 33bd e026 75bb
000001e0: bc7f 2ebd 771c f2bc 1425 debb 6594 86bd
000001f0: 306f 173d b2eb d13c 36ed 5d3d b8c8 25bc
00000200: 8d68 aa3c f105 6cbd 49e3 2dbc be0e 5abd
00000210: 8947 063d 8310 89bd b8e7 3abc bbbe dbbc
00000220: 44b6 9cbd 94ed f9bc 8029 ab3a e875 8dbc
00000230: 02fe 883c c7ae ed3c 1de9 993c 7d41 13bd
00000240: 8990 213d 47f4 7e3d edf5 62bd c619 33bc
00000250: 90c2 90bd d10c 97bc b296 6fbd fde1 3cbd
00000260: 097e 56bc 6d87 103c 8e21 3abc d8b8 343d
00000270: 867b a33d 48ed 6dbd 3b70 123d 0466 8cbd
00000280: 17b3 c5bb 193c c3bd 4d00 3c3d 249d fcbc
00000290: 7f9e fabb a60b 4fbd 7a16 3fbd beef 3cbd
000002a0: 92a3 e93c 4ee1 f0bc 708d 5dbd ba2c 5dbb
000002b0: f8cc 7a3c 7bb0 263d 16c8 173c cce3 02bd
000002c0: ea75 483d 2d60 ebbc c833 5bbd 329a ddbc
000002d0: 12c7 4dbc 3e9d 55bd e44c 67bc 5e8a 963c
000002e0: 3e0c 2e3d a14b 5dbc a4ae 9ebd 840f c3bc
000002f0: 5e5f 5abc 4b70 443d 31da 14bd 3c69 373d
00000300: 0720 123d 0ec8 2d3c c224 5ebc 79f5 c7bb
00000310: 0373 3bbd a2ac 753b 580c 0c3b bd56 a9bc
00000320: cf8b 85bd 8d07 5ebc 2224 683d c508 aabd
00000330: d8a3 34bc ffa5 d73c 10ad c7bc 19d4 76bd
00000340: c6fe a13c f464 98bc 9383 453d cc2b 20bd
00000350: cdfb 793d 8b7d 8abb ddf2 1c3d 877f 64bd
00000360: 6803 753d 372a 6e3b 42b2 2d3d a471 49bd
00000370: 407f 7e3c 7d67 3fbd e02c f73b 8019 6a3c
00000380: 945e 133d 3a2f 8cbd 4267 693c f8c6 fcbc
00000390: 3d06 6fbd a0c5 373d a8a9 243c 66da 033c
000003a0: 6410 fc3c c267 cabd d02e 7dbc 7519 c73c
000003b0: a2c1 13bc 146b d93b 8c97 debc fc1f 6c3c
000003c0: 68ff 8dbd 1f19 42bd ce43 e2bb cd88 87bd
000003d0: f623 553d f31d ee3c 4b7a 063d afff d73c
000003e0: 5f9d 54bc a091 17bd e413 6b3d 12a8 a7bd
000003f0: c8be 5f3b 879d 1ebd 60e4 45bc 2d13 42bd
0.016660277 -0.06190543 -0.040400147 -0.070743434 0.042297535 0.009639145 -0.05404534 0.0309758
0.032717783 0.05604475 -0.053585682 -0.04146586 0.004690465 0.048964556 0.016264908 0.0142637845
0.0027702963 -0.05432458 -0.023502886 -0.045550633 0.06238454 0.019075414 0.009996591 -0.05956888
-0.038502745 0.015585631 0.056551658 -0.08739031 0.049612958 0.019998498 -0.103652276 0.0030644313
-0.010215222 0.0022954643 -0.01159785 -0.039268956 -0.038564585 0.0245899 -0.030807246 0.045118656
0.02130688 0.027501667 -0.046088822 0.030213453 0.027461214 -0.048468977 -0.036642976 -0.055004187
-0.02587992 -0.05909791 -0.047674615 -0.001964477 -7.254418e-05 -0.024629107 0.0059431386 -0.020050399
-0.021609502 0.050340913 -0.07805697 -0.05127856 -0.039760835 -0.065843664 0.021923177 -0.041896917
0.035584666 -0.040027805 -0.027149614 -0.037270363 -0.071920656 0.036622543 -0.0026436069 -0.050529543
0.003998582 -0.011967182 -0.023290979 -0.053347528 -0.010585353 -0.034226477 0.035811197 -0.04790899
-0.08605549 -0.035691485 -0.034407377 0.0027317544 -0.08085475 -0.03698944 0.028022854 0.03657426
-0.025717132 0.0031777585 -0.011859405 -0.04572471 -0.066866316 -0.06824629 -0.03547411 -0.015083857
-0.012937378 -0.014255957 -0.054175645 -0.0739895 0.051172603 0.024658633 0.031278804 -0.061641965
-0.07170944 0.019761836 -0.007428438 -0.0065521603 -0.08112674 0.0053991405 -0.010060107 -0.020581223
-0.095603175 -0.071606815 0.0035366442 0.019739762 0.018077588 -0.027597882 -0.043898627 -0.0037407205
-0.042602286 -0.029554589 -0.0067793224 -0.06571273 0.03697127 0.025625084 0.0541813 -0.010118656
0.020801807 -0.057622854 -0.010613271 -0.053236715 0.032783065 -0.066926025 -0.011407785 -0.026824346
-0.07651952 -0.030508794 0.0013058633 -0.017268136 0.016722683 0.029014004 0.018787915 -0.035951126
0.03944448 0.06224468 -0.055410314 -0.010931438 -0.0706836 -0.018438729 -0.058493324 -0.046113957
-0.013091573 0.0088213505 -0.011360539 0.044121593 0.079825446 -0.058087617 0.035751563 -0.068553954
-0.006033312 -0.09532947 0.045898724 -0.03083665 -0.0076482887 -0.05054822 -0.046652295 -0.046127073
0.02852038 -0.029404309 -0.054089963 -0.0033748583 0.015307657 0.04069565 0.009264013 -0.031955525
0.048940577 -0.028732384 -0.05351618 -0.027051065 -0.012559669 -0.05215191 -0.014117453 0.018376525
0.042492144 -0.013506801 -0.07748154 -0.02381111 -0.013328401 0.047958653 -0.036340896 0.044778094
0.035675075 0.010606779 -0.013558568 -0.0061022607 -0.04576398 0.003748693 0.0021369662 -0.020671243
-0.06520807 -0.013551605 0.056675084 -0.08302454 -0.0110253915 0.02632427 -0.024374515 -0.060260866
0.019774806 -0.018602826 0.048221182 -0.039104268 0.06103115 -0.0042263917 0.03831755 -0.055785682
0.0598177 0.003634108 0.042406328 -0.04918064 0.015533268 -0.046729553 0.0075431913 0.014288306
0.03597887 -0.06844945 0.01424581 -0.030856594 -0.05835556 0.044866204 0.010050215 0.008047676
0.030769534 -0.098830715 -0.0154530555 0.024304131 -0.009018334 0.006635079 -0.027171873 0.014411923
-0.069334805 -0.04738724 -0.0069050556 -0.066178896 0.05203625 0.029067015 0.03283147 0.026367037
-0.012976973 -0.037004113 0.057392016 -0.08186354 0.0034140814 -0.03872445 -0.012078375 -0.04738157

fc3.bias f4 [256]
00000000: dcb8 adbd 1a79 86bd a043 7c3b 6ed5 ddbd
00000010: 5c49 9bbd f956 b9bd 41c2 63bd 1b0c 05be
00000020: d9b8 21be 0762 32be 8f6d 03be e38a 1dbc
00000030: 8706 abbd ab3a 1abe c1b7 833b 3ed6 38be
00000040: b2d5 dfbc 8d35 47bf 4b17 593e 8c4a 9b3c
00000050: 2abd acbe a088 00be 673e 53be faf6 be3e
00000060: ff55 643d 87fd 23bd 9e89 b8be 6c8a a4bf
00000070: 5b0b a3be c84b 343d d79c b93e ddf7 97bd
00000080: f98a 5cbe 27c5 21be 88c3 963b aa47 0fbe
00000090: d2a3 1a3c 5e71 c5bd f537 b6bd 9008 d8bd
000000a0: 77ab 9ebd 15ff a6bd 9bf4 a7bc f665 2cbe
000000b0: f13e f63c 1f63 2ebe 9329 013e 1285 5dbd
000000c0: a172 aebd f4d4 13bc 9735 f7bd 08b7 2fbd
000000d0: 7749 d1be 00c2 7c3a cc97 d0bd cd2c 4fbe
000000e0: 1da8 58be 198c 0dbd 3de0 0d40 af04 1abe
000000f0: 81af 573f fd90 51bd 8469 dbbd b0c7 9cbc
00000100: 55b3 0abf 2c7b 51bd fc7f f1bc b1cc 1bbe
00000110: 6dca 85bd 4e42 703d a788 dcbd 1eaa 98bd
00000120: 649f d73e 3395 ea3e ebfc 59be a589 84bd
00000130: 05e4 7abd 8fd4 733c 304b 8fbb 74c4 c5bd
00000140: 0144 c0bd 02be babd e69e 223e 3319 27bd
00000150: e47c c0bd bea3 25be c4e3 2abc 6d51 923d
00000160: 0a6f 0cbe 1fe2 17be a53d bbbd f9db 08bd
00000170: 76f6 43bc a5e8 c8bd 4849 62be ae5d 73bd
00000180: 7e33 5dbd a128 4bbe d77a ee3d a862 e4bc
00000190: f5e9 3abd c3d1 cb3d 2ff5 06bc 06eb e4bd
000001a0: f439 86be cca8 7abd 327e 173d bebd fe3d
000001b0: 4719 c0bd 5653 aa3d 0ad0 ccbd 964e c0be
000001c0: 89b7 0f3e 6467 a6bd cf8c 483d 931d 0ebd
000001d0: fb9c e3bd 5072 bbbd b456 7e3d 24ea e9bd
000001e0: 790e 08bd 05b2 09bd f5ce babd 79db 56bd
000001f0: c1ba b6bd 42fb 81be 834d 5abe f338 d73e
00000200: 682e 03bd 16d5 c7bc b67e cc3d c6d4 63ba
00000210: 3cfb bebd 6860 dcbd 61b8 fabd a847 573e
00000220: f8f2 703d e6ed 143e 373d cdbd 3371 48be
00000230: e89a c0bd 3f57 52bc d7d0 1ebd 0b15 eb3d
00000240: 3a17 e4be 09e7 b8bd 364f b53c 8f06 88be
00000250: 9bba d4bd cc9c ad3d 3e8a f53d ec2d 5ebf
00000260: 0648 1dbe 2b11 003c e53e 0c40 7984 e2bd
00000270: a094 80be 5832 e6bd e086 22bd 727a 95bd
00000280: 66b3 ed3e 63f3 9fbe 2037 87bd c7dd 40be
00000290: f985 77be 7ff2 36be b7d6 a1bd d8ba 12be
000002a0: 6718 91bc ffab 10bd 00fe 99bd fa46 ac3e
000002b0: 8e40 0f3e 3026 f1bd 4b8b 9e3e 136b c1bd
000002c0: 7827 1f3e 8f60 e3bd 4e59 3e3e dfd4 38be
000002d0: a6b3 1bbe 0780 05be 2623 1abd 074a bcbc
000002e0: 415c 883f d79b 7f3d c1d7 cbbd a250 3dbd
000002f0: 0243 1cbe f759 b1bd 2ca4 cbbd 8acf 17be
00000300: da5e a7bd f198 34bd f07b 23be ed61 c4bd
00000310: d1e0 fa3f fe30 2bbd 1c9d 3e3c ceef b73d
00000320: ca1d 7e3d 458a d9bd 32ce bbbd b140 193e
00000330: c85f 5a3d 1197 9dbd f45a e8bd 3be9 5ebd
00000340: 7038 04bd d969 5fbe 41ee 99bd 22c9 f73d
00000350: 05c1 0dbd 82fe abbc 3f9c 873f 0978 59bd
00000360: 42ce c9bc 4c19 36bd f8fc 92bd da86 2ebd
00000370: 3952 6e3f 4aea f8be 1ea0 8bbe d650 d8bc
00000380: d610 afbe dfd9 43bd 010c c7bd cd9e b5bd
00000390: 58b6 26bf e790 97bb f070 c2bd bea7 bebd
000003a0: 90b0 ab3c 6e57 453f 2d50 81bd d686 d1bc
000003b0: 8fb3 29bd aacc a83d af04 ccbd db0f 09bd
000003c0: ea51 3bbd 3f4e 46bd 681f 283e afff 89bd
000003d0: 6cde 11be 17ac 8cbd a6e1 833c 766b 793e
000003e0: ea2c fdbd 7279 dbbd a847 2ebe ca46 bb3c
000003f0: 9cf3 56bd d888 18bd 43eb 66bd 9393 82ba
-0.08482525 -0.06566067 0.0038492456 -0.10831724 -0.075823516 -0.09049792 -0.055605177 -0.12992899
-0.1579317 -0.17420207 -0.12834762 -0.009615633 -0.08350854 -0.15061443 0.004019708 -0.18050477
-0.027323578 -0.77816087 0.21200292 0.018956445 -0.3373807 -0.12552118 -0.20629273 0.37297803
0.055746075 -0.040036704 -0.36042494 -1.2854743 -0.318446 0.044017583 0.36252472 -0.07420323
-0.21537389 -0.15797864 0.004600946 -0.13992181 0.009438472 -0.09640764 -0.08897392 -0.10548508
-0.07747548 -0.08154122 -0.02050238 -0.1683577 0.03005931 -0.17029999 0.12613516 -0.054081984
-0.085179575 -0.00902294 -0.12070768 -0.04289916 -0.40876362 0.00096419454 -0.10185203 -0.20231934
-0.2115788 -0.034557436 2.2168114 -0.15040849 0.8425217 -0.051163662 -0.10713485 -0.019138187
-0.5417989 -0.051142856 -0.029479973 -0.15214802 -0.0653275 0.058656983 -0.10768252 -0.07454322
0.42113793 0.45816955 -0.21287887 -0.06471566 -0.061252613 0.014882221 -0.0043729767 -0.09656611
-0.09387971 -0.09118272 0.15880927 -0.040795516 -0.09398821 -0.16175744 -0.01043028 0.07144437
-0.13714233 -0.14832352 -0.09142617 -0.033412907 -0.011960616 -0.098099984 -0.22098267 -0.05941551
-0.054004185 -0.19839717 0.116445236 -0.027879074 -0.045633275 0.09952118 -0.008237167 -0.1117764
-0.2621609 -0.061196133 0.036985584 0.12438534 -0.09379821 0.08316676 -0.10000618 -0.37559956
0.14034857 -0.08125189 0.04896241 -0.034696173 -0.11113926 -0.09152663 0.062094405 -0.11421612
-0.033216927 -0.03361704 -0.09121505 -0.0524554 -0.08922339 -0.25387007 -0.21318631 0.42035636
-0.03202668 -0.0243936 0.09985106 -0.00086910685 -0.09325263 -0.107605755 -0.12242199 0.21023428
0.058825463 0.14543876 -0.100214414 -0.19574432 -0.09404546 -0.012838184 -0.038773384 0.11478623
-0.4454897 -0.090284415 0.022132497 -0.26567504 -0.10387155 0.08477172 0.11989258 -0.8678882
-0.15359506 0.007816593 2.1913388 -0.110604234 -0.25113392 -0.11240071 -0.039679408 -0.07298745
0.46425933 -0.31240377 -0.06602311 -0.18834601 -0.241722 -0.17865942 -0.07902282 -0.14329088
-0.017711831 -0.03532028 -0.0751915 0.336479 0.1398947 -0.11774862 0.30965647 -0.09444251
0.155424 -0.111024015 0.18588755 -0.18049954 -0.15205249 -0.1303712 -0.037631176 -0.022984518
1.0653154 0.06240448 -0.09953261 -0.046219476 -0.15259936 -0.086597376 -0.09943423 -0.14825264
-0.081723884 -0.04409117 -0.15965247 -0.0958899 1.9599859 -0.04179477 0.0116341375 0.08981286
0.062040128 -0.10622076 -0.09170188 0.14966084 0.053314 -0.07694829 -0.11345473 -0.054421645
-0.032280385 -0.21817721 -0.075161465 0.1209891 -0.034607906 -0.020995382 1.0594558 -0.05309299
-0.024634484 -0.04445772 -0.07177156 -0.042609073 0.9309421 -0.48616248 -0.27270597 -0.026405733
-0.34192532 -0.0478152 -0.097190864 -0.088681795 -0.65121984 -0.004625428 -0.09494197 -0.09309338
0.020958215 0.7708653 -0.063141204 -0.02557699 -0.041431006 0.082421616 -0.09961831 -0.033462387
-0.045732416 -0.048414465 0.1641823 -0.06738221 -0.14245003 -0.06868761 0.016098808 0.243574
-0.12362082 -0.10716523 -0.17019522 0.022860903 -0.052478418 -0.03723988 -0.056376707 -0.0009962193

fc4.weight f4 [256, 256]
00000000: 6ada 0b3d 1e11 0bbd fb2e 01bd ba12 693c
00000010: e193 ee3d 2884 b43d 2f8b d63d bca2 7ebc
00000020: df5c 49bd d823 4bbe c7e6 a1bd 896a 85be
00000030: 14f2 c03c 26d3 4b3d cd72 fd3c 6cc3 7dbe
00000040: 1b73 7b3d dee4 65be e02a 81be 71e8 7cbb
00000050: 8b67 9dbd 55b5 9f3c afc6 f33c 9a2a a3bd
00000060: 89f2 c93d 42d6 6c3d 3708 0b3b 4312 73bd
00000070: f433 6d3c 8c57 ab3d 6a0a 4e3e 0511 ab3c
00000080: 4ab1 123d 8e69 553d 8a29 8e3d 8c9d 0f3b
00000090: 597f 8fbd 4ccc 463c f545 833d 2cad 0c3d
000000a0: aa4d 4dbc 2935 173e 7905 16bd 303f dd3d
000000b0: a740 913d 1ab4 06be 6d3f 4f3d 148c b13c
000000c0: 3fd7 a5ba bc27 fe3d e6a4 1ebb 38c9 203d
000000d0: baf7 09bc 2b02 053d b2b3 bf3d f93f 16be
000000e0: 78bb 133d 92ff 8dbc 3859 2abf 2e7b 013d
000000f0: a27f 5cbe acbb 583d 7be2 3e3d 954d 08be
00000100: 9465 713c 7a0e f3bd 40d8 2b3d 7f74 07bd
00000110: 5f8a 423c e4af 913d e5f3 9e3d 494f aabd
00000120: d1df aabd 5b20 893d 8f93 59be 352f 2abd
00000130: c3a4 72bc efba 383e ee0b 36bd 6ae5 393d
00000140: e592 09be 4670 963d fc35 b1bd 045c bcbc
00000150: 3924 f53d d5ab 84bd 95c3 df3d 6c9a 17be
00000160: 0b89 76bc c201 633d d263 1c3d b102 863d
00000170: 6255 8a3d af77 4c3a 867b 38bd d606 893c
00000180: b09f 5d3d 56ee 13bd 1f17 e7bc 0102 73bd
00000190: 5b4c c8bc c4d5 45be 1847 6fbc bfde 1aba
000001a0: b3c2 0ebc b0f9 0abd e5d9 c93d 1115 7c3d
000001b0: da7c de3c 636c 6c3e 9696 dd3c e4c9 0bbc
000001c0: f9be 1ebe 37e5 2d3d 8c39 013e b5f2 d13c
000001d0: 9910 803d e8b4 e2bc eb64 743e 68c6 a3bc
000001e0: d39b 47bd 4294 463c f68d d4bd b0c6 173d
000001f0: eea9 c8bb 5fda a9bc 2e70 d5bd 0456 b8bd
00000200: 9c7a 573c 4027 48bd efbe 823e 7706 ba3c
00000210: d06b 6a3a 87bc d6bb 65b0 0fbc 4583 3cbe
00000220: 9f28 233e 0c68 413e c90a 25bd 485e a3bc
00000230: e8ef 5e3d af99 2c3d aeb2 1ebd 9565 1b3e
00000240: e972 5cbd 7c17 093e 641b 903b 2a1c 14bd
00000250: 8738 94bd f8b1 d23d bfbc a73e af79 f23c
00000260: c1df 26bd e389 b0ba 10ac a13c 3e04 f63c
00000270: bae5 763c fcce 12bd 19e4 a9bc 7a89 0bbd
00000280: 406b 80be 6793 04bd ae2e 13be 4acb 64be
00000290: ae9b 1ebd 548d 08be eaac 52bb d9a5 d93d
000002a0: 9869 58bd 1099 ac3d 92fc 9c3d f45c 1cbe
000002b0: fd29 0f3d ed27 55bd 10c3 8cbd 9c89 86ba
000002c0: ca1d a3bd 24b2 d93c 15c5 83bd 92c0 5ebe
000002d0: 1669 153e 13b2 2dbd 69a4 893d 9f3b b2bc
000002e0: 770c 7abd 7e20 173e fc6a a23d 6801 733c
000002f0: 7799 22bd 39fc 9dbc 04f5 ad3d 0817 8b3d
00000300: 4357 dfbc 095b 5f3d d796 883b e673 3cbd
00000310: 7e93 88be 8f7a 0cbd 771a c9bc f441 8d3d
00000320: 8269 403e 501d 3c3d e189 9a3d 7131 923d
00000330: 7763 673e 89b0 68bd 698c 7fbd f6ca ff3c
00000340: a79a 053d 7092 f93d 34cf a1bc 70f5 ca3d
00000350: b8f1 583b 82b2 85bd b09a a7bd 4313 edbd
00000360: 1944 0f3e d015 d6b9 a111 c2bd 9917 b9bc
00000370: bec0 30bd 62f1 c9bb c004 76be 897c 3abc
00000380: 84c4 2a3d 804c 983d 1b8e 55bc 632b 233c
00000390: e727 0ebf 045e ba3d 6611 cb3c 5cc1 f1bb
000003a0: ddd1 843e 9428 03bd 1914 13be 5ab3 383d
000003b0: 3b14 eebc 9def 793d 5043 4dbd 2a9b 183d
000003c0: b186 a2bc 20a1 093d c3f3 553c 8848 9d3d
000003d0: 024e 9b3c 98da 6f3d 848b a23d c691 ca3c
000003e0: b593 e2bd 7b0d df3c abd6 753c 658b 4a3c
000003f0: 6032 cabc 9385 3e3d c522 833c 2fb6 b43d
0.034143843 -0.03395187 -0.031538945 0.014225656 0.116492994 0.08814269 0.10475766 -0.015541729
-0.049160834 -0.19837892 -0.079053454 -0.26057842 0.023552932 0.049761914 0.03093853 -0.24781579
0.06138907 -0.22450587 -0.25228024 -0.0038590694 -0.07685765 0.019495646 0.029757826 -0.0796711
0.09860713 0.05782152 0.0021214613 -0.059343588 0.014477719 0.083663076 0.2012116 0.020882139
0.035813607 0.052102618 0.06941517 0.0021913974 -0.070067115 0.012133669 0.064098276 0.034344837
-0.012530724 0.14766373 -0.036626313 0.10803068 0.070924096 -0.13154641 0.050597597 0.02167324
-0.0012652649 0.124099225 -0.0024207174 0.039254397 -0.008420879 0.03247277 0.09360446 -0.14672841
0.036067456 -0.01733378 -0.66542387 0.031611614 -0.21533063 0.052913353 0.046602707 -0.13310845
0.014733691 -0.118679956 0.04195428 -0.033070084 0.011873811 0.071136266 0.07761363 -0.08315904
-0.08343471 0.066956244 -0.21247695 -0.041548926 -0.01480979 0.1804006 -0.04444497 0.045384802
-0.13434942 0.07345633 -0.08652875 -0.022993095 0.119697995 -0.06478087 0.10925976 -0.14805001
-0.015047322 0.0554216 0.038181134 0.06543482 0.06754567 0.00077998167 -0.045039676 0.016726892
0.054107368 -0.036115967 -0.028209267 -0.059328083 -0.024450472 -0.19319826 -0.014604352 -0.00059078255
-0.008713412 -0.033929527 0.09856013 0.061543528 0.027159143 0.23088221 0.027049344 -0.008532021
-0.15502538 0.042454924 0.12619609 0.025628427 0.06253166 -0.027674153 0.23866622 -0.019992068
-0.04873259 0.012120308 -0.103786394 0.037054718 -0.006123773 -0.02073401 -0.10421787 -0.09000781
0.013151791 -0.048865557 0.25536296 0.02270816 0.0008942457 -0.006553236 -0.008770083 -0.1840945
0.15933464 0.18887347 -0.04029349 -0.019942418 0.05442801 0.04213875 -0.03874462 0.15175469
-0.053820524 0.13387865 0.0043977965 -0.03615967 -0.07237344 0.10287851 0.3276119 0.029599039
-0.040740732 -0.0013468828 0.019735366 0.03003132 0.0150694195 -0.035841927 -0.020738648 -0.034066655
-0.25081825 -0.032367136 -0.14373276 -0.22343174 -0.038722686 -0.13335162 -0.0032146522 0.10627336
-0.052835077 0.08427632 0.076653615 -0.15269834 0.034952153 -0.05204003 -0.06873143 -0.00102644
-0.07964666 0.026574202 -0.06434075 -0.21753147 0.14590868 -0.042406153 0.06720812 -0.021756945
-0.061047044 0.14758489 0.07930562 0.014831878 -0.039697137 -0.019285308 0.08493999 0.06791502
-0.02726329 0.054530177 0.004168372 -0.046008967 -0.26675028 -0.03429657 -0.024548752 0.06897345
0.18790248 0.045926392 0.075458296 0.071383364 0.22596537 -0.056808982 -0.062389765 0.031224709
0.03261819 0.12186134 -0.019752122 0.09910095 0.003310306 -0.06528188 -0.08183801 -0.115759395
0.13990821 -0.00040833512 -0.09476019 -0.02259426 -0.043152563 -0.0061628083 -0.2402525 -0.011382231
0.04169132 0.07436466 -0.013034369 0.009959075 -0.55529636 0.09099963 0.02478857 -0.0073777866
0.25941363 -0.03202112 -0.14363135 0.045092918 -0.029062381 0.06101953 -0.050113022 0.03725735
-0.019839616 0.033600926 0.013058606 0.0767985 0.018958095 0.058558077 0.07936767 0.024727713
-0.11063329 0.027228108 0.015004794 0.012362336 -0.024682224 0.046514105 0.01600779 0.08823811

fc4.bias f4 [256]
00000000: f54a 273e a480 75be 754b 2dbd 7d81 14be
00000010: f8d7 eebe f2c6 26bf 1a89 f8bd d6dd d8bd
00000020: 133f 3e3e 50df a13d 7515 3fbe d473 f73c
00000030: 8cdb f53d aedf e93d c83e 5f3e 843b 83bd
00000040: e992 2cbe 20a4 dd3d 8888 0bbe 7cb6 48be
00000050: dd14 bcbd ea94 133e 52f9 adbc 5ee6 53bc
00000060: 1e2b 5dbe 6280 fcbd 2b25 353e 28ac 9cbe
00000070: 521b 9dbe 6639 54be b4fb dabe 03e3 66be
00000080: 0a47 52be 1870 e9bd 71b0 c4be 87d8 8b3f
00000090: 2a39 46be b11b a83d e1e2 6e3e 390e 52be
000000a0: 2e4e bdbd f2bf fabd c437 4b3e e455 a1be
000000b0: f605 7ebe 387c b9bd ba5f ee3c 59b1 df3c
000000c0: 61fc 55be d6f3 b5be bf00 1cbe 3cb3 9abd
000000d0: 4527 973d a1b6 71be 99ac 00be 5048 a1bd
000000e0: 5a03 80be 266b 8cbe 1aab e3be 3430 87bd
000000f0: 8aa7 ad3d 15b5 d03d 9f60 573d 6e03 77bd
00000100: d0b9 16be 16a7 3a3d a466 d1be b59f 32bd
00000110: 6bd8 b5be 4800 863c bf88 98be 8868 863f
00000120: 229b 8cbe 26e7 2340 2d6a 6bbe 01db 57be
00000130: 8686 7dbe 7004 b9be 6f19 73be 725e 47be
00000140: 5dc4 e2bd dd55 33be baff 98be 2ea2 18bd
00000150: bf02 80bd 754e 04be 4719 0cbf 3800 67be
00000160: e40d 0d3e 6668 f0bd e528 13be 1427 e23f
00000170: 86e1 0bbf 3394 8abe 381d afbe 6a2a 1ebe
00000180: df4c bebe 30c2 37be 7c5b 45be b028 9dbd
00000190: fe29 2a3c ae22 15bf 609a 6ebd 8803 773f
000001a0: 174d 8bbe d4c7 a8bd 92c0 083e f1c3 a5bd
000001b0: 1c38 43be 3267 47be 7431 d53d ffe4 e7bd
000001c0: 400d 34bd cbf2 09bc 9157 72be 83f7 1c3f
000001d0: 47c9 80be e618 c43b 99dd e1bd 093b 99bd
000001e0: 7dd9 41be 1c06 76be fd89 91bd ed03 88be
000001f0: 44d2 1abe 3c5b 41bb f516 aebc 9a7b 543d
00000200: bb63 c7be edeb f43d ad3f c0be cd26 44be
00000210: b19c 11be b815 8abe f73d 983d 9ccc bdbe
00000220: 1748 883e eab8 a3bd 1fb1 2ebe e0a1 fabd
00000230: 7286 13be 16fa 2740 8e8c 77be 1ee3 3abe
00000240: 1140 0fbe 9475 c8bd 3b16 08be 62db 11be
00000250: 8a33 a4bd 11e4 eabd 7419 0dbe 58bb 8440
00000260: 17f7 e1bd dabe 06bf 1139 cbbe 541c c6be
00000270: eabd 91be 401e 30be 6516 56be c03a 9dbe
00000280: f804 8bbe 72b7 a1be 5042 423e 3009 dc3d
00000290: 8159 493c 8439 39be 837c eabe 960f 58bd
000002a0: 40b4 00bf a975 3cbe 5800 a7bd 8f04 59bc
000002b0: 1866 b73d 1797 89be 3009 6cbe 6953 8dbe
000002c0: 0eb0 e4bd 4bf3 c0bd a732 e3bc dec2 fdbd
000002d0: 37e7 b03d fb48 bcbd cc8c 14be b463 983e
000002e0: cd44 c6bd 4ec8 523e 0821 07be 75b6 47be
000002f0: 2cf6 9dbe 01b6 e5bd c0de 12be 6b28 4d3e
00000300: 1a3b 20be 5ebb 3e3c d702 31be 5178 5ebe
00000310: b385 37be 65b4 bdbd 8826 9dbe 37b5 1dbe
00000320: ea69 9a3f cc41 babe 1135 95be 52d6 04be
00000330: 1e50 89bd ce8d 96bd 5dfa b13d fa4d 983f
00000340: 1657 9a3d 5fd0 bdbe 781b f23d 5dc3 21be
00000350: ba9b 91bd cc78 50be 0693 5cbe dd92 8d3e
00000360: e500 dcbd 0488 cabe e83a 29bf 514b 653d
00000370: 41a9 903e 0fb2 663e ddf0 4bbe dc13 6d3d
00000380: 18f3 4bbe 5f58 f3bd 544b 913f d1dc 11be
00000390: 3c8a 86bd 1a43 393f f954 5fbe 20d4 16bd
000003a0: d2a6 dc3c 55da 40bd 5ef2 8cbe 3aad 8abe
000003b0: 7d9d 1d40 e9de 0cba 4897 0ebe c306 b2bd
000003c0: 2c3e 723d 771a d7bd aa7d 26be c08d f5bd
000003d0: 2ccc 63be 509f 34be a6e1 a6be edcc c6bd
000003e0: 9594 15bd dba7 84be 3717 99be 821f 1ebe
000003f0: 6066 6a3f 0fff dfbd 0a6d 68be 38e0 90bd
0.16337188 -0.23974854 -0.04230829 -0.14502521 -0.46649146 -0.65147316 -0.12135525 -0.10589187
0.18578748 0.079039216 -0.18660529 0.030206598 0.12004766 0.11419617 0.21801293 -0.06407836
-0.16852917 0.1082232 -0.13626301 -0.19600862 -0.09183667 0.14412275 -0.02123705 -0.012933342
-0.21598479 -0.123291746 0.1768996 -0.30600095 -0.30684906 -0.20725021 -0.4277016 -0.22547536
-0.20534912 -0.11398333 -0.38415864 1.0925454 -0.19357744 0.08208407 0.23328735 -0.20513238
-0.09243427 -0.12243642 0.19845492 -0.31510842 -0.24806961 -0.09056896 0.02909838 0.027306246
-0.20897056 -0.35537595 -0.1523466 -0.075537175 0.07380537 -0.23604824 -0.12565841 -0.07875121
-0.25002557 -0.27425498 -0.44466478 -0.06600991 0.08479221 0.10190789 0.05258238 -0.060306005
-0.1471932 0.0455695 -0.4089862 -0.04360934 -0.35516676 0.016357556 -0.2979183 1.050065
-0.27462107 2.5609832 -0.22989722 -0.21079637 -0.24758348 -0.36136198 -0.23740171 -0.19469622
-0.110726096 -0.17513223 -0.29882604 -0.03726404 -0.06250524 -0.12920554 -0.5472607 -0.22558677
0.1377483 -0.117386624 -0.14371069 1.7668176 -0.54640996 -0.27066192 -0.3420198 -0.15445867
-0.37168023 -0.1794517 -0.1927318 -0.07673776 0.010385988 -0.5825604 -0.058252692 0.96489763
-0.27207252 -0.08241239 0.1335471 -0.080940135 -0.19064373 -0.1947296 0.10409823 -0.113229744
-0.04395795 -0.008419703 -0.23666216 0.6131517 -0.25153562 0.0059844134 -0.110285945 -0.07481963
-0.18930621 -0.24025768 -0.07106397 -0.26565495 -0.15119272 -0.0029503843 -0.021251181 0.051875688
-0.38943276 0.11959062 -0.3754858 -0.19155426 -0.1421993 -0.26969695 0.07433694 -0.37070167
0.266175 -0.07994254 -0.17059754 -0.122379065 -0.14406756 2.624639 -0.24174711 -0.18250701
-0.13989283 -0.09788051 -0.1328973 -0.14243844 -0.08017643 -0.114692815 -0.13779241 4.147869
-0.11033457 -0.52634966 -0.39691976 -0.38693488 -0.28465205 -0.1719904 -0.2090698 -0.30708885
-0.27152228 -0.3158527 0.18970609 0.1074394 0.012289406 -0.18088347 -0.4579812 -0.05274924
-0.5027504 -0.18404259 -0.081543624 -0.013245716 0.0895502 -0.26873085 -0.2305038 -0.276027
-0.11166392 -0.094214045 -0.027734114 -0.123906836 0.08637851 -0.091936074 -0.14506835 0.29763567
-0.096810915 0.20584223 -0.13196194 -0.19503196 -0.30851877 -0.11216355 -0.14342785 0.2003495
-0.15647545 0.0116413515 -0.1728624 -0.21725585 -0.17922096 -0.09262923 -0.3069346 -0.15401159
1.2063572 -0.36378324 -0.2914205 -0.12972382 -0.06704734 -0.07351266 0.08690331 1.1898797
0.075361416 -0.37073037 0.118216455 -0.15797181 -0.071097806 -0.2035858 -0.2154046 0.2765111
-0.10742358 -0.39556897 -0.6610551 0.05598003 0.2825413 0.22528861 -0.19916101 0.057880268
-0.19916952 -0.1188209 1.1351113 -0.14244391 -0.06569335 0.72368014 -0.21809758 -0.036823392
0.026935015 -0.047083218 -0.2752866 -0.27085286 2.4627373 -0.00053737924 -0.13924897 -0.08692696
0.059141323 -0.10503095 -0.16258875 -0.11989927 -0.22245854 -0.17638898 -0.3259403 -0.09707055
-0.036518652 -0.25909314 -0.29900524 -0.15441707 0.9156246 -0.109373204 -0.22697845 -0.07074016
