model/DDQN with batchnorm/EX1_Player_model_epoch_1000.pth (torch_old, 854519 bytes, 10 tensors)

fc1.weight f4 [256, 57]
0.48051962 -0.08945296 0.01963589 -0.3371143 0.29604027 0.09742021 0.11454273 0.30168384
-0.29404062 0.11255139 -0.03704522 -0.12822719 0.048929073 -0.022633092 0.6235504 0.06643041
0.37411734 0.2351864 0.06397631 -0.029112736 -0.67100054 1.2895881 -0.1760803 -1.5162097
-1.0703474 -0.07205649 -0.47889072 -0.29917327 -0.083384335 -0.7611521 -0.051630266 0.44078347
-0.1626099 -0.66762245 0.16801573 -0.20080796 -0.68396986 0.37440896 0.05910307 -0.0005616103
0.0069659203 0.055699732 -0.2352878 -0.7281402 -0.012200626 -0.070494875 -0.52089876 0.16755697
-0.4495221 -0.6092456 -0.5312846 0.12742396 -0.5518999 -0.15327923 -0.34938836 -0.68245965
0.21227758 0.12167955 -0.2599368 0.0272106 -0.09509396 0.1937503 -0.21363801 0.22555421
-0.06324788 0.21425852 -0.09203803 0.124918975 -0.08401573 0.2420644 -0.25766775 0.10964188
-0.09025708 0.15705661 -0.10047668 0.14043427 -0.23580092 -0.20434599 0.025652919 -0.3836176
-0.22871669 0.03399518 0.04281707 -0.43024352 0.06643921 -0.022313073 0.30855843 -0.06063138
-0.13076848 -0.04036393 -0.24810916 0.102077276 0.13290814 -0.24713963 -0.09599913 -0.085922
0.050337132 0.027722642 -0.15748504 -0.05447281 -0.17278206 0.072803915 -0.08461217 -0.33072326
-0.16057636 -0.05939273 -0.3971317 -0.18113986 0.03301326 -0.2774996 -0.028313857 -0.017537555
-0.37798956 0.11846508 -0.0032570227 -0.1869027 0.49556896 0.54946965 -0.19661729 -0.4397946
-0.067070186 -0.48426092 -0.5510401 -0.8332695 -0.46379486 -0.9035818 -0.4834402 -0.8597628
-0.04062199 -0.0327146 -0.09764638 0.1325816 -0.08055219 0.12391041 -0.059054572 -0.04092171
0.55162096 0.39698008 -0.25040755 0.1639118 0.097220995 0.2844699 0.1257529 0.22757694
-0.118985586 1.1403894 0.1268673 -0.020921646 0.3651716 -0.064820714 -0.14402081 0.31921345
-0.026866384 0.95021397 0.07160966 -0.68572724 -0.19874364 -0.121360525 -0.023124123 0.114697106
-0.043227922 0.023237994 -0.8978243 -0.13207994 -0.120691694 0.59141827 -0.07788579 0.4932419
-0.13116932 -0.026654905 0.29870024 0.9219785 -0.37320247 0.9279276 -0.5430594 0.78979105
-0.89407194 -0.0066839964 -1.0639024 0.61830527 -0.52589935 0.270192 -0.7976136 0.5073454
-0.25425604 0.06841378 -0.9896972 0.096056506 -2.2256765 -0.17726845 -2.1957097 -0.54013926
0.30435917 -0.11622977 -0.41852957 -2.53655 0.023503646 0.00069027796 0.1617549 -0.0028897524
-0.5509867 0.0853824 -0.80189383 -0.0005554866 -0.119648494 0.049059406 0.042763166 0.068982996
0.0042476347 0.016772032 0.67408115 -0.02618356 0.2869861 0.10459074 -0.031721648 -0.26368195
-0.49241173 -0.10021282 0.12549892 0.61911136 -0.04030188 0.029691681 0.6138984 -0.027040973
-0.1437081 0.25163245 -0.12513426 -0.61720634 -0.048772022 0.15303594 0.008278125 0.03391237
-0.09750179 0.03869364 0.28608444 -0.14548723 0.13627148 -0.2214745 0.049643345 -0.1656592
-0.5055349 -0.28374025 -0.4912099 -0.1731154 0.49710134 0.012826475 -0.03163275 -0.3358621
-0.24981163 0.33774075 0.50896204 1.331567 -2.1717548 -0.27596864 -0.2630921 -0.4309968
00000000: ab06 f63e 1d33 b7bd 72db a03c 3f9a acbe
00000010: 9792 973e 3f84 c73d 6195 ea3d 4e76 9a3e
00000020: 7e8c 96be 5881 e63d bbbc 17bd fd4d 03be
00000030: da69 483d 0969 b9bc 00a1 1f3f ab0c 883d
00000040: 4f8c bf3e b4d4 703e 0306 833d d57d eebc
00000050: b1c6 2bbf 3911 a53f 654e 34be 2913 c2bf
00000060: 2501 89bf 5a92 93bd 2a31 f5be 3d2d 99be
00000070: 68c5 aabd ddda 42bf 427a 53bd 5fae e13e
00000080: 3683 26be 4ee9 2abf 510c 2c3e 9aa0 4dbe
00000090: a618 2fbf 88b2 bf3e 1016 723d 0739 13ba
000000a0: 6042 e43b 6725 643d 49ef 70be 6567 3abf
000000b0: 22e5 47bc 9e5f 90bd 9f59 05bf 0e94 2b3e
000000c0: c327 e6be 85f7 1bbf 4402 08bf 6d7b 023e
000000d0: 5049 0dbf 3bf5 1cbe 08e3 b2be adb5 2ebf
000000e0: 4b5f 593e 2133 f93d 7016 85be c4e8 de3c
000000f0: 9fc0 c2bd 7b66 463e ecc3 5abe aff7 663e
00000100: 1b88 81bd 9666 5b3e 6f7e bcbd 85d5 ff3d
00000110: 7010 acbd bbdf 773e 07ed 83be ec8b e03d
00000120: b4d8 b8bd 73d3 203e b8c6 cdbd 00ce 0f3e
00000130: cc75 71be 1340 51be 1226 d23c 8769 c4be
00000140: b534 6abe 883e 0b3d f460 2f3d e148 dcbe
00000150: 4811 883d e8c9 b6bc 5ffb 9d3e 9c58 78bd
00000160: 2ce8 05be a654 25bd 5410 7ebe e40d d13d
00000170: 1219 083e 2c12 7dbe 319b c4bd e0f7 afbd
00000180: 4f2e 4e3d 981a e33c c243 21be e21e 5fbd
00000190: c8ed 30be 381a 953d 2549 adbd 8f54 a9be
000001a0: 216e 24be cb45 73bd d954 cbbe ba7c 39be
000001b0: ea38 073d 6d14 8ebe 76f2 e7bc ebaa 8fbc
000001c0: d987 c1be d29d f23d c673 55bb 6c63 3fbe
000001d0: 37bb fd3e 0baa 0c3f 0b56 49be c22c e1be
000001e0: 185c 89bd 0cf1 f7be f710 0dbf 2651 55bf
000001f0: 8576 edbe 2351 67bf 7985 f7be 6a19 5cbf
00000200: 3e63 26bd bfff 05bd d3fa c7bd 79c3 073e
00000210: 8cf8 a4bd bec4 fd3d 35e3 71bd 869d 27bd
00000220: 0837 0d3f f940 cb3e 6b35 80be 7fd8 273e
00000230: cd1b c73d 0aa6 913e 5ec5 003e ee09 693e
00000240: b7ae f3bd 48f8 913f 80e9 013e df63 abbc
00000250: c6f7 ba3e b9c0 84bd 317a 13be f26f a33e
00000260: e416 dcbc 3941 733f 16a8 923d d28b 2fbf
00000270: 7483 4bbe de8b f8bd cd6e bdbc 51e6 ea3d
00000280: c30f 31bd 9b5d be3c d0d7 65bf f73f 07be
00000290: 352d f7bd 3067 173f 9682 9fbd 348a fc3e
000002a0: 4051 06be 635b dabc 3def 983e c806 6c3f
000002b0: 6514 bfbe aa8c 6d3f f105 0bbf bf2f 4a3f
000002c0: e6e1 64bf 6d05 dbbb f42d 88bf 4149 1e3f
000002d0: 57a1 06bf 9b56 8a3e 6830 4cbf 63e1 013f
000002e0: d92d 82be 861c 8c3d cc5c 7dbf 46b9 c43d
000002f0: 7c71 0ec0 dc85 35be 8286 0cc0 9146 0abf
00000300: f7d4 9b3e e009 eebd 8249 d6be d656 22c0
00000310: b88a c03c c5f3 343a 14a3 253e 0062 3dbb
00000320: 770d 0dbf f8dc ae3d ea48 4dbf 139e 11ba
00000330: 450a f5bd 84f2 483d 6e28 2f3d f546 8d3d
00000340: be2f 8b3b 8065 893c 9590 2c3f e87e d6bc
00000350: d8ef 923e ab33 d63d 8fee 01bd 5201 87be
00000360: 641d fcbe 613c cdbd ca82 003e 157e 1e3f
00000370: 9613 25bd f83b f33c 7228 1d3f 0885 ddbc
00000380: 3728 13be f8d5 803e 3223 00be 3c01 1ebf
00000390: 2cc5 47bd 74b5 1c3e f9a0 073c b3e7 0a3d
000003a0: 05af c7bd 397d 1e3d a979 923e 9bfa 14be
000003b0: c08a 0b3e 36ca 62be d256 4b3d 91a2 29be
000003c0: bc6a 01bf 6746 91be dd7f fbbe 2a45 31be
000003d0: 1184 fe3e 2326 523c 5891 01bd 1ef6 abbe
000003e0: 9fce 7fbe 5bec ac3e 564b 023f ca70 aa3f
000003f0: 08fe 0ac0 c34b 8dbe 02b4 86be 9dab dcbe

fc1.bias f4 [256]
-0.61886764 -0.21557324 0.014818852 -0.13146505 -0.18598822 -0.309447 -0.19312334 -0.117036834
-0.046569563 -0.18893231 -0.25315568 -0.26893887 -0.064459816 -0.24773681 -0.36437258 -0.06347279
-0.23139603 -0.13884245 -0.23482521 0.0132753635 -0.27991572 -0.15785164 -0.07042284 -0.29974604
-0.24662268 -0.3907692 -0.18252653 -0.14405496 0.15597293 -0.39568278 -0.15713218 -0.07573505
-0.22480758 0.16357997 -0.0309259 -0.47250298 -0.2506231 -0.2860768 -0.36544767 -0.40766084
-0.06999177 -0.45079142 0.16601856 0.13367423 -0.036453735 -0.07801048 -0.48213282 -0.5345904
-0.38773975 -0.426845 -0.2711258 -0.38314593 -0.06919165 -0.49325728 -0.31627634 0.14469013
-0.1064007 0.049130253 -0.14317414 -0.075492986 -0.41589573 -0.45735973 -0.49114394 0.036309157
-0.09162534 -0.2755242 -0.3963729 -0.071616344 -0.2427554 0.07300585 -0.18859307 -0.17388113
-0.32194573 -0.052661378 -0.28141695 0.03584921 0.015136768 -0.23137783 -0.17211613 -0.09996627
0.081574626 0.027061453 -0.16101095 -0.2018065 -0.037913892 -0.22582379 -0.21873777 -0.06868624
-0.14584693 -0.23935467 0.43740582 -0.3006808 -0.291083 -0.21351522 -0.31273198 -0.1388957
-0.16327293 0.22669435 0.060584866 -0.2076788 0.053007178 -0.42862412 -0.3575649 0.053241953
-0.19000752 -0.24772365 -0.10731504 -0.21432634 -0.10681548 -0.37788996 -0.15553235 0.07603451
-0.22740275 0.17191474 -0.14301218 -0.10145151 -0.31413913 0.16509157 -0.21803801 -0.16696064
0.12764733 0.10242967 -0.42760482 -0.09473919 -0.2512826 -0.1861593 0.3736615 -0.23583409
-0.10304027 0.09980597 -0.03292573 -0.2732369 -0.12948905 -0.45160225 -0.19569555 -0.36486048
0.046561666 0.005956969 0.30719778 -0.40004385 0.016960401 -0.23177738 -0.21096744 -0.16058399
-0.26508853 -0.033214465 -0.14786173 -0.35132504 0.13215262 -0.46079382 -0.37725902 -0.12802076
-0.008344697 0.02764254 -0.38061714 -0.33478713 -0.16198343 -0.4701445 -0.39391997 -0.11494361
0.12808107 -0.41979074 -0.047409635 -0.5270474 -0.121641874 -0.23548546 -0.12558194 -0.12681279
0.010609887 -0.3852053 -0.21890093 -0.39684474 -0.30684122 -0.5716241 -0.1847263 -0.44937646
-0.3950644 -0.18442893 -0.09949071 -0.09846763 0.16361322 -0.17023164 -0.2032476 -0.37626716
-0.008608126 0.022852067 -0.099053085 -0.07729106 -0.5094454 -0.21930605 -0.37120637 -0.2902752
0.20631944 -0.40535414 -0.33883315 -0.3737491 0.036024775 0.12973908 -0.39436653 -0.5014617
-0.07905018 -0.308011 0.10090474 -0.09523226 -0.028125705 0.093485236 -0.26747036 0.026660014
-0.0100450935 -0.04259091 -0.31397116 -0.32597333 -0.06784564 -0.24525517 -0.4584193 -0.58313155
-0.18048616 -0.047727887 -0.15711598 -0.09922507 -0.08035201 0.024784965 -0.2378661 -0.31997207
-0.36673635 -0.4055396 0.017263722 -0.22709575 0.34735844 -0.5732148 -0.028080266 -0.18658255
-0.6255583 0.38729241 -0.08482242 -0.098479815 -0.459836 -0.36863083 -0.21315141 0.022855436
-0.037561715 0.015079168 -0.2360048 0.015955213 0.01985394 -0.23977219 -0.35928038 -0.07107115
0.058742132 0.39716882 -0.27853528 -0.083508894 0.0048318496 -0.30763102 -0.24496488 -0.3771934
00000000: 1c6e 1ebf 3bbf 5cbe c5ca 723c c69e 06be
00000010: b273 3ebe d66f 9ebe 20c2 45be 02b1 efbd
00000020: babf 3ebd 7977 41be 9f9d 81be 5bb2 89be
00000030: 8203 84bd b8ae 7dbe 0b8f babe 06fe 81bd
00000040: 15f3 6cbe b72c 0ebe 0576 70be e980 593c
00000050: 1d51 8fbe dca3 21be da39 90bd 5078 99be
00000060: a88a 7cbe e712 c8be 3ce8 3abe 2583 13be
00000070: 5eb7 1f3e ef96 cabe 42e7 20be fa1a 9bbd
00000080: f533 66be 8281 273e 5058 fdbc e9eb f1be
00000090: ac51 80be a978 92be f51b bbbe ecb8 d0be
000000a0: d857 8fbd 22ce e6be c500 2a3e e6e1 083e
000000b0: 8350 15bd f5c3 9fbd 1dda f6be ebda 08bf
000000c0: d385 c6be 6e8b dabe 00d1 8abe b42b c4be
000000d0: 5ab4 8dbd 388c fcbe f9ee a1be a629 143e
000000e0: 9ce8 d9bd ce3c 493d 3e9c 12be 119c 9abd
000000f0: 49f0 d4be 0e2b eabe 3877 fbbe e9b8 143d
00000100: 11a6 bbbd 8211 8dbe 64f1 cabe 97ab 92bd
00000110: df94 78be 1784 953d 8b1e 41be e50d 32be
00000120: 12d6 a4be 75b3 57bd e215 90be 9fd6 123d
00000130: 3500 783c 4fee 6cbe 363f 30be 1ebb ccbd
00000140: 9910 a73d fbaf dd3c 0ee0 24be 5da6 4ebe
00000150: 994b 1bbd 5a3e 67be cbfc 5fbe 5fab 8cbd
00000160: e658 15be 6419 75be a8f3 df3e d5f2 99be
00000170: d508 95be bca3 5abe 681e a0be ad3a 0ebe
00000180: 0531 27be 9022 683e d627 783d c0a9 54be
00000190: 0e1e 593d 9f74 dbbe bf12 b7be 3c14 5a3d
000001a0: 5591 42be 45ab 7dbe fdc7 dbbd 5d78 5bbe
000001b0: 13c2 dabd cb7a c1be df43 1fbe fbb7 9b3d
000001c0: 44dc 68be 6b0a 303e c971 12be cfc5 cfbd
000001d0: d8d6 a0be c40d 293e 5b45 5fbe bbf7 2abe
000001e0: fbb5 023e a6c6 d13d 05ef dabe 9f06 c2bd
000001f0: 1da8 80be 8ba0 3ebe 8f50 bf3e 7e7e 71be
00000200: c706 d3bd 1367 cc3d 21dd 06bd b5e5 8bbe
00000210: c798 04be 6938 e7be 6a64 48be fece babe
00000220: 72b7 3e3d ae32 c33b 0749 9d3e 8cd2 ccbe
00000230: 8af0 8a3c 0d57 6dbe d907 58be 2170 24be
00000240: afb9 87be e40b 08bd 1169 17be e0e0 b3be
00000250: 0453 073e 2bed ebbe 1828 c1be e017 03be
00000260: 32b8 08bc 9c72 e23c 40e0 c2be 3869 abbe
00000270: fcde 25be c8b6 f0be e1af c9be 8e67 ebbd
00000280: af27 033e d0ee d6be 9b30 42bd 94ec 06bf
00000290: 601f f9bd 1a23 71be 8d98 00be 36db 01be
000002a0: 17d5 2d3c a139 c5be 9127 60be 3c2f cbbe
000002b0: 4b1a 9dbe f555 12bf e428 3dbe ac14 e6be
000002c0: e245 cabe f0da 3cbe c9c1 cbbd 66a9 c9bd
000002d0: 398a 273e 3451 2ebe 2420 50be 17a6 c0be
000002e0: 1909 0dbc 4234 bb3c 58dc cabd c64a 9ebd
000002f0: 046b 02bf c491 60be c30e bebe f39e 94be
00000300: 6745 533e 948a cfbe 8a7b adbe 0b5c bfbe
00000310: b78e 133d 52da 043e 69ea c9be cb5f 00bf
00000320: 10e5 a1bd 9eb3 9dbe 25a7 ce3d 2209 c3bd
00000330: e167 e6bc 3075 bf3d e0f1 88be 1a66 da3c
00000340: 2d94 24bc ce73 2ebd d4c0 a0be fae5 a6be
00000350: a8f2 8abd 2c24 7bbe efb5 eabe 1c48 15bf
00000360: 5dd1 38be 517e 43bd 03e3 20be 8336 cbbd
00000370: 988f a4bd d709 cb3c 2c93 73be 61d3 a3be
00000380: dec4 bbbe e3a2 cfbe a66c 8d3c ca8b 68be
00000390: f7d8 b13e 35be 12bf 9608 e6bc 7f0f 3fbe
000003a0: 9724 20bf 314b c63e 60b7 adbd c9af c9bd
000003b0: a06f ebbe 2ebd bcbe 5d44 5abe 533b bb3c
000003c0: 50da 19bd 9d0e 773c 3eab 71be 82b4 823c
000003d0: bba4 a23c d786 75be 99f3 b7be c08d 91bd
000003e0: 979b 703d b659 cb3e 2d9c 8ebe b606 abbd
000003f0: 7e54 9e3b d081 9dbe 13d8 7abe 7e1f c1be

fc2.weight f4 [256, 256]
0.0018507775 -0.0023577241 0.124677524 -0.4647498 0.038966123 0.21348417 -0.7930969 0.06415562
0.2149809 0.18619305 -0.48217347 0.12367066 0.17063746 0.4398258 -0.06920254 0.35130027
1.0943264 0.19455974 0.23147963 -1.1575047 0.38836697 -0.86539173 -0.23339245 0.5602704
1.0380634 0.05535165 0.74721086 0.37616307 -0.6566751 0.60022247 0.84205365 -0.06901055
0.9494131 -0.34816507 0.007766314 0.55642784 0.5184216 0.44063863 -0.11705818 0.85507804
0.36912537 -0.5432568 0.8291585 -0.11785594 0.012902226 0.2178192 -0.27081475 0.8594393
0.22967058 0.36908185 -0.36217603 0.60112447 0.08592881 -0.09771788 0.687159 0.15079647
0.3052176 0.20676573 -0.18708766 -0.1266741 -0.1587289 0.3545208 -0.05815563 -0.14615655
0.010250562 0.9726009 0.24311209 -0.18096237 0.25630003 -0.33113053 0.36972997 0.07331228
-0.023594785 0.33932155 -0.1533513 -0.07008972 0.076378174 -0.028866922 0.52930397 0.123985365
0.19527371 -0.75009245 0.2895869 -0.9055419 -0.45452157 0.19359708 -0.111193456 0.22488119
0.15848127 -0.1712704 -0.17753418 0.32747096 0.5111113 0.96522623 0.11540991 -0.337623
0.49680695 -0.61474705 0.08286156 -0.1330277 -0.1279783 0.24466828 -0.08116309 -0.015680278
0.008255197 0.5261288 0.39790297 0.5802845 0.34204775 1.0492752 0.15840249 -0.3206752
0.87570006 0.06630046 -0.19776344 -0.07143506 0.10888892 0.7716688 -0.22915718 0.19339335
-0.18892364 -0.55180955 -0.08238547 0.3092043 0.08694738 0.36018926 -0.2472575 -0.13904059
0.23551595 -0.10971394 -0.5301292 0.5712565 -0.46659967 -0.26386014 -0.14214416 -0.1316872
-0.34017122 0.31759208 -0.26948616 0.25161222 0.04742778 0.54594386 0.9917262 -0.33543968
0.17012423 -0.58740157 -0.25889814 0.08627421 -0.1482443 -0.0965341 0.52099687 0.5601399
-0.61632234 -0.64865446 0.49944836 -0.5330533 0.12137153 0.16830115 -0.9657361 -0.5465036
-0.35940352 0.8375557 0.06573292 -0.5508812 1.4027109 -0.0658068 0.22934642 0.33033866
0.534447 0.25289255 0.64260423 0.21940047 0.051122718 -0.05188234 0.046091728 0.1047659
0.27803075 0.10691124 0.22245203 0.106917515 0.08916513 0.6647343 1.187182 -0.42313352
-0.37940016 0.3850451 0.04242565 0.7346496 0.44055578 0.28359607 0.46749464 0.2653628
-0.4267969 -0.7627637 0.2920698 0.5510275 0.019684734 0.03625066 0.10087109 0.2588719
0.78003055 -0.38872355 0.4157179 0.07073504 0.34552175 0.66065854 -0.105596475 0.5848438
0.5069985 0.012832491 -0.21364279 0.45505172 0.17699815 0.27214947 0.12250826 0.38985655
0.10873025 0.47249046 0.2814344 0.0785651 0.31481126 0.25942028 0.28768072 0.08644282
0.7692622 0.03952073 0.17939839 0.120227516 -0.04818696 0.07769721 0.65617937 0.28118175
-0.009668385 -0.14092137 0.36608985 0.26190805 0.6906041 -0.90920967 -0.058387715 0.42899692
0.3744001 -0.085661344 -0.056456905 0.31084356 -0.05904559 0.13205215 -0.06877485 0.11432783
0.31934434 -0.3059252 -0.056557037 0.5397992 0.093453616 0.26195437 -0.59294295 0.6108916
00000000: ca95 f23a 0c84 1abb ee56 ff3d b0f3 edbe
00000010: f19a 1f3d 989b 5a3e 6608 4bbf 0664 833d
00000020: f423 5c3e 64a9 3e3e 71df f6be 0b47 fd3d
00000030: 96bb 2e3e d930 e13e 10ba 8dbd a1dd b33e
00000040: e312 8c3f ab3a 473e ff08 6d3e 1d29 94bf
00000050: 09d8 c63e 508a 5dbf 6efe 6ebe e26d 0f3f
00000060: 43df 843f 69b8 623d 3649 3f3f 7298 c03e
00000070: dc1b 28bf 2ea8 193f d490 573f 6755 8dbd
00000080: bd0c 733f b142 b2be 907c fe3b 0e72 0e3f
00000090: 47b7 043f 639b e13e 33bc efbd 65e6 5a3f
000000a0: 00fe bc3e e112 0bbf bb43 543f 745e f1bd
000000b0: dc63 533c ff0b 5f3e 3ba8 8abe 3704 5c3f
000000c0: c42e 6b3e 4cf8 bc3e 236f b9be 4be3 193f
000000d0: 72fb af3d 5020 c8bd a7e9 2f3f 646a 1a3e
000000e0: 7b45 9c3e 65ba 533e e893 3fbe dbb6 01be
000000f0: d489 22be c083 b53e 9934 6ebd 10aa 15be
00000100: f9f1 273c 5ffc 783f 60f2 783e 334e 39be
00000110: c239 833e f189 a9be 3f4d bd3e c024 963d
00000120: da49 c1bc 8ebb ad3e 2008 1dbe 338b 8fbd
00000130: 296c 9c3d 537a ecbc 7780 073f 0aec fd3d
00000140: d5f5 473e 0f06 40bf bc44 943e 98d1 67bf
00000150: 0db7 e8be 503e 463e 65b9 e3bd 4147 663e
00000160: ea48 223e 8261 2fbe 85cb 35be 46aa a73e
00000170: 31d8 023f 1119 773f 085c ec3d ecdc acbe
00000180: 7b5d fe3e 1060 1dbf 52b3 a93d 6a38 08be
00000190: be0c 03be 528a 7a3e d638 a6bd ed73 80bc
000001a0: ce40 073c 61b0 063f f0b9 cb3e 868d 143f
000001b0: e220 af3e a64e 863f 4334 223e 8a2f a4be
000001c0: e12d 603f 89c8 873d 8082 4abe 8b4c 92bd
000001d0: 2701 df3d 168c 453f 2ea8 6abe e808 463e
000001e0: 3375 41be 6443 0dbf b7b9 a8bd 0750 9e3e
000001f0: 7811 b23d ba6a b83e 1231 7dbe a860 0ebe
00000200: 182b 713e b4b1 e0bd 8cb6 07bf de3d 123f
00000210: 27e6 eebe ad18 87be 3d8e 11be 02d9 06be
00000220: ec2a aebe 6e9b a23e 17fa 89be 51d3 803e
00000230: a243 423d fac2 0b3f c5e1 7d3f c0be abbe
00000240: 0c35 2e3e f35f 16bf 4c8e 84be 88b0 b03d
00000250: 5bcd 17be acb3 c5bd 0d60 053f 5465 0f3f
00000260: 4dc7 1dbf 380e 26bf b2b7 ff3e 2e76 08bf
00000270: a391 f83d 2357 2c3e 7b3a 77bf a9e7 0bbf
00000280: bd03 b8be 0d6a 563f fb9e 863d 8d06 0dbf
00000290: 088c b33f b7c5 86bd cad9 6a3e 2622 a93e
000002a0: 85d1 083f 227b 813e b681 243f 84aa 603e
000002b0: 0e66 513d 9482 54bd aeca 3c3d 818f d63d
000002c0: 0c5a 8e3e 48f4 da3d 77ca 633e 92f7 da3d
000002d0: 359c b63d 072c 2a3f 94f5 973f f5a4 d8be
000002e0: bd40 c2be a224 c53e 85c6 2d3d ff11 3c3f
000002f0: 8790 e13e 8133 913e 755b ef3e a2dd 873e
00000300: 2085 dabe 7b44 43bf 2c8a 953e 2310 0d3f
00000310: e141 a13c 927b 143d 8195 ce3d dc8a 843e
00000320: 15b0 473f c606 c7be fad8 d43e 88dd 903d
00000330: 3ae8 b03e eb20 293f f742 d8bd 53b8 153f
00000340: a7ca 013f 5e3f 523c 2dc5 5abe 8afc e83e
00000350: 013f 353e 2d57 8b3e 9ce5 fa3d 479b c73e
00000360: f7ad de3d 45ea f13e 2b18 903e bde6 a03d
00000370: f12e a13e bcd2 843e e34a 933e ef08 b13d
00000380: 5eee 443f 7de0 213d 36b4 373e d839 f63d
00000390: b15f 45bd b71f 9f3d 5ffb 273f 0ef7 8f3e
000003a0: 2568 1ebc b14d 10be 2170 bb3e d018 863e
000003b0: 6ecb 303f f7c1 68bf f527 6fbd 7ca5 db3e
000003c0: 5fb1 bf3e 376f afbd 5b3f 67bd e326 9f3e
000003d0: cad9 71bd ae38 073e d4d9 8cbd b624 ea3d
000003e0: 1a81 a33e 3aa2 9cbe 5aa8 67bd 4830 0a3f
000003f0: 9c64 bf3d e21e 863e 1ccb 17bf 6463 1c3f

fc2.bias f4 [256]
-0.35653794 0.54514265 -0.0041457484 0.15245298 -0.050851975 -0.009021223 -0.06990702 -0.09864857
0.2458753 0.017022202 -0.28418425 -0.13414332 -0.034244906 0.39148277 -0.01653891 0.24550635
-0.09619455 0.32579908 0.11321541 0.24247226 -0.06251378 -0.057588104 -0.030120576 -0.051257703
0.10875776 0.5859238 -0.0901804 -0.35035205 -0.0035317955 0.03366602 0.4437519 -0.038078427
-0.14636186 -0.045558188 0.010679054 -0.21100488 -0.06279133 0.0013386203 0.60520715 0.026956912
-0.02937785 -0.023115896 -0.42186186 -0.098995596 -0.10921295 0.13321383 -0.0066668685 -0.1578852
-0.110811606 -0.051765412 -0.27247554 -0.010044977 -0.25537962 -0.15439427 -0.49892214 -0.005977497
-0.041733153 -0.07236622 -0.23879144 -0.53507185 -0.2784855 -0.014399836 -0.033542886 -0.076372795
-0.069753386 -0.036667515 0.041210473 -0.09896327 0.02192794 0.29211983 0.40658584 0.031801526
-0.005017787 -0.11212559 0.033908818 0.11336717 -0.014568931 0.20245871 -0.03001945 -0.06533174
-0.4782922 -0.065154575 0.3518934 0.5290398 -0.36327899 -0.03549023 -0.10476096 -0.051265765
0.37851053 -0.3589898 -0.12029727 0.08605518 -0.020972524 -0.01949356 -0.018891355 -0.08376657
-0.053895596 -0.021414679 0.42115927 -0.016215151 -0.105525725 -0.026412932 -0.027723167 0.10226123
0.16876636 -0.023010548 -0.5868335 -0.08628308 -0.22638537 -0.07549376 -0.07380048 -0.010388038
-0.5855462 -0.1064891 -0.073792696 -0.04949878 -0.010641751 0.018367657 -0.077884965 0.06919543
-0.036918327 0.0075355237 -0.053114206 0.1952797 -0.38002983 -0.027415851 -0.09787415 -0.09334166
0.031609125 0.022182921 0.5065197 0.14983605 0.26636493 -0.07013852 -0.0014823807 -0.041155487
-0.5958051 -0.03159505 -0.10408954 -0.124062926 -0.037458435 -0.006816807 -0.22137758 -0.1811565
-0.11163493 -0.044491645 0.4514915 0.043663427 0.18870616 -0.07711325 -0.358623 -0.078195214
-0.08930735 -0.014260169 -0.06468131 -0.069952294 -0.015069922 -0.19829215 -0.075921156 0.40080166
-0.05326648 0.09607053 -0.074611336 0.015575199 0.09012882 -0.09462897 -0.26164877 -0.019297369
-0.15011188 -0.074959695 0.016833682 0.025185283 0.21474148 -0.05641632 -0.05518609 -0.028146714
-0.04819473 -0.010467355 0.052600868 -0.24638107 -0.33402818 -0.031504225 -0.024957197 0.56318945
-0.18894796 -0.14614268 0.16776553 -0.07609016 -0.31813756 0.005116035 0.056400955 -0.057388324
0.22336265 -0.06426552 -0.123896025 -0.06869675 0.45896518 -0.05153125 -0.009160986 0.09254507
-0.03263424 -0.22426485 -0.08047421 -0.6038171 -0.070663735 -0.0018364151 -0.026806818 -0.6214175
0.0036218655 0.26444733 -0.10499443 -0.058798045 -0.08398333 -0.42757463 0.009472799 0.37663034
0.004647581 -0.008061245 0.012433631 -0.4663718 -0.096061975 -0.06974668 0.16315058 -0.06843929
-0.007709321 -0.4168097 -0.10693213 -0.008357718 -0.005406205 -0.23607688 0.13255952 -0.34668362
-0.054860502 0.4730259 -0.253841 -0.44498795 -0.09617717 -0.1319787 0.31256956 -0.17254189
0.21902543 0.022784607 -0.23101187 0.66610104 -0.036447063 -0.02727913 -0.015491849 -0.30157366
-0.69003195 -0.0025794532 -0.08114248 -0.21631472 0.00421651 -0.03726353 -0.003116877 -0.05556212
00000000: 248c b6be 788e 0b3f 0fd9 87bb a21c 1c3e
00000010: 294a 50bd c0cd 13bc 692b 8fbd 4308 cabd
00000020: bcc6 7b3e 2572 8b3c 9980 91be de5c 09be
00000030: 6344 0cbd 6e70 c83e 9c7c 87bc 0466 7b3e
00000040: a601 c5bd 23cf a63e 7bdd e73d a64a 783e
00000050: 3a07 80bd 81e1 6bbd 6dbf f6bc 99f3 51bd
00000060: 63bc de3d 1aff 153f 80b0 b8bd 5861 b3be
00000070: b275 67bb 61e5 093d 7333 e33e 20f8 1bbd
00000080: e2df 15be 399b 3abd 33f7 2e3c aa11 58be
00000090: be98 80bd a574 af3a dbee 1a3f bed4 dc3c
000000a0: d1a9 f0bc 8c5d bdbc 47fe d7be 34be cabd
000000b0: 0aab dfbd 3569 083e bf75 dabb a8ac 21be
000000c0: 32f1 e2bd f807 54bd ea81 8bbe b093 24bc
000000d0: 1ec1 82be 8819 1ebe b972 ffbe e1de c3bb
000000e0: 62f0 2abd be34 94bd be85 74be 78fa 08bf
000000f0: a795 8ebe 4aed 6bbc 4464 09bd 5769 9cbd
00000100: ddda 8ebd ad30 16bd 50cc 283d 41ad cabd
00000110: 39a2 b33c bb90 953e 052c d03e 5142 023d
00000120: 406c a4bb 1aa2 e5bd f9e3 0a3d 0c2d e83d
00000130: 87b2 6ebc 5651 4f3e 59eb f5bc a6cc 85bd
00000140: b7e2 f4be c36f 85bd 5f2b b43e 276f 073f
00000150: b4ff b9be 345e 11bd ea8c d6bd 0dfc 51bd
00000160: 22cc c13e 83cd b7be 6a5e f6bd b33d b03d
00000170: 92ce abbc f5b0 9fbc 0bc2 9abc cf8d abbd
00000180: a1c1 5cbd d66d afbc 30a2 d73e a3d5 84bc
00000190: df1d d8bd ef5f d8bc b21b e3bc 566e d13d
000001a0: 17d1 2c3e 9e80 bcbc b83a 16bf 2fb5 b0bd
000001b0: 91d1 67be 799c 9abd b524 97bd 9732 2abc
000001c0: 5be6 15bf f516 dabd a020 97bd 3cbf 4abd
000001d0: bd5a 2ebc c577 963c 2782 9fbd 55b6 8d3d
000001e0: ac37 17bd 8eec f63b 488e 59bd 67f7 473e
000001f0: 4593 c2be 3597 e0bc 3e72 c8bd ea29 bfbd
00000200: 9278 013d f5b8 b53c 46ab 013f 9f6e 193e
00000210: fc60 883e c9a4 8fbd 714c c2ba a892 28bd
00000220: af86 18bf d069 01bd e62c d5bd b414 febd
00000230: 046e 19bd 865f dfbb ceb0 62be 1781 39be
00000240: dba0 e4bd df3c 36bd e529 e73e 6cd8 323d
00000250: 303c 413e 8ded 9dbd 6f9d b7be d024 a0bd
00000260: c6e6 b6bd 7ca3 69bc a277 84bd 2643 8fbd
00000270: d6e7 76bc 190d 4bbe 8d7c 9bbd e035 cd3e
00000280: f42d 5abd a0c0 c43d d4cd 98bd 1f2f 7f3c
00000290: 7595 b83d d5cc c1bd d4f6 85be 8415 9ebc
000002a0: eeb6 19be 7884 99bd cae6 893c 5e51 ce3c
000002b0: 31e5 5b3e cd14 67bd cf0a 62bd f093 e6bc
000002c0: d667 45bd 457f 2bbc 0274 573d 524b 7cbe
000002d0: be05 abbe 930a 01bd 0973 ccbc 2f2d 103f
000002e0: 937b 41be 6da6 15be baca 2b3e 28d5 9bbd
000002f0: ede2 a2be 6aa4 a73b b004 673d 0510 6bbd
00000300: 2eb9 643e a49d 83bd 33bd fdbd e2b0 8cbd
00000310: 7cfd ea3e 6f12 53bd f617 16bc 4588 bd3d
00000320: 7bab 05bd afa5 65be aacf a4bd c293 1abf
00000330: 26b8 90bd deb3 f0ba f999 dbbc 3815 1fbf
00000340: d25c 6d3b a465 873e 5207 d7bd 38d6 70bd
00000350: 74ff abbd 10eb dabe cc33 1b3c b1d5 c03e
00000360: bc4a 983b 5013 04bc 6eb6 4b3c 49c8 eebe
00000370: 24bc c4bd 59d7 8ebd f210 273e e629 8cbd
00000380: 799e fcbb 1568 d5be 3cff dabd cfee 08bc
00000390: 8926 b1bb 23be 71be afbd 073e 8480 b1be
000003a0: 68b5 60bd 7330 f23e 73f7 81be 76d5 e3be
000003b0: 89f8 c4bd 6d25 07be 1e09 a03e d2ae 30be
000003c0: 3448 603e c9a6 ba3c 608e 6cbe 9985 2a3f
000003d0: 8449 15bd 7b78 dfbc 86d1 7dbc dd67 9abe
000003e0: efa5 30bf 0b0c 29bb 072e a6bd 9b81 5dbe
000003f0: a62a 8a3b a5a1 18bd 8544 4cbb 1b95 63bd

fc3.weight f4 [256, 256]
0.016661154 -0.06190543 -0.040400147 -0.070743434 0.042297535 0.009639145 -0.05404534 0.0309758
0.032717783 0.05604475 -0.053585682 -0.04146586 0.004690465 0.048964556 0.016264908 0.0142637845
0.0027702963 -0.05432458 -0.023502886 -0.045550633 0.06238454 0.019075414 0.009996591 -0.05956888
-0.038502745 0.015585631 0.056551658 -0.08738944 0.049612958 0.019998498 -0.103651404 0.0030644313
-0.010215222 0.0022954643 -0.01159785 -0.039268088 -0.038564585 0.0245899 -0.030806368 0.045118656
0.02130688 0.027501667 -0.046088822 0.030213453 0.027461214 -0.048468977 -0.036642976 -0.05500332
-0.02587992 -0.05909791 -0.047674615 -0.001964477 -7.254418e-05 -0.024629107 0.0059440243 -0.020050399
-0.021609502 0.050340913 -0.07805697 -0.051277693 -0.039760835 -0.065843664 0.021923177 -0.041896917
0.035584666 -0.040027805 -0.027149614 -0.037270363 -0.071920656 0.036622543 -0.0026436069 -0.050529543
0.003998582 -0.011967182 -0.023290979 -0.053347528 -0.010585353 -0.034226477 0.035811197 -0.04790899
-0.086054616 -0.035691485 -0.03440651 0.0027317544 -0.08085475 -0.03698944 0.028022854 0.03657426
-0.025717132 0.0031777585 -0.011859405 -0.04572471 -0.066866316 -0.06824629 -0.03547411 -0.015083857
-0.012937378 -0.014255957 -0.054174777 -0.0739895 0.051172603 0.024658633 0.031278804 -0.061641965
-0.07170944 0.019761836 -0.0074275522 -0.0065521603 -0.08112587 0.0053991405 -0.010060107 -0.020581223
-0.095602304 -0.071606815 0.0035366442 0.019739762 0.018077588 -0.027597882 -0.043898627 -0.0037407205
-0.042602286 -0.029554589 -0.0067793224 -0.065711856 0.03697127 0.025625084 0.0541813 -0.010118656
0.020801807 -0.057622854 -0.010612385 -0.053236715 0.032783065 -0.066926025 -0.011407785 -0.026824346
-0.07651865 -0.030508794 0.0013058633 -0.017268136 0.016722683 0.029014004 0.018787915 -0.035951126
0.03944448 0.06224468 -0.055410314 -0.010931438 -0.0706836 -0.018438729 -0.058492456 -0.046113957
-0.013091573 0.0088213505 -0.011360539 0.044121593 0.079825446 -0.058087617 0.035751563 -0.06855308
-0.006033312 -0.09532947 0.045898724 -0.030835772 -0.0076482887 -0.05054822 -0.046652295 -0.046127073
0.02852038 -0.029404309 -0.054089963 -0.0033748583 0.015307657 0.04069565 0.009264013 -0.031955525
0.048940577 -0.028732384 -0.05351531 -0.027050188 -0.012558783 -0.05215191 -0.014117453 0.018376525
0.042492144 -0.013506801 -0.07748154 -0.02381111 -0.013327516 0.047958653 -0.036340896 0.044778094
0.035675075 0.010606779 -0.013558568 -0.0061022607 -0.04576398 0.003748693 0.0021369662 -0.020671243
-0.06520807 -0.013551605 0.056675084 -0.08302367 -0.0110253915 0.026325148 -0.024374515 -0.060259998
0.019774806 -0.018602826 0.048221182 -0.039104268 0.06103115 -0.004225506 0.03831755 -0.055785682
0.0598177 0.003634108 0.042406328 -0.049179774 0.015533268 -0.046729553 0.0075431913 0.014288306
0.03597887 -0.06844945 0.01424581 -0.030856594 -0.05835556 0.044866204 0.010051099 0.008047676
0.030769534 -0.09882984 -0.0154530555 0.024305008 -0.009018334 0.006635079 -0.027171873 0.014412808
-0.069334805 -0.04738724 -0.0069050556 -0.066178896 0.05203625 0.029067015 0.03283147 0.026367914
-0.012976088 -0.037004113 0.057392016 -0.08186354 0.0034140814 -0.03872445 -0.012078375 -0.04738157
00000000: f97c 883c 8c90 7dbd a07a 25bd efe1 90bd
00000010: 2e40 2d3d 81ed 1d3c a55e 5dbd f6c0 fd3c
00000020: 1503 063d 2e8f 653d a97c 5bbd 1bd8 29bd
00000030: 79b2 993b 0f8f 483d fc3d 853c a6b2 693c
00000040: dc8d 353b 7383 5ebd 2089 c0bc 4d93 3abd
00000050: ee86 7f3d 0b44 9c3c bec8 233c 7ffe 73bd
00000060: 0eb5 1dbd e05a 7f3c b6a2 673d 3cf9 b2bd
00000070: f536 4b3d e4d3 a33c 3047 d4bd a0d4 483b
00000080: bf5d 27bc 806f 163b e904 3ebc 93d7 20bd
00000090: e6f5 1dbd c270 c93c a35d fcbc 57ce 383d
000000a0: c48b ae3c 2d4b e13c a2c7 3cbd 3482 f73c
000000b0: 57f6 e03c 6887 46bd f216 16bd 294b 61bd
000000c0: 2002 d4bc a610 72bd 7546 43bd 74be 00bb
000000d0: dc22 98b8 fbc2 c9bc 17c6 c23b bc40 a4bc
000000e0: 6906 b1bc 4632 4e3d 55dc 9fbd 8f08 52bd
000000f0: 42dc 22bd 0bd9 86bd 3c98 b33c 1a9c 2bbd
00000100: 3ac1 113d 32f4 23bd de68 debc cfa8 18bd
00000110: 234b 93bd 8501 163d 5d40 2dbb 11f8 4ebd
00000120: 8906 833b 0012 44bc b9cc bebc f082 5abd
00000130: 306e 2dbc 1031 0cbd c3ae 123d 383c 44bd
00000140: 673d b0bd 3c31 12bd d7ed 0cbd 3c07 333b
00000150: 2d97 a5bd 3d82 17bd 2f90 e53c e4ce 153d
00000160: bcac d2bc f141 503b f34d 42bc d549 3bbd
00000170: 35f1 88bd b6c4 8bbd 4d4d 11bd 4822 77bc
00000180: 4cf7 53bc d191 69bc 5fe6 5dbd cf87 97bd
00000190: 5d9a 513d e700 ca3c 341e 003d 497c 7cbd
000001a0: 66dc 92bd 93e3 a13c d362 f3bb 81b3 d6bb
000001b0: 5225 a6bd 46eb b03b 26d3 24bc f499 a8bc
000001c0: 24cb c3bd 98a6 92bd 0bc7 673b 48b5 a13c
000001d0: 7317 943c f414 e2bc 0ccf 33bd e026 75bb
000001e0: bc7f 2ebd 771c f2bc 1425 debb f093 86bd
000001f0: 306f 173d b2eb d13c 36ed 5d3d b8c8 25bc
00000200: 8d68 aa3c f105 6cbd 92df 2dbc be0e 5abd
00000210: 8947 063d 8310 89bd b8e7 3abc bbbe dbbc
00000220: cfb5 9cbd 94ed f9bc 8029 ab3a e875 8dbc
00000230: 02fe 883c c7ae ed3c 1de9 993c 7d41 13bd
00000240: 8990 213d 47f4 7e3d edf5 62bd c619 33bc
00000250: 90c2 90bd d10c 97bc c995 6fbd fde1 3cbd
00000260: 097e 56bc 6d87 103c 8e21 3abc d8b8 343d
00000270: 867b a33d 48ed 6dbd 3b70 123d 8f65 8cbd
00000280: 17b3 c5bb 193c c3bd 4d00 3c3d 4d9b fcbc
00000290: 7f9e fabb a60b 4fbd 7a16 3fbd beef 3cbd
000002a0: 92a3 e93c 4ee1 f0bc 708d 5dbd ba2c 5dbb
000002b0: f8cc 7a3c 7bb0 263d 16c8 173c cce3 02bd
000002c0: ea75 483d 2d60 ebbc df32 5bbd 5b98 ddbc
000002d0: 5bc3 4dbc 3e9d 55bd e44c 67bc 5e8a 963c
000002e0: 3e0c 2e3d a14b 5dbc a4ae 9ebd 840f c3bc
000002f0: a75b 5abc 4b70 443d 31da 14bd 3c69 373d
00000300: 0720 123d 0ec8 2d3c c224 5ebc 79f5 c7bb
00000310: 0373 3bbd a2ac 753b 580c 0c3b bd56 a9bc
00000320: cf8b 85bd 8d07 5ebc 2224 683d 5008 aabd
00000330: d8a3 34bc d6a7 d73c 10ad c7bc 30d3 76bd
00000340: c6fe a13c f464 98bc 9383 453d cc2b 20bd
00000350: cdfb 793d 1d76 8abb ddf2 1c3d 877f 64bd
00000360: 6803 753d 372a 6e3b 42b2 2d3d bb70 49bd
00000370: 407f 7e3c 7d67 3fbd e02c f73b 8019 6a3c
00000380: 945e 133d 3a2f 8cbd 4267 693c f8c6 fcbc
00000390: 3d06 6fbd a0c5 373d 5dad 243c 66da 033c
000003a0: 6410 fc3c 4d67 cabd d02e 7dbc 4c1b c73c
000003b0: a2c1 13bc 146b d93b 8c97 debc b323 6c3c
000003c0: 68ff 8dbd 1f19 42bd ce43 e2bb cd88 87bd
000003d0: f623 553d f31d ee3c 4b7a 063d 8601 d83c
000003e0: a899 54bc a091 17bd e413 6b3d 12a8 a7bd
000003f0: c8be 5f3b 879d 1ebd 60e4 45bc 2d13 42bd

fc3.bias f4 [256]
-0.084824376 -0.06566067 0.0038492456 -0.10831724 -0.0146995615 -0.09049792 -0.055605177 -0.09816323
-0.1579317 -0.055138346 -0.12834762 -0.014611769 -0.08350854 0.015380564 0.004019708 0.42263055
-0.027323578 -0.3049894 -0.019281978 0.018956445 -0.034728613 -0.12552118 -0.18432835 0.134213
0.055746075 -0.008286652 -0.01659697 0.16448611 -0.090625435 0.044017583 0.20295113 -0.042437572
0.034177784 -0.15797864 0.004600946 -0.13992181 0.009438472 -0.09640764 -0.08897392 -0.10379029
-0.07747548 -0.04977699 -0.02050238 -0.0050725103 0.045486085 -0.1385343 0.23106699 -0.054081984
-0.047249667 0.021763155 -0.08894445 -0.04289916 -0.19430363 0.00096419454 -0.10185203 -0.12699841
-0.2115788 -0.034557436 0.95691746 0.008172261 0.6681907 -0.043705888 -0.07536982 -0.24811612
-0.0004439431 -0.04358083 0.0017282398 -0.15214802 -0.0653275 0.26408 -0.10498776 -0.07454322
0.30739492 -0.0012400914 0.11790453 -0.06471566 -0.061252613 0.014882221 -0.0043729767 -0.09656611
-0.09387971 -0.09118272 0.116657145 -0.02531306 -0.062224016 -0.12999259 0.021335479 -0.16406205
-0.13714233 -0.14832352 -0.09142617 -0.033412907 0.023131182 -0.098099984 0.031790454 -0.05941551
-0.054004185 -0.19839717 0.116445236 0.0038710055 -0.008777934 0.10371701 0.0024006981 -0.1117764
-0.23245314 -0.029439956 0.036985584 0.12438534 -0.06204266 0.08316676 -0.08877159 -0.059690088
0.6323508 -0.0975405 0.04896241 -0.034696173 -0.11113926 -0.09152663 0.062094405 -0.081470974
-0.033216927 -0.05721678 -0.09121505 -0.037493248 -0.057458006 0.007820612 -0.05935812 0.17679884
-0.021326277 -0.1416323 0.09985106 -0.00086910685 -0.09325263 -0.107605755 -0.12242199 0.24200012
0.116360195 0.14543876 -0.100214414 -0.2195424 -0.070816614 -0.012838184 -0.07438003 0.11478623
-0.10365467 -0.090284415 0.022132497 -0.06011392 -0.10387155 0.08477172 0.11989258 0.027273104
-0.15359506 0.007816593 0.8470415 -0.110604234 -0.25113392 -0.08066398 -0.039679408 -0.04125887
0.57446116 -0.031472467 0.041434705 0.016182963 -0.121571496 -0.17865942 -0.047257196 -0.14329088
-0.017711831 -0.03560308 -0.0751915 0.11456951 0.034157723 -0.11774862 0.24872625 -0.09444251
-0.29641703 -0.08153979 0.15245497 -0.08944309 -0.15205249 0.18986823 0.0027444996 -0.022984518
-0.023154464 0.06240448 -0.09953261 -0.013558232 -0.15259936 -0.09593857 -0.09943423 -0.11651196
-0.041671246 -0.04409117 0.038351487 -0.0958899 0.7630216 -0.016280742 0.0116341375 0.08981286
0.062040128 -0.10622076 -0.09170188 0.14966084 0.053314 -0.07694829 -0.11345473 -0.054421645
-0.02838302 -0.0766665 -0.075161465 0.14566506 -0.034607906 -9.492124e-05 -0.13493277 -0.004360318
-0.024634484 -0.04445772 -0.06285656 -0.042609073 0.03046419 -0.25368038 -0.0070435265 -0.12833102
-0.34192532 -0.0478152 -0.05777908 -0.08853898 -0.09567567 -0.01355037 -0.07494035 -0.061329186
0.13786829 0.04133819 -0.063141204 -0.02557699 -0.041431006 0.067286596 -0.09961831 -0.033462387
-0.016836442 -0.016649097 0.24027607 -0.06738221 -0.11068438 -0.06868761 0.016098808 -0.009678334
-0.00064639864 -0.10716523 -0.13860181 0.022860903 -0.052478418 -0.03723988 -0.03877281 -0.0009962193
00000000: 67b8 adbd 1a79 86bd a043 7c3b 6ed5 ddbd
00000010: 6ed6 70bc f956 b9bd 41c2 63bd ce09 c9bd
00000020: d9b8 21be bfd8 61bd 8f6d 03be 3366 6fbc
00000030: 8706 abbd c3fe 7b3c c1b7 833b 0863 d83e
00000040: b2d5 dfbc 9227 9cbe 3df5 9dbc 8c4a 9b3c
00000050: 973f 0ebd a088 00be 92c0 3cbe 226f 093e
00000060: ff55 643d bdc4 07bc 5ef6 87bc 0c6f 283e
00000070: d499 b9bd c84b 343d 6cd2 4f3e 05d3 2dbd
00000080: 01fe 0b3d 27c5 21be 88c3 963b aa47 0fbe
00000090: d2a3 1a3c 5e71 c5bd f537 b6bd 0190 d4bd
000000a0: 77ab 9ebd f5e2 4bbd 9bf4 a7bc 4d37 a6bb
000000b0: 9e4f 3a3d efdb 0dbe d39c 6c3e 1285 5dbd
000000c0: de88 41bd a548 b23c 8228 b6bd 08b7 2fbd
000000d0: 88f7 46be 00c2 7c3a cc97 d0bd df0b 02be
000000e0: 1da8 58be 198c 0dbd 8bf8 743f f2e4 053c
000000f0: 8c0e 2b3f f204 33bd 7e5b 9abd 2712 7ebe
00000100: 09c1 e8b9 d081 32bd 1b86 e23a b1cc 1bbe
00000110: 6dca 85bd 7e35 873e d303 d7bd 1eaa 98bd
00000120: de62 9d3e 908a a2ba ee77 f13d a589 84bd
00000130: 05e4 7abd 8fd4 733c 304b 8fbb 74c4 c5bd
00000140: 0144 c0bd 02be babd f1e9 ee3d 565d cfbc
00000150: 9cde 7ebd c71c 05be bec7 ae3c e2ff 27be
00000160: 0a6f 0cbe 1fe2 17be a53d bbbd f9db 08bd
00000170: 9b7d bd3c a5e8 c8bd b536 023d ae5d 73bd
00000180: 7e33 5dbd a128 4bbe d77a ee3d b2b0 7d3b
00000190: 53d1 0fbc 9569 d43d 0855 1d3b 06eb e4bd
000001a0: 3208 6ebe 102c f1bc 327e 173d bebd fe3d
000001b0: 7220 7ebd 5653 aa3d e1cd b5bd 987d 74bd
000001c0: bee1 213f 50c3 c7bd cf8c 483d 931d 0ebd
000001d0: fb9c e3bd 5072 bbbd b456 7e3d 41da a6bd
000001e0: 790e 08bd 245c 6abd f5ce babd 8592 19bd
000001f0: 1659 6bbd 0622 003c 8021 73bd c10a 353e
00000200: 72b4 aebc 0f08 11be b67e cc3d c6d4 63ba
00000210: 3cfb bebd 6860 dcbd 61b8 fabd e1ce 773e
00000220: 414e ee3d e6ed 143e 373d cdbd b9cf 60be
00000230: 4d08 91bd 3f57 52bc 8f54 98bd 0b15 eb3d
00000240: e648 d4bd 09e7 b8bd 364f b53c 043a 76bd
00000250: 9bba d4bd cc9c ad3d 3e8a f53d d86b df3c
00000260: 0648 1dbe 2b11 003c b6d7 583f 7984 e2bd
00000270: a094 80be 2833 a5bd e086 22bd 10ff 28bd
00000280: e30f 133f 46e9 00bd 70b7 293d 2292 843c
00000290: 7afa f8bd 7ff2 36be c390 41bd d8ba 12be
000002a0: 6718 91bc 89d4 11bd 00fe 99bd 6ba3 ea3d
000002b0: f8e8 0b3d 3026 f1bd 18b2 7e3e 136b c1bd
000002c0: f9c3 97be 55fe a6bd 281d 1c3e f02d b7bd
000002d0: a6b3 1bbe d16c 423e 10dd 333b 074a bcbc
000002e0: 6eae bdbc d79b 7f3d c1d7 cbbd 5923 5ebc
000002f0: 0243 1cbe 717b c4bd 2ca4 cbbd d39d eebd
00000300: 78af 2abd f198 34bd 7316 1d3d ed61 c4bd
00000310: 6255 433f 315f 85bc 1c9d 3e3c ceef b73d
00000320: ca1d 7e3d 458a d9bd 32ce bbbd b140 193e
00000330: c85f 5a3d 1197 9dbd f45a e8bd 3be9 5ebd
00000340: 8283 e8bc 5303 9dbd 41ee 99bd 3929 153e
00000350: 05c1 0dbd 7410 c7b8 d12b 0abe 00e1 8ebb
00000360: 42ce c9bc 4c19 36bd f1ba 80bd da86 2ebd
00000370: 0990 f93c 65e2 81be 62cd e6bb 3569 03be
00000380: d610 afbe dfd9 43bd c2a9 6cbd ed53 b5bd
00000390: 9bf1 c3bd 5f02 5ebc 547a 99bd 5034 7bbd
000003a0: 582d 0d3e 3c52 293d 2d50 81bd d686 d1bc
000003b0: 8fb3 29bd 8ecd 893d af04 ccbd db0f 09bd
000003c0: 94ec 89bc b063 88bc ee0a 763e afff 89bd
000003d0: 7eae e2bd 17ac 8cbd a6e1 833c e091 1ebc
000003e0: 1473 29ba 7279 dbbd a2ed 0dbe ca46 bb3c
000003f0: 9cf3 56bd d888 18bd 3dd0 1ebd 9393 82ba

fc4.weight f4 [256, 256]
0.034143843 -0.03395187 -0.031538945 0.014225656 0.14825879 0.08814269 0.10475766 -0.015541729
-0.049160834 -0.19837892 -0.079053454 -0.063033655 0.023552932 0.049761914 0.03093853 -0.15234447
0.06138907 -0.098186195 -0.19379695 -0.0038590694 0.07513825 0.019495646 0.029757826 0.026272777
0.09860713 0.05782152 -0.013361267 -0.04299044 -0.007769965 0.083663076 0.2012116 0.020882139
0.091418214 0.052102618 0.06941517 0.0021913974 -0.070067115 0.012133669 0.064098276 0.034344837
-0.012530724 0.14766373 -0.036626313 0.12698136 0.070924096 -0.13154641 0.014400022 0.02167324
-0.0012652649 0.124099225 -0.0024207174 0.039254397 -0.008583292 0.03247277 0.09360446 -0.0603264
0.036067456 -0.01733378 -0.5510701 0.08479696 -0.14989994 0.052913353 0.046602707 -0.16256632
0.01897391 -0.118679956 0.04195428 -0.033070084 0.011873811 0.05349101 0.07761363 -0.08315904
-0.07320276 0.09094658 -0.12649503 -0.041548926 -0.01480979 0.1804006 -0.04444497 0.045384802
-0.13434942 0.07345633 0.060195338 -0.022993095 0.119697995 -0.06478087 0.10925976 -0.13516183
-0.015047322 0.0554216 0.038181134 0.06543482 0.06754567 0.00077998167 0.08525619 0.016726892
0.054107368 -0.036115967 -0.028209267 -0.059328083 -0.024450472 -0.06704933 -0.014604352 -0.00059078255
-0.008713412 -0.033929527 0.09856013 0.061543528 0.027159143 0.23088221 0.027049344 -0.008532021
-0.13677156 0.042454924 0.12619609 0.025628427 0.06253166 -0.027674153 0.23866622 -0.019992068
-0.04873259 0.012120308 -0.103786394 0.037054718 -0.006123773 0.008010895 0.07546126 -0.10658009
0.013151791 -0.043752808 0.25536296 0.02270816 0.0008942457 -0.006553236 -0.008770083 -0.1840945
0.15933464 0.18887347 -0.04029349 -0.019942418 0.05442801 0.04213875 -0.015725855 0.15175469
-0.022054719 0.13387865 0.0043977965 -0.03615967 -0.07237344 0.10287851 0.3276119 0.059474353
-0.040740732 -0.0013468828 0.026456626 0.03003132 0.0150694195 -0.035841927 -0.020738648 -0.034066655
-0.25081825 0.019439816 -0.05866623 -0.0312833 -0.038722686 -0.13335162 -0.0032146522 0.10627336
-0.052835077 0.08427632 0.076653615 -0.08466939 0.08800753 -0.05204003 -0.06873143 -0.00102644
0.0031149355 0.026574202 -0.012688533 -0.21753147 0.14590868 0.03501346 0.06720812 -0.021756945
0.03736895 0.14758489 0.07930562 0.014831878 -0.039697137 -0.019285308 0.08493999 0.06791502
-0.02726329 0.054530177 0.052933913 -0.046008967 -0.32169458 -0.03429657 -0.024548752 0.06897345
0.18790248 0.045926392 0.075458296 0.071383364 0.22596537 -0.056808982 -0.062389765 0.031224709
0.03261819 0.11178979 -0.019752122 0.09910095 0.003310306 -0.06528188 -0.05422626 0.048842203
0.13990821 -0.00040833512 0.030299615 -0.02259426 -0.034351207 0.025886439 -0.17572998 -0.011382231
0.04169132 0.07436466 -0.013034369 0.009959075 -0.36849254 0.09099963 0.02478857 -0.0073777866
0.24191415 0.0016420652 -0.14363135 0.045092918 -0.029062381 0.08058992 -0.050113022 0.03725735
-0.019839616 0.033600926 0.013058606 0.0767985 0.018958095 0.058558077 0.07936767 0.048655666
-0.1137232 0.027228108 0.015004794 0.012362336 -0.024682224 0.046514105 0.01600779 0.08823811
00000000: 6ada 0b3d 1e11 0bbd fb2e 01bd ba12 693c
00000010: 27d1 173e 2884 b43d 2f8b d63d bca2 7ebc
00000020: df5c 49bd d823 4bbe c7e6 a1bd ca17 81bd
00000030: 14f2 c03c 26d3 4b3d cd72 fd3c 3000 1cbe
00000040: 1b73 7b3d d815 c9bd b572 46be 71e8 7cbb
00000050: 15e2 993d 55b5 9f3c afc6 f33c 023a d73c
00000060: 89f2 c93d 42d6 6c3d 37e9 5abc be16 30bd
00000070: 319b febb 8c57 ab3d 6a0a 4e3e 0511 ab3c
00000080: 7939 bb3d 8e69 553d 8a29 8e3d 8c9d 0f3b
00000090: 597f 8fbd 4ccc 463c f545 833d 2cad 0c3d
000000a0: aa4d 4dbc 2935 173e 7905 16bd 6707 023e
000000b0: a740 913d 1ab4 06be 12ee 6b3c 148c b13c
000000c0: 3fd7 a5ba bc27 fe3d e6a4 1ebb 38c9 203d
000000d0: f0a0 0cbc 2b02 053d b2b3 bf3d d118 77bd
000000e0: 78bb 133d 92ff 8dbc ee12 0dbf 07aa ad3d
000000f0: 5f7f 19be acbb 583d 7be2 3e3d c977 26be
00000100: 2c6f 9b3c 7a0e f3bd 40d8 2b3d 7f74 07bd
00000110: 5f8a 423c 6419 5b3d e5f3 9e3d 494f aabd
00000120: 54eb 95bd 3342 ba3d ea87 01be 352f 2abd
00000130: c3a4 72bc efba 383e ee0b 36bd 6ae5 393d
00000140: e592 09be 4670 963d 638f 763d 045c bcbc
00000150: 3924 f53d d5ab 84bd 95c3 df3d dd67 0abe
00000160: 0b89 76bc c201 633d d263 1c3d b102 863d
00000170: 6255 8a3d af77 4c3a cc9a ae3d d606 893c
00000180: b09f 5d3d 56ee 13bd 1f17 e7bc 0102 73bd
00000190: 5b4c c8bc 2951 89bd 1847 6fbc bfde 1aba
000001a0: b3c2 0ebc b0f9 0abd e5d9 c93d 1115 7c3d
000001b0: da7c de3c 636c 6c3e 9696 dd3c e4c9 0bbc
000001c0: d80d 0cbe 37e5 2d3d 8c39 013e b5f2 d13c
000001d0: 9910 803d e8b4 e2bc eb64 743e 68c6 a3bc
000001e0: d39b 47bd 4294 463c f68d d4bd b0c6 173d
000001f0: eea9 c8bb 2140 033c 6f8b 9a3d aa46 dabd
00000200: 9c7a 573c 2536 33bd efbe 823e 7706 ba3c
00000210: d06b 6a3a 87bc d6bb 65b0 0fbc 4583 3cbe
00000220: 9f28 233e 0c68 413e c90a 25bd 485e a3bc
00000230: e8ef 5e3d af99 2c3d 82d3 80bc 9565 1b3e
00000240: 19ac b4bc 7c17 093e 641b 903b 2a1c 14bd
00000250: 8738 94bd f8b1 d23d bfbc a73e 619b 733d
00000260: c1df 26bd e389 b0ba 91bb d83c 3e04 f63c
00000270: bae5 763c fcce 12bd 19e4 a9bc 7a89 0bbd
00000280: 406b 80be 4040 9f3c 004c 70bd eb22 00bd
00000290: ae9b 1ebd 548d 08be eaac 52bb d9a5 d93d
000002a0: 9869 58bd 1099 ac3d 92fc 9c3d 2567 adbd
000002b0: 4b3d b43d ed27 55bd 10c3 8cbd 9c89 86ba
000002c0: f223 4c3b 24b2 d93c 91e3 4fbc 92c0 5ebe
000002d0: 1669 153e 466a 0f3d 69a4 893d 9f3b b2bc
000002e0: 2f10 193d 7e20 173e fc6a a23d 6801 733c
000002f0: 7799 22bd 39fc 9dbc 04f5 ad3d 0817 8b3d
00000300: 4357 dfbc 095b 5f3d 3bd1 583d e673 3cbd
00000310: 27b5 a4be 8f7a 0cbd 771a c9bc f441 8d3d
00000320: 8269 403e 501d 3c3d e189 9a3d 7131 923d
00000330: 7763 673e 89b0 68bd 698c 7fbd f6ca ff3c
00000340: a79a 053d 0cf2 e43d 34cf a1bc 70f5 ca3d
00000350: b8f1 583b 82b2 85bd 5b1c 5ebd c30e 483d
00000360: 1944 0f3e d015 d6b9 e636 f83c 9917 b9bc
00000370: dab3 0cbd cc0f d43c 8ff2 33be 897c 3abc
00000380: 84c4 2a3d 804c 983d 1b8e 55bc 632b 233c
00000390: 0eab bcbe 045e ba3d 6611 cb3c 5cc1 f1bb
000003a0: 58b8 773e 913a d73a 1914 13be 5ab3 383d
000003b0: 3b14 eebc 540c a53d 5043 4dbd 2a9b 183d
000003c0: b186 a2bc 20a1 093d c3f3 553c 8848 9d3d
000003d0: 024e 9b3c 98da 6f3d 848b a23d 2a4b 473d
000003e0: b6e7 e8bd 7b0d df3c abd6 753c 658b 4a3c
000003f0: 6032 cabc 9385 3e3d c522 833c 2fb6 b43d

fc4.bias f4 [256]
0.20222323 -0.20716488 -0.07911552 -0.11326027 -0.3788059 -0.4453897 -0.088480495 -0.04236038
0.18578748 0.104552045 -0.123076856 0.071635194 0.1387175 0.18189842 0.24351402 -0.032312635
-0.10505647 0.23319823 -0.11500913 -0.16424304 0.0034452626 0.16246939 0.010528322 0.068204306
-0.21598479 -0.21086912 0.20851415 -0.26288357 -0.13786487 -0.1754858 -0.18516506 -0.1322744
-0.110236816 -0.12726742 0.23778802 0.8752408 -0.16181357 0.15127243 0.20233244 -0.17336655
-0.032742836 -0.10575704 0.19845492 -0.26743066 -0.1599133 -0.07025982 0.06499816 0.09083448
-0.20897056 0.09180478 -0.13928737 -0.09177263 0.093508035 -0.1931016 -0.12565841 -0.015222677
-0.02080326 -0.18299885 -0.29250488 -0.16240509 -0.13984208 0.15966645 0.05258238 0.28237844
-0.08366274 0.20738068 0.1204993 -0.1416843 -0.30513275 -0.2542179 -0.20392448 0.43988135
-0.2110952 1.2341938 -0.22216257 -0.1579892 -0.015320959 -0.24353305 -0.015328461 -0.16293232
-0.07896125 -0.09194574 -0.17550224 0.07152848 0.06347375 -0.079589054 -0.48777622 -0.108940385
0.18498003 -0.085620895 -0.14068606 1.3948346 -0.47479767 -0.21448395 -0.3169766 0.05139389
-0.05866783 -0.14768586 -0.15854704 -0.085976206 0.0738908 -0.5576816 0.03259922 0.108560756
-0.19171289 -0.07122225 0.14356582 0.12004646 -0.10099537 -0.16980156 0.19423324 -0.017932508
-0.04395795 0.054581888 -0.23666216 0.044942796 -0.19848563 0.043241594 -0.008379979 -0.08886877
-0.036854558 -0.17672725 -0.065863416 -0.21877854 -0.15119272 -0.0037224907 0.010513483 0.051875688
-0.28795925 0.1667556 -0.2792765 -0.12803195 -0.11488395 -0.07124239 0.07433694 -0.05238881
0.23570687 0.04711911 -0.10709808 -0.11326601 -0.08054401 1.3289796 -0.2099423 -0.11898215
-0.14332743 -0.088907816 -0.13613541 -0.11067528 -0.034683578 -0.08885243 -0.0900817 2.3650322
-0.07857038 -0.41240704 -0.4149672 -0.26733112 -0.22112088 -0.119069494 0.14772736 -0.13874866
-0.1698788 -0.3158527 0.276908 0.14492863 -0.04140094 -0.14914541 -0.3602356 0.09341927
-0.060029246 -0.120513014 -0.15055314 -0.12777482 0.28364825 -0.19407399 -0.2305038 -0.035773773
-0.079901725 -0.062464118 -0.13867766 -0.22991095 0.081679285 -0.081527226 -0.14506835 0.29763567
-0.021551358 0.20584223 -0.100196205 -0.1594415 -0.17785001 -0.1255871 -0.0821063 0.21191622
-0.12206857 0.0116413515 -0.14109682 -0.18549426 -0.17922096 -0.012468143 -0.3238012 -0.15401159
0.38524428 -0.29650176 -0.19625078 -0.0661924 -0.059445504 -0.1679656 0.08394555 1.0213695
0.11917808 -0.34191447 0.19367729 -0.12620673 -0.071097806 -0.1945615 -0.1456629 -0.09960552
-0.12950103 -0.39653403 -0.43480068 0.15093572 0.57640475 0.19985242 -0.118181445 0.15333031
-0.19916952 -0.08705889 0.9435317 -0.012225969 -0.06569335 0.23301321 -0.06278221 -0.036823392
0.1691847 -0.048956815 -0.071646914 -0.20301938 0.764562 -0.16375962 -0.07571925 -0.09422594
0.13756779 -0.073265545 -0.013863368 -0.11667213 -0.15892716 -0.16321993 -0.16395685 -0.071513996
-0.036518652 -0.15611255 -0.23567343 -0.15441707 0.5067318 -0.040452305 -0.15954836 0.02455607
00000000: 9b13 4f3e 0823 54be 5107 a2bd 00f5 e7bd
00000010: d9f2 c1be 1e0a e4be 4335 b5bd 1482 2dbd
00000020: 133f 3e3e 621f d63d b80f fcbd 79b5 923d
00000030: f60b 0e3e 9443 3a3e bd5b 793e 415a 04bd
00000040: d927 d7bd 84cb 6e3e e889 ebbd 542f 28be
00000050: eac9 613b 605e 263e fc7e 2c3c b3ae 8b3d
00000060: 1e2b 5dbe 13ee 57be bc84 553e ad98 86be
00000070: 732c 0dbe 8db2 33be e99b 3dbe f172 07be
00000080: d7c3 e1bd 6452 02be b47e 733e c80f 603f
00000090: 75b2 25be 29e7 1a3e 3c30 4f3e 0087 31be
000000a0: 5a1d 06bd 2697 d8bd c437 4b3e acec 88be
000000b0: 50c0 23be 61e4 8fbd c11d 853d 6e07 ba3d
000000c0: 61fc 55be 2504 bc3d 59a1 0ebe 4af3 bbbd
000000d0: 2481 bf3d 6dbc 45be 99ac 00be 8968 79bc
000000e0: 996b aabc 0d64 3bbe 33c3 95be 854d 26be
000000f0: c332 0fbe 9a7f 233e 9f60 573d e893 903e
00000100: 5f57 abbd 9a5b 543e 56c8 f63d b015 11be
00000110: 5c3a 9cbe d928 82be 94d1 50be 2138 e13e
00000120: 5729 58be 10fa 9d3f 967e 63be ecc7 21be
00000130: c204 7bbc ba60 79be 3a24 7bbc bbd7 26be
00000140: 70b6 a1bd 0c4e bcbd dcb6 33be 867d 923d
00000150: 87fe 813d 96ff a2bd cebd f9be 231c dfbd
00000160: 686b 3d3e 025a afbd 0210 10be f189 b23f
00000170: ae18 f3be aea1 5bbe c24a a2be 6682 523d
00000180: ae4d 70bd f63a 17be 285a 22be 4b14 b0bd
00000190: 0f54 973d 39c4 0ebf c286 053d 1a55 de3d
000001a0: 6250 44be f9dc 91bd eb02 133e ebda f53d
000001b0: a9d6 cebd 76e0 2dbe 14e5 463e 32e7 92bc
000001c0: 400d 34bd 4291 5f3d 9157 72be f015 383d
000001d0: d13f 4bbe 191e 313d 2e4c 09bc d400 b6bd
000001e0: cef4 16bd fdf7 34be 66e3 86bd 7b07 60be
000001f0: 44d2 1abe 08f5 73bb be40 2c3c 9a7b 543d
00000200: 656f 93be fbc1 2a3e 54fd 8ebe cf1a 03be
00000210: 4748 ebbd 88e7 91bd f73d 983d a695 56bd
00000220: 245d 713e f8ff 403d 3d56 dbbd 03f8 e7bd
00000230: 42f4 a4bd 011c aa3f 1dfb 56be eaac f3bd
00000240: 6dc4 12be 4d15 b6bd 1567 0bbe b9a9 e2bd
00000250: 5e10 0ebd 43f8 b5bd c17c b8bd b05c 1740
00000260: 82e9 a0bd 0427 d3be 9576 d4be a0df 88be
00000270: 836d 62be b5da f3bd d745 173e 2114 0ebe
00000280: b5f4 2dbe 72b7 a1be e3c6 8d3e 2c68 143e
00000290: 0894 29bd 93b9 18be cd70 b8be 9a52 bf3d
000002a0: 3ae1 75bd 87cf f6bd 9a2a 1abe 67d7 02be
000002b0: 583a 913e 55bb 46be 3009 6cbe 8587 12bd
000002c0: 84a3 a3bd 60da 7fbd 8401 0ebe c76d 6bbe
000002d0: 7847 a73d bff7 a6bd cc8c 14be b463 983e
000002e0: 798c b0bc 4ec8 523e ab33 cdbd a244 23be
000002f0: 501e 36be e899 00be 5927 a8bd 9100 593e
00000300: 16ff f9bd 5ebb 3e3c af7b 10be 35f2 3dbe
00000310: b385 37be 2f47 4cbc 45c9 a5be 37b5 1dbe
00000320: bd3e c53e 14cf 97be f7f5 48be e28f 87bd
00000330: 217d 73bd 2dff 2bbe a5eb ab3d 3cbc 823f
00000340: a313 f43d 6a0f afbe 5753 463e 563c 01be
00000350: ba9b 91bd 213b 47be a828 15be fbfd cbbd
00000360: eb9b 04be 8206 cbbe 329e debe e58e 1a3e
00000370: 438f 133f 1da6 4c3e 1d09 f2bd 9f02 1d3e
00000380: 18f3 4bbe ee4b b2bd 4b8b 713f 6e4f 48bc
00000390: 3c8a 86bd 049b 6e3e f693 80bd 20d4 16bd
000003a0: c13e 2d3e f186 48bd 9ebb 92bd 50e4 4fbe
000003b0: 56ba 433f 9ab0 27be b212 9bbd 88f9 c0bd
000003c0: 92de 0c3e 3f0c 96bd 2e23 63bc ccf1 eebd
000003d0: cdbd 22be 2023 27be 4ee4 27be ee75 92bd
000003e0: 9594 15bd f8db 1fbe 6054 71be 821f 1ebe
000003f0: 2db9 013f 51b1 25bd a560 23be d029 c93c
