model/DDQN with batchnorm/EX1_Player_model_epoch_3000.pth (torch_old, 854519 bytes, 10 tensors)

fc1.weight f4 [256, 57]
00000000: 0cdf 2e3f 25dc cdbe 466a 593d 7fe0 95bf
00000010: d733 043f 38dc 15bf 960f 423e fd6f 0bbd
00000020: 4a76 32be e725 10be 9020 42be 652d 7fbf
00000030: dd95 74bc 3972 4ebf 2f98 d03e 3b4d b6be
00000040: addb 4d3f 95ab 2d3f d4f9 a93e e111 c13e
00000050: f6e6 52be 9117 413f 961e 37bf 38c8 e6bf
00000060: 951b bbbf 2663 12bf 64ef 25bf 8b23 8abf
00000070: 68c5 aabd c678 0fbf 427a 53bd 6506 8c3f
00000080: 1397 07bf e3aa 53bf 5acb f9be 455e 11bf
00000090: 5fda 57bf 5a1e 90be 1016 723d 91ee 04bf
000000a0: 6042 e43b 0128 48be a8b4 ffbe 0396 63bf
000000b0: bcf7 8cbe 56f4 bbbd f786 2ebf 0231 883e
000000c0: 8f9e f1bd d924 45bf d4c1 26bf 2b37 5d3e
000000d0: b176 36bf 087f c03e 8a69 4fbf 8be3 57bf
000000e0: bd28 4d3e 2133 f93d 7016 85be c4e8 de3c
000000f0: 9fc0 c2bd 7b66 463e ecc3 5abe aff7 663e
00000100: 1b88 81bd 9666 5b3e 6f7e bcbd 85d5 ff3d
00000110: 7010 acbd bbdf 773e 07ed 83be ec8b e03d
00000120: b4d8 b8bd 73d3 203e b8c6 cdbd 00ce 0f3e
00000130: cc75 71be 1340 51be 1226 d23c 8769 c4be
00000140: b534 6abe 883e 0b3d f460 2f3d e148 dcbe
00000150: 4811 883d e8c9 b6bc 5ffb 9d3e 9c58 78bd
00000160: 2ce8 05be a654 25bd 5410 7ebe e40d d13d
00000170: 1219 083e 2c12 7dbe 319b c4bd e0f7 afbd
00000180: 4f2e 4e3d 981a e33c c243 21be e21e 5fbd
00000190: c8ed 30be 381a 953d 2549 adbd 8f54 a9be
000001a0: 216e 24be cb45 73bd d954 cbbe ba7c 39be
000001b0: ea38 073d 6d14 8ebe 76f2 e7bc ebaa 8fbc
000001c0: d987 c1be d29d f23d 2805 cfbe bd8d f5bf
000001d0: b85f 9f3e 093c 15be 012e e03d f7e7 99bf
000001e0: b9cf 563f 4e0b f4be 832d 3fbd 0df8 cfbf
000001f0: 8214 813e 9c30 8ebf b969 173f a0fa 85be
00000200: 27ec bc3d c945 3abe b92a 053f 49b0 27bd
00000210: e285 333f 7fde 44be fdce 3f3e 60bf 63be
00000220: 13fc c03e 6809 b4be 633d 8abe 66b2 00be
00000230: 2e7b 18bf 15b1 b1bc 5ec5 003e 8f30 953e
00000240: b7ae f3bd 3768 963f 4015 dc3e f539 39bf
00000250: b664 ab3d 69e4 733e cbbd 58bf 6b8b 1a3d
00000260: e416 dcbc 34a9 763f 16a8 923d ce76 c5bf
00000270: 0d2a 0d3e 8837 53bf 05f6 ad3e 7108 afbe
00000280: 0837 3fbf ee7b fa3d f89f bebf 06f6 55bf
00000290: 8b3d eabe 64e1 9fbd 7416 48bf dcdb 9c3f
000002a0: f928 f5bb 18f9 3abf 2b20 acbe 7a22 803f
000002b0: d43c 41bf b1f9 873f 6296 8abf 32af 663f
000002c0: 7813 a6bf be36 33bd b796 a6bf bf2e 1c3f
000002d0: b31b 5fbf 6ef0 d03e 15db 75bf eedd 0a3f
000002e0: c16d 38bf 8b60 323e 0681 7fbf 3bb5 563e
000002f0: 2f8b 0ec0 c06a 313d 586c 04c0 a05d 76bf
00000300: 96a2 923e 068b 5abf c418 dcbe 04e3 41c0
00000310: 88e3 41be 049d 5dbe 0177 ef3e 0062 3dbb
00000320: 4f67 89be f8dc ae3d 97b3 4ebf a68a cabe
00000330: b0dd abbe aa64 b53e 045d b4be 2093 16be
00000340: 1473 9e3e 8065 893c 26f1 743f e87e d6bc
00000350: ba56 533f ab08 8d3d eafa 7dbe 5d02 61be
00000360: 9fdb fbbe 710e a2be ec10 9d3e 1f32 d83e
00000370: e061 83be c986 eebb 8197 b23e d22f 79be
00000380: 81ea 8b3d 8468 9abb 3fd1 aebe 070b 1ebf
00000390: 4e86 153f 3660 a6be b05c 693f fb42 93bd
000003a0: 09b9 06bf 08d9 30bf a2dc bf3c 1484 04bf
000003b0: b341 39bd 3ee2 c1bd a3ca 34be 81ca 17bf
000003c0: 95fc 23bf d743 eebe 5403 84bf e865 91bf
000003d0: 0f81 1abd 3555 9ebf 8f6c 9fbe 5cf4 76bf
000003e0: b20d c9bd 66f0 513f 92a7 d0be 7892 ce3f
000003f0: f7f3 34c0 06ac 1bbe 6e68 cdbe a34c 0fbf
0.6830909 -0.4020702 0.053079866 -1.1709136 0.516416 -0.5853915 0.18951258 -0.034042347
-0.17427936 -0.14076959 -0.18957734 -0.9967864 -0.014928308 -0.8064304 0.40741107 -0.35605797
0.80413324 0.6783994 0.33198416 0.37708953 -0.20595917 0.75426584 -0.71531045 -1.8029852
-1.4617792 -0.5718254 -0.64818406 -1.0792097 -0.083384335 -0.5604366 -0.051630266 1.0939451
-0.52964896 -0.8268263 -0.48787957 -0.5678447 -0.8431758 -0.28148156 0.05910307 -0.51926523
0.0069659203 -0.1954651 -0.49942517 -0.88900775 -0.27532756 -0.09177463 -0.6817469 0.2659989
-0.11797821 -0.7700935 -0.6513951 0.21603076 -0.7127486 0.37596917 -0.81020415 -0.8433158
0.20035072 0.12167955 -0.2599368 0.0272106 -0.09509396 0.1937503 -0.21363801 0.22555421
-0.06324788 0.21425852 -0.09203803 0.124918975 -0.08401573 0.2420644 -0.25766775 0.10964188
-0.09025708 0.15705661 -0.10047668 0.14043427 -0.23580092 -0.20434599 0.025652919 -0.3836176
-0.22871669 0.03399518 0.04281707 -0.43024352 0.06643921 -0.022313073 0.30855843 -0.06063138
-0.13076848 -0.04036393 -0.24810916 0.102077276 0.13290814 -0.24713963 -0.09599913 -0.085922
0.050337132 0.027722642 -0.15748504 -0.05447281 -0.17278206 0.072803915 -0.08461217 -0.33072326
-0.16057636 -0.05939273 -0.3971317 -0.18113986 0.03301326 -0.2774996 -0.028313857 -0.017537555
-0.37798956 0.11846508 -0.4043362 -1.918388 0.31127715 -0.14573683 0.109462745 -1.2023915
0.8391071 -0.47664875 -0.046674263 -1.6247574 0.2521096 -1.1108584 0.59145695 -0.26167774
0.0922473 -0.18190683 0.52018315 -0.040939603 0.70126164 -0.192255 0.18731304 -0.22240973
0.37692317 -0.35163426 -0.2699996 -0.12568054 -0.5956296 -0.021690885 0.1257529 0.2913861
-0.118985586 1.1750554 0.42984962 -0.7235406 0.083688185 0.238176 -0.846646 0.037730616
-0.026866384 0.96351933 0.07160966 -1.5426881 0.13785572 -0.8250661 0.3397676 -0.34186128
-0.74693346 0.12230669 -1.4892569 -0.83578527 -0.4575008 -0.07806662 -0.7815926 1.2254596
-0.007481691 -0.73036337 -0.33618292 1.0010521 -0.7548344 1.0623075 -1.0827143 0.90111077
-1.2974691 -0.043753378 -1.3014745 0.6100883 -0.8715164 0.40808433 -0.9603742 0.5424489
-0.7204247 0.1741964 -0.9980625 0.20967571 -2.227245 0.043314695 -2.0691128 -0.9623661
0.28639668 -0.8536838 -0.42987645 -3.029481 -0.18934453 -0.21641928 0.4677048 -0.0028897524
-0.2683663 0.0853824 -0.8074278 -0.39558905 -0.33567572 0.35428363 -0.35227215 -0.14704561
0.30947173 0.016772032 0.95680463 -0.02618356 0.8255421 0.06886419 -0.24802747 -0.21973558
-0.49190995 -0.31651643 0.30676973 0.4222574 -0.2566061 -0.0072792512 0.34881213 -0.24334648
0.068318374 -0.0047121663 -0.34144017 -0.61735576 0.5840806 -0.32495278 0.91157055 -0.0719051
-0.5262609 -0.69081163 0.023420636 -0.51764035 -0.04522867 -0.094669804 -0.17655425 -0.5929337
-0.64057285 -0.46536133 -1.0313516 -1.1359224 -0.037720736 -1.2369753 -0.3113751 -0.9646661
-0.09817065 0.82007444 -0.40752846 1.6138449 -2.8273904 -0.1520234 -0.40118736 -0.55976313

fc1.bias f4 [256]
00000000: 909b 47bf 3bbf 5cbe f35a 30bf e60e b2be
00000010: b7b7 94be 6d61 24bf 3a78 8c3d 6880 313e
00000020: 7501 c6be ab5c 2d3d 7329 92be 8c6f ddbe
00000030: dca9 54bf 0b3b 2dbf 5a08 86be b8c9 1e3d
00000040: 962d 22bf 4ebb 6cbe 852c 19bf 679e ebbe
00000050: d9cb cbbe 21b6 d9be bc3c 0c3f 3e4a 52bf
00000060: 159f 51bf dc6a 3cbe 4b7b 75be b3e7 50bf
00000070: faea 983e 684e fabe 302f 3dbf c66c 2dbf
00000080: 29b4 35bf 5bb9 9b3f 0f03 a5be c840 a0bf
00000090: 784b 19bf 3bee 18bf dc2e 61bf 8716 43bf
000000a0: fb40 0bbd a580 75bf 6b2f 90bd 7fb2 d6be
000000b0: afa5 e2be 91a9 3ab9 9b2c 40bf 3a28 06bf
000000c0: b906 1ebf 5710 11bf af90 89bf 86e3 06bf
000000d0: 2514 83be 2e00 86bf edde 17bf 415e e6be
000000e0: c4c6 a8bc 1bbb ba3a 5d89 cebe e215 a8be
000000f0: c591 34bf 0e1d 6cbf 3557 04be 4468 f6bd
00000100: a97c 0bbf aeb5 72bf 63af 1fbf 4c66 39bf
00000110: b37a 33bf 4466 203e b7de 7fbf 0907 d4be
00000120: 8249 c3be 7a3a ba3c a8e4 2abf 9202 1abe
00000130: 0ca3 96be 3322 33bf 4808 38bf caea 07be
00000140: c693 95bd 5b0d c2bd ae31 37be fcef 7cbe
00000150: b2eb 12bf 8918 3fbf d0d1 f1be ef49 f5be
00000160: 41ad 08bf 3f08 a0be 862b ec3f 5265 10be
00000170: bf37 663e 0fe6 22bf 54d3 a9be b3eb dfbe
00000180: c750 8abf 01a6 413f 24b8 1dbf aba7 04bf
00000190: 9378 9ebe c8cf 43bf 586d 78bf 9ec4 263d
000001a0: 0ca3 12bf 4f12 a5be c075 06bf 5e88 47be
000001b0: ed7d f1bc d30a a5bf c5e9 c73d 3df0 1cbe
000001c0: ef3c 60bf 1f75 05be bde7 a7be ac5f 23bf
000001d0: 8fda dcbe d9e6 efbd 9dd1 d3be 67e5 66bf
000001e0: 85b5 433f b43c 96bc 48af 91bf 1272 19bf
000001f0: ac8c dabe 1233 25bf f78f d33f 4117 43bf
00000200: e7b9 c7be 55c8 e13e 3932 a8be 1d8d 11bf
00000210: aa27 74be d7e4 1abf afa0 e83d 53e2 fa3d
00000220: aa3c b7bd a3c8 86be a9b6 243e 4301 32bf
00000230: 7881 22bf 6fd8 1cbf a114 64bf 1e06 87be
00000240: e13e 5dbf ae50 1e3e 0068 52bf 78a3 73bf
00000250: aca0 f6bd aabf 8abf 3739 94be 4c1a 0dbf
00000260: 5633 1dbf 4c75 febe b798 dbbe d5ec 22bf
00000270: 1631 b7be 3c6d 51bf 7ee7 7bbf c004 ed3e
00000280: 2054 7c3f e249 93bf 58dc 0bbf 87ee 53bf
00000290: ee75 51bf 1a23 71be 7c5d 95be e3b6 ef3e
000002a0: 9c33 09be ce58 59bf ae78 45bf 19c7 8abe
000002b0: 363f 9cbe 819b 97bf 53cb 25bf ffc0 0fbf
000002c0: 151a 71bf ac79 cc3d b1b4 b6be 6586 fb3c
000002d0: 7757 02be 0510 35be 7f1b e5be 6465 f4be
000002e0: 0b85 aa3e 9a3f 28be 7625 27bf 0723 08bf
000002f0: fb20 16bf 07bc 1bbf 1e5d f3be c833 14bf
00000300: 0552 4a3f 08a9 4bbf 5890 1cbf 39c9 41bf
00000310: 4088 dcbe b4f9 e6bd 792f 42bf f19a 89bf
00000320: 6cb3 6d3d b311 62bf 8de4 b53e 05ab eabe
00000330: 2d7b 09bf 37b8 08bf e9cd 0ebf fcec 81be
00000340: fd08 23bf ba96 47bf ac60 8ebe eff4 20bf
00000350: 00f0 d9bd 4c80 05bf 6615 17bf ea18 83bf
00000360: 9e39 43bf f8eb b0bb c43f 15be b27d 2bbf
00000370: 286f d13c 3dbc 983e 9ebb e5be eee9 57be
00000380: d378 eabe 0a08 78bf 2efa b0be 38ac 20bd
00000390: 7daf d23f cd6d a7bf 9900 50bf 9b55 1bbf
000003a0: 8738 06be d00f d63f 40e8 fabe 3b60 30be
000003b0: 6cfd 4bbf 65ee 0cbf 9af3 99bd 0267 e83e
000003c0: 7295 4ebf 3a0a 8ebe b262 95bf 164a e0be
000003d0: 4694 16bb 356c 5cbf d2f8 0fbf 2a7c f3be
000003e0: deb6 fcbd 149b df3f fdfc 3bbf 3dc4 06bf
000003f0: 35e8 ccbe 249e 3ebf b218 a8be c077 e4be
-0.77971745 -0.21557324 -0.6888878 -0.34776992 -0.29046413 -0.6421116 0.06858869 0.1733414
-0.38672987 0.042324703 -0.28547248 -0.43249166 -0.83071685 -0.6766822 -0.26178247 0.038766593
-0.6335081 -0.23118326 -0.59833556 -0.4601929 -0.3980396 -0.42521766 0.54780173 -0.82144535
-0.81883365 -0.18400139 -0.23972814 -0.81603545 0.29866773 -0.48887944 -0.7390013 -0.677441
-0.7097803 1.2165941 -0.32228896 -1.251977 -0.5988078 -0.5973851 -0.87962127 -0.7620625
-0.033997517 -0.9589942 -0.07040294 -0.41933057 -0.44267032 -0.0001780151 -0.7506806 -0.5240513
-0.6172901 -0.5666556 -1.0747279 -0.52690923 -0.25601307 -1.0468805 -0.5932453 -0.44993785
-0.020602591 0.0014246436 -0.40339175 -0.32829195 -0.70534927 -0.92231834 -0.12923892 -0.12031606
-0.5448709 -0.9480847 -0.62376994 -0.7242172 -0.701091 0.15664011 -0.9994921 -0.41411617
-0.3814202 0.022732962 -0.6675515 -0.15040043 -0.2942127 -0.6997406 -0.71887636 -0.13273159
-0.07303576 -0.094752036 -0.17890045 -0.24700922 -0.5739089 -0.7464681 -0.47230387 -0.4790797
-0.53389364 -0.3125629 1.8450782 -0.1410115 0.22482203 -0.6363229 -0.33169043 -0.43734512
-1.0805901 0.75643927 -0.616091 -0.5181834 -0.30951366 -0.76488924 -0.97041845 0.040714853
-0.5728004 -0.3224053 -0.5252342 -0.19485614 -0.029478991 -1.2893928 0.09761385 -0.15326019
-0.8759298 -0.1303296 -0.3279399 -0.6381786 -0.43135497 -0.117139526 -0.4137086 -0.9019379
0.7644885 -0.018339492 -1.1381617 -0.5993968 -0.4268545 -0.6453105 1.652831 -0.7620736
-0.3900902 0.44098154 -0.32850817 -0.56855947 -0.23843256 -0.6050543 0.11358773 0.12250199
-0.089471176 -0.2632495 0.16085304 -0.69533175 -0.63478804 -0.6126775 -0.8909398 -0.26371855
-0.8642407 0.15460464 -0.8218994 -0.9517131 -0.120423645 -1.0839741 -0.289499 -0.5511825
-0.6140646 -0.49698865 -0.4288995 -0.63642627 -0.35779637 -0.81807303 -0.98400104 0.46292686
0.98565865 -1.1506922 -0.5463309 -0.8278584 -0.8182057 -0.23548546 -0.29172885 0.4681922
-0.13398594 -0.8490113 -0.7713727 -0.27105024 -0.30516976 -1.1844331 -0.64763373 -0.56153864
-0.94180423 0.099841446 -0.35684732 0.030703733 -0.12728678 -0.17681892 -0.4474754 -0.47733605
0.3330463 -0.16430512 -0.65291536 -0.5317845 -0.58644074 -0.6083378 -0.4753198 -0.5789151
0.790314 -0.79554796 -0.6115775 -0.75697666 -0.430727 -0.11278096 -0.7585369 -1.0750409
0.05803244 -0.88308257 0.35525933 -0.45833603 -0.53703576 -0.5340609 -0.55782944 -0.25376117
-0.6368559 -0.77964365 -0.2780813 -0.6287374 -0.106414795 -0.5214889 -0.59017026 -1.0241978
-0.7625979 -0.0053992234 -0.14575106 -0.6698867 0.025565699 0.29831114 -0.44869703 -0.21085331
-0.45795307 -0.96887267 -0.34565872 -0.03922674 1.6459805 -1.3080384 -0.8125091 -0.606775
-0.13107501 1.6723576 -0.49005318 -0.17224209 -0.79683566 -0.5505126 -0.075171664 0.4539109
-0.80696785 -0.27742177 -1.1670744 -0.43806523 -0.0022976561 -0.8610261 -0.56239045 -0.47555667
-0.12339567 1.7469201 -0.73432904 -0.52643186 -0.4002091 -0.74460053 -0.3283134 -0.44622612

fc2.weight f4 [256, 256]
00000000: 1474 7a3e 0c84 1abb bba2 d7be c33e fabe
00000010: 08f8 e63c 0138 10bc c8c3 32bf 7e5d 173f
00000020: caaa ae3e 327c 673c c407 27be aa00 12be
00000030: 6efe d7be 803b 093f 5302 80be ec8a f13e
00000040: 3040 a23f 9095 583f f7d3 1a3f 031f 8bbf
00000050: 71e7 283f ac80 18bf 36cb eabe 5f96 bf3e
00000060: c7e2 623f 9c72 e33d 76af 3e3e 3ded 4e3f
00000070: 8a4c 53bf b075 2f3f ed6a 2d3f 7fc4 853d
00000080: 7bdf a33f ee00 edbe 8fbe 4e3f 9f92 b03d
00000090: 76db 0c3f ec3e 7a3e 1d9b c43e d0a1 843f
000000a0: 073b 593f 2e05 87bf 0a7f c43f 1c3f 5fbd
000000b0: 6f12 cc3e 586e 283e 39f6 95be eb39 9e3f
000000c0: 9c35 2c3d 75c5 893e 195b c4be 42a0 ac3f
000000d0: 7495 94be 35e2 bf3e f8c3 f53e a580 f83e
000000e0: 7081 713f 80d6 a53e b6a5 d3be 5068 f8bd
000000f0: 0521 a3be f6ab 573f a523 1abf 4d3f 48bd
00000100: 01b8 4c3e eacd b03f b7ca c13e 4c25 11bf
00000110: 3a11 9c3e 0bc3 27bf 9ea0 94be 147a 193e
00000120: b1ed 31bd b585 da3e c669 d1be 9bbf 3bbe
00000130: 0950 743f eb1e b83e 7c01 6b3f 75ff 6e3f
00000140: b9b0 4e3f b390 f0be be78 3a3f a2cb 6c3e
00000150: adf1 1abd ffab 803d bb37 5d3e 1b05 e63e
00000160: dd1b e8bc 12b8 57be 9cec d2be e20f 943f
00000170: 5569 b43e e005 2f3f ac60 8e3e 5ced febe
00000180: f6ac 2c3f 93fb 58bf 8afb c1be 4662 05bf
00000190: 1ebc 9abe 53c6 333f 0784 05bd ba10 493e
000001a0: 4fdb 433d c354 273f 4f76 813f 1939 563f
000001b0: 0e2d 5f3f 1cfe f63e 2554 d23e 5832 5e3e
000001c0: 26de 383f 318c 723f d706 f2be f6b7 7f3f
000001d0: c625 583d f579 833f 59ad 3dbf 0c94 c5be
000001e0: 45c2 70be bbc6 7c3e 77ea aabe 9ca2 743e
000001f0: f007 8fbe 1435 de3e 4cd9 e2be cb37 07bf
00000200: dd99 1e3f 835c f4bd ed46 063e d7c0 853f
00000210: 4c8a a33a 4f7b 4dbe 57e0 bc3e ed38 1abe
00000220: ae32 62bf 84e4 d13f d48f 0ebe 1d48 583e
00000230: 8041 4abe 8d92 8c3f a8cc 213f 729f 93be
00000240: 30f1 1abe 60df 4cbf e715 9d3d c982 203e
00000250: bc83 d73e 7b47 9a3e f05e 053f 16d9 863c
00000260: 35b0 c1be 404a 5dbf f518 50be 59c3 20bf
00000270: b9ff da3b 9a6d 593f 1de1 7ebf 2ac8 93be
00000280: 5ec8 17bf 47b1 553f 9cd2 163e df5a d7be
00000290: 86c2 d13f b7c5 86bd c918 9d3e 8000 0ebb
000002a0: 5086 723f 1469 ac3d d89e 993f 372d a33e
000002b0: 177c 653f 2993 3c3e e209 963c d589 1a3e
000002c0: a70f 4b3f ab16 4c3f b66a 173e 4466 42be
000002d0: e00f e9bc 39f7 bf3f d104 be3f b626 1fbf
000002e0: b59f 86bd 00b5 473e 9555 343e 4296 2f3f
000002f0: 7df9 e53e 6ced 763d 3e4c 523f 0b80 383f
00000300: a37a 55bf ae12 22bf 367d 813f 47bd 493f
00000310: 08e4 4f3d 9ab7 71bd f7bc b83f 73ab 8d3f
00000320: de97 803f 6c05 4cbf 8939 843f 07c4 433c
00000330: 1703 163f 753f 4a3f 1d3c da3e 4c98 953f
00000340: e357 7f3f c30d a13e d875 683d 1796 c33e
00000350: bed0 993e 4043 1f3f 5692 383f d735 473f
00000360: fb21 433f 270c 933e 0b30 ee3e b3b4 a9be
00000370: 0ad6 c13d 416e 603e 39e6 dcbc 8117 983d
00000380: 1dd0 8b3f 485b a13e 0e90 c2bd ffdb 113f
00000390: 9c37 70be aa97 adbd 35b6 9b3f ca1b 8bbc
000003a0: 76b4 17be 7e23 9bbe 8c71 0b3f c768 843e
000003b0: d6a6 463f c5d6 1bbf 85b2 d0ba 0827 1f3e
000003c0: e191 8b3e 81d0 8abe 37fc 02bf eb90 d93e
000003d0: 258d 893f 35f8 c0be 70cf ce3e e006 8e3e
000003e0: 577f c63e fc18 03bf 5829 83bc f358 633f
000003f0: 153e 04bf 8a7e 993e bda3 53bf 9ce9 a43f
0.24458343 -0.0023577241 -0.4211634 -0.48876008 0.028194442 -0.008802415 -0.6982999 0.5912703
0.34114677 0.014128732 -0.16311556 -0.14258066 -0.42186302 0.53606415 -0.25001773 0.471763
1.2675838 0.84603214 0.6047968 -1.0868839 0.6597815 -0.5957134 -0.45858163 0.37419412
0.88627285 0.111058444 0.1862162 0.80830747 -0.82538664 0.6853895 0.6774128 0.06531619
1.2802576 -0.46289772 0.8075952 0.08621716 0.5502237 0.24438065 0.38399592 1.0361881
0.84855694 -1.0548456 1.5351269 -0.054503545 0.39857814 0.16448343 -0.29289415 1.2361425
0.042043313 0.2690846 -0.38350752 1.3486407 -0.29020274 0.3747727 0.48001075 0.48535648
0.9433813 0.32390213 -0.41337365 -0.12129271 -0.3186113 0.84246767 -0.6021064 -0.048888493
0.19992067 1.381284 0.37849972 -0.56697536 0.30481893 -0.65531987 -0.2902879 0.14987975
-0.04343957 0.42680135 -0.4090101 -0.1833481 0.95434624 0.3596109 0.9179914 0.93358546
0.8073841 -0.46985397 0.7284049 0.23124555 -0.037828136 0.06282806 0.2160329 0.4492577
-0.028333599 -0.21066311 -0.41196144 1.1567347 0.35236612 0.6836834 0.2780813 -0.49790466
0.6745142 -0.8475887 -0.37887222 -0.5210308 -0.30221647 0.70224494 -0.032596614 0.19635287
0.04781657 0.6536371 1.011423 0.83680874 0.87178123 0.48240745 0.41079822 0.21698892
0.7221397 0.94745165 -0.47270843 0.9989008 0.0527704 1.0271593 -0.7409263 -0.38589513
-0.23511608 0.24685185 -0.33382007 0.23890156 -0.27935743 0.4339987 -0.4430641 -0.5281951
0.61953527 -0.11931708 0.13112994 1.0449475 0.0012477129 -0.2006657 0.36889908 -0.15060778
-0.8835858 1.6397862 -0.13922054 0.21121259 -0.19751549 1.0982224 0.63202906 -0.28832585
-0.15131068 -0.80028343 0.07670193 0.1567489 0.42092693 0.3013266 0.5209799 0.016460937
-0.37829748 -0.8644142 -0.2032202 -0.62798077 0.0066833165 0.84932864 -0.99562246 -0.2886365
-0.5929011 0.8347363 0.14728779 -0.42061517 1.6387489 -0.0658068 0.30682972 -0.0021667778
0.94736195 0.084184796 1.20016 0.31870434 0.8964247 0.18415512 0.01831526 0.15091641
0.7932076 0.7972209 0.147868 -0.18984324 -0.028449953 1.4997321 1.484522 -0.62168443
-0.065734304 0.1950264 0.17610772 0.6858865 0.44916907 0.060285017 0.82147586 0.7207038
-0.83390254 -0.6330975 1.0116336 0.7880444 0.050754577 -0.059012987 1.4432667 1.1067947
1.0046346 -0.79695773 1.0330058 0.011948592 0.58598465 0.7900308 0.42623988 1.1687102
0.9974348 0.31455812 0.05675301 0.38200447 0.3004207 0.6221199 0.7209829 0.7781653
0.76223725 0.2872021 0.4652103 -0.33145675 0.09464653 0.21917059 -0.026965247 0.07426358
1.0922886 0.31514955 -0.095001325 0.5697631 -0.23458713 -0.08476193 1.216498 -0.016981024
-0.14814934 -0.30300516 0.54470134 0.2586119 0.7759832 -0.6087459 -0.0015922344 0.15542233
0.27259734 -0.271122 -0.511661 0.42493376 1.0746199 -0.37689367 0.40392637 0.2773962
0.38769028 -0.5121 -0.016010925 0.888076 -0.5165723 0.29979354 -0.8267172 1.2883792

fc2.bias f4 [256]
00000000: 433e 21bf b9c6 d63f 0fd9 87bb 5492 cebe
00000010: 294a 50bd c0cd 13bc 692b 8fbd 890e c73e
00000020: 0891 a53f 2572 8b3c 7c6a 83be de5c 09be
00000030: 6344 0cbd db23 293f 9c7c 87bc 0466 7b3e
00000040: a601 c5bd c1ce e73d 7bdd e73d e67c 663e
00000050: 3a07 80bd b277 f7bd 6dbf f6bc 99f3 51bd
00000060: 93a4 813e 5a1a b43f 80b0 b8bd 41e4 23bf
00000070: c027 c0bd 61e5 093d 4c8c ce3f 20f8 1bbd
00000080: a960 98bb 399b 3abd 33f7 2e3c 83fc 0cbf
00000090: be98 80bd d863 fabc 8934 c23f bed4 dc3c
000000a0: d1a9 f0bc b1b3 cabc 35b0 eb3d 34be cabd
000000b0: 0aab dfbd be33 993f bf75 dabb 2d16 bdbe
000000c0: 32f1 e2bd f807 54bd e276 39bf b093 24bc
000000d0: 9462 0cbe 1938 c4be 8e95 29bf 7ba4 063e
000000e0: 62f0 2abd be34 94bd be85 74be 7e93 47bf
000000f0: 161c 95be 7f22 1d3f 4464 09bd 5769 9cbd
00000100: ddda 8ebd ad30 16bd 438a 5dbd 41ad cabd
00000110: ff4c 123e 1fd5 a33e 6ef7 153f 2949 a1bc
00000120: 406c a4bb 8a49 d1bd f9e3 0a3d d847 eb3d
00000130: 87b2 6ebc 5651 4f3e 59eb f5bc a6cc 85bd
00000140: d97b 9cbf c36f 85bd 6e27 953f f37a a33f
00000150: 2281 e9be 345e 11bd ea8c d6bd 0dfc 51bd
00000160: b319 b63f f14c d3be 395a 35be 7c97 99be
00000170: 92ce abbc 8d26 273f 0bc2 9abc 6bdf 313d
00000180: a1c1 5cbd d66d afbc a931 b53f a3d5 84bc
00000190: df1d d8bd ef5f d8bc b21b e3bc a9ed 1b3e
000001a0: 17d1 2c3e 9e80 bcbc d348 67bf 2fb5 b0bd
000001b0: 2c0d 9bbe 799c 9abd b524 97bd 9732 2abc
000001c0: 9cd4 99bf f516 dabd a020 97bd 3cbf 4abd
000001d0: bd5a 2ebc c577 963c 2782 9fbd b0d3 4d3f
000001e0: ac37 17bd 8eec f63b 488e 59bd 51da 153f
000001f0: d2b7 5e3e 3597 e0bc 3e72 c8bd ea29 bfbd
00000200: 77de 95be b729 cc3d f1f1 f33f 0939 ad3e
00000210: fc60 883e c9a4 8fbd 714c c2ba c54e 8cbe
00000220: ccfb 3dbf d069 01bd aca7 17bf b414 febd
00000230: 046e 19bd 7acc 0b3f 136d 10be 1781 39be
00000240: dba0 e4bd df3c 36bd d489 c43f 6cb2 333e
00000250: bcd7 5a3e 8ded 9dbd 535d 57bf 1272 f0bd
00000260: c6e6 b6bd 7ca3 69bc a277 84bd 2643 8fbd
00000270: d6e7 76bc 478f 8fbe f68a dcbd 12c7 c93f
00000280: f42d 5abd 1872 76be d4cd 98bd e081 ee3e
00000290: 992c 043f d5cc c1bd c6fb cbbe 8415 9ebc
000002a0: 414d fdbd 7884 99bd cae6 893c 5e51 ce3c
000002b0: 31e5 5b3e cd14 67bd 0e5f 2e3e f093 e6bc
000002c0: d667 45bd 457f 2bbc 636a 4b3f efe2 50bf
000002d0: 26a7 3ebf 930a 01bd 0973 ccbc 58af e43f
000002e0: 937b 41be a72d 36be baca 2b3e 28d5 9bbd
000002f0: 11f9 76bf 6aa4 a73b cbc4 d1bd 0510 6bbd
00000300: 828f 6fbe a49d 83bd 33bd fdbd e2b0 8cbd
00000310: 700c e63f 6f12 53bd f617 16bc b5f3 783d
00000320: 7bab 05bd a3d3 03bf aacf a4bd 692d 3cbf
00000330: 26b8 90bd bd09 8fbd f999 dbbc 3013 b8bf
00000340: d25c 6d3b 8236 a93d 5207 d7bd 38d6 70bd
00000350: 74ff abbd 6590 92bf fdd6 f93d b4f9 ad3f
00000360: c8e8 1cbe 5013 04bc b1d2 a7be 2650 7fbf
00000370: 24bc c4bd 59d7 8ebd 117f 213e e629 8cbd
00000380: 799e fcbb 2bd6 b9bf 3cff dabd cfee 08bc
00000390: 8926 b1bb 91f6 ccbe 2173 88bd e63a 3ebf
000003a0: 68b5 60bd 00e0 c43f 73f7 81be 5e28 94bf
000003b0: 89f8 c4bd 6d25 07be 2613 783f 379f 623f
000003c0: 05c1 3f3e 13df 9bbe f9c8 c7be 10bd ae3f
000003d0: 8b5e 81bd 7b78 dfbc 86d1 7dbc 2aea 19bf
000003e0: 4495 b4bf 0b0c 29bb 072e a6bd 6bcf 4abf
000003f0: a62a 8a3b a5a1 18bd 8544 4cbb 1b95 63bd
-0.6298563 1.6779395 -0.0041457484 -0.40346014 -0.050851975 -0.009021223 -0.06990702 0.38878277
1.2934885 0.017022202 -0.2566718 -0.13414332 -0.034244906 0.66070336 -0.01653891 0.24550635
-0.09619455 0.11318732 0.11321541 0.22508582 -0.06251378 -0.12083377 -0.030120576 -0.051257703
0.25320873 1.4070542 -0.0901804 -0.6402016 -0.09382582 0.03366602 1.6136565 -0.038078427
-0.0046501947 -0.045558188 0.010679054 -0.550728 -0.06279133 -0.030565187 1.5172282 0.026956912
-0.02937785 -0.024743887 0.11508218 -0.098995596 -0.10921295 1.1968915 -0.0066668685 -0.3693098
-0.110811606 -0.051765412 -0.72447026 -0.010044977 -0.1370948 -0.3832405 -0.6624383 0.13148682
-0.041733153 -0.07236622 -0.23879144 -0.7795943 -0.2912299 0.6138076 -0.033542886 -0.076372795
-0.069753386 -0.036667515 -0.054086935 -0.09896327 0.14287184 0.31998536 0.5858067 -0.019688206
-0.005017787 -0.102191046 0.033908818 0.114883125 -0.014568931 0.20245871 -0.03001945 -0.06533174
-1.2225295 -0.065154575 1.1652658 1.2771896 -0.45606333 -0.03549023 -0.10476096 -0.051265765
1.4226593 -0.4126964 -0.17710198 -0.29998386 -0.020972524 0.652932 -0.018891355 0.04342596
-0.053895596 -0.021414679 1.415578 -0.016215151 -0.105525725 -0.026412932 -0.027723167 0.15227379
0.16876636 -0.023010548 -0.90345496 -0.08628308 -0.30283487 -0.07549376 -0.07380048 -0.010388038
-1.2018008 -0.1064891 -0.073792696 -0.04949878 -0.010641751 0.018367657 -0.077884965 0.80401134
-0.036918327 0.0075355237 -0.053114206 0.5853625 0.2174981 -0.027415851 -0.09787415 -0.09334166
-0.2927129 0.09968894 1.905821 0.33832577 0.26636493 -0.07013852 -0.0014823807 -0.27403846
-0.74212337 -0.03159505 -0.5924022 -0.124062926 -0.037458435 0.5460888 -0.14104109 -0.1811565
-0.11163493 -0.044491645 1.5354562 0.17548531 0.21371359 -0.07711325 -0.84126776 -0.11740507
-0.08930735 -0.014260169 -0.06468131 -0.069952294 -0.015069922 -0.28039 -0.10768692 1.5763876
-0.05326648 -0.24066961 -0.074611336 0.46583462 0.5163055 -0.09462897 -0.39840525 -0.019297369
-0.12368251 -0.074959695 0.016833682 0.025185283 0.21474148 -0.05641632 0.17028448 -0.028146714
-0.04819473 -0.010467355 0.7945921 -0.81596273 -0.744738 -0.031504225 -0.024957197 1.7866011
-0.18894796 -0.17790852 0.16776553 -0.07609016 -0.96473795 0.005116035 -0.102426134 -0.057388324
-0.23394588 -0.06426552 -0.123896025 -0.06869675 1.7972546 -0.05153125 -0.009160986 0.060779292
-0.03263424 -0.51494807 -0.08047421 -0.7350679 -0.070663735 -0.06984279 -0.026806818 -1.4380856
0.0036218655 0.0826235 -0.10499443 -0.058798045 -0.08398333 -1.1450316 0.12199209 1.3591828
-0.15323174 -0.008061245 -0.32777932 -0.9973167 -0.096061975 -0.06974668 0.15771128 -0.06843929
-0.007709321 -1.4518484 -0.10693213 -0.008357718 -0.005406205 -0.40031865 -0.06662584 -0.7430862
-0.054860502 1.5380859 -0.253841 -1.1574819 -0.09617717 -0.1319787 0.9690422 0.8852419
0.18725975 -0.3044363 -0.39020517 1.3651447 -0.06316861 -0.02727913 -0.015491849 -0.6012293
-1.4108052 -0.0025794532 -0.08114248 -0.79222745 0.00421651 -0.03726353 -0.003116877 -0.05556212

fc3.weight f4 [256, 256]
00000000: 227b 883c 8c90 7dbd a07a 25bd efe1 90bd
00000010: 2e40 2d3d 81ed 1d3c a55e 5dbd f6c0 fd3c
00000020: 1503 063d 2e8f 653d a97c 5bbd 1bd8 29bd
00000030: 79b2 993b 0f8f 483d fc3d 853c a6b2 693c
00000040: dc8d 353b 7383 5ebd 2089 c0bc 4d93 3abd
00000050: ee86 7f3d 0b44 9c3c bec8 233c 7ffe 73bd
00000060: 0eb5 1dbd e05a 7f3c b6a2 673d b1f9 b2bd
00000070: f536 4b3d e4d3 a33c a547 d4bd a0d4 483b
00000080: bf5d 27bc 806f 163b e904 3ebc 7cd8 20bd
00000090: e6f5 1dbd c270 c93c 7a5f fcbc 57ce 383d
000000a0: c48b ae3c 2d4b e13c a2c7 3cbd 3482 f73c
000000b0: 57f6 e03c 6887 46bd f216 16bd 124c 61bd
000000c0: 2002 d4bc a610 72bd 7546 43bd 74be 00bb
000000d0: dc22 98b8 fbc2 c9bc a9be c23b bc40 a4bc
000000e0: 6906 b1bc 4632 4e3d 55dc 9fbd 7809 52bd
000000f0: 42dc 22bd 0bd9 86bd 3c98 b33c 1a9c 2bbd
00000100: 3ac1 113d 32f4 23bd de68 debc cfa8 18bd
00000110: 234b 93bd 8501 163d 5d40 2dbb 11f8 4ebd
00000120: 8906 833b 0012 44bc b9cc bebc f082 5abd
00000130: 306e 2dbc 1031 0cbd c3ae 123d 383c 44bd
00000140: dc3d b0bd 3c31 12bd c0ee 0cbd 3c07 333b
00000150: 2d97 a5bd 3d82 17bd 2f90 e53c e4ce 153d
00000160: bcac d2bc f141 503b f34d 42bc d549 3bbd
00000170: 35f1 88bd b6c4 8bbd 4d4d 11bd 4822 77bc
00000180: 4cf7 53bc d191 69bc 48e7 5dbd cf87 97bd
00000190: 5d9a 513d e700 ca3c 341e 003d 497c 7cbd
000001a0: 66dc 92bd 93e3 a13c 416a f3bb 81b3 d6bb
000001b0: c725 a6bd 46eb b03b 26d3 24bc f499 a8bc
000001c0: 99cb c3bd 98a6 92bd 0bc7 673b 48b5 a13c
000001d0: 7317 943c f414 e2bc 0ccf 33bd e026 75bb
000001e0: bc7f 2ebd 771c f2bc 1425 debb 6594 86bd
000001f0: 306f 173d b2eb d13c 36ed 5d3d b8c8 25bc
00000200: 8d68 aa3c f105 6cbd 49e3 2dbc be0e 5abd
00000210: 8947 063d 8310 89bd b8e7 3abc bbbe dbbc
00000220: 44b6 9cbd 94ed f9bc 8029 ab3a e875 8dbc
00000230: 02fe 883c c7ae ed3c 1de9 993c 7d41 13bd
00000240: 8990 213d 47f4 7e3d edf5 62bd c619 33bc
00000250: 90c2 90bd d10c 97bc b296 6fbd fde1 3cbd
00000260: 097e 56bc 6d87 103c 8e21 3abc d8b8 343d
00000270: 867b a33d 48ed 6dbd 3b70 123d 0466 8cbd
00000280: 17b3 c5bb 193c c3bd 4d00 3c3d 249d fcbc
00000290: 7f9e fabb a60b 4fbd 7a16 3fbd beef 3cbd
000002a0: 92a3 e93c 4ee1 f0bc 708d 5dbd ba2c 5dbb
000002b0: f8cc 7a3c 7bb0 263d 16c8 173c cce3 02bd
000002c0: ea75 483d 2d60 ebbc c833 5bbd 329a ddbc
000002d0: 12c7 4dbc 3e9d 55bd e44c 67bc 5e8a 963c
000002e0: 3e0c 2e3d a14b 5dbc a4ae 9ebd 840f c3bc
000002f0: 5e5f 5abc 4b70 443d 31da 14bd 3c69 373d
00000300: 0720 123d 0ec8 2d3c c224 5ebc 79f5 c7bb
00000310: 0373 3bbd a2ac 753b 580c 0c3b bd56 a9bc
00000320: cf8b 85bd 8d07 5ebc 2224 683d c508 aabd
00000330: d8a3 34bc ffa5 d73c 10ad c7bc 19d4 76bd
00000340: c6fe a13c f464 98bc 9383 453d cc2b 20bd
00000350: cdfb 793d 8b7d 8abb ddf2 1c3d 877f 64bd
00000360: 6803 753d 372a 6e3b 42b2 2d3d a471 49bd
00000370: 407f 7e3c 7d67 3fbd e02c f73b 8019 6a3c
00000380: 945e 133d 3a2f 8cbd 4267 693c f8c6 fcbc
00000390: 3d06 6fbd a0c5 373d a8a9 243c 66da 033c
000003a0: 6410 fc3c c267 cabd d02e 7dbc 7519 c73c
000003b0: a2c1 13bc 146b d93b 8c97 debc fc1f 6c3c
000003c0: 68ff 8dbd 1f19 42bd ce43 e2bb cd88 87bd
000003d0: f623 553d f31d ee3c 4b7a 063d afff d73c
000003e0: 5f9d 54bc a091 17bd e413 6b3d 12a8 a7bd
000003f0: c8be 5f3b 879d 1ebd 60e4 45bc 2d13 42bd
0.016660277 -0.06190543 -0.040400147 -0.070743434 0.042297535 0.009639145 -0.05404534 0.0309758
0.032717783 0.05604475 -0.053585682 -0.04146586 0.004690465 0.048964556 0.016264908 0.0142637845
0.0027702963 -0.05432458 -0.023502886 -0.045550633 0.06238454 0.019075414 0.009996591 -0.05956888
-0.038502745 0.015585631 0.056551658 -0.08739031 0.049612958 0.019998498 -0.103652276 0.0030644313
-0.010215222 0.0022954643 -0.01159785 -0.039268956 -0.038564585 0.0245899 -0.030807246 0.045118656
0.02130688 0.027501667 -0.046088822 0.030213453 0.027461214 -0.048468977 -0.036642976 -0.055004187
-0.02587992 -0.05909791 -0.047674615 -0.001964477 -7.254418e-05 -0.024629107 0.0059431386 -0.020050399
-0.021609502 0.050340913 -0.07805697 -0.05127856 -0.039760835 -0.065843664 0.021923177 -0.041896917
0.035584666 -0.040027805 -0.027149614 -0.037270363 -0.071920656 0.036622543 -0.0026436069 -0.050529543
0.003998582 -0.011967182 -0.023290979 -0.053347528 -0.010585353 -0.034226477 0.035811197 -0.04790899
-0.08605549 -0.035691485 -0.034407377 0.0027317544 -0.08085475 -0.03698944 0.028022854 0.03657426
-0.025717132 0.0031777585 -0.011859405 -0.04572471 -0.066866316 -0.06824629 -0.03547411 -0.015083857
-0.012937378 -0.014255957 -0.054175645 -0.0739895 0.051172603 0.024658633 0.031278804 -0.061641965
-0.07170944 0.019761836 -0.007428438 -0.0065521603 -0.08112674 0.0053991405 -0.010060107 -0.020581223
-0.095603175 -0.071606815 0.0035366442 0.019739762 0.018077588 -0.027597882 -0.043898627 -0.0037407205
-0.042602286 -0.029554589 -0.0067793224 -0.06571273 0.03697127 0.025625084 0.0541813 -0.010118656
0.020801807 -0.057622854 -0.010613271 -0.053236715 0.032783065 -0.066926025 -0.011407785 -0.026824346
-0.07651952 -0.030508794 0.0013058633 -0.017268136 0.016722683 0.029014004 0.018787915 -0.035951126
0.03944448 0.06224468 -0.055410314 -0.010931438 -0.0706836 -0.018438729 -0.058493324 -0.046113957
-0.013091573 0.0088213505 -0.011360539 0.044121593 0.079825446 -0.058087617 0.035751563 -0.068553954
-0.006033312 -0.09532947 0.045898724 -0.03083665 -0.0076482887 -0.05054822 -0.046652295 -0.046127073
0.02852038 -0.029404309 -0.054089963 -0.0033748583 0.015307657 0.04069565 0.009264013 -0.031955525
0.048940577 -0.028732384 -0.05351618 -0.027051065 -0.012559669 -0.05215191 -0.014117453 0.018376525
0.042492144 -0.013506801 -0.07748154 -0.02381111 -0.013328401 0.047958653 -0.036340896 0.044778094
0.035675075 0.010606779 -0.013558568 -0.0061022607 -0.04576398 0.003748693 0.0021369662 -0.020671243
-0.06520807 -0.013551605 0.056675084 -0.08302454 -0.0110253915 0.02632427 -0.024374515 -0.060260866
0.019774806 -0.018602826 0.048221182 -0.039104268 0.06103115 -0.0042263917 0.03831755 -0.055785682
0.0598177 0.003634108 0.042406328 -0.04918064 0.015533268 -0.046729553 0.0075431913 0.014288306
0.03597887 -0.06844945 0.01424581 -0.030856594 -0.05835556 0.044866204 0.010050215 0.008047676
0.030769534 -0.098830715 -0.0154530555 0.024304131 -0.009018334 0.006635079 -0.027171873 0.014411923
-0.069334805 -0.04738724 -0.0069050556 -0.066178896 0.05203625 0.029067015 0.03283147 0.026367037
-0.012976973 -0.037004113 0.057392016 -0.08186354 0.0034140814 -0.03872445 -0.012078375 -0.04738157

fc3.bias f4 [256]
00000000: dcb8 adbd 1a79 86bd a043 7c3b 6ed5 ddbd
00000010: 5c49 9bbd f956 b9bd 41c2 63bd 1b0c 05be
00000020: d9b8 21be 4876 283d 8f6d 03be fd40 0e3e
00000030: 8706 abbd ab3a 1abe c1b7 833b 6371 d5bd
00000040: b2d5 dfbc c92d 25bf 4320 d83c 8c4a 9b3c
00000050: 38dc 273d a088 00be 96c5 73be 7a4f 133f
00000060: ff55 643d 87fd 23bd 5885 2fbf 48f5 c6bf
00000070: 219a 2ebf c84b 343d 5b16 993e ddf7 97bd
00000080: 7721 84bb 27c5 21be c6b6 aa3d aa47 0fbe
00000090: d2a3 1a3c 5e71 c5bd f537 b6bd 9008 d8bd
000000a0: c4b8 c6bd 15ff a6bd d14f 0cbd 79a6 37bd
000000b0: 2a72 0f3e 1f63 2ebe 622b 8a3a 1285 5dbd
000000c0: a172 aebd f4d4 13bc 9735 f7bd 08b7 2fbd
000000d0: df4c 49bf 00c2 7c3a cc97 d0bd c468 a9be
000000e0: 1da8 58be 67d4 87bd e709 2040 0b24 a7be
000000f0: 5554 a23f 7dd6 a9bd 8469 dbbd 7474 573e
00000100: 24e5 e0be 2c7b 51bd fc7f f1bc b1cc 1bbe
00000110: 6dca 85bd 05e7 55bd a788 dcbd 1eaa 98bd
00000120: e85b c73e 6862 c13e ecca 2ebe a8b6 a6bd
00000130: 05e4 7abd 8fd4 733c 304b 8fbb 74c4 c5bd
00000140: 0144 c0bd 02be babd 5896 d63e 3319 27bd
00000150: e47c c0bd bea3 25be c4e3 2abc ba79 993d
00000160: 0a6f 0cbe 1fe2 17be 0c4b fcbd f9db 08bd
00000170: 76f6 43bc a5e8 c8bd aee2 e3be ae5d 73bd
00000180: 7e33 5dbd a128 4bbe d77a ee3d a862 e4bc
00000190: f5e9 3abd 677a 623e 2ff5 06bc 06eb e4bd
000001a0: f439 86be cca8 7abd b61e ab3b bebd fe3d
000001b0: 4719 c0bd 5653 aa3d 0ad0 ccbd 964e c0be
000001c0: a3d6 393d c375 e7bd cf8c 483d 931d 0ebd
000001d0: fb9c e3bd 5072 bbbd b456 7e3d 24ea e9bd
000001e0: 790e 08bd 05b2 09bd f5ce babd 79db 56bd
000001f0: c1ba b6bd ba53 07bc 3cd2 13be c9f9 b93b
00000200: 682e 03bd 82cd 5cbe b67e cc3d c6d4 63ba
00000210: 3cfb bebd 6860 dcbd 61b8 fabd 6fc0 363e
00000220: f8f2 703d e6ed 143e 373d cdbd 46f8 68be
00000230: e89a c0bd 3f57 52bc f9e8 ef3d 0b15 eb3d
00000240: 2108 fcbe 8e25 ebbd 364f b53c 8f06 88be
00000250: 9bba d4bd cc9c ad3d 3e8a f53d 8979 21bf
00000260: 0648 1dbe 2b11 003c d09b 0540 7984 e2bd
00000270: a094 80be 5832 e6bd e086 22bd 727a 95bd
00000280: 606b b93e 3522 16bf acaa 1bbe eabc 88bc
00000290: f985 77be 7ff2 36be b7d6 a1bd d8ba 12be
000002a0: 6718 91bc ffab 10bd 00fe 99bd d314 053f
000002b0: eda3 033e 3026 f1bd 6a38 1c3f 136b c1bd
000002c0: d279 3cbe 8f60 e3bd 7feb 033f dfd4 38be
000002d0: a6b3 1bbe 9310 18bf 2623 1abd 074a bcbc
000002e0: 47f4 a13f d79b 7f3d c1d7 cbbd a250 3dbd
000002f0: 0243 1cbe f759 b1bd 1e45 13be 8acf 17be
00000300: da5e a7bd f198 34bd 6068 1bbf ed61 c4bd
00000310: 5ca2 fd3f fe30 2bbd 1c9d 3e3c ceef b73d
00000320: ca1d 7e3d 458a d9bd 32ce bbbd b140 193e
00000330: c85f 5a3d 1197 9dbd f45a e8bd 3be9 5ebd
00000340: 292e 66bd 9f20 813c 1efb dabd 22c9 f73d
00000350: e4ee 87bd 82fe abbc dafb 5b3f b4ae 7e3e
00000360: 42ce c9bc 4c19 36bd c472 933d da86 2ebd
00000370: e32c 983f a62a 45bf f8bc 04be 7ba5 cfbd
00000380: d610 afbe dfd9 43bd 010c c7bd cd9e b5bd
00000390: 9ff0 6ebf e790 97bb f070 c2bd bea7 bebd
000003a0: 60e6 263d 307b 833f 2d50 81bd 3ade 6abd
000003b0: 8fb3 29bd 986b 8f3e af04 ccbd db0f 09bd
000003c0: ea51 3bbd 3f4e 46bd 681f 283e afff 89bd
000003d0: 6cde 11be 28b9 cdbd a6e1 833c 7ec6 e43e
000003e0: 236b 6ebd 7279 dbbd a847 2ebe 7751 b53e
000003f0: 9cf3 56bd d888 18bd 43eb 66bd 9393 82ba
-0.08482525 -0.06566067 0.0038492456 -0.10831724 -0.075823516 -0.09049792 -0.055605177 -0.12992899
-0.1579317 0.041128427 -0.12834762 0.13891979 -0.08350854 -0.15061443 0.004019708 -0.104220174
-0.027323578 -0.6452299 0.026382571 0.018956445 0.0409815 -0.12552118 -0.23805842 0.57543147
0.055746075 -0.040036704 -0.6856284 -1.5543604 -0.6820393 0.044017583 0.29899868 -0.07420323
-0.0040323096 -0.15797864 0.083356425 -0.13992181 0.009438472 -0.09640764 -0.08897392 -0.10548508
-0.0970321 -0.08154122 -0.034255806 -0.044836495 0.14008394 -0.17029999 0.0010541494 -0.054081984
-0.085179575 -0.00902294 -0.12070768 -0.04289916 -0.7863292 0.00096419454 -0.10185203 -0.33087742
-0.2115788 -0.066323094 2.5006044 -0.32644686 1.2681986 -0.082928635 -0.10713485 0.21040517
-0.4392482 -0.051142856 -0.029479973 -0.15214802 -0.0653275 -0.05222227 -0.10768252 -0.07454322
0.38937306 0.3777039 -0.17069596 -0.08140308 -0.061252613 0.014882221 -0.0043729767 -0.09656611
-0.09387971 -0.09118272 0.41911578 -0.040795516 -0.09398821 -0.16175744 -0.01043028 0.074939206
-0.13714233 -0.14832352 -0.123190016 -0.033412907 -0.011960616 -0.098099984 -0.4450888 -0.05941551
-0.054004185 -0.19839717 0.116445236 -0.027879074 -0.045633275 0.22117005 -0.008237167 -0.1117764
-0.2621609 -0.061196133 0.005222167 0.12438534 -0.09379821 0.08316676 -0.10000618 -0.37559956
0.04537071 -0.11301758 0.04896241 -0.034696173 -0.11113926 -0.09152663 0.062094405 -0.11421612
-0.033216927 -0.03361704 -0.09121505 -0.0524554 -0.08922339 -0.008259708 -0.14435667 0.0056755287
-0.03202668 -0.2156277 0.09985106 -0.00086910685 -0.09325263 -0.107605755 -0.12242199 0.17846845
0.058825463 0.14543876 -0.100214414 -0.22750959 -0.09404546 -0.012838184 0.11714358 0.11478623
-0.49224952 -0.11481772 0.022132497 -0.26567504 -0.10387155 0.08477172 0.11989258 -0.6307607
-0.15359506 0.007816593 2.087635 -0.110604234 -0.25113392 -0.11240071 -0.039679408 -0.07298745
0.36214733 -0.58645946 -0.15201825 -0.016691644 -0.241722 -0.17865942 -0.07902282 -0.14329088
-0.017711831 -0.03532028 -0.0751915 0.519849 0.12855501 -0.11774862 0.6102358 -0.09444251
-0.18405846 -0.111024015 0.51531214 -0.18049954 -0.15205249 -0.5940029 -0.037631176 -0.022984518
1.2652673 0.06240448 -0.09953261 -0.046219476 -0.15259936 -0.086597376 -0.14381835 -0.14825264
-0.081723884 -0.04409117 -0.6070614 -0.0958899 1.9815173 -0.04179477 0.0116341375 0.08981286
0.062040128 -0.10622076 -0.09170188 0.14966084 0.053314 -0.07694829 -0.11345473 -0.054421645
-0.056196366 0.015762625 -0.10692428 0.1209891 -0.06637362 -0.020995382 0.8593117 0.24871331
-0.024634484 -0.04445772 0.07199624 -0.042609073 1.1888698 -0.770182 -0.12962711 -0.10138985
-0.34192532 -0.0478152 -0.097190864 -0.088681795 -0.9333591 -0.004625428 -0.09494197 -0.09309338
0.040747046 1.0271969 -0.063141204 -0.057340838 -0.041431006 0.28011775 -0.09961831 -0.033462387
-0.045732416 -0.048414465 0.1641823 -0.06738221 -0.14245003 -0.100450814 0.016098808 0.44682688
-0.058207642 -0.10716523 -0.17019522 0.35413715 -0.052478418 -0.03723988 -0.056376707 -0.0009962193

fc4.weight f4 [256, 256]
00000000: 6ada 0b3d 1e11 0bbd fb2e 01bd ba12 693c
00000010: e193 ee3d 2884 b43d 2f8b d63d bca2 7ebc
00000020: df5c 49bd d823 4bbe c7e6 a1bd 896a 85be
00000030: 14f2 c03c 26d3 4b3d cd72 fd3c 4d13 75be
00000040: 1b73 7b3d dee4 65be e02a 81be 71e8 7cbb
00000050: 43df e7bd 55b5 9f3c afc6 f33c 0039 e4bd
00000060: 89f2 c93d 42d6 6c3d d3b5 86bd 4312 73bd
00000070: f433 6d3c 8c57 ab3d 6a0a 4e3e 0511 ab3c
00000080: 2fe1 9cbb 8e69 553d 8a29 8e3d 8c9d 0f3b
00000090: 597f 8fbd 4ccc 463c f545 833d 2cad 0c3d
000000a0: aa4d 4dbc 2935 173e 7905 16bd ad3b fa3d
000000b0: a740 913d 1ab4 06be 6d3f 4f3d 148c b13c
000000c0: 3fd7 a5ba bc27 fe3d e6a4 1ebb 38c9 203d
000000d0: baf7 09bc 2b02 053d b2b3 bf3d f93f 16be
000000e0: 78bb 133d 92ff 8dbc b2bb 1bbf 2e7b 013d
000000f0: a27f 5cbe acbb 583d 7be2 3e3d 4eea 5fbd
00000100: 9465 713c 7a0e f3bd 40d8 2b3d 7f74 07bd
00000110: 5f8a 423c e4af 913d e5f3 9e3d 494f aabd
00000120: d1df aabd 5b20 893d 8f93 59be 352f 2abd
00000130: c3a4 72bc efba 383e ee0b 36bd 6ae5 393d
00000140: e592 09be 4670 963d fc35 b1bd 045c bcbc
00000150: 3924 f53d d5ab 84bd 95c3 df3d 6c9a 17be
00000160: 0b89 76bc c201 633d d263 1c3d b102 863d
00000170: 6255 8a3d af77 4c3a 867b 38bd d606 893c
00000180: b09f 5d3d 56ee 13bd 1f17 e7bc 0102 73bd
00000190: 5b4c c8bc 4a71 83be 1847 6fbc bfde 1aba
000001a0: b3c2 0ebc b0f9 0abd e5d9 c93d 1115 7c3d
000001b0: da7c de3c 636c 6c3e 9696 dd3c e4c9 0bbc
000001c0: 160b 44be 37e5 2d3d 8c39 013e b5f2 d13c
000001d0: 9910 803d e8b4 e2bc eb64 743e 68c6 a3bc
000001e0: d39b 47bd 4294 463c f68d d4bd b0c6 173d
000001f0: eea9 c8bb 5fda a9bc 2e70 d5bd 0456 b8bd
00000200: 9c7a 573c 4027 48bd efbe 823e 7706 ba3c
00000210: d06b 6a3a 87bc d6bb 65b0 0fbc 4583 3cbe
00000220: 9f28 233e 0c68 413e c90a 25bd 485e a3bc
00000230: e8ef 5e3d af99 2c3d aeb2 1ebd 9565 1b3e
00000240: e972 5cbd 7c17 093e 641b 903b 2a1c 14bd
00000250: 8738 94bd f8b1 d23d bfbc a73e af79 f23c
00000260: c1df 26bd e389 b0ba 4fb0 bf3d 3e04 f63c
00000270: bae5 763c fcce 12bd 19e4 a9bc 7a89 0bbd
00000280: 406b 80be 6793 04bd ae2e 13be 2ed8 5fbe
00000290: ae9b 1ebd 548d 08be eaac 52bb d9a5 d93d
000002a0: 9869 58bd 1099 ac3d 92fc 9c3d f45c 1cbe
000002b0: 8614 08bd ed27 55bd 10c3 8cbd 9c89 86ba
000002c0: e9ee 13be 24b2 d93c 8eef 02be 92c0 5ebe
000002d0: 1669 153e 5b67 96bd 69a4 893d 9f3b b2bc
000002e0: 89b1 90bd 7e20 173e fc6a a23d 6801 733c
000002f0: 7799 22bd 39fc 9dbc 04f5 ad3d 0817 8b3d
00000300: 4357 dfbc 095b 5f3d d796 883b e673 3cbd
00000310: 7e93 88be 8f7a 0cbd 771a c9bc f441 8d3d
00000320: 8269 403e 501d 3c3d e189 9a3d 7131 923d
00000330: 7763 673e 89b0 68bd 698c 7fbd f6ca ff3c
00000340: a79a 053d 4968 1f3e 34cf a1bc 70f5 ca3d
00000350: b8f1 583b 82b2 85bd ce43 d2ba 9b81 86be
00000360: 1944 0f3e d015 d6b9 a111 c2bd 9917 b9bc
00000370: 9a44 07bd f55a 1bbd 44b6 d4be fabb 30bd
00000380: 84c4 2a3d 804c 983d 1b8e 55bc 632b 233c
00000390: e727 0ebf 045e ba3d 6611 cb3c 5cc1 f1bb
000003a0: ddd1 843e c8e0 8dbd 1914 13be 5ab3 383d
000003b0: 3b14 eebc a50e ca3d 5043 4dbd 2a9b 183d
000003c0: b186 a2bc 20a1 093d c3f3 553c 8848 9d3d
000003d0: 024e 9b3c 98da 6f3d 848b a23d ea9f e6bb
000003e0: b593 e2bd 7b0d df3c abd6 753c a2cb 81bd
000003f0: 6032 cabc 9385 3e3d c522 833c 2fb6 b43d
0.034143843 -0.03395187 -0.031538945 0.014225656 0.116492994 0.08814269 0.10475766 -0.015541729
-0.049160834 -0.19837892 -0.079053454 -0.26057842 0.023552932 0.049761914 0.03093853 -0.23933144
0.06138907 -0.22450587 -0.25228024 -0.0038590694 -0.11321881 0.019495646 0.029757826 -0.111436844
0.09860713 0.05782152 -0.06577649 -0.059343588 0.014477719 0.083663076 0.2012116 0.020882139
-0.004787586 0.052102618 0.06941517 0.0021913974 -0.070067115 0.012133669 0.064098276 0.034344837
-0.012530724 0.14766373 -0.036626313 0.122184135 0.070924096 -0.13154641 0.050597597 0.02167324
-0.0012652649 0.124099225 -0.0024207174 0.039254397 -0.008420879 0.03247277 0.09360446 -0.14672841
0.036067456 -0.01733378 -0.60833275 0.031611614 -0.21533063 0.052913353 0.046602707 -0.05466681
0.014733691 -0.118679956 0.04195428 -0.033070084 0.011873811 0.071136266 0.07761363 -0.08315904
-0.08343471 0.066956244 -0.21247695 -0.041548926 -0.01480979 0.1804006 -0.04444497 0.045384802
-0.13434942 0.07345633 -0.08652875 -0.022993095 0.119697995 -0.06478087 0.10925976 -0.14805001
-0.015047322 0.0554216 0.038181134 0.06543482 0.06754567 0.00077998167 -0.045039676 0.016726892
0.054107368 -0.036115967 -0.028209267 -0.059328083 -0.024450472 -0.2567237 -0.014604352 -0.00059078255
-0.008713412 -0.033929527 0.09856013 0.061543528 0.027159143 0.23088221 0.027049344 -0.008532021
-0.19144854 0.042454924 0.12619609 0.025628427 0.06253166 -0.027674153 0.23866622 -0.019992068
-0.04873259 0.012120308 -0.103786394 0.037054718 -0.006123773 -0.02073401 -0.10421787 -0.09000781
0.013151791 -0.048865557 0.25536296 0.02270816 0.0008942457 -0.006553236 -0.008770083 -0.1840945
0.15933464 0.18887347 -0.04029349 -0.019942418 0.05442801 0.04213875 -0.03874462 0.15175469
-0.053820524 0.13387865 0.0043977965 -0.03615967 -0.07237344 0.10287851 0.3276119 0.029599039
-0.040740732 -0.0013468828 0.093598 0.03003132 0.0150694195 -0.035841927 -0.020738648 -0.034066655
-0.25081825 -0.032367136 -0.14373276 -0.2185981 -0.038722686 -0.13335162 -0.0032146522 0.10627336
-0.052835077 0.08427632 0.076653615 -0.15269834 -0.033222698 -0.05204003 -0.06873143 -0.00102644
-0.14446606 0.026574202 -0.12786695 -0.21753147 0.14590868 -0.07343932 0.06720812 -0.021756945
-0.07065112 0.14758489 0.07930562 0.014831878 -0.039697137 -0.019285308 0.08493999 0.06791502
-0.02726329 0.054530177 0.004168372 -0.046008967 -0.26675028 -0.03429657 -0.024548752 0.06897345
0.18790248 0.045926392 0.075458296 0.071383364 0.22596537 -0.056808982 -0.062389765 0.031224709
0.03261819 0.15567125 -0.019752122 0.09910095 0.003310306 -0.06528188 -0.0016041936 -0.26270756
0.13990821 -0.00040833512 -0.09476019 -0.02259426 -0.033024408 -0.03792854 -0.41545308 -0.04314802
0.04169132 0.07436466 -0.013034369 0.009959075 -0.55529636 0.09099963 0.02478857 -0.0073777866
0.25941363 -0.06927639 -0.14363135 0.045092918 -0.029062381 0.098660745 -0.050113022 0.03725735
-0.019839616 0.033600926 0.013058606 0.0767985 0.018958095 0.058558077 0.07936767 -0.007038106
-0.11063329 0.027228108 0.015004794 -0.06337668 -0.024682224 0.046514105 0.01600779 0.08823811

fc4.bias f4 [256]
00000000: 3300 433e 54c3 17be 754b 2dbd b73d c0bd
00000010: 50d0 09bf 7d23 35bf 8b7c 4cbe 17f6 0cbe
00000020: eed2 3d3f 50df a13d 7515 3fbe 165b ccba
00000030: 6308 ea3d 4656 123d d750 383e 843b 83bd
00000040: e992 2cbe 5c20 373d 8888 0bbe 7cb6 48be
00000050: dd14 bcbd ea94 133e 6eeb 3a3c 5ee6 53bc
00000060: 1e2b 5dbe bfbc 57be 0b2e e83d 28ac 9cbe
00000070: 2808 71be 6639 54be b4fb dabe 03e3 66be
00000080: 0a47 52be 1870 e9bd 71b0 c4be f0b6 833f
00000090: 2a39 46be c062 8a3d b15b 4e3e 6995 72be
000000a0: 2e4e bdbd f2bf fabd 9cb0 2a3e fd39 9dbe
000000b0: f605 7ebe 387c b9bd e22b a73c 59b1 df3c
000000c0: f1b0 093d 2d86 07bf f887 3cbe ccd6 04be
000000d0: de35 2c3d 82f1 5bbe 99ac 00be 5048 a1bd
000000e0: 818a a0be 6a18 abbe 1aab e3be 9272 55be
000000f0: 3901 01bc 15b5 d03d a188 aa3c 2190 bcbd
00000100: d0b9 16be d232 143e 2c39 ebbe a9bf 513d
00000110: 6c2e b7be eb5d 1d3d 64eb 7dbe 7be3 713f
00000120: 229b 8cbe 1130 2c40 84f8 85be f731 d6bd
00000130: da06 8fbe d9c0 a8be e513 9abe 725e 47be
00000140: 5dc4 e2bd af36 45be baff 98be 69e1 a93c
00000150: bf02 80bd 754e 04be 7515 14bf 3484 81be
00000160: b51c 983d 6bbb 18be e528 13be 53c2 d73f
00000170: 86e1 0bbf 3394 8abe 2d4f 96be 872f 5fbe
00000180: 3356 bdbe 30c2 37be 7c5b 45be 15a9 00be
00000190: fe29 2a3c 0fc5 1ebf 57c7 f6bd f337 3d3f
000001a0: 3113 97be d4c7 a8bd c524 023e 30c0 c9bd
000001b0: 1c38 43be a6ec 67be 567f 683e 97be f2bd
000001c0: 8963 83bd cbf2 09bc f85d a4be b227 1b3f
000001d0: 47c9 80be e618 c43b e7e7 73be 093b 99bd
000001e0: ad60 62be 1c06 76be fd89 91bd ed03 88be
000001f0: 4f2e 14be 3c5b 41bb f516 aebc 57c2 a43c
00000200: 52a7 d7be fdbf 653d ad3f c0be cd26 44be
00000210: b19c 11be b815 8abe f73d 983d 9ccc bdbe
00000220: d171 cf3e eab8 a3bd 1fb1 2ebe 5657 3ebe
00000230: a10d 34be 8e4f 1d40 8e8c 77be 1ee3 3abe
00000240: 1140 0fbe 9475 c8bd a24a e3bd 62db 11be
00000250: 8a33 a4bd 11e4 eabd 7419 0dbe cfcc 8a40
00000260: c482 11be 1cac 12bf a87c dbbe 5e4d d7be
00000270: 8001 a2be 401e 30be 0447 5abe b2af bbbd
00000280: f804 8bbe 31fa b1be b976 963e cad9 333d
00000290: cbd5 b6bc 8439 39be 07df f1be a237 a03e
000002a0: 3716 0fbf a975 3cbe 938e 14be 8f04 59bc
000002b0: 2ab9 2c3e e68f 8ebe 5c08 84be 0097 9dbe
000002c0: 9e38 06be cd00 01be ceae 73bd 5698 92be
000002d0: 37e7 b03d fb48 bcbd cc8c 14be 26c9 893e
000002e0: cd44 c6bd cd84 4c3d 0821 07be b169 46be
000002f0: 2cf6 9dbe 01b6 e5bd c0de 12be 9baf 6d3e
00000300: 1a3b 20be 5ebb 3e3c 0d60 5bbe 6bff 7ebe
00000310: 8a62 3abe 65b4 bdbd b11a cabe 37b5 1dbe
00000320: 0372 643f cc41 babe 1135 95be 52d6 04be
00000330: 6e83 10bd d8ba 023f a3d8 613d 91dd 9c3f
00000340: 4eca 243d 4a82 75be 1354 b33d 5dc3 21be
00000350: ba9b 91bd cc78 50be e3ba e0bd 74a2 183e
00000360: 9387 0ebe 0488 cabe 1518 b2be 514b 653d
00000370: 529f 893e 8894 463e 28b9 86be dc13 6d3d
00000380: 18f3 4bbe 5f58 f3bd 0e9d 863f cbbe 14be
00000390: 6335 ad3d 5640 303f 4ffb 4abe 20d4 16bd
000003a0: 5dd3 fa3d 0f53 1b3d 5ef2 8cbe 3aad 8abe
000003b0: 8975 3040 d6a2 763c 4897 0ebe 60b8 31bd
000003c0: 2c3e 723d 31a6 a2bd aa7d 26be 575b c4be
000003d0: f9b9 67be be3e e8bd 04fe bebe 8bed 03be
000003e0: 631e 1abd dba7 84be 3717 99be 821f 1ebe
000003f0: 37c4 5f3f b501 aa3e 5839 86be 38e0 90bd
0.19043045 -0.14820606 -0.04230829 -0.09386771 -0.53833485 -0.70757276 -0.19969384 -0.13765751
0.7414998 0.079039216 -0.18660529 -0.001559111 0.11427381 0.035726808 0.17999588 -0.06407836
-0.16852917 0.044708595 -0.13626301 -0.19600862 -0.09183667 0.14412275 0.01140867 -0.012933342
-0.21598479 -0.21068095 0.11336907 -0.30600095 -0.23538268 -0.20725021 -0.4277016 -0.22547536
-0.20534912 -0.11398333 -0.38415864 1.0290203 -0.19357744 0.06757116 0.20152165 -0.23689808
-0.09243427 -0.12243642 0.16668934 -0.30708304 -0.24806961 -0.09056896 0.020406667 0.027306246
0.03361601 -0.5293911 -0.18411243 -0.12972564 0.04204356 -0.21478847 -0.12565841 -0.07875121
-0.3135567 -0.33417064 -0.44466478 -0.20844486 -0.007873827 0.10190789 0.020817103 -0.09207178
-0.1471932 0.14472511 -0.45942056 0.051208172 -0.35777605 0.038419645 -0.24796826 0.9448773
-0.27462107 2.6904337 -0.26166165 -0.10458749 -0.27934915 -0.3295963 -0.30093303 -0.19469622
-0.110726096 -0.19259141 -0.29882604 0.020737367 -0.06250524 -0.12920554 -0.5784524 -0.25296175
0.074273504 -0.14915244 -0.14371069 1.6856178 -0.54640996 -0.27066192 -0.2935728 -0.21795474
-0.36979827 -0.1794517 -0.1927318 -0.125645 0.010385988 -0.6201944 -0.1204974 0.73913497
-0.2950683 -0.08241239 0.12709339 -0.0985111 -0.19064373 -0.22648868 0.22704825 -0.118527584
-0.06415469 -0.008419703 -0.32102942 0.60607445 -0.25153562 0.0059844134 -0.23818932 -0.07481963
-0.22107191 -0.24025768 -0.07106397 -0.26565495 -0.1447079 -0.0029503843 -0.021251181 0.0201122
-0.42119843 0.056091297 -0.3754858 -0.19155426 -0.1421993 -0.26969695 0.07433694 -0.37070167
0.40516523 -0.07994254 -0.17059754 -0.18588004 -0.17583324 2.4579806 -0.24174711 -0.18250701
-0.13989283 -0.09788051 -0.110982195 -0.14243844 -0.08017643 -0.114692815 -0.13779241 4.337501
-0.1421004 -0.5729387 -0.42868543 -0.42051214 -0.3164177 -0.1719904 -0.21316153 -0.091643706
-0.27152228 -0.34761193 0.29387453 0.04390887 -0.022318741 -0.18088347 -0.4724047 0.31292444
-0.5589327 -0.18404259 -0.14507513 -0.013245716 0.1686751 -0.2784416 -0.25787628 -0.30779266
-0.13107535 -0.12597962 -0.05949288 -0.28631848 0.08637851 -0.091936074 -0.14506835 0.26911277
-0.096810915 0.049931336 -0.13196194 -0.19376256 -0.30851877 -0.11216355 -0.14342785 0.2321152
-0.15647545 0.0116413515 -0.21423359 -0.24902122 -0.18201652 -0.09262923 -0.3947349 -0.15401159
0.8923647 -0.36378324 -0.2914205 -0.12972382 -0.03528159 0.5106635 0.05513824 1.2255117
0.040231995 -0.23975483 0.0875627 -0.15797181 -0.071097806 -0.2035858 -0.10973146 0.14905721
-0.13918905 -0.39556897 -0.34783998 0.05598003 0.26879364 0.19392598 -0.26313138 0.057880268
-0.19916952 -0.1188209 1.0516679 -0.14525907 0.08457448 0.6884817 -0.19822429 -0.036823392
0.122473456 0.037921008 -0.2752866 -0.27085286 2.7571738 0.015053472 -0.13924897 -0.043388724
0.059141323 -0.07941855 -0.16258875 -0.38350937 -0.22629537 -0.11340092 -0.37303174 -0.12883584
-0.037626635 -0.25909314 -0.29900524 -0.15441707 0.87408775 0.33204427 -0.26215625 -0.07074016
