model/DDQN with batchnorm/EX1_Player_model_epoch_4500.pth (torch_old, 854519 bytes, 10 tensors)

fc1.weight f4 [256, 57]
1.2396537 -0.5002306 0.45296746 -1.3196028 0.9599995 -0.46186146 0.5911851 0.053989645
0.35823745 0.034668576 0.30655542 -0.85900295 0.08473171 -1.0380143 0.43022954 -0.71625173
0.6929967 0.28374422 0.26053548 0.02797891 -0.39193058 0.46630868 -0.96163577 -2.217691
-1.4617792 -0.3313173 -1.131883 -0.7249819 -0.083384335 -0.6214741 -0.051630266 1.2022992
-0.15267166 -1.3150109 -0.15482314 -0.19086763 -1.331359 0.05157495 0.05910307 -0.60751367
0.0069659203 -0.3222544 -0.6557108 -1.3723238 -0.4236811 -0.044215262 -1.1650642 0.03162675
-0.37971598 -1.2534122 -0.4632388 0.14448242 -1.1960661 0.10502181 -0.59158355 -1.3266311
0.13268948 0.1534454 -0.2599368 0.058976404 -0.09509396 0.22551616 -0.21363801 0.25731993
-0.06324788 0.24602437 -0.09203803 0.15668482 -0.08401573 0.2738301 -0.25766775 0.14140773
-0.09025708 0.18882246 -0.10047668 0.17220011 -0.23580092 -0.17258014 0.057418723 -0.3836176
-0.26048243 0.03399518 0.011051242 -0.4620092 0.034673404 -0.022313073 0.27679273 -0.06063138
-0.099002704 -0.07212972 -0.27987483 0.133843 0.101142354 -0.2789053 -0.06423343 -0.085922
0.08210291 0.027722642 -0.12571919 -0.0862386 -0.20454791 0.041038107 -0.08461217 -0.36248893
-0.12881051 -0.027626919 -0.42889738 -0.14937401 0.064779066 -0.30926526 -0.06007966 0.014228268
-0.40975523 0.0866993 -0.1469297 -1.918388 0.50814384 -0.23382445 0.36686856 -1.2023915
1.0203825 -0.42981535 0.21073197 -1.6247574 0.49691555 -1.0319129 0.84885985 -0.26167774
0.34965307 -0.18190683 0.77758604 -0.040939603 0.89513355 -0.22402085 0.30291826 -0.3380151
0.3926685 -0.6090396 -0.2699996 -0.23173226 -0.8567904 -0.08440566 0.1257529 0.376416
-0.118985586 0.9576157 0.31343508 -0.98094314 0.005731421 0.12176142 -1.1040483 -0.040226035
-0.026866384 1.1264375 0.07160966 -1.3760226 -0.119551145 -1.082468 0.082360715 -0.3100956
-1.0043367 -0.13510026 -1.3345761 -1.0931875 -0.20009415 0.11580865 -1.0389954 0.9998224
0.24992493 -0.98776585 -0.5300573 1.1419905 -0.93007195 1.2217169 -1.3772874 1.1134082
-1.5408262 0.2472717 -1.326452 0.86086184 -0.90527236 0.56618834 -1.1386757 0.64096993
-0.9213842 0.22535183 -1.2917265 0.8556908 -1.9382964 0.6225419 -1.7621891 -0.8194859
0.2008887 -0.90514773 -0.6613196 -3.029481 0.068641566 -0.5005245 0.2705494 -0.0028897524
-0.48549283 0.0853824 -0.7494519 -0.23218113 -0.62993234 0.15343206 -0.1888654 -0.44130468
0.108620875 0.016772032 0.7779126 -0.02618356 0.54290843 -0.044851355 -0.54366046 0.044996854
-0.41111168 -0.61214805 0.44030562 0.12229656 -0.55223876 0.008811575 0.4277701 -0.5389795
0.27496678 -0.045917448 -0.63707185 -0.35600895 1.0131742 -0.57005405 1.6563348 -0.17613095
-0.6597657 -1.3291079 0.33932757 -0.72835016 -0.032953866 -0.22750242 0.13242246 -0.24667402
-0.7566305 -0.720291 -0.8614664 -0.7040285 0.07950855 -1.2543235 -0.2396223 -0.933617
0.20104301 0.6788764 -0.57722723 1.7054529 -2.6975086 -0.27901784 -0.605813 -0.73392063
00000000: f9ac 9e3f 1d0f 00bf 5aeb e73e bfe8 a8bf
00000010: 87c2 753f 1b79 ecbe e857 173f 3f24 5d3d
00000020: e66a b73e a300 0e3d d5f4 9c3e 9ee7 5bbf
00000030: d287 ad3d a7dd 84bf 0c47 dc3e 465c 37bf
00000040: 3b68 313f ec46 913e e864 853e 0734 e53c
00000050: 20ab c8be 03c0 ee3e c32d 76bf a6ee 0dc0
00000060: 951b bbbf 6ca2 a9be 8be1 90bf 6a98 39bf
00000070: 68c5 aabd ed18 1fbf 427a 53bd f1e4 993f
00000080: f655 1cbe 4752 a8bf f589 1ebe ce72 43be
00000090: f969 aabf 4140 533d 1016 723d 0486 1bbf
000000a0: 6042 e43b 87fe a4be aadc 27bf 4ea8 afbf
000000b0: bbec d8be 101b 35bd d320 95bf 0d8b 013d
000000c0: 226a c2be d06f a0bf a32d edbe 33f3 133e
000000d0: b218 99bf ad15 d73d 0572 17bf 0ccf a9bf
000000e0: c0df 073e ca20 1d3e 7016 85be 3e91 713d
000000f0: 9fc0 c2bd b5ed 663e ecc3 5abe 70bf 833e
00000100: 1b88 81bd d0ed 7b3e 6f7e bcbd fc71 203e
00000110: 7010 acbd 7533 8c3e 07ed 83be 30cd 103e
00000120: b4d8 b8bd ad5a 413e b8c6 cdbd 3a55 303e
00000130: cc75 71be d9b8 30be e52f 6b3d 8769 c4be
00000140: f45d 85be 883e 0b3d 4510 353c 788c ecbe
00000150: b305 0e3d e8c9 b6bc c7b7 8d3e 9c58 78bd
00000160: eec1 cabd bfb8 93bd c14b 8fbe 240e 093e
00000170: b923 cf3d adcc 8ebe d18c 83bd e0f7 afbd
00000180: 9225 a83d 981a e33c 88bc 00be dd9d b0bd
00000190: 0275 51be 9317 283d 2549 adbd 2698 b9be
000001a0: e7e6 03be d951 e2bc 7098 dbbe 80f5 18be
000001b0: e3aa 843d 0458 9ebe 1716 76bd ae1d 693c
000001c0: 70cb d1be 678f b13d bd74 16be bd8d f5bf
000001d0: b715 023f ad6f 6fbe 32d6 bb3e f7e7 99bf
000001e0: e59b 823f c210 dcbe 1fca 573e 0df8 cfbf
000001f0: b76b fe3e b915 84bf e14e 593f a0fa 85be
00000200: ba05 b33e c945 3abe e10f 473f 49b0 27bd
00000210: 7927 653f b965 65be 1a18 9b3e 5110 adbe
00000220: d80b c93e 05ea 1bbf 633d 8abe 394b 6dbe
00000230: 9e56 5bbf e0dc acbd 5ec5 003e 99b9 c03e
00000240: b7ae f3bd 4d26 753f 907a a03e 171f 7bbf
00000250: a5ce bb3b 0d5e f93d 7451 8dbf 0ec4 24bd
00000260: e416 dcbc 1b2f 903f 16a8 923d 8221 b0bf
00000270: 3bd7 f4bd 508e 8abf bcac a83d dac4 9ebe
00000280: 1b8e 80bf b957 0abe 64d3 aabf 91ed 8bbf
00000290: 7be5 4cbe 162d ed3d cdfd 84bf 5cf4 7f3f
000002a0: 52ec 7f3e 39de 7cbf d6b1 07bf bf2c 923f
000002b0: 3219 6ebf 3861 9c3f f44a b0bf 2984 8e3f
000002c0: cb39 c5bf cb34 7d3e 2ec9 a9bf 7161 5c3f
000002d0: eebf 67bf b8f1 103f 20c0 91bf 9b16 243f
000002e0: d6df 6bbf a1c2 663e 4b57 a5bf 8d0e 5b3f
000002f0: 191a f8bf e85e 1f3f 6a8f e1bf d4c9 51bf
00000300: c4b5 4d3e c3b7 67bf 3e4c 29bf 04e3 41c0
00000310: f393 8c3d 6022 00bf 7385 8a3e 0062 3dbb
00000320: 8492 f8be f8dc ae3d 14dc 3fbf e4c0 6dbe
00000330: 3f43 21bf 4b1d 1d3e ee65 41be b0f2 e1be
00000340: 9f74 de3d 8065 893c 4825 473f e87e d6bc
00000350: 0cfc 0a3f 0eb6 37bd 552d 0bbf 9f4e 383d
00000360: 3b7d d2be bcb5 1cbf bd6f e13e 9e76 fa3d
00000370: 855f 0dbf 6d5e 103c af04 db3e 8ffa 09bf
00000380: 72c8 8c3e ef13 3cbd 2417 23bf ce46 b6be
00000390: b1af 813f 10ef 11bf c702 d43f ac5b 34be
000003a0: 68e6 28bf 3520 aabf 58bc ad3e 2875 3abf
000003b0: a2fa 06bd 65f6 68be c199 073e 1d98 7cbe
000003c0: 89b2 41bf fe64 38bf 1089 5cbf 363b 34bf
000003d0: 61d5 a23d ac8d a0bf 8c5f 75be 8601 6fbf
000003e0: 38de 4d3e d8ca 2d3f 2ac5 13bf 484c da3f
000003f0: fba3 2cc0 6ddb 8ebe 9016 1bbf 39e2 3bbf

fc1.bias f4 [256]
-1.2630366 -0.24733908 -0.9462907 -0.643402 -0.46321177 -0.62114376 -0.118887305 0.18721561
-0.541269 0.5448766 -0.79265994 -0.7895373 -0.7365825 -1.0727373 -0.74594814 -0.61876446
-0.797507 -0.42898363 -1.1871185 -0.52207166 -0.5714736 -0.5411114 0.3689282 -0.9706132
-1.3346175 -0.7753473 -0.7260936 -0.72472245 -0.036304943 -0.75793535 -0.55774724 -1.2718033
-1.2057266 1.3421924 -0.49640256 -1.0258996 -0.4749113 -1.0049348 -0.7264949 -1.1011643
-0.31900972 -0.972322 -0.10330842 -0.4918605 -0.6921225 -0.11631784 -1.0123984 -0.5734315
-0.5809755 -1.0934334 -1.0865068 -0.7118404 -0.57129735 -1.307234 -0.78216964 -0.87298876
-0.12645216 -0.47084737 -0.60965127 -0.37717375 -0.74813515 -0.89906687 -0.28448611 -0.65564173
-0.7032029 -1.4438928 -0.8181945 -0.812593 -0.701091 -0.025500046 -1.0856187 -0.20092478
-0.57575274 -0.39580432 -1.1400354 -0.5171639 -0.6127642 -0.85170346 -0.7246415 -0.15566872
-0.26674414 -0.793148 -0.38388366 -0.2721385 -0.8497406 -1.0134456 -0.8267098 -1.0132939
-0.9640035 -0.6930857 2.8232434 -0.20415062 0.030420285 -1.2805144 -1.1626885 -0.6688882
-1.1201378 1.0090698 -0.96979946 -0.7834747 -0.74404144 -1.3400999 -1.1664952 -0.30094302
-0.80803293 -0.4355206 -1.039167 -0.19726907 -0.21623266 -1.348479 0.13288634 -0.46557248
-0.9807525 -0.5556895 0.0069061383 -0.7026611 -0.70241123 -0.19191055 -0.57665443 -0.90822023
1.0682471 -0.351458 -1.2725 -0.88332224 -0.81648254 -1.2958127 2.5232797 -1.1686113
-1.1600442 0.25634867 -0.11811406 -1.1125014 -0.28505227 -0.63681984 -0.118114896 -0.10382311
-0.2859491 -0.4460521 0.062671304 -1.1311011 -0.60189193 -0.77123475 -0.92018014 -0.55425316
-0.88759804 0.47671667 -0.81533724 -1.0929215 -0.13294928 -1.44117 -0.7021572 -0.85616755
-0.7776956 -0.61644137 -0.33040142 -1.5059048 -0.7457741 -1.3957878 -1.1485966 -0.24803232
0.08415094 -1.3559023 -0.8437769 -0.6881296 -1.3568109 -0.23548546 -0.45947075 -0.21963297
-0.9592819 -0.9107308 -1.3108517 -0.7228256 -0.7404299 -1.2459509 -0.85546726 -0.56153864
-1.3565564 -0.35429853 -0.8040911 -0.110118456 -0.10532848 -0.59954983 -0.8589398 -0.80323565
-0.28385943 -0.1619175 -1.0152926 -0.8125928 -1.2941444 -0.64931697 -0.864625 -0.86691123
0.5592344 -0.9948833 -0.86514634 -0.87501985 -0.2903079 -0.015944667 -1.0891623 -1.3830329
0.10846849 -1.1498876 0.03918604 -0.4165994 -1.0965445 -0.5286045 -0.7497073 -0.6986139
-1.064862 -0.77964365 -0.40658242 -0.5583523 -0.5299198 -0.8761546 -1.0761633 -1.3814639
-1.2808822 -0.5271455 -0.21223827 -0.71418285 -0.24806961 -0.0009490245 -0.76493216 -0.6391962
-0.8954936 -1.1974622 -0.658497 -0.36375457 2.5478606 -1.5630037 -0.55478823 -0.77311087
-0.53229314 2.5920641 -0.7916772 -0.24914123 -0.71104854 -0.63500303 -0.13056824 0.1850814
-0.7238607 -0.18413788 -1.2246907 -0.76878405 -0.18499668 -1.2532499 -0.8209493 -0.60779643
-0.55977076 2.702455 -0.75199074 -0.88182694 -0.22668518 -0.98623955 -0.47881564 -1.0857077
00000000: 2fab a1bf 7546 7dbe 1b40 72bf feb5 24bf
00000010: 182a edbe 4703 1fbf 307b f3bd 73b5 3f3e
00000020: 9b90 0abf 087d 0b3f c3eb 4abf 1e1f 4abf
00000030: ac90 3cbf 754f 89bf 75f6 3ebf 5967 1ebf
00000040: 6b29 4cbf bea3 dbbe 80f3 97bf 7da6 05bf
00000050: 184c 12bf 4786 0abf 28e4 bc3e 1b7a 78bf
00000060: bfd4 aabf 297d 46bf 45e1 39bf 6987 39bf
00000070: 7eb4 14bd 0d08 42bf 86c8 0ebf 73ca a2bf
00000080: 4055 9abf f6cc ab3f 7a28 febe ae50 83bf
00000090: 9327 f3be b4a1 80bf 92fb 39bf f4f2 8cbf
000000a0: 3e55 a3be 18ea 78bf 5d93 d3bd 24d5 fbbe
000000b0: f12e 31bf 0c38 eebd 4596 81bf 68cc 12bf
000000c0: cfba 14bf a0f5 8bbf a812 8bbf 2c3b 36bf
000000d0: 8b40 12bf 7253 a7bf 453c 48bf 317c 5fbf
000000e0: ad7c 01be e812 f1be 1b12 1cbf eb1c c1be
000000f0: c985 3fbf 3f29 66bf 2aa8 91be 23d8 27bf
00000100: 1b05 34bf 7bd1 b8bf 3275 51bf 1806 50bf
00000110: b37a 33bf 79e5 d0bc 8ef5 8abf 3abf 4dbe
00000120: 8864 13bf dda6 cabe aeec 91bf da64 04bf
00000130: 1dde 1cbf 3d09 5abf 1b82 39bf 9f67 1fbe
00000140: b092 88be bf0b 4bbf 668c c4be bd55 8bbe
00000150: 9a88 59bf 96b8 81bf 41a3 53bf 9db3 81bf
00000160: efc8 76bf 106e 31bf 05b0 3440 dc0c 51be
00000170: f633 f93c e5e7 a3bf fad2 94bf 423c 2bbf
00000180: ad60 8fbf 3329 813f c744 78bf cc91 48bf
00000190: 8079 3ebf 6588 abbf b74f 95bf 3415 9abe
000001a0: 3fdb 4ebf 8efc debe 6d03 85bf e700 4abe
000001b0: 186c 5dbe f69a acbf 5b13 083e 845f eebe
000001c0: 9912 7bbf ab41 0ebf e34c e23b 99e1 33bf
000001d0: 39d1 33bf 3384 44be a09f 13bf 1f81 68bf
000001e0: 52bc 883f 4ef2 b3be 48e1 a2bf 6821 62bf
000001f0: 0005 51bf 31dd a5bf 6a7d 2140 0e95 95bf
00000200: 547c 94bf 2240 833e c9e5 f1bd 7266 8ebf
00000210: 5ff2 91be a006 23bf 39e6 f1bd 36a1 d4bd
00000220: ec67 92be f160 e4be d059 803d ecc7 90bf
00000230: 9715 1abf a46f 45bf ed90 6bbf 89e3 0dbf
00000240: a039 63bf 3514 f43e f1b9 50bf dae4 8bbf
00000250: db23 08be 4278 b8bf 93c0 33bf cc2d 5bbf
00000260: 0f17 47bf 1acf 1dbf 602a a9be 7dc1 c0bf
00000270: 0deb 3ebf 2da9 b2bf 3705 93bf 2ffc 7dbe
00000280: 5457 ac3d 358e adbf c301 58bf 4329 30bf
00000290: fbab adbf 1a23 71be c03f ebbe 77e7 60be
000002a0: 8093 75bf a725 69bf fdc9 a7bf 190b 39bf
000002b0: d08c 3dbf 527b 9fbf e7ff 5abf ffc0 0fbf
000002c0: a4a3 adbf 9e66 b5be ead8 4dbf c985 e1bd
000002d0: 75b6 d7bd 197c 19bf 7be3 5bbf daa0 4dbf
000002e0: 0656 91be b3cd 25be 1cf5 81bf 1506 50bf
000002f0: 86a6 a5bf a339 26bf 1058 5dbf e5ed 5dbf
00000300: fc29 0f3f acb0 7ebf 3b7a 5dbf 4d01 60bf
00000310: 3da3 94be 649e 82bc ac69 8bbf 3907 b1bf
00000320: ba24 de3d 842f 93bf 8b81 203d 844c d5be
00000330: 925b 8cbf a052 07bf d1ec 3fbf 5cd8 32bf
00000340: 664d 88bf ba96 47bf 922b d0be 2df0 0ebf
00000350: d3a8 07bf ab4b 60bf b8bf 89bf cfd3 b0bf
00000360: f3f3 a3bf 02f3 06bf fd54 59be b0d4 36bf
00000370: f605 7ebe f5c7 78ba 98d2 43bf 5da2 23bf
00000380: 123f 65bf 7146 99bf 4293 28bf 0a3e babe
00000390: 2610 2340 8110 c8bf 9a06 0ebf 98ea 45bf
000003a0: 5d44 08bf 61e4 2540 5bab 4abf e11e 7fbe
000003b0: 4707 36bf 8f8f 22bf aeb3 05be fb85 3d3e
000003c0: ef4e 39bf a48e 3cbe aac2 9cbf 08cf 44bf
000003d0: c56f 3dbe 7e6a a0bf bc29 52bf 8c98 1bbf
000003e0: 234d 0fbf 06f5 2c40 7782 40bf 69bf 61bf
000003f0: 2920 68be 327a 7cbf 5327 f5be 78f8 8abf

fc2.weight f4 [256, 256]
0.28769308 -0.0023577241 -0.4211634 -0.520365 -0.069097936 0.04348209 -0.4906892 0.24529786
0.1346955 -0.12829481 0.1306477 -0.4296306 -0.3587099 0.55417275 -0.27442846 0.0643919
1.5971903 0.5241169 0.25826046 -0.9881492 0.4626222 -0.6090871 -0.5314874 0.795054
0.9701561 0.019671328 0.027924398 0.6611969 -1.2107592 0.45331353 0.7747433 0.4730462
1.876876 -0.86263746 0.3533775 0.5385208 0.24307783 0.056148034 0.2784757 1.1809893
0.2199431 -1.0524559 1.41824 0.62271386 0.12988421 -0.28168297 -0.31220573 0.6620681
0.17524447 -0.07332976 -0.40572906 1.3978343 -0.45840228 0.9643488 0.89792675 0.52217656
0.36356524 0.052713186 -0.4278245 0.18074967 -0.3620046 0.901169 -1.0852175 0.02894482
0.23168637 1.4357074 0.4359046 -0.78171873 0.30481893 -0.49941784 -0.42396593 0.5741706
-0.1576339 0.13367006 -0.10280547 -0.8614198 1.157027 0.5746196 0.74016976 0.869828
1.219541 -0.45376474 0.7897718 0.16159442 -0.11935332 0.09394166 0.043072615 0.5275523
-0.29746175 -0.22835831 -0.7708155 0.9796623 0.03305665 0.35980073 0.39503834 -0.30052704
0.6298549 -0.7861117 -0.5734607 -0.31128594 -0.3312768 1.0261295 -0.032596614 -0.46974865
0.15087584 0.4782978 0.97049487 0.88368684 0.3642172 0.4214013 0.35202977 0.16391139
0.40677872 0.7947875 -0.45919526 1.049623 -0.13430443 0.9953943 -0.71835786 -0.28794536
-0.36574623 0.50590503 -0.01055364 0.30350557 0.3245103 0.80179685 -0.8393163 -1.1135292
0.81075644 -0.580517 -0.020680387 1.0180091 -0.16919193 -0.2006657 0.35414925 -0.31784776
-0.97658026 1.2222971 -0.3541217 0.1181963 -0.25360748 0.81444967 0.45555168 -0.3571516
-0.2918688 -0.8511977 0.12293015 0.28741896 0.38509765 0.6374102 0.4023372 -0.44479275
-0.37829748 -1.0117648 0.10253105 -0.49466047 -0.42980033 1.0820515 -0.9638578 -0.7001801
-1.0617263 1.5311198 -0.3209202 0.0117774755 1.3986622 -0.0658068 0.9832494 -0.010950181
0.8922123 0.11595054 1.4421071 0.18202205 0.91766554 0.5896565 0.07999222 0.15091641
1.0178841 1.1197016 -0.055472013 -0.6667973 -0.14486414 1.5104418 1.1831126 -0.37552378
0.28254744 -0.052004937 0.4985593 0.21833603 0.6246773 -0.21532442 0.788287 0.1981969
-0.8264791 -0.93384314 1.2041855 0.9200229 0.19469935 -0.3177713 1.0260768 1.0127381
1.1199943 -0.9530803 0.8077645 -0.014346056 0.72608685 0.9748647 0.64655614 1.4378493
1.0636654 0.31455812 -0.04329659 0.05841315 0.38020653 0.854512 0.4299698 0.8402516
0.5787502 0.2832617 0.04334506 -0.2030586 0.057497848 0.39385673 -0.13246587 -0.47045782
1.1137224 0.11545406 0.15260884 0.4777247 -0.68552357 0.4285474 1.5753924 -0.1357478
-0.06352355 -0.67373264 0.007888372 0.084314965 0.55663145 -0.53496385 -0.11462996 -0.09821313
0.46873146 -0.46311933 -0.39343643 0.45214808 0.9581393 -0.6910057 0.3694871 0.1969997
-0.23528194 -0.86260223 -0.030033281 0.6004129 -0.14321752 0.7315044 -0.69916195 1.362891
00000000: 824c 933e 0c84 1abb bba2 d7be a436 05bf
00000010: 3883 8dbd 471a 323d 9d3b fbbe 5d2f 7b3e
00000020: 9eed 093e b75f 03be 83c8 053e 8bf8 dbbe
00000030: d3a8 b7be 44de 0d3f e381 8cbe e7df 833d
00000040: bb70 cc3f 862c 063f b73a 843e 59f7 7cbf
00000050: d1dc ec3e 22ed 1bbf 8f0f 08bf a988 4b3f
00000060: 265c 783f c425 a13c b5c1 e43c 3344 293f
00000070: 28fa 9abf b618 e83e 9455 463f 1d33 f23e
00000080: 793d f03f cfd5 5cbf e5ed b43e 80dc 093f
00000090: 65e9 783e 7bfb 653d 5e94 8e3e a82a 973f
000000a0: c438 613e e0b6 86bf e388 b53f 2d6a 1f3f
000000b0: 5e00 053e c038 90be 6ed9 9fbe 4c7d 293f
000000c0: 4973 333e ea2d 96bd b8bb cfbe 3cec b23f
000000d0: b4b3 eabe 90df 763f 87de 653f 5dad 053f
000000e0: 3925 ba3e c8e9 573d d00b dbbe 7116 393e
000000f0: ab58 b9be 03b3 663f 68e8 8abf b01d ed3c
00000100: 313f 6d3e 43c5 b73f e32e df3e b81e 48bf
00000110: 3a11 9c3e b2b3 ffbe 1012 d9be d8fc 123f
00000120: c86a 21be cee0 083e ad8b d2bd 0286 5cbf
00000130: 7619 943f 451a 133f c47b 3d3f 0cad 5e3f
00000140: eb19 9c3f da53 e8be 7c2e 4a3f 0279 253e
00000150: 836f f4bd 7c64 c03d e96c 303d ab0d 073f
00000160: e84c 98be c3d6 69be 2a54 45bf 26cb 7a3f
00000170: 6966 073d cd37 b83e 7742 ca3e aede 99be
00000180: 2c3e 213f 9e3e 49bf 52ce 12bf df60 9fbe
00000190: 1d9d a9be 3658 833f 0784 05bd e582 f0be
000001a0: 327f 1a3e 73e3 f43e 5a72 783f 4d39 623f
000001b0: ad7a ba3e e9c1 d73e 3f3d b43e 63d8 273e
000001c0: 4d45 d03e 3277 4b3f a41b ebbe 0c5a 863f
000001d0: 1a87 09be 29d2 7e3f 4de6 37bf 936d 93be
000001e0: 1743 bbbe fe82 013f 2de9 2cbc 1565 9b3e
000001f0: 3726 a63e 8f42 4d3f 6fdd 56bf 2088 8ebf
00000200: bc8d 4f3f c39c 14bf ea69 a9bc 1f4e 823f
00000210: a640 2dbe 4f7b 4dbe 0d53 b53e f1bc a2be
00000220: 2a01 7abf 3b74 9c3f 714f b5be e710 f23d
00000230: d7d8 81be c67f 503f 123e e93e 93dc b6be
00000240: d46f 95be 18e8 59bf cdc2 fb3d 9428 933e
00000250: 852b c53e 512d 233f 24ff cd3e e0bb e3be
00000260: 35b0 c1be 8281 81bf cdfb d13d 2344 fdbe
00000270: ca0e dcbe aa80 8a3f 63bf 76bf 013f 33bf
00000280: a6e6 87bf bcfb c33f a74f a4be 50f6 403c
00000290: 5d07 b33f b7c5 86bd 3cb6 7b3f 6368 33bc
000002a0: 0668 643f 7a77 ed3d f796 b83f fd63 3a3e
000002b0: 21ec 6a3f baf3 163f f6d2 a33d d589 1a3e
000002c0: 074a 823f 6252 8f3f 9f36 63bd 3ab3 2abf
000002d0: 4457 14be 2856 c13f 3c70 973f a744 c0be
000002e0: 0faa 903e 2103 55bd 2a43 ff3e 7b93 5f3e
000002f0: daea 1f3f 017e 5cbe 2dcd 493f 21f4 4a3e
00000300: 2294 53bf 5810 6fbf c022 9a3f 9f86 6b3f
00000310: 445f 473e ebb2 a2be 7c56 833f 67a1 813f
00000320: f95b 8f3f 12fd 73bf a7c9 4e3f b80b 6bbc
00000330: d4e0 393f bc90 793f b484 253f 720b b83f
00000340: 3026 883f c30d a13e c457 31bd a142 6f3d
00000350: 6eaa c23e 4cc1 5a3f 0025 dc3e bb1a 573f
00000360: f928 143f ad07 913e 978a 313d 98ee 4fbe
00000370: dd82 6b3d 97a7 c93e 22a5 07be d9df f0be
00000380: 758e 8e3f 2e73 ec3d 7e45 1c3e 5598 f43e
00000390: 797e 2fbf 916a db3e 75a6 c93f 7901 0bbe
000003a0: a318 82bd be79 2cbf 3b3e 013c 53ad ac3d
000003b0: 667f 0e3f 64f3 08bf 1dc3 eabd f723 c9bd
000003c0: 92fd ef3e fa1d edbe 8070 c9be f47f e73e
000003d0: 9e48 753f c0e5 30bf 6a2d bd3e 4aba 493e
000003e0: c0ed 70be 80d3 5cbf 5b08 f6bc a9b4 193f
000003f0: 9da7 12be df43 3b3f 47fc 32bf 3673 ae3f

fc2.bias f4 [256]
-1.0831333 1.8963394 -0.0041457484 -0.4512671 -0.050851975 -0.009021223 -0.06990702 -0.16908488
1.8925653 0.017022202 -0.71925825 -0.13414332 -0.034244906 0.45691314 -0.01653891 0.24550635
-0.09619455 0.11318732 0.11321541 0.22508582 -0.06251378 -0.12083377 -0.030120576 -0.051257703
0.16952468 1.4635291 -0.0901804 -1.0170698 -0.09382582 0.03366602 2.4994476 -0.038078427
-0.14173831 -0.045558188 0.010679054 -0.5450586 -0.06279133 -0.030565187 2.46573 0.026956912
-0.02937785 -0.024743887 -0.15662667 -0.098995596 -0.10921295 1.4124268 -0.0066668685 -0.7574828
-0.110811606 -0.051765412 -1.1731234 -0.010044977 -0.18280323 -0.3832405 -0.98366535 0.14460783
-0.041733153 -0.07236622 -0.23879144 -1.1966782 -0.2912299 0.12320311 -0.033542886 -0.076372795
-0.069753386 -0.036667515 -0.054086935 -0.09896327 0.20004436 0.096398965 0.6366291 0.14116974
-0.005017787 -0.102191046 0.033908818 0.114883125 -0.014568931 0.20245871 -0.03001945 -0.06533174
-1.3737134 -0.065154575 2.002891 1.0435997 -0.58043355 -0.06725597 -0.10476096 -0.051265765
1.7319332 -0.6740581 -0.17710198 -0.3635152 -0.020972524 1.1281538 -0.018891355 -0.5335532
-0.053895596 -0.021414679 2.0160282 -0.016215151 -0.105525725 -0.026412932 -0.027723167 0.15227379
0.16876636 -0.023010548 -1.2558012 -0.08628308 -0.47067022 -0.07549376 -0.07380048 -0.010388038
-1.9693224 -0.1064891 -0.073792696 -0.08126432 -0.010641751 0.018367657 -0.077884965 0.9424957
-0.036918327 0.0075355237 -0.053114206 1.30762 0.020090548 -0.027415851 -0.09787415 -0.09334166
-0.35585472 0.036545757 2.5851061 0.21062063 0.26636493 -0.07013852 -0.0014823807 -0.2354165
-0.91776675 -0.03159505 -0.7290182 -0.124062926 -0.037458435 0.72220486 -0.14104109 -0.1811565
-0.11163493 -0.044491645 2.3624334 0.31065178 0.21371359 -0.07711325 -1.0919068 -0.11740507
-0.08930735 -0.014260169 -0.06468131 -0.069952294 -0.015069922 -0.31215566 -0.08555861 2.2604887
-0.05326648 -0.4747846 -0.074611336 0.2926344 1.1318938 -0.09462897 -0.39840525 -0.019297369
-0.12368251 -0.074959695 0.016833682 0.025185283 0.21474148 -0.05641632 -0.080154486 -0.028146714
-0.04819473 -0.010467355 1.138819 -0.8474381 -0.9473299 -0.031504225 -0.024957197 2.012597
-0.18894796 -0.17790852 0.16776553 -0.07609016 -1.4044608 0.005116035 -0.102426134 -0.08856651
-0.23394588 -0.06426552 -0.123896025 -0.06869675 2.2899296 -0.05153125 -0.009160986 0.060779292
-0.03263424 -0.65271324 -0.08047421 -1.0957004 -0.070663735 -0.054143243 -0.026806818 -1.9165684
0.0036218655 0.0826235 -0.10499443 -0.058798045 -0.08398333 -1.352146 -0.18226096 1.538716
-0.3981499 -0.008061245 -0.15264198 -1.2867833 -0.096061975 -0.06974668 0.10772328 -0.06843929
-0.007709321 -1.4518517 -0.10693213 -0.008357718 -0.005406205 -0.433485 -0.06662584 -0.829467
-0.054860502 1.9374022 -0.253841 -1.2042361 -0.09617717 -0.1319787 1.4592379 1.5935316
0.18725975 -0.49728757 -0.39020517 1.7646359 -0.06316861 -0.02672456 -0.015491849 -0.63722456
-1.6440463 -0.0025794532 -0.08114248 -0.8202783 0.00421651 -0.03726353 -0.003116877 -0.05556212
00000000: 1da4 8abf 40bb f23f 0fd9 87bb 7b0c e7be
00000010: 294a 50bd c0cd 13bc 692b 8fbd 9624 2dbe
00000020: 943f f23f 2572 8b3c 4f21 38bf de5c 09be
00000030: 6344 0cbd 85f0 e93e 9c7c 87bc 0466 7b3e
00000040: a601 c5bd c1ce e73d 7bdd e73d e67c 663e
00000050: 3a07 80bd b277 f7bd 6dbf f6bc 99f3 51bd
00000060: e197 2d3e ec54 bb3f 80b0 b8bd 582f 82bf
00000070: c027 c0bd 61e5 093d f3f6 1f40 20f8 1bbd
00000080: d923 11be 399b 3abd 33f7 2e3c f688 0bbf
00000090: be98 80bd d863 fabc 85ce 1d40 bed4 dc3c
000000a0: d1a9 f0bc b1b3 cabc be62 20be 34be cabd
000000b0: 0aab dfbd 67ca b43f bf75 dabb 65ea 41bf
000000c0: 32f1 e2bd f807 54bd e828 96bf b093 24bc
000000d0: c530 3bbe 1938 c4be 7ed1 7bbf 1314 143e
000000e0: 62f0 2abd be34 94bd be85 74be c02c 99bf
000000f0: 161c 95be ea51 fc3d 4464 09bd 5769 9cbd
00000100: ddda 8ebd ad30 16bd 438a 5dbd 41ad cabd
00000110: 6ed8 4c3e d26c c53d 20fa 223f cd8e 103e
00000120: 406c a4bb 8a49 d1bd f9e3 0a3d d847 eb3d
00000130: 87b2 6ebc 5651 4f3e 59eb f5bc a6cc 85bd
00000140: d7d5 afbf c36f 85bd 5e2f 0040 ad94 853f
00000150: 4b97 14bf 7fbd 89bd ea8c d6bd 0dfc 51bd
00000160: fdaf dd3f 128f 2cbf 395a 35be aa1e babe
00000170: 92ce abbc 5867 903f 0bc2 9abc f196 08bf
00000180: a1c1 5cbd d66d afbc 9b06 0140 a3d5 84bc
00000190: df1d d8bd ef5f d8bc b21b e3bc a9ed 1b3e
000001a0: 17d1 2c3e 9e80 bcbc 18be a0bf 2fb5 b0bd
000001b0: b0fb f0be 799c 9abd b524 97bd 9732 2abc
000001c0: c212 fcbf f516 dabd a020 97bd e86d a6bd
000001d0: bd5a 2ebc c577 963c 2782 9fbd 6647 713f
000001e0: ac37 17bd 8eec f63b 488e 59bd 1860 a73f
000001f0: ef94 a43c 3597 e0bc 3e72 c8bd ea29 bfbd
00000200: 9732 b6be 01b1 153d 6172 2540 efac 573e
00000210: fc60 883e c9a4 8fbd 714c c2ba 0611 71be
00000220: c3f2 6abf d069 01bd f0a0 3abf b414 febd
00000230: 046e 19bd 6be2 383f 136d 10be 1781 39be
00000240: dba0 e4bd df3c 36bd 1c32 1740 c00d 9f3e
00000250: bcd7 5a3e 8ded 9dbd 9ac3 8bbf 1272 f0bd
00000260: c6e6 b6bd 7ca3 69bc a277 84bd 2643 8fbd
00000270: d6e7 76bc ded2 9fbe 5a39 afbd d9ab 1040
00000280: f42d 5abd f816 f3be d4cd 98bd 2dd4 953e
00000290: e5e1 903f d5cc c1bd c6fb cbbe 8415 9ebc
000002a0: 414d fdbd 7884 99bd cae6 893c 5e51 ce3c
000002b0: 31e5 5b3e cd14 67bd 0928 a4bd f093 e6bc
000002c0: d667 45bd 457f 2bbc d2c4 913f b4f1 58bf
000002d0: 3684 72bf 930a 01bd 0973 ccbc 64ce 0040
000002e0: 937b 41be a72d 36be baca 2b3e 28d5 9bbd
000002f0: 5fc5 b3bf 6aa4 a73b cbc4 d1bd 5c62 b5bd
00000300: 828f 6fbe a49d 83bd 33bd fdbd e2b0 8cbd
00000310: 358e 1240 6f12 53bd f617 16bc b5f3 783d
00000320: 7bab 05bd 3718 27bf aacf a4bd e93f 8cbf
00000330: 26b8 90bd 4ec5 5dbd f999 dbbc 1d52 f5bf
00000340: d25c 6d3b 8236 a93d 5207 d7bd 38d6 70bd
00000350: 74ff abbd 1f13 adbf 9ea2 3abe a5f4 c43f
00000360: 4eda cbbe 5013 04bc 2e4e 1cbe 51b5 a4bf
00000370: 24bc c4bd 59d7 8ebd 069e dc3d e629 8cbd
00000380: 799e fcbb 47d6 b9bf 3cff dabd cfee 08bc
00000390: 8926 b1bb bff1 ddbe 2173 88bd f357 54bf
000003a0: 68b5 60bd ccfc f73f 73f7 81be 6924 9abf
000003b0: 89f8 c4bd 6d25 07be 4fc8 ba3f d8f8 cb3f
000003c0: 05c1 3f3e 7a9c febe f9c8 c7be 97df e13f
000003d0: 8b5e 81bd 77ed dabc 86d1 7dbc 2621 23bf
000003e0: 1c70 d2bf 0b0c 29bb 072e a6bd c2fd 51bf
000003f0: a62a 8a3b a5a1 18bd 8544 4cbb 1b95 63bd

fc3.weight f4 [256, 256]
0.016660277 -0.06190543 -0.040400147 -0.070743434 0.042297535 0.009639145 -0.05404534 0.0309758
0.032717783 0.05604475 -0.053585682 -0.04146586 0.004690465 0.048964556 0.016264908 0.0142637845
0.0027702963 -0.05432458 -0.023502886 -0.045550633 0.06238454 0.019075414 0.009996591 -0.05956888
-0.038502745 0.015585631 0.056551658 -0.08739031 0.049612958 0.019998498 -0.103652276 0.0030644313
-0.010215222 0.0022954643 -0.01159785 -0.039268956 -0.038564585 0.0245899 -0.030807246 0.045118656
0.02130688 0.027501667 -0.046088822 0.030213453 0.027461214 -0.048468977 -0.036642976 -0.055004187
-0.02587992 -0.05909791 -0.047674615 -0.001964477 -7.254418e-05 -0.024629107 0.0059431386 -0.020050399
-0.021609502 0.050340913 -0.07805697 -0.05127856 -0.039760835 -0.065843664 0.021923177 -0.041896917
0.035584666 -0.040027805 -0.027149614 -0.037270363 -0.071920656 0.036622543 -0.0026436069 -0.050529543
0.003998582 -0.011967182 -0.023290979 -0.053347528 -0.010585353 -0.034226477 0.035811197 -0.04790899
-0.08605549 -0.035691485 -0.034407377 0.0027317544 -0.08085475 -0.03698944 0.028022854 0.03657426
-0.025717132 0.0031777585 -0.011859405 -0.04572471 -0.066866316 -0.06824629 -0.03547411 -0.015083857
-0.012937378 -0.014255957 -0.054175645 -0.0739895 0.051172603 0.024658633 0.031278804 -0.061641965
-0.07170944 0.019761836 -0.007428438 -0.0065521603 -0.08112674 0.0053991405 -0.010060107 -0.020581223
-0.095603175 -0.071606815 0.0035366442 0.019739762 0.018077588 -0.027597882 -0.043898627 -0.0037407205
-0.042602286 -0.029554589 -0.0067793224 -0.06571273 0.03697127 0.025625084 0.0541813 -0.010118656
0.020801807 -0.057622854 -0.010613271 -0.053236715 0.032783065 -0.066926025 -0.011407785 -0.026824346
-0.07651952 -0.030508794 0.0013058633 -0.017268136 0.016722683 0.029014004 0.018787915 -0.035951126
0.03944448 0.06224468 -0.055410314 -0.010931438 -0.0706836 -0.018438729 -0.058493324 -0.046113957
-0.013091573 0.0088213505 -0.011360539 0.044121593 0.079825446 -0.058087617 0.035751563 -0.068553954
-0.006033312 -0.09532947 0.045898724 -0.03083665 -0.0076482887 -0.05054822 -0.046652295 -0.046127073
0.02852038 -0.029404309 -0.054089963 -0.0033748583 0.015307657 0.04069565 0.009264013 -0.031955525
0.048940577 -0.028732384 -0.05351618 -0.027051065 -0.012559669 -0.05215191 -0.014117453 0.018376525
0.042492144 -0.013506801 -0.07748154 -0.02381111 -0.013328401 0.047958653 -0.036340896 0.044778094
0.035675075 0.010606779 -0.013558568 -0.0061022607 -0.04576398 0.003748693 0.0021369662 -0.020671243
-0.06520807 -0.013551605 0.056675084 -0.08302454 -0.0110253915 0.02632427 -0.024374515 -0.060260866
0.019774806 -0.018602826 0.048221182 -0.039104268 0.06103115 -0.0042263917 0.03831755 -0.055785682
0.0598177 0.003634108 0.042406328 -0.04918064 0.015533268 -0.046729553 0.0075431913 0.014288306
0.03597887 -0.06844945 0.01424581 -0.030856594 -0.05835556 0.044866204 0.010050215 0.008047676
0.030769534 -0.098830715 -0.0154530555 0.024304131 -0.009018334 0.006635079 -0.027171873 0.014411923
-0.069334805 -0.04738724 -0.0069050556 -0.066178896 0.05203625 0.029067015 0.03283147 0.026367037
-0.012976973 -0.037004113 0.057392016 -0.08186354 0.0034140814 -0.03872445 -0.012078375 -0.04738157
00000000: 227b 883c 8c90 7dbd a07a 25bd efe1 90bd
00000010: 2e40 2d3d 81ed 1d3c a55e 5dbd f6c0 fd3c
00000020: 1503 063d 2e8f 653d a97c 5bbd 1bd8 29bd
00000030: 79b2 993b 0f8f 483d fc3d 853c a6b2 693c
00000040: dc8d 353b 7383 5ebd 2089 c0bc 4d93 3abd
00000050: ee86 7f3d 0b44 9c3c bec8 233c 7ffe 73bd
00000060: 0eb5 1dbd e05a 7f3c b6a2 673d b1f9 b2bd
00000070: f536 4b3d e4d3 a33c a547 d4bd a0d4 483b
00000080: bf5d 27bc 806f 163b e904 3ebc 7cd8 20bd
00000090: e6f5 1dbd c270 c93c 7a5f fcbc 57ce 383d
000000a0: c48b ae3c 2d4b e13c a2c7 3cbd 3482 f73c
000000b0: 57f6 e03c 6887 46bd f216 16bd 124c 61bd
000000c0: 2002 d4bc a610 72bd 7546 43bd 74be 00bb
000000d0: dc22 98b8 fbc2 c9bc a9be c23b bc40 a4bc
000000e0: 6906 b1bc 4632 4e3d 55dc 9fbd 7809 52bd
000000f0: 42dc 22bd 0bd9 86bd 3c98 b33c 1a9c 2bbd
00000100: 3ac1 113d 32f4 23bd de68 debc cfa8 18bd
00000110: 234b 93bd 8501 163d 5d40 2dbb 11f8 4ebd
00000120: 8906 833b 0012 44bc b9cc bebc f082 5abd
00000130: 306e 2dbc 1031 0cbd c3ae 123d 383c 44bd
00000140: dc3d b0bd 3c31 12bd c0ee 0cbd 3c07 333b
00000150: 2d97 a5bd 3d82 17bd 2f90 e53c e4ce 153d
00000160: bcac d2bc f141 503b f34d 42bc d549 3bbd
00000170: 35f1 88bd b6c4 8bbd 4d4d 11bd 4822 77bc
00000180: 4cf7 53bc d191 69bc 48e7 5dbd cf87 97bd
00000190: 5d9a 513d e700 ca3c 341e 003d 497c 7cbd
000001a0: 66dc 92bd 93e3 a13c 416a f3bb 81b3 d6bb
000001b0: c725 a6bd 46eb b03b 26d3 24bc f499 a8bc
000001c0: 99cb c3bd 98a6 92bd 0bc7 673b 48b5 a13c
000001d0: 7317 943c f414 e2bc 0ccf 33bd e026 75bb
000001e0: bc7f 2ebd 771c f2bc 1425 debb 6594 86bd
000001f0: 306f 173d b2eb d13c 36ed 5d3d b8c8 25bc
00000200: 8d68 aa3c f105 6cbd 49e3 2dbc be0e 5abd
00000210: 8947 063d 8310 89bd b8e7 3abc bbbe dbbc
00000220: 44b6 9cbd 94ed f9bc 8029 ab3a e875 8dbc
00000230: 02fe 883c c7ae ed3c 1de9 993c 7d41 13bd
00000240: 8990 213d 47f4 7e3d edf5 62bd c619 33bc
00000250: 90c2 90bd d10c 97bc b296 6fbd fde1 3cbd
00000260: 097e 56bc 6d87 103c 8e21 3abc d8b8 343d
00000270: 867b a33d 48ed 6dbd 3b70 123d 0466 8cbd
00000280: 17b3 c5bb 193c c3bd 4d00 3c3d 249d fcbc
00000290: 7f9e fabb a60b 4fbd 7a16 3fbd beef 3cbd
000002a0: 92a3 e93c 4ee1 f0bc 708d 5dbd ba2c 5dbb
000002b0: f8cc 7a3c 7bb0 263d 16c8 173c cce3 02bd
000002c0: ea75 483d 2d60 ebbc c833 5bbd 329a ddbc
000002d0: 12c7 4dbc 3e9d 55bd e44c 67bc 5e8a 963c
000002e0: 3e0c 2e3d a14b 5dbc a4ae 9ebd 840f c3bc
000002f0: 5e5f 5abc 4b70 443d 31da 14bd 3c69 373d
00000300: 0720 123d 0ec8 2d3c c224 5ebc 79f5 c7bb
00000310: 0373 3bbd a2ac 753b 580c 0c3b bd56 a9bc
00000320: cf8b 85bd 8d07 5ebc 2224 683d c508 aabd
00000330: d8a3 34bc ffa5 d73c 10ad c7bc 19d4 76bd
00000340: c6fe a13c f464 98bc 9383 453d cc2b 20bd
00000350: cdfb 793d 8b7d 8abb ddf2 1c3d 877f 64bd
00000360: 6803 753d 372a 6e3b 42b2 2d3d a471 49bd
00000370: 407f 7e3c 7d67 3fbd e02c f73b 8019 6a3c
00000380: 945e 133d 3a2f 8cbd 4267 693c f8c6 fcbc
00000390: 3d06 6fbd a0c5 373d a8a9 243c 66da 033c
000003a0: 6410 fc3c c267 cabd d02e 7dbc 7519 c73c
000003b0: a2c1 13bc 146b d93b 8c97 debc fc1f 6c3c
000003c0: 68ff 8dbd 1f19 42bd ce43 e2bb cd88 87bd
000003d0: f623 553d f31d ee3c 4b7a 063d afff d73c
000003e0: 5f9d 54bc a091 17bd e413 6b3d 12a8 a7bd
000003f0: c8be 5f3b 879d 1ebd 60e4 45bc 2d13 42bd

fc3.bias f4 [256]
-0.08482525 -0.06566067 0.0038492456 -0.10831724 -0.075823516 -0.09049792 -0.087370664 -0.12992899
-0.1579317 -0.1278412 -0.12834762 0.069104835 -0.08350854 -0.15061443 0.004019708 0.33274367
-0.027323578 -0.84625953 0.2938607 0.018956445 0.2579394 -0.12552118 -0.23805842 0.5946324
0.055746075 -0.040036704 -0.91941416 -1.4439377 -1.121986 0.044017583 0.24943511 -0.07420323
-0.15422416 -0.15797864 0.055894554 -0.13992181 0.009438472 -0.09640764 -0.08897392 -0.10548508
-0.0970321 -0.08154122 -0.034255806 -0.25405142 0.4838278 -0.17029999 -0.2379087 -0.054081984
-0.085179575 -0.00902294 -0.12070768 -0.04289916 -1.0138208 0.00096419454 -0.10185203 -0.3226405
-0.2115788 -0.066323094 3.164206 -0.2881167 1.652506 -0.082928635 -0.10713485 0.8072131
-1.0487744 -0.051142856 -0.029479973 -0.15214802 -0.0653275 -0.41813543 -0.10768252 -0.07454322
0.63776666 -0.13779666 -0.4922027 -0.13182636 -0.061252613 0.014882221 -0.0043729767 -0.09656611
-0.09387971 -0.09118272 0.90456855 -0.040795516 -0.09398821 -0.16175744 -0.01043028 0.08418056
-0.13714233 -0.14832352 -0.123190016 -0.033412907 -0.011960616 -0.098099984 -0.4450888 -0.05941551
-0.054004185 -0.19839717 0.116445236 -0.027879074 -0.045633275 -0.18467452 -0.004159002 -0.1117764
-0.2621609 -0.061196133 0.005222167 0.12438534 -0.09379821 0.08316676 -0.10000618 -0.40734687
0.06803251 -0.11301758 0.054191966 -0.034696173 -0.11113926 -0.09152663 0.062094405 -0.11421612
-0.033216927 -0.03361704 -0.09121505 -0.0524554 -0.08922339 -0.3719309 -0.5625319 -0.06711795
-0.03202668 -0.13929622 0.09985106 -0.00086910685 -0.09325263 -0.107605755 -0.15418617 0.17846845
0.058825463 0.14543876 -0.100214414 -0.22750959 -0.09404546 -0.012838184 0.27355817 0.11478623
-0.46459746 -0.11481772 0.022132497 -0.26567504 -0.10387155 0.08477172 0.11989258 -1.6224837
-0.15359506 0.007816593 2.7845783 -0.110604234 -0.25113392 -0.11240071 -0.039679408 -0.07298745
0.36214733 -0.7323101 -0.26962385 -0.32652846 -0.241722 -0.17865942 -0.07902282 -0.14329088
-0.017711831 -0.03532028 -0.0751915 0.1201519 -0.17290266 -0.11774862 0.94405735 -0.09444251
-0.012697968 -0.111024015 0.32634202 -0.18049954 -0.15205249 -0.1846638 -0.037631176 -0.022984518
1.8867674 0.06240448 -0.09953261 -0.046219476 -0.15259936 -0.086597376 -0.14381835 -0.14825264
-0.081723884 -0.04409117 -0.7060997 -0.0958899 2.6246064 -0.04179477 0.0116341375 0.08981286
0.062040128 -0.13797595 -0.09170188 0.14966084 0.053314 -0.07694829 -0.117886566 -0.054421645
-0.056196366 -0.11630474 -0.10692428 0.1209891 -0.06637362 -0.044532165 0.8868817 0.23461455
-0.024634484 -0.04445772 0.46244013 -0.042609073 1.5069721 -0.98802733 0.09313463 0.5408197
-0.34192532 -0.0478152 -0.097190864 -0.088681795 -0.9267787 -0.004625428 -0.09494197 -0.09309338
-0.40468568 0.9093702 -0.063141204 -0.057340838 -0.041431006 0.0026884354 -0.09961831 -0.033462387
-0.045732416 -0.0801794 0.1641823 -0.06738221 -0.14245003 -0.100450814 0.016098808 -0.14247343
0.194233 -0.10716523 -0.17019522 0.1620449 -0.052478418 -0.03723988 -0.056376707 -0.0009962193
00000000: dcb8 adbd 1a79 86bd a043 7c3b 6ed5 ddbd
00000010: 5c49 9bbd f956 b9bd 64ef b2bd 1b0c 05be
00000020: d9b8 21be cee8 02be 8f6d 03be d686 8d3d
00000030: 8706 abbd ab3a 1abe c1b7 833b 615d aa3e
00000040: b2d5 dfbc 77a4 58bf e974 963e 8c4a 9b3c
00000050: a210 843e a088 00be 96c5 73be d439 183f
00000060: ff55 643d 87fd 23bd ba5e 6bbf f3d2 b8bf
00000070: 3d9d 8fbf c84b 343d eb6b 7f3e ddf7 97bd
00000080: f0ec 1dbe 27c5 21be b0f1 643d aa47 0fbe
00000090: d2a3 1a3c 5e71 c5bd f537 b6bd 9008 d8bd
000000a0: c4b8 c6bd 15ff a6bd d14f 0cbd 0713 82be
000000b0: 47b8 f73e 1f63 2ebe 579e 73be 1285 5dbd
000000c0: a172 aebd f4d4 13bc 9735 f7bd 08b7 2fbd
000000d0: e1c4 81bf 00c2 7c3a cc97 d0bd 2331 a5be
000000e0: 1da8 58be 67d4 87bd 5a82 4a40 0884 93be
000000f0: 5185 d33f 7dd6 a9bd 8469 dbbd 85a5 4e3f
00000100: 3d3e 86bf 2c7b 51bd fc7f f1bc b1cc 1bbe
00000110: 6dca 85bd d915 d6be a788 dcbd 1eaa 98bd
00000120: ad44 233f 911a 0dbe fe01 fcbe 7dfd 06be
00000130: 05e4 7abd 8fd4 733c 304b 8fbb 74c4 c5bd
00000140: 0144 c0bd 02be babd ce91 673f 3319 27bd
00000150: e47c c0bd bea3 25be c4e3 2abc dc66 ac3d
00000160: 0a6f 0cbe 1fe2 17be 0c4b fcbd f9db 08bd
00000170: 76f6 43bc a5e8 c8bd aee2 e3be ae5d 73bd
00000180: 7e33 5dbd a128 4bbe d77a ee3d a862 e4bc
00000190: f5e9 3abd 511b 3dbe 3d48 88bb 06eb e4bd
000001a0: f439 86be cca8 7abd b61e ab3b bebd fe3d
000001b0: 4719 c0bd 5653 aa3d 0ad0 ccbd c58f d0be
000001c0: a154 8b3d c375 e7bd 65f8 5d3d 931d 0ebd
000001d0: fb9c e3bd 5072 bbbd b456 7e3d 24ea e9bd
000001e0: 790e 08bd 05b2 09bd f5ce babd 79db 56bd
000001f0: c1ba b6bd ba6d bebe 1702 10bf 2375 89bd
00000200: 682e 03bd aba3 0ebe b67e cc3d c6d4 63ba
00000210: 3cfb bebd 6860 dcbd fbe2 1dbe 6fc0 363e
00000220: f8f2 703d e6ed 143e 373d cdbd 46f8 68be
00000230: e89a c0bd 3f57 52bc d10f 8c3e 0b15 eb3d
00000240: b8df edbe 8e25 ebbd 364f b53c 8f06 88be
00000250: 9bba d4bd cc9c ad3d 3e8a f53d 8cad cfbf
00000260: 0648 1dbe 2b11 003c 8836 3240 7984 e2bd
00000270: a094 80be 5832 e6bd e086 22bd 727a 95bd
00000280: 606b b93e ad78 3bbf 230c 8abe bd2e a7be
00000290: f985 77be 7ff2 36be b7d6 a1bd d8ba 12be
000002a0: 6718 91bc ffab 10bd 00fe 99bd 3312 f63d
000002b0: 650d 31be 3026 f1bd bead 713f 136b c1bd
000002c0: 230b 50bc 8f60 e3bd 4d16 a73e dfd4 38be
000002d0: a6b3 1bbe 8218 3dbe 2623 1abd 074a bcbc
000002e0: 9881 f13f d79b 7f3d c1d7 cbbd a250 3dbd
000002f0: 0243 1cbe f759 b1bd 1e45 13be 8acf 17be
00000300: da5e a7bd f198 34bd f3c2 34bf ed61 c4bd
00000310: 8df9 2740 fe30 2bbd 1c9d 3e3c ceef b73d
00000320: ca1d 7e3d 9149 0dbe 32ce bbbd b140 193e
00000330: c85f 5a3d 1197 9dbd 836e f1bd 3be9 5ebd
00000340: 292e 66bd 2e31 eebd 1efb dabd 22c9 f73d
00000350: e4ee 87bd 5c67 36bd ae0a 633f cc3e 703e
00000360: 42ce c9bc 4c19 36bd f4c4 ec3e da86 2ebd
00000370: 76e4 c03f 5cef 7cbf 5ebd be3d 2973 0a3f
00000380: d610 afbe dfd9 43bd 010c c7bd cd9e b5bd
00000390: 5e41 6dbf e790 97bb f070 c2bd bea7 bebd
000003a0: f632 cfbe 7ccc 683f 2d50 81bd 3ade 6abd
000003b0: 8fb3 29bd 7630 303b af04 ccbd db0f 09bd
000003c0: ea51 3bbd 1935 a4bd 681f 283e afff 89bd
000003d0: 6cde 11be 28b9 cdbd a6e1 833c 8ee4 11be
000003e0: 04e5 463e 7279 dbbd a847 2ebe 19ef 253e
000003f0: 9cf3 56bd d888 18bd 43eb 66bd 9393 82ba

fc4.weight f4 [256, 256]
0.034143843 -0.03395187 -0.031538945 0.014225656 0.116492994 0.08814269 0.10475766 -0.015541729
-0.049160834 -0.19837892 -0.079053454 -0.26057842 0.023552932 0.049761914 0.03093853 -0.23933144
0.06138907 -0.22450587 -0.25228024 -0.0038590694 -0.11321881 0.019495646 0.029757826 -0.111436844
0.09860713 0.05782152 -0.06577649 -0.059343588 0.014477719 0.083663076 0.2012116 0.020882139
-0.004787586 0.052102618 0.06941517 0.0021913974 -0.070067115 0.012133669 0.064098276 0.034344837
-0.012530724 0.14766373 -0.036626313 0.090418376 0.070924096 -0.13154641 0.050597597 0.02167324
-0.0012652649 0.124099225 -0.0024207174 0.039254397 -0.008420879 0.03247277 0.09360446 -0.14672841
0.036067456 -0.01733378 -0.60833275 0.031611614 -0.27860343 0.052913353 0.046602707 -0.05466681
0.014733691 -0.118679956 0.04195428 -0.033070084 0.011873811 0.071136266 0.07761363 -0.08315904
-0.08343471 0.066956244 -0.21247695 -0.041548926 -0.01480979 0.1804006 -0.04444497 0.045384802
-0.13434942 0.07345633 -0.08652875 -0.022993095 0.119697995 -0.06478087 0.10925976 -0.14805001
-0.015047322 0.0554216 0.038181134 0.06543482 0.06754567 0.00077998167 -0.045039676 0.016726892
0.054107368 -0.036115967 -0.028209267 -0.059328083 -0.024450472 -0.2567237 -0.014604352 -0.00059078255
-0.008713412 -0.033929527 0.09856013 0.061543528 0.027159143 0.23088221 0.027049344 -0.008532021
-0.19144854 0.042454924 0.12619609 0.025628427 0.06253166 -0.027674153 0.23866622 -0.019992068
-0.04873259 0.012120308 -0.103786394 0.037054718 -0.006123773 -0.02073401 -0.10421787 -0.09000781
0.013151791 -0.048865557 0.25536296 0.02270816 0.0008942457 -0.006553236 -0.008770083 -0.1840945
0.15933464 0.18887347 -0.04029349 -0.019942418 0.05442801 0.04213875 -0.03874462 0.15175469
-0.053820524 0.13387865 0.0043977965 -0.03615967 -0.07237344 0.10287851 0.3276119 0.029599039
-0.040740732 -0.0013468828 0.14322537 0.03003132 0.0150694195 -0.035841927 -0.020738648 -0.034066655
-0.25081825 -0.032367136 -0.14373276 -0.2185981 -0.038722686 -0.13335162 -0.0032146522 0.10627336
-0.052835077 0.08427632 0.076653615 -0.15269834 -0.033222698 -0.05204003 -0.06873143 -0.00102644
-0.14446606 0.026574202 -0.12786695 -0.21753147 0.14590868 -0.10520508 0.06720812 -0.021756945
-0.07065112 0.14758489 0.07930562 0.014831878 -0.039697137 -0.019285308 0.08493999 0.06791502
-0.02726329 0.054530177 0.004168372 -0.046008967 -0.26659575 -0.03429657 -0.024548752 0.06897345
0.18790248 0.045926392 0.075458296 0.071383364 0.22596537 -0.056808982 -0.062389765 0.031224709
0.03261819 0.15567125 -0.019752122 0.09910095 0.003310306 -0.06528188 -0.0016041936 -0.26270756
0.13990821 -0.00040833512 -0.09476019 -0.02259426 -0.02287499 -0.03792854 -0.41545308 -0.04314802
0.04169132 0.07436466 -0.013034369 0.009959075 -0.55529636 0.09099963 0.02478857 -0.0073777866
0.25941363 -0.06927639 -0.14363135 0.045092918 -0.029062381 0.098660745 -0.050113022 0.03725735
-0.019839616 0.033600926 0.013058606 0.0767985 0.018958095 0.058558077 0.07936767 -0.007038106
-0.11063329 0.027228108 0.015004794 -0.06337668 -0.024682224 0.046514105 0.01600779 0.08823811
00000000: 6ada 0b3d 1e11 0bbd fb2e 01bd ba12 693c
00000010: e193 ee3d 2884 b43d 2f8b d63d bca2 7ebc
00000020: df5c 49bd d823 4bbe c7e6 a1bd 896a 85be
00000030: 14f2 c03c 26d3 4b3d cd72 fd3c 4d13 75be
00000040: 1b73 7b3d dee4 65be e02a 81be 71e8 7cbb
00000050: 43df e7bd 55b5 9f3c afc6 f33c 0039 e4bd
00000060: 89f2 c93d 42d6 6c3d d3b5 86bd 4312 73bd
00000070: f433 6d3c 8c57 ab3d 6a0a 4e3e 0511 ab3c
00000080: 2fe1 9cbb 8e69 553d 8a29 8e3d 8c9d 0f3b
00000090: 597f 8fbd 4ccc 463c f545 833d 2cad 0c3d
000000a0: aa4d 4dbc 2935 173e 7905 16bd 452d b93d
000000b0: a740 913d 1ab4 06be 6d3f 4f3d 148c b13c
000000c0: 3fd7 a5ba bc27 fe3d e6a4 1ebb 38c9 203d
000000d0: baf7 09bc 2b02 053d b2b3 bf3d f93f 16be
000000e0: 78bb 133d 92ff 8dbc b2bb 1bbf 2e7b 013d
000000f0: 1ca5 8ebe acbb 583d 7be2 3e3d 4eea 5fbd
00000100: 9465 713c 7a0e f3bd 40d8 2b3d 7f74 07bd
00000110: 5f8a 423c e4af 913d e5f3 9e3d 494f aabd
00000120: d1df aabd 5b20 893d 8f93 59be 352f 2abd
00000130: c3a4 72bc efba 383e ee0b 36bd 6ae5 393d
00000140: e592 09be 4670 963d fc35 b1bd 045c bcbc
00000150: 3924 f53d d5ab 84bd 95c3 df3d 6c9a 17be
00000160: 0b89 76bc c201 633d d263 1c3d b102 863d
00000170: 6255 8a3d af77 4c3a 867b 38bd d606 893c
00000180: b09f 5d3d 56ee 13bd 1f17 e7bc 0102 73bd
00000190: 5b4c c8bc 4a71 83be 1847 6fbc bfde 1aba
000001a0: b3c2 0ebc b0f9 0abd e5d9 c93d 1115 7c3d
000001b0: da7c de3c 636c 6c3e 9696 dd3c e4c9 0bbc
000001c0: 160b 44be 37e5 2d3d 8c39 013e b5f2 d13c
000001d0: 9910 803d e8b4 e2bc eb64 743e 68c6 a3bc
000001e0: d39b 47bd 4294 463c f68d d4bd b0c6 173d
000001f0: eea9 c8bb 5fda a9bc 2e70 d5bd 0456 b8bd
00000200: 9c7a 573c 4027 48bd efbe 823e 7706 ba3c
00000210: d06b 6a3a 87bc d6bb 65b0 0fbc 4583 3cbe
00000220: 9f28 233e 0c68 413e c90a 25bd 485e a3bc
00000230: e8ef 5e3d af99 2c3d aeb2 1ebd 9565 1b3e
00000240: e972 5cbd 7c17 093e 641b 903b 2a1c 14bd
00000250: 8738 94bd f8b1 d23d bfbc a73e af79 f23c
00000260: c1df 26bd e389 b0ba aca9 123e 3e04 f63c
00000270: bae5 763c fcce 12bd 19e4 a9bc 7a89 0bbd
00000280: 406b 80be 6793 04bd ae2e 13be 2ed8 5fbe
00000290: ae9b 1ebd 548d 08be eaac 52bb d9a5 d93d
000002a0: 9869 58bd 1099 ac3d 92fc 9c3d f45c 1cbe
000002b0: 8614 08bd ed27 55bd 10c3 8cbd 9c89 86ba
000002c0: e9ee 13be 24b2 d93c 8eef 02be 92c0 5ebe
000002d0: 1669 153e c375 d7bd 69a4 893d 9f3b b2bc
000002e0: 89b1 90bd 7e20 173e fc6a a23d 6801 733c
000002f0: 7799 22bd 39fc 9dbc 04f5 ad3d 0817 8b3d
00000300: 4357 dfbc 095b 5f3d d796 883b e673 3cbd
00000310: 3d7f 88be 8f7a 0cbd 771a c9bc f441 8d3d
00000320: 8269 403e 501d 3c3d e189 9a3d 7131 923d
00000330: 7763 673e 89b0 68bd 698c 7fbd f6ca ff3c
00000340: a79a 053d 4968 1f3e 34cf a1bc 70f5 ca3d
00000350: b8f1 583b 82b2 85bd ce43 d2ba 9b81 86be
00000360: 1944 0f3e d015 d6b9 a111 c2bd 9917 b9bc
00000370: 5564 bbbc f55a 1bbd 44b6 d4be fabb 30bd
00000380: 84c4 2a3d 804c 983d 1b8e 55bc 632b 233c
00000390: e727 0ebf 045e ba3d 6611 cb3c 5cc1 f1bb
000003a0: ddd1 843e c8e0 8dbd 1914 13be 5ab3 383d
000003b0: 3b14 eebc a50e ca3d 5043 4dbd 2a9b 183d
000003c0: b186 a2bc 20a1 093d c3f3 553c 8848 9d3d
000003d0: 024e 9b3c 98da 6f3d 848b a23d ea9f e6bb
000003e0: b593 e2bd 7b0d df3c abd6 753c a2cb 81bd
000003f0: 6032 cabc 9385 3e3d c522 833c 2fb6 b43d

fc4.bias f4 [256]
0.20286554 -0.27345446 -0.15073559 -0.3772245 -0.88753754 -0.84122664 -0.23145874 -0.16942322
0.4005921 0.054324564 -0.27929607 -0.001559111 0.11821158 0.035726808 0.1482302 -0.09584238
-0.18717617 0.044708595 -0.18367237 -0.19600862 -0.009993826 0.10301832 -0.110740446 -0.012933342
-0.2782714 -0.4050427 0.08160334 -0.33776662 -0.21661636 -0.20725021 -0.45946726 -0.26800188
-0.20534912 -0.20927925 -0.368665 1.120818 -0.19357744 -0.053799544 0.12111533 -0.33205667
-0.15583332 -0.12243642 0.10626054 -0.4562119 -0.31383204 -0.12233451 0.0364225 0.027306246
0.03647354 -0.5271418 -0.21587826 -0.2894646 -0.02148787 -0.30939877 -0.2403698 -0.14228003
-0.42483088 -0.57369024 -0.44466478 -0.29102227 -0.2870485 0.05009738 0.020817103 -0.25750095
-0.19263738 0.0024044414 -0.81250477 0.015869439 -0.35777605 -0.025231887 -0.32604557 0.9448773
-0.27462107 2.6069462 -0.3328143 0.15630509 -0.27934915 -0.3623719 0.19394892 -0.19469622
-0.15679857 -0.31115606 -0.26463073 0.07159321 -0.06250524 -0.12920554 -0.6545008 -0.31648842
0.08237466 -0.18091828 0.023054413 1.5601511 -0.54640996 -0.27066192 -0.59215575 -0.24227118
-0.40156394 -0.1794517 -0.1927318 -0.12588108 0.010385988 -0.78914326 -0.2373899 0.8536876
-0.32683396 -0.06153088 0.018077707 -0.46523154 -0.22240943 -0.34107754 0.36123243 -0.14659747
-0.2164032 -0.008419703 -0.4015975 0.6069293 -0.28330094 -0.026092624 -0.09584563 -0.15294059
-0.40895456 -0.39492714 -0.07106397 -0.12781914 -0.18013352 0.07002585 -0.021251181 -0.0116535
-0.4529641 -0.013341652 -0.40725148 -0.19155426 -0.17396435 -0.3065943 0.058110878 -0.3504943
0.38497275 -0.15911566 -0.17059754 -0.24599223 -0.17583324 2.3944492 -0.16294423 -0.20491189
-0.17165855 -0.10981301 -0.32589927 -0.17076294 -0.11194098 -0.16922474 -0.17695263 5.17451
-0.25499117 -0.6231076 -0.42868543 -0.54757345 -0.35851714 -0.2173349 -0.1559321 0.0845319
-0.27152228 -0.3288139 0.40903333 0.04390887 -0.07163021 -0.22766033 -0.49494842 -0.043118685
-0.6868532 -0.18404259 -0.37358445 -0.22434913 0.1369093 0.004500208 -0.2679656 -0.61715984
-0.13107535 -0.17950033 -0.05949288 -0.5845595 0.072956905 -0.22267184 -0.17683057 0.07165604
0.07436664 0.087392986 -0.20507756 -0.39474568 -0.30851877 -0.1439292 -0.22489518 0.490499
-0.22082503 0.0116413515 -0.21423359 -0.28078648 -0.19005363 -0.14276092 -0.5540563 -0.15401159
1.0297934 -0.34701067 -0.2938892 -0.1614895 -0.098813124 0.44457817 -0.012690112 1.0816631
-0.00641316 -0.44736025 0.10701524 -0.18312961 -0.09252532 -0.22778545 -0.62385184 0.09648917
-0.17095418 -0.42733434 -0.6596604 0.05598003 0.2052621 0.11140344 0.38017482 -0.03006246
-0.22052233 -0.1188209 0.60128224 -0.28776166 -0.2573347 0.5285583 -0.3044165 -0.06734301
-0.41656676 0.6071454 -0.2752866 -0.39975756 3.908631 0.5683982 -0.17101403 -0.15050642
0.015884906 -0.12412434 -0.1915186 -0.39085373 -0.23667839 -0.028043969 -0.3732986 -0.15360709
-0.037626635 -0.16213883 -0.36983478 -0.18618287 0.87408775 0.03186744 -0.1840425 -0.102505766
00000000: fcbb 4f3e 3902 8cbe 6e5a 1abe 9223 c1be
00000010: a935 63bf a15a 57bf 8503 6dbe 487d 2dbe
00000020: 681a cd3e 6f83 5e3d e5ff 8ebe 165b ccba
00000030: ea18 f23d 4656 123d a8c9 173e 0249 c4bd
00000040: 1cab 3fbe 5c20 373d 9c14 3cbe 7cb6 48be
00000050: 25bd 23bc 45fb d23d e3cb e2bd 5ee6 53bc
00000060: 9779 8ebe c261 cfbe a71f a73d bfef acbe
00000070: aed0 5dbe 6639 54be 4b3f ebbe 8b37 89be
00000080: 0a47 52be 4d4d 56be a9c1 bcbe f776 8f3f
00000090: 2a39 46be e95c 5cbd 500b f83d 5503 aabe
000000a0: c592 1fbe f2bf fabd 209f d93d 9b94 e9be
000000b0: 98ae a0be 848a fabd c22f 153d 59b1 df3c
000000c0: 4765 153d c4f2 06bf 310f 5dbe b434 94be
000000d0: 5407 b0bc 8469 9ebe 8023 76be dbb1 11be
000000e0: 6f83 d9be 5ddd 12bf 1aab e3be df00 95be
000000f0: 05f8 92be e932 4d3d a188 aa3c 2ad7 83be
00000100: bc42 45be d593 1d3b 5000 50bf a000 823c
00000110: 6c2e b7be 1ab3 cebc 72ef a6be 7be3 713f
00000120: 229b 8cbe 35d8 2640 a366 aabe 710e 203e
00000130: da06 8fbe cf88 b9be 8c9a 463e 725e 47be
00000140: ce8f 20be d94f 9fbe ae7d 87be 769f 923d
00000150: bf02 80bd 754e 04be 5d8d 27bf c50a a2be
00000160: 0cb4 a83d a442 39be 9cdc bc3c 08b3 c73f
00000170: 86e1 0bbf 3394 8abe 8597 17bf f015 78be
00000180: ca99 cdbe 30c2 37be 7c5b 45be f8e6 00be
00000190: fe29 2a3c 4b05 4abf 5716 73be 458b 5a3f
000001a0: c856 a7be ce07 7cbd b317 943c d432 eebe
000001b0: 4cbf 63be b7a1 aebe 75f3 b83e a61d 16be
000001c0: cd98 5dbe cbf2 09bc 309e cdbe b85f 1b3f
000001d0: d20c 91be 33c0 d5bc b74a c4bd 759c 1cbe
000001e0: 7e62 d1be e433 cabe fd89 91bd 05e3 02be
000001f0: ec74 38be b669 8f3d f516 aebc 52ee 3ebc
00000200: e9ea e7be f296 5abc 4483 d0be cd26 44be
00000210: b623 32be eef9 9cbe ac05 6e3d fd73 b3be
00000220: 261b c53e 37ef 22be 1fb1 2ebe 63e5 7bbe
00000230: a10d 34be a83e 1940 dada 26be 6cd4 51be
00000240: 42c7 2fbe a5e5 e0bd 45dc a6be 7bdc 2ebe
00000250: 5041 e5bd 4049 2dbe 1233 35be 9695 a540
00000260: 348e 82be fb83 1fbf a87c dbbe c62d 0cbf
00000270: 8f8f b7be 0a8d 5ebe aaac 1fbe 101f ad3d
00000280: f804 8bbe 4c5a a8be d16c d13e cad9 333d
00000290: dcb2 92bd ca1f 69be e169 fdbe 389d 30bd
000002a0: 9cd5 2fbf a975 3cbe 7646 bfbe c7bb 65be
000002b0: f431 0c3e 7b76 933b ca32 89be 30fe 1dbf
000002c0: 9e38 06be efce 37be ceae 73bd b1a5 15bf
000002d0: 6e6a 953d 1604 64be 1313 35be 67c0 923d
000002e0: 894d 983d 18fb b23d daff 51be 1b1c cabe
000002f0: 2cf6 9dbe 2d62 13be ec4a 66be af22 fb3e
00000300: f51f 62be 5ebb 3e3c 0d60 5bbe 3fc3 8fbe
00000310: 6b9d 42be eb2f 12be a2d6 0dbf 37b5 1dbe
00000320: 45d0 833f 62ab b1be a578 96be 815d 25be
00000330: 895e cabd c09f e33e 30ea 4fbc f073 8a3f
00000340: 7c25 d2bb 670c e5be ce2a db3d 5486 3bbe
00000350: ea7d bdbd 9740 69be c1b4 1fbf 1d9c c53d
00000360: 9d0e 2fbe 91cb dabe 81df 28bf 514b 653d
00000370: 3a30 523e 7d27 e43d 46a6 c23e 8c45 f6bc
00000380: 9bd0 61be 5f58 f3bd a2ed 193f 7f55 93be
00000390: 60c1 83be 994f 073f 7bdc 9bbe 22eb 89bd
000003a0: 3d48 d5be e26d 1b3f 5ef2 8cbe 06ad ccbe
000003b0: 0327 7a40 8b82 113f 4d1e 2fbe 5b1e 1abe
000003c0: 1021 823c e734 febd 741d 44be fb1d c8be
000003d0: d25b 72be 77bc e5bc fe20 bfbe 2d4b 1dbe
000003e0: 631e 1abd b907 26be fc5a bdbe b9a6 3ebe
000003f0: 37c4 5f3f 6f87 023d a375 3cbe 8bee d1bd
