model/DDQN with batchnorm/EX1_Player_model_epoch_1500.pth (torch_old, 854519 bytes, 10 tensors)

fc1.weight f4 [256, 57]
000000 bd bf 0b 3f 1c 6a 7b bd ed ee ae 3d 87 3d cc be
       0.54589444 -0.06138049 0.08541665 -0.39890692
000010 53 2b f4 3e af 5f ac 3d 7b 25 63 3d 60 c7 4d 3e
       0.47689304 0.08416688 0.055455666 0.20095587
000020 78 43 97 be 92 d5 85 3d 25 9d 35 be 1f 84 8e be
       -0.29543662 0.06534876 -0.17735727 -0.27835175
000030 a7 0a a2 bd ed 8b 63 be 40 c1 07 3f 05 2b 34 be
       -0.07912188 -0.22221346 0.5302925 -0.17594536
000040 59 7a ab 3e 18 fe 00 3e a5 1a 7b 3e 87 18 5f 3d
       0.3349178 0.12596929 0.24521883 0.05446675
000050 47 d3 89 bf 86 db ae 3f dd fa 02 be 1c 30 ac bf
       -1.0767602 1.3660743 -0.12791009 -1.3452182
000060 3c a8 b3 bf ad ce a4 be 9e 2b 01 bf a1 73 f5 be
       -1.4035716 -0.3218893 -0.5045718 -0.4793978
000070 68 c5 aa bd 27 5b 35 be 42 7a 53 bd b2 be 15 3e
       -0.083384335 -0.17710553 -0.051630266 0.14623526
000080 e3 69 c0 be ce 6b 2d bf 34 42 02 3e 73 f8 d3 be
       -0.37580785 -0.6774262 0.12720567 -0.4140049
000090 26 9b 31 bf b7 cd aa 3e 10 16 72 3d e7 4c e9 be
       -0.6937736 0.33360073 0.05910307 -0.45566484
0000a0 60 42 e4 3b 73 de 5d 3d 6e 1d 29 b9 8f 9f 3c bf
       0.0069659203 0.054167222 -0.0001612806 -0.7368097
0000b0 2c 7b cf 3d 87 f2 04 3e cf 91 07 bf 9f 81 41 3e
       0.10130915 0.12983142 -0.5295686 0.18897103
0000c0 d1 32 08 bf bd 2f 1e bf 02 93 3d bf ee 64 e1 3d
       -0.5320254 -0.6179159 -0.7405244 0.11005579
0000d0 89 81 0f bf 55 6d 43 be a1 e1 12 be d7 ed 30 bf
       -0.5605703 -0.19084676 -0.14343883 -0.69112915
0000e0 b0 54 51 bd 21 33 f9 3d 70 16 85 be c4 e8 de 3c
       -0.051106155 0.12167955 -0.2599368 0.0272106
0000f0 9f c0 c2 bd 7b 66 46 3e ec c3 5a be af f7 66 3e
       -0.09509396 0.1937503 -0.21363801 0.22555421
000100 1b 88 81 bd 96 66 5b 3e 6f 7e bc bd 85 d5 ff 3d
       -0.06324788 0.21425852 -0.09203803 0.124918975
000110 70 10 ac bd bb df 77 3e 07 ed 83 be ec 8b e0 3d
       -0.08401573 0.2420644 -0.25766775 0.10964188
000120 b4 d8 b8 bd 73 d3 20 3e b8 c6 cd bd 00 ce 0f 3e
       -0.09025708 0.15705661 -0.10047668 0.14043427
000130 cc 75 71 be 13 40 51 be 12 26 d2 3c 87 69 c4 be
       -0.23580092 -0.20434599 0.025652919 -0.3836176
000140 b5 34 6a be 88 3e 0b 3d f4 60 2f 3d e1 48 dc be
       -0.22871669 0.03399518 0.04281707 -0.43024352
000150 48 11 88 3d e8 c9 b6 bc 5f fb 9d 3e 9c 58 78 bd
       0.06643921 -0.022313073 0.30855843 -0.06063138
000160 2c e8 05 be a6 54 25 bd 54 10 7e be e4 0d d1 3d
       -0.13076848 -0.04036393 -0.24810916 0.102077276
000170 12 19 08 3e 2c 12 7d be 31 9b c4 bd e0 f7 af bd
       0.13290814 -0.24713963 -0.09599913 -0.085922
000180 4f 2e 4e 3d 98 1a e3 3c c2 43 21 be e2 1e 5f bd
       0.050337132 0.027722642 -0.15748504 -0.05447281
000190 c8 ed 30 be 38 1a 95 3d 25 49 ad bd 8f 54 a9 be
       -0.17278206 0.072803915 -0.08461217 -0.33072326
0001a0 21 6e 24 be cb 45 73 bd d9 54 cb be ba 7c 39 be
       -0.16057636 -0.05939273 -0.3971317 -0.18113986
0001b0 ea 38 07 3d 6d 14 8e be 76 f2 e7 bc eb aa 8f bc
       0.03301326 -0.2774996 -0.028313857 -0.017537555
0001c0 d9 87 c1 be d2 9d f2 3d 15 40 88 be 41 fd 9e be
       -0.37798956 0.11846508 -0.2661139 -0.31052592
0001d0 10 94 6e 3e 73 10 c5 3e 0f d3 3a be 8b 6a 12 bf
       0.23298669 0.38489112 -0.18244575 -0.5719382
0001e0 44 46 30 3e 46 24 97 be de ce 09 bf 51 e8 a8 bf
       0.17214304 -0.29519862 -0.5383128 -1.3195897
0001f0 f7 c9 9b be 8f 7a 45 bf 5e 5c b0 be f9 f1 b8 be
       -0.30427524 -0.77140135 -0.3444547 -0.3612211
000200 e7 e8 2b 3e 0f 66 a7 3b 0c 92 36 3e b5 ee 7a 3e
       0.16788064 0.005108602 0.1782915 0.24505122
000210 42 a8 22 3e 9e 04 2a 3e d6 fe 73 bd 6f 11 8a bd
       0.15884498 0.16603324 -0.059569202 -0.067416064
000220 fb af bc 3e ef 45 cd 3e ad f4 77 be a3 74 65 be
       0.36853012 0.40092418 -0.2421443 -0.22407775
000230 f3 da 2c 3d ec dc e9 3e 5e c5 00 3e ea 26 48 3e
       0.042200994 0.45676363 0.1257529 0.19546095
000240 b7 ae f3 bd 82 ee cf 3f ae 33 63 3c ab 34 8e bd
       -0.118985586 1.6244662 0.013867302 -0.06943639
000250 fb 45 10 3f 8d 16 36 be 1f 28 45 be 3f 82 04 3f
       0.5635678 -0.1778204 -0.19253586 0.5176124
000260 e4 16 dc bc 7a 8d 7b 3f 16 a8 92 3d b1 56 0e bf
       -0.026866384 0.9826275 0.07160966 -0.5560103
000270 60 89 33 be f4 90 2d be db d8 af 3e 1a c3 93 bd
       -0.17532873 -0.16949826 0.34345135 -0.07214947
000280 13 1e bb bd 05 f9 c2 be 5b c1 70 bf 08 8b 38 be
       -0.091365956 -0.38080612 -0.9404504 -0.18021786
000290 09 ab c5 3c bf 2d ef 3e 44 0c 01 be 07 db 37 3f
       0.024129407 0.4671459 -0.12602335 0.71818584
0002a0 8f 29 a4 3e 37 2d 99 bd 48 41 42 3e 58 df 67 3f
       0.32062957 -0.07479327 0.18970215 0.9057517
0002b0 e5 7f 2a bf 30 2a 75 3f e0 15 6b bf 02 8c 52 3f
       -0.666014 0.957675 -0.91830254 0.82244885
0002c0 3d c1 9f bf 1b e7 d9 3c eb b2 b3 bf d4 8a 31 3f
       -1.2480847 0.026599457 -1.4038976 0.6935246
0002d0 e0 39 58 bf 93 51 b3 3e c4 43 89 bf 8e cf 0d 3f
       -0.8446331 0.35023174 -1.0723805 0.5539483
0002e0 15 7f 03 bf 38 90 fc 3d c4 2f 89 bf ce 2c 55 3e
       -0.51365787 0.12332195 -1.0717702 0.20817873
0002f0 7d cd 0e c0 db 59 d1 3c 83 c9 05 c0 40 a4 10 bf
       -2.231292 0.025555542 -2.0904243 -0.56500626
000300 b2 e2 ef bb b6 48 1c bf 71 b1 c2 be 04 e3 41 c0
       -0.0073207254 -0.6104845 -0.38026002 -3.029481
000310 27 d1 b1 bc 05 05 e5 bd a1 40 9d 3e 00 62 3d bb
       -0.021706177 -0.11182598 0.3071337 -0.0028897524
000320 b4 e1 15 bf f8 dc ae 3d 33 71 2f bf 21 5d 89 3d
       -0.5854752 0.0853824 -0.68532103 0.06707216
000330 a9 4f 6d be 69 02 21 3e 57 14 e2 3d 14 9c 30 bd
       -0.23174919 0.15723576 0.11039036 -0.043117598
000340 fa 3d e6 3d 80 65 89 3c 27 be 3b 3f e8 7e d6 bc
       0.1124229 0.016772032 0.73337024 -0.02618356
000350 01 4f 25 3e 64 f6 bd bc 02 51 13 be 4a b4 18 be
       0.16143419 -0.023188777 -0.14386371 -0.14912525
000360 d1 a1 00 bf 76 73 59 be 6f 06 57 3e 6a e8 16 3f
       -0.5024691 -0.21235451 0.20998548 0.58948386
000370 3e 1a 1c be 05 37 1e 3a 4e a5 19 3f fe 85 0e be
       -0.15244386 0.000603542 0.6001786 -0.13918301
000380 71 61 12 bd 2a dc 6e 3e 84 f8 72 be 80 d9 13 bf
       -0.03573746 0.23326173 -0.23727614 -0.57753754
000390 68 13 b8 3e e1 5c a0 3e 85 54 9c 3e 40 b9 64 3e
       0.35952306 0.3132086 0.30533233 0.22336292
0003a0 fa b9 6c be d1 b6 76 bd 7a d2 11 3f 86 f3 40 be
       -0.2311782 -0.06023294 0.56961787 -0.18842897
0003b0 b0 7b 8b 3b 3d bd dd be 3b ff 08 3f 32 42 c6 bb
       0.004256688 -0.4330844 0.5351445 -0.0060503716
0003c0 bc ea 90 be 86 5d 8f be d6 9a 0f bf 48 d8 aa be
       -0.28304088 -0.2800104 -0.56095636 -0.33368134
0003d0 2f 55 1f 3f d2 3a 00 be 45 56 17 3e e3 ec 17 bf
       0.62239355 -0.12522438 0.14779003 -0.59345835
0003e0 8b ac eb be 65 a2 1e 3f bb 77 d5 3e 37 5b bc 3f
       -0.46030077 0.61966544 0.4169291 1.4715337
0003f0 12 0d 31 c0 b7 fd d9 be 78 99 da be 17 28 b9 be
       -2.7664227 -0.42576382 -0.42695212 -0.361634

fc1.bias f4 [256]
000000 53 a6 20 bf 3b bf 5c be 11 79 08 bd 06 74 79 be
       -0.6275379 -0.21557324 -0.033318583 -0.24360666
000010 26 44 a9 be 4d 31 d4 be d6 ed 64 bd c6 a6 95 bd
       -0.33059806 -0.41443864 -0.05589088 -0.073072
000020 31 ec 27 be 92 f5 3a bd 68 d8 bd be 13 8f 41 be
       -0.16398694 -0.04564435 -0.37079167 -0.18902235
000030 ec e1 7c 3d 70 1e 91 be 5f 30 67 be 7f 8d a3 be
       0.061738893 -0.28343534 -0.22577046 -0.3194389
000040 35 6e 06 bf 27 d6 37 be 13 c9 e0 be 39 c9 eb bd
       -0.5251191 -0.17952786 -0.43903407 -0.115129896
000050 b9 e6 2a be db f7 c7 be d1 02 3c 3e 03 ae 9c be
       -0.16689576 -0.39056286 0.1836045 -0.3060151
000060 c7 e2 97 be d4 a4 0d bf 21 8a 53 be 51 41 05 bf
       -0.29665205 -0.5532963 -0.20658161 -0.5205279
000070 1c 4f b1 bb b3 a9 da be d8 d9 51 be cb 61 28 be
       -0.005411042 -0.42707595 -0.20493257 -0.16443555
000080 ca 0a 3b bf 35 b0 c2 3e eb c7 1f 3e 9b cb 4e bf
       -0.7306334 0.3802506 0.15603606 -0.8077943
000090 67 b0 ec bd f5 87 22 bf 71 72 1d bf be 52 12 bf
       -0.115570836 -0.63488704 -0.6150275 -0.57157505
0000a0 9e e2 56 be ea af f8 be 38 af ba 3c 5b a2 31 be
       -0.20984885 -0.48571712 0.022788629 -0.1734709
0000b0 2a 15 cf bd a3 07 01 3c 70 e1 0b bf 4e 59 33 bf
       -0.101114586 0.007875356 -0.54640865 -0.70058143
0000c0 24 01 fd be 09 c8 23 bf 36 9b 23 bf 3e 0e f5 bd
       -0.49414933 -0.63977104 -0.6390871 -0.11965607
0000d0 92 35 c4 be 45 73 69 bf 71 b9 e4 be 13 16 28 be
       -0.3832212 -0.9119151 -0.4467273 -0.1641467
0000e0 cf 94 90 be 7e 9c d2 3d 75 dd 1a 3c d1 15 cb bd
       -0.28238532 0.10283755 0.0094522135 -0.099162705
0000f0 fe 3f 13 bf 30 93 49 bf 23 46 ca be e2 4c f6 bd
       -0.5751952 -0.78740215 -0.39506635 -0.12026383
000100 4f d3 ef bd 70 f6 b4 be 49 fd 2c bf e7 61 be be
       -0.11710226 -0.35344267 -0.6757398 -0.3718407
000110 c9 ee ff be 54 d8 19 bd 9d ea 0c bf 68 6f 0e bc
       -0.49986866 -0.037559822 -0.5504549 -0.0086935535
000120 c5 e5 64 be 91 94 fc bd 3e 40 12 bf 9c 50 e3 bb
       -0.22353275 -0.12333024 -0.57129276 -0.0069370996
000130 57 2e 1c be b1 2b 2d bf 59 2e 9a be c4 02 26 3d
       -0.15252052 -0.6764479 -0.30113485 0.04052998
000140 3e 45 d8 b9 8b 79 96 be 3b a9 8c be 6b 62 c6 be
       -0.0004125032 -0.29389605 -0.27472863 -0.38746962
000150 db 13 9f be ff 8b 11 bf ca 4b 0d bf 8e f1 1b be
       -0.31069836 -0.5685424 -0.5519377 -0.15228865
000160 64 dc ce be e8 12 c7 be bc c0 55 3f 03 1f c9 be
       -0.4040252 -0.38881612 0.83497214 -0.39281473
000170 43 40 0f be e7 10 b6 be 9c db fb be ca 09 c5 be
       -0.13989358 -0.3555977 -0.49190986 -0.3848403
000180 f2 e0 69 be ba 81 bf 3e 7a fb 11 be 38 25 eb be
       -0.22839716 0.3740366 -0.14256087 -0.45926833
000190 e0 b2 83 bd d3 9c 0e bf 2a 47 ff be 41 15 a9 bd
       -0.06430602 -0.55708045 -0.4985898 -0.08256007
0001a0 92 c6 9c be 43 3f df be 85 5b 04 bf dc fa 0d bf
       -0.30620247 -0.43602952 -0.5170215 -0.55460906
0001b0 a3 69 a9 bd c0 d7 1a bf 4a 32 8d be 2a 2c b8 bd
       -0.08272102 -0.6048546 -0.2757743 -0.089927986
0001c0 1c a8 8c be 2b 80 bd bd 27 ac 18 be 14 6e 10 3c
       -0.27472007 -0.09252962 -0.14909421 0.008815307
0001d0 31 cf b8 be 5c 87 a0 3e de fb 52 be e2 c2 d4 be
       -0.36095574 0.3135327 -0.20603892 -0.41554934
0001e0 da 03 ac 3e 9b 9c 33 bd 44 c0 47 bf 9d 19 ab be
       0.33596689 -0.043850522 -0.7802775 -0.3341798
0001f0 4c e9 d0 be e4 6e 14 bf 2d b8 39 3f af 73 d8 be
       -0.4080299 -0.57981706 0.72546655 -0.4227576
000200 64 76 83 be da 5e 8a 3e 95 82 21 bb 49 ea 32 bf
       -0.25676262 0.2702549 -0.0024644483 -0.6988874
000210 91 64 7b be d3 e4 1a bf 32 2d d8 be 49 59 a2 be
       -0.24550082 -0.6050541 -0.4222198 -0.31708744
000220 0b 1b 51 bd 21 73 86 be 8d a1 ff 3e 3b 2f 23 bf
       -0.05105118 -0.2625971 0.4992794 -0.6374394
000230 13 fd 2f bd 87 0c 73 be 47 4e ef be 05 e4 c9 bd
       -0.04296596 -0.23735248 -0.46739408 -0.098579444
000240 8a 25 0f bf 29 78 82 3e bc 8a 16 bf e2 fc 34 bf
       -0.55916655 0.254823 -0.5880544 -0.7069837
000250 f8 f2 1b 3e 7c 3f 21 bf 80 81 e5 be a3 ae bc be
       0.15229404 -0.62987494 -0.44825363 -0.36851987
000260 6d fd e5 bd 09 3d f8 bd 7e 44 f8 be a2 0c 21 bf
       -0.11229978 -0.121210165 -0.48489755 -0.629099
000270 74 4a 95 be 7f 1b 26 bf df c1 0c bf 60 11 58 3e
       -0.29158366 -0.64885706 -0.54983324 0.21100378
000280 86 bf c8 3e 3d 9e 4e bf 26 bb 45 be 1b f5 32 bf
       0.3920862 -0.807102 -0.19309673 -0.6990525
000290 cd 06 48 be 1a 23 71 be 07 4b 1c 3e d0 65 3e be
       -0.19533844 -0.23548546 0.15262996 -0.18593526
0002a0 9e 45 af 3d 8e dd 62 be 1a 5d db be 87 63 f3 be
       0.085582 -0.22154829 -0.42844468 -0.4753687
0002b0 9c 85 10 bf 12 36 0f bf 9e 6a da be 36 9f 07 bf
       -0.5645387 -0.5594188 -0.42659467 -0.5297731
0002c0 c7 83 3b bf 0b 3d 9c 3d 6e fa bd be 8b e1 16 be
       -0.7324795 0.076288305 -0.37105125 -0.14734475
0002d0 79 2a 31 3e 19 d1 d3 bb ba d7 d5 be 0d 36 e8 be
       0.17301358 -0.0064641354 -0.4176615 -0.45353737
0002e0 c6 3e 10 3e c0 a7 96 be a4 5e eb bd 19 57 83 be
       0.14086446 -0.29424858 -0.11492661 -0.25652388
0002f0 c4 2f 44 bf 3c 3e 54 be 14 42 27 bf 7c bb 1c bf
       -0.76635385 -0.20726866 -0.653352 -0.6122358
000300 42 44 e3 3e b6 8f 15 bf c0 9e d6 be 45 a6 12 bf
       0.44388014 -0.5842241 -0.41917992 -0.5728496
000310 15 8b 90 3d ba 23 42 3e 6c 46 5e bf fb ab 36 bf
       0.07057778 0.18958941 -0.86826205 -0.7135617
000320 1a 35 e7 3d 76 27 e9 be ee 45 5c bd cb 5c 93 be
       0.11289425 -0.4553792 -0.053777628 -0.28781733
000330 16 e9 a2 bd 8e 8f 19 3e 44 fc b4 be 4e b3 de bd
       -0.07954614 0.14996168 -0.35348713 -0.108740434
000340 bc 51 c5 39 d4 37 eb 3c 2d c2 40 be 14 46 2a bf
       0.00037635665 0.028713144 -0.18824072 -0.6651318
000350 c3 43 96 3d cd a1 ca be 53 c4 18 bf 43 a6 4b bf
       0.07337143 -0.3957657 -0.59674567 -0.7955057
000360 b1 75 52 be 85 9b 01 be 76 16 85 be 14 1b 40 be
       -0.20552708 -0.12656982 -0.259937 -0.1876033
000370 b8 d0 08 be 08 6d e6 3d 5b 94 cd be 93 94 a2 be
       -0.1336087 0.11251265 -0.4015225 -0.31753978
000380 cd 21 9f be be 18 15 bf ba cf 57 bc 82 2e 2c be
       -0.31080475 -0.5824088 -0.013172084 -0.16814616
000390 4b 73 29 3f 6e 19 75 bf e5 3c c4 bd 5c 58 d4 be
       0.6619155 -0.9574193 -0.09581927 -0.41473663
0003a0 28 08 15 bf 1a 56 3d 3f 0e d3 59 be 84 35 f7 3b
       -0.5821557 0.73959506 -0.21271917 0.0075442214
0003b0 e8 5b 0a bf 47 da 10 bf 7b f6 a3 bd aa 77 5e 3e
       -0.5404649 -0.56583065 -0.08005997 0.21725336
0003c0 2d e4 b0 be 81 63 0f 3e 4c 4d 0a bf 6e a2 28 be
       -0.34549084 0.14002801 -0.54024196 -0.16468212
0003d0 15 8e e4 bd 48 4c f8 be fb 55 14 bf 1b 16 9c bd
       -0.111599125 -0.48495698 -0.57943696 -0.07621404
0003e0 e0 25 71 be 00 ff 42 3f e7 fa 0d bf 30 40 08 bf
       -0.23549604 0.7617035 -0.5546097 -0.5322294
0003f0 5e 43 9f be 02 69 26 bf 01 ab 94 be bf 51 23 bf
       -0.31106085 -0.6500398 -0.29036716 -0.6379661

fc2.weight f4 [256, 256]
000000 82 53 d7 bd 0c 84 1a bb 45 61 9e bc f2 c9 18 bf
       -0.10513975 -0.0023577241 -0.019333491 -0.59683144
000010 c7 3e 2a be ec 03 2c 3e c7 44 3c bf 3c 54 8d 3e
       -0.1662551 0.16798371 -0.73542446 0.27603328
000020 22 a5 20 3e 21 55 a4 bc 73 b3 99 be 0b 8a dd 3c
       0.15687993 -0.020060124 -0.3001972 0.027043363
000030 8c bd 4c be 0a ae 30 3f bc 90 67 be 03 e8 09 3d
       -0.19994181 0.6901556 -0.22613806 0.03366853
000040 71 52 84 3f 1d 18 e0 3e fb a9 b6 3e 9f 31 5e bf
       1.0337659 0.43768397 0.3567656 -0.86794466
000050 85 e2 3f 3f 1b 84 98 be 3f 87 ff be b2 a2 1a 3f
       0.74955016 -0.29788288 -0.49907872 0.60404503
000060 c6 f8 83 3f 27 d7 40 3e cf ab 9b 3e ba 15 4b 3f
       1.0310295 0.18832074 0.30404517 0.7933003
000070 1a f9 8a bf fc 1d f2 3e e0 e5 2e 3f 97 53 17 be
       -1.085727 0.472885 0.6831951 -0.1477798
000080 71 6c 96 3f 16 8e 29 bf 97 e0 2b 3f ac 87 aa 3e
       1.1751844 -0.6623243 0.6713957 0.33306634
000090 3c ff b3 3e b2 c4 c3 3e 41 75 cf 3d bf 35 5d 3f
       0.35155666 0.38236004 0.10129786 0.86410135
0000a0 76 cc 00 3f 0c 94 66 bf 90 54 ab 3f d1 df 92 bd
       0.5031198 -0.9006965 1.3385181 -0.07171596
0000b0 14 26 e4 3c e1 07 cf 3d 4d 1d 45 be bb 4d 89 3f
       0.027850188 0.10108925 -0.19249459 1.0726846
0000c0 a5 41 c7 3b c3 7d 90 3e 95 5d dc be 5d 86 81 3f
       0.0060808235 0.2822095 -0.43040147 1.011913
0000d0 f7 d6 31 bd dc 5e 06 3e d5 eb 62 3f df 63 6f 3e
       -0.043417897 0.13122123 0.886411 0.23377942
0000e0 c3 c6 01 3f cc ca 81 3e c1 91 ba be 8e 83 8c be
       0.5069391 0.25350034 -0.36439326 -0.27444118
0000f0 fe 69 52 be 46 21 b8 3e 93 1f ba be 9d af a0 3e
       -0.20548245 0.35962886 -0.36352214 0.31383982
000100 52 52 36 3e 53 11 be 3f 2d 4a d8 3e 0d ac f6 be
       0.1780484 1.4849037 0.42244092 -0.4817814
000110 3a 11 9c 3e 2c 88 db be f7 70 86 3d 5a a7 12 3d
       0.30481893 -0.42877328 0.06564515 0.03580413
000120 1f 07 b1 bd d9 09 88 3e 0a 48 59 be 79 9c dd be
       -0.08643936 0.26570013 -0.21218887 -0.43283442
000130 7c 89 38 3f ab 9f 0f 3d 50 a2 6b 3f 66 43 23 3f
       0.72084785 0.03506438 0.92044544 0.63774717
000140 e3 16 24 3f 31 7d 25 bf c8 f4 fc 3e 68 df 22 be
       0.6409742 -0.6464415 0.49405503 -0.15905535
000150 d2 9d 15 3c f9 c2 95 3e 24 f8 2a bd ea 28 17 3e
       0.009131866 0.29250315 -0.04174055 0.14761701
000160 36 cd 1c 3d 5e 9b b1 be 5d b8 05 bf f9 c8 6f 3f
       0.038281642 -0.34688848 -0.5223444 0.93666035
000170 23 c4 3d 3e 07 3c 16 3f 6c e1 44 bc 4c 67 cf be
       0.18531851 0.58685344 -0.012016635 -0.40508497
000180 8c be 06 3f 00 e4 54 bf 2b 45 85 be d1 3c 0c be
       0.526345 -0.831604 -0.26029333 -0.13695075
000190 25 f4 8e be 2e c8 c3 3e 7e 86 13 3e f6 aa 59 3e
       -0.27920642 0.38238662 0.14406773 0.21256623
0001a0 50 2e 1f 3d fb 39 03 3f f5 73 44 3f 04 9a 67 3f
       0.038862526 0.51260346 0.76739436 0.90469384
0001b0 10 f6 b7 3e 57 c2 0b 3f 72 03 9e 3e 6d ac 04 3e
       0.35929918 0.54593414 0.30862004 0.129564
0001c0 10 1d 5e 3f 11 e2 ee 3e 6e 4c fc bd c7 89 75 3f
       0.86763096 0.4665685 -0.12319265 0.95913357
0001d0 b3 59 0f 3e 31 9f 80 3f 28 cf 02 bf 10 de 06 bf
       0.13999061 1.0048581 -0.51097345 -0.5268259
0001e0 71 d6 d7 be d8 7e 48 be 80 d0 28 be cb 36 a7 3e
       -0.42155793 -0.19579637 -0.16485786 0.3265899
0001f0 8e 64 46 3e 96 3d ae 3e 33 b4 0d bf cf 80 9d be
       0.19374296 0.3403136 -0.5535309 -0.30762336
000200 ee 21 d7 3e b7 b6 0b bf 1e 3e 09 bd 1b c0 2e 3f
       0.42018074 -0.54575676 -0.033506505 0.6826188
000210 b1 ff ac bc 4f 7b 4d be 78 92 26 3e 4e a3 86 3c
       -0.021118017 -0.2006657 0.16266811 0.016435292
000220 31 52 42 bf ca a9 6d 3f 04 ab e2 be ba 4a d0 3c
       -0.75906664 0.928372 -0.442711 0.025426257
000230 71 3b e5 3d b8 94 96 3f 72 ea 35 3f bc 55 d6 be
       0.11192978 1.1764135 0.7106086 -0.41862285
000240 ab 70 b3 3d 2f 73 5b bf 9a 9b ec 3d 03 ed 07 3e
       0.08761724 -0.8572263 0.11553116 0.13274007
000250 72 48 ab 3e 57 c4 fc 3d ca a7 16 3f ec 15 18 3e
       0.3345371 0.12342136 0.58849776 0.14852113
000260 9e 6c b1 be ee fd 75 bf e4 bd 3b 3e 6b 61 0d bf
       -0.3465318 -0.9609059 0.18334156 -0.55226773
000270 ef f2 13 3c 5d d2 61 3f a8 c6 60 bf 90 7f 30 bf
       0.009030088 0.88211614 -0.87803125 -0.68944645
000280 39 cf 40 bf 61 79 88 3f e2 6c ee bc f8 46 92 be
       -0.75316197 1.0662042 -0.029104654 -0.2856977
000290 25 c0 c5 3f b7 c5 86 bd 8e 16 cf 3d 1d 47 6f 3e
       1.5449263 -0.0658068 0.10111724 0.23366971
0002a0 e5 c9 04 3f ba 6f 89 3d 2b fd 61 3f 64 a3 a4 3e
       0.51870567 0.06710763 0.8827693 0.32155907
0002b0 1a c9 cf 3e b0 87 5a 3e 5f 36 9b 3d d5 89 1a 3e
       0.40583116 0.21340823 0.0757873 0.15091641
0002c0 a4 a1 cc 3e dd 83 02 3f f0 6e eb 3d 04 af da bd
       0.39967072 0.5098246 0.11495769 -0.10677913
0002d0 fd be 5b be 76 3f 98 3f c0 ec 8b 3f 4d b3 ea be
       -0.21459575 1.1894367 1.0931625 -0.4583992
0002e0 d6 2f 08 3d d5 b6 ae 3e 49 91 9a 3d 0e cf fb 3e
       0.033248745 0.34123865 0.07547242 0.49181408
0002f0 6b 7c 9e 3e 2f 98 83 3e b5 ac 15 3f d4 d8 0c 3f
       0.30954298 0.25702044 0.58466655 0.55018353
000300 28 a8 4e bf 89 bd 2b bf bf fe 78 3f ee e2 64 3f
       -0.80725336 -0.6708608 0.9726371 0.8940877
000310 74 08 f1 3d b6 25 b8 be 83 72 af 3f 47 27 56 3f
       0.117691904 -0.3596627 1.3706821 0.8365368
000320 97 3c 85 3f ec 2e 19 bf 0c 1f c9 3e 95 40 db bc
       1.0409116 -0.5983722 0.392815 -0.026764194
000330 43 d4 05 3f a6 16 59 3f 5a 33 db 3e f7 a6 86 3f
       0.5227701 0.84800184 0.42812616 1.0519704
000340 25 1b 62 3f 77 75 9a 3d 0d b0 27 be 56 b2 11 3f
       0.8832267 0.07541936 -0.16375752 0.56912744
000350 41 c9 10 3f 84 f3 14 3f 1a 57 d9 3d a7 cb 14 3f
       0.5655709 0.58184075 0.106123164 0.5812325
000360 9c 24 fd 3e 0e 14 cd 3e 87 6c d1 3e 27 7c 62 be
       0.49441993 0.40054363 0.40903112 -0.22117673
000370 a9 66 19 3e 80 49 60 3e 00 21 2c bd 3f 77 6f 3e
       0.14980568 0.21903038 -0.04202366 0.23385333
000380 45 78 09 3f 9c 0a 07 3e ae a5 bd 3c 86 ce 03 3f
       0.5369914 0.13187641 0.023150291 0.51487005
000390 88 b1 c5 be c1 25 5e bd ca 32 8c 3f 3f 17 d2 bd
       -0.38612008 -0.054235224 1.0953 -0.1025834
0003a0 42 ee c1 bd 4f bc d8 be 77 59 f9 3e 97 c2 f5 3e
       -0.09469272 -0.42331168 0.4870107 0.48000023
0003b0 04 7f 5e 3f e9 ce ca be f3 36 97 bd 9e cb 08 be
       0.8691256 -0.39610985 -0.073835276 -0.13358924
0003c0 c8 6e 9a 3e 60 a9 d7 be ff ef 32 bd a0 01 02 3f
       0.30162644 -0.4212141 -0.04368591 0.5078373
0003d0 3a b0 7a 3f 6b f1 a0 be 70 e4 0f 3e fc e7 a1 3e
       0.9792515 -0.31434187 0.14051986 0.31622303
0003e0 c7 bf 97 3e c4 ce 24 bf 93 48 d5 ba b3 44 3e 3f
       0.29638502 -0.64378 -0.0016272239 0.74323577
0003f0 81 23 ed bd f1 ef c5 3e 84 6e 7a bf 6a 12 7d 3f
       -0.115790375 0.38659623 -0.97824883 0.9885622

fc2.bias f4 [256]
000000 64 3e 3e bf 11 f1 7a 3f 0f d9 87 bb 0e f1 21 be
       -0.7431395 0.9802409 -0.0041457484 -0.15814611
000010 29 4a 50 bd c0 cd 13 bc 69 2b 8f bd 30 6d a7 bd
       -0.050851975 -0.009021223 -0.06990702 -0.08175123
000020 3e 30 40 3f 25 72 8b 3c ad ef c4 be de 5c 09 be
       0.7507361 0.017022202 -0.38464108 -0.13414332
000030 63 44 0c bd d8 ad 0e 3f 9c 7c 87 bc 04 66 7b 3e
       -0.034244906 0.55734015 -0.01653891 0.24550635
000040 a6 01 c5 bd 68 cb a3 3e 7b dd e7 3d f1 57 d5 3e
       -0.09619455 0.31991124 0.11321541 0.41668656
000050 3a 07 80 bd b2 77 f7 bd 6d bf f6 bc 99 f3 51 bd
       -0.06251378 -0.12083377 -0.030120576 -0.051257703
000060 0b 35 2b bd 02 dc 32 3f 80 b0 b8 bd 15 47 ec be
       -0.041798633 0.69866955 -0.0901804 -0.4614798
000070 ac 32 7e bd 61 e5 09 3d d1 ce 40 3f 20 f8 1b bd
       -0.062060043 0.03366602 0.75315577 -0.038078427
000080 58 64 36 be 39 9b 3a bd 33 f7 2e 3c 92 67 ad be
       -0.17811716 -0.045558188 0.010679054 -0.3386808
000090 be 98 80 bd d8 63 fa bc 05 b7 7d 3f be d4 dc 3c
       -0.06279133 -0.030565187 0.9910739 0.026956912
0000a0 d1 a9 f0 bc b1 b3 ca bc fe c2 4f be 34 be ca bd
       -0.02937785 -0.024743887 -0.20289227 -0.098995596
0000b0 0a ab df bd af 3a 2d 3f bf 75 da bb b6 c5 a0 3c
       -0.10921295 0.6766767 -0.0066668685 0.019625526
0000c0 32 f1 e2 bd f8 07 54 bd 30 12 77 be b0 93 24 bc
       -0.110811606 -0.051765412 -0.24128032 -0.010044977
0000d0 c4 41 9c be 91 8e a2 be 8c a3 10 bf 4e 55 5e 3d
       -0.30518925 -0.31749395 -0.5649955 0.05428057
0000e0 62 f0 2a bd be 34 94 bd be 85 74 be 5f 03 ff be
       -0.041733153 -0.07236622 -0.23879144 -0.4980726
0000f0 5d 69 8c be aa ab d1 3d 44 64 09 bd 57 69 9c bd
       -0.27424136 0.102378204 -0.033542886 -0.076372795
000100 dd da 8e bd ad 30 16 bd cf da b6 bc 41 ad ca bd
       -0.069753386 -0.036667515 -0.022321133 -0.09896327
000110 27 cb 5f 3e 0b 17 a8 3e 8f cf 4e 3f 48 f4 a6 bc
       0.2185484 0.3283008 0.8078546 -0.020380154
000120 40 6c a4 bb 77 ff f4 3d f9 e3 0a 3d 43 59 e4 3d
       -0.005017787 0.119627886 0.033908818 0.11149838
000130 87 b2 6e bc 56 51 4f 3e 59 eb f5 bc a6 cc 85 bd
       -0.014568931 0.20245871 -0.03001945 -0.06533174
000140 ea f6 10 bf c3 6f 85 bd 81 77 39 3f 9b ac 30 3f
       -0.5662676 -0.065154575 0.72447973 0.69013375
000150 e2 22 13 bf 34 5e 11 bd ea 8c d6 bd 0d fc 51 bd
       -0.574751 -0.03549023 -0.10476096 -0.051265765
000160 b4 7f 90 3e 03 93 07 bf 6a 5e f6 bd 6f 47 37 bd
       0.2822243 -0.529587 -0.12029727 -0.04474586
000170 92 ce ab bc c5 6e 88 3c 0b c2 9a bc 50 c1 96 3c
       -0.020972524 0.016654382 -0.018891355 0.018402725
000180 a1 c1 5c bd d6 6d af bc e4 da a4 3e a3 d5 84 bc
       -0.053895596 -0.021414679 0.3219825 -0.016215151
000190 df 1d d8 bd ef 5f d8 bc b2 1b e3 bc a9 ed 1b 3e
       -0.105525725 -0.026412932 -0.027723167 0.15227379
0001a0 17 d1 2c 3e 9e 80 bc bc 5b 14 47 bf 2f b5 b0 bd
       0.16876636 -0.023010548 -0.77765435 -0.08628308
0001b0 5a 3d 30 be 79 9c 9a bd b5 24 97 bd 97 32 2a bc
       -0.17210904 -0.07549376 -0.07380048 -0.010388038
0001c0 f7 ef 45 bf f5 16 da bd a0 20 97 bd 3c bf 4a bd
       -0.7731928 -0.1064891 -0.073792696 -0.04949878
0001d0 bd 5a 2e bc c5 77 96 3c 27 82 9f bd 05 35 68 3e
       -0.010641751 0.018367657 -0.077884965 0.22676475
0001e0 ac 37 17 bd 8e ec f6 3b 48 8e 59 bd ad 09 5c 3d
       -0.036918327 0.0075355237 -0.053114206 0.053720165
0001f0 c2 9d 22 be 35 97 e0 bc 3e 72 c8 bd ea 29 bf bd
       -0.15880492 -0.027415851 -0.09787415 -0.09334166
000200 8c 4c 03 3e ad c6 3a 3e f6 7b 84 3f 08 19 0e 3d
       0.12822169 0.18239851 1.035033 0.03469184
000210 fc 60 88 3e c9 a4 8f bd 71 4c c2 ba ee fa 29 3d
       0.26636493 -0.07013852 -0.0014823807 0.04149907
000220 6e f5 30 bf d0 69 01 bd 76 fc be be b4 14 fe bd
       -0.69124496 -0.03159505 -0.37301987 -0.124062926
000230 04 6e 19 bd 4e 85 06 3e 13 6d 10 be 17 81 39 be
       -0.037458435 0.13136789 -0.14104109 -0.1811565
000240 db a0 e4 bd df 3c 36 bd c1 2c 4c 3f 39 6c cf 3d
       -0.11163493 -0.044491645 0.7975579 0.10128064
000250 99 3b 5c 3e 8d ed 9d bd b1 1b da be d0 24 a0 bd
       0.2150711 -0.07711325 -0.42599252 -0.078195214
000260 c6 e6 b6 bd 7c a3 69 bc a2 77 84 bd 26 43 8f bd
       -0.08930735 -0.014260169 -0.06468131 -0.069952294
000270 d6 e7 76 bc 19 0d 4b be 8d 7c 9b bd 84 8d 5e 3f
       -0.015069922 -0.19829215 -0.075921156 0.86934686
000280 f4 2d 5a bd cc 4c 5f be d4 cd 98 bd 3b e2 6f 3e
       -0.05326648 -0.2180664 -0.074611336 0.23426144
000290 6e 17 58 3e d5 cc c1 bd 5e 5d 75 be 84 15 9e bc
       0.21102688 -0.09462897 -0.23961398 -0.019297369
0002a0 41 4d fd bd 78 84 99 bd ca e6 89 3c 5e 51 ce 3c
       -0.12368251 -0.074959695 0.016833682 0.025185283
0002b0 31 e5 5b 3e cd 14 67 bd 12 12 b2 bd f0 93 e6 bc
       0.21474148 -0.05641632 -0.08694853 -0.028146714
0002c0 d6 67 45 bd 45 7f 2b bc 57 e4 2f 3e 3c 32 db be
       -0.04819473 -0.010467355 0.17176948 -0.42811763
0002d0 54 e6 d8 be 93 0a 01 bd 09 73 cc bc ff 19 76 3f
       -0.42363226 -0.031504225 -0.024957197 0.96133417
0002e0 93 7b 41 be a7 2d 36 be ba ca 2b 3e 28 d5 9b bd
       -0.18894796 -0.17790852 0.16776553 -0.07609016
0002f0 12 5a d9 be 6a a4 a7 3b f1 98 e9 bb 05 10 6b bd
       -0.4245153 0.005116035 -0.0071288277 -0.057388324
000300 b1 6a 82 3d a4 9d 83 bd 33 bd fd bd e2 b0 8c bd
       0.06368006 -0.06426552 -0.123896025 -0.06869675
000310 97 a8 76 3f 6f 12 53 bd f6 17 16 bc b5 f3 78 3d
       0.96351 -0.05153125 -0.009160986 0.060779292
000320 7b ab 05 bd db e8 cc be aa cf a4 bd 11 ca 24 bf
       -0.03263424 -0.40021405 -0.08047421 -0.6437083
000330 26 b8 90 bd 11 92 04 be f9 99 db bc 88 41 60 bf
       -0.070663735 -0.12946345 -0.026806818 -0.8759999
000340 d2 5c 6d 3b 4a 57 89 3e 52 07 d7 bd 38 d6 70 bd
       0.0036218655 0.2682441 -0.10499443 -0.058798045
000350 74 ff ab bd 36 11 36 bf 32 6d 99 3d ca a8 33 3f
       -0.08398333 -0.7112001 0.074915305 0.70179427
000360 d4 b9 03 bd 50 13 04 bc 88 9e bd 3c 0f fe 1f bf
       -0.03215964 -0.008061245 0.023146883 -0.6249704
000370 24 bc c4 bd 59 d7 8e bd 6e d2 54 3e e6 29 8c bd
       -0.096061975 -0.06974668 0.20783398 -0.06843929
000380 79 9e fc bb 97 cc 30 bf 3c ff da bd cf ee 08 bc
       -0.007709321 -0.6906218 -0.10693213 -0.008357718
000390 89 26 b1 bb 51 a4 af bd d0 68 e7 bc 16 60 06 bf
       -0.005406205 -0.08576263 -0.02824822 -0.52490366
0003a0 68 b5 60 bd 63 ab 1e 3f 73 f7 81 be 3b 78 1b bf
       -0.054860502 0.61980265 -0.253841 -0.6073033
0003b0 89 f8 c4 bd 6d 25 07 be 98 71 00 3f 4d 82 a1 3e
       -0.09617717 -0.1319787 0.5017333 0.31544724
0003c0 34 48 60 3e bb a0 ae ba f9 c8 c7 be 8b 48 59 3f
       0.21902543 -0.0013323048 -0.39020517 0.84876317
0003d0 84 49 15 bd 7b 78 df bc 86 d1 7d bc fd 49 f3 bd
       -0.036447063 -0.02727913 -0.015491849 -0.118793465
0003e0 de 9b 60 bf 0b 0c 29 bb 07 2e a6 bd 09 6c d4 be
       -0.87737834 -0.0025794532 -0.08114248 -0.41488674
0003f0 a6 2a 8a 3b a5 a1 18 bd 85 44 4c bb 1b 95 63 bd
       0.00421651 -0.03726353 -0.003116877 -0.05556212

fc3.weight f4 [256, 256]
000000 22 7b 88 3c 8c 90 7d bd a0 7a 25 bd ef e1 90 bd
       0.016660277 -0.06190543 -0.040400147 -0.070743434
000010 2e 40 2d 3d 81 ed 1d 3c a5 5e 5d bd f6 c0 fd 3c
       0.042297535 0.009639145 -0.05404534 0.0309758
000020 15 03 06 3d 2e 8f 65 3d a9 7c 5b bd 1b d8 29 bd
       0.032717783 0.05604475 -0.053585682 -0.04146586
000030 79 b2 99 3b 0f 8f 48 3d fc 3d 85 3c a6 b2 69 3c
       0.004690465 0.048964556 0.016264908 0.0142637845
000040 dc 8d 35 3b 73 83 5e bd 20 89 c0 bc 4d 93 3a bd
       0.0027702963 -0.05432458 -0.023502886 -0.045550633
000050 ee 86 7f 3d 0b 44 9c 3c be c8 23 3c 7f fe 73 bd
       0.06238454 0.019075414 0.009996591 -0.05956888
000060 0e b5 1d bd e0 5a 7f 3c b6 a2 67 3d b1 f9 b2 bd
       -0.038502745 0.015585631 0.056551658 -0.08739031
000070 f5 36 4b 3d e4 d3 a3 3c a5 47 d4 bd a0 d4 48 3b
       0.049612958 0.019998498 -0.103652276 0.0030644313
000080 bf 5d 27 bc 80 6f 16 3b e9 04 3e bc 7c d8 20 bd
       -0.010215222 0.0022954643 -0.01159785 -0.039268956
000090 e6 f5 1d bd c2 70 c9 3c 7a 5f fc bc 57 ce 38 3d
       -0.038564585 0.0245899 -0.030807246 0.045118656
0000a0 c4 8b ae 3c 2d 4b e1 3c a2 c7 3c bd 34 82 f7 3c
       0.02130688 0.027501667 -0.046088822 0.030213453
0000b0 57 f6 e0 3c 68 87 46 bd f2 16 16 bd 12 4c 61 bd
       0.027461214 -0.048468977 -0.036642976 -0.055004187
0000c0 20 02 d4 bc a6 10 72 bd 75 46 43 bd 74 be 00 bb
       -0.02587992 -0.05909791 -0.047674615 -0.001964477
0000d0 dc 22 98 b8 fb c2 c9 bc a9 be c2 3b bc 40 a4 bc
       -7.254418e-05 -0.024629107 0.0059431386 -0.020050399
0000e0 69 06 b1 bc 46 32 4e 3d 55 dc 9f bd 78 09 52 bd
       -0.021609502 0.050340913 -0.07805697 -0.05127856
0000f0 42 dc 22 bd 0b d9 86 bd 3c 98 b3 3c 1a 9c 2b bd
       -0.039760835 -0.065843664 0.021923177 -0.041896917
000100 3a c1 11 3d 32 f4 23 bd de 68 de bc cf a8 18 bd
       0.035584666 -0.040027805 -0.027149614 -0.037270363
000110 23 4b 93 bd 85 01 16 3d 5d 40 2d bb 11 f8 4e bd
       -0.071920656 0.036622543 -0.0026436069 -0.050529543
000120 89 06 83 3b 00 12 44 bc b9 cc be bc f0 82 5a bd
       0.003998582 -0.011967182 -0.023290979 -0.053347528
000130 30 6e 2d bc 10 31 0c bd c3 ae 12 3d 38 3c 44 bd
       -0.010585353 -0.034226477 0.035811197 -0.04790899
000140 dc 3d b0 bd 3c 31 12 bd c0 ee 0c bd 3c 07 33 3b
       -0.08605549 -0.035691485 -0.034407377 0.0027317544
000150 2d 97 a5 bd 3d 82 17 bd 2f 90 e5 3c e4 ce 15 3d
       -0.08085475 -0.03698944 0.028022854 0.03657426
000160 bc ac d2 bc f1 41 50 3b f3 4d 42 bc d5 49 3b bd
       -0.025717132 0.0031777585 -0.011859405 -0.04572471
000170 35 f1 88 bd b6 c4 8b bd 4d 4d 11 bd 48 22 77 bc
       -0.066866316 -0.06824629 -0.03547411 -0.015083857
000180 4c f7 53 bc d1 91 69 bc 48 e7 5d bd cf 87 97 bd
       -0.012937378 -0.014255957 -0.054175645 -0.0739895
000190 5d 9a 51 3d e7 00 ca 3c 34 1e 00 3d 49 7c 7c bd
       0.051172603 0.024658633 0.031278804 -0.061641965
0001a0 66 dc 92 bd 93 e3 a1 3c 41 6a f3 bb 81 b3 d6 bb
       -0.07170944 0.019761836 -0.007428438 -0.0065521603
0001b0 c7 25 a6 bd 46 eb b0 3b 26 d3 24 bc f4 99 a8 bc
       -0.08112674 0.0053991405 -0.010060107 -0.020581223
0001c0 99 cb c3 bd 98 a6 92 bd 0b c7 67 3b 48 b5 a1 3c
       -0.095603175 -0.071606815 0.0035366442 0.019739762
0001d0 73 17 94 3c f4 14 e2 bc 0c cf 33 bd e0 26 75 bb
       0.018077588 -0.027597882 -0.043898627 -0.0037407205
0001e0 bc 7f 2e bd 77 1c f2 bc 14 25 de bb 65 94 86 bd
       -0.042602286 -0.029554589 -0.0067793224 -0.06571273
0001f0 30 6f 17 3d b2 eb d1 3c 36 ed 5d 3d b8 c8 25 bc
       0.03697127 0.025625084 0.0541813 -0.010118656
000200 8d 68 aa 3c f1 05 6c bd 49 e3 2d bc be 0e 5a bd
       0.020801807 -0.057622854 -0.010613271 -0.053236715
000210 89 47 06 3d 83 10 89 bd b8 e7 3a bc bb be db bc
       0.032783065 -0.066926025 -0.011407785 -0.026824346
000220 44 b6 9c bd 94 ed f9 bc 80 29 ab 3a e8 75 8d bc
       -0.07651952 -0.030508794 0.0013058633 -0.017268136
000230 02 fe 88 3c c7 ae ed 3c 1d e9 99 3c 7d 41 13 bd
       0.016722683 0.029014004 0.018787915 -0.035951126
000240 89 90 21 3d 47 f4 7e 3d ed f5 62 bd c6 19 33 bc
       0.03944448 0.06224468 -0.055410314 -0.010931438
000250 90 c2 90 bd d1 0c 97 bc b2 96 6f bd fd e1 3c bd
       -0.0706836 -0.018438729 -0.058493324 -0.046113957
000260 09 7e 56 bc 6d 87 10 3c 8e 21 3a bc d8 b8 34 3d
       -0.013091573 0.0088213505 -0.011360539 0.044121593
000270 86 7b a3 3d 48 ed 6d bd 3b 70 12 3d 04 66 8c bd
       0.079825446 -0.058087617 0.035751563 -0.068553954
000280 17 b3 c5 bb 19 3c c3 bd 4d 00 3c 3d 24 9d fc bc
       -0.006033312 -0.09532947 0.045898724 -0.03083665
000290 7f 9e fa bb a6 0b 4f bd 7a 16 3f bd be ef 3c bd
       -0.0076482887 -0.05054822 -0.046652295 -0.046127073
0002a0 92 a3 e9 3c 4e e1 f0 bc 70 8d 5d bd ba 2c 5d bb
       0.02852038 -0.029404309 -0.054089963 -0.0033748583
0002b0 f8 cc 7a 3c 7b b0 26 3d 16 c8 17 3c cc e3 02 bd
       0.015307657 0.04069565 0.009264013 -0.031955525
0002c0 ea 75 48 3d 2d 60 eb bc c8 33 5b bd 32 9a dd bc
       0.048940577 -0.028732384 -0.05351618 -0.027051065
0002d0 12 c7 4d bc 3e 9d 55 bd e4 4c 67 bc 5e 8a 96 3c
       -0.012559669 -0.05215191 -0.014117453 0.018376525
0002e0 3e 0c 2e 3d a1 4b 5d bc a4 ae 9e bd 84 0f c3 bc
       0.042492144 -0.013506801 -0.07748154 -0.02381111
0002f0 5e 5f 5a bc 4b 70 44 3d 31 da 14 bd 3c 69 37 3d
       -0.013328401 0.047958653 -0.036340896 0.044778094
000300 07 20 12 3d 0e c8 2d 3c c2 24 5e bc 79 f5 c7 bb
       0.035675075 0.010606779 -0.013558568 -0.0061022607
000310 03 73 3b bd a2 ac 75 3b 58 0c 0c 3b bd 56 a9 bc
       -0.04576398 0.003748693 0.0021369662 -0.020671243
000320 cf 8b 85 bd 8d 07 5e bc 22 24 68 3d c5 08 aa bd
       -0.06520807 -0.013551605 0.056675084 -0.08302454
000330 d8 a3 34 bc ff a5 d7 3c 10 ad c7 bc 19 d4 76 bd
       -0.0110253915 0.02632427 -0.024374515 -0.060260866
000340 c6 fe a1 3c f4 64 98 bc 93 83 45 3d cc 2b 20 bd
       0.019774806 -0.018602826 0.048221182 -0.039104268
000350 cd fb 79 3d 8b 7d 8a bb dd f2 1c 3d 87 7f 64 bd
       0.06103115 -0.0042263917 0.03831755 -0.055785682
000360 68 03 75 3d 37 2a 6e 3b 42 b2 2d 3d a4 71 49 bd
       0.0598177 0.003634108 0.042406328 -0.04918064
000370 40 7f 7e 3c 7d 67 3f bd e0 2c f7 3b 80 19 6a 3c
       0.015533268 -0.046729553 0.0075431913 0.014288306
000380 94 5e 13 3d 3a 2f 8c bd 42 67 69 3c f8 c6 fc bc
       0.03597887 -0.06844945 0.01424581 -0.030856594
000390 3d 06 6f bd a0 c5 37 3d a8 a9 24 3c 66 da 03 3c
       -0.05835556 0.044866204 0.010050215 0.008047676
0003a0 64 10 fc 3c c2 67 ca bd d0 2e 7d bc 75 19 c7 3c
       0.030769534 -0.098830715 -0.0154530555 0.024304131
0003b0 a2 c1 13 bc 14 6b d9 3b 8c 97 de bc fc 1f 6c 3c
       -0.009018334 0.006635079 -0.027171873 0.014411923
0003c0 68 ff 8d bd 1f 19 42 bd ce 43 e2 bb cd 88 87 bd
       -0.069334805 -0.04738724 -0.0069050556 -0.066178896
0003d0 f6 23 55 3d f3 1d ee 3c 4b 7a 06 3d af ff d7 3c
       0.05203625 0.029067015 0.03283147 0.026367037
0003e0 5f 9d 54 bc a0 91 17 bd e4 13 6b 3d 12 a8 a7 bd
       -0.012976973 -0.037004113 0.057392016 -0.08186354
0003f0 c8 be 5f 3b 87 9d 1e bd 60 e4 45 bc 2d 13 42 bd
       0.0034140814 -0.03872445 -0.012078375 -0.04738157

fc3.bias f4 [256]
000000 dc b8 ad bd 1a 79 86 bd a0 43 7c 3b 6e d5 dd bd
       -0.08482525 -0.06566067 0.0038492456 -0.10831724
000010 5c 49 9b bd f9 56 b9 bd 41 c2 63 bd 1b 0c 05 be
       -0.075823516 -0.09049792 -0.055605177 -0.12992899
000020 d9 b8 21 be 22 3a e8 bd 8f 6d 03 be f1 a8 66 3b
       -0.1579317 -0.11339213 -0.12834762 0.0035195912
000030 87 06 ab bd ab 3a 1a be c1 b7 83 3b c9 4e 8f 3e
       -0.08350854 -0.15061443 0.004019708 0.27989796
000040 b2 d5 df bc 94 df d6 be 44 a6 66 3e 8c 4a 9b 3c
       -0.027323578 -0.41967452 0.22524363 0.018956445
000050 c4 c3 b1 be a0 88 00 be 92 c0 3c be 3d c6 bf 3e
       -0.3471967 -0.12552118 -0.18432835 0.3745593
000060 ff 55 64 3d bd c4 07 bc 15 48 98 3c 74 e6 14 bf
       0.055746075 -0.008286652 0.018589059 -0.58164144
000070 0f 2f 14 be c8 4b 34 3d 69 93 b1 3e dd f7 97 bd
       -0.14471076 0.044017583 0.34682778 -0.07420323
000080 aa 16 d8 3d 27 c5 21 be 88 c3 96 3b aa 47 0f be
       0.10551198 -0.15797864 0.004600946 -0.13992181
000090 d2 a3 1a 3c 5e 71 c5 bd f5 37 b6 bd 90 08 d8 bd
       0.009438472 -0.09640764 -0.08897392 -0.10548508
0000a0 77 ab 9e bd 15 ff a6 bd 9b f4 a7 bc 4d 37 a6 bb
       -0.07747548 -0.08154122 -0.02050238 -0.0050725103
0000b0 9e 4f 3a 3d ef db 0d be 16 1a 3f 3e 12 85 5d bd
       0.045486085 -0.1385343 0.18662295 -0.054081984
0000c0 8c fe cb bd f4 d4 13 bc 82 28 b6 bd 08 b7 2f bd
       -0.0996066 -0.00902294 -0.08894445 -0.04289916
0000d0 d1 58 84 be 00 c2 7c 3a cc 97 d0 bd e0 72 a0 bc
       -0.25849012 0.00096419454 -0.10185203 -0.019586027
0000e0 1d a8 58 be 19 8c 0d bd d0 2e c5 3f ed 79 c1 3d
       -0.2115788 -0.034557436 1.5404911 0.094470836
0000f0 55 1f 4a 3f f2 04 33 bd 84 69 db bd c9 7d b7 3e
       0.7895406 -0.043705888 -0.10713485 0.35838154
000100 2e 91 98 bd d0 81 32 bd 1b 86 e2 3a b1 cc 1b be
       -0.07449566 -0.04358083 0.0017282398 -0.15214802
000110 6d ca 85 bd cf 92 43 3e a7 88 dc bd 1e aa 98 bd
       -0.0653275 0.19098972 -0.10768252 -0.07454322
000120 64 9f d7 3e 98 c0 97 3d 29 b3 c9 b9 a5 89 84 bd
       0.42113793 0.07409781 -0.00038471192 -0.06471566
000130 05 e4 7a bd 8f d4 73 3c 30 4b 8f bb 74 c4 c5 bd
       -0.061252613 0.014882221 -0.0043729767 -0.09656611
000140 01 44 c0 bd 02 be ba bd 0a 5b ef 3c 56 5d cf bc
       -0.09387971 -0.09118272 0.029218215 -0.02531306
000150 e4 7c c0 bd be a3 25 be c4 e3 2a bc da 79 52 3e
       -0.09398821 -0.16175744 -0.01043028 0.20554295
000160 0a 6f 0c be 1f e2 17 be a5 3d bb bd f9 db 08 bd
       -0.13714233 -0.14832352 -0.09142617 -0.033412907
000170 76 f6 43 bc a5 e8 c8 bd d8 0a 52 3e ae 5d 73 bd
       -0.011960616 -0.098099984 0.20511949 -0.05941551
000180 7e 33 5d bd a1 28 4b be d7 7a ee 3d b2 b0 7d 3b
       -0.054004185 -0.19839717 0.116445236 0.0038710055
000190 f5 e9 3a bd d5 32 00 3e 2f f5 06 bc 06 eb e4 bd
       -0.045633275 0.12519391 -0.008237167 -0.1117764
0001a0 32 08 6e be 10 2c f1 bc 32 7e 17 3d be bd fe 3d
       -0.23245314 -0.029439956 0.036985584 0.12438534
0001b0 47 19 c0 bd 56 53 aa 3d 0a d0 cc bd d3 c7 9f be
       -0.09379821 0.08316676 -0.10000618 -0.3120714
0001c0 04 ff 9b bd 64 67 a6 bd cf 8c 48 3d 93 1d 0e bd
       -0.07617 -0.08125189 0.04896241 -0.034696173
0001d0 fb 9c e3 bd 50 72 bb bd b4 56 7e 3d 41 da a6 bd
       -0.11113926 -0.09152663 0.062094405 -0.081470974
0001e0 79 0e 08 bd 05 b2 09 bd f5 ce ba bd 79 db 56 bd
       -0.033216927 -0.03361704 -0.09121505 -0.0524554
0001f0 c1 ba b6 bd aa 0e ab 3e 35 b6 ea bd c1 0a 35 3e
       -0.08922339 0.33409625 -0.114605345 0.17679884
000200 68 2e 03 bd 9b d0 ff bd b6 7e cc 3d c6 d4 63 ba
       -0.03202668 -0.1249096 0.09985106 -0.00086910685
000210 3c fb be bd 68 60 dc bd 61 b8 fa bd e1 ce 77 3e
       -0.09325263 -0.107605755 -0.12242199 0.24200012
000220 f8 f2 70 3d e6 ed 14 3e 37 3d cd bd 33 71 48 be
       0.058825463 0.14543876 -0.100214414 -0.19574432
000230 e8 9a c0 bd 3f 57 52 bc 92 e0 9b 3d 0b 15 eb 3d
       -0.09404546 -0.012838184 0.07611193 0.11478623
000240 6f fc de be 09 e7 b8 bd 36 4f b5 3c 4b 99 72 be
       -0.43551967 -0.090284415 0.022132497 -0.23691289
000250 9b ba d4 bd cc 9c ad 3d 3e 8a f5 3d c9 50 42 be
       -0.10387155 0.08477172 0.11989258 -0.1897613
000260 06 48 1d be 2b 11 00 3c 7c 7b ca 3f 79 84 e2 bd
       -0.15359506 0.007816593 1.5818934 -0.110604234
000270 a0 94 80 be 58 32 e6 bd e0 86 22 bd 72 7a 95 bd
       -0.25113392 -0.11240071 -0.039679408 -0.07298745
000280 66 b3 ed 3e e4 57 1f bd 93 75 71 3e d7 1c 5d bd
       0.46425933 -0.03890218 0.23580007 -0.053982582
000290 7a fa f8 bd 7f f2 36 be c3 90 41 bd d8 ba 12 be
       -0.121571496 -0.17865942 -0.047257196 -0.14329088
0002a0 67 18 91 bc ff ab 10 bd 00 fe 99 bd 50 6b 37 3e
       -0.017711831 -0.03532028 -0.0751915 0.1791203
0002b0 99 62 a1 bd 30 26 f1 bd 26 ca 80 3e 13 6b c1 bd
       -0.07880134 -0.11774862 0.25154227 -0.09444251
0002c0 3d 11 53 3e 8f 60 e3 bd be 72 80 3e df d4 38 be
       0.20612045 -0.111024015 0.2508754 -0.18049954
0002d0 a6 b3 1b be 17 ec ad 3c 26 23 1a bd 07 4a bc bc
       -0.15205249 0.02123074 -0.037631176 -0.022984518
0002e0 08 ba 13 3f d7 9b 7f 3d c1 d7 cb bd a2 50 3d bd
       0.57705736 0.06240448 -0.09953261 -0.046219476
0002f0 02 43 1c be f7 59 b1 bd 2c a4 cb bd 8a cf 17 be
       -0.15259936 -0.086597376 -0.09943423 -0.14825264
000300 da 5e a7 bd f1 98 34 bd 54 a0 87 bd ed 61 c4 bd
       -0.081723884 -0.04409117 -0.06622377 -0.0958899
000310 64 dd ae 3f 91 50 24 bc 1c 9d 3e 3c ce ef b7 3d
       1.3661313 -0.010028974 0.0116341375 0.08981286
000320 ca 1d 7e 3d 45 8a d9 bd 32 ce bb bd b1 40 19 3e
       0.062040128 -0.10622076 -0.09170188 0.14966084
000330 c8 5f 5a 3d 11 97 9d bd f4 5a e8 bd 3b e9 5e bd
       0.053314 -0.07694829 -0.11345473 -0.054421645
000340 82 83 e8 bc 73 11 de bd 41 ee 99 bd 22 c9 f7 3d
       -0.02838302 -0.10843172 -0.075161465 0.1209891
000350 05 c1 0d bd 82 fe ab bc 0b d3 1b 3f a5 7d 88 bc
       -0.034607906 -0.020995382 0.608689 -0.016661474
000360 42 ce c9 bc 4c 19 36 bd 67 53 85 bc da 86 2e bd
       -0.024634484 -0.04445772 -0.01627512 -0.042609073
000370 63 8e c8 3e e0 bf eb be 97 71 c5 bb 35 69 03 be
       0.39171132 -0.46044827 -0.006025504 -0.12833102
000380 d6 10 af be df d9 43 bd df 00 86 bd cd 9e b5 bd
       -0.34192532 -0.0478152 -0.06543135 -0.088681795
000390 97 55 b3 be e7 90 97 bb f0 70 c2 bd 50 34 7b bd
       -0.35026237 -0.004625428 -0.09494197 -0.061329186
0003a0 76 9a 4e 3e ab a7 82 3e 2d 50 81 bd d6 86 d1 bc
       0.2017611 0.25518546 -0.063141204 -0.02557699
0003b0 8f b3 29 bd 99 45 c6 3d af 04 cc bd db 0f 09 bd
       -0.041431006 0.096812434 -0.09961831 -0.033462387
0003c0 ea 51 3b bd 3f 4e 46 bd 68 1f 28 3e af ff 89 bd
       -0.045732416 -0.048414465 0.1641823 -0.06738221
0003d0 7e ae e2 bd 17 ac 8c bd a6 e1 83 3c db 05 e2 bd
       -0.11068438 -0.06868761 0.016098808 -0.11036273
0003e0 c9 e7 a9 3d 72 79 db bd a2 ed 0d be ca 46 bb 3c
       0.08296163 -0.10716523 -0.13860181 0.022860903
0003f0 9c f3 56 bd d8 88 18 bd 3d d0 1e bd 93 93 82 ba
       -0.052478418 -0.03723988 -0.03877281 -0.0009962193

fc4.weight f4 [256, 256]
000000 6a da 0b 3d 1e 11 0b bd fb 2e 01 bd ba 12 69 3c
       0.034143843 -0.03395187 -0.031538945 0.014225656
000010 e1 93 ee 3d 28 84 b4 3d 2f 8b d6 3d bc a2 7e bc
       0.116492994 0.08814269 0.10475766 -0.015541729
000020 df 5c 49 bd d8 23 4b be c7 e6 a1 bd e0 4d 6a be
       -0.049160834 -0.19837892 -0.079053454 -0.2288127
000030 14 f2 c0 3c 26 d3 4b 3d cd 72 fd 3c 6c c3 7d be
       0.023552932 0.049761914 0.03093853 -0.24781579
000040 1b 73 7b 3d de e4 65 be 27 22 25 be 71 e8 7c bb
       0.06138907 -0.22450587 -0.1612631 -0.0038590694
000050 66 21 2d bd 55 b5 9f 3c af c6 f3 3c d6 a8 86 3c
       -0.04226818 0.019495646 0.029757826 0.01643793
000060 89 f2 c9 3d 42 d6 6c 3d 37 08 0b 3b 07 e4 e2 bd
       0.09860713 0.05782152 0.0021214613 -0.11078649
000070 f4 33 6d 3c 8c 57 ab 3d 6a 0a 4e 3e 05 11 ab 3c
       0.014477719 0.083663076 0.2012116 0.020882139
000080 f9 5e c2 3d 8e 69 55 3d 8a 29 8e 3d 8c 9d 0f 3b
       0.09490771 0.052102618 0.06941517 0.0021913974
000090 59 7f 8f bd 4c cc 46 3c f5 45 83 3d 2c ad 0c 3d
       -0.070067115 0.012133669 0.064098276 0.034344837
0000a0 aa 4d 4d bc 29 35 17 3e 79 05 16 bd 67 07 02 3e
       -0.012530724 0.14766373 -0.036626313 0.12698136
0000b0 a7 40 91 3d 1a b4 06 be 6d 3f 4f 3d 14 8c b1 3c
       0.070924096 -0.13154641 0.050597597 0.02167324
0000c0 3f d7 a5 ba bc 27 fe 3d e6 a4 1e bb 38 c9 20 3d
       -0.0012652649 0.124099225 -0.0024207174 0.039254397
0000d0 ba f7 09 bc 2b 02 05 3d b2 b3 bf 3d 50 a2 09 be
       -0.008420879 0.03247277 0.09360446 -0.13440824
0000e0 78 bb 13 3d 92 ff 8d bc 57 91 2b bf 99 b7 ab 3d
       0.036067456 -0.01733378 -0.67018646 0.08384628
0000f0 a2 7f 5c be ac bb 58 3d 7b e2 3e 3d 95 4d 08 be
       -0.21533063 0.052913353 0.046602707 -0.13310845
000100 94 65 71 3c 7a 0e f3 bd 40 d8 2b 3d 7f 74 07 bd
       0.014733691 -0.118679956 0.04195428 -0.033070084
000110 5f 8a 42 3c e4 af 91 3d e5 f3 9e 3d 49 4f aa bd
       0.011873811 0.071136266 0.07761363 -0.08315904
000120 d1 df aa bd 46 8f d6 3d 8f 93 59 be 35 2f 2a bd
       -0.08343471 0.10476546 -0.21247695 -0.041548926
000130 c3 a4 72 bc ef ba 38 3e ee 0b 36 bd 6a e5 39 3d
       -0.01480979 0.1804006 -0.04444497 0.045384802
000140 e5 92 09 be 46 70 96 3d bd 90 7d bd 04 5c bc bc
       -0.13434942 0.07345633 -0.06190561 -0.022993095
000150 39 24 f5 3d d5 ab 84 bd 95 c3 df 3d a5 21 38 be
       0.119697995 -0.06478087 0.10925976 -0.17981584
000160 0b 89 76 bc c2 01 63 3d d2 63 1c 3d b1 02 86 3d
       -0.015047322 0.0554216 0.038181134 0.06543482
000170 62 55 8a 3d af 77 4c 3a 86 7b 38 bd d6 06 89 3c
       0.06754567 0.00077998167 -0.045039676 0.016726892
000180 b0 9f 5d 3d 56 ee 13 bd 1f 17 e7 bc 01 02 73 bd
       0.054107368 -0.036115967 -0.028209267 -0.059328083
000190 5b 4c c8 bc ae b0 01 be 18 47 6f bc bf de 1a ba
       -0.024450472 -0.12665054 -0.014604352 -0.00059078255
0001a0 b3 c2 0e bc b0 f9 0a bd e5 d9 c9 3d 11 15 7c 3d
       -0.008713412 -0.033929527 0.09856013 0.061543528
0001b0 da 7c de 3c 63 6c 6c 3e 96 96 dd 3c e4 c9 0b bc
       0.027159143 0.23088221 0.027049344 -0.008532021
0001c0 6b fd 7d be 37 e5 2d 3d 8c 39 01 3e b5 f2 d1 3c
       -0.24803703 0.042454924 0.12619609 0.025628427
0001d0 99 10 80 3d e8 b4 e2 bc eb 64 74 3e 68 c6 a3 bc
       0.06253166 -0.027674153 0.23866622 -0.019992068
0001e0 d3 9b 47 bd 42 94 46 3c f6 8d d4 bd b0 c6 17 3d
       -0.04873259 0.012120308 -0.103786394 0.037054718
0001f0 ee a9 c8 bb 5f da a9 bc 88 dd 47 bd aa 46 da bd
       -0.006123773 -0.02073401 -0.048795253 -0.10658009
000200 9c 7a 57 3c 40 27 48 bd ef be 82 3e 77 06 ba 3c
       0.013151791 -0.048865557 0.25536296 0.02270816
000210 d0 6b 6a 3a 87 bc d6 bb 65 b0 0f bc 45 83 3c be
       0.0008942457 -0.006553236 -0.008770083 -0.1840945
000220 9f 28 23 3e 0c 68 41 3e c9 0a 25 bd 48 5e a3 bc
       0.15933464 0.18887347 -0.04029349 -0.019942418
000230 e8 ef 5e 3d af 99 2c 3d 82 d3 80 bc 95 65 1b 3e
       0.05442801 0.04213875 -0.015725855 0.15175469
000240 e9 72 5c bd 7c 17 09 3e 64 1b 90 3b 2a 1c 14 bd
       -0.053820524 0.13387865 0.0043977965 -0.03615967
000250 87 38 94 bd f8 b1 d2 3d bf bc a7 3e af 79 f2 3c
       -0.07237344 0.10287851 0.3276119 0.029599039
000260 c1 df 26 bd e3 89 b0 ba 41 81 d3 3c 3e 04 f6 3c
       -0.040740732 -0.0013468828 0.025818469 0.03003132
000270 ba e5 76 3c fc ce 12 bd 19 e4 a9 bc 7a 89 0b bd
       0.0150694195 -0.035841927 -0.020738648 -0.034066655
000280 40 6b 80 be 74 b4 3f 3c 80 06 c0 bd 1d 88 3a be
       -0.25081825 0.011700738 -0.0937624 -0.18215986
000290 ae 9b 1e bd 54 8d 08 be ea ac 52 bb d9 a5 d9 3d
       -0.038722686 -0.13335162 -0.0032146522 0.10627336
0002a0 98 69 58 bd 10 99 ac 3d 92 fc 9c 3d 2e e4 3c be
       -0.052835077 0.08427632 0.076653615 -0.18446419
0002b0 ea 16 7a 3d ed 27 55 bd 10 c3 8c bd 9c 89 86 ba
       0.06105701 -0.05204003 -0.06873143 -0.00102644
0002c0 f9 70 8c bd 24 b2 d9 3c 84 4d da bc 92 c0 5e be
       -0.06857485 0.026574202 -0.02664829 -0.21753147
0002d0 16 69 15 3e 0c 4a af bc 69 a4 89 3d 9f 3b b2 bc
       0.14590868 -0.021397613 0.06720812 -0.021756945
0002e0 4a 0b be bd 7e 20 17 3e fc 6a a2 3d 68 01 73 3c
       -0.09279497 0.14758489 0.07930562 0.014831878
0002f0 77 99 22 bd 39 fc 9d bc 04 f5 ad 3d 08 17 8b 3d
       -0.039697137 -0.019285308 0.08493999 0.06791502
000300 43 57 df bc 09 5b 5f 3d d7 96 88 3b e6 73 3c bd
       -0.02726329 0.054530177 0.004168372 -0.046008967
000310 7e 93 88 be 8f 7a 0c bd 77 1a c9 bc f4 41 8d 3d
       -0.26675028 -0.03429657 -0.024548752 0.06897345
000320 82 69 40 3e 50 1d 3c 3d e1 89 9a 3d 71 31 92 3d
       0.18790248 0.045926392 0.075458296 0.071383364
000330 77 63 67 3e 89 b0 68 bd 69 8c 7f bd f6 ca ff 3c
       0.22596537 -0.056808982 -0.062389765 0.031224709
000340 a7 9a 05 3d 0c f2 e4 3d 34 cf a1 bc 70 f5 ca 3d
       0.03261819 0.11178979 -0.019752122 0.09910095
000350 b8 f1 58 3b 82 b2 85 bd 50 13 38 bc de 04 ac bd
       0.003310306 -0.06528188 -0.011235073 -0.08399366
000360 19 44 0f 3e d0 15 d6 b9 30 36 d4 3b 99 17 b9 bc
       0.13990821 -0.00040833512 0.006476186 -0.02259426
000370 4d 93 c7 bc 66 bd d1 3c c0 04 76 be 89 7c 3a bc
       -0.02436223 0.025603008 -0.2402525 -0.011382231
000380 84 c4 2a 3d 80 4c 98 3d 1b 8e 55 bc 63 2b 23 3c
       0.04169132 0.07436466 -0.013034369 0.009959075
000390 e4 62 04 bf 04 5e ba 3d 66 11 cb 3c 5c c1 f1 bb
       -0.51713395 0.09099963 0.02478857 -0.0073777866
0003a0 dd d1 84 3e 0f e2 51 bd 19 14 13 be 5a b3 38 3d
       0.25941363 -0.051240977 -0.14363135 0.045092918
0003b0 3b 14 ee bc 86 4f b4 3d 50 43 4d bd 2a 9b 18 3d
       -0.029062381 0.088042304 -0.050113022 0.03725735
0003c0 b1 86 a2 bc 20 a1 09 3d c3 f3 55 3c 88 48 9d 3d
       -0.019839616 0.033600926 0.013058606 0.0767985
0003d0 02 4e 9b 3c 98 da 6f 3d 84 8b a2 3d 2a 4b 47 3d
       0.018958095 0.058558077 0.07936767 0.048655666
0003e0 b5 93 e2 bd 7b 0d df 3c ab d6 75 3c 65 8b 4a 3c
       -0.11063329 0.027228108 0.015004794 0.012362336
0003f0 60 32 ca bc 93 85 3e 3d c5 22 83 3c 2f b6 b4 3d
       -0.024682224 0.046514105 0.01600779 0.08823811
