model/DDQN with batchnorm/EX1_Player_model_epoch_3500.pth (torch_old, 854519 bytes, 10 tensors)

fc1.weight f4 [256, 57]
000000 a9 d4 63 3f 17 96 18 bf 96 f1 88 3e bb 61 a7 bf
       0.8899637 -0.5960402 0.26746815 -1.30767
000010 42 1d 41 3f ea 99 2f bf c4 53 ba 3e a8 ac 2a be
       0.7543527 -0.6859423 0.36392033 -0.16667426
000020 9a 47 c3 3d df 4b 4c be bc e7 89 3d a4 bd 8a bf
       0.09535141 -0.19950818 0.06733653 -1.0839124
000030 b3 b9 5d 3e 02 26 56 bf d7 f7 be 3e 60 34 22 bf
       0.2165287 -0.83651745 0.37298462 -0.6336117
000040 67 ce 2f 3f c7 9b e1 3e 98 03 5a 3e 5b de 05 3e
       0.6867432 0.4406416 0.21290433 0.13073103
000050 c0 7a 14 be cf ae 15 3f c8 09 6d bf 72 27 05 c0
       -0.1449995 0.5846986 -0.9259305 -2.0805326
000060 95 1b bb bf e9 2d e7 be 1e 1e 6e bf c8 c0 6b bf
       -1.4617792 -0.45152214 -0.93014705 -0.92091036
000070 68 c5 aa bd 6b 95 13 bf 42 7a 53 bd 11 5d 81 3f
       -0.083384335 -0.5764987 -0.051630266 1.0106527
000080 1c f8 b2 be df f2 8d bf 5f 58 9d be 82 86 c6 be
       -0.34954917 -1.1089743 -0.30731484 -0.38774496
000090 92 0a 90 bf 4a ad ce bd 10 16 72 3d 96 3e fa be
       -1.1253226 -0.10091646 0.05910307 -0.48875874
0000a0 60 42 e4 3b 17 5f 44 be c8 d4 23 bf d2 d5 95 bf
       0.0069659203 -0.19176899 -0.63996553 -1.1705878
0000b0 da db 9d be 43 2e ed bd c6 9c 76 bf c1 5f 4c 3d
       -0.30831796 -0.11581089 -0.9633297 0.049896006
0000c0 cd 8f bd be 54 9d 86 bf c6 aa 20 bf bf cf bf 3c
       -0.37023774 -1.0516763 -0.6276058 0.02341449
0000d0 80 8c 7e bf ee d9 94 3e 3d cd 29 bf 91 fc 8f bf
       -0.99433136 0.29072517 -0.66328794 -1.1248952
0000e0 c4 a5 f8 3d 21 33 f9 3d 70 16 85 be c4 e8 de 3c
       0.12140992 0.12167955 -0.2599368 0.0272106
0000f0 9f c0 c2 bd 7b 66 46 3e ec c3 5a be af f7 66 3e
       -0.09509396 0.1937503 -0.21363801 0.22555421
000100 1b 88 81 bd 96 66 5b 3e 6f 7e bc bd 85 d5 ff 3d
       -0.06324788 0.21425852 -0.09203803 0.124918975
000110 70 10 ac bd bb df 77 3e 07 ed 83 be ec 8b e0 3d
       -0.08401573 0.2420644 -0.25766775 0.10964188
000120 b4 d8 b8 bd 73 d3 20 3e b8 c6 cd bd 00 ce 0f 3e
       -0.09025708 0.15705661 -0.10047668 0.14043427
000130 cc 75 71 be 13 40 51 be 12 26 d2 3c 87 69 c4 be
       -0.23580092 -0.20434599 0.025652919 -0.3836176
000140 b5 34 6a be 88 3e 0b 3d f4 60 2f 3d e1 48 dc be
       -0.22871669 0.03399518 0.04281707 -0.43024352
000150 48 11 88 3d e8 c9 b6 bc 5f fb 9d 3e 9c 58 78 bd
       0.06643921 -0.022313073 0.30855843 -0.06063138
000160 2c e8 05 be a6 54 25 bd 54 10 7e be e4 0d d1 3d
       -0.13076848 -0.04036393 -0.24810916 0.102077276
000170 12 19 08 3e 2c 12 7d be 31 9b c4 bd e0 f7 af bd
       0.13290814 -0.24713963 -0.09599913 -0.085922
000180 4f 2e 4e 3d 98 1a e3 3c c2 43 21 be e2 1e 5f bd
       0.050337132 0.027722642 -0.15748504 -0.05447281
000190 c8 ed 30 be 38 1a 95 3d 25 49 ad bd 8f 54 a9 be
       -0.17278206 0.072803915 -0.08461217 -0.33072326
0001a0 21 6e 24 be cb 45 73 bd d9 54 cb be ba 7c 39 be
       -0.16057636 -0.05939273 -0.3971317 -0.18113986
0001b0 ea 38 07 3d 6d 14 8e be 76 f2 e7 bc eb aa 8f bc
       0.03301326 -0.2774996 -0.028313857 -0.017537555
0001c0 d9 87 c1 be d2 9d f2 3d 28 05 cf be bd 8d f5 bf
       -0.37798956 0.11846508 -0.4043362 -1.918388
0001d0 b8 5f 9f 3e 09 3c 15 be 01 2e e0 3d f7 e7 99 bf
       0.31127715 -0.14573683 0.109462745 -1.2023915
0001e0 b9 cf 56 3f 4e 0b f4 be 83 2d 3f bd 0d f8 cf bf
       0.8391071 -0.47664875 -0.046674263 -1.6247574
0001f0 82 14 81 3e 9c 30 8e bf b9 69 17 3f a0 fa 85 be
       0.2521096 -1.1108584 0.59145695 -0.26167774
000200 27 ec bc 3d c9 45 3a be b9 2a 05 3f 49 b0 27 bd
       0.0922473 -0.18190683 0.52018315 -0.040939603
000210 e2 85 33 3f 7f de 44 be fd ce 3f 3e 60 bf 63 be
       0.70126164 -0.192255 0.18731304 -0.22240973
000220 13 fc c0 3e 68 09 b4 be 63 3d 8a be 66 b2 00 be
       0.37692317 -0.35163426 -0.2699996 -0.12568054
000230 2e 7b 18 bf 15 b1 b1 bc 5e c5 00 3e 8f 30 95 3e
       -0.5956296 -0.021690885 0.1257529 0.2913861
000240 b7 ae f3 bd 37 68 96 3f 40 15 dc 3e f5 39 39 bf
       -0.118985586 1.1750554 0.42984962 -0.7235406
000250 b6 64 ab 3d 69 e4 73 3e cb bd 58 bf 6b 8b 1a 3d
       0.083688185 0.238176 -0.846646 0.037730616
000260 e4 16 dc bc 34 a9 76 3f 16 a8 92 3d ce 76 c5 bf
       -0.026866384 0.96351933 0.07160966 -1.5426881
000270 0d 2a 0d 3e 88 37 53 bf 05 f6 ad 3e 71 08 af be
       0.13785572 -0.8250661 0.3397676 -0.34186128
000280 08 37 3f bf ee 7b fa 3d f8 9f be bf 06 f6 55 bf
       -0.74693346 0.12230669 -1.4892569 -0.83578527
000290 8b 3d ea be 64 e1 9f bd 74 16 48 bf dc db 9c 3f
       -0.4575008 -0.07806662 -0.7815926 1.2254596
0002a0 f9 28 f5 bb 18 f9 3a bf 2b 20 ac be 75 b1 8a 3f
       -0.007481691 -0.73036337 -0.33618292 1.0835406
0002b0 27 b0 66 bf ee e5 94 3f 7c 96 ac bf e5 44 83 3f
       -0.9011254 1.1632669 -1.3483424 1.02554
0002c0 fe 66 bb bf 86 36 23 3e b7 96 a6 bf ff e1 45 3f
       -1.4640806 0.15938768 -1.3014745 0.7729797
0002d0 f7 5a 61 bf 8a 9e 08 3f c9 7c 8a bf 22 69 2b 3f
       -0.88029426 0.5336691 -1.0819331 0.66957295
0002e0 58 6d 4f bf ab 63 51 3e 0c 86 99 bf 0c d8 42 3f
       -0.8102622 0.20448177 -1.1994033 0.7611091
0002f0 aa 3d f4 bf 7f 3e 08 3f 80 f2 e1 bf e3 16 61 bf
       -1.9081318 0.5322036 -1.765213 -0.8792555
000300 00 2b 8e 3e 4f b3 66 bf 05 6c 1b bf 04 e3 41 c0
       0.2776718 -0.90117353 -0.607117 -3.029481
000310 b1 19 ac 3c 20 58 d4 be 28 0e 6b 3e 00 62 3d bb
       0.021008344 -0.41473484 0.22954619 -0.0028897524
000320 a1 f0 e5 be f8 dc ae 3d 42 18 4d bf cd 09 95 be
       -0.44910148 0.0853824 -0.8011514 -0.2910904
000330 8c 71 09 bf 4c 7f df 3d 75 b8 7d be f7 4e b2 be
       -0.53688884 0.10912952 -0.24777396 -0.3482587
000340 64 b9 83 3d 80 65 89 3c e5 93 4f 3f e8 7e d6 bc
       0.06431845 0.016772032 0.81085044 -0.02618356
000350 7a 5d 21 3f cf 23 43 3d c6 ff e6 be a2 43 91 bc
       0.6303326 0.04764157 -0.45117015 -0.017732445
000360 28 ec 00 bf 4d 08 05 bf b2 51 c1 3e b2 f1 5b 3e
       -0.50360346 -0.5196579 0.3775764 0.21478918
000370 26 64 eb be 0e 61 ab bd e8 2f 05 3f 38 9a e4 be
       -0.45974845 -0.08368121 0.52026224 -0.4464891
000380 1c bb a7 3e 75 bb 0d be b2 69 0b bf f3 a1 e5 be
       0.3275994 -0.1384104 -0.54458153 -0.4485012
000390 f0 65 5f 3f 09 e4 f3 bd f2 99 c6 3f e5 52 91 3e
       0.8726492 -0.11908729 1.551573 0.28383556
0003a0 a5 8b 9e be 2a 04 0c bf 8d 2b 21 3e 56 ab 02 bf
       -0.30965915 -0.54693854 0.1573927 -0.5104269
0003b0 8c 14 18 3e 93 e1 7f 3c 63 4c 8b bd 6b 50 9e be
       0.14851588 0.015617746 -0.06801679 -0.3092073
0003c0 b0 a0 82 bf 0f dd 20 bf 5b 6a b3 bf 2c 26 9d bf
       -1.0205288 -0.6283731 -1.4016832 -1.2277274
0003d0 af 86 ca be 71 e3 c8 bf 94 9a 21 bf 62 6d 89 bf
       -0.3955588 -1.569441 -0.6312649 -1.0736506
0003e0 b2 ed 67 3e 2e 03 69 3f 24 6a 22 bf ac 09 00 40
       0.22649267 0.91020477 -0.6344321 2.0005903
0003f0 03 ef 2d c0 50 db 16 bf 72 83 93 be 91 2a 5f bf
       -2.717713 -0.58928394 -0.28811222 -0.87174326

fc1.bias f4 [256]
000000 ad d8 87 bf 3b bf 5c be f3 5a 30 bf 8b 08 0d bf
       -1.0612999 -0.21557324 -0.6888878 -0.5509116
000010 12 c6 2a be ca bf 26 bf db 30 40 bc 26 f5 5d be
       -0.1667712 -0.65136397 -0.011730398 -0.21675548
000020 4a 98 08 bf 70 bf 63 3e fc 25 d6 be a0 c2 23 bf
       -0.53357375 0.22240996 -0.41825855 -0.6396885
000030 5b 92 58 bf f1 b8 32 bf d4 f5 aa be 5f af 93 bc
       -0.8459832 -0.6981345 -0.33390677 -0.01802796
000040 f8 7f 3c bf 91 4f 86 be 26 48 36 bf a6 01 2c bf
       -0.73632765 -0.2623258 -0.7120384 -0.67190015
000050 6f 92 0f bf 3c c0 18 bf 43 53 24 3f 82 95 27 bf
       -0.56082815 -0.59668326 0.6418955 -0.65462506
000060 a7 8c 8d bf 02 53 bd be 17 98 08 bf 91 00 21 bf
       -1.1058549 -0.36977392 -0.5335707 -0.6289149
000070 2c 98 38 3e 3e 6d c4 be 79 2d eb be 1d 18 4a bf
       0.18026799 -0.38364595 -0.4593313 -0.78943044
000080 4c 76 8b bf 24 48 b3 3f 91 d6 b9 be 44 90 9c bf
       -1.0895476 1.400639 -0.36296514 -1.2231526
000090 ea 19 18 bf ed 50 3e bf 36 9d 73 bf d2 57 56 bf
       -0.5941454 -0.7434223 -0.9516176 -0.83727753
0000a0 95 fd 8e be 2a 5d 6e bf f0 3c c1 be c6 9e d1 be
       -0.27927843 -0.9311091 -0.37741804 -0.40941447
0000b0 01 76 04 bf 6a 18 db bb 10 69 90 bf cd 9d f9 be
       -0.5174256 -0.00668626 -1.1282063 -0.48753205
0000c0 9e df 19 bf 6d 4b 20 bf 31 b6 85 bf da 96 1b bf
       -0.6010684 -0.6261509 -1.0446225 -0.60777056
0000d0 f8 22 12 be 29 18 a0 bf 83 29 43 bf c8 57 d5 be
       -0.14271152 -1.2507373 -0.76235217 -0.41668534
0000e0 11 e0 c8 be 2d 45 bb bd 61 bb ee be 7b 52 14 bf
       -0.3923345 -0.091440536 -0.46627334 -0.57938355
0000f0 30 52 4d bf 5d 2c 7b bf 12 dd 34 be 50 da a0 be
       -0.80203533 -0.9811457 -0.17662457 -0.3141656
000100 8e c1 18 bf f0 a5 a3 bf 8b 8a 3d bf f0 86 38 bf
       -0.5967034 -1.2785015 -0.74039525 -0.720809
000110 b3 7a 33 bf 05 bb ab 3d 1d 32 80 bf 72 4b fd be
       -0.701091 0.083852805 -1.0015293 -0.49471623
000120 aa b5 fd be c2 30 96 3d 16 82 83 bf d8 58 93 be
       -0.4955266 0.073335186 -1.0274074 -0.2877872
000130 99 3c ef be 54 bd 2c bf ff 57 2b bf 83 d6 ec bd
       -0.4672592 -0.6747639 -0.66931146 -0.11564352
000140 48 8d 8f be 59 dc 11 bf 6b 13 a6 be 50 17 94 be
       -0.28037477 -0.5697685 -0.3243669 -0.28924036
000150 ad af 52 bf db 7b 69 bf be 96 3f bf d6 8b 16 bf
       -0.8229931 -0.91204613 -0.7483939 -0.5880712
000160 88 76 31 bf 82 b0 10 bf 63 bc 09 40 ce 8f 59 be
       -0.6932149 -0.5651933 2.1521232 -0.21246263
000170 41 97 27 3e 5f a9 4d bf 9e eb 4b bf e1 29 f1 be
       0.16366293 -0.80336565 -0.796564 -0.47102264
000180 c7 50 8a bf 24 56 5f 3f 34 67 3c bf b6 b4 24 bf
       -1.0805901 0.87240815 -0.73594975 -0.64338243
000190 bf 0d dc be 41 8a 60 bf 4d fc 83 bf c8 38 43 be
       -0.42979237 -0.8771096 -1.0311371 -0.19064629
0001a0 48 74 29 bf 51 d3 5d be 29 c1 33 bf bf 0e 99 be
       -0.66193056 -0.21662642 -0.70216614 -0.29894063
0001b0 a9 c9 26 be eb 7c a2 bf ad 44 48 3e 94 ec 2e bd
       -0.16287865 -1.2694372 0.19557448 -0.042706087
0001c0 cf d3 19 bf bc a1 b5 be d8 d6 5a be 0b 03 0f bf
       -0.6008882 -0.35474956 -0.21371019 -0.5586402
0001d0 62 1f dd be cd 21 5b be 5f 8f bf be 34 d4 83 bf
       -0.43188006 -0.21399613 -0.3741407 -1.0299134
0001e0 6c 3e 75 3f e7 86 22 be 69 dd 81 bf 75 31 68 bf
       0.95798373 -0.15871774 -1.0145694 -0.90700465
0001f0 51 c6 51 bf 32 6a 79 bf d6 8c f6 3f ed d0 7a bf
       -0.8194323 -0.97427666 1.926173 -0.97975045
000200 26 2d 2f bf cd 1d c9 3e 63 8b 76 be 13 e4 4d bf
       -0.68428266 0.3928055 -0.2407661 -0.8042614
000210 9a f8 3f be a0 06 23 bf eb f1 f7 bd a5 43 52 3e
       -0.18747178 -0.63681984 -0.12106689 0.20533617
000220 c0 85 1c 3e cc dd 04 be c0 15 03 be 05 cd 58 bf
       0.15285397 -0.12975234 -0.12801266 -0.84687835
000230 bd ef 3e bf 9f 42 37 bf f3 8d 7d bf f6 b8 d3 be
       -0.7458456 -0.7158603 -0.9904472 -0.41352051
000240 9d ea 4e bf 2e 77 a1 3e 2a 8c 49 bf cb 39 83 bf
       -0.8082674 0.3153624 -0.787295 -1.0252012
000250 eb 1e 83 bd 3d e3 86 bf 0d 59 c1 be ae cd 3d bf
       -0.064023815 -1.0538098 -0.37763253 -0.7414197
000260 ad 6b 31 bf 9c 41 06 bf 05 a3 00 bf ed 7c 57 bf
       -0.69304925 -0.5244386 -0.5024875 -0.84174997
000270 e3 91 9f be 59 83 5e bf 90 ca 8d bf 91 02 26 bc
       -0.3116599 -0.8691917 -1.1077442 -0.010132448
000280 20 f9 72 3f 45 e3 8e bf 9c 66 09 bf 63 91 63 bf
       0.94911385 -1.1163107 -0.53672194 -0.8889372
000290 27 d0 65 bf 1a 23 71 be d4 d2 fe be b1 3b 11 be
       -0.8977074 -0.23548546 -0.49770224 -0.14182927
0002a0 54 d4 10 bf 96 7a 61 bf c2 c9 6a bf 40 83 f4 be
       -0.56573987 -0.88077676 -0.9171411 -0.47756386
0002b0 a8 1e 02 bf 47 41 94 bf 86 8d 41 bf ff c0 0f bf
       -0.5082803 -1.1582421 -0.7560657 -0.56153864
0002c0 8b a8 8d bf 8a 66 a9 3d b0 ea 00 bf c1 e9 a0 3c
       -1.106706 0.08271511 -0.50358105 0.019642713
0002d0 c5 72 95 bd 12 80 b7 be 2d c8 2b bf f0 a1 18 bf
       -0.07297281 -0.35839897 -0.6710232 -0.59622097
0002e0 e5 bf 06 3e b2 f3 a8 be 6d 05 72 bf dd 5c 13 bf
       0.1315914 -0.32998425 -0.9453953 -0.57563573
0002f0 bd 72 58 bf 25 76 26 bf 3b 04 1c bf 79 e8 3b bf
       -0.84550077 -0.65024024 -0.60943955 -0.734016
000300 6b 62 46 3f 53 60 87 bf fc 1a e3 be 55 49 8e bf
       0.77493924 -1.0576271 -0.44356525 -1.1116129
000310 6d 5e b7 be c2 e8 9d 3e 9d 90 83 bf a6 96 89 bf
       -0.3581423 0.30841643 -1.0278507 -1.0749099
000320 e5 1e 82 3d 29 20 93 bf 6a c3 52 3e 03 18 fa be
       0.06353549 -1.149419 0.20582357 -0.48846444
000330 2b 7e 4b bf c9 5b 07 bf 98 59 47 bf 40 55 0b bf
       -0.7948939 -0.5287443 -0.77871084 -0.54426956
000340 a8 28 db be ba 96 47 bf c5 5c fc be 83 f1 1a bf
       -0.42804456 -0.77964365 -0.49289528 -0.6052477
000350 de b2 58 be f1 6f 2d bf 95 4c 3e bf e1 c7 a3 bf
       -0.21161982 -0.67748934 -0.74335605 -1.2795373
000360 27 99 9b bf d3 91 27 bd 03 2c 4c be 15 14 48 bf
       -1.2156113 -0.040910553 -0.19938664 -0.7815564
000370 d5 c6 ed bd c0 37 a6 3e bc 3d 17 bf 16 8c ac be
       -0.1161019 0.3246441 -0.59078574 -0.33700627
000380 68 8e 33 bf 7c 5f 82 bf b2 b4 d1 be a7 80 76 be
       -0.7013917 -1.018539 -0.40958172 -0.24072514
000390 36 e0 f7 3f 06 4b a9 bf f5 93 1b bf 42 75 57 bf
       1.9365299 -1.322602 -0.6077264 -0.84163296
0003a0 fc 31 4e be 2c a9 f9 3f 0b e3 12 bf b5 0d b5 bd
       -0.20136255 1.9504752 -0.5737769 -0.08840505
0003b0 2e e8 54 bf 55 6c 23 bf e4 27 46 be 3d 39 8f 3e
       -0.8316678 -0.63837177 -0.19351155 0.27973357
0003c0 eb c0 43 bf 2e 71 38 be c1 13 b4 bf 88 22 07 bf
       -0.76466244 -0.18011925 -1.4068528 -0.52787066
0003d0 91 30 a8 bd e2 20 85 bf 6c 5e 12 bf c4 76 13 bf
       -0.08212388 -1.040066 -0.57175326 -0.57603097
0003e0 f8 e2 e5 be 9d 52 03 40 78 d7 54 bf 92 40 5f bf
       -0.44899726 2.0519173 -0.8314128 -0.872079
0003f0 29 bf ac be 59 66 75 bf 47 28 db be 53 94 35 bf
       -0.33739594 -0.95859295 -0.42804167 -0.7092945

fc2.weight f4 [256, 256]
000000 d3 de 9a 3e 0c 84 1a bb bb a2 d7 be a4 36 05 bf
       0.30248126 -0.0023577241 -0.4211634 -0.520365
000010 b1 ba 1d bd 6f 29 3e bc 13 b8 fe be b0 ad c7 3e
       -0.03850812 -0.011606558 -0.49749812 0.389997
000020 85 93 3a 3e 25 a1 21 3d fc 96 b1 bb 5b 43 b5 be
       0.18220337 0.03946032 -0.00541961 -0.3540295
000030 1f 2d b0 be 3a 2b 11 3f 13 26 31 be 13 72 c5 3e
       -0.34409425 0.56706583 -0.1729968 0.38563594
000040 34 0c a3 3f 32 b0 b0 3e 01 7f eb 3e fe 65 94 bf
       1.2738099 0.34509426 0.45995334 -1.1593626
000050 7f e9 22 3f 56 f2 f0 be 4f e0 13 bf d4 97 25 3f
       0.63637537 -0.47059888 -0.5776414 0.64684796
000060 f7 3e 80 3f a1 a7 a5 3d e3 b3 ea bc 74 cb 46 3f
       1.0019215 0.08088613 -0.02865023 0.77654195
000070 ab f0 8d bf dd c0 01 3f e0 9c 72 3f 6f 4c bf 3e
       -1.1089071 0.5068491 0.9477062 0.37363002
000080 c2 42 ca 3f 34 dc 60 bf 70 16 cb 3e 15 e9 47 3e
       1.5801623 -0.87836003 0.39665556 0.19522507
000090 e8 57 0e 3e 5a 20 eb 3d b2 9e b0 3e 46 f3 95 3f
       0.13900721 0.1148078 0.34496075 1.1714866
0000a0 0e 88 14 3f c4 12 83 bf 17 5f bd 3f 3c 17 0a 3e
       0.580201 -1.0240102 1.4794644 0.13485426
0000b0 66 fd 3e 3e 7f c1 5b be b6 8e 8c be 94 43 5b 3f
       0.18651351 -0.21460532 -0.2745263 0.8564999
0000c0 6e d4 7e 3e 27 83 fe 3d fb 37 1b bf 87 de ad 3f
       0.24885723 0.12427359 -0.60632294 1.3583535
0000d0 71 46 9f be 07 71 69 3f 23 9c 34 3f 06 41 ad 3e
       -0.3110843 0.9118809 0.70550746 0.3383867
0000e0 40 4b 32 3f 66 63 80 3e 36 99 b2 be 18 06 98 bd
       0.6964607 0.25075835 -0.34882516 -0.07423037
0000f0 ab 58 b9 be 90 d5 4e 3f 93 db 6f bf 4d eb 47 be
       -0.3620046 0.8079462 -0.9369442 -0.19523354
000100 31 3f 6d 3e 43 c5 b7 3f c4 70 c4 3e c3 35 4b bf
       0.23168637 1.4357074 0.38367283 -0.7937891
000110 3a 11 9c 3e f7 8a 03 bf 85 69 89 be 10 43 8b 3e
       0.30481893 -0.5138392 -0.26838318 0.27199602
000120 01 17 ed bc 33 72 4e 3e 1c 42 8f be 66 56 5b bf
       -0.028941633 0.20160751 -0.27980125 -0.8567871
000130 a4 a0 8b 3f 7f f5 23 3f 4d 4c 45 3f 06 41 3a 3f
       1.0908399 0.6404647 0.7706955 0.7275547
000140 bd bf 8c 3f ea ce db be c7 5d 43 3f bc ac 59 3d
       1.0996014 -0.429313 0.7631497 0.053143248
000150 78 3e 15 be 58 90 41 be e1 b9 88 bc 74 c8 d5 3e
       -0.14574611 -0.18902719 -0.016690196 0.41754496
000160 b8 5c bb be c3 d6 69 be 3e 78 0f bf 1e 50 86 3f
       -0.36594176 -0.22835831 -0.5604285 1.04932
000170 28 6f f8 3d f2 58 1e 3f a2 d7 9e 3e fb 28 05 bf
       0.12130576 0.6185447 0.3102389 -0.52015656
000180 f6 ac 2c 3f 9e d0 40 bf 52 ce 12 bf ad e4 8e be
       0.6745142 -0.75318325 -0.5734607 -0.2790884
000190 1d 9d a9 be 77 a1 3d 3f 07 84 05 bd d1 ed 90 be
       -0.3312768 0.740745 -0.032596614 -0.2830644
0001a0 7b 62 c1 bb 2e 39 16 3f e7 bf 82 3f 8f 35 14 3f
       -0.0059016324 0.58681 1.0214814 0.57894224
0001b0 e1 3c 9d 3e 80 05 e8 3e 35 85 83 3e eb 85 4f 3e
       0.3071051 0.45316696 0.25687566 0.2026593
0001c0 5c 52 08 3f 7a 69 55 3f 00 70 1c bf e8 af 87 3f
       0.5325067 0.8336407 -0.611084 1.0600557
0001d0 9f c8 c4 bb 29 d2 7e 3f 19 fe 30 bf 41 61 94 be
       -0.006005361 0.9953943 -0.6913772 -0.2898045
0001e0 1c 1a be be 79 0d 0b 3e 00 6a 22 be fb 34 55 3e
       -0.37129295 0.13579358 -0.15860748 0.20820992
0001f0 6d 0f d8 3d e7 cc 47 3f d5 74 20 bf 89 ee 81 bf
       0.10549817 0.7804703 -0.6267827 -1.015092
000200 b6 10 72 3f 7c 46 0c bf 2f 8d 56 3d 2d 1c 54 3f
       0.9455675 -0.5479505 0.052380737 0.8285549
000210 75 12 d7 bd 4f 7b 4d be 33 76 b0 3e 56 ed 88 bd
       -0.10501567 -0.2006657 0.3446518 -0.06685893
000220 2a 01 7a bf 6e 26 a9 3f bb e5 68 be 4e 5f 98 3d
       -0.97658026 1.3214853 -0.22743885 0.07440053
000230 8b fa 63 bd 50 ba 44 3f e7 e7 11 3f a0 26 b4 be
       -0.05565886 0.7684679 0.5699448 -0.3518572
000240 72 e0 93 be 8b f5 5b bf 87 cc 5a 3d b7 bb c2 3e
       -0.28882176 -0.85921544 0.05341771 0.3803384
000250 b0 ce 1c 3f fa 8c ab 3e d5 f1 cc 3e b4 d7 b1 be
       0.6125288 0.33505994 0.40028253 -0.3473488
000260 35 b0 c1 be a3 32 60 bf db b3 59 be b4 2b 1d bf
       -0.37829748 -0.87577266 -0.21260016 -0.6139481
000270 9c 2e d8 be b7 f9 8c 3f 63 bf 76 bf b5 5f 33 bf
       -0.4222306 1.1013707 -0.9638578 -0.7006791
000280 2a 1a 59 bf cd de 93 3f 97 1f 53 be e9 f3 02 be
       -0.8480555 1.1552368 -0.2061752 -0.12788357
000290 dd 94 ae 3f b7 c5 86 bd 50 f0 cd 3e 6b 64 4b be
       1.363918 -0.0658068 0.40222406 -0.19862525
0002a0 fd 61 88 3f 7a 77 ed 3d 3f 23 c2 3f 8c c2 81 3e
       1.0654904 0.11595054 1.5167006 0.2534374
0002b0 21 ec 6a 3f 26 9e cd 3e f6 d2 a3 3d d5 89 1a 3e
       0.91766554 0.4015972 0.07999222 0.15091641
0002c0 e5 a3 5c 3f 4b 00 1e 3f 5f 23 37 3d 69 68 35 bf
       0.86187583 0.617192 0.044711467 -0.7086244
0002d0 6d a6 82 be b5 b1 87 3f c7 e5 95 3f a0 19 d8 be
       -0.25517598 1.0601107 1.1710747 -0.4220705
0002e0 15 2e c3 3c 23 59 9d 3d 26 3c 20 3f 31 46 f5 3e
       0.023825685 0.07683017 0.6259178 0.47905114
0002f0 ec 0c 2a 3f 3a de f4 bd 23 57 72 3f 3f 68 0e 3f
       0.6642597 -0.11956449 0.9466421 0.55627817
000300 6c 7a 62 bf a6 b5 67 bf 60 7e 8d 3f 57 1b 68 3f
       -0.8846805 -0.9051155 1.1054192 0.9066672
000310 b9 7c 2e 3e 54 6f 92 be ce 87 84 3f d7 33 9e 3f
       0.17039765 -0.28600562 1.0353944 1.235957
000320 3d 26 79 3f 81 0c 16 bf c2 6d 80 3f 67 19 2b be
       0.9732397 -0.5861283 1.0033495 -0.16708909
000330 66 ef 0f 3f 4d 0f 7f 3f 21 8d 05 3f d1 df b9 3f
       0.5622467 0.9963272 0.5216847 1.4521428
000340 cb 7a 8e 3f c3 0d a1 3e e9 4f 3b bd 9c 8a 07 3e
       1.1131223 0.31455812 -0.045730505 0.13236469
000350 30 d6 e5 3e 0d 7e 52 3f ca 28 09 3f 97 ea 49 3f
       0.44889975 0.8222359 0.53577864 0.7887358
000360 4a 15 06 3f df b3 b6 3e ab c1 4e 3e 11 f3 af be
       0.52376235 0.35684106 0.20191066 -0.34365132
000370 0e 61 49 3d bc c9 57 3e 0f a0 5d bd 1b 16 e1 bd
       0.049164824 0.2107305 -0.054107722 -0.109905444
000380 aa 5f 9a 3f 68 24 80 3e e9 d6 f7 3d 3c 55 0a 3f
       1.2060444 0.25027776 0.12101538 0.5403631
000390 ec 27 f5 be 24 78 98 3e af 2e 9b 3f 8c 28 33 be
       -0.4788202 0.2977916 1.2123622 -0.17495936
0003a0 3d ad 9d be be b4 ec be 55 4f d3 3d 81 a4 b7 bc
       -0.30796233 -0.46231645 0.10317866 -0.022417309
0003b0 f3 8f 25 3f 6a 65 1a bf f9 6c 6c bd ac d2 9a bd
       0.64672774 -0.60310996 -0.057721112 -0.07559714
0003c0 78 d8 5a 3e 2d 45 15 bf a8 db 03 bf 56 ab 1a 3f
       0.21371639 -0.5830868 -0.51507044 0.6041769
0003d0 5f b8 64 3f c1 62 1c bf 35 41 c7 3e 4a ba 49 3e
       0.8934383 -0.61088187 0.38916937 0.1969997
0003e0 0d 52 9e 3d e4 f5 29 bf f3 00 6c 3d 25 db 0a 3f
       0.07730494 -0.66390824 0.057618093 0.5424064
0003f0 0f 6c 08 bf a2 81 1e 3f ac 11 59 bf c4 51 ab 3f
       -0.53289884 0.61916554 -0.8479259 1.3384328

fc2.bias f4 [256]
000000 d8 64 55 bf 54 d0 ea 3f 0f d9 87 bb 76 80 d2 be
       -0.83357 1.8344827 -0.0041457484 -0.41113633
000010 29 4a 50 bd c0 cd 13 bc 69 2b 8f bd c2 ec 71 3e
       -0.050851975 -0.009021223 -0.06990702 0.23625472
000020 bf 65 ad 3f 25 72 8b 3c d8 89 06 bf de 5c 09 be
       1.3546675 0.017022202 -0.5255408 -0.13414332
000030 63 44 0c bd 68 22 10 3f 9c 7c 87 bc 04 66 7b 3e
       -0.034244906 0.563025 -0.01653891 0.24550635
000040 a6 01 c5 bd c1 ce e7 3d 7b dd e7 3d e6 7c 66 3e
       -0.09619455 0.11318732 0.11321541 0.22508582
000050 3a 07 80 bd b2 77 f7 bd 6d bf f6 bc 99 f3 51 bd
       -0.06251378 -0.12083377 -0.030120576 -0.051257703
000060 a3 87 45 3e 59 61 c1 3f 80 b0 b8 bd b7 bc 5e bf
       0.19290023 1.5107833 -0.0901804 -0.87006706
000070 c0 27 c0 bd 61 e5 09 3d a6 74 ec 3f 20 f8 1b bd
       -0.09382582 0.03366602 1.8473098 -0.038078427
000080 d9 23 11 be 39 9b 3a bd 33 f7 2e 3c 1e 4f bd be
       -0.14173831 -0.045558188 0.010679054 -0.36974424
000090 be 98 80 bd d8 63 fa bc 96 55 e4 3f be d4 dc 3c
       -0.06279133 -0.030565187 1.7838619 0.026956912
0000a0 d1 a9 f0 bc b1 b3 ca bc d0 99 05 3e 34 be ca bd
       -0.02937785 -0.024743887 0.13046956 -0.098995596
0000b0 0a ab df bd e3 39 af 3f bf 75 da bb 03 44 dc be
       -0.10921295 1.3689541 -0.0066668685 -0.4302064
0000c0 32 f1 e2 bd f8 07 54 bd 49 6d 59 bf b0 93 24 bc
       -0.110811606 -0.051765412 -0.8493238 -0.010044977
0000d0 95 a9 1a be 19 38 c4 be 89 ac 4d bf 4d 9b 34 3e
       -0.15103753 -0.3832405 -0.8034139 0.17637368
0000e0 62 f0 2a bd be 34 94 bd be 85 74 be 35 39 7f bf
       -0.041733153 -0.07236622 -0.23879144 -0.99696666
0000f0 16 1c 95 be 09 f7 10 3f 44 64 09 bd 57 69 9c bd
       -0.2912299 0.56626946 -0.033542886 -0.076372795
000100 dd da 8e bd ad 30 16 bd 43 8a 5d bd 41 ad ca bd
       -0.069753386 -0.036667515 -0.054086935 -0.09896327
000110 4d 01 a3 3e 9c 97 35 3e bd d0 1f 3f 6b 96 77 3d
       0.3183693 0.17733616 0.62427884 0.060446184
000120 40 6c a4 bb 8a 49 d1 bd f9 e3 0a 3d d8 47 eb 3d
       -0.005017787 -0.102191046 0.033908818 0.114883125
000130 87 b2 6e bc 56 51 4f 3e 59 eb f5 bc a6 cc 85 bd
       -0.014568931 0.20245871 -0.03001945 -0.06533174
000140 94 ce 9c bf c3 6f 85 bd a8 41 bf 3f d1 96 8f 3f
       -1.2250543 -0.065154575 1.4941912 1.12179
000150 cb bc 26 bf 7f bd 89 bd ea 8c d6 bd 0d fc 51 bd
       -0.65131825 -0.06725597 -0.10476096 -0.051265765
000160 e1 0c ba 3f e4 4c cf be 39 5a 35 be aa 1e ba be
       1.453518 -0.4048835 -0.17710198 -0.3635152
000170 92 ce ab bc cc bd 51 3f 0b c2 9a bc 89 86 11 be
       -0.020972524 0.8193023 -0.018891355 -0.14211477
000180 a1 c1 5c bd d6 6d af bc e5 36 cd 3f a3 d5 84 bc
       -0.053895596 -0.021414679 1.6032377 -0.016215151
000190 df 1d d8 bd ef 5f d8 bc b2 1b e3 bc a9 ed 1b 3e
       -0.105525725 -0.026412932 -0.027723167 0.15227379
0001a0 17 d1 2c 3e 9e 80 bc bc ab 49 7b bf 2f b5 b0 bd
       0.16876636 -0.023010548 -0.98159283 -0.08628308
0001b0 9c 65 f5 be 79 9c 9a bd b5 24 97 bd 97 32 2a bc
       -0.47929084 -0.07549376 -0.07380048 -0.010388038
0001c0 51 91 b4 bf f5 16 da bd a0 20 97 bd e8 6d a6 bd
       -1.4106847 -0.1064891 -0.073792696 -0.08126432
0001d0 bd 5a 2e bc c5 77 96 3c 27 82 9f bd bd 24 5c 3f
       -0.010641751 0.018367657 -0.077884965 0.8599356
0001e0 ac 37 17 bd 8e ec f6 3b 48 8e 59 bd 51 39 01 3f
       -0.036918327 0.0075355237 -0.053114206 0.5047808
0001f0 03 85 52 3e 35 97 e0 bc 3e 72 c8 bd ea 29 bf bd
       0.20558552 -0.027415851 -0.09787415 -0.09334166
000200 97 32 b6 be 01 b1 15 3d 34 e0 07 40 41 47 91 3e
       -0.35585472 0.036545757 2.1230593 0.28374675
000210 fc 60 88 3e c9 a4 8f bd 71 4c c2 ba c5 4e 8c be
       0.26636493 -0.07013852 -0.0014823807 -0.27403846
000220 d4 36 6f bf d0 69 01 bd a8 41 3f bf b4 14 fe bd
       -0.93443036 -0.03159505 -0.7470956 -0.124062926
000230 04 6e 19 bd 97 4a 26 3f 13 6d 10 be 17 81 39 be
       -0.037458435 0.64957565 -0.14104109 -0.1811565
000240 db a0 e4 bd df 3c 36 bd 01 1f e7 3f 3d 2b 13 3e
       -0.11163493 -0.044491645 1.8056337 0.14371963
000250 bc d7 5a 3e 8d ed 9d bd db 8b a1 bf 12 72 f0 bd
       0.21371359 -0.07711325 -1.2620806 -0.11740507
000260 c6 e6 b6 bd 7c a3 69 bc a2 77 84 bd 26 43 8f bd
       -0.08930735 -0.014260169 -0.06468131 -0.069952294
000270 d6 e7 76 bc 47 8f 8f be 8f 64 eb 3d bb e5 e0 3f
       -0.015069922 -0.28039 0.114937894 1.7570108
000280 f4 2d 5a bd 3c 44 8c be d4 cd 98 bd 87 e1 17 3f
       -0.05326648 -0.2739581 -0.074611336 0.593285
000290 0f 64 3c 3f d5 cc c1 bd c6 fb cb be 84 15 9e bc
       0.7359018 -0.09462897 -0.39840525 -0.019297369
0002a0 41 4d fd bd 78 84 99 bd ca e6 89 3c 5e 51 ce 3c
       -0.12368251 -0.074959695 0.016833682 0.025185283
0002b0 31 e5 5b 3e cd 14 67 bd 88 0e b1 3c f0 93 e6 bc
       0.21474148 -0.05641632 0.021613374 -0.028146714
0002c0 d6 67 45 bd 45 7f 2b bc 2d c6 72 3f e8 e6 75 bf
       -0.04819473 -0.010467355 0.9483364 -0.9605546
0002d0 21 3b 44 bf 93 0a 01 bd 09 73 cc bc 5e fb f5 3f
       -0.76652724 -0.031504225 -0.024957197 1.9217336
0002e0 93 7b 41 be a7 2d 36 be ba ca 2b 3e 28 d5 9b bd
       -0.18894796 -0.17790852 0.16776553 -0.07609016
0002f0 80 6a 8d bf 6a a4 a7 3b cb c4 d1 bd 05 10 6b bd
       -1.1048126 0.005116035 -0.102426134 -0.057388324
000300 82 8f 6f be a4 9d 83 bd 33 bd fd bd e2 b0 8c bd
       -0.23394588 -0.06426552 -0.123896025 -0.06869675
000310 36 e4 02 40 6f 12 53 bd f6 17 16 bc b5 f3 78 3d
       2.045179 -0.05153125 -0.009160986 0.060779292
000320 7b ab 05 bd 58 55 0c bf aa cf a4 bd 27 09 41 bf
       -0.03263424 -0.54817724 -0.08047421 -0.7540459
000330 26 b8 90 bd 0e 5c 54 bd f9 99 db bc eb df c3 bf
       -0.070663735 -0.051845603 -0.026806818 -1.5302709
000340 d2 5c 6d 3b 82 36 a9 3d 52 07 d7 bd 38 d6 70 bd
       0.0036218655 0.0826235 -0.10499443 -0.058798045
000350 74 ff ab bd 57 12 a9 bf 51 4e 19 be 17 f0 c3 3f
       -0.08398333 -1.3208722 -0.14971282 1.5307645
000360 e3 dc da be 50 13 04 bc 90 a1 b5 bd fd 9f a3 bf
       -0.42746648 -0.008061245 -0.08868706 -1.27832
000370 24 bc c4 bd 59 d7 8e bd 11 7f 21 3e e6 29 8c bd
       -0.096061975 -0.06974668 0.15771128 -0.06843929
000380 79 9e fc bb 45 d6 b9 bf 3c ff da bd cf ee 08 bc
       -0.007709321 -1.4518515 -0.10693213 -0.008357718
000390 89 26 b1 bb 45 91 e6 be 21 73 88 bd 1a 63 6b bf
       -0.005406205 -0.45032707 -0.06662584 -0.9194809
0003a0 68 b5 60 bd 8e b3 ca 3f 73 f7 81 be 70 34 a5 bf
       -0.054860502 1.5836046 -0.253841 -1.2906628
0003b0 89 f8 c4 bd 6d 25 07 be 48 0f 91 3f bf ee 82 3f
       -0.09617717 -0.1319787 1.1332788 1.022911
0003c0 05 c1 3f 3e 59 87 5b be f9 c8 c7 be 07 1b d4 3f
       0.18725975 -0.2143835 -0.39020517 1.6570748
0003d0 8b 5e 81 bd 77 ed da bc 86 d1 7d bc 6c c6 c4 be
       -0.06316861 -0.02672456 -0.015491849 -0.38432634
0003e0 60 d1 c1 bf 0b 0c 29 bb 07 2e a6 bd 7f 37 38 bf
       -1.5142021 -0.0025794532 -0.08114248 -0.7195968
0003f0 a6 2a 8a 3b a5 a1 18 bd 85 44 4c bb 1b 95 63 bd
       0.00421651 -0.03726353 -0.003116877 -0.05556212

fc3.weight f4 [256, 256]
000000 22 7b 88 3c 8c 90 7d bd a0 7a 25 bd ef e1 90 bd
       0.016660277 -0.06190543 -0.040400147 -0.070743434
000010 2e 40 2d 3d 81 ed 1d 3c a5 5e 5d bd f6 c0 fd 3c
       0.042297535 0.009639145 -0.05404534 0.0309758
000020 15 03 06 3d 2e 8f 65 3d a9 7c 5b bd 1b d8 29 bd
       0.032717783 0.05604475 -0.053585682 -0.04146586
000030 79 b2 99 3b 0f 8f 48 3d fc 3d 85 3c a6 b2 69 3c
       0.004690465 0.048964556 0.016264908 0.0142637845
000040 dc 8d 35 3b 73 83 5e bd 20 89 c0 bc 4d 93 3a bd
       0.0027702963 -0.05432458 -0.023502886 -0.045550633
000050 ee 86 7f 3d 0b 44 9c 3c be c8 23 3c 7f fe 73 bd
       0.06238454 0.019075414 0.009996591 -0.05956888
000060 0e b5 1d bd e0 5a 7f 3c b6 a2 67 3d b1 f9 b2 bd
       -0.038502745 0.015585631 0.056551658 -0.08739031
000070 f5 36 4b 3d e4 d3 a3 3c a5 47 d4 bd a0 d4 48 3b
       0.049612958 0.019998498 -0.103652276 0.0030644313
000080 bf 5d 27 bc 80 6f 16 3b e9 04 3e bc 7c d8 20 bd
       -0.010215222 0.0022954643 -0.01159785 -0.039268956
000090 e6 f5 1d bd c2 70 c9 3c 7a 5f fc bc 57 ce 38 3d
       -0.038564585 0.0245899 -0.030807246 0.045118656
0000a0 c4 8b ae 3c 2d 4b e1 3c a2 c7 3c bd 34 82 f7 3c
       0.02130688 0.027501667 -0.046088822 0.030213453
0000b0 57 f6 e0 3c 68 87 46 bd f2 16 16 bd 12 4c 61 bd
       0.027461214 -0.048468977 -0.036642976 -0.055004187
0000c0 20 02 d4 bc a6 10 72 bd 75 46 43 bd 74 be 00 bb
       -0.02587992 -0.05909791 -0.047674615 -0.001964477
0000d0 dc 22 98 b8 fb c2 c9 bc a9 be c2 3b bc 40 a4 bc
       -7.254418e-05 -0.024629107 0.0059431386 -0.020050399
0000e0 69 06 b1 bc 46 32 4e 3d 55 dc 9f bd 78 09 52 bd
       -0.021609502 0.050340913 -0.07805697 -0.05127856
0000f0 42 dc 22 bd 0b d9 86 bd 3c 98 b3 3c 1a 9c 2b bd
       -0.039760835 -0.065843664 0.021923177 -0.041896917
000100 3a c1 11 3d 32 f4 23 bd de 68 de bc cf a8 18 bd
       0.035584666 -0.040027805 -0.027149614 -0.037270363
000110 23 4b 93 bd 85 01 16 3d 5d 40 2d bb 11 f8 4e bd
       -0.071920656 0.036622543 -0.0026436069 -0.050529543
000120 89 06 83 3b 00 12 44 bc b9 cc be bc f0 82 5a bd
       0.003998582 -0.011967182 -0.023290979 -0.053347528
000130 30 6e 2d bc 10 31 0c bd c3 ae 12 3d 38 3c 44 bd
       -0.010585353 -0.034226477 0.035811197 -0.04790899
000140 dc 3d b0 bd 3c 31 12 bd c0 ee 0c bd 3c 07 33 3b
       -0.08605549 -0.035691485 -0.034407377 0.0027317544
000150 2d 97 a5 bd 3d 82 17 bd 2f 90 e5 3c e4 ce 15 3d
       -0.08085475 -0.03698944 0.028022854 0.03657426
000160 bc ac d2 bc f1 41 50 3b f3 4d 42 bc d5 49 3b bd
       -0.025717132 0.0031777585 -0.011859405 -0.04572471
000170 35 f1 88 bd b6 c4 8b bd 4d 4d 11 bd 48 22 77 bc
       -0.066866316 -0.06824629 -0.03547411 -0.015083857
000180 4c f7 53 bc d1 91 69 bc 48 e7 5d bd cf 87 97 bd
       -0.012937378 -0.014255957 -0.054175645 -0.0739895
000190 5d 9a 51 3d e7 00 ca 3c 34 1e 00 3d 49 7c 7c bd
       0.051172603 0.024658633 0.031278804 -0.061641965
0001a0 66 dc 92 bd 93 e3 a1 3c 41 6a f3 bb 81 b3 d6 bb
       -0.07170944 0.019761836 -0.007428438 -0.0065521603
0001b0 c7 25 a6 bd 46 eb b0 3b 26 d3 24 bc f4 99 a8 bc
       -0.08112674 0.0053991405 -0.010060107 -0.020581223
0001c0 99 cb c3 bd 98 a6 92 bd 0b c7 67 3b 48 b5 a1 3c
       -0.095603175 -0.071606815 0.0035366442 0.019739762
0001d0 73 17 94 3c f4 14 e2 bc 0c cf 33 bd e0 26 75 bb
       0.018077588 -0.027597882 -0.043898627 -0.0037407205
0001e0 bc 7f 2e bd 77 1c f2 bc 14 25 de bb 65 94 86 bd
       -0.042602286 -0.029554589 -0.0067793224 -0.06571273
0001f0 30 6f 17 3d b2 eb d1 3c 36 ed 5d 3d b8 c8 25 bc
       0.03697127 0.025625084 0.0541813 -0.010118656
000200 8d 68 aa 3c f1 05 6c bd 49 e3 2d bc be 0e 5a bd
       0.020801807 -0.057622854 -0.010613271 -0.053236715
000210 89 47 06 3d 83 10 89 bd b8 e7 3a bc bb be db bc
       0.032783065 -0.066926025 -0.011407785 -0.026824346
000220 44 b6 9c bd 94 ed f9 bc 80 29 ab 3a e8 75 8d bc
       -0.07651952 -0.030508794 0.0013058633 -0.017268136
000230 02 fe 88 3c c7 ae ed 3c 1d e9 99 3c 7d 41 13 bd
       0.016722683 0.029014004 0.018787915 -0.035951126
000240 89 90 21 3d 47 f4 7e 3d ed f5 62 bd c6 19 33 bc
       0.03944448 0.06224468 -0.055410314 -0.010931438
000250 90 c2 90 bd d1 0c 97 bc b2 96 6f bd fd e1 3c bd
       -0.0706836 -0.018438729 -0.058493324 -0.046113957
000260 09 7e 56 bc 6d 87 10 3c 8e 21 3a bc d8 b8 34 3d
       -0.013091573 0.0088213505 -0.011360539 0.044121593
000270 86 7b a3 3d 48 ed 6d bd 3b 70 12 3d 04 66 8c bd
       0.079825446 -0.058087617 0.035751563 -0.068553954
000280 17 b3 c5 bb 19 3c c3 bd 4d 00 3c 3d 24 9d fc bc
       -0.006033312 -0.09532947 0.045898724 -0.03083665
000290 7f 9e fa bb a6 0b 4f bd 7a 16 3f bd be ef 3c bd
       -0.0076482887 -0.05054822 -0.046652295 -0.046127073
0002a0 92 a3 e9 3c 4e e1 f0 bc 70 8d 5d bd ba 2c 5d bb
       0.02852038 -0.029404309 -0.054089963 -0.0033748583
0002b0 f8 cc 7a 3c 7b b0 26 3d 16 c8 17 3c cc e3 02 bd
       0.015307657 0.04069565 0.009264013 -0.031955525
0002c0 ea 75 48 3d 2d 60 eb bc c8 33 5b bd 32 9a dd bc
       0.048940577 -0.028732384 -0.05351618 -0.027051065
0002d0 12 c7 4d bc 3e 9d 55 bd e4 4c 67 bc 5e 8a 96 3c
       -0.012559669 -0.05215191 -0.014117453 0.018376525
0002e0 3e 0c 2e 3d a1 4b 5d bc a4 ae 9e bd 84 0f c3 bc
       0.042492144 -0.013506801 -0.07748154 -0.02381111
0002f0 5e 5f 5a bc 4b 70 44 3d 31 da 14 bd 3c 69 37 3d
       -0.013328401 0.047958653 -0.036340896 0.044778094
000300 07 20 12 3d 0e c8 2d 3c c2 24 5e bc 79 f5 c7 bb
       0.035675075 0.010606779 -0.013558568 -0.0061022607
000310 03 73 3b bd a2 ac 75 3b 58 0c 0c 3b bd 56 a9 bc
       -0.04576398 0.003748693 0.0021369662 -0.020671243
000320 cf 8b 85 bd 8d 07 5e bc 22 24 68 3d c5 08 aa bd
       -0.06520807 -0.013551605 0.056675084 -0.08302454
000330 d8 a3 34 bc ff a5 d7 3c 10 ad c7 bc 19 d4 76 bd
       -0.0110253915 0.02632427 -0.024374515 -0.060260866
000340 c6 fe a1 3c f4 64 98 bc 93 83 45 3d cc 2b 20 bd
       0.019774806 -0.018602826 0.048221182 -0.039104268
000350 cd fb 79 3d 8b 7d 8a bb dd f2 1c 3d 87 7f 64 bd
       0.06103115 -0.0042263917 0.03831755 -0.055785682
000360 68 03 75 3d 37 2a 6e 3b 42 b2 2d 3d a4 71 49 bd
       0.0598177 0.003634108 0.042406328 -0.04918064
000370 40 7f 7e 3c 7d 67 3f bd e0 2c f7 3b 80 19 6a 3c
       0.015533268 -0.046729553 0.0075431913 0.014288306
000380 94 5e 13 3d 3a 2f 8c bd 42 67 69 3c f8 c6 fc bc
       0.03597887 -0.06844945 0.01424581 -0.030856594
000390 3d 06 6f bd a0 c5 37 3d a8 a9 24 3c 66 da 03 3c
       -0.05835556 0.044866204 0.010050215 0.008047676
0003a0 64 10 fc 3c c2 67 ca bd d0 2e 7d bc 75 19 c7 3c
       0.030769534 -0.098830715 -0.0154530555 0.024304131
0003b0 a2 c1 13 bc 14 6b d9 3b 8c 97 de bc fc 1f 6c 3c
       -0.009018334 0.006635079 -0.027171873 0.014411923
0003c0 68 ff 8d bd 1f 19 42 bd ce 43 e2 bb cd 88 87 bd
       -0.069334805 -0.04738724 -0.0069050556 -0.066178896
0003d0 f6 23 55 3d f3 1d ee 3c 4b 7a 06 3d af ff d7 3c
       0.05203625 0.029067015 0.03283147 0.026367037
0003e0 5f 9d 54 bc a0 91 17 bd e4 13 6b 3d 12 a8 a7 bd
       -0.012976973 -0.037004113 0.057392016 -0.08186354
0003f0 c8 be 5f 3b 87 9d 1e bd 60 e4 45 bc 2d 13 42 bd
       0.0034140814 -0.03872445 -0.012078375 -0.04738157

fc3.bias f4 [256]
000000 dc b8 ad bd 1a 79 86 bd a0 43 7c 3b 6e d5 dd bd
       -0.08482525 -0.06566067 0.0038492456 -0.10831724
000010 5c 49 9b bd f9 56 b9 bd 41 c2 63 bd 1b 0c 05 be
       -0.075823516 -0.09049792 -0.055605177 -0.12992899
000020 d9 b8 21 be d3 f5 30 3d 8f 6d 03 be a4 de 84 bc
       -0.1579317 0.043203186 -0.12834762 -0.016219445
000030 87 06 ab bd ab 3a 1a be c1 b7 83 3b 0d f2 32 bc
       -0.08350854 -0.15061443 0.004019708 -0.010921967
000040 b2 d5 df bc 18 f5 53 bf 8f dd 9c 3e 8c 4a 9b 3c
       -0.027323578 -0.8279586 0.30637786 0.018956445
000050 22 ac 46 be a0 88 00 be 96 c5 73 be 2a 74 b3 3e
       -0.19401601 -0.12552118 -0.23805842 0.35049564
000060 ff 55 64 3d 87 fd 23 bd cf 46 72 bf cb 87 a7 bf
       0.055746075 -0.040036704 -0.94639295 -1.3088316
000070 d9 27 5f bf c8 4b 34 3d 5b 16 99 3e dd f7 97 bd
       -0.8717018 0.044017583 0.29899868 -0.07420323
000080 4a 05 99 be 27 c5 21 be 48 34 29 3d aa 47 0f be
       -0.29886848 -0.15797864 0.041309625 -0.13992181
000090 d2 a3 1a 3c 5e 71 c5 bd f5 37 b6 bd 90 08 d8 bd
       0.009438472 -0.09640764 -0.08897392 -0.10548508
0000a0 c4 b8 c6 bd 15 ff a6 bd d1 4f 0c bd e7 da 3c be
       -0.0970321 -0.08154122 -0.034255806 -0.1844288
0000b0 e8 73 61 3e 1f 63 2e be 82 bb 9f bd 12 85 5d bd
       0.22016871 -0.17029999 -0.07799436 -0.054081984
0000c0 a1 72 ae bd f4 d4 13 bc 97 35 f7 bd 08 b7 2f bd
       -0.085179575 -0.00902294 -0.12070768 -0.04289916
0000d0 8e 54 52 bf 00 c2 7c 3a cc 97 d0 bd de 67 bb be
       -0.8216027 0.00096419454 -0.10185203 -0.36602682
0000e0 1d a8 58 be 67 d4 87 bd dc df 27 40 d8 2c 1f bf
       -0.2115788 -0.066323094 2.6230383 -0.621778
0000f0 bc 4d 85 3f 7d d6 a9 bd 84 69 db bd b6 4c 88 3e
       1.0414348 -0.082928635 -0.10713485 0.26621026
000100 36 39 da be 2c 7b 51 bd fc 7f f1 bc b1 cc 1b be
       -0.42621773 -0.051142856 -0.029479973 -0.15214802
000110 6d ca 85 bd 5c 84 94 be a7 88 dc bd 1e aa 98 bd
       -0.0653275 -0.29007232 -0.10768252 -0.07454322
000120 36 43 10 3f c9 21 8f 3e aa 39 a0 be 10 c5 e7 bd
       0.56352556 0.27955464 -0.31293994 -0.113168836
000130 05 e4 7a bd 8f d4 73 3c 30 4b 8f bb 74 c4 c5 bd
       -0.061252613 0.014882221 -0.0043729767 -0.09656611
000140 01 44 c0 bd 02 be ba bd e4 b3 37 3f 33 19 27 bd
       -0.09387971 -0.09118272 0.71758866 -0.040795516
000150 e4 7c c0 bd be a3 25 be c4 e3 2a bc dc 2b 75 3d
       -0.09398821 -0.16175744 -0.01043028 0.05985628
000160 0a 6f 0c be 1f e2 17 be 0c 4b fc bd f9 db 08 bd
       -0.13714233 -0.14832352 -0.123190016 -0.033412907
000170 76 f6 43 bc a5 e8 c8 bd ae e2 e3 be ae 5d 73 bd
       -0.011960616 -0.098099984 -0.4450888 -0.05941551
000180 7e 33 5d bd a1 28 4b be d7 7a ee 3d a8 62 e4 bc
       -0.054004185 -0.19839717 0.116445236 -0.027879074
000190 f5 e9 3a bd 1c aa bf bd 2f f5 06 bc 06 eb e4 bd
       -0.045633275 -0.09358618 -0.008237167 -0.1117764
0001a0 f4 39 86 be cc a8 7a bd b6 1e ab 3b be bd fe 3d
       -0.2621609 -0.061196133 0.005222167 0.12438534
0001b0 47 19 c0 bd 56 53 aa 3d 0a d0 cc bd 96 4e c0 be
       -0.09379821 0.08316676 -0.10000618 -0.37559956
0001c0 97 77 e9 bd c3 75 e7 bd cf 8c 48 3d 93 1d 0e bd
       -0.11399763 -0.11301758 0.04896241 -0.034696173
0001d0 fb 9c e3 bd 50 72 bb bd b4 56 7e 3d 24 ea e9 bd
       -0.11113926 -0.09152663 0.062094405 -0.11421612
0001e0 79 0e 08 bd 05 b2 09 bd f5 ce ba bd 79 db 56 bd
       -0.033216927 -0.03361704 -0.09121505 -0.0524554
0001f0 c1 ba b6 bd b8 73 60 bd 55 85 c3 be fb cd 10 bd
       -0.08922339 -0.054797858 -0.38187662 -0.03535269
000200 68 2e 03 bd de a4 6c be b6 7e cc 3d c6 d4 63 ba
       -0.03202668 -0.23109767 0.09985106 -0.00086910685
000210 3c fb be bd 68 60 dc bd 61 b8 fa bd 6f c0 36 3e
       -0.09325263 -0.107605755 -0.12242199 0.17846845
000220 f8 f2 70 3d e6 ed 14 3e 37 3d cd bd 46 f8 68 be
       0.058825463 0.14543876 -0.100214414 -0.22750959
000230 e8 9a c0 bd 3f 57 52 bc 57 45 81 3d 0b 15 eb 3d
       -0.09404546 -0.012838184 0.06312054 0.11478623
000240 d6 25 06 bf 8e 25 eb bd 36 4f b5 3c 8f 06 88 be
       -0.52401483 -0.11481772 0.022132497 -0.26567504
000250 9b ba d4 bd cc 9c ad 3d 3e 8a f5 3d 6d c2 7c bf
       -0.10387155 0.08477172 0.11989258 -0.9873417
000260 06 48 1d be 2b 11 00 3c 0f 64 0c 40 79 84 e2 bd
       -0.15359506 0.007816593 2.193607 -0.110604234
000270 a0 94 80 be 58 32 e6 bd e0 86 22 bd 72 7a 95 bd
       -0.25113392 -0.11240071 -0.039679408 -0.07298745
000280 60 6b b9 3e 91 1b 26 bf 1b f9 4f be a0 78 7f 3d
       0.36214733 -0.64885813 -0.2030987 0.062370896
000290 f9 85 77 be 7f f2 36 be b7 d6 a1 bd d8 ba 12 be
       -0.241722 -0.17865942 -0.07902282 -0.14329088
0002a0 67 18 91 bc ff ab 10 bd 00 fe 99 bd df 58 7c 3e
       -0.017711831 -0.03532028 -0.0751915 0.24643277
0002b0 7f 05 4f be 30 26 f1 bd f5 59 31 3f 13 6b c1 bd
       -0.2021694 -0.11774862 0.6927789 -0.09444251
0002c0 74 5c 6e be 8f 60 e3 bd 8a 15 1d 3e df d4 38 be
       -0.23277456 -0.111024015 0.15340248 -0.18049954
0002d0 a6 b3 1b be fc c0 30 bf 26 23 1a bd 07 4a bc bc
       -0.15205249 -0.6904447 -0.037631176 -0.022984518
0002e0 94 f6 a7 3f d7 9b 7f 3d c1 d7 cb bd a2 50 3d bd
       1.3122125 0.06240448 -0.09953261 -0.046219476
0002f0 02 43 1c be f7 59 b1 bd 1e 45 13 be 8a cf 17 be
       -0.15259936 -0.086597376 -0.14381835 -0.14825264
000300 da 5e a7 bd f1 98 34 bd 1d 07 1b bf ed 61 c4 bd
       -0.081723884 -0.04409117 -0.6055773 -0.0958899
000310 d2 f7 08 40 fe 30 2b bd 1c 9d 3e 3c ce ef b7 3d
       2.1401258 -0.04179477 0.0116341375 0.08981286
000320 ca 1d 7e 3d 45 8a d9 bd 32 ce bb bd b1 40 19 3e
       0.062040128 -0.10622076 -0.09170188 0.14966084
000330 c8 5f 5a 3d 11 97 9d bd f4 5a e8 bd 3b e9 5e bd
       0.053314 -0.07694829 -0.11345473 -0.054421645
000340 29 2e 66 bd e1 fb 39 be 1e fb da bd 22 c9 f7 3d
       -0.056196366 -0.1816249 -0.10692428 0.1209891
000350 e4 ee 87 bd 82 fe ab bc 3e f8 2d 3f 09 89 e3 3e
       -0.06637362 -0.020995382 0.6795691 0.44440487
000360 42 ce c9 bc 4c 19 36 bd 64 87 fc bb da 86 2e bd
       -0.024634484 -0.04445772 -0.0077065695 -0.042609073
000370 a4 a0 a8 3f 39 72 84 bf b4 0d 39 bc 73 f1 cb bc
       1.3174024 -1.0347358 -0.011294771 -0.024895405
000380 d6 10 af be df d9 43 bd 01 0c c7 bd cd 9e b5 bd
       -0.34192532 -0.0478152 -0.097190864 -0.088681795
000390 37 ba 3f bf e7 90 97 bb f0 70 c2 bd be a7 be bd
       -0.74893516 -0.004625428 -0.09494197 -0.09309338
0003a0 83 8f a2 be 78 cc 4a 3f 2d 50 81 bd 3a de 6a bd
       -0.31750116 0.79218245 -0.063141204 -0.057340838
0003b0 8f b3 29 bd 2f a2 c8 3d af 04 cc bd db 0f 09 bd
       -0.041431006 0.09796559 -0.09961831 -0.033462387
0003c0 ea 51 3b bd 19 35 a4 bd 68 1f 28 3e af ff 89 bd
       -0.045732416 -0.0801794 0.1641823 -0.06738221
0003d0 6c de 11 be 28 b9 cd bd a6 e1 83 3c 35 39 94 3e
       -0.14245003 -0.100450814 0.016098808 0.28949896
0003e0 6d af 24 bd 72 79 db bd a8 47 2e be b4 53 9a 3e
       -0.04020636 -0.10716523 -0.17019522 0.30141985
0003f0 9c f3 56 bd d8 88 18 bd 43 eb 66 bd 93 93 82 ba
       -0.052478418 -0.03723988 -0.056376707 -0.0009962193

fc4.weight f4 [256, 256]
000000 6a da 0b 3d 1e 11 0b bd fb 2e 01 bd ba 12 69 3c
       0.034143843 -0.03395187 -0.031538945 0.014225656
000010 e1 93 ee 3d 28 84 b4 3d 2f 8b d6 3d bc a2 7e bc
       0.116492994 0.08814269 0.10475766 -0.015541729
000020 df 5c 49 bd d8 23 4b be c7 e6 a1 bd 89 6a 85 be
       -0.049160834 -0.19837892 -0.079053454 -0.26057842
000030 14 f2 c0 3c 26 d3 4b 3d cd 72 fd 3c 4d 13 75 be
       0.023552932 0.049761914 0.03093853 -0.23933144
000040 1b 73 7b 3d de e4 65 be e0 2a 81 be 71 e8 7c bb
       0.06138907 -0.22450587 -0.25228024 -0.0038590694
000050 43 df e7 bd 55 b5 9f 3c af c6 f3 3c 00 39 e4 bd
       -0.11321881 0.019495646 0.029757826 -0.111436844
000060 89 f2 c9 3d 42 d6 6c 3d d3 b5 86 bd 43 12 73 bd
       0.09860713 0.05782152 -0.06577649 -0.059343588
000070 f4 33 6d 3c 8c 57 ab 3d 6a 0a 4e 3e 05 11 ab 3c
       0.014477719 0.083663076 0.2012116 0.020882139
000080 2f e1 9c bb 8e 69 55 3d 8a 29 8e 3d 8c 9d 0f 3b
       -0.004787586 0.052102618 0.06941517 0.0021913974
000090 59 7f 8f bd 4c cc 46 3c f5 45 83 3d 2c ad 0c 3d
       -0.070067115 0.012133669 0.064098276 0.034344837
0000a0 aa 4d 4d bc 29 35 17 3e 79 05 16 bd ad 3b fa 3d
       -0.012530724 0.14766373 -0.036626313 0.122184135
0000b0 a7 40 91 3d 1a b4 06 be 6d 3f 4f 3d 14 8c b1 3c
       0.070924096 -0.13154641 0.050597597 0.02167324
0000c0 3f d7 a5 ba bc 27 fe 3d e6 a4 1e bb 38 c9 20 3d
       -0.0012652649 0.124099225 -0.0024207174 0.039254397
0000d0 ba f7 09 bc 2b 02 05 3d b2 b3 bf 3d f9 3f 16 be
       -0.008420879 0.03247277 0.09360446 -0.14672841
0000e0 78 bb 13 3d 92 ff 8d bc b2 bb 1b bf 2e 7b 01 3d
       0.036067456 -0.01733378 -0.60833275 0.031611614
0000f0 a2 7f 5c be ac bb 58 3d 7b e2 3e 3d 4e ea 5f bd
       -0.21533063 0.052913353 0.046602707 -0.05466681
000100 94 65 71 3c 7a 0e f3 bd 40 d8 2b 3d 7f 74 07 bd
       0.014733691 -0.118679956 0.04195428 -0.033070084
000110 5f 8a 42 3c e4 af 91 3d e5 f3 9e 3d 49 4f aa bd
       0.011873811 0.071136266 0.07761363 -0.08315904
000120 d1 df aa bd 5b 20 89 3d 8f 93 59 be 35 2f 2a bd
       -0.08343471 0.066956244 -0.21247695 -0.041548926
000130 c3 a4 72 bc ef ba 38 3e ee 0b 36 bd 6a e5 39 3d
       -0.01480979 0.1804006 -0.04444497 0.045384802
000140 e5 92 09 be 46 70 96 3d fc 35 b1 bd 04 5c bc bc
       -0.13434942 0.07345633 -0.08652875 -0.022993095
000150 39 24 f5 3d d5 ab 84 bd 95 c3 df 3d 6c 9a 17 be
       0.119697995 -0.06478087 0.10925976 -0.14805001
000160 0b 89 76 bc c2 01 63 3d d2 63 1c 3d b1 02 86 3d
       -0.015047322 0.0554216 0.038181134 0.06543482
000170 62 55 8a 3d af 77 4c 3a 86 7b 38 bd d6 06 89 3c
       0.06754567 0.00077998167 -0.045039676 0.016726892
000180 b0 9f 5d 3d 56 ee 13 bd 1f 17 e7 bc 01 02 73 bd
       0.054107368 -0.036115967 -0.028209267 -0.059328083
000190 5b 4c c8 bc 4a 71 83 be 18 47 6f bc bf de 1a ba
       -0.024450472 -0.2567237 -0.014604352 -0.00059078255
0001a0 b3 c2 0e bc b0 f9 0a bd e5 d9 c9 3d 11 15 7c 3d
       -0.008713412 -0.033929527 0.09856013 0.061543528
0001b0 da 7c de 3c 63 6c 6c 3e 96 96 dd 3c e4 c9 0b bc
       0.027159143 0.23088221 0.027049344 -0.008532021
0001c0 16 0b 44 be 37 e5 2d 3d 8c 39 01 3e b5 f2 d1 3c
       -0.19144854 0.042454924 0.12619609 0.025628427
0001d0 99 10 80 3d e8 b4 e2 bc eb 64 74 3e 68 c6 a3 bc
       0.06253166 -0.027674153 0.23866622 -0.019992068
0001e0 d3 9b 47 bd 42 94 46 3c f6 8d d4 bd b0 c6 17 3d
       -0.04873259 0.012120308 -0.103786394 0.037054718
0001f0 ee a9 c8 bb 5f da a9 bc 2e 70 d5 bd 04 56 b8 bd
       -0.006123773 -0.02073401 -0.10421787 -0.09000781
000200 9c 7a 57 3c 40 27 48 bd ef be 82 3e 77 06 ba 3c
       0.013151791 -0.048865557 0.25536296 0.02270816
000210 d0 6b 6a 3a 87 bc d6 bb 65 b0 0f bc 45 83 3c be
       0.0008942457 -0.006553236 -0.008770083 -0.1840945
000220 9f 28 23 3e 0c 68 41 3e c9 0a 25 bd 48 5e a3 bc
       0.15933464 0.18887347 -0.04029349 -0.019942418
000230 e8 ef 5e 3d af 99 2c 3d ae b2 1e bd 95 65 1b 3e
       0.05442801 0.04213875 -0.03874462 0.15175469
000240 e9 72 5c bd 7c 17 09 3e 64 1b 90 3b 2a 1c 14 bd
       -0.053820524 0.13387865 0.0043977965 -0.03615967
000250 87 38 94 bd f8 b1 d2 3d bf bc a7 3e af 79 f2 3c
       -0.07237344 0.10287851 0.3276119 0.029599039
000260 c1 df 26 bd e3 89 b0 ba 4f b0 bf 3d 3e 04 f6 3c
       -0.040740732 -0.0013468828 0.093598 0.03003132
000270 ba e5 76 3c fc ce 12 bd 19 e4 a9 bc 7a 89 0b bd
       0.0150694195 -0.035841927 -0.020738648 -0.034066655
000280 40 6b 80 be 67 93 04 bd ae 2e 13 be 2e d8 5f be
       -0.25081825 -0.032367136 -0.14373276 -0.2185981
000290 ae 9b 1e bd 54 8d 08 be ea ac 52 bb d9 a5 d9 3d
       -0.038722686 -0.13335162 -0.0032146522 0.10627336
0002a0 98 69 58 bd 10 99 ac 3d 92 fc 9c 3d f4 5c 1c be
       -0.052835077 0.08427632 0.076653615 -0.15269834
0002b0 86 14 08 bd ed 27 55 bd 10 c3 8c bd 9c 89 86 ba
       -0.033222698 -0.05204003 -0.06873143 -0.00102644
0002c0 e9 ee 13 be 24 b2 d9 3c 8e ef 02 be 92 c0 5e be
       -0.14446606 0.026574202 -0.12786695 -0.21753147
0002d0 16 69 15 3e 5b 67 96 bd 69 a4 89 3d 9f 3b b2 bc
       0.14590868 -0.07343932 0.06720812 -0.021756945
0002e0 89 b1 90 bd 7e 20 17 3e fc 6a a2 3d 68 01 73 3c
       -0.07065112 0.14758489 0.07930562 0.014831878
0002f0 77 99 22 bd 39 fc 9d bc 04 f5 ad 3d 08 17 8b 3d
       -0.039697137 -0.019285308 0.08493999 0.06791502
000300 43 57 df bc 09 5b 5f 3d d7 96 88 3b e6 73 3c bd
       -0.02726329 0.054530177 0.004168372 -0.046008967
000310 7e 93 88 be 8f 7a 0c bd 77 1a c9 bc f4 41 8d 3d
       -0.26675028 -0.03429657 -0.024548752 0.06897345
000320 82 69 40 3e 50 1d 3c 3d e1 89 9a 3d 71 31 92 3d
       0.18790248 0.045926392 0.075458296 0.071383364
000330 77 63 67 3e 89 b0 68 bd 69 8c 7f bd f6 ca ff 3c
       0.22596537 -0.056808982 -0.062389765 0.031224709
000340 a7 9a 05 3d 49 68 1f 3e 34 cf a1 bc 70 f5 ca 3d
       0.03261819 0.15567125 -0.019752122 0.09910095
000350 b8 f1 58 3b 82 b2 85 bd ce 43 d2 ba 9b 81 86 be
       0.003310306 -0.06528188 -0.0016041936 -0.26270756
000360 19 44 0f 3e d0 15 d6 b9 a1 11 c2 bd 99 17 b9 bc
       0.13990821 -0.00040833512 -0.09476019 -0.02259426
000370 9a 44 07 bd f5 5a 1b bd 44 b6 d4 be fa bb 30 bd
       -0.033024408 -0.03792854 -0.41545308 -0.04314802
000380 84 c4 2a 3d 80 4c 98 3d 1b 8e 55 bc 63 2b 23 3c
       0.04169132 0.07436466 -0.013034369 0.009959075
000390 e7 27 0e bf 04 5e ba 3d 66 11 cb 3c 5c c1 f1 bb
       -0.55529636 0.09099963 0.02478857 -0.0073777866
0003a0 dd d1 84 3e c8 e0 8d bd 19 14 13 be 5a b3 38 3d
       0.25941363 -0.06927639 -0.14363135 0.045092918
0003b0 3b 14 ee bc a5 0e ca 3d 50 43 4d bd 2a 9b 18 3d
       -0.029062381 0.098660745 -0.050113022 0.03725735
0003c0 b1 86 a2 bc 20 a1 09 3d c3 f3 55 3c 88 48 9d 3d
       -0.019839616 0.033600926 0.013058606 0.0767985
0003d0 02 4e 9b 3c 98 da 6f 3d 84 8b a2 3d ea 9f e6 bb
       0.018958095 0.058558077 0.07936767 -0.007038106
0003e0 b5 93 e2 bd 7b 0d df 3c ab d6 75 3c a2 cb 81 bd
       -0.11063329 0.027228108 0.015004794 -0.06337668
0003f0 60 32 ca bc 93 85 3e 3d c5 22 83 3c 2f b6 b4 3d
       -0.024682224 0.046514105 0.01600779 0.08823811
